checkpoints/version117/model.pt (torch, 31278 bytes, 13 tensors)

bias f4 [175]
00000000: ce8c 963f 5225 1240 4ed4 1fbf ea67 a73f
00000010: a2c7 093d 8ab0 f43f e920 fb3f b2b7 2640
00000020: 87b2 ce3f 4b84 4040 c941 ac3f 8a2f c53f
00000030: 93b3 1e3e 6e9e e5bd bfec b43c de3c 0c40
00000040: 353a 4fbd dd82 81bd 7360 08bd db25 3240
00000050: d4d8 963e 8d53 b93f b660 c83f bba7 cdbe
00000060: e212 e6bf 8872 5b40 28c8 7a3f ce24 b53f
00000070: 5933 833f 4618 2640 7530 033f adde 223d
00000080: 359e 9a3f 4183 903d 14fa 1f3f 6706 6f40
00000090: 19ec 333f cccf 8b3f 7a6d e73f ce6f b73f
000000a0: c597 0b40 88e4 c33f 5b4b 4a3e 6903 c63e
000000b0: 3569 cc3f 4277 48be 650f f53e fc0a 373e
000000c0: 69e1 a33e dfc7 983e da73 0d3f 5a49 023f
000000d0: 80db 853f b3a4 603e 8bcd 723e d3b1 a53f
000000e0: 5d5f c0be 9489 313f de05 293e 457f bbbe
000000f0: fda0 a8bd 09d5 5e3d 4072 383f 39ba 343f
00000100: c7f4 953d 56d9 a93e 795d adbb 3651 b53e
00000110: f056 273f 3cbb d13f 8233 aebe 7f4c 983f
00000120: 0149 ab3f 0cbc 603f 7dde 923f d8c0 7d3f
00000130: 3afd ab3f 18b1 c23f 6cd7 c23f 430e 0a40
00000140: 651e aa3f d3f8 f93f 727f 7c3f 2871 2940
00000150: c5cd ae3f 5be6 9e3f 8f61 3d40 7e8a 5b40
00000160: aecf be3f 357a 853f fb0f 873f f7be d3be
00000170: 75ba 5c40 01b2 45bd 35cd 753f f903 bf3e
00000180: b863 6140 e947 d23e e138 39bf 05cc 023e
00000190: c936 1440 72ea 6d3f 5bad bd3f 6251 eb3f
000001a0: 84b7 7a3f 5dd5 0a40 b139 c03f 5ceb c03f
000001b0: b40a c93f 277d 0040 a8d5 823f 0508 9bbe
000001c0: 131e b03d cb54 1040 aa2c 983f 504d 1240
000001d0: 8d99 1e3e 9a37 1140 ea8e ec3f a50a 0640
000001e0: 02b8 2540 375d dd3f 3836 0540 a931 1240
000001f0: 58e5 2940 694c ae3f c54a 223e 8246 8ebd
00000200: ef00 5b3f 64d5 b43f aceb 903e 733a 463e
00000210: 9c1b 7bbd d31e 0040 a053 b53f dc19 893d
00000220: f4ad 5bbd dc88 b43f 8b26 0b3f 7e73 7a3f
00000230: e4e0 233f 66e0 cd3e 2391 923f 8ed2 af3e
00000240: 4546 cfbd df1a cb3f 29ea a93f 7035 a13f
00000250: a6a6 253f 78b9 debd aeef 843e 0511 c1bd
00000260: 4640 d73f 58e9 753f a8bd 4540 f262 0340
00000270: c390 903f 0b9a 5a40 2b20 983e d875 a73e
00000280: 9b65 603f 5606 78bf 0715 103f afb3 953f
00000290: 2777 c73f d04c 3240 6431 5a3f b6d3 ab3f
000002a0: 7ae8 6a3f b9e8 ee3f b9b5 0140 520a c73f
000002b0: 46b6 963f eb47 df3e 0c54 a13e
1.176172 2.2835279 -0.62433326 1.3078587 0.03363765 1.9116375 1.9619418 2.6049619
1.6148232 3.0080745 1.3457576 1.5405133 0.1549819 -0.11211859 0.022085546 2.191215
-0.05059262 -0.06323788 -0.033295106 2.7835605 0.29462302 1.4478623 1.5654514 -0.4016703
-1.7974513 3.4288654 0.97961664 1.4151857 1.0250045 2.5952315 0.51245815 0.03976314
1.2079531 0.07056285 0.62490964 3.7347658 0.7028213 1.092279 1.8080285 1.4330995
2.1811383 1.5304117 0.19755308 0.38674477 1.5969607 -0.19576743 0.47863308 0.17875284
0.32007912 0.2983999 0.552549 0.50893176 1.0457611 0.21937828 0.23711221 1.2944893
-0.37572756 0.6935055 0.16506144 -0.36620536 -0.08233831 0.054402385 0.7204933 0.70596653
0.07322078 0.33173627 -0.005290684 0.35413522 0.6536703 1.6385264 -0.34023672 1.1898345
1.3381654 0.87786937 1.1474148 0.9912238 1.3436654 1.5210295 1.5221992 2.1571205
1.3290526 1.952906 0.98631966 2.6475315 1.3656546 1.2414049 2.9590795 3.430328
1.4907129 1.042792 1.0551752 -0.41356632 3.4488804 -0.04826546 0.96016246 0.37307718
3.5217113 0.41070488 -0.72352415 0.1277314 2.3158438 0.9293586 1.4818529 1.8384211
0.9793627 2.1692727 1.5017606 1.5071826 1.5706391 2.0076387 1.0221453 -0.30279556
0.08599486 2.2551754 1.188863 2.2859688 0.15488262 2.2690187 1.8481114 2.0943997
2.589356 1.7294072 2.0814342 2.284281 2.654623 1.3617069 0.15848835 -0.06947042
0.855483 1.4127622 0.28304803 0.19358234 -0.061305627 2.0018814 1.4166145 0.066943854
-0.05363269 1.4104266 0.54355687 0.9783248 0.6401503 0.40210265 1.1450542 0.34340328
-0.10120825 1.5867575 1.3274585 1.2594433 0.6470741 -0.10875219 0.2596411 -0.09427074
1.681649 0.9605918 3.0897007 2.0529141 1.1294178 3.415652 0.29712042 0.32707095
0.8765504 -0.9688467 0.56282085 1.169546 1.5583237 2.7859383 0.85231614 1.3423984
0.9176098 1.8664771 2.0267165 1.5550025 1.1774375 0.43609557 0.31509435

weight f4 [9, 175]
00000000: 76cd b13d 7e3b 653f 0453 fa3d 83d4 c53c
00000010: a255 293e 4950 7b3f 4ed2 603f 53cd 8b3f
00000020: 1556 bd3f c03b 9d3f 9e3d 633f d34e 893f
00000030: ee04 dcbc ec5a 473f 145b 633e ad38 083f
00000040: 85ed ae3e 7501 c33e bc7a ed3e 3268 a33f
00000050: 8ff5 1c3c 7cb1 483f 2e48 5c3f 17d3 07bc
00000060: 203f d53f 25b3 903f f4d6 ea3f 572e 423f
00000070: 1288 073f e364 4e3b 24c1 993f 31a7 343f
00000080: 8bef 843f e713 f13f 1d82 a63c 77c8 cb3e
00000090: ec55 0e3f dee3 003f 1f62 703f 0c23 963f
000000a0: a873 3b3f 9fd9 50bd 747f 703f 41ee 4a3f
000000b0: dce1 033f 17aa 403f 0027 153e 4c17 cfbc
000000c0: 6f64 593c 2ebf 093e d624 eb3e 4007 1a3f
000000d0: 202a 173f 585b fd3e aae3 083f 95ee f73d
000000e0: db12 99bb 7cdb 893f 0d51 083f 1262 743f
000000f0: e8c9 203f 73f0 103f efda 18ba 0418 79bc
00000100: f7c1 6cbb ae58 523f 8327 f83e fa23 7b3f
00000110: f350 643e e44a 583f 5335 e63e 903d 9f3e
00000120: a0e9 2e3f e95f 063f 4aa9 273f d1ff 183f
00000130: 1519 0b3f 37af 343f 857d d23e f826 183f
00000140: 2c66 dc3e b58f 423f 0ab7 423f 03f8 5a3f
00000150: f9d5 ec3e 6d84 ee3e 39ae 6c3f a193 4e3f
00000160: 16ab eb3d b636 753f 4bcf 243f fb8c fb3e
00000170: 7daf f93d 65f4 f73e 489f 6f3f a67c 533f
00000180: fa2a a63f 589f 463f 02bf 333f 029e a73f
00000190: 0dc9 a03f 3e37 da3f 0885 253c 1373 373e
000001a0: 44a8 663e 2212 783d 0d0f db3f c140 513f
000001b0: 2959 363f 2912 853f 207d 853e 7663 2bbd
000001c0: 76eb 903f ea0a 9a3f f10b 8b3f e7fa 9b3f
000001d0: 2ca1 aa3f c9fe 563f b51f 873f 0292 873f
000001e0: ae59 8f3f 2fbc 663f 51e0 663f 65ba 363f
000001f0: b605 943f b87d ec3e e9e8 213f 0e60 8d3d
00000200: a53c 1d3f 08ed 7a3f f70f 963f 0e37 463b
00000210: 370f b23f 9ba6 533f 2005 5b3d 0bfe 3d3f
00000220: 057b de3e 6553 343f 4bad 823e effb 093f
00000230: 761c 5c3f e2b5 7f3f 1065 283f 7b29 2c3e
00000240: a2e3 b63e 16a1 a43f 7a20 ee3e 7666 063f
00000250: 4635 963e d876 f53e aaf9 013f aa0b ee3e
00000260: cb9e 443f 8efb 0a3f 9b26 5c3f bb32 5a3f
00000270: 08f0 543f 4d75 843f 625a 233f 7b19 c33f
00000280: a5c8 1e3f 6bad 4b3f f164 b53f d3e9 9b3f
00000290: e8d9 263f 1b4b 173f e4c1 b03e 505a 263f
000002a0: 6727 433f eab6 123f 2a13 0b3e 9276 2c3f
000002b0: 5d08 3b3f 232d 8d3f 60ac 003f fd9f 113f
000002c0: 2c48 7a3f 22f9 7f3f d3ed 293f d578 f73f
000002d0: 90c6 433f 581f 613f 5930 683f 3605 b33c
000002e0: 789a 593f 0f24 eb3e b266 613e 071c ac3f
000002f0: c998 403b 8c7a 643d 90e8 963f 1b3c 86bd
00000300: 5b8b f33c 2ffb 47bd d170 463f cf5e 843f
00000310: 860f d13e ee93 263f 297d df3e ae4e ba3b
00000320: 6422 2b3f c328 45bd 5edd 3b3f bda0 183f
00000330: 3f0e ef3f 15c4 923c 36fe c6bb b7fb 883e
00000340: 6610 133d b772 cc3f db3a b23f 8710 a73e
00000350: a90a 1b3f 02e1 01be 7925 443e 5942 8d3f
00000360: 0847 2d3f 371a a93c 868a f33d 37d1 763f
00000370: 1a7f 663c a122 393f 2a98 4a3f 2feb 293f
00000380: e65c 493f 65bf 8a3e 2b05 8e3e 437d 2a3f
00000390: 89ff 61bc 9569 243d 03cc 2a3f df0b 6e3f
000003a0: 18a8 89bc 8c73 5e3d 9fa9 34bd 856f c13d
000003b0: bba1 c93d f852 593f 603a c23f 4688 893f
000003c0: 9f71 f9bc e766 97bc bff1 2fbb e1ef 023f
000003d0: d813 273f 28b3 a8bd c58d 613d 3bc1 283f
000003e0: e56c 363f d92e 193f 1fc3 193f f930 6e3f
000003f0: 488f 1d3f 4e09 483f 4f65 133f 9b78 5f3f
0.08681767 0.895439 0.12222865 0.024149185 0.16536573 0.9816938 0.878209 1.0922035
1.4791895 1.2283859 0.88765895 1.072718 -0.02685782 0.7787311 0.22202712 0.5321148
0.34165588 0.3808705 0.463827 1.2766173 0.00958003 0.7839582 0.8604764 -0.008290074
1.6659889 1.130467 1.8346848 0.7585196 0.52942 0.0031493239 1.2012067 0.70567614
1.0385603 1.8834199 0.020325715 0.3980138 0.55599856 0.503477 0.9389972 1.1729445
0.7322335 -0.05098879 0.9394448 0.79269797 0.5151651 0.75259537 0.14565659 -0.025279664
0.013268574 0.13451836 0.4592654 0.6016731 0.5904865 0.49483752 0.5347239 0.12106053
-0.004671437 1.0770106 0.53248674 0.95462143 0.62808084 0.56616896 -0.00058309635 -0.01520348
-0.0036126354 0.82166564 0.48467645 0.9810177 0.22296505 0.84489274 0.44962558 0.31101656
0.68325233 0.524901 0.6549269 0.59765345 0.5433515 0.70579857 0.4111139 0.5943446
0.430467 0.7600053 0.76060545 0.85534686 0.46256998 0.46585408 0.9245334 0.80694014
0.115072414 0.9578661 0.64378804 0.49130997 0.12191675 0.48428646 0.9360242 0.82612073
1.2981865 0.7758689 0.7021333 1.3095095 1.2561356 1.7048109 0.010102518 0.17914991
0.22525126 0.060564168 1.7113968 0.8173943 0.712298 1.0396167 0.26072025 -0.0418429
1.1321857 1.2034581 1.0863019 1.2185944 1.3330436 0.8398252 1.0556551 1.0591433
1.1199243 0.90130895 0.9018603 0.71378165 1.1564243 0.46189666 0.6324602 0.069030866
0.6142066 0.9801793 1.1723622 0.0030245217 1.3910893 0.82676095 0.053471684 0.74215764
0.4345323 0.7043975 0.25522837 0.53900045 0.8598093 0.99886906 0.6577921 0.16812699
0.35720545 1.286166 0.46509153 0.52500093 0.2933752 0.47942233 0.5077158 0.46493274
0.768048 0.5429009 0.8599641 0.8523366 0.8317876 1.0348297 0.6380979 1.5242151
0.6202491 0.7956149 1.417143 1.2180732 0.6517625 0.59098977 0.34522927 0.64981556
0.76232 0.57310355 0.1358153 0.67368424 0.73059636 1.10294 0.50263023 0.5688475
0.97766376 0.9998952 0.66378516 1.933375 0.7647486 0.8793845 0.9069877 0.02185307
0.85001326 0.45925948 0.22011831 1.3446053 0.0029387942 0.055780932 1.1789722 -0.06554433
0.029729536 -0.04882353 0.77515894 1.0341433 0.40832156 0.6506947 0.43650177 0.005685649
0.6684935 -0.048134577 0.73384655 0.5962027 1.8676223 0.017915765 -0.006072785 0.26754543
0.03590431 1.5972508 1.3924211 0.32629797 0.6056314 -0.1268349 0.1915492 1.1035873
0.6768651 0.020642383 0.118916556 0.96412987 0.014068389 0.72318465 0.79138434 0.66374487
0.78657377 0.27099147 0.27738318 0.66597384 -0.0137938345 0.040139753 0.6671755 0.92986864
-0.016803786 0.054309413 -0.044107076 0.09445099 0.09845301 0.84892225 1.5174065 1.0744712
-0.030449687 -0.018481685 -0.0026846973 0.51147276 0.65264654 -0.08237296 0.055066843 0.65919846
0.7125991 0.5983711 0.60063356 0.93043476 0.61546755 0.781392 0.5757646 0.87293404

bias f4 [175]
00000000: 0000 0000 0000 0000 0000 0000 0000 0000
00000010: 0000 0000 0000 0000 0000 0000 0000 0000
00000020: 0000 0000 0000 0000 0000 0000 0000 0000
00000030: 0000 0000 0000 0000 0000 0000 0000 0000
00000040: 0000 0000 0000 0000 0000 0000 0000 0000
00000050: 0000 0000 0000 0000 0000 0000 0000 0000
00000060: 0000 0000 0000 0000 0000 0000 0000 0000
00000070: 0000 0000 0000 0000 0000 0000 0000 0000
00000080: 0000 0000 0000 0000 0000 0000 0000 0000
00000090: 0000 0000 0000 0000 0000 0000 0000 0000
000000a0: 0000 0000 0000 0000 0000 0000 0000 0000
000000b0: 0000 0000 0000 0000 0000 0000 0000 0000
000000c0: 0000 0000 0000 0000 0000 0000 0000 0000
000000d0: 0000 0000 0000 0000 0000 0000 0000 0000
000000e0: 0000 0000 0000 0000 0000 0000 0000 0000
000000f0: 0000 0000 0000 0000 0000 0000 0000 0000
00000100: 0000 0000 0000 0000 0000 0000 0000 0000
00000110: 0000 0000 0000 0000 0000 0000 0000 0000
00000120: 0000 0000 0000 0000 0000 0000 0000 0000
00000130: 0000 0000 0000 0000 0000 0000 0000 0000
00000140: 0000 0000 0000 0000 0000 0000 0000 0000
00000150: 0000 0000 0000 0000 0000 0000 0000 0000
00000160: 0000 0000 0000 0000 0000 0000 0000 0000
00000170: 0000 0000 0000 0000 0000 0000 0000 0000
00000180: 0000 0000 0000 0000 0000 0000 0000 0000
00000190: 0000 0000 0000 0000 0000 0000 0000 0000
000001a0: 0000 0000 0000 0000 0000 0000 0000 0000
000001b0: 0000 0000 0000 0000 0000 0000 0000 0000
000001c0: 0000 0000 0000 0000 0000 0000 0000 0000
000001d0: 0000 0000 0000 0000 0000 0000 0000 0000
000001e0: 0000 0000 0000 0000 0000 0000 0000 0000
000001f0: 0000 0000 0000 0000 0000 0000 0000 0000
00000200: 0000 0000 0000 0000 0000 0000 0000 0000
00000210: 0000 0000 0000 0000 0000 0000 0000 0000
00000220: 0000 0000 0000 0000 0000 0000 0000 0000
00000230: 0000 0000 0000 0000 0000 0000 0000 0000
00000240: 0000 0000 0000 0000 0000 0000 0000 0000
00000250: 0000 0000 0000 0000 0000 0000 0000 0000
00000260: 0000 0000 0000 0000 0000 0000 0000 0000
00000270: 0000 0000 0000 0000 0000 0000 0000 0000
00000280: 0000 0000 0000 0000 0000 0000 0000 0000
00000290: 0000 0000 0000 0000 0000 0000 0000 0000
000002a0: 0000 0000 0000 0000 0000 0000 0000 0000
000002b0: 0000 0000 0000 0000 0000 0000
0.0 0.0 0.0 0.0 0.0 0.0 0.0 0.0
0.0 0.0 0.0 0.0 0.0 0.0 0.0 0.0
0.0 0.0 0.0 0.0 0.0 0.0 0.0 0.0
0.0 0.0 0.0 0.0 0.0 0.0 0.0 0.0
0.0 0.0 0.0 0.0 0.0 0.0 0.0 0.0
0.0 0.0 0.0 0.0 0.0 0.0 0.0 0.0
0.0 0.0 0.0 0.0 0.0 0.0 0.0 0.0
0.0 0.0 0.0 0.0 0.0 0.0 0.0 0.0
0.0 0.0 0.0 0.0 0.0 0.0 0.0 0.0
0.0 0.0 0.0 0.0 0.0 0.0 0.0 0.0
0.0 0.0 0.0 0.0 0.0 0.0 0.0 0.0
0.0 0.0 0.0 0.0 0.0 0.0 0.0 0.0
0.0 0.0 0.0 0.0 0.0 0.0 0.0 0.0
0.0 0.0 0.0 0.0 0.0 0.0 0.0 0.0
0.0 0.0 0.0 0.0 0.0 0.0 0.0 0.0
0.0 0.0 0.0 0.0 0.0 0.0 0.0 0.0
0.0 0.0 0.0 0.0 0.0 0.0 0.0 0.0
0.0 0.0 0.0 0.0 0.0 0.0 0.0 0.0
0.0 0.0 0.0 0.0 0.0 0.0 0.0 0.0
0.0 0.0 0.0 0.0 0.0 0.0 0.0 0.0
0.0 0.0 0.0 0.0 0.0 0.0 0.0 0.0
0.0 0.0 0.0 0.0 0.0 0.0 0.0

_ei_mask f4 [175]
00000000: 0000 803f 0000 803f 0000 803f 0000 803f
00000010: 0000 803f 0000 803f 0000 803f 0000 803f
00000020: 0000 803f 0000 803f 0000 803f 0000 803f
00000030: 0000 803f 0000 803f 0000 803f 0000 803f
00000040: 0000 803f 0000 803f 0000 803f 0000 803f
00000050: 0000 803f 0000 803f 0000 803f 0000 803f
00000060: 0000 803f 0000 803f 0000 803f 0000 803f
00000070: 0000 803f 0000 803f 0000 803f 0000 803f
00000080: 0000 803f 0000 803f 0000 803f 0000 803f
00000090: 0000 803f 0000 803f 0000 803f 0000 803f
000000a0: 0000 803f 0000 803f 0000 803f 0000 803f
000000b0: 0000 803f 0000 803f 0000 803f 0000 803f
000000c0: 0000 803f 0000 803f 0000 803f 0000 803f
000000d0: 0000 803f 0000 803f 0000 803f 0000 803f
000000e0: 0000 803f 0000 803f 0000 803f 0000 803f
000000f0: 0000 803f 0000 803f 0000 803f 0000 803f
00000100: 0000 803f 0000 803f 0000 803f 0000 803f
00000110: 0000 803f 0000 803f 0000 803f 0000 803f
00000120: 0000 803f 0000 803f 0000 803f 0000 803f
00000130: 0000 803f 0000 803f 0000 803f 0000 803f
00000140: 0000 803f 0000 803f 0000 803f 0000 803f
00000150: 0000 803f 0000 803f 0000 803f 0000 803f
00000160: 0000 803f 0000 803f 0000 803f 0000 803f
00000170: 0000 803f 0000 803f 0000 803f 0000 803f
00000180: 0000 803f 0000 803f 0000 803f 0000 803f
00000190: 0000 803f 0000 803f 0000 803f 0000 803f
000001a0: 0000 803f 0000 803f 0000 803f 0000 803f
000001b0: 0000 803f 0000 803f 0000 803f 0000 803f
000001c0: 0000 803f 0000 803f 0000 803f 0000 803f
000001d0: 0000 803f 0000 803f 0000 803f 0000 803f
000001e0: 0000 803f 0000 803f 0000 803f 0000 803f
000001f0: 0000 803f 0000 803f 0000 803f 0000 803f
00000200: 0000 803f 0000 803f 0000 803f 0000 803f
00000210: 0000 803f 0000 803f 0000 803f 0000 803f
00000220: 0000 803f 0000 803f 0000 803f 0000 803f
00000230: 0000 803f 0000 803f 0000 803f 0000 803f
00000240: 0000 803f 0000 803f 0000 803f 0000 803f
00000250: 0000 803f 0000 803f 0000 803f 0000 803f
00000260: 0000 803f 0000 803f 0000 803f 0000 803f
00000270: 0000 803f 0000 803f 0000 803f 0000 803f
00000280: 0000 803f 0000 803f 0000 803f 0000 803f
00000290: 0000 803f 0000 803f 0000 803f 0000 803f
000002a0: 0000 803f 0000 803f 0000 803f 0000 803f
000002b0: 0000 803f 0000 803f 0000 803f
1.0 1.0 1.0 1.0 1.0 1.0 1.0 1.0
1.0 1.0 1.0 1.0 1.0 1.0 1.0 1.0
1.0 1.0 1.0 1.0 1.0 1.0 1.0 1.0
1.0 1.0 1.0 1.0 1.0 1.0 1.0 1.0
1.0 1.0 1.0 1.0 1.0 1.0 1.0 1.0
1.0 1.0 1.0 1.0 1.0 1.0 1.0 1.0
1.0 1.0 1.0 1.0 1.0 1.0 1.0 1.0
1.0 1.0 1.0 1.0 1.0 1.0 1.0 1.0
1.0 1.0 1.0 1.0 1.0 1.0 1.0 1.0
1.0 1.0 1.0 1.0 1.0 1.0 1.0 1.0
1.0 1.0 1.0 1.0 1.0 1.0 1.0 1.0
1.0 1.0 1.0 1.0 1.0 1.0 1.0 1.0
1.0 1.0 1.0 1.0 1.0 1.0 1.0 1.0
1.0 1.0 1.0 1.0 1.0 1.0 1.0 1.0
1.0 1.0 1.0 1.0 1.0 1.0 1.0 1.0
1.0 1.0 1.0 1.0 1.0 1.0 1.0 1.0
1.0 1.0 1.0 1.0 1.0 1.0 1.0 1.0
1.0 1.0 1.0 1.0 1.0 1.0 1.0 1.0
1.0 1.0 1.0 1.0 1.0 1.0 1.0 1.0
1.0 1.0 1.0 1.0 1.0 1.0 1.0 1.0
1.0 1.0 1.0 1.0 1.0 1.0 1.0 1.0
1.0 1.0 1.0 1.0 1.0 1.0 1.0

weight f4 [2, 175]
00000000: 142f 873f 35fe 3bbe ccd6 8b3c 51db 8c3e
00000010: 8c2c fb3e 8f54 3a3d 7d7f 653e 8a69 2c3f
00000020: 633d be3e 4bab 363f 3006 a0be 5b6f 6b3d
00000030: 1f40 28bf 02ba 833e cf8d 4bbb eb5a cb3d
00000040: 8bec 943d c177 9a3c 60ae d63b af61 c93e
00000050: 7f85 2f3e b456 aebe 1f9f b63d 71a2 91bc
00000060: 3211 bd3f bf1a 483f 9c08 43bc 78b6 d0be
00000070: 6ffc d0be 7b50 89be f4ad d53e 6886 66bd
00000080: 3e4a fdbc 56c4 213f c929 8f3e 55fc 8f3e
00000090: 95e7 2d3d 00be 26be 1dda bd3e d3e9 cebc
000000a0: 6a66 363f 6f45 a03e a662 cb3e 6edd e6be
000000b0: 2338 ad3e 31f0 12bf 82cf d53c f089 b6ba
000000c0: 7c2d 573e 4abf 203f 91b5 d33d 3c36 303e
000000d0: 0018 a73e 2429 213e c3e0 1f3e 1a52 44bf
000000e0: 2593 a93d 0ca8 a0bd 3ebd 803e 30ee 453f
000000f0: d6f6 1b3e 2ccb d4bc 75cb a93e 6f65 09bf
00000100: 42f8 79be 3222 f83c 9413 5cbe 2683 88be
00000110: fea8 7d3d df28 363e 4003 ccbd 6399 343d
00000120: 6a3c 953d e76b a0be a1e2 2b3c 4b9f 4fbe
00000130: 6767 71be e43e c5ba 97b7 1abe 1415 993e
00000140: d95f 463d 1f24 fd3d 8aee bfbe 9ca2 073d
00000150: a543 75be 3751 743d 77fa b53c 29bf 5e3c
00000160: cbb6 30be 192e 4a3e e8dd cb3e b7c1 423e
00000170: 17f3 943d b379 033e 1dd0 823e 8986 4f3e
00000180: 1b8f 41be 87fa e33d 8d25 4f3e 31af c43c
00000190: c419 e8be 262e adbe 5cb9 30bd b01b 48be
000001a0: ffbc 633d bbbe 0abd 07ec 04be e916 2e3e
000001b0: e9aa d1be e931 2c3e 5d4b 84be 04cb ac3b
000001c0: 5427 a23d 69f0 14bd e484 8cbe c888 983e
000001d0: 033d 5d3d 98ac 3bbf 3159 f33e a61c 033e
000001e0: 94af dbbd ddd0 893e ee78 fbbd 2b0f f4bc
000001f0: 6b60 4cbe 33c7 e03d bc48 1eb8 882c 23bd
00000200: 69af 003e 6a8a d9be 8318 bbbe 141a 163e
00000210: e13c 903d 4318 56be ec47 e3bd 52a4 3d3e
00000220: 1651 013f 4095 853e e21c 073e 4f7f 06be
00000230: a41a bb3e 5324 003e 4a17 923f 38d8 a73e
00000240: a36f a33d 9b0a 7ebd d9c1 743e c091 71bf
00000250: b84b fb3e 926b 533d f74d 153b b0ca c9bc
00000260: 2c3b d4bd 7a94 eebd 0c2d 91bc 8877 703e
00000270: 9c2a 6d3d a9a2 e03c cac8 903d 4b52 85bf
00000280: 4cae 213f 3331 163e 5f7a 003f a90e 763e
00000290: 04f5 593d 10d4 14be 6141 f6be ce94 e63d
000002a0: fdba 94be 0ff4 413d f566 27be 0d80 643d
000002b0: efa9 fc3d 3748 05bf e826 fabd a43d 81bf
000002c0: 8ed1 213e 90af e0bd e3cd 3abe 1441 43bf
000002d0: 1a73 dcbb aee2 66be 1944 14bf 5bf2 03bf
000002e0: 6505 3cbf 38eb b23e c165 4dbd c178 083f
000002f0: 7365 80be 8132 85bc 1bbc 67bd 916b 35bd
00000300: ae38 d0bb caab 553a 23b8 9fbe 8bae 06be
00000310: 0a02 b53e 89dc f7bd 5280 843c d853 bebf
00000320: 6d2c 44bf d796 3dbd f103 e93e c8b2 c23e
00000330: 5413 963e 89a8 c1be eab9 36bc 0227 6039
00000340: bccc 34bf 2097 7cbe e408 15be 7df4 54bd
00000350: 56fc 3c3e fda8 f1be 8a1f 3cbd 69a0 1ebf
00000360: 9043 97be a510 c1be 7bc1 cb3e 9332 d5be
00000370: 080a 103f be27 933c 3e54 10bc a8ba 57be
00000380: 9bb2 21bf c95b 4cbf 3e4e 35bf 6186 b1be
00000390: 711b 24be 5c66 d9bd 111f 473f 295a a1bd
000003a0: a057 8cbb 3198 88be ab96 60bf 70d6 5bbe
000003b0: 6dcc 80bd b946 90be 888b 0c3f 62b7 883e
000003c0: 88ad 3ebd 2b2e 863e ff73 6a3e 2fab babd
000003d0: d533 82be 66fe a73d 5cb9 90bc dc75 8ebd
000003e0: 323b b83e 35b7 5fbd f18f 4e3e 524d 933e
000003f0: 799d 9fbd f5ca 4c3c 40a6 babe 480d 03bd
1.0561242 -0.18358691 0.017070197 0.27511075 0.49057424 0.045490798 0.22411914 0.6734854
0.3715621 0.7135512 -0.3125472 0.057479244 -0.6572284 0.2572785 -0.0031059866 0.099294506
0.072716795 0.018855931 0.006551549 0.3933234 0.17140768 -0.34050524 0.08917069 -0.017777653
1.4770873 0.7816581 -0.011903908 -0.40764213 -0.40817592 -0.26819214 0.41734278 -0.056280524
-0.03091919 0.6319021 0.27961567 0.28122202 0.042457182 -0.16283417 0.3708047 -0.02525798
0.7125002 0.31302974 0.397237 -0.45090812 0.3383189 -0.57397753 0.026099924 -0.0013926607
0.21013445 0.62791884 0.103373654 0.17208189 0.32635498 0.1573835 0.15613084 -0.7668778
0.08280019 -0.078445524 0.2514438 0.7731657 0.15230879 -0.025975786 0.33163038 -0.536704
-0.24411109 0.030289743 -0.21491843 -0.26662558 0.06192874 0.17789029 -0.099615574 0.044091593
0.07286914 -0.31332323 0.010491044 -0.20275609 -0.23574601 -0.001504865 -0.15109096 0.29898894
0.04843125 0.12360405 -0.37486678 0.03311406 -0.23951586 0.059647765 0.022214158 0.013595381
-0.1725723 0.19744147 0.3981774 0.19019209 0.07272928 0.12839393 0.25549403 0.20266165
-0.18902247 0.11131769 0.20229168 0.024009319 -0.45332158 -0.3382427 -0.043145522 -0.19541812
0.055600163 -0.0338733 -0.12980662 0.17000927 -0.40950707 0.16815914 -0.25838748 0.005273225
0.079176575 -0.036362085 -0.27445138 0.29791856 0.054013263 -0.7331023 0.47528985 0.12803897
-0.10726848 0.26917163 -0.12278925 -0.029792389 -0.19958656 0.10975494 -3.7737875e-05 -0.03983739
0.12566914 -0.42488414 -0.36542138 0.14658386 0.07042862 -0.20907693 -0.110977024 0.18519714
0.5051435 0.2609043 0.13194612 -0.13134502 0.36543763 0.12513857 1.1413357 0.3278215
0.079802774 -0.062021833 0.23902072 -0.9436302 0.49081206 0.05161626 0.0022782066 -0.024632782
-0.10362849 -0.116494134 -0.017721675 0.23483098 0.057901964 0.027421312 0.070695475 -1.0415739
0.6315658 0.14667206 0.50186723 0.2402903 0.05321218 -0.1453402 -0.48096755 0.11258851
-0.2904891 0.047351893 -0.16347869 0.05578618 0.123371 -0.52063316 -0.12214452 -1.0096936
0.15802595 -0.10970986 -0.18242602 -0.76271176 -0.0067275884 -0.22547409 -0.5791641 -0.5154168
-0.7344573 0.34945083 -0.05014587 0.53309256 -0.250774 -0.016259434 -0.056575876 -0.044292036
-0.006354413 0.0008150904 -0.31195173 -0.1315252 0.35353118 -0.121026106 0.01617447 -1.4869337
-0.7663029 -0.04628643 0.4551082 0.38027024 0.2931162 -0.37823895 -0.011152724 0.00021376836
-0.706249 -0.24667025 -0.14554173 -0.051990975 0.18455634 -0.4719924 -0.045928515 -0.61963516
-0.29543734 -0.3770801 0.3979605 -0.41640148 0.56265306 0.017963286 -0.008809147 -0.21067297
-0.63163155 -0.79827553 -0.70822513 -0.34672835 -0.16026093 -0.106152266 0.7778178 -0.07878525
-0.0042829067 -0.26678613 -0.877299 -0.2146852 -0.06288991 -0.28178957 0.5490041 0.2670241
-0.04655221 0.26207098 0.22895811 -0.09114682 -0.2543017 0.082028195 -0.017666511 -0.06956074
0.35982662 -0.05461808 0.20172097 0.28769928 -0.077937074 0.012499561 -0.36454964 -0.031995088

bias f4 [175]
00000000: 0000 0000 0000 0000 0000 0000 0000 0000
00000010: 0000 0000 0000 0000 0000 0000 0000 0000
00000020: 0000 0000 0000 0000 0000 0000 0000 0000
00000030: 0000 0000 0000 0000 0000 0000 0000 0000
00000040: 0000 0000 0000 0000 0000 0000 0000 0000
00000050: 0000 0000 0000 0000 0000 0000 0000 0000
00000060: 0000 0000 0000 0000 0000 0000 0000 0000
00000070: 0000 0000 0000 0000 0000 0000 0000 0000
00000080: 0000 0000 0000 0000 0000 0000 0000 0000
00000090: 0000 0000 0000 0000 0000 0000 0000 0000
000000a0: 0000 0000 0000 0000 0000 0000 0000 0000
000000b0: 0000 0000 0000 0000 0000 0000 0000 0000
000000c0: 0000 0000 0000 0000 0000 0000 0000 0000
000000d0: 0000 0000 0000 0000 0000 0000 0000 0000
000000e0: 0000 0000 0000 0000 0000 0000 0000 0000
000000f0: 0000 0000 0000 0000 0000 0000 0000 0000
00000100: 0000 0000 0000 0000 0000 0000 0000 0000
00000110: 0000 0000 0000 0000 0000 0000 0000 0000
00000120: 0000 0000 0000 0000 0000 0000 0000 0000
00000130: 0000 0000 0000 0000 0000 0000 0000 0000
00000140: 0000 0000 0000 0000 0000 0000 0000 0000
00000150: 0000 0000 0000 0000 0000 0000 0000 0000
00000160: 0000 0000 0000 0000 0000 0000 0000 0000
00000170: 0000 0000 0000 0000 0000 0000 0000 0000
00000180: 0000 0000 0000 0000 0000 0000 0000 0000
00000190: 0000 0000 0000 0000 0000 0000 0000 0000
000001a0: 0000 0000 0000 0000 0000 0000 0000 0000
000001b0: 0000 0000 0000 0000 0000 0000 0000 0000
000001c0: 0000 0000 0000 0000 0000 0000 0000 0000
000001d0: 0000 0000 0000 0000 0000 0000 0000 0000
000001e0: 0000 0000 0000 0000 0000 0000 0000 0000
000001f0: 0000 0000 0000 0000 0000 0000 0000 0000
00000200: 0000 0000 0000 0000 0000 0000 0000 0000
00000210: 0000 0000 0000 0000 0000 0000 0000 0000
00000220: 0000 0000 0000 0000 0000 0000 0000 0000
00000230: 0000 0000 0000 0000 0000 0000 0000 0000
00000240: 0000 0000 0000 0000 0000 0000 0000 0000
00000250: 0000 0000 0000 0000 0000 0000 0000 0000
00000260: 0000 0000 0000 0000 0000 0000 0000 0000
00000270: 0000 0000 0000 0000 0000 0000 0000 0000
00000280: 0000 0000 0000 0000 0000 0000 0000 0000
00000290: 0000 0000 0000 0000 0000 0000 0000 0000
000002a0: 0000 0000 0000 0000 0000 0000 0000 0000
000002b0: 0000 0000 0000 0000 0000 0000
0.0 0.0 0.0 0.0 0.0 0.0 0.0 0.0
0.0 0.0 0.0 0.0 0.0 0.0 0.0 0.0
0.0 0.0 0.0 0.0 0.0 0.0 0.0 0.0
0.0 0.0 0.0 0.0 0.0 0.0 0.0 0.0
0.0 0.0 0.0 0.0 0.0 0.0 0.0 0.0
0.0 0.0 0.0 0.0 0.0 0.0 0.0 0.0
0.0 0.0 0.0 0.0 0.0 0.0 0.0 0.0
0.0 0.0 0.0 0.0 0.0 0.0 0.0 0.0
0.0 0.0 0.0 0.0 0.0 0.0 0.0 0.0
0.0 0.0 0.0 0.0 0.0 0.0 0.0 0.0
0.0 0.0 0.0 0.0 0.0 0.0 0.0 0.0
0.0 0.0 0.0 0.0 0.0 0.0 0.0 0.0
0.0 0.0 0.0 0.0 0.0 0.0 0.0 0.0
0.0 0.0 0.0 0.0 0.0 0.0 0.0 0.0
0.0 0.0 0.0 0.0 0.0 0.0 0.0 0.0
0.0 0.0 0.0 0.0 0.0 0.0 0.0 0.0
0.0 0.0 0.0 0.0 0.0 0.0 0.0 0.0
0.0 0.0 0.0 0.0 0.0 0.0 0.0 0.0
0.0 0.0 0.0 0.0 0.0 0.0 0.0 0.0
0.0 0.0 0.0 0.0 0.0 0.0 0.0 0.0
0.0 0.0 0.0 0.0 0.0 0.0 0.0 0.0
0.0 0.0 0.0 0.0 0.0 0.0 0.0

_ei_mask f4 [175]
00000000: 0000 803f 0000 803f 0000 803f 0000 803f
00000010: 0000 803f 0000 803f 0000 803f 0000 803f
00000020: 0000 803f 0000 803f 0000 803f 0000 803f
00000030: 0000 803f 0000 803f 0000 803f 0000 803f
00000040: 0000 803f 0000 803f 0000 803f 0000 803f
00000050: 0000 803f 0000 803f 0000 803f 0000 803f
00000060: 0000 803f 0000 803f 0000 803f 0000 803f
00000070: 0000 803f 0000 803f 0000 803f 0000 803f
00000080: 0000 803f 0000 803f 0000 803f 0000 803f
00000090: 0000 803f 0000 803f 0000 803f 0000 803f
000000a0: 0000 803f 0000 803f 0000 803f 0000 803f
000000b0: 0000 803f 0000 803f 0000 803f 0000 803f
000000c0: 0000 803f 0000 803f 0000 803f 0000 803f
000000d0: 0000 803f 0000 803f 0000 803f 0000 803f
000000e0: 0000 803f 0000 803f 0000 803f 0000 803f
000000f0: 0000 803f 0000 803f 0000 803f 0000 803f
00000100: 0000 803f 0000 803f 0000 803f 0000 803f
00000110: 0000 803f 0000 803f 0000 803f 0000 803f
00000120: 0000 803f 0000 803f 0000 803f 0000 803f
00000130: 0000 803f 0000 803f 0000 803f 0000 803f
00000140: 0000 803f 0000 803f 0000 803f 0000 803f
00000150: 0000 803f 0000 803f 0000 803f 0000 803f
00000160: 0000 803f 0000 803f 0000 803f 0000 803f
00000170: 0000 803f 0000 803f 0000 803f 0000 803f
00000180: 0000 803f 0000 803f 0000 803f 0000 803f
00000190: 0000 803f 0000 803f 0000 803f 0000 803f
000001a0: 0000 803f 0000 803f 0000 803f 0000 803f
000001b0: 0000 803f 0000 803f 0000 803f 0000 803f
000001c0: 0000 803f 0000 803f 0000 803f 0000 803f
000001d0: 0000 803f 0000 803f 0000 803f 0000 803f
000001e0: 0000 803f 0000 803f 0000 803f 0000 803f
000001f0: 0000 803f 0000 803f 0000 803f 0000 803f
00000200: 0000 803f 0000 803f 0000 803f 0000 803f
00000210: 0000 803f 0000 803f 0000 803f 0000 803f
00000220: 0000 803f 0000 803f 0000 803f 0000 803f
00000230: 0000 803f 0000 803f 0000 803f 0000 803f
00000240: 0000 803f 0000 803f 0000 803f 0000 803f
00000250: 0000 803f 0000 803f 0000 803f 0000 803f
00000260: 0000 803f 0000 803f 0000 803f 0000 803f
00000270: 0000 803f 0000 803f 0000 803f 0000 803f
00000280: 0000 803f 0000 803f 0000 803f 0000 803f
00000290: 0000 803f 0000 803f 0000 803f 0000 803f
000002a0: 0000 803f 0000 803f 0000 803f 0000 803f
000002b0: 0000 803f 0000 803f 0000 803f
1.0 1.0 1.0 1.0 1.0 1.0 1.0 1.0
1.0 1.0 1.0 1.0 1.0 1.0 1.0 1.0
1.0 1.0 1.0 1.0 1.0 1.0 1.0 1.0
1.0 1.0 1.0 1.0 1.0 1.0 1.0 1.0
1.0 1.0 1.0 1.0 1.0 1.0 1.0 1.0
1.0 1.0 1.0 1.0 1.0 1.0 1.0 1.0
1.0 1.0 1.0 1.0 1.0 1.0 1.0 1.0
1.0 1.0 1.0 1.0 1.0 1.0 1.0 1.0
1.0 1.0 1.0 1.0 1.0 1.0 1.0 1.0
1.0 1.0 1.0 1.0 1.0 1.0 1.0 1.0
1.0 1.0 1.0 1.0 1.0 1.0 1.0 1.0
1.0 1.0 1.0 1.0 1.0 1.0 1.0 1.0
1.0 1.0 1.0 1.0 1.0 1.0 1.0 1.0
1.0 1.0 1.0 1.0 1.0 1.0 1.0 1.0
1.0 1.0 1.0 1.0 1.0 1.0 1.0 1.0
1.0 1.0 1.0 1.0 1.0 1.0 1.0 1.0
1.0 1.0 1.0 1.0 1.0 1.0 1.0 1.0
1.0 1.0 1.0 1.0 1.0 1.0 1.0 1.0
1.0 1.0 1.0 1.0 1.0 1.0 1.0 1.0
1.0 1.0 1.0 1.0 1.0 1.0 1.0 1.0
1.0 1.0 1.0 1.0 1.0 1.0 1.0 1.0
1.0 1.0 1.0 1.0 1.0 1.0 1.0

weight f4 [175, 3]
00000000: 35aa 3c3f 68e4 4bc0 145f c53e a34d c33e
00000010: dae8 99be cc46 9b40 d47a 1bc0 dec9 913e
00000020: 3a07 3abf b05f 1d40 e8ab 83c0 39d6 c6bf
00000030: cf59 cc3f 190b 7540 a3d3 5ec0 63b3 e6be
00000040: e846 b9bf c741 a440 3808 87c0 cda7 20bf
00000050: 0690 56c0 77bb 54bf 13c5 fa3f ca75 d83e
00000060: 4a8d 4140 d080 4c3f 7b67 82c0 5171 f43f
00000070: fef9 8bbf 3a00 2940 d887 0f40 f890 7d3d
00000080: 5e8d cebf 4517 83c0 9ef9 933f a227 37bf
00000090: c301 7940 b737 523f 4ebd 3cc0 8640 3140
000000a0: 3f7a e83e 0fa0 6cbf 882a dabf ed28 bf3e
000000b0: 3028 b1bf 7cd6 ce3f 15a1 e53f ace6 c13f
000000c0: c2ae 5ac0 5515 e4be 10a8 04bf 71cb 5e40
000000d0: 8ff3 b9be 3e92 00c0 a22d 4fc0 2c8c 4bc0
000000e0: e2d5 333f d28f c4bf 121a 0dc0 d9e2 603f
000000f0: f75f 903f 3d09 8ebf 7969 ad3f b315 d83f
00000100: 1961 dbbf cb13 85bf d7ad c03f 5fac 99c0
00000110: b72f 0540 db3d 8cc0 02d8 933f adab f13f
00000120: 89bf 5540 1b31 27bf b97a f4be f973 b7bf
00000130: f2f1 2a40 8900 e940 6859 d53e 31d9 933f
00000140: e4c9 eb3c 9974 9e3f 4587 8d3e 11dd df3f
00000150: f277 d4bf 0ae5 c63f 59a9 8f40 c7c8 8f3d
00000160: 5b37 53bf cf76 86c0 bfc1 c0bf b3a8 22be
00000170: 8015 24c0 0454 de3e e23a 1f40 437f 943e
00000180: 2f50 1f3f 3dda 173f 8f30 21c0 b2d0 2340
00000190: 8757 10bf e8a3 6bc0 f7b6 5a3f 00d2 a4bf
000001a0: bd87 be3f 1e4c 44c0 20e4 9a40 e767 783f
000001b0: 124e 78bf 1608 72c0 011e 9c3f ca00 33c0
000001c0: 8205 02c0 a14b f23f 15d1 45be 1bad 3740
000001d0: f9fc 8040 cb3c 2a3f 52b0 dc3e 516a 79c0
000001e0: 1e5d 38c0 6d56 1d40 e21c 85bf 03cf b93f
000001f0: 8073 ecbe 1b72 0e40 91f2 0bc0 a122 1cc0
00000200: 9572 91bf 8e52 dabf 6d73 9ebf c197 62c0
00000210: 4e56 6040 0c47 ad3f 4598 3e3f abc8 eb3e
00000220: c5d3 bdbe 6988 b63e 2c70 c63f 72d1 c6bf
00000230: be4a a5be 88f5 3ec0 3618 9f3e bab9 0dc0
00000240: b056 d4be afbb 193f 5682 313e 4567 99bf
00000250: 8a64 bd3f 102e c93f a6de 4d40 a597 623f
00000260: 4af7 06c1 b821 363f d02e 46bf 552a dbc0
00000270: f8f5 11c0 fe0b d43e f302 3fbf 1b2e 92bd
00000280: 374b cbbe 93df d3bf b2fe d03e 36d6 47c0
00000290: 1e45 8e3f aa39 23c0 4530 2c40 65a4 b8c0
000002a0: 67bf 12c0 b541 9dbb 903a 4f40 5f27 e6bf
000002b0: 0e2d ea3f 3cd1 e3be df52 21c0 7d49 8bbf
000002c0: b124 0840 40a7 a0bf d98b fd3f 7da1 613f
000002d0: cf88 4740 5510 6cc0 84fc bfbf 2581 91bf
000002e0: a72b ca3e 9f2b 2340 d001 e5bf 3254 3ebf
000002f0: 449b c03f 96f6 b23f c4a6 08c0 a049 4440
00000300: 9a5c a73f 102b 3040 0402 263f b6d7 cfbf
00000310: e660 b0bc 2478 4dbf 87ec 5bc0 a55b 89bd
00000320: d4f5 74c0 5e46 693f 6bc6 ccbc 2cff f53f
00000330: 0127 3340 b14d 42c0 32bd 513f f25a b2bf
00000340: c161 8d3e 8a03 df3f bcb7 be3f 86a2 f7bf
00000350: e8cb e13e fe14 6cc0 70b9 83bf 5ef1 42bf
00000360: 962b c1be dbf4 d1c0 6e3d adbf 2fa3 6bc0
00000370: 8b3a 0640 a0f6 b6be ae77 90bf c011 69c0
00000380: f72b abbf d506 51c0 5560 263f 6833 6bbf
00000390: 13d5 5ec0 f147 8f3e f848 b4be bdfc 6ebf
000003a0: eda9 dcc0 35c5 b8bf 718c b0bf 89c9 a33f
000003b0: 3b3c ad3e cfde 093f de92 c63f 597a bb3f
000003c0: f314 26c0 c674 c53d 04d1 4dbf 0307 fb3d
000003d0: 36e8 3d40 6597 983f 7aeb 91c0 1125 d53f
000003e0: ebed 8d3f 21d7 8240 4803 71bc 70f5 62bf
000003f0: 6886 79bf 5e29 c13f 4fe9 1cbf 375a 3cc0
0.73697215 -3.1858158 0.385491 0.3814517 -0.30060464 4.852392 -2.4293718 0.28474325
-0.72667277 2.4589653 -4.1147346 -1.5534126 1.5964907 3.8288023 -3.4816673 -0.45058736
-1.4474764 5.1330295 -4.2197533 -0.62756044 -3.3525405 -0.8309855 1.9591392 0.42277366
3.0242486 0.7988405 -4.075132 1.9097081 -1.0935667 2.6406388 2.2426662 0.06190583
-1.6136892 -4.0965905 1.1560552 -0.7154485 3.8907325 0.82116264 -2.9490542 2.7695632
0.45405766 -0.9243173 -1.704423 0.3733591 -1.3840389 1.6159205 1.7939783 1.514852
-3.4169164 -0.44547525 -0.51818943 3.481167 -0.36318633 -2.008926 -3.2371602 -3.1804304
0.70248234 -1.535639 -2.2047162 0.8784614 1.1279286 -1.1096569 1.3547813 1.6881622
-1.7139007 -1.0396665 1.5053052 -4.8022914 2.0810373 -4.3825507 1.1550295 1.8880516
3.3398154 -0.65309304 -0.4774988 -1.4332267 2.6710172 7.2813153 0.41669774 1.1550657
0.028782792 1.2379333 0.27642265 1.7489339 -1.6599104 1.5538647 4.4894223 0.07020717
-0.8250634 -4.202003 -1.5059127 -0.15884666 -2.5638123 0.43423474 2.487969 0.29003343
0.62231725 0.5931738 -2.5185888 2.5596128 -0.56383556 -3.681879 0.8543543 -1.2876587
1.4885174 -3.0671458 4.8403473 0.9703354 -0.96994126 -3.7817435 1.2196656 -2.7969232
-2.0315862 1.892933 -0.1931804 2.8699405 4.0308805 0.6649901 0.43103272 -3.897114
-2.8806834 2.4584 -1.0399439 1.45163 -0.4618187 2.2257144 -2.18668 -2.4396136
-1.1363093 -1.7056444 -1.2378975 -3.5405123 3.5052676 1.3537307 0.74451095 0.46051535
-0.3707563 0.35650948 1.5502982 -1.5532668 -0.32283586 -2.983736 0.3107316 -2.2144608
-0.41472387 0.6005201 0.17334875 -1.198464 1.4796307 1.5717182 3.2167144 0.8851264
-8.435373 0.711452 -0.7741518 -6.8489175 -2.2806377 0.414154 -0.74613875 -0.071377
-0.39705822 -1.6552604 0.40819317 -3.1224494 1.1114843 -2.5503945 2.6904461 -5.7700677
-2.2929323 -0.0047990927 3.2379494 -1.7980765 1.8295 -0.4449557 -2.520683 -1.0881802
2.1272395 -1.2551041 1.9808303 0.88137037 3.1177251 -3.6884968 -1.4998937 -1.1367537
0.3948643 2.5495374 -1.7891178 -0.7434722 1.5047383 1.3981502 -2.1351786 3.0669937
1.3075135 2.7526283 0.64846826 -1.6237705 -0.02153058 -0.80261445 -3.4363115 -0.06706933
-3.8275042 0.91122997 -0.024996957 1.9218497 2.7992556 -3.035992 0.81929314 -1.3934004
0.27613643 1.7422955 1.4899821 -1.9346473 0.4410088 -3.6887813 -1.0290966 -0.7614955
-0.37728566 -6.5611396 -1.3534372 -3.681835 2.0973232 -0.35735035 -1.1286523 -3.6417084
-1.3372792 -3.266042 0.6499074 -0.91875315 -3.481755 0.27984574 -0.3521192 -0.933544
-6.895743 -1.4435183 -1.3792859 1.2795879 0.33835015 0.53855604 1.551357 1.4646713
-2.5950286 0.096414134 -0.8039706 0.12257197 2.967298 1.1921202 -4.5599947 1.6651937
1.1088232 4.088761 -0.014710255 -0.8865576 -0.9747071 1.5090749 -0.612935 -2.9430063

bias f4 [3]
00000000: 0000 0000 0000 0000 0000 0000
0.0 0.0 0.0

_ei_mask f4 [3]
00000000: 0000 803f 0000 803f 0000 803f
1.0 1.0 1.0

weight f4 [3, 175]
00000000: 16de 0d3d a1c7 f6bc 598a 4f3d b701 13be
00000010: db0a 83bc 91a3 083d dbfd 29bd 7414 ef3b
00000020: 87f3 053e 9c40 1c3c a9a2 81bd 9421 0bbe
00000030: 4947 243e 4703 ef3c e871 12bf 0ef1 e0bc
00000040: 880f 15bf e2a4 d73d 01c8 19bf 0bcb 103d
00000050: 6340 16bd 6dfd 94bd e1ab c23c 3b40 62bd
00000060: 1ed6 483d 6dbb bcba f540 9f3d cc99 363d
00000070: b27d 123d 8f6a 33bb e22b 033d 323f d9bc
00000080: 3f65 2c3d 85fa 5f3d 0282 a63c 84fe 3bbb
00000090: 0fad ba3d 7566 46be 8c15 143d ebb3 b43d
000000a0: c176 1f3c 2b09 833d c587 703d f79d b2be
000000b0: 4ed1 9d3d 64ea 73bc 859b c63c f8d1 55be
000000c0: 3577 92b9 be5f 703c fd8e 3c3e 9962 363e
000000d0: 1761 8ebd c717 04bd b697 14bd 9af4 57bd
000000e0: 91d6 9d3d 0c64 01be daad d5bd b3d7 83bd
000000f0: ca32 503e c6cf a03d 9788 9ebd fd70 b4bb
00000100: 7586 5cbd 490e a83c ba60 d4bd 6298 9a3d
00000110: 7154 403e 3a61 b63b 16b6 69bc 90f8 12bd
00000120: 7d41 86bb 80b0 84be 979e 2ebc 56e6 67be
00000130: eb65 96be 7837 c9ba 1793 7bbe df24 83bd
00000140: a00b cfbd 61b8 54bd a6d1 92be 8ebc 3a3c
00000150: 530f 40be 3d55 713b e3ec 253b a5d2 3e3c
00000160: 35cc 883a a96f 7e3a b611 b2bd 8c79 27be
00000170: 1b18 cb3b 9115 68be 6891 153c 725f bf3d
00000180: d910 313d fe40 253d 3600 a2bd 8be6 713d
00000190: 4988 4a3d 590b 8e3d a68e 16bd b2b8 c93b
000001a0: 3743 063c e26d f63a 2e6c 0d3d bb99 6c3b
000001b0: 62c7 83bd 2d94 573d 5c85 1ebe a55b 51bc
000001c0: e4d2 ad3d bdcd b23c ef0b 8fbd 8b5e 4f3d
000001d0: 46db dc3c 58fa 0a3d 6a7b 5e3d 656c 8b3d
000001e0: cc30 c33c dbb6 153d 489d 993c 61a5 0fbd
000001f0: ee20 f13c 8eeb 12bb c4d3 85bd d307 6bbd
00000200: e4d5 4e3e 78f3 0bbd 2e7e 863d 4275 e83c
00000210: 60b8 cf3d ccb1 ee3c 4b0a 8f3d 6b8e 8ebd
00000220: f7a0 f8bc 846e 803c 0164 86bd 4171 77bb
00000230: 1397 b93c a006 873d 0cd9 3c3d 8884 a63c
00000240: 225a a33b d2fa 013d 7b33 463e df25 da3d
00000250: dc13 623e 1c11 17bc b4e9 023e 6731 cebd
00000260: 43f6 083c f490 b03c c1de 4bbd 6904 81bc
00000270: 2d56 60bd 8618 51bd 748c 5abd 522b 053e
00000280: c02c 05b9 980e b53c 5e76 cb3d 89d2 e03a
00000290: 5267 e13b 41e1 0f3c 922c 8e3e 8349 3dbc
000002a0: bbd6 473e 0d5a 91bc d338 e53a 5a55 ad3b
000002b0: 4456 373c 502a d33c b2aa 2abd ef67 6fbe
000002c0: 9405 513d fcc0 64bc 2ae0 91be f5a3 46bc
000002d0: 6b2d c03c efc1 943d aa57 3a3c 899a ca3d
000002e0: 838a 3b3d a9f4 e0bb bd39 303d 6e5d dc3d
000002f0: 28a1 913b 27f4 b4bd 644e e63d 4306 b3bd
00000300: 6e17 fabe fb23 febd 8368 783d aab0 6cbe
00000310: 8611 fdbd 0125 acbc ffd0 73bd fe05 963b
00000320: f6f8 183d 94d2 b93d ba06 d7bc 2286 093b
00000330: db28 a83b 98fd 64bd b50e 943e be41 be3d
00000340: 5267 773d 0dec 99bd 8b70 533d 21b3 b1be
00000350: 5db1 fcbb 9d7f 003e 8ff2 883d 0519 6d3d
00000360: 3fa6 72bc 644e 79bd a9fb 6fbe e2a6 153e
00000370: a7fd 973d ae2b 75be c440 30be 564e 123e
00000380: f417 c33d 0f79 0fbe 8f77 b5bd 85b8 f53d
00000390: 48c8 54be 4eeb 7dbe 833e 593d eedc 7cbd
000003a0: e543 0b3e 9a8b babe bf7a 6f3e c0c2 debe
000003b0: a089 bebd 5fa9 ecbd 0825 0abe 3cc1 0abb
000003c0: 22fc 073c d376 7ebd 755c 943d 0f53 03be
000003d0: 794e b93c 0354 85bd e576 d9bc 7d71 b5bc
000003e0: e871 213e 76b6 e93b 44bf de3d 5a3a 433c
000003f0: 3aaf aebc 1167 333e bbda 8a3d 0bff b1bc
0.034635626 -0.030124487 0.050669048 -0.14356123 -0.015996387 0.033359114 -0.04150186 0.0072961394
0.1308118 0.009536888 -0.06329853 -0.13587028 0.16042818 0.029176367 -0.5720506 -0.027458694
-0.58226824 0.10529496 -0.60070807 0.035349887 -0.036682498 -0.072749 0.023763599 -0.055237036
0.049032323 -0.0014399119 0.077760614 0.044580266 0.035764404 -0.0027376746 0.03202427 -0.026519392
0.042088743 0.054682273 0.020325664 -0.0028685639 0.091150396 -0.19375022 0.03615336 0.08823379
0.009732903 0.06398233 0.05872323 -0.34886143 0.07705937 -0.014887426 0.02424408 -0.20880878
-0.00027936106 0.014671264 0.1841392 0.1781105 -0.06952112 -0.03224924 -0.036277495 -0.052723505
0.07706941 -0.12635821 -0.1043355 -0.06437626 0.20331874 0.0785213 -0.07740896 -0.0055066333
-0.053839166 0.020514624 -0.10370012 0.07548596 0.18782212 0.0055657895 -0.014264604 -0.03588158
-0.0040971623 -0.2591591 -0.010657928 -0.2264646 -0.29374632 -0.0015351614 -0.24567829 -0.06403517
-0.10109639 -0.05193365 -0.28675574 0.011397494 -0.18755846 0.0036824488 0.0025318197 0.011646901
0.0010436835 0.000970597 -0.08694784 -0.1635496 0.006197942 -0.22664477 0.009128906 0.093443766
0.043228958 0.040345185 -0.079101965 0.059057754 0.049446378 0.06935758 -0.036757134 0.0061560506
0.008194736 0.0018801058 0.034526996 0.0036102373 -0.06434514 0.052631546 -0.1548056 -0.012778197
0.0848749 0.02182662 -0.06984698 0.050627273 0.026960026 0.033930153 0.054316916 0.06807784
0.02382698 0.036551338 0.018751755 -0.035069827 0.029434647 -0.0022418234 -0.06534532 -0.05738051
0.2019878 -0.034167737 0.065670356 0.028376225 0.101425886 0.029137515 0.06984385 -0.06960758
-0.030350192 0.015677698 -0.06562043 -0.0037756714 0.022655046 0.065930605 0.04610543 0.020326868
0.00498511 0.03173334 0.19355576 0.106517546 0.22077888 -0.009220388 0.12784463 -0.100680165
0.008359495 0.021553494 -0.04977298 -0.015749173 -0.054769684 -0.051048778 -0.053356603 0.13004807
-0.00012700539 0.022101685 0.09934686 0.0017152588 0.006878772 0.008781732 0.2776838 -0.011553171
0.19515507 -0.017743135 0.0017488248 0.0052897157 0.011190001 0.025777012 -0.041666694 -0.23379491
0.05103071 -0.013962027 -0.28491336 -0.012124051 0.023459157 0.072635524 0.01137344 0.098927565
0.045786392 -0.0068651033 0.043023814 0.10760008 0.00444426 -0.08835631 0.112454206 -0.08741429
-0.48846 -0.124092065 0.060646545 -0.23114267 -0.12356858 -0.021013739 -0.059525486 0.004578351
0.037346803 0.09073368 -0.026248325 0.002098449 0.0051318235 -0.05590591 0.2891747 0.09289883
0.06040127 -0.07515726 0.051621 -0.34706977 -0.007711573 0.1254868 0.066868894 0.05788519
-0.014810144 -0.060865775 -0.23435844 0.14614442 0.07421427 -0.23942444 -0.17212206 0.14287695
0.09526053 -0.14011024 -0.088606946 0.11998085 -0.20779526 -0.24796793 0.05303813 -0.061734132
0.13600118 -0.36434633 0.23386668 -0.43507957 -0.09303594 -0.115557425 -0.13490689 -0.0021172306
0.008299859 -0.06212504 0.07244197 -0.12824653 0.022620426 -0.065101646 -0.026545951 -0.022148842
0.15766108 0.0071323467 0.10876325 0.011915768 -0.021323789 0.17519785 0.06780001 -0.02172806

bias f4 [175]
00000000: 0000 0000 0000 0000 0000 0000 0000 0000
00000010: 0000 0000 0000 0000 0000 0000 0000 0000
00000020: 0000 0000 0000 0000 0000 0000 0000 0000
00000030: 0000 0000 0000 0000 0000 0000 0000 0000
00000040: 0000 0000 0000 0000 0000 0000 0000 0000
00000050: 0000 0000 0000 0000 0000 0000 0000 0000
00000060: 0000 0000 0000 0000 0000 0000 0000 0000
00000070: 0000 0000 0000 0000 0000 0000 0000 0000
00000080: 0000 0000 0000 0000 0000 0000 0000 0000
00000090: 0000 0000 0000 0000 0000 0000 0000 0000
000000a0: 0000 0000 0000 0000 0000 0000 0000 0000
000000b0: 0000 0000 0000 0000 0000 0000 0000 0000
000000c0: 0000 0000 0000 0000 0000 0000 0000 0000
000000d0: 0000 0000 0000 0000 0000 0000 0000 0000
000000e0: 0000 0000 0000 0000 0000 0000 0000 0000
000000f0: 0000 0000 0000 0000 0000 0000 0000 0000
00000100: 0000 0000 0000 0000 0000 0000 0000 0000
00000110: 0000 0000 0000 0000 0000 0000 0000 0000
00000120: 0000 0000 0000 0000 0000 0000 0000 0000
00000130: 0000 0000 0000 0000 0000 0000 0000 0000
00000140: 0000 0000 0000 0000 0000 0000 0000 0000
00000150: 0000 0000 0000 0000 0000 0000 0000 0000
00000160: 0000 0000 0000 0000 0000 0000 0000 0000
00000170: 0000 0000 0000 0000 0000 0000 0000 0000
00000180: 0000 0000 0000 0000 0000 0000 0000 0000
00000190: 0000 0000 0000 0000 0000 0000 0000 0000
000001a0: 0000 0000 0000 0000 0000 0000 0000 0000
000001b0: 0000 0000 0000 0000 0000 0000 0000 0000
000001c0: 0000 0000 0000 0000 0000 0000 0000 0000
000001d0: 0000 0000 0000 0000 0000 0000 0000 0000
000001e0: 0000 0000 0000 0000 0000 0000 0000 0000
000001f0: 0000 0000 0000 0000 0000 0000 0000 0000
00000200: 0000 0000 0000 0000 0000 0000 0000 0000
00000210: 0000 0000 0000 0000 0000 0000 0000 0000
00000220: 0000 0000 0000 0000 0000 0000 0000 0000
00000230: 0000 0000 0000 0000 0000 0000 0000 0000
00000240: 0000 0000 0000 0000 0000 0000 0000 0000
00000250: 0000 0000 0000 0000 0000 0000 0000 0000
00000260: 0000 0000 0000 0000 0000 0000 0000 0000
00000270: 0000 0000 0000 0000 0000 0000 0000 0000
00000280: 0000 0000 0000 0000 0000 0000 0000 0000
00000290: 0000 0000 0000 0000 0000 0000 0000 0000
000002a0: 0000 0000 0000 0000 0000 0000 0000 0000
000002b0: 0000 0000 0000 0000 0000 0000
0.0 0.0 0.0 0.0 0.0 0.0 0.0 0.0
0.0 0.0 0.0 0.0 0.0 0.0 0.0 0.0
0.0 0.0 0.0 0.0 0.0 0.0 0.0 0.0
0.0 0.0 0.0 0.0 0.0 0.0 0.0 0.0
0.0 0.0 0.0 0.0 0.0 0.0 0.0 0.0
0.0 0.0 0.0 0.0 0.0 0.0 0.0 0.0
0.0 0.0 0.0 0.0 0.0 0.0 0.0 0.0
0.0 0.0 0.0 0.0 0.0 0.0 0.0 0.0
0.0 0.0 0.0 0.0 0.0 0.0 0.0 0.0
0.0 0.0 0.0 0.0 0.0 0.0 0.0 0.0
0.0 0.0 0.0 0.0 0.0 0.0 0.0 0.0
0.0 0.0 0.0 0.0 0.0 0.0 0.0 0.0
0.0 0.0 0.0 0.0 0.0 0.0 0.0 0.0
0.0 0.0 0.0 0.0 0.0 0.0 0.0 0.0
0.0 0.0 0.0 0.0 0.0 0.0 0.0 0.0
0.0 0.0 0.0 0.0 0.0 0.0 0.0 0.0
0.0 0.0 0.0 0.0 0.0 0.0 0.0 0.0
0.0 0.0 0.0 0.0 0.0 0.0 0.0 0.0
0.0 0.0 0.0 0.0 0.0 0.0 0.0 0.0
0.0 0.0 0.0 0.0 0.0 0.0 0.0 0.0
0.0 0.0 0.0 0.0 0.0 0.0 0.0 0.0
0.0 0.0 0.0 0.0 0.0 0.0 0.0

_ei_mask f4 [175]
00000000: 0000 803f 0000 803f 0000 803f 0000 803f
00000010: 0000 803f 0000 803f 0000 803f 0000 803f
00000020: 0000 803f 0000 803f 0000 803f 0000 803f
00000030: 0000 803f 0000 803f 0000 803f 0000 803f
00000040: 0000 803f 0000 803f 0000 803f 0000 803f
00000050: 0000 803f 0000 803f 0000 803f 0000 803f
00000060: 0000 803f 0000 803f 0000 803f 0000 803f
00000070: 0000 803f 0000 803f 0000 803f 0000 803f
00000080: 0000 803f 0000 803f 0000 803f 0000 803f
00000090: 0000 803f 0000 803f 0000 803f 0000 803f
000000a0: 0000 803f 0000 803f 0000 803f 0000 803f
000000b0: 0000 803f 0000 803f 0000 803f 0000 803f
000000c0: 0000 803f 0000 803f 0000 803f 0000 803f
000000d0: 0000 803f 0000 803f 0000 803f 0000 803f
000000e0: 0000 803f 0000 803f 0000 803f 0000 803f
000000f0: 0000 803f 0000 803f 0000 803f 0000 803f
00000100: 0000 803f 0000 803f 0000 803f 0000 803f
00000110: 0000 803f 0000 803f 0000 803f 0000 803f
00000120: 0000 803f 0000 803f 0000 803f 0000 803f
00000130: 0000 803f 0000 803f 0000 803f 0000 803f
00000140: 0000 803f 0000 803f 0000 803f 0000 803f
00000150: 0000 803f 0000 803f 0000 803f 0000 803f
00000160: 0000 803f 0000 803f 0000 803f 0000 803f
00000170: 0000 803f 0000 803f 0000 803f 0000 803f
00000180: 0000 803f 0000 803f 0000 803f 0000 803f
00000190: 0000 803f 0000 803f 0000 803f 0000 803f
000001a0: 0000 803f 0000 803f 0000 803f 0000 803f
000001b0: 0000 803f 0000 803f 0000 803f 0000 803f
000001c0: 0000 803f 0000 803f 0000 803f 0000 803f
000001d0: 0000 803f 0000 803f 0000 803f 0000 803f
000001e0: 0000 803f 0000 803f 0000 803f 0000 803f
000001f0: 0000 803f 0000 803f 0000 803f 0000 803f
00000200: 0000 803f 0000 803f 0000 803f 0000 803f
00000210: 0000 803f 0000 803f 0000 803f 0000 803f
00000220: 0000 803f 0000 803f 0000 803f 0000 803f
00000230: 0000 803f 0000 803f 0000 803f 0000 803f
00000240: 0000 803f 0000 803f 0000 803f 0000 803f
00000250: 0000 803f 0000 803f 0000 803f 0000 803f
00000260: 0000 803f 0000 803f 0000 803f 0000 803f
00000270: 0000 803f 0000 803f 0000 803f 0000 803f
00000280: 0000 803f 0000 803f 0000 803f 0000 803f
00000290: 0000 803f 0000 803f 0000 803f 0000 803f
000002a0: 0000 803f 0000 803f 0000 803f 0000 803f
000002b0: 0000 803f 0000 803f 0000 803f
1.0 1.0 1.0 1.0 1.0 1.0 1.0 1.0
1.0 1.0 1.0 1.0 1.0 1.0 1.0 1.0
1.0 1.0 1.0 1.0 1.0 1.0 1.0 1.0
1.0 1.0 1.0 1.0 1.0 1.0 1.0 1.0
1.0 1.0 1.0 1.0 1.0 1.0 1.0 1.0
1.0 1.0 1.0 1.0 1.0 1.0 1.0 1.0
1.0 1.0 1.0 1.0 1.0 1.0 1.0 1.0
1.0 1.0 1.0 1.0 1.0 1.0 1.0 1.0
1.0 1.0 1.0 1.0 1.0 1.0 1.0 1.0
1.0 1.0 1.0 1.0 1.0 1.0 1.0 1.0
1.0 1.0 1.0 1.0 1.0 1.0 1.0 1.0
1.0 1.0 1.0 1.0 1.0 1.0 1.0 1.0
1.0 1.0 1.0 1.0 1.0 1.0 1.0 1.0
1.0 1.0 1.0 1.0 1.0 1.0 1.0 1.0
1.0 1.0 1.0 1.0 1.0 1.0 1.0 1.0
1.0 1.0 1.0 1.0 1.0 1.0 1.0 1.0
1.0 1.0 1.0 1.0 1.0 1.0 1.0 1.0
1.0 1.0 1.0 1.0 1.0 1.0 1.0 1.0
1.0 1.0 1.0 1.0 1.0 1.0 1.0 1.0
1.0 1.0 1.0 1.0 1.0 1.0 1.0 1.0
1.0 1.0 1.0 1.0 1.0 1.0 1.0 1.0
1.0 1.0 1.0 1.0 1.0 1.0 1.0
