checkpoints/version40/model_checkpoint.ckpt (torch, 131279 bytes, 25 tensors)

bias f4 [175]
1.1430986 2.8889434 -0.56282437 2.2390711 0.13053688 2.5885768 2.3382955 3.512822
1.6187385 3.3659494 1.6514691 2.0270145 -0.40454155 0.041610684 0.42663002 2.4593425
0.3958276 0.46419913 0.3723947 3.2810488 0.5288718 1.9891499 1.9266777 -0.19543773
-1.487828 3.869991 0.7083879 2.105414 1.1294883 2.77814 0.91650665 0.101310164
1.4333948 0.01768892 0.7597896 4.175143 1.1356671 1.6512575 1.6910568 1.5587815
2.2672086 1.2163086 0.21986648 0.42501065 1.474187 -0.6502329 0.5709664 0.53151184
0.47382882 0.037925996 -0.0057402146 0.014879646 1.3838891 0.6090031 0.5115449 1.2648152
-0.1645798 0.92211473 0.45761937 0.007714068 0.084460236 0.13827242 0.93588775 0.93450886
0.3189175 0.58042794 0.38748553 0.20737213 0.7979344 1.7424951 -0.07391876 1.7787036
1.8683212 1.0972083 1.5875965 1.3312635 1.9800503 1.9699479 1.7506627 2.4765441
1.9067563 2.5322561 1.1634083 2.9633732 1.7422562 1.6531078 3.2252703 3.882268
1.2346319 1.2666597 1.8813947 0.11036279 3.6575587 0.6977607 1.2423882 0.43825167
4.2248135 0.6507418 -0.27087155 0.17269084 2.6416032 0.7230391 1.6480644 2.1460867
1.1747673 2.2894182 1.5206207 1.9387349 1.8038089 2.9467692 1.4261706 0.042368185
0.025473095 2.680576 1.2640482 2.6775644 0.19069137 3.0645525 2.728331 2.6216004
3.9180894 1.6664431 2.3283281 2.9457612 4.09207 1.6716179 0.30162907 0.1008504
0.9800181 1.275298 0.2444205 0.43893683 -0.071097486 2.3020802 1.4790245 0.24174616
0.27926245 1.7769955 0.9781242 1.3605894 0.7896635 0.51441294 1.0828347 0.8034359
0.06485665 1.5580646 1.5283604 1.0002239 -1.8658038 -0.056392506 0.22198142 0.1378239
2.5830932 0.888766 4.05929 2.2510111 1.3781189 4.2517595 0.5844847 0.3653022
0.9412503 -0.8845183 0.5652946 1.3278561 2.120002 3.220271 0.41207308 2.1148937
0.5545748 2.270866 2.3002982 2.2667053 1.8844291 0.41956323 1.1795739
00000000: 0e51 923f 73e4 3840 4215 10bf f14c 0f40
00000010: 76ab 053e 3eab 2540 a2a6 1540 13d2 6040
00000020: d332 cf3f b76b 5740 5763 d33f 9bba 0140
00000030: 1220 cfbe f76f 2a3d 406f da3e de65 1d40
00000040: eaa9 ca3e 82ab ed3e 85aa be3e b4fc 5140
00000050: 2464 073f 779c fe3f 609d f63f d420 48be
00000060: 2671 bebf efad 7740 e958 353f 1abf 0640
00000070: 1393 903f 0ccd 3140 2ea0 6a3f b47b cf3d
00000080: 7b79 b73f 5be8 903c 9281 423f c59a 8540
00000090: 8a5d 913f 685c d33f 8d74 d83f 2786 c73f
000000a0: f219 1140 00b0 9b3f ae24 613e ff9a d93e
000000b0: 29b2 bc3f aa75 26bf db2a 123f 2911 083f
000000c0: b199 f23e 4a58 1b3d 6918 bcbb c2c9 733c
000000d0: 4723 b13f a1e7 1b3f 9bf4 023f 77e5 a13f
000000e0: 9b87 28be b60f 6c3f 164d ea3e 4bc6 fc3b
000000f0: 7df9 ac3d 4997 0d3e 5796 6f3f f93b 6f3f
00000100: 2849 a33e ed96 143f 8164 c63e 5c59 543e
00000110: 6e45 4c3f 140a df3f b862 97bd 8fac e33f
00000120: 2625 ef3f 5271 8c3f 5d36 cb3f d866 aa3f
00000130: 4a72 fd3f 4127 fc3f b715 e03f b37f 1e40
00000140: 9710 f43f 7c10 2240 90ea 943f e8a7 3d40
00000150: 4002 df3f 0999 d33f d46a 4e40 1477 7840
00000160: 6b08 9e3f e821 a23f 8bd1 f03f e305 e23d
00000170: 7115 6a40 72a0 323f 9406 9f3f 8662 e03e
00000180: ac31 8740 0497 263f adaf 8abe ded5 303e
00000190: 0710 2940 1719 393f c6f3 d23f 7c59 0940
000001a0: c65e 963f d485 1240 b3a3 c23f 7728 f83f
000001b0: 36e3 e63f de97 3c40 c28c b63f 438a 2d3d
000001c0: f4ac d03c 8f8e 2b40 55cc a13f 375d 2b40
000001d0: 9944 433e a121 4440 fa9c 2e40 4dc8 2740
000001e0: fac1 7a40 024e d53f 5403 1540 5a87 3c40
000001f0: 3df2 8240 93f7 d53f 206f 9a3e a88a ce3d
00000200: 77e2 7a3f f73c a33f 5e49 7a3e 54bc e03e
00000210: 8f9b 91bd 4855 1340 ad50 bd3f 4e8c 773e
00000220: 7dfb 8e3e 9774 e33f 5966 7a3f cb27 ae3f
00000230: 6327 4a3f 91b0 033f 549a 8a3f faad 4d3f
00000240: 90d3 843d a96e c73f 50a1 c33f 5607 803f
00000250: a9d2 eebf d4fb 66bd 194f 633e b521 0d3e
00000260: 6651 2540 2b86 633f b4e5 8140 9110 1040
00000270: 3366 b03f 6a0e 8840 caa0 153f e408 bb3e
00000280: c8f5 703f cb6f 62bf 26b7 103f 30f7 a93f
00000290: 1dae 0740 ec18 4e40 3efb d23e 6b5a 0740
000002a0: 9df8 0d3f de55 1140 1638 1340 b311 1140
000002b0: f934 f13f fed0 d63e 47fc 963f

tv.weight f4 [9, 175]
0.32825556 0.42861032 -1.593692e-08 0.36433434 -2.863159e-08 0.70282936 0.43664074 0.70186305
0.9190962 0.6560571 0.73433423 0.6710384 -3.407578e-09 0.4416626 0.106324606 -0.00020182724
0.22295763 0.38066825 0.3128209 0.70389533 9.792748e-12 0.7947723 0.5812577 -0.33468467
1.0834742 0.76458746 1.2091415 0.5297912 0.47478426 4.454929e-12 1.0615162 0.17917837
0.6068949 1.2514728 1.3357819e-09 -0.0010282263 0.5551057 0.3225053 0.5928537 0.7451999
0.4233709 -0.43769094 0.79898393 0.58989686 4.8865186e-05 0.52441597 0.17208469 -0.22976072
-3.877488e-09 0.008586502 0.49130124 0.51902306 0.28469923 0.670441 0.41152585 1.2336611e-06
-0.00012519893 0.50093734 0.42925388 0.2694438 0.54786885 0.56973815 6.925237e-11 6.089303e-08
1.21851045e-11 0.55560386 0.46496084 0.66048056 0.14110461 0.5160292 0.35920933 0.40632662
0.46282062 -1.3380968e-05 0.39723548 0.17587909 0.012484162 0.427012 -3.340266e-05 0.36596248
0.22026704 0.37043503 0.42468193 0.28318906 0.30064172 0.42826194 0.4713914 0.54512554
2.241949e-08 0.62153625 0.47208145 0.4413184 5.405213e-10 0.48693827 0.6515443 0.70295745
0.5985102 0.5088901 0.59123486 0.95490503 0.8479527 1.1975791 -8.8682894e-11 5.1021726e-08
0.0043137423 1.1978787e-09 1.0618137 0.5507809 0.5832001 0.6493432 1.921915e-07 -0.16174047
0.7454558 0.7339939 0.7371256 0.7077311 0.82903 0.4418993 0.68025655 0.58377254
0.7366528 0.5307211 0.52833843 0.4621736 0.6735861 0.11672971 0.5316374 0.16545534
0.1460086 0.60197586 0.7789669 -1.5139437e-10 0.88781106 0.46048093 5.8659342e-08 0.607103
0.28286242 0.33086282 0.38426813 0.29164043 0.6126398 0.6354407 0.35037285 0.23066688
0.32613558 0.9702426 0.2659716 0.3793368 0.42953414 0.52855843 0.34832925 0.32316858
0.44697425 0.45576772 0.49499986 0.38715792 0.5671281 0.4702886 0.2059661 0.88443017
0.5946673 0.55301774 0.97861487 0.7250206 0.37216297 -0.00013755407 0.26467228 0.3922884
0.55422115 0.26842552 -7.952253e-11 0.4317376 0.46319008 0.7690949 0.4076111 0.45492804
0.6494104 0.6937701 0.58048934 1.3018285 0.3345026 0.5591087 0.5366465 3.4061678e-10
0.5328899 -1.4272469e-07 -1.2095249e-05 0.7648963 -1.1041069e-07 0.55643266 0.80505645 -0.5231362
0.17523147 -0.49980882 0.50241035 0.7127812 -3.2064268e-08 0.23598574 0.3431375 3.0880374e-06
0.5074494 2.5412263e-09 0.50647736 0.5384072 1.1436342 -7.851996e-10 -0.37919933 -9.47551e-06
-1.722757e-10 1.061457 0.9416397 0.22290625 0.33890226 0.0013981035 2.4640553e-08 0.5657313
0.5981235 -1.8000017e-10 0.19430496 0.7557307 0.3519151 0.5105497 0.55193317 0.50567997
0.41252163 0.3701648 0.36261556 0.3246871 -0.14555347 -0.0005572744 0.4829993 0.6017162
0.00439353 0.11216049 -0.51624626 -3.885513e-08 -1.1467798e-07 0.56088614 0.84787697 0.7389769
1.4970539e-08 -0.33599356 3.4505285e-12 0.45328584 0.28576598 -0.31293687 0.35308975 0.3816726
0.47383535 0.2846083 0.38558686 0.57450694 0.3223908 0.5540176 0.49320242 0.5542923
00000000: 1d11 a83e d072 db3e a8e5 88b2 088a ba3e
00000010: 88f1 f5b2 a0ec 333f 608f df3e 4cad 333f
00000020: e349 6b3f 5cf3 273f 54fd 3b3f 2cc9 2b3f
00000030: bf2a 6ab1 9a21 e23e b7c0 d93d 96a1 53b9
00000040: 014f 643e f3e6 c23e 102a a03e 7c32 343f
00000050: 9e46 2c2d 3376 4b3f 4ecd 143f ca5b abbe
00000060: 48af 8a3f 01bc 433f 26c5 9a3f 65a0 073f
00000070: ec16 f33e 6fbe 9c2c c3df 873f 897a 373e
00000080: 775d 1b3f 4330 a03f a696 b730 8dc5 86ba
00000090: 681b 0e3f 6a1f a53e 43c5 173f 6cc5 3e3f
000000a0: 12c4 d83e 0719 e0be 368a 4c3f 7b03 173f
000000b0: 98f4 4c38 2040 063f f836 303e 6546 6bbe
000000c0: bf3a 85b1 66ae 0c3c d68b fb3e b2de 043f
000000d0: 19c4 913e 05a2 2b3f 84b3 d23e 4694 a535
000000e0: d547 03b9 6e3d 003f 2ac7 db3e 8af4 893e
000000f0: 2241 0c3f 5cda 113f 9e49 982e 4cc4 8233
00000100: d55c 562d 0e3c 0e3f 590f ee3e 4115 293f
00000110: ba7d 103e 7d1a 043f 49ea b73e 0b0a d03e
00000120: d3f6 ec3e d27e 60b7 7362 cb3e a619 343e
00000130: 5f8a 4c3c 51a1 da3e d519 0cb8 6f5f bb3e
00000140: af8d 613e a9a9 bd3e e96f d93e 28fe 903e
00000150: b6ed 993e 2645 db3e 375a f13e 598d 0b3f
00000160: fb94 c032 001d 1f3f a9b4 f13e 7cf4 e13e
00000170: ce93 1430 f94f f93e 9bcb 263f 05f5 333f
00000180: f737 193f 9f46 023f 2b5b 173f a874 743f
00000190: 6e13 593f 464a 993f 0804 c3ae fb22 5b33
000001a0: 4b5a 8d3b 9ca2 a430 83e9 873f faff 0c3f
000001b0: 9a4c 153f 5b3b 263f 325d 4e34 4b9f 25be
000001c0: 31d6 3e3f 06e7 3b3f 43b4 3c3f de2d 353f
000001d0: 4f3b 543f a040 e23e 4b25 2e3f 1e72 153f
000001e0: 4795 3c3f 57dd 073f 3041 073f 05a2 ec3e
000001f0: 2370 2c3f fc0f ef3d 6319 083f 206d 293e
00000200: 4783 153e 171b 1a3f 606a 473f ba75 26af
00000210: 9647 633f 28c4 eb3e a1f0 7b33 1a6b 1b3f
00000220: 58d3 903e da66 a93e cbbe c43e e551 953e
00000230: f6d5 1c3f 3eac 223f 1264 b33e f033 6c3e
00000240: 3efb a63e d261 783f 6e2d 883e 6f38 c23e
00000250: e6eb db3e 9b4f 073f 3658 b23e 5a76 a53e
00000260: cfd9 e43e 635a e93e 9f70 fd3e 9039 c63e
00000270: 4f2f 113f abc9 f03e c7e8 523e 046a 623f
00000280: 1e3c 183f 9292 0d3f 8186 7a3f f39a 393f
00000290: 258c be3e 643c 10b9 2083 873e 06da c83e
000002a0: 70e1 0d3f 126f 893e 34df aeae b60c dd3e
000002b0: 4027 ed3e 67e3 443f 67b2 d03e 54ec e83e
000002c0: c33f 263f eb9a 313f f39a 143f 51a2 a63f
000002d0: ed43 ab3e bf21 0f3f aa61 093f 8d41 bb2f
000002e0: 796b 083f dd3f 19b4 b3ec 4ab7 3ed0 433f
000002f0: eb1a edb3 5f72 0e3f 2e18 4e3f 41ec 05bf
00000300: e16f 333e f1e6 ffbe f79d 003f d478 363f
00000310: 09b7 09b3 3fa6 713e b8af af3e 143c 4f36
00000320: 34e8 013f baa1 2e31 80a8 013f 0ed5 093f
00000330: 9b62 923f 83d5 57b0 6a26 c2be 01f9 1eb7
00000340: 4c6b 3daf d3dd 873f 4d0f 713f 8941 643e
00000350: 9984 ad3e 9240 b73a 26a9 d332 c4d3 103f
00000360: 9f1e 193f 8be9 45af e1f7 463e 9177 413f
00000370: 372e b43e 63b3 023f 7e4b 0d3f 3e74 013f
00000380: 0936 d33e 3e86 bd3e bfa8 b93e 633d a63e
00000390: f80b 15be 0d16 12ba af4b f73e 130a 1a3f
000003a0: 9af7 8f3b 66b4 e53d b728 04bf abe1 26b3
000003b0: e344 f6b3 3c96 0f3f 770e 593f 972d 3d3f
000003c0: 9098 8032 5907 acbe 32cf 722c 1515 e83e
000003d0: eb4f 923e 4339 a0be 2ec8 b43e 976a c33e
000003e0: 8c9a f23e 2eb8 913e a46b c53e e312 133f
000003f0: 6810 a53e 19d4 0d3f 0785 fc3e 1ae6 0d3f

tv.bias f4 [175]
0.0 0.0 0.0 0.0 0.0 0.0 0.0 0.0
0.0 0.0 0.0 0.0 0.0 0.0 0.0 0.0
0.0 0.0 0.0 0.0 0.0 0.0 0.0 0.0
0.0 0.0 0.0 0.0 0.0 0.0 0.0 0.0
0.0 0.0 0.0 0.0 0.0 0.0 0.0 0.0
0.0 0.0 0.0 0.0 0.0 0.0 0.0 0.0
0.0 0.0 0.0 0.0 0.0 0.0 0.0 0.0
0.0 0.0 0.0 0.0 0.0 0.0 0.0 0.0
0.0 0.0 0.0 0.0 0.0 0.0 0.0 0.0
0.0 0.0 0.0 0.0 0.0 0.0 0.0 0.0
0.0 0.0 0.0 0.0 0.0 0.0 0.0 0.0
0.0 0.0 0.0 0.0 0.0 0.0 0.0 0.0
0.0 0.0 0.0 0.0 0.0 0.0 0.0 0.0
0.0 0.0 0.0 0.0 0.0 0.0 0.0 0.0
0.0 0.0 0.0 0.0 0.0 0.0 0.0 0.0
0.0 0.0 0.0 0.0 0.0 0.0 0.0 0.0
0.0 0.0 0.0 0.0 0.0 0.0 0.0 0.0
0.0 0.0 0.0 0.0 0.0 0.0 0.0 0.0
0.0 0.0 0.0 0.0 0.0 0.0 0.0 0.0
0.0 0.0 0.0 0.0 0.0 0.0 0.0 0.0
0.0 0.0 0.0 0.0 0.0 0.0 0.0 0.0
0.0 0.0 0.0 0.0 0.0 0.0 0.0
00000000: 0000 0000 0000 0000 0000 0000 0000 0000
00000010: 0000 0000 0000 0000 0000 0000 0000 0000
00000020: 0000 0000 0000 0000 0000 0000 0000 0000
00000030: 0000 0000 0000 0000 0000 0000 0000 0000
00000040: 0000 0000 0000 0000 0000 0000 0000 0000
00000050: 0000 0000 0000 0000 0000 0000 0000 0000
00000060: 0000 0000 0000 0000 0000 0000 0000 0000
00000070: 0000 0000 0000 0000 0000 0000 0000 0000
00000080: 0000 0000 0000 0000 0000 0000 0000 0000
00000090: 0000 0000 0000 0000 0000 0000 0000 0000
000000a0: 0000 0000 0000 0000 0000 0000 0000 0000
000000b0: 0000 0000 0000 0000 0000 0000 0000 0000
000000c0: 0000 0000 0000 0000 0000 0000 0000 0000
000000d0: 0000 0000 0000 0000 0000 0000 0000 0000
000000e0: 0000 0000 0000 0000 0000 0000 0000 0000
000000f0: 0000 0000 0000 0000 0000 0000 0000 0000
00000100: 0000 0000 0000 0000 0000 0000 0000 0000
00000110: 0000 0000 0000 0000 0000 0000 0000 0000
00000120: 0000 0000 0000 0000 0000 0000 0000 0000
00000130: 0000 0000 0000 0000 0000 0000 0000 0000
00000140: 0000 0000 0000 0000 0000 0000 0000 0000
00000150: 0000 0000 0000 0000 0000 0000 0000 0000
00000160: 0000 0000 0000 0000 0000 0000 0000 0000
00000170: 0000 0000 0000 0000 0000 0000 0000 0000
00000180: 0000 0000 0000 0000 0000 0000 0000 0000
00000190: 0000 0000 0000 0000 0000 0000 0000 0000
000001a0: 0000 0000 0000 0000 0000 0000 0000 0000
000001b0: 0000 0000 0000 0000 0000 0000 0000 0000
000001c0: 0000 0000 0000 0000 0000 0000 0000 0000
000001d0: 0000 0000 0000 0000 0000 0000 0000 0000
000001e0: 0000 0000 0000 0000 0000 0000 0000 0000
000001f0: 0000 0000 0000 0000 0000 0000 0000 0000
00000200: 0000 0000 0000 0000 0000 0000 0000 0000
00000210: 0000 0000 0000 0000 0000 0000 0000 0000
00000220: 0000 0000 0000 0000 0000 0000 0000 0000
00000230: 0000 0000 0000 0000 0000 0000 0000 0000
00000240: 0000 0000 0000 0000 0000 0000 0000 0000
00000250: 0000 0000 0000 0000 0000 0000 0000 0000
00000260: 0000 0000 0000 0000 0000 0000 0000 0000
00000270: 0000 0000 0000 0000 0000 0000 0000 0000
00000280: 0000 0000 0000 0000 0000 0000 0000 0000
00000290: 0000 0000 0000 0000 0000 0000 0000 0000
000002a0: 0000 0000 0000 0000 0000 0000 0000 0000
000002b0: 0000 0000 0000 0000 0000 0000

tv._ei_mask f4 [175]
1.0 1.0 1.0 1.0 1.0 1.0 1.0 1.0
1.0 1.0 1.0 1.0 1.0 1.0 1.0 1.0
1.0 1.0 1.0 1.0 1.0 1.0 1.0 1.0
1.0 1.0 1.0 1.0 1.0 1.0 1.0 1.0
1.0 1.0 1.0 1.0 1.0 1.0 1.0 1.0
1.0 1.0 1.0 1.0 1.0 1.0 1.0 1.0
1.0 1.0 1.0 1.0 1.0 1.0 1.0 1.0
1.0 1.0 1.0 1.0 1.0 1.0 1.0 1.0
1.0 1.0 1.0 1.0 1.0 1.0 1.0 1.0
1.0 1.0 1.0 1.0 1.0 1.0 1.0 1.0
1.0 1.0 1.0 1.0 1.0 1.0 1.0 1.0
1.0 1.0 1.0 1.0 1.0 1.0 1.0 1.0
1.0 1.0 1.0 1.0 1.0 1.0 1.0 1.0
1.0 1.0 1.0 1.0 1.0 1.0 1.0 1.0
1.0 1.0 1.0 1.0 1.0 1.0 1.0 1.0
1.0 1.0 1.0 1.0 1.0 1.0 1.0 1.0
1.0 1.0 1.0 1.0 1.0 1.0 1.0 1.0
1.0 1.0 1.0 1.0 1.0 1.0 1.0 1.0
1.0 1.0 1.0 1.0 1.0 1.0 1.0 1.0
1.0 1.0 1.0 1.0 1.0 1.0 1.0 1.0
1.0 1.0 1.0 1.0 1.0 1.0 1.0 1.0
1.0 1.0 1.0 1.0 1.0 1.0 1.0
00000000: 0000 803f 0000 803f 0000 803f 0000 803f
00000010: 0000 803f 0000 803f 0000 803f 0000 803f
00000020: 0000 803f 0000 803f 0000 803f 0000 803f
00000030: 0000 803f 0000 803f 0000 803f 0000 803f
00000040: 0000 803f 0000 803f 0000 803f 0000 803f
00000050: 0000 803f 0000 803f 0000 803f 0000 803f
00000060: 0000 803f 0000 803f 0000 803f 0000 803f
00000070: 0000 803f 0000 803f 0000 803f 0000 803f
00000080: 0000 803f 0000 803f 0000 803f 0000 803f
00000090: 0000 803f 0000 803f 0000 803f 0000 803f
000000a0: 0000 803f 0000 803f 0000 803f 0000 803f
000000b0: 0000 803f 0000 803f 0000 803f 0000 803f
000000c0: 0000 803f 0000 803f 0000 803f 0000 803f
000000d0: 0000 803f 0000 803f 0000 803f 0000 803f
000000e0: 0000 803f 0000 803f 0000 803f 0000 803f
000000f0: 0000 803f 0000 803f 0000 803f 0000 803f
00000100: 0000 803f 0000 803f 0000 803f 0000 803f
00000110: 0000 803f 0000 803f 0000 803f 0000 803f
00000120: 0000 803f 0000 803f 0000 803f 0000 803f
00000130: 0000 803f 0000 803f 0000 803f 0000 803f
00000140: 0000 803f 0000 803f 0000 803f 0000 803f
00000150: 0000 803f 0000 803f 0000 803f 0000 803f
00000160: 0000 803f 0000 803f 0000 803f 0000 803f
00000170: 0000 803f 0000 803f 0000 803f 0000 803f
00000180: 0000 803f 0000 803f 0000 803f 0000 803f
00000190: 0000 803f 0000 803f 0000 803f 0000 803f
000001a0: 0000 803f 0000 803f 0000 803f 0000 803f
000001b0: 0000 803f 0000 803f 0000 803f 0000 803f
000001c0: 0000 803f 0000 803f 0000 803f 0000 803f
000001d0: 0000 803f 0000 803f 0000 803f 0000 803f
000001e0: 0000 803f 0000 803f 0000 803f 0000 803f
000001f0: 0000 803f 0000 803f 0000 803f 0000 803f
00000200: 0000 803f 0000 803f 0000 803f 0000 803f
00000210: 0000 803f 0000 803f 0000 803f 0000 803f
00000220: 0000 803f 0000 803f 0000 803f 0000 803f
00000230: 0000 803f 0000 803f 0000 803f 0000 803f
00000240: 0000 803f 0000 803f 0000 803f 0000 803f
00000250: 0000 803f 0000 803f 0000 803f 0000 803f
00000260: 0000 803f 0000 803f 0000 803f 0000 803f
00000270: 0000 803f 0000 803f 0000 803f 0000 803f
00000280: 0000 803f 0000 803f 0000 803f 0000 803f
00000290: 0000 803f 0000 803f 0000 803f 0000 803f
000002a0: 0000 803f 0000 803f 0000 803f 0000 803f
000002b0: 0000 803f 0000 803f 0000 803f

drift.weight f4 [2, 175]
0.42640606 -0.12507847 0.056003388 0.029864395 0.3597865 0.041481167 -0.016712308 0.2866954
0.16897202 0.1464635 -0.3731598 -0.17052673 -0.1101012 0.07294883 0.087191276 0.119313695
0.1778993 -0.022903109 0.16699034 0.0716445 0.11620532 -0.3675961 -0.08245164 -0.0033181633
0.8890567 0.045956995 -0.29598394 -0.12765624 -0.11936263 0.14281498 0.3435321 0.054522168
0.090014674 0.05057715 -0.0020558028 0.15853357 -0.16398259 -0.047590517 0.10129719 0.0773479
0.48690924 -0.070106916 0.15165907 -0.3574579 -0.0020482973 0.008635407 -0.07702933 -0.21744177
0.074625865 0.41921195 0.34597984 0.32272026 0.2100108 -0.23479687 0.003937418 -0.79706115
0.04207543 -0.119353995 0.3001577 0.4843633 0.11637687 0.1867056 0.23496266 -0.10899012
-0.19052817 0.14299767 0.09437768 -0.24443534 -0.1348713 -0.020644687 -0.056988947 0.046519358
0.03595388 -0.26460457 0.05827562 -0.17603968 -0.16901836 0.019504562 -0.13578641 0.025370395
0.070512936 0.1488436 -0.15923809 -0.013207954 -0.111823834 0.06257691 -0.15138747 -0.2314004
-0.33163062 0.02206135 0.20503946 0.18170609 0.07014571 0.026511159 0.20619719 0.025445975
-0.12241494 0.06348641 0.13470787 -0.009796473 -0.083763145 -0.305306 0.19741613 0.034303483
0.063690774 0.08130244 -0.36300996 0.05608641 -0.24793288 0.09876258 -0.23848274 -0.033396065
-0.047654677 0.07926322 -0.36737403 0.22947368 -0.11149272 -0.41285568 0.40445375 0.05755995
-0.023562567 0.12410104 -0.038624663 -0.073044114 -0.15240307 0.13134909 -0.02988256 -0.09890213
0.025945518 -0.40053582 -0.06655263 -0.20618176 -0.120217614 -0.0016152862 0.009138119 -0.029942857
0.31942815 0.25195867 0.118150674 -0.011043263 0.22888266 0.1650652 0.7798588 0.22278874
0.03013393 -0.13476048 0.20048773 -0.5093626 0.35776055 -0.041874114 0.059127193 -0.026394052
0.021636704 -0.14505728 0.2044375 0.2772036 -0.090710655 0.1715048 -0.02818987 -0.5981815
-0.017877541 -0.12304044 0.2619699 -0.04288205 0.086043455 -0.093253836 -0.103687644 0.10499821
-0.45391786 0.12019068 -0.12473703 0.051447004 0.06294763 -0.33270174 -0.002568529 -0.45676592
0.13254328 -0.17669694 -0.08335098 -0.6084807 0.2328563 -0.05354037 -0.19400048 -0.087143056
-0.16558151 0.46697956 0.03990815 0.28399473 -0.20157543 -0.3593532 -0.12943898 -0.34247187
0.11046575 -0.3800756 0.021834526 -0.03291974 0.5241168 0.028565736 0.13855581 -0.8140857
-0.13979827 -0.5741779 0.4030409 0.18617779 0.26628032 -0.0024764726 -0.046017636 0.059719212
-0.39617017 -0.079370484 -0.24638984 0.28656664 0.2585237 -0.13664763 0.169155 -0.48537576
0.0126123065 -0.15381195 0.40441832 -0.3490295 -0.034413353 0.19499844 0.32440215 -0.2077586
-0.52320254 -0.66459984 -0.6269402 -0.12614086 0.1979803 0.10913034 0.20511538 0.1859363
0.004587011 -0.12524118 -0.56618184 -0.09065223 -0.17609517 -0.1957553 0.4742875 0.16065334
0.073722586 0.08539671 -0.006877179 -0.17113073 -0.054304566 0.24151114 0.014279729 0.041721113
0.10161523 0.06618019 0.16054359 0.12225805 0.0607387 -0.15518908 -0.10011244 0.058104765
00000000: e551 da3e 9214 00be cf63 653d 2da6 f43c
00000010: f035 b83e 28e8 293d 40e8 88bc bdc9 923e
00000020: 0007 2d3e 87fa 153e cd0e bfbe 8f9e 2ebe
00000030: bd7c e1bd 3266 953d 5791 b23d bd5a f43d
00000040: 3c2b 363e 4d9f bbbc 84ff 2a3e 5aba 923d
00000050: 0efd ed3d 8e35 bcbe 68dc a8bd 8b75 59bb
00000060: 3899 633f 673d 3c3d 358b 97be 51b8 02be
00000070: 6574 f4bd 173e 123e 70e3 af3e a352 5f3d
00000080: 9d59 b83d fc29 4f3d a6ba 06bb a056 223e
00000090: 0deb 27be 46ee 42bd e774 cf3d 9368 9e3d
000000a0: 2b4c f93e 3794 8fbd 844c 1b3e b904 b7be
000000b0: ba3c 06bb 867b 0d3c 8ec1 9dbd 0ea9 5ebe
000000c0: 72d5 983d f3a2 d63e 4524 b13e 973b a53e
000000d0: 120d 573e 976e 70be 7505 813b 330c 4cbf
000000e0: 4957 2c3d de6f f4bd 45ae 993e 77fe f73e
000000f0: ff56 ee3d c12f 3f3e 0d9a 703e 3636 dfbd
00000100: d119 43be fb6d 123e 1649 c13d 424d 7abe
00000110: b41b 0abe 0c1f a9bc 3e6d 69bd 158b 3e3d
00000120: 6044 133d 407a 87be 6bb2 6e3d bf43 34be
00000130: 2613 2dbe 08c8 9f3c 980b 0bbe 93d5 cf3c
00000140: 1669 903d 756a 183e 4f0f 23be 2d66 58bc
00000150: e503 e5bd 5328 803d 5105 1bbe 3af4 6cbe
00000160: 7dcb a9be 01ba b43c ddf5 513e 2911 3a3e
00000170: 8ea8 8f3d ee2d d93c 5b25 533e 1474 d03c
00000180: afb4 fabd 2a05 823d dcf0 093e 6381 20bc
00000190: 038c abbd 1151 9cbe 7427 4a3e cf81 0c3d
000001a0: 4f70 823d e581 a63d 71dc b9be ddba 653d
000001b0: 1ee2 7dbe 0944 ca3d d234 74be 50ca 08bd
000001c0: 8d31 43bd c154 a23d 7318 bcbe 26fb 6a3e
000001d0: 4c56 e4bd d261 d3be 9014 cf3e fbc3 6b3d
000001e0: 4906 c1bc b028 fe3d e534 1ebd 2798 95bd
000001f0: 8d0f 1cbe 6080 063e 45cc f4bc 338d cabd
00000200: b28b d43c 0813 cdbe bf4c 88bd 5021 53be
00000210: a734 f6bd 03b8 d3ba 0db8 153c b94a f5bc
00000220: 168c a33e ba00 813e fbf8 f13d cdee 34bc
00000230: 3760 6a3e da06 293e d4a4 473f bb22 643e
00000240: 6edb f63c a7fe 09be a84c 4d3e 9665 02bf
00000250: 642c b73e 3184 2bbd 5b2f 723d 5738 d8bc
00000260: 753f b13c e589 14be 1058 513e a1ed 8d3e
00000270: 82c6 b9bd f49e 2f3e 71ee e6bc 6c22 19bf
00000280: ec73 92bc a0fc fbbd eb20 863e 17a5 2fbd
00000290: 8d37 b03d defb bebd 305a d4bd 4d09 d73d
000002a0: ec67 e8be 8826 f63d 2176 ffbd 18ba 523d
000002b0: b0ea 803d e257 aabe c454 28bb 39dd e9be
000002c0: 6db9 073e 0bf0 34be ebb3 aabd 64c5 1bbf
000002d0: e271 6e3e 264d 5bbd 10a8 46be 0f78 b2bd
000002e0: 338e 29be f217 ef3e ba76 233d c267 913e
000002f0: ca69 4ebe 25fd b7be a78b 04be 7958 afbe
00000300: de3b e23d 4599 c2be 52de b23c d9d6 06bd
00000310: 852c 063f b102 ea3c 93e1 0d3e ec67 50bf
00000320: 4727 0fbe 53fd 12bf 605b ce3e 64a5 3e3e
00000330: e555 883e 514c 22bb fd7c 3cbd 229c 743d
00000340: d1d6 cabe fe8c a2bd 9e4d 7cbe ddb8 923e
00000350: 385d 843e 5bed 0bbe f836 2d3e 2c83 f8be
00000360: d9a3 4e3c e180 1dbe eb0f cf3e ffb3 b2be
00000370: 04f5 0cbd acad 473e 0a18 a63e acbe 54be
00000380: 9af0 05bf 3723 2abf 277f 20bf 122b 01be
00000390: 59bb 4a3e ba7f df3d c409 523e 1666 3e3e
000003a0: a34e 963b 393f 00be 4bf1 10bf e0a7 b9bd
000003b0: 4b52 34be 1474 48be d0d5 f23e 4f82 243e
000003c0: defb 963d 78e4 ae3d f559 e1bb e53c 2fbe
000003d0: 776e 5ebd b24e 773e 86f5 693c c2e3 2a3d
000003e0: a51b d03d 7b89 873d 8a65 243e 6e62 fa3d
000003f0: 25c9 783d e3e9 1ebe c007 cdbd 43ff 6d3d

drift.bias f4 [175]
0.0 0.0 0.0 0.0 0.0 0.0 0.0 0.0
0.0 0.0 0.0 0.0 0.0 0.0 0.0 0.0
0.0 0.0 0.0 0.0 0.0 0.0 0.0 0.0
0.0 0.0 0.0 0.0 0.0 0.0 0.0 0.0
0.0 0.0 0.0 0.0 0.0 0.0 0.0 0.0
0.0 0.0 0.0 0.0 0.0 0.0 0.0 0.0
0.0 0.0 0.0 0.0 0.0 0.0 0.0 0.0
0.0 0.0 0.0 0.0 0.0 0.0 0.0 0.0
0.0 0.0 0.0 0.0 0.0 0.0 0.0 0.0
0.0 0.0 0.0 0.0 0.0 0.0 0.0 0.0
0.0 0.0 0.0 0.0 0.0 0.0 0.0 0.0
0.0 0.0 0.0 0.0 0.0 0.0 0.0 0.0
0.0 0.0 0.0 0.0 0.0 0.0 0.0 0.0
0.0 0.0 0.0 0.0 0.0 0.0 0.0 0.0
0.0 0.0 0.0 0.0 0.0 0.0 0.0 0.0
0.0 0.0 0.0 0.0 0.0 0.0 0.0 0.0
0.0 0.0 0.0 0.0 0.0 0.0 0.0 0.0
0.0 0.0 0.0 0.0 0.0 0.0 0.0 0.0
0.0 0.0 0.0 0.0 0.0 0.0 0.0 0.0
0.0 0.0 0.0 0.0 0.0 0.0 0.0 0.0
0.0 0.0 0.0 0.0 0.0 0.0 0.0 0.0
0.0 0.0 0.0 0.0 0.0 0.0 0.0
00000000: 0000 0000 0000 0000 0000 0000 0000 0000
00000010: 0000 0000 0000 0000 0000 0000 0000 0000
00000020: 0000 0000 0000 0000 0000 0000 0000 0000
00000030: 0000 0000 0000 0000 0000 0000 0000 0000
00000040: 0000 0000 0000 0000 0000 0000 0000 0000
00000050: 0000 0000 0000 0000 0000 0000 0000 0000
00000060: 0000 0000 0000 0000 0000 0000 0000 0000
00000070: 0000 0000 0000 0000 0000 0000 0000 0000
00000080: 0000 0000 0000 0000 0000 0000 0000 0000
00000090: 0000 0000 0000 0000 0000 0000 0000 0000
000000a0: 0000 0000 0000 0000 0000 0000 0000 0000
000000b0: 0000 0000 0000 0000 0000 0000 0000 0000
000000c0: 0000 0000 0000 0000 0000 0000 0000 0000
000000d0: 0000 0000 0000 0000 0000 0000 0000 0000
000000e0: 0000 0000 0000 0000 0000 0000 0000 0000
000000f0: 0000 0000 0000 0000 0000 0000 0000 0000
00000100: 0000 0000 0000 0000 0000 0000 0000 0000
00000110: 0000 0000 0000 0000 0000 0000 0000 0000
00000120: 0000 0000 0000 0000 0000 0000 0000 0000
00000130: 0000 0000 0000 0000 0000 0000 0000 0000
00000140: 0000 0000 0000 0000 0000 0000 0000 0000
00000150: 0000 0000 0000 0000 0000 0000 0000 0000
00000160: 0000 0000 0000 0000 0000 0000 0000 0000
00000170: 0000 0000 0000 0000 0000 0000 0000 0000
00000180: 0000 0000 0000 0000 0000 0000 0000 0000
00000190: 0000 0000 0000 0000 0000 0000 0000 0000
000001a0: 0000 0000 0000 0000 0000 0000 0000 0000
000001b0: 0000 0000 0000 0000 0000 0000 0000 0000
000001c0: 0000 0000 0000 0000 0000 0000 0000 0000
000001d0: 0000 0000 0000 0000 0000 0000 0000 0000
000001e0: 0000 0000 0000 0000 0000 0000 0000 0000
000001f0: 0000 0000 0000 0000 0000 0000 0000 0000
00000200: 0000 0000 0000 0000 0000 0000 0000 0000
00000210: 0000 0000 0000 0000 0000 0000 0000 0000
00000220: 0000 0000 0000 0000 0000 0000 0000 0000
00000230: 0000 0000 0000 0000 0000 0000 0000 0000
00000240: 0000 0000 0000 0000 0000 0000 0000 0000
00000250: 0000 0000 0000 0000 0000 0000 0000 0000
00000260: 0000 0000 0000 0000 0000 0000 0000 0000
00000270: 0000 0000 0000 0000 0000 0000 0000 0000
00000280: 0000 0000 0000 0000 0000 0000 0000 0000
00000290: 0000 0000 0000 0000 0000 0000 0000 0000
000002a0: 0000 0000 0000 0000 0000 0000 0000 0000
000002b0: 0000 0000 0000 0000 0000 0000

drift._ei_mask f4 [175]
1.0 1.0 1.0 1.0 1.0 1.0 1.0 1.0
1.0 1.0 1.0 1.0 1.0 1.0 1.0 1.0
1.0 1.0 1.0 1.0 1.0 1.0 1.0 1.0
1.0 1.0 1.0 1.0 1.0 1.0 1.0 1.0
1.0 1.0 1.0 1.0 1.0 1.0 1.0 1.0
1.0 1.0 1.0 1.0 1.0 1.0 1.0 1.0
1.0 1.0 1.0 1.0 1.0 1.0 1.0 1.0
1.0 1.0 1.0 1.0 1.0 1.0 1.0 1.0
1.0 1.0 1.0 1.0 1.0 1.0 1.0 1.0
1.0 1.0 1.0 1.0 1.0 1.0 1.0 1.0
1.0 1.0 1.0 1.0 1.0 1.0 1.0 1.0
1.0 1.0 1.0 1.0 1.0 1.0 1.0 1.0
1.0 1.0 1.0 1.0 1.0 1.0 1.0 1.0
1.0 1.0 1.0 1.0 1.0 1.0 1.0 1.0
1.0 1.0 1.0 1.0 1.0 1.0 1.0 1.0
1.0 1.0 1.0 1.0 1.0 1.0 1.0 1.0
1.0 1.0 1.0 1.0 1.0 1.0 1.0 1.0
1.0 1.0 1.0 1.0 1.0 1.0 1.0 1.0
1.0 1.0 1.0 1.0 1.0 1.0 1.0 1.0
1.0 1.0 1.0 1.0 1.0 1.0 1.0 1.0
1.0 1.0 1.0 1.0 1.0 1.0 1.0 1.0
1.0 1.0 1.0 1.0 1.0 1.0 1.0
00000000: 0000 803f 0000 803f 0000 803f 0000 803f
00000010: 0000 803f 0000 803f 0000 803f 0000 803f
00000020: 0000 803f 0000 803f 0000 803f 0000 803f
00000030: 0000 803f 0000 803f 0000 803f 0000 803f
00000040: 0000 803f 0000 803f 0000 803f 0000 803f
00000050: 0000 803f 0000 803f 0000 803f 0000 803f
00000060: 0000 803f 0000 803f 0000 803f 0000 803f
00000070: 0000 803f 0000 803f 0000 803f 0000 803f
00000080: 0000 803f 0000 803f 0000 803f 0000 803f
00000090: 0000 803f 0000 803f 0000 803f 0000 803f
000000a0: 0000 803f 0000 803f 0000 803f 0000 803f
000000b0: 0000 803f 0000 803f 0000 803f 0000 803f
000000c0: 0000 803f 0000 803f 0000 803f 0000 803f
000000d0: 0000 803f 0000 803f 0000 803f 0000 803f
000000e0: 0000 803f 0000 803f 0000 803f 0000 803f
000000f0: 0000 803f 0000 803f 0000 803f 0000 803f
00000100: 0000 803f 0000 803f 0000 803f 0000 803f
00000110: 0000 803f 0000 803f 0000 803f 0000 803f
00000120: 0000 803f 0000 803f 0000 803f 0000 803f
00000130: 0000 803f 0000 803f 0000 803f 0000 803f
00000140: 0000 803f 0000 803f 0000 803f 0000 803f
00000150: 0000 803f 0000 803f 0000 803f 0000 803f
00000160: 0000 803f 0000 803f 0000 803f 0000 803f
00000170: 0000 803f 0000 803f 0000 803f 0000 803f
00000180: 0000 803f 0000 803f 0000 803f 0000 803f
00000190: 0000 803f 0000 803f 0000 803f 0000 803f
000001a0: 0000 803f 0000 803f 0000 803f 0000 803f
000001b0: 0000 803f 0000 803f 0000 803f 0000 803f
000001c0: 0000 803f 0000 803f 0000 803f 0000 803f
000001d0: 0000 803f 0000 803f 0000 803f 0000 803f
000001e0: 0000 803f 0000 803f 0000 803f 0000 803f
000001f0: 0000 803f 0000 803f 0000 803f 0000 803f
00000200: 0000 803f 0000 803f 0000 803f 0000 803f
00000210: 0000 803f 0000 803f 0000 803f 0000 803f
00000220: 0000 803f 0000 803f 0000 803f 0000 803f
00000230: 0000 803f 0000 803f 0000 803f 0000 803f
00000240: 0000 803f 0000 803f 0000 803f 0000 803f
00000250: 0000 803f 0000 803f 0000 803f 0000 803f
00000260: 0000 803f 0000 803f 0000 803f 0000 803f
00000270: 0000 803f 0000 803f 0000 803f 0000 803f
00000280: 0000 803f 0000 803f 0000 803f 0000 803f
00000290: 0000 803f 0000 803f 0000 803f 0000 803f
000002a0: 0000 803f 0000 803f 0000 803f 0000 803f
000002b0: 0000 803f 0000 803f 0000 803f

gain_mu.weight f4 [403, 3]
-1.8090532 0.68445635 0.36313197 -1.6153263 -0.30879068 1.0669705 -1.2581687 -0.82923883
1.3353934 -0.9209837 -1.0248239 1.4162524 -0.29415402 -0.98750526 1.6622571 0.6574656
-0.5246517 1.8887088 0.40019578 -0.5246092 1.467482 -0.28755292 -0.9482329 1.4962252
-0.12409731 -1.1380155 1.6758206 1.5651059 -0.32051197 1.4114932 1.5791457 0.21964024
1.5625861 0.51906013 0.044590328 0.5640009 0.29836047 -0.0700492 0.7943349 0.47318852
-0.22943032 0.76612115 -0.055659592 0.088864505 1.1945819 -0.5753943 -0.7629802 1.4522488
0.86353326 -0.20548502 1.2211233 0.70090485 -0.42158213 1.4924003 0.56932443 -0.3738018
1.4687381 0.82761383 -0.46523762 0.71793985 0.9715941 -0.3436048 1.1759843 0.6977143
-0.24773262 1.9075294 -0.37203836 -1.024048 1.8646554 -0.14184025 -0.99887335 1.8682408
-0.040527597 -1.0756724 1.8451269 0.56190246 -1.1663976 2.176885 1.2765673 -1.0908667
1.9935904 1.0654494 -1.4334328 2.3008225 1.7144034 -1.337561 2.0874577 1.6426255
-1.2033947 1.8292738 1.2974206 -1.1732792 1.785816 1.1753889 -1.0218844 1.7825938
1.2705882 -0.9165049 0.8472219 0.7987481 -0.4601048 1.022846 0.47594732 -1.0824012
1.8419714 0.95484674 -0.68061274 1.7844646 1.856672 -1.1315365 2.0363586 1.951316
-1.6893027 2.4076943 1.9032437 -1.777236 2.8058228 2.146691 -1.0835345 2.4839165
1.6959522 -1.3508 2.52106 2.2604833 -1.3850073 2.4888766 2.5418532 -1.7850999
2.8786092 2.3174984 -1.6773669 3.128579 2.291851 -1.4171103 2.5916533 1.6313678
-1.4003612 2.3173275 1.4873357 -1.2467935 1.9271352 0.9245368 -0.9937956 1.679015
0.721385 -1.179066 2.1483228 1.1877457 -1.827647 2.7764375 0.99824655 -1.9102126
3.0167494 0.7191668 -1.6420163 3.1207907 1.3873811 -1.4404241 2.6480453 1.0228837
-1.823919 2.1458895 1.0582494 -1.8137776 1.3767421 0.99547625 -1.1968731 1.5872283
0.7989278 -1.2922368 1.6119454 0.4370152 -0.64139116 1.1887846 0.44369036 -0.5281817
0.6013572 0.5422123 -0.68579453 0.9066973 0.31438246 -0.3952282 0.91136676 0.73762184
-1.0700399 1.3187307 0.58831066 -0.8495634 1.4504939 0.28143957 -0.9048998 1.2861731
0.3201465 -0.8071729 1.3352734 0.61712587 -1.2142363 1.3755155 0.5700595 -1.3424671
1.4233292 0.33475342 -1.4905382 1.6175293 0.6127172 -1.0506859 1.7289504 1.0128367
-0.93601054 1.5584445 1.0726298 -0.9618711 1.3740344 1.0683901 -1.158756 1.152347
1.2954488 -1.384149 1.1539246 -0.0021328426 -1.5210071 2.0191686 0.8234294 -1.4915049
2.534279 1.696203 -1.4885466 2.2341542 1.3570721 -1.4281085 2.5566 1.3380554
-1.6193613 2.5285773 1.5371029 -1.3877007 2.5330775 2.1696877 -1.5510585 2.5157878
2.3026242 -2.010366 2.514828 2.0117183 -1.8721133 2.883772 2.0389557 -1.7875186
2.5900044 1.8370699 -1.3824553 2.5951638 1.826993 -1.1089197 3.2393546 2.1232412
00000000: 0e8f e7bf 8838 2f3f 6fec b93e 03c3 cebf
00000010: d019 9ebe 7d92 883f ac0b a1bf ff48 54bf
00000020: 2cee aa3f 96c5 6bbf 6e2d 83bf c247 b53f
00000030: 5b9b 96be 25cd 7cbf d7c4 d43f aa4f 283f
00000040: 934f 06bf 36c1 f13f 76e6 cc3e ca4c 06bf
00000050: 73d6 bb3f 233a 93be 64bf 72bf 4f84 bf3f
00000060: bb26 febd 7eaa 91bf 4a81 d63f 6455 c83f
00000070: 251a a4be cfab b43f 7221 ca3f 5fe9 603e
00000080: d202 c83f 20e1 043f 59a4 363d 5d62 103f
00000090: b4c2 983e f475 8fbd 8859 4b3f c445 f23e
000000a0: c8ef 6abe 8420 443f 50fb 63bd 98fe b53d
000000b0: 0fe8 983f 0a4d 13bf ac52 43bf 4ae3 b93f
000000c0: 8410 5d3f aa6a 52be c54d 9c3f 806e 333f
000000d0: 9dd9 d7be f906 bf3f 3fbf 113f f362 bfbe
000000e0: 9cff bb3f 80de 533f a033 eebe e8ca 373f
000000f0: 64ba 783f f8ec afbe a786 963f 689d 323f
00000100: 9fad 7dbe ec29 f43f d07b bebe 0114 83bf
00000110: 07ad ee3f 923e 11be 2ab6 7fbf 8422 ef3f
00000120: 4400 26bd a2af 89bf 1e2d ec3f d7d8 0f3f
00000130: 844c 95bf 1552 0b40 8f66 a33f 85a1 8bbf
00000140: f82d ff3f a560 883f ba7a b7bf ad40 1340
00000150: 9271 db3f 3335 abbf e898 0540 8d41 d23f
00000160: d608 9abf a525 ea3f e111 a63f 032e 96bf
00000170: 9e95 e43f 2573 963f 1ccd 82bf 092c e43f
00000180: a2a2 a23f 11a0 6abf 89e3 583f c17a 4c3f
00000190: db92 ebbe 9eec 823f 5eaf f33e 1f8c 8abf
000001a0: b8c5 eb3f d670 743f a33c 2ebf 5669 e43f
000001b0: 6ea7 ed3f 30d6 90bf b353 0240 b9c4 f93f
000001c0: 123b d8bf aa17 1a40 7d9d f33f 787c e3bf
000001d0: 9a92 3340 6363 0940 42b1 8abf 7df8 1e40
000001e0: f614 d93f 04e7 acbf 0c59 2140 c2ab 1040
000001f0: eb47 b1bf c149 1f40 b9ad 2240 277e e4bf
00000200: 223b 3840 e551 1440 f5b3 d6bf a33a 4840
00000210: b0ad 1240 df63 b5bf a6dd 2540 a9d0 d03f
00000220: 093f b3bf 184f 1440 0461 be3f ee96 9fbf
00000230: 5eac f63f 72ae 6c3f 6369 7ebf f7e9 d63f
00000240: b0ac 383f a2eb 96bf 1f7e 0940 0d08 983f
00000250: 56f0 e9bf 27b1 3140 168d 7f3f d981 f4bf
00000260: 6c12 4140 511b 383f 972d d2bf 09bb 4740
00000270: b495 b13f d15f b8bf 9379 2940 daed 823f
00000280: 2e76 e9bf 4156 0940 b774 873f dd29 e8bf
00000290: 1639 b03f 88d7 7e3f 2333 99bf 4c2a cb3f
000002a0: 8886 4c3f 0468 a5bf 3a54 ce3f 75c0 df3e
000002b0: 3632 24bf 182a 983f 622b e33e ea36 07bf
000002c0: 8cf2 193f 6dce 0a3f 3b90 2fbf 501d 683f
000002d0: bdf6 a03e 5a5b cabe 554f 693f c9d4 3c3f
000002e0: 11f7 88bf 2bcc a83f 879b 163f fd7c 59bf
000002f0: c9a9 b93f d918 903e 83a7 67bf 52a1 a43f
00000300: 3eea a33e e2a2 4ebf 3dea aa3f f6fb 1d3f
00000310: 186c 9bbf e410 b03f 6bef 113f f6d5 abbf
00000320: a72f b63f cd64 ab3e f5c9 bebf 330b cf3f
00000330: 09db 1c3f e07c 86bf 3f4e dd3f a2a4 813f
00000340: 639e 6fbf 1c7b c73f ef4b 893f 2f3d 76bf
00000350: 5ce0 af3f 02c1 883f 1e52 94bf 1b80 933f
00000360: 44d1 a53f cb2b b1bf cdb3 933f 29c7 0bbb
00000370: 5cb0 c2bf 0f3a 0140 45cc 523f a2e9 bebf
00000380: a131 2240 2e1d d93f b288 bebf 62fc 0e40
00000390: 8ab4 ad3f 42cc b6bf 569f 2340 6645 ab3f
000003a0: 3b47 cfbf 36d4 2140 cabf c43f 2da0 b1bf
000003b0: f11d 2240 2adc 0a40 1689 c6bf ab02 2140
000003c0: 325e 1340 d6a9 00c0 f1f2 2040 febf 0040
000003d0: 69a1 efbf b88f 3840 407e 0240 69cd e4bf
000003e0: a2c2 2540 1b25 eb3f 4cf4 b0bf 2a17 2640
000003f0: e8da e93f 15f1 8dbf 9651 4f40 2fe3 0740

gain_mu.bias f4 [3]
0.0 0.0 0.0
00000000: 0000 0000 0000 0000 0000 0000

gain_mu._ei_mask f4 [3]
1.0 1.0 1.0
00000000: 0000 803f 0000 803f 0000 803f

gain_mu.reg.reg_modules.0.rmat f4 [1, 1, 3]
-1.0 2.0 -1.0
00000000: 0000 80bf 0000 0040 0000 80bf

readout_gain.weight f4 [3, 175]
0.11201249 -0.16205814 -0.2362903 -0.14802468 -0.024063835 -0.1583069 0.20304343 0.057187025
0.155804 0.21532468 0.4641811 0.10535841 0.23233233 0.23022006 -1.046997 -0.12304696
-1.1803731 0.3463789 -1.0209277 -0.065404445 -0.4762458 0.19498047 -0.026497915 0.69246477
0.2901719 -0.043286502 0.024075853 -0.030001111 -0.19911171 -0.12690738 0.18125246 -0.36243272
0.24861462 0.15554556 -0.19658127 -0.22330876 -0.15541077 0.13815972 0.12750381 -0.08016833
0.13684727 0.063232444 0.06813052 2.047829 -0.06447511 -0.33906654 0.34652036 1.8306297
-0.30853033 -0.0903223 2.4223633 2.467831 0.0077280817 0.6581201 -0.10450281 0.32681477
0.00042984026 0.27560586 -0.30003613 -0.20509887 -0.22198567 -0.5286645 -0.23668215 -0.2699047
-0.12215491 0.20853668 0.08598124 0.026952801 -0.29670405 -0.089019135 -0.411875 0.046274755
-0.0016742743 0.12380523 -0.010441253 0.4626345 0.10189828 0.013023172 -0.13983823 0.32060626
0.009904054 -0.06900441 -0.43452534 0.14380823 -0.12961756 -0.0049895286 0.03597159 0.08758257
-0.008754327 0.01242262 0.10916576 0.14821926 -0.04219241 0.021485843 0.0015858907 -0.06814809
-0.090424955 0.4016473 0.0383542 -0.05844504 -0.07259804 -0.02780654 -0.102600895 -0.026650036
0.0055317474 -0.045813784 0.27466267 -0.038838413 0.6885243 -0.06291087 0.27213436 -0.18857706
-0.3896501 0.09851861 0.34504554 0.06943487 0.12473587 -0.015006131 -0.15077752 0.04750335
-0.062214673 0.2501478 0.23621024 0.20877168 -0.034228202 -0.013715973 0.1406485 -0.09258018
0.4266835 0.036418397 0.085153796 0.0030577953 0.15617791 -0.24892463 -0.10139623 0.07872074
0.06186056 0.018719738 -0.09598592 -0.08090237 0.10983689 -0.18630941 -0.012622255 0.120607615
0.25122118 0.0091495635 -0.16080396 -0.74327743 -0.622744 0.20811805 -0.4110462 0.14940871
0.03133336 0.098162785 -0.16634086 -0.30021474 -0.22096564 -0.16958427 -0.28342855 0.08393343
0.29780322 -0.12741609 -0.07320399 0.29366493 -0.005636147 -0.040126786 -0.4494708 0.019788027
0.91981053 -0.07713362 -0.035476316 0.053531773 0.042785134 0.14373352 -0.17936514 -0.4547842
-0.034229334 0.23017152 0.07744789 0.006447947 -0.18874636 -0.15877737 -0.056951657 -0.17765817
-0.34030786 -0.04590061 0.0071520978 1.0650958 0.13254036 0.6876238 -0.13493934 0.48376262
-0.101202816 0.6760595 -0.11622937 -0.30175114 -0.061628595 -0.22242941 -0.060616218 -0.11167777
-0.29583436 0.18628688 0.37054017 0.2110306 0.13438553 0.17668073 -0.31323162 0.31514588
0.18262869 -0.3844965 -0.03959308 -0.8134416 -0.15562476 -0.17820022 -0.07726835 -0.13551715
-0.5421677 -0.26127517 2.2009883 -0.44572186 1.3937515 -0.26257107 -0.9923476 -0.1724849
-0.114235826 2.934957 3.0243847 -0.64116216 -0.112997256 -0.6674689 0.15330453 -0.104827315
-0.32866222 0.28059512 -1.215249 -0.09243412 0.46772933 -0.20478097 0.37627125 -0.00665173
0.3901219 0.65426135 0.034732305 0.32945305 -0.27924505 -0.55075115 0.08964928 0.0026106453
-0.2035913 -0.044831716 -0.43978932 0.39573333 0.0022502246 -0.4112998 -0.40968844 -0.034268986
00000000: ce66 e53d 92f2 25be 16f6 71be c893 17be
00000010: 8521 c5bc 341b 22be 9eea 4f3e f13c 6a3d
00000020: 158b 1f3e 137e 5c3e 25a9 ed3e 26c6 d73d
00000030: 87e8 6d3e cfbe 6b3e ff03 86bf 0b00 fcbd
00000040: 7716 97bf 9358 b13e c2ad 82bf c4f2 85bd
00000050: 7dd6 f3be f6a8 473e 2812 d9bc 5f45 313f
00000060: 6991 943e 304d 31bd b93a c53c e4c4 f5bc
00000070: f1e3 4bbe 02f4 01be 3f9a 393e c890 b9be
00000080: d594 7e3e 5647 1f3e 9a4c 49be 0dab 64be
00000090: 0024 1fbe be79 0d3e 5c90 023e 4b2f a4bd
000000a0: b121 0c3e 0380 813d 0488 8b3d a10f 0340
000000b0: 870b 84bd 219a adbe 1e6b b13e 1352 ea3f
000000c0: b0f7 9dbe e6fa b8bd 0008 1b40 f1f0 1d40
000000d0: d93b fd3b 8f7a 283f 9205 d6bd 4454 a73e
000000e0: 2f5c e139 361c 8d3e 569e 99be 7005 52be
000000f0: 3650 63be 8f56 07bf ce5c 72be f330 8abe
00000100: 5a2c fabd a48a 553e ef16 b03d 1fcc dc3c
00000110: 98e9 97be aa4f b6bd 48e1 d2be 998a 3d3d
00000120: 5373 dbba 998d fd3d ca11 2bbc 6ede ec3e
00000130: 0cb0 d03d 245f 553c c131 0fbe 8126 a43e
00000140: 9d44 223c 2f52 8dbd 1b7a debe 7742 133e
00000150: 77ba 04be 337f a3bb f256 133d 7e5e b33d
00000160: 4f6e 0fbc 3f88 4b3c 4c92 df3d cac6 173e
00000170: f3d1 2cbd 1403 b03c a9dd cf3a 3a91 8bbd
00000180: b830 b9bd b7a4 cd3e 4b19 1d3d 1164 6fbd
00000190: 48ae 94bd 8aca e3bc 6b20 d2bd 2d51 dabc
000001a0: a943 b53b 3ca7 3bbd 96a0 8c3e 0715 1fbd
000001b0: 2143 303f 6ad7 80bd 3255 8b3e 581a 41be
000001c0: 3880 c7be 20c4 c93d cfa9 b03e de33 8e3d
000001d0: 8575 ff3d 46dc 75bc 6c65 1abe df92 423d
000001e0: d0d4 7ebd 5f13 803e 19e1 713e 3ec8 553e
000001f0: df32 0cbd f6b8 60bc 2906 103e ad9a bdbd
00000200: 4276 da3e 752b 153d 1d65 ae3d 4b65 483b
00000210: 1aed 1f3e 19e6 7ebe d4a8 cfbd 5738 a13d
00000220: 8061 7d3d 235a 993c 4494 c4bd 24b0 a5bd
00000230: 2af2 e03d e5c7 3ebe 93cd 4ebc 2001 f73d
00000240: 10a0 803e 0de8 153c cba9 24be 6e47 3ebf
00000250: 276c 1fbf e61c 553e a674 d2be 99fe 183e
00000260: 6957 003d 9209 c93d 4255 2abe bfb5 99be
00000270: d144 62be 80a7 2dbe 8c1d 91be 4ae5 ab3d
00000280: aa79 983e 5d79 02be f9eb 95bd 405b 963e
00000290: 6eaf b8bb fc5b 24bd 0921 e6be 801a a23c
000002a0: b478 6b3f 3bf8 9dbd 9d4f 11bd 2244 5b3d
000002b0: 773f 2f3d e12e 133e 7fab 37be 7ad9 e8be
000002c0: 0f34 0cbd 15b2 6b3e 009d 9e3d 4d49 d33b
000002d0: ba46 41be 8996 22be 2446 69bd 06ec 35be
000002e0: d53c aebe 4702 3cbd 255c ea3b 0f55 883f
000002f0: a9b8 073e 1d08 303f 8a2d 0abe bcaf f73e
00000300: 6c43 cfbd 3c12 2d3f aa09 eebd 207f 9abe
00000310: 446e 7cbd 89c4 63be b648 78bd 51b7 e4bd
00000320: 9a77 97be fdc1 3e3e 71b7 bd3e 6818 583e
00000330: 5c9c 093e cbeb 343e e55f a0be cd5a a13e
00000340: 0403 3b3e badc c4be 5a2c 22bd b53d 50bf
00000350: 195c 1fbe 1e7a 36be de3e 9ebd 02c5 0abe
00000360: 81cb 0abf dcc5 85be fedc 0c40 a835 e4be
00000370: 7366 b23f b76f 86be 7e0a 7ebf e29f 30be
00000380: 79f4 e9bd 56d6 3b40 858f 4140 3423 24bf
00000390: 1b6b e7bd 3edf 2abf ddfb 1c3e b4af d6bd
000003a0: 6a46 a8be 2aaa 8f3e 478d 9bbf 1a4e bdbd
000003b0: 387a ef3e 1ab2 51be a0a6 c03e c1f6 d9bb
000003c0: 0fbe c73e ac7d 273f 7643 0e3d 12ae a83e
000003d0: 35f9 8ebe 07fe 0cbf 0b9a b73d 5c17 2b3b
000003e0: 3d7a 50be 76a1 37bd 112c e1be 8f9d ca3e
000003f0: 8178 133b e395 d2be afc2 d1be a35d 0cbd

readout_gain.bias f4 [175]
0.0 0.0 0.0 0.0 0.0 0.0 0.0 0.0
0.0 0.0 0.0 0.0 0.0 0.0 0.0 0.0
0.0 0.0 0.0 0.0 0.0 0.0 0.0 0.0
0.0 0.0 0.0 0.0 0.0 0.0 0.0 0.0
0.0 0.0 0.0 0.0 0.0 0.0 0.0 0.0
0.0 0.0 0.0 0.0 0.0 0.0 0.0 0.0
0.0 0.0 0.0 0.0 0.0 0.0 0.0 0.0
0.0 0.0 0.0 0.0 0.0 0.0 0.0 0.0
0.0 0.0 0.0 0.0 0.0 0.0 0.0 0.0
0.0 0.0 0.0 0.0 0.0 0.0 0.0 0.0
0.0 0.0 0.0 0.0 0.0 0.0 0.0 0.0
0.0 0.0 0.0 0.0 0.0 0.0 0.0 0.0
0.0 0.0 0.0 0.0 0.0 0.0 0.0 0.0
0.0 0.0 0.0 0.0 0.0 0.0 0.0 0.0
0.0 0.0 0.0 0.0 0.0 0.0 0.0 0.0
0.0 0.0 0.0 0.0 0.0 0.0 0.0 0.0
0.0 0.0 0.0 0.0 0.0 0.0 0.0 0.0
0.0 0.0 0.0 0.0 0.0 0.0 0.0 0.0
0.0 0.0 0.0 0.0 0.0 0.0 0.0 0.0
0.0 0.0 0.0 0.0 0.0 0.0 0.0 0.0
0.0 0.0 0.0 0.0 0.0 0.0 0.0 0.0
0.0 0.0 0.0 0.0 0.0 0.0 0.0
00000000: 0000 0000 0000 0000 0000 0000 0000 0000
00000010: 0000 0000 0000 0000 0000 0000 0000 0000
00000020: 0000 0000 0000 0000 0000 0000 0000 0000
00000030: 0000 0000 0000 0000 0000 0000 0000 0000
00000040: 0000 0000 0000 0000 0000 0000 0000 0000
00000050: 0000 0000 0000 0000 0000 0000 0000 0000
00000060: 0000 0000 0000 0000 0000 0000 0000 0000
00000070: 0000 0000 0000 0000 0000 0000 0000 0000
00000080: 0000 0000 0000 0000 0000 0000 0000 0000
00000090: 0000 0000 0000 0000 0000 0000 0000 0000
000000a0: 0000 0000 0000 0000 0000 0000 0000 0000
000000b0: 0000 0000 0000 0000 0000 0000 0000 0000
000000c0: 0000 0000 0000 0000 0000 0000 0000 0000
000000d0: 0000 0000 0000 0000 0000 0000 0000 0000
000000e0: 0000 0000 0000 0000 0000 0000 0000 0000
000000f0: 0000 0000 0000 0000 0000 0000 0000 0000
00000100: 0000 0000 0000 0000 0000 0000 0000 0000
00000110: 0000 0000 0000 0000 0000 0000 0000 0000
00000120: 0000 0000 0000 0000 0000 0000 0000 0000
00000130: 0000 0000 0000 0000 0000 0000 0000 0000
00000140: 0000 0000 0000 0000 0000 0000 0000 0000
00000150: 0000 0000 0000 0000 0000 0000 0000 0000
00000160: 0000 0000 0000 0000 0000 0000 0000 0000
00000170: 0000 0000 0000 0000 0000 0000 0000 0000
00000180: 0000 0000 0000 0000 0000 0000 0000 0000
00000190: 0000 0000 0000 0000 0000 0000 0000 0000
000001a0: 0000 0000 0000 0000 0000 0000 0000 0000
000001b0: 0000 0000 0000 0000 0000 0000 0000 0000
000001c0: 0000 0000 0000 0000 0000 0000 0000 0000
000001d0: 0000 0000 0000 0000 0000 0000 0000 0000
000001e0: 0000 0000 0000 0000 0000 0000 0000 0000
000001f0: 0000 0000 0000 0000 0000 0000 0000 0000
00000200: 0000 0000 0000 0000 0000 0000 0000 0000
00000210: 0000 0000 0000 0000 0000 0000 0000 0000
00000220: 0000 0000 0000 0000 0000 0000 0000 0000
00000230: 0000 0000 0000 0000 0000 0000 0000 0000
00000240: 0000 0000 0000 0000 0000 0000 0000 0000
00000250: 0000 0000 0000 0000 0000 0000 0000 0000
00000260: 0000 0000 0000 0000 0000 0000 0000 0000
00000270: 0000 0000 0000 0000 0000 0000 0000 0000
00000280: 0000 0000 0000 0000 0000 0000 0000 0000
00000290: 0000 0000 0000 0000 0000 0000 0000 0000
000002a0: 0000 0000 0000 0000 0000 0000 0000 0000
000002b0: 0000 0000 0000 0000 0000 0000

readout_gain._ei_mask f4 [175]
1.0 1.0 1.0 1.0 1.0 1.0 1.0 1.0
1.0 1.0 1.0 1.0 1.0 1.0 1.0 1.0
1.0 1.0 1.0 1.0 1.0 1.0 1.0 1.0
1.0 1.0 1.0 1.0 1.0 1.0 1.0 1.0
1.0 1.0 1.0 1.0 1.0 1.0 1.0 1.0
1.0 1.0 1.0 1.0 1.0 1.0 1.0 1.0
1.0 1.0 1.0 1.0 1.0 1.0 1.0 1.0
1.0 1.0 1.0 1.0 1.0 1.0 1.0 1.0
1.0 1.0 1.0 1.0 1.0 1.0 1.0 1.0
1.0 1.0 1.0 1.0 1.0 1.0 1.0 1.0
1.0 1.0 1.0 1.0 1.0 1.0 1.0 1.0
1.0 1.0 1.0 1.0 1.0 1.0 1.0 1.0
1.0 1.0 1.0 1.0 1.0 1.0 1.0 1.0
1.0 1.0 1.0 1.0 1.0 1.0 1.0 1.0
1.0 1.0 1.0 1.0 1.0 1.0 1.0 1.0
1.0 1.0 1.0 1.0 1.0 1.0 1.0 1.0
1.0 1.0 1.0 1.0 1.0 1.0 1.0 1.0
1.0 1.0 1.0 1.0 1.0 1.0 1.0 1.0
1.0 1.0 1.0 1.0 1.0 1.0 1.0 1.0
1.0 1.0 1.0 1.0 1.0 1.0 1.0 1.0
1.0 1.0 1.0 1.0 1.0 1.0 1.0 1.0
1.0 1.0 1.0 1.0 1.0 1.0 1.0
00000000: 0000 803f 0000 803f 0000 803f 0000 803f
00000010: 0000 803f 0000 803f 0000 803f 0000 803f
00000020: 0000 803f 0000 803f 0000 803f 0000 803f
00000030: 0000 803f 0000 803f 0000 803f 0000 803f
00000040: 0000 803f 0000 803f 0000 803f 0000 803f
00000050: 0000 803f 0000 803f 0000 803f 0000 803f
00000060: 0000 803f 0000 803f 0000 803f 0000 803f
00000070: 0000 803f 0000 803f 0000 803f 0000 803f
00000080: 0000 803f 0000 803f 0000 803f 0000 803f
00000090: 0000 803f 0000 803f 0000 803f 0000 803f
000000a0: 0000 803f 0000 803f 0000 803f 0000 803f
000000b0: 0000 803f 0000 803f 0000 803f 0000 803f
000000c0: 0000 803f 0000 803f 0000 803f 0000 803f
000000d0: 0000 803f 0000 803f 0000 803f 0000 803f
000000e0: 0000 803f 0000 803f 0000 803f 0000 803f
000000f0: 0000 803f 0000 803f 0000 803f 0000 803f
00000100: 0000 803f 0000 803f 0000 803f 0000 803f
00000110: 0000 803f 0000 803f 0000 803f 0000 803f
00000120: 0000 803f 0000 803f 0000 803f 0000 803f
00000130: 0000 803f 0000 803f 0000 803f 0000 803f
00000140: 0000 803f 0000 803f 0000 803f 0000 803f
00000150: 0000 803f 0000 803f 0000 803f 0000 803f
00000160: 0000 803f 0000 803f 0000 803f 0000 803f
00000170: 0000 803f 0000 803f 0000 803f 0000 803f
00000180: 0000 803f 0000 803f 0000 803f 0000 803f
00000190: 0000 803f 0000 803f 0000 803f 0000 803f
000001a0: 0000 803f 0000 803f 0000 803f 0000 803f
000001b0: 0000 803f 0000 803f 0000 803f 0000 803f
000001c0: 0000 803f 0000 803f 0000 803f 0000 803f
000001d0: 0000 803f 0000 803f 0000 803f 0000 803f
000001e0: 0000 803f 0000 803f 0000 803f 0000 803f
000001f0: 0000 803f 0000 803f 0000 803f 0000 803f
00000200: 0000 803f 0000 803f 0000 803f 0000 803f
00000210: 0000 803f 0000 803f 0000 803f 0000 803f
00000220: 0000 803f 0000 803f 0000 803f 0000 803f
00000230: 0000 803f 0000 803f 0000 803f 0000 803f
00000240: 0000 803f 0000 803f 0000 803f 0000 803f
00000250: 0000 803f 0000 803f 0000 803f 0000 803f
00000260: 0000 803f 0000 803f 0000 803f 0000 803f
00000270: 0000 803f 0000 803f 0000 803f 0000 803f
00000280: 0000 803f 0000 803f 0000 803f 0000 803f
00000290: 0000 803f 0000 803f 0000 803f 0000 803f
000002a0: 0000 803f 0000 803f 0000 803f 0000 803f
000002b0: 0000 803f 0000 803f 0000 803f
