checkpoints/version103/model.pt (torch, 34217 bytes, 14 tensors)

bias f4 [175]
000000 69 d5 69 3e 27 d3 4a 40 bd 96 45 bf 40 b4 60 be
       0.22835316 3.1691377 -0.77183133 -0.2194376
000010 43 8a ce bd fa aa fb 3f 37 c9 40 40 0f 03 37 40
       -0.10084965 1.9661553 3.0122812 2.8595617
000020 e9 88 28 40 0b 8d 77 40 24 bd dc 3f dd c9 1e 40
       2.6333563 3.8679836 1.7245221 2.4810708
000030 34 d0 f6 3e 31 14 2c 3e ba 5d 33 3f 52 bc 5f 40
       0.4820572 0.16804577 0.7006489 3.4958692
000040 d4 2b e1 3e 0a 9f 44 bf 54 d2 f9 3e 55 87 75 40
       0.4397875 -0.76805174 0.4879328 3.836385
000050 a9 fd 3e bf 34 30 b6 3e fa 95 b8 3f 80 62 f2 be
       -0.74605805 0.3558365 1.4420769 -0.47340775
000060 d1 54 9e bf 2e 55 7d 40 6b 60 41 40 4d e4 77 3f
       -1.2369634 3.958324 3.02151 0.96832734
000070 db 19 91 3f 96 5f 14 40 c1 72 63 39 92 6a d1 3f
       1.1336015 2.318334 0.00021691156 1.6360648
000080 15 ff 07 40 39 68 f9 3f d3 5d e2 be 8a 98 8a 40
       2.124944 1.9484931 -0.44212207 4.3311205
000090 8c f4 50 bf 69 5f a3 3f b3 c9 4d 40 5d 8d 06 40
       -0.8162315 1.2763492 3.2154357 2.1023781
0000a0 67 0f 25 40 18 78 7d 3f 4c 36 67 bd c2 50 95 3f
       2.579065 0.99011374 -0.056448266 1.166527
0000b0 6d fd 1f 40 6b cd 4f 3e c3 de 3d bd 42 c0 99 3e
       2.499843 0.20293204 -0.04635502 0.30029494
0000c0 d1 9b 39 3f 9e a3 85 3e b4 5a ad 3f d9 d4 cf 3f
       0.7250338 0.26101393 1.3543305 1.6236831
0000d0 11 35 bd 3f 4a 15 45 bf 69 cb d1 be 6c eb 1a 40
       1.478182 -0.7698561 -0.40975502 2.420619
0000e0 7b ee 61 bf 96 e2 29 40 f8 50 18 bf c0 36 e7 3f
       -0.8825452 2.6544547 -0.5949855 1.8063583
0000f0 9c 21 82 bf ae e7 ea be a6 81 c2 3e 52 5b e1 be
       -1.0166507 -0.45879883 0.3798954 -0.44014984
000100 e7 2b 68 3e c1 4b 27 3f e9 50 af bd c9 10 93 3f
       0.22672997 0.65349966 -0.08560354 1.1489497
000110 28 3d 83 3e b6 34 ec 3f 21 2b 43 bf 9c b4 96 3f
       0.25632596 1.8453586 -0.76237684 1.1773868
000120 76 2e 9d 3f 50 4b 0d 40 bf 9a 99 3f 56 95 0c 40
       1.2279804 2.2077217 1.200035 2.1966147
000130 c9 8a 1d 40 2b 56 bc 3f b2 b6 39 40 d8 18 40 40
       2.4615958 1.4713796 2.9017758 3.0015163
000140 6c f7 a2 3f 86 05 2a 40 b4 c6 e3 3f 5f 64 67 40
       1.2731757 2.6565871 1.7795014 3.6155012
000150 6d 87 15 40 91 d3 99 3f 28 3c 72 40 87 9e 84 40
       2.3363907 1.201769 3.7849216 4.1443515
000160 fb ae d7 3f 67 be 9b 3f c2 81 0a 3f 75 e6 67 bf
       1.6850275 1.2167481 0.54104245 -0.90586025
000170 2e d5 84 40 e3 46 bb bf 42 ee 1d 3f 57 bf cd bd
       4.151023 -1.4631008 0.6169168 -0.10046261
000180 2d fc 9c 40 11 fb 40 be 29 d1 bd bf 6f fe 87 3f
       4.905783 -0.18845774 -1.4829456 1.0624522
000190 53 85 67 40 bb bf 29 40 13 30 e5 3f 05 45 d4 3f
       3.6175125 2.6523273 1.7905296 1.6583563
0001a0 61 26 56 3f af b8 f9 3f d8 e4 70 40 d1 6d e9 3f
       0.8365231 1.9509486 3.7639675 1.8236638
0001b0 ab 96 a0 3f 6c 9d 09 40 53 88 b3 3f 1a 50 60 bf
       1.254598 2.1502333 1.4025978 -0.87622225
0001c0 c4 c6 60 3e c9 a1 5c 40 25 47 f6 3f 26 f9 50 40
       0.21950823 3.4473746 1.9240462 3.2652068
0001d0 1e 63 a9 3f 93 a5 20 40 e9 18 0c 40 91 7e 3b 40
       1.3233373 2.5101058 2.1890204 2.9296
0001e0 e1 5e 35 40 0a cd 13 40 b4 1d 2d 40 04 a1 20 40
       2.833916 2.3093896 2.704938 2.5098276
0001f0 dd 00 3d 40 69 5b a5 3f d5 53 c6 3d e1 5e 0a bf
       2.9531777 1.2918521 0.096839584 -0.54051024
000200 d8 69 c4 3f e8 61 fe 3f 4a 31 84 3f ae fb c9 3d
       1.5344801 1.9873629 1.0327542 0.09862457
000210 8f 6c 5a 3f 5a f7 1b 40 8f c2 c2 3f 2d e0 8f be
       0.853219 2.4369721 1.5215625 -0.2810072
000220 7f 49 a6 be 43 79 c9 3f ab 72 f6 be c4 e2 93 3f
       -0.32477948 1.5740131 -0.4813436 1.1553578
000230 6b d2 22 3f fe 21 3b 3f e7 59 b1 3f aa a7 77 bd
       0.6360232 0.7309874 1.3855561 -0.06046263
000240 07 b1 fd be 12 b7 2e 40 45 96 a3 3f ae 7c a8 3f
       -0.49549124 2.7299237 1.2780234 1.3163049
000250 f7 d0 27 3e 06 3e 1e 3e 72 e9 ec 3e fd 6b ea be
       0.16388308 0.15453348 0.46271855 -0.45785514
000260 e1 c1 f7 3f 99 55 5f 3f 1d 5f 68 40 46 2c 40 40
       1.9356042 0.87239987 3.6308053 3.0027022
000270 0b 84 a7 3f d8 e8 87 40 6f 76 93 3f d2 15 b7 3f
       1.3087171 4.2471733 1.1520518 1.4303534
000280 3e 1b 24 3f a6 e0 9f bf 20 ee 73 3f 2b a9 1b 40
       0.6410407 -1.2490432 0.95285225 2.4322002
000290 79 fc cc 3f 06 3d 68 40 14 0a 22 3f c8 af b6 3f
       1.6014549 3.6287246 0.6329663 1.4272394
0002a0 b1 28 6f 3f f7 f5 01 40 40 7f 06 40 4e 02 ca 3f
       0.93421465 2.0306375 2.1015167 1.5781953
0002b0 d2 1a a0 3f 69 34 60 3f c2 28 0d be
       1.2508185 0.8757997 -0.13785079

weight f4 [9, 175]
000000 5d e5 da ae 39 75 7c ad e2 5b 8b 2a 8b 6e c9 3e
       -9.9542354e-11 -1.435057e-11 2.4755117e-13 0.3934215
000010 88 93 5a 2e 81 4f 09 3f 16 b2 8c 30 82 1e 88 3e
       4.9698495e-11 0.5363694 1.0236956e-09 0.26585776
000020 1d 0c 2a 3f 88 bb a2 3e d9 36 3b 3f fe ea 1a 3f
       0.66424733 0.317837 0.73130566 0.6051482
000030 ee 21 c4 a9 70 16 f2 3e 87 c8 30 ba 2f 92 a1 ac
       -8.7100344e-14 0.47282743 -0.0006743748 -4.592125e-12
000040 af 53 bc be 42 c9 b2 3e 64 2f c9 be 9c 61 b9 35
       -0.36782596 0.34919173 -0.3929397 1.3811982e-06
000050 f0 59 23 a9 ad 57 71 3f 19 45 ca 3e 68 d5 ac be
       -3.627128e-14 0.9427441 0.39505842 -0.33756566
000060 10 e3 64 3f 43 89 95 3e 9a 58 79 3f e4 29 a2 b4
       0.8940897 0.29206285 0.9740082 -3.020533e-07
000070 73 bf 3a ad 45 a0 c5 a9 c2 66 7b 3f e1 cf 9b af
       -1.0615386e-11 -8.77636e-14 0.9820367 -2.8342043e-10
000080 03 6e 9f 3e 56 8b 62 3f c9 0f 35 2c 11 62 ee 2c
       0.3113862 0.8849386 2.573041e-12 6.7752544e-12
000090 c3 d1 03 3f f7 a1 98 be fd fa 0c 3c d7 10 ef 3e
       0.51491946 -0.2981107 0.008604762 0.46692535
0000a0 21 96 72 3e f8 86 28 b1 de 04 3c 3f ba 43 a8 3e
       0.23690082 -2.4523938e-09 0.73444927 0.3286417
0000b0 9c 37 9e 2d f7 c3 54 3e 6a 20 ac 2a 86 8c 99 2c
       1.7987216e-11 0.2077788 3.057583e-13 4.3641228e-12
0000c0 3b a6 ec 28 1c ff f6 aa 0c 33 3d b6 0b 56 1c b9
       2.6273354e-14 -4.3875396e-13 -2.8192908e-06 -0.00014909373
0000d0 f8 e7 d1 30 ef 22 36 3f a4 25 f7 3e f8 07 93 be
       1.5272681e-09 0.71147054 0.48270905 -0.28717017
0000e0 66 98 22 a7 98 61 ea be 05 cb 08 3f d1 b5 e3 af
       -2.2564632e-15 -0.45777583 0.53434783 -4.1420248e-10
0000f0 da 53 02 3f a0 d6 1e 3f 1f bd 01 2b 31 76 72 2d
       0.509092 0.6204624 4.6092465e-13 1.3782351e-11
000100 26 08 ef 28 fa 6e a8 3e 74 aa 1d 3e 25 66 24 3f
       2.6537864e-14 0.32897168 0.15397054 0.6421836
000110 03 07 49 2d 9e 30 87 3e 36 4f cb 3e fa fc 57 3e
       1.1427084e-11 0.2640428 0.3970887 0.21092597
000120 bf b2 81 3e 15 14 f7 ad de 16 80 3e 60 3e 4d b4
       0.25331685 -2.8089567e-11 0.25017446 -1.9114805e-07
000130 a1 cf 42 32 43 0e 63 3e ae 64 ea 2d 6f 4b 15 36
       1.1339496e-08 0.22173409 2.664743e-11 2.2246638e-06
000140 1e 0f 36 2e 54 65 62 2e c6 53 ca 3e 5c cd 64 ad
       4.1395436e-11 5.1476448e-11 0.3951704 -1.30058984e-11
000150 cc 13 42 be 6b 08 8e 3e 0a 89 e4 ab 01 e1 24 2d
       -0.18952864 0.27740797 -1.623841e-12 9.372282e-12
000160 4c c3 8b ad cf a5 3b 3e d7 17 ae 3e 5f a6 f7 be
       -1.58892e-11 0.1832497 0.34002563 -0.4836912
000170 3e d4 0c 2e 95 90 15 3f 5d 1d 15 3f 71 3d 42 3f
       3.2020823e-11 0.5842374 0.5824793 0.75875
000180 db 8e a0 ae 5d dd f2 3e b4 65 27 3f ee 04 38 3f
       -7.301334e-11 0.47434512 0.6538956 0.7188252
000190 e9 7e 04 3f 4f 8f 5d 3f 5c fa a7 ac b7 6b 9e ad
       0.5175615 0.86546797 -4.774221e-12 -1.8010355e-11
0001a0 75 e5 9d 29 ba c3 61 29 a5 e6 36 3f 02 0f d8 3e
       7.012005e-14 5.0129802e-14 0.71445686 0.4219895
0001b0 a0 66 10 3f bc b9 ad 3d 07 27 28 b0 58 3b af ad
       0.56406593 0.08482692 -6.1173505e-10 -1.992155e-11
0001c0 96 e0 12 3f 1d ae f8 3e 45 53 04 3f ea f9 f5 3e
       0.5737394 0.48570338 0.5168956 0.48042232
0001d0 32 bc fa 3e be 4e 76 ad 99 76 90 3e 1f 66 59 bc
       0.48971707 -1.4000965e-11 0.28215483 -0.0132689765
0001e0 96 17 6f 3e ea cd 64 bc ec 5e bd 3e d1 86 89 2e
       0.23348841 -0.013965109 0.36986482 6.253987e-11
0001f0 e5 ca 65 31 8b 3c a7 ac ac da ec 3e a8 8f 27 ae
       3.3439218e-09 -4.753147e-12 0.46260583 -3.8098996e-11
000200 a9 71 f3 b0 94 f0 e3 3d 31 b6 19 3f 1d 33 a6 2a
       -1.7712881e-09 0.11129871 0.6004363 2.952299e-13
000210 7c a9 2b 3f b4 fa 2c 32 cb f3 8b aa 83 d0 17 3f
       0.6705549 1.0068721e-08 -2.4860525e-13 0.5930254
000220 17 cb 4c 3e d0 e2 c9 2c 7b c7 01 bf 9a 42 f8 2f
       0.19999348 5.737945e-12 -0.5069501 4.515826e-10
000230 e4 9a 17 3f 61 d0 99 3e 6a c5 cf ae c4 d5 04 2e
       0.5922072 0.30041793 -9.448338e-11 3.0203187e-11
000240 57 4a b0 3e 8d cb 4b 3f dc df 94 ab 36 63 54 2a
       0.34431717 0.7960747 -1.0578166e-12 1.8863803e-13
000250 1e 61 ab a8 bd ac c2 3e 74 00 ae 3e c0 ad 83 3e
       -1.9026932e-14 0.38022414 0.3398472 0.25718498
000260 66 0f 44 2e 0c fd 91 3d de 91 38 ae e9 d2 9d 2c
       4.4578917e-11 0.07128343 -4.1966312e-11 4.485624e-12
000270 c6 d3 04 3f d6 07 0b 2e 85 7f 0f ad 6a 7f a6 ba
       0.5188564 3.16119e-11 -8.156924e-12 -0.0012702767
000280 0a b2 d2 3e 1d 7b 2c 3e 33 45 2b 3f aa 20 ff 3e
       0.41151458 0.16843839 0.66902465 0.49829608
000290 22 09 49 31 d5 24 df ab 9b 81 35 ab 50 c1 04 b4
       2.925454e-09 -1.5855326e-12 -6.448398e-13 -1.2363785e-07
0002a0 4c 5e a1 3e c5 60 1c ab b2 de 88 ab ac 61 2a 3d
       0.31517255 -5.555663e-13 -9.725192e-13 0.041597053
0002b0 81 e1 05 3e 79 2c 18 3f 96 ee 9b 3e ab ce 96 3e
       0.13074304 0.5944286 0.30455464 0.2945455
0002c0 e6 a4 c9 3e 7e 91 19 3f 18 97 41 36 85 ee 94 3f
       0.3938362 0.5998763 2.884719e-06 1.163529
0002d0 67 20 19 2d 86 70 7c 3e 99 ae b8 27 9b ad 3b 2d
       8.704238e-12 0.246523 5.125956e-15 1.06682675e-11
0002e0 42 49 cf ae 2a bf 55 ad 14 3a 20 ab c4 66 3d 3f
       -9.4262834e-11 -1.2150095e-11 -5.692402e-13 0.7398493
0002f0 78 8d af a6 32 82 bb 36 a4 33 23 3f d3 da 3a 35
       -1.218141e-15 5.588191e-06 0.6375067 6.960883e-07
000300 38 3e 7b 2c 25 7e 26 35 64 e3 d9 be 3c e1 03 3f
       3.5703784e-12 6.2023383e-07 -0.42556298 0.51515555
000310 55 a8 6a ad d0 35 0a 2c d6 00 77 b2 54 39 b5 2c
       -1.3338737e-11 1.9640851e-12 -1.4377482e-08 5.150694e-12
000320 f1 7c 11 ac aa ab 6a ae 62 9a 92 3e 57 87 1f 3f
       -2.0675096e-12 -5.335791e-11 0.2863341 0.6231589
000330 bc de 66 3f da 24 9f ab c9 30 bd be 11 a2 22 af
       0.90183616 -1.1307858e-12 -0.36951283 -1.4791392e-10
000340 9d df 88 ad 11 e4 61 3f 8b e8 3e 3f a6 47 d2 ab
       -1.5560714e-11 0.88238627 0.7457358 -1.4941284e-12
000350 a5 a9 fa b3 48 89 d2 30 28 26 9c a9 e7 f4 be 36
       -1.167239e-07 1.5318529e-09 -6.934411e-14 5.6909516e-06
000360 06 65 8c bc 98 84 e9 29 9a fb 1e 2d 3a d8 3a 3f
       -0.017138015 1.037028e-13 9.037127e-12 0.72986186
000370 5f e7 3a 2b 21 fa e6 3e 7b 95 48 3e 36 b9 00 3f
       6.6401566e-13 0.45112708 0.19588272 0.5028261
000380 52 71 9e 3e c3 c3 ca be 74 6b 8f b3 60 4f 41 3e
       0.30945832 -0.3960248 -6.678502e-08 0.18877935
000390 10 9f 27 29 bf ce b3 a9 23 93 0d b6 ae 24 13 3f
       3.7219414e-14 -7.9850616e-14 -2.1096282e-06 0.57477844
0003a0 23 b7 cf 2b 7e 56 c1 a9 17 c4 da be 25 d9 1b 2c
       1.4759065e-12 -8.585926e-14 -0.4272773 2.2147364e-12
0003b0 36 3a 90 29 32 ee 9b 3e d1 d7 0d 3f 7d 28 0f 3f
       6.4049826e-14 0.30455166 0.55407435 0.55921155
0003c0 ea 19 0f 2e 48 75 3d af 54 bb b7 28 08 5a b0 3e
       3.2537452e-11 -1.7231117e-10 2.0398322e-14 0.34443688
0003d0 f9 0c 08 30 23 0a 17 28 bc 4b 34 33 ee 19 a7 b1
       4.9494947e-10 8.384382e-15 4.1978396e-08 -4.8632876e-09
0003e0 4a ef 59 3e 78 48 21 b0 7f 80 f8 bb 28 6d 46 bc
       0.21282688 -5.8674443e-10 -0.0075836773 -0.012110986
0003f0 07 57 43 32 61 8a 9b 3e 2d 22 dd 3c 32 77 91 3e
       1.1370282e-08 0.30379012 0.026993835 0.2841125

bias f4 [175]
000000 00 00 00 00 00 00 00 00 00 00 00 00 00 00 00 00
       0.0 0.0 0.0 0.0
000010 00 00 00 00 00 00 00 00 00 00 00 00 00 00 00 00
       0.0 0.0 0.0 0.0
000020 00 00 00 00 00 00 00 00 00 00 00 00 00 00 00 00
       0.0 0.0 0.0 0.0
000030 00 00 00 00 00 00 00 00 00 00 00 00 00 00 00 00
       0.0 0.0 0.0 0.0
000040 00 00 00 00 00 00 00 00 00 00 00 00 00 00 00 00
       0.0 0.0 0.0 0.0
000050 00 00 00 00 00 00 00 00 00 00 00 00 00 00 00 00
       0.0 0.0 0.0 0.0
000060 00 00 00 00 00 00 00 00 00 00 00 00 00 00 00 00
       0.0 0.0 0.0 0.0
000070 00 00 00 00 00 00 00 00 00 00 00 00 00 00 00 00
       0.0 0.0 0.0 0.0
000080 00 00 00 00 00 00 00 00 00 00 00 00 00 00 00 00
       0.0 0.0 0.0 0.0
000090 00 00 00 00 00 00 00 00 00 00 00 00 00 00 00 00
       0.0 0.0 0.0 0.0
0000a0 00 00 00 00 00 00 00 00 00 00 00 00 00 00 00 00
       0.0 0.0 0.0 0.0
0000b0 00 00 00 00 00 00 00 00 00 00 00 00 00 00 00 00
       0.0 0.0 0.0 0.0
0000c0 00 00 00 00 00 00 00 00 00 00 00 00 00 00 00 00
       0.0 0.0 0.0 0.0
0000d0 00 00 00 00 00 00 00 00 00 00 00 00 00 00 00 00
       0.0 0.0 0.0 0.0
0000e0 00 00 00 00 00 00 00 00 00 00 00 00 00 00 00 00
       0.0 0.0 0.0 0.0
0000f0 00 00 00 00 00 00 00 00 00 00 00 00 00 00 00 00
       0.0 0.0 0.0 0.0
000100 00 00 00 00 00 00 00 00 00 00 00 00 00 00 00 00
       0.0 0.0 0.0 0.0
000110 00 00 00 00 00 00 00 00 00 00 00 00 00 00 00 00
       0.0 0.0 0.0 0.0
000120 00 00 00 00 00 00 00 00 00 00 00 00 00 00 00 00
       0.0 0.0 0.0 0.0
000130 00 00 00 00 00 00 00 00 00 00 00 00 00 00 00 00
       0.0 0.0 0.0 0.0
000140 00 00 00 00 00 00 00 00 00 00 00 00 00 00 00 00
       0.0 0.0 0.0 0.0
000150 00 00 00 00 00 00 00 00 00 00 00 00 00 00 00 00
       0.0 0.0 0.0 0.0
000160 00 00 00 00 00 00 00 00 00 00 00 00 00 00 00 00
       0.0 0.0 0.0 0.0
000170 00 00 00 00 00 00 00 00 00 00 00 00 00 00 00 00
       0.0 0.0 0.0 0.0
000180 00 00 00 00 00 00 00 00 00 00 00 00 00 00 00 00
       0.0 0.0 0.0 0.0
000190 00 00 00 00 00 00 00 00 00 00 00 00 00 00 00 00
       0.0 0.0 0.0 0.0
0001a0 00 00 00 00 00 00 00 00 00 00 00 00 00 00 00 00
       0.0 0.0 0.0 0.0
0001b0 00 00 00 00 00 00 00 00 00 00 00 00 00 00 00 00
       0.0 0.0 0.0 0.0
0001c0 00 00 00 00 00 00 00 00 00 00 00 00 00 00 00 00
       0.0 0.0 0.0 0.0
0001d0 00 00 00 00 00 00 00 00 00 00 00 00 00 00 00 00
       0.0 0.0 0.0 0.0
0001e0 00 00 00 00 00 00 00 00 00 00 00 00 00 00 00 00
       0.0 0.0 0.0 0.0
0001f0 00 00 00 00 00 00 00 00 00 00 00 00 00 00 00 00
       0.0 0.0 0.0 0.0
000200 00 00 00 00 00 00 00 00 00 00 00 00 00 00 00 00
       0.0 0.0 0.0 0.0
000210 00 00 00 00 00 00 00 00 00 00 00 00 00 00 00 00
       0.0 0.0 0.0 0.0
000220 00 00 00 00 00 00 00 00 00 00 00 00 00 00 00 00
       0.0 0.0 0.0 0.0
000230 00 00 00 00 00 00 00 00 00 00 00 00 00 00 00 00
       0.0 0.0 0.0 0.0
000240 00 00 00 00 00 00 00 00 00 00 00 00 00 00 00 00
       0.0 0.0 0.0 0.0
000250 00 00 00 00 00 00 00 00 00 00 00 00 00 00 00 00
       0.0 0.0 0.0 0.0
000260 00 00 00 00 00 00 00 00 00 00 00 00 00 00 00 00
       0.0 0.0 0.0 0.0
000270 00 00 00 00 00 00 00 00 00 00 00 00 00 00 00 00
       0.0 0.0 0.0 0.0
000280 00 00 00 00 00 00 00 00 00 00 00 00 00 00 00 00
       0.0 0.0 0.0 0.0
000290 00 00 00 00 00 00 00 00 00 00 00 00 00 00 00 00
       0.0 0.0 0.0 0.0
0002a0 00 00 00 00 00 00 00 00 00 00 00 00 00 00 00 00
       0.0 0.0 0.0 0.0
0002b0 00 00 00 00 00 00 00 00 00 00 00 00
       0.0 0.0 0.0

_ei_mask f4 [175]
000000 00 00 80 3f 00 00 80 3f 00 00 80 3f 00 00 80 3f
       1.0 1.0 1.0 1.0
000010 00 00 80 3f 00 00 80 3f 00 00 80 3f 00 00 80 3f
       1.0 1.0 1.0 1.0
000020 00 00 80 3f 00 00 80 3f 00 00 80 3f 00 00 80 3f
       1.0 1.0 1.0 1.0
000030 00 00 80 3f 00 00 80 3f 00 00 80 3f 00 00 80 3f
       1.0 1.0 1.0 1.0
000040 00 00 80 3f 00 00 80 3f 00 00 80 3f 00 00 80 3f
       1.0 1.0 1.0 1.0
000050 00 00 80 3f 00 00 80 3f 00 00 80 3f 00 00 80 3f
       1.0 1.0 1.0 1.0
000060 00 00 80 3f 00 00 80 3f 00 00 80 3f 00 00 80 3f
       1.0 1.0 1.0 1.0
000070 00 00 80 3f 00 00 80 3f 00 00 80 3f 00 00 80 3f
       1.0 1.0 1.0 1.0
000080 00 00 80 3f 00 00 80 3f 00 00 80 3f 00 00 80 3f
       1.0 1.0 1.0 1.0
000090 00 00 80 3f 00 00 80 3f 00 00 80 3f 00 00 80 3f
       1.0 1.0 1.0 1.0
0000a0 00 00 80 3f 00 00 80 3f 00 00 80 3f 00 00 80 3f
       1.0 1.0 1.0 1.0
0000b0 00 00 80 3f 00 00 80 3f 00 00 80 3f 00 00 80 3f
       1.0 1.0 1.0 1.0
0000c0 00 00 80 3f 00 00 80 3f 00 00 80 3f 00 00 80 3f
       1.0 1.0 1.0 1.0
0000d0 00 00 80 3f 00 00 80 3f 00 00 80 3f 00 00 80 3f
       1.0 1.0 1.0 1.0
0000e0 00 00 80 3f 00 00 80 3f 00 00 80 3f 00 00 80 3f
       1.0 1.0 1.0 1.0
0000f0 00 00 80 3f 00 00 80 3f 00 00 80 3f 00 00 80 3f
       1.0 1.0 1.0 1.0
000100 00 00 80 3f 00 00 80 3f 00 00 80 3f 00 00 80 3f
       1.0 1.0 1.0 1.0
000110 00 00 80 3f 00 00 80 3f 00 00 80 3f 00 00 80 3f
       1.0 1.0 1.0 1.0
000120 00 00 80 3f 00 00 80 3f 00 00 80 3f 00 00 80 3f
       1.0 1.0 1.0 1.0
000130 00 00 80 3f 00 00 80 3f 00 00 80 3f 00 00 80 3f
       1.0 1.0 1.0 1.0
000140 00 00 80 3f 00 00 80 3f 00 00 80 3f 00 00 80 3f
       1.0 1.0 1.0 1.0
000150 00 00 80 3f 00 00 80 3f 00 00 80 3f 00 00 80 3f
       1.0 1.0 1.0 1.0
000160 00 00 80 3f 00 00 80 3f 00 00 80 3f 00 00 80 3f
       1.0 1.0 1.0 1.0
000170 00 00 80 3f 00 00 80 3f 00 00 80 3f 00 00 80 3f
       1.0 1.0 1.0 1.0
000180 00 00 80 3f 00 00 80 3f 00 00 80 3f 00 00 80 3f
       1.0 1.0 1.0 1.0
000190 00 00 80 3f 00 00 80 3f 00 00 80 3f 00 00 80 3f
       1.0 1.0 1.0 1.0
0001a0 00 00 80 3f 00 00 80 3f 00 00 80 3f 00 00 80 3f
       1.0 1.0 1.0 1.0
0001b0 00 00 80 3f 00 00 80 3f 00 00 80 3f 00 00 80 3f
       1.0 1.0 1.0 1.0
0001c0 00 00 80 3f 00 00 80 3f 00 00 80 3f 00 00 80 3f
       1.0 1.0 1.0 1.0
0001d0 00 00 80 3f 00 00 80 3f 00 00 80 3f 00 00 80 3f
       1.0 1.0 1.0 1.0
0001e0 00 00 80 3f 00 00 80 3f 00 00 80 3f 00 00 80 3f
       1.0 1.0 1.0 1.0
0001f0 00 00 80 3f 00 00 80 3f 00 00 80 3f 00 00 80 3f
       1.0 1.0 1.0 1.0
000200 00 00 80 3f 00 00 80 3f 00 00 80 3f 00 00 80 3f
       1.0 1.0 1.0 1.0
000210 00 00 80 3f 00 00 80 3f 00 00 80 3f 00 00 80 3f
       1.0 1.0 1.0 1.0
000220 00 00 80 3f 00 00 80 3f 00 00 80 3f 00 00 80 3f
       1.0 1.0 1.0 1.0
000230 00 00 80 3f 00 00 80 3f 00 00 80 3f 00 00 80 3f
       1.0 1.0 1.0 1.0
000240 00 00 80 3f 00 00 80 3f 00 00 80 3f 00 00 80 3f
       1.0 1.0 1.0 1.0
000250 00 00 80 3f 00 00 80 3f 00 00 80 3f 00 00 80 3f
       1.0 1.0 1.0 1.0
000260 00 00 80 3f 00 00 80 3f 00 00 80 3f 00 00 80 3f
       1.0 1.0 1.0 1.0
000270 00 00 80 3f 00 00 80 3f 00 00 80 3f 00 00 80 3f
       1.0 1.0 1.0 1.0
000280 00 00 80 3f 00 00 80 3f 00 00 80 3f 00 00 80 3f
       1.0 1.0 1.0 1.0
000290 00 00 80 3f 00 00 80 3f 00 00 80 3f 00 00 80 3f
       1.0 1.0 1.0 1.0
0002a0 00 00 80 3f 00 00 80 3f 00 00 80 3f 00 00 80 3f
       1.0 1.0 1.0 1.0
0002b0 00 00 80 3f 00 00 80 3f 00 00 80 3f
       1.0 1.0 1.0

weight f4 [2, 175]
000000 04 7c 2f 40 5a 41 d2 3f ed a3 78 3f 2c 13 4e 40
       2.7419443 1.6426194 0.9712513 3.2199202
000010 88 1f d7 3f c4 a8 09 40 e6 72 dc 3f 28 af 7a 40
       1.6806498 2.1509256 1.7222564 3.9169407
000020 37 0a 55 3f 53 74 42 40 37 d4 29 3f 68 c1 65 3f
       0.8321871 3.0383499 0.6633944 0.8974824
000030 1f 09 ab 3e ff 67 fc 3e d8 db fc 3d 06 8f 8a 3f
       0.33405396 0.49298093 0.12346619 1.0824897
000040 ca ab d2 3e 63 88 97 3f 77 44 84 3e 78 05 1c 40
       0.4114669 1.1838497 0.25833485 2.4378338
000050 f4 8c ce 3f 54 66 ed 3f bc e3 dd 3f 1f 6e 5e 3f
       1.6136765 1.8546853 1.7335124 0.8688678
000060 a4 83 92 40 58 d6 84 40 49 5e 3d bf 19 cd d7 3f
       4.5785694 4.151165 -0.7397199 1.6859466
000070 44 44 68 3f 9d a7 4d 40 03 ab 1c 40 0c aa 00 bf
       0.90729165 3.2133553 2.4479377 -0.5025947
000080 fe a8 f3 3e af e4 a7 3f cc e7 fb 3f 44 6c 3b 40
       0.47589868 1.3116664 1.9680114 2.928483
000090 19 0d 12 40 2d 90 39 3f 69 89 43 3f 7c 16 6d 3f
       2.2820494 0.7248562 0.76381546 0.92612433
0000a0 b4 68 fd 3f 29 93 2d 40 d8 d9 84 3f b7 24 1c bf
       1.9797578 2.712107 1.0378981 -0.6099352
0000b0 18 2f 5f 3f 2a b2 c2 3d d5 7f 5d 3f f1 dc 2e 3f
       0.87181234 0.09506638 0.8652318 0.6830588
0000c0 1a 18 2d 3e bd 3f a7 3f 56 d7 2f 3f c6 4b 9a 3e
       0.16903725 1.3066326 0.6868795 0.30135936
0000d0 1a 9b 4d 3f 0d cb ff 3f d9 41 79 3f 63 bd 1e bf
       0.8031479 1.9983841 0.973661 -0.6200773
0000e0 1f 5e b1 3f 39 3f dd be 47 3c 9c 3f 0c 6e cc 3e
       1.3856848 -0.43212298 1.2205895 0.3992771
0000f0 53 4f c1 3f 8c 47 5d 3f cd 81 bd 3f 46 44 0c 40
       1.5102333 0.86437297 1.4805237 2.191667
000100 72 5b 17 3f 64 c0 3c 3f ae 9b 43 3f f4 bc ea be
       0.5912391 0.73731065 0.76409423 -0.45847285
000110 da dd 44 3f 5b 65 c8 3f a1 55 45 3f 95 41 b7 3f
       0.7690102 1.5655931 0.77083784 1.4316889
000120 90 c5 db 3f a4 4d c2 be 99 4d 7f 3f 30 8e cb 3d
       1.7169666 -0.3794986 0.9972778 0.099392295
000130 05 db 84 3e db 82 ac 3f 69 e4 45 be e1 ba a1 3f
       0.2594835 1.3477434 -0.19325413 1.2635156
000140 e4 cd ce 3f e9 6b cc 3f 9d 4a f0 3d 6e 33 d7 3f
       1.6156583 1.5970432 0.11732981 1.681257
000150 31 ec ad 3c dc 12 a5 3f a4 2c 32 40 21 53 66 40
       0.021230789 1.289638 2.7839746 3.5988238
000160 12 f0 d7 3e ac 21 cb 3f 59 36 0e 40 c0 dd ce 3f
       0.42175347 1.5869651 2.222067 1.6161423
000170 f4 e6 aa 3f 86 b9 0e 40 87 76 c3 3f 6e e5 77 3f
       1.3351731 2.2300735 1.5270547 0.96834457
000180 dc 93 d7 3f 10 dd 85 3f 9e 5c f9 3f 51 21 02 3f
       1.6841998 1.0458088 1.948139 0.50832087
000190 c1 7f 3a 3f fb b5 fa bd a1 1a af 3f cd 74 b9 3f
       0.72851187 -0.12241741 1.3680001 1.448877
0001a0 96 91 1b 3f 3e 94 c1 3f 0b 85 d9 bc ee de ca 3f
       0.6076902 1.5123365 -0.026552698 1.5849283
0001b0 9b c1 2e 3f e1 50 2b 40 3e f1 38 3f c4 0e 08 40
       0.6826417 2.6768115 0.72243106 2.1259012
0001c0 4b e9 54 3f 42 ef 9f 3f 7b f1 b6 3e d0 1a d0 3f
       0.83168477 1.2494891 0.3573111 1.6258183
0001d0 f1 e7 9a 3e da c2 99 3f 33 82 0d 40 bd 09 c6 3f
       0.30255082 1.2012589 2.2110717 1.5471722
0001e0 aa 5f 43 40 ef 17 cb 3f bb 7f 3a 3f 2e e2 07 40
       3.0527139 1.5866679 0.7285115 2.12318
0001f0 2e bc 4d 40 c3 08 b3 3f c9 d6 ed 3e 2c 0d 8e 3f
       3.2146106 1.3987049 0.4645293 1.109777
000200 a0 0d b6 3d a4 ae 13 3f 2f 34 36 bd 8a d0 5f 3f
       0.088893175 0.57688355 -0.04448336 0.8742758
000210 49 8c 62 3e 91 45 ba 3f 6f 21 21 3f 81 7f 73 3f
       0.22123827 1.455248 0.6294164 0.9511643
000220 fe f0 a9 3f 7e f8 8c 3f ff da e8 3f b6 4d 43 3f
       1.327667 1.1013334 1.8191832 0.7629045
000230 31 f1 64 3f 3f 7e 6b 3f 3e b8 03 40 ab 05 f5 3f
       0.8943053 0.9198951 2.0581203 1.9142355
000240 61 e7 40 3f 24 a4 36 3d c9 37 a7 3f 08 54 63 3e
       0.75353056 0.04459013 1.3063899 0.22200024
000250 21 95 fe 3f dd c0 9f 3e 22 2b 3f 3b 2c 25 25 3f
       1.988926 0.3120183 0.0029169996 0.64509845
000260 38 e3 ce 3f 82 75 41 3f 30 ef 17 40 81 25 c0 3f
       1.6163092 0.7556993 2.3739738 1.5011445
000270 a6 96 3b 3f f2 94 12 40 a0 8c e8 3d a9 15 17 3f
       0.73276746 2.290341 0.11354947 0.59017426
000280 76 13 fc 3f 87 89 c0 3f 26 0f 17 40 46 0d 76 3e
       1.9693439 1.504197 2.3602996 0.24028501
000290 04 d6 be 3f c2 24 e6 3f 1f 9b ce 3e b2 eb c4 3f
       1.4909062 1.7979968 0.40352723 1.5384429
0002a0 b9 b4 b2 3e 7b d1 fe 3f 78 12 8b 3f 6b c4 c8 3f
       0.34903505 1.9907678 1.0865011 1.5684942
0002b0 df eb d4 3f 53 e0 67 be b8 ef 62 3f 6c 40 3d 3f
       1.6634482 -0.22644167 0.8864703 0.73926425
0002c0 55 fb f8 3f ba f2 4b 3f 99 71 26 40 8e 94 7c 3e
       1.94517 0.79667246 2.6006835 0.24666044
0002d0 a2 ea 0c 40 87 f9 9a 3f 83 e9 2f 40 17 a5 b1 3d
       2.2018209 1.21074 2.7486274 0.086740665
0002e0 70 6d d1 3f 4e 15 92 3f 86 f7 43 3f 04 f1 b5 3f
       1.6361523 1.1412752 0.76549566 1.4214177
0002f0 d9 76 c9 bc 48 e2 73 be 8c 4b 35 3f 39 67 0b be
       -0.024592804 -0.23816788 0.708184 -0.13613595
000300 e6 de 8f 3f 6c d9 09 be 5d 70 0a 40 6d f8 a6 3f
       1.1239898 -0.13461846 2.163108 1.3044564
000310 ef 93 0e 40 83 fd c8 3f cf 73 36 3f 6b 8c 8a 3f
       2.2277792 1.5702366 0.7127046 1.0824102
000320 d6 aa 38 40 ca f6 34 bf 75 74 29 40 e8 ee f8 3f
       2.885427 -0.7068907 2.647733 1.9447908
000330 4f 8f 61 40 5e 97 cd 3f cc 36 f2 be 62 66 10 3f
       3.5243719 1.6061819 -0.47307432 0.56406224
000340 dd 7a e6 3e 74 74 b4 3f c1 80 1a 40 86 1c 0d 40
       0.45015612 1.4098039 2.4141085 2.204866
000350 6f 15 5f 3f 1b e9 8f 3d b1 85 88 3f 94 1b ee 3e
       0.8714208 0.07026883 1.0665799 0.46505415
000360 7d 7c 07 40 99 cf 67 3e c5 7f 63 3e 5d 46 36 3e
       2.1169732 0.22637786 0.22216709 0.17800279
000370 a3 0c 9d 3f 19 f2 68 3f 4b c5 ba 3e f1 a2 20 be
       1.2269481 0.9099441 0.36478648 -0.15687157
000380 ae 44 0b bc 28 27 90 bf 6f b8 a0 bf 43 9d ee 3d
       -0.008500261 -1.126195 -1.2556285 0.11651089
000390 f0 d8 af 3f 9c ba 36 3f 6a 3d 14 3f 33 bd a6 3f
       1.3738079 0.71378493 0.5790621 1.3026489
0003a0 db 67 07 bf bd 46 2a 3f ee 71 a2 bf b7 6d 90 3f
       -0.52892846 0.6651419 -1.2691019 1.1283482
0003b0 3d 3f 4b 3f 2c 91 47 3f 58 3a 49 40 c8 54 74 3f
       0.7939337 0.7795589 3.144186 0.95441866
0003c0 c7 3a 32 3f 2f 90 93 3f 07 97 7f bc 5f 67 43 3f
       0.6962094 1.1528376 -0.015599973 0.76329607
0003d0 e6 55 9a 3f 7d b4 7b 3f ad c4 a2 3f 38 83 c7 3f
       1.2057464 0.9832228 1.2716271 1.558692
0003e0 0e 26 34 bd 4d 81 6c 3f cd ed 66 3e 4f bb c9 3e
       -0.043981604 0.923848 0.22551651 0.39400718
0003f0 d1 f8 a3 3f 2b 7d b2 be 22 ed f6 3e c6 18 ad 3f
       1.2810308 -0.3486112 0.48227793 1.3523185

bias f4 [175]
000000 00 00 00 00 00 00 00 00 00 00 00 00 00 00 00 00
       0.0 0.0 0.0 0.0
000010 00 00 00 00 00 00 00 00 00 00 00 00 00 00 00 00
       0.0 0.0 0.0 0.0
000020 00 00 00 00 00 00 00 00 00 00 00 00 00 00 00 00
       0.0 0.0 0.0 0.0
000030 00 00 00 00 00 00 00 00 00 00 00 00 00 00 00 00
       0.0 0.0 0.0 0.0
000040 00 00 00 00 00 00 00 00 00 00 00 00 00 00 00 00
       0.0 0.0 0.0 0.0
000050 00 00 00 00 00 00 00 00 00 00 00 00 00 00 00 00
       0.0 0.0 0.0 0.0
000060 00 00 00 00 00 00 00 00 00 00 00 00 00 00 00 00
       0.0 0.0 0.0 0.0
000070 00 00 00 00 00 00 00 00 00 00 00 00 00 00 00 00
       0.0 0.0 0.0 0.0
000080 00 00 00 00 00 00 00 00 00 00 00 00 00 00 00 00
       0.0 0.0 0.0 0.0
000090 00 00 00 00 00 00 00 00 00 00 00 00 00 00 00 00
       0.0 0.0 0.0 0.0
0000a0 00 00 00 00 00 00 00 00 00 00 00 00 00 00 00 00
       0.0 0.0 0.0 0.0
0000b0 00 00 00 00 00 00 00 00 00 00 00 00 00 00 00 00
       0.0 0.0 0.0 0.0
0000c0 00 00 00 00 00 00 00 00 00 00 00 00 00 00 00 00
       0.0 0.0 0.0 0.0
0000d0 00 00 00 00 00 00 00 00 00 00 00 00 00 00 00 00
       0.0 0.0 0.0 0.0
0000e0 00 00 00 00 00 00 00 00 00 00 00 00 00 00 00 00
       0.0 0.0 0.0 0.0
0000f0 00 00 00 00 00 00 00 00 00 00 00 00 00 00 00 00
       0.0 0.0 0.0 0.0
000100 00 00 00 00 00 00 00 00 00 00 00 00 00 00 00 00
       0.0 0.0 0.0 0.0
000110 00 00 00 00 00 00 00 00 00 00 00 00 00 00 00 00
       0.0 0.0 0.0 0.0
000120 00 00 00 00 00 00 00 00 00 00 00 00 00 00 00 00
       0.0 0.0 0.0 0.0
000130 00 00 00 00 00 00 00 00 00 00 00 00 00 00 00 00
       0.0 0.0 0.0 0.0
000140 00 00 00 00 00 00 00 00 00 00 00 00 00 00 00 00
       0.0 0.0 0.0 0.0
000150 00 00 00 00 00 00 00 00 00 00 00 00 00 00 00 00
       0.0 0.0 0.0 0.0
000160 00 00 00 00 00 00 00 00 00 00 00 00 00 00 00 00
       0.0 0.0 0.0 0.0
000170 00 00 00 00 00 00 00 00 00 00 00 00 00 00 00 00
       0.0 0.0 0.0 0.0
000180 00 00 00 00 00 00 00 00 00 00 00 00 00 00 00 00
       0.0 0.0 0.0 0.0
000190 00 00 00 00 00 00 00 00 00 00 00 00 00 00 00 00
       0.0 0.0 0.0 0.0
0001a0 00 00 00 00 00 00 00 00 00 00 00 00 00 00 00 00
       0.0 0.0 0.0 0.0
0001b0 00 00 00 00 00 00 00 00 00 00 00 00 00 00 00 00
       0.0 0.0 0.0 0.0
0001c0 00 00 00 00 00 00 00 00 00 00 00 00 00 00 00 00
       0.0 0.0 0.0 0.0
0001d0 00 00 00 00 00 00 00 00 00 00 00 00 00 00 00 00
       0.0 0.0 0.0 0.0
0001e0 00 00 00 00 00 00 00 00 00 00 00 00 00 00 00 00
       0.0 0.0 0.0 0.0
0001f0 00 00 00 00 00 00 00 00 00 00 00 00 00 00 00 00
       0.0 0.0 0.0 0.0
000200 00 00 00 00 00 00 00 00 00 00 00 00 00 00 00 00
       0.0 0.0 0.0 0.0
000210 00 00 00 00 00 00 00 00 00 00 00 00 00 00 00 00
       0.0 0.0 0.0 0.0
000220 00 00 00 00 00 00 00 00 00 00 00 00 00 00 00 00
       0.0 0.0 0.0 0.0
000230 00 00 00 00 00 00 00 00 00 00 00 00 00 00 00 00
       0.0 0.0 0.0 0.0
000240 00 00 00 00 00 00 00 00 00 00 00 00 00 00 00 00
       0.0 0.0 0.0 0.0
000250 00 00 00 00 00 00 00 00 00 00 00 00 00 00 00 00
       0.0 0.0 0.0 0.0
000260 00 00 00 00 00 00 00 00 00 00 00 00 00 00 00 00
       0.0 0.0 0.0 0.0
000270 00 00 00 00 00 00 00 00 00 00 00 00 00 00 00 00
       0.0 0.0 0.0 0.0
000280 00 00 00 00 00 00 00 00 00 00 00 00 00 00 00 00
       0.0 0.0 0.0 0.0
000290 00 00 00 00 00 00 00 00 00 00 00 00 00 00 00 00
       0.0 0.0 0.0 0.0
0002a0 00 00 00 00 00 00 00 00 00 00 00 00 00 00 00 00
       0.0 0.0 0.0 0.0
0002b0 00 00 00 00 00 00 00 00 00 00 00 00
       0.0 0.0 0.0

_ei_mask f4 [175]
000000 00 00 80 3f 00 00 80 3f 00 00 80 3f 00 00 80 3f
       1.0 1.0 1.0 1.0
000010 00 00 80 3f 00 00 80 3f 00 00 80 3f 00 00 80 3f
       1.0 1.0 1.0 1.0
000020 00 00 80 3f 00 00 80 3f 00 00 80 3f 00 00 80 3f
       1.0 1.0 1.0 1.0
000030 00 00 80 3f 00 00 80 3f 00 00 80 3f 00 00 80 3f
       1.0 1.0 1.0 1.0
000040 00 00 80 3f 00 00 80 3f 00 00 80 3f 00 00 80 3f
       1.0 1.0 1.0 1.0
000050 00 00 80 3f 00 00 80 3f 00 00 80 3f 00 00 80 3f
       1.0 1.0 1.0 1.0
000060 00 00 80 3f 00 00 80 3f 00 00 80 3f 00 00 80 3f
       1.0 1.0 1.0 1.0
000070 00 00 80 3f 00 00 80 3f 00 00 80 3f 00 00 80 3f
       1.0 1.0 1.0 1.0
000080 00 00 80 3f 00 00 80 3f 00 00 80 3f 00 00 80 3f
       1.0 1.0 1.0 1.0
000090 00 00 80 3f 00 00 80 3f 00 00 80 3f 00 00 80 3f
       1.0 1.0 1.0 1.0
0000a0 00 00 80 3f 00 00 80 3f 00 00 80 3f 00 00 80 3f
       1.0 1.0 1.0 1.0
0000b0 00 00 80 3f 00 00 80 3f 00 00 80 3f 00 00 80 3f
       1.0 1.0 1.0 1.0
0000c0 00 00 80 3f 00 00 80 3f 00 00 80 3f 00 00 80 3f
       1.0 1.0 1.0 1.0
0000d0 00 00 80 3f 00 00 80 3f 00 00 80 3f 00 00 80 3f
       1.0 1.0 1.0 1.0
0000e0 00 00 80 3f 00 00 80 3f 00 00 80 3f 00 00 80 3f
       1.0 1.0 1.0 1.0
0000f0 00 00 80 3f 00 00 80 3f 00 00 80 3f 00 00 80 3f
       1.0 1.0 1.0 1.0
000100 00 00 80 3f 00 00 80 3f 00 00 80 3f 00 00 80 3f
       1.0 1.0 1.0 1.0
000110 00 00 80 3f 00 00 80 3f 00 00 80 3f 00 00 80 3f
       1.0 1.0 1.0 1.0
000120 00 00 80 3f 00 00 80 3f 00 00 80 3f 00 00 80 3f
       1.0 1.0 1.0 1.0
000130 00 00 80 3f 00 00 80 3f 00 00 80 3f 00 00 80 3f
       1.0 1.0 1.0 1.0
000140 00 00 80 3f 00 00 80 3f 00 00 80 3f 00 00 80 3f
       1.0 1.0 1.0 1.0
000150 00 00 80 3f 00 00 80 3f 00 00 80 3f 00 00 80 3f
       1.0 1.0 1.0 1.0
000160 00 00 80 3f 00 00 80 3f 00 00 80 3f 00 00 80 3f
       1.0 1.0 1.0 1.0
000170 00 00 80 3f 00 00 80 3f 00 00 80 3f 00 00 80 3f
       1.0 1.0 1.0 1.0
000180 00 00 80 3f 00 00 80 3f 00 00 80 3f 00 00 80 3f
       1.0 1.0 1.0 1.0
000190 00 00 80 3f 00 00 80 3f 00 00 80 3f 00 00 80 3f
       1.0 1.0 1.0 1.0
0001a0 00 00 80 3f 00 00 80 3f 00 00 80 3f 00 00 80 3f
       1.0 1.0 1.0 1.0
0001b0 00 00 80 3f 00 00 80 3f 00 00 80 3f 00 00 80 3f
       1.0 1.0 1.0 1.0
0001c0 00 00 80 3f 00 00 80 3f 00 00 80 3f 00 00 80 3f
       1.0 1.0 1.0 1.0
0001d0 00 00 80 3f 00 00 80 3f 00 00 80 3f 00 00 80 3f
       1.0 1.0 1.0 1.0
0001e0 00 00 80 3f 00 00 80 3f 00 00 80 3f 00 00 80 3f
       1.0 1.0 1.0 1.0
0001f0 00 00 80 3f 00 00 80 3f 00 00 80 3f 00 00 80 3f
       1.0 1.0 1.0 1.0
000200 00 00 80 3f 00 00 80 3f 00 00 80 3f 00 00 80 3f
       1.0 1.0 1.0 1.0
000210 00 00 80 3f 00 00 80 3f 00 00 80 3f 00 00 80 3f
       1.0 1.0 1.0 1.0
000220 00 00 80 3f 00 00 80 3f 00 00 80 3f 00 00 80 3f
       1.0 1.0 1.0 1.0
000230 00 00 80 3f 00 00 80 3f 00 00 80 3f 00 00 80 3f
       1.0 1.0 1.0 1.0
000240 00 00 80 3f 00 00 80 3f 00 00 80 3f 00 00 80 3f
       1.0 1.0 1.0 1.0
000250 00 00 80 3f 00 00 80 3f 00 00 80 3f 00 00 80 3f
       1.0 1.0 1.0 1.0
000260 00 00 80 3f 00 00 80 3f 00 00 80 3f 00 00 80 3f
       1.0 1.0 1.0 1.0
000270 00 00 80 3f 00 00 80 3f 00 00 80 3f 00 00 80 3f
       1.0 1.0 1.0 1.0
000280 00 00 80 3f 00 00 80 3f 00 00 80 3f 00 00 80 3f
       1.0 1.0 1.0 1.0
000290 00 00 80 3f 00 00 80 3f 00 00 80 3f 00 00 80 3f
       1.0 1.0 1.0 1.0
0002a0 00 00 80 3f 00 00 80 3f 00 00 80 3f 00 00 80 3f
       1.0 1.0 1.0 1.0
0002b0 00 00 80 3f 00 00 80 3f 00 00 80 3f
       1.0 1.0 1.0

weight f4 [403, 3]
000000 80 0e 88 bf 80 0e 88 bf e9 a6 a4 be 7f d5 a7 bf
       -1.0629425 -1.0629425 -0.32158592 -1.3112029
000010 7f d5 a7 bf 65 f2 1e bf cc 19 72 bf cc 19 72 bf
       -1.3112029 -0.62088615 -0.9457061 -0.9457061
000020 da 15 0e bf 78 de 4f bf 78 de 4f bf 7f 09 08 bf
       -0.5550209 -0.81198835 -0.81198835 -0.5313949
000030 50 dd 26 bf 50 dd 26 bf bd 06 09 bf aa 85 33 bf
       -0.65181446 -0.65181446 -0.53525907 -0.7012583
000040 aa 85 33 bf 8b d3 39 bf 4c f3 65 bf 4c f3 65 bf
       -0.7012583 -0.72588414 -0.89824367 -0.89824367
000050 32 13 54 bf 6c 2f 3e bf 6c 2f 3e bf 22 88 77 bf
       -0.8284179 -0.7429111 -0.7429111 -0.966921
000060 1b 1a a8 bf 1b 1a a8 bf 86 2f 86 bf 50 bf a7 bf
       -1.3132967 -1.3132967 -1.0483253 -1.3105259
000070 50 bf a7 bf 06 7b 6d bf 24 54 36 bf 24 54 36 bf
       -1.3105259 -0.92765844 -0.7122214 -0.7122214
000080 1d 0f 04 bf a9 3b 40 bf a9 3b 40 bf d1 aa 16 3f
       -0.5158556 -0.75091034 -0.75091034 0.58854395
000090 fd 9a d4 be fd 9a d4 be 52 89 d0 3d 81 5c 88 be
       -0.41524497 -0.41524497 0.10182442 -0.26633075
0000a0 81 5c 88 be ca a5 a9 3e bc 59 5d bf bc 59 5d bf
       -0.26633075 0.331343 -0.8646505 -0.8646505
0000b0 43 e9 a6 be c5 1b 95 bf c5 1b 95 bf 76 26 23 be
       -0.3259984 -1.16491 -1.16491 -0.1593264
0000c0 b6 7a 23 bf b6 7a 23 bf ea 53 4f 3e 36 f5 61 be
       -0.6385912 -0.6385912 0.20246854 -0.22066197
0000d0 36 f5 61 be be 98 f8 3d 06 95 9e bf 06 95 9e bf
       -0.22066197 0.12138508 -1.2389228 -1.2389228
0000e0 e9 8f 54 be 87 12 ea bf 87 12 ea bf e3 23 bd bb
       -0.20758022 -1.8286904 -1.8286904 -0.0057721003
0000f0 d1 ff b4 bf d1 ff b4 bf c3 27 ed 3b 08 9c 7f bf
       -1.4140569 -1.4140569 0.007237406 -0.9984746
000100 08 9c 7f bf 94 e1 10 bf 75 dc 59 bf 75 dc 59 bf
       -0.9984746 -0.56594205 -0.85102016 -0.85102016
000110 fe 41 ab be 6a 79 3b bf 6a 79 3b bf 30 16 42 bf
       -0.33448786 -0.7323214 -0.7323214 -0.75815105
000120 68 fe 34 bf 68 fe 34 bf 05 21 42 bf 61 8a 06 bf
       -0.70700693 -0.70700693 -0.75831634 -0.525549
000130 61 8a 06 bf de 29 1a bf 7e db ad bd 7e db ad bd
       -0.525549 -0.60220134 -0.084891304 -0.084891304
000140 50 23 0a bf 87 a9 ef be 87 a9 ef be bf 46 1e bf
       -0.5396013 -0.46809027 -0.46809027 -0.618267
000150 d6 2c e5 be d6 2c e5 be 20 15 d9 be 25 c2 d0 be
       -0.4476077 -0.4476077 -0.4239893 -0.4077312
000160 25 c2 d0 be ef b6 cf be 33 1e 11 be 33 1e 11 be
       -0.4077312 -0.40569255 -0.14171676 -0.14171676
000170 3e 3d 10 bf 84 06 02 be 84 06 02 be 75 51 17 bf
       -0.5634345 -0.12697798 -0.12697798 -0.5910867
000180 c6 bb b7 be c6 bb b7 be d3 aa 9a 3f 4a 0d 5e 3f
       -0.35885447 -0.35885447 1.2083381 0.8673903
000190 4a 0d 5e 3f 52 30 8a 3f 99 ea 9e 3f 99 ea 9e 3f
       0.8673903 1.0795996 1.2415344 1.2415344
0001a0 af 2c 8a 3f ff c3 b4 3f ff c3 b4 3f 9b 87 bd 3f
       1.0794886 1.4122313 1.4122313 1.4807009
0001b0 a9 d2 ad 3f a9 d2 ad 3f e9 77 9d 3f 3a a0 bc 3f
       1.3579913 1.3579913 1.2302219 1.4736397
0001c0 3a a0 bc 3f 4d c7 93 3f c4 22 ac 3f c4 22 ac 3f
       1.4736397 1.1545197 1.344811 1.344811
0001d0 21 44 8f 3f 08 a6 a0 3f 08 a6 a0 3f 7e f2 70 3f
       1.1192666 1.2550669 1.2550669 0.94120014
0001e0 0e c5 a2 3f 0e c5 a2 3f 99 a3 85 3f 46 81 bf 3f
       1.2716386 1.2716386 1.0440551 1.4961326
0001f0 46 81 bf 3f f4 43 9f 3f 84 96 b2 3f 84 96 b2 3f
       1.4961326 1.2442613 1.3952184 1.3952184
000200 a9 e8 83 3f 22 c8 b3 3f 22 c8 b3 3f 7e bd 9c 3f
       1.0305377 1.4045451 1.4045451 1.2245328
000210 60 9b d1 3f 60 9b d1 3f a9 b1 94 3f 6a 58 ad 3f
       1.6375542 1.6375542 1.1616718 1.3542607
000220 6a 58 ad 3f 70 c4 a0 3f 0f bf a2 3f 0f bf a2 3f
       1.3542607 1.2559948 1.2714556 1.2714556
000230 04 6b 84 3f da 5a 88 3f da 5a 88 3f c0 fd 84 3f
       1.0345159 1.0652726 1.0652726 1.0389938
000240 62 95 a1 3f 62 95 a1 3f cc ad 49 3f 1a 56 46 3f
       1.2623713 1.2623713 0.7878082 0.7747513
000250 1a 56 46 3f 42 0b 81 3e 91 38 b9 be 91 38 b9 be
       0.7747513 0.25203902 -0.3617597 -0.3617597
000260 a6 96 ec bd cf 86 ad be cf 86 ad be 5e 18 5a 3b
       -0.115521714 -0.33891913 -0.33891913 0.0033278684
000270 f9 51 36 bd f9 51 36 bd 67 8d 62 be de ae ca be
       -0.04451177 -0.04451177 -0.22124253 -0.39586538
000280 de ae ca be dd d2 8b 3d fb f7 a5 bf fb f7 a5 bf
       -0.39586538 0.06827328 -1.2966303 -1.2966303
000290 b4 21 cc 3d c4 1a 94 be c4 1a 94 be fe b6 fb 3d
       0.09967366 -0.2892667 -0.2892667 0.12290762
0002a0 98 01 0d bf 98 01 0d bf 26 21 6a bd 09 98 fa bf
       -0.55080557 -0.55080557 -0.05716052 -1.9577647
0002b0 09 98 fa bf 3a 43 08 bf da 4e 04 c0 da 4e 04 c0
       -1.9577647 -0.5322758 -2.0673127 -2.0673127
0002c0 7c fb f2 be 7b d8 04 c0 7b d8 04 c0 34 2f 3c bf
       -0.47457492 -2.075713 -2.075713 -0.73509526
0002d0 87 aa ec bf 87 aa ec bf e1 69 71 bf 01 83 b1 bf
       -1.8489541 -1.8489541 -0.94302183 -1.3868104
0002e0 01 83 b1 bf d7 6c 8e bf d9 da e9 bf d9 da e9 bf
       -1.3868104 -1.1126965 -1.8269912 -1.8269912
0002f0 eb ed 89 bf 6a d9 d3 bf 6a d9 d3 bf 33 d0 86 bf
       -1.0775732 -1.6550725 -1.6550725 -1.0532287
000300 e0 f3 bd bf e0 f3 bd bf 70 0c 83 bf d1 58 d8 bf
       -1.484005 -1.484005 -1.0238171 -1.6902105
000310 d1 58 d8 bf fd 11 97 bf b8 43 e8 bf b8 43 e8 bf
       -1.6902105 -1.1802365 -1.8145666 -1.8145666
000320 12 23 90 bf 39 58 97 bf 39 58 97 bf f6 bf 85 bf
       -1.1260703 -1.1823798 -1.1823798 -1.0449207
000330 be 03 68 bf be 03 68 bf 26 fb 44 bf 9f d6 7f bf
       -0.9063071 -0.9063071 -0.7694572 -0.9993686
000340 9f d6 7f bf a7 78 7f bf 3c 43 8d bf 3c 43 8d bf
       -0.9993686 -0.99793476 -1.1036143 -1.1036143
000350 aa 4c 58 3e 36 79 36 bf 36 79 36 bf 16 3f 3a bd
       0.21122995 -0.71278703 -0.71278703 -0.04547032
000360 f5 ca d8 be f5 ca d8 be 57 69 b6 bd d5 b5 70 3d
       -0.42342344 -0.42342344 -0.08906811 0.05876716
000370 d5 b5 70 3d de 73 07 3f 0d 0e 24 bc 0d 0e 24 bc
       0.05876716 0.52911174 -0.010013116 -0.010013116
000380 a8 8e 12 3c c6 9b cd 3c c6 9b cd 3c 92 c1 f7 bd
       0.008945145 0.025098693 0.025098693 -0.120974675
000390 ac 23 a0 3d ac 23 a0 3d fe 70 09 3b 84 d9 b1 be
       0.07819304 0.07819304 0.002097189 -0.34736264
0003a0 84 d9 b1 be 4e 05 88 be d2 27 81 bf d2 27 81 bf
       -0.34736264 -0.26566547 -1.0090277 -1.0090277
0003b0 92 79 34 bf 28 19 39 bf 28 19 39 bf 2e e2 c3 bd
       -0.70498 -0.7230401 -0.7230401 -0.09564625
0003c0 d8 ea 53 bf d8 ea 53 bf 39 42 c5 be eb 3b 83 bf
       -0.8278022 -0.8278022 -0.38527086 -1.025266
0003d0 eb 3b 83 bf ea b3 5d bf 1c e9 5e bf 1c e9 5e bf
       -1.025266 -0.8660265 -0.87074447 -0.87074447
0003e0 6d 2c 7c bf 1a af f7 be 1a af f7 be 91 82 b0 3e
       -0.9850529 -0.4837578 -0.4837578 0.34474614
0003f0 51 65 b7 bd 51 65 b7 bd aa 7b a9 bd 67 37 93 be
       -0.089548714 -0.089548714 -0.0827554 -0.28753206

bias f4 [3]
000000 00 00 00 00 00 00 00 00 00 00 00 00
       0.0 0.0 0.0

_ei_mask f4 [3]
000000 00 00 80 3f 00 00 80 3f 00 00 80 3f
       1.0 1.0 1.0

rmat f4 [1, 1, 3]
000000 00 00 80 bf 00 00 00 40 00 00 80 bf
       -1.0 2.0 -1.0

weight f4 [3, 175]
000000 a2 eb 89 3e 17 1b 8a be 88 5d b5 3d e6 68 1b 3e
       0.26937586 -0.26973793 0.0885573 0.15176734
000010 28 9a cd 3d 53 48 81 3c 2f 98 99 be b9 49 ed bb
       0.100391686 0.015781557 -0.2999892 -0.0072414544
000020 62 30 ba 3c 0b c1 34 be 75 ab 0c be 96 10 f0 be
       0.022728149 -0.17651765 -0.1373728 -0.46887654
000030 54 b3 7d 3e 12 1a b7 bd 15 88 b4 be f1 b0 b2 be
       0.2477544 -0.089405194 -0.35260072 -0.3490062
000040 f7 23 a4 be 3c 25 4b 3e 5d 95 b5 be 2d c1 15 be
       -0.3205869 0.19838423 -0.35465518 -0.14624472
000050 24 23 37 3e b0 b7 ab 3c 32 3b 59 3d fc 4c 36 bc
       0.17884499 0.020961612 0.05303497 -0.011126753
000060 c4 bb ac 3d 21 33 5b be 45 8d a5 be 2d 4e 55 3e
       0.08434251 -0.21406223 -0.32334343 0.20830603
000070 6e 92 22 3e 13 70 ea 3d 4e 7f 3f 3e 6b 29 c8 be
       0.15876171 0.11447158 0.18700907 -0.390941
000080 c2 4d a8 bd 2a d9 0d be 00 e8 4f 3e a0 6e 16 be
       -0.08217956 -0.13852373 0.20303345 -0.14690638
000090 f2 46 ba 3e e2 25 3b be 51 12 46 be f5 ff 50 bc
       0.36382252 -0.1827617 -0.19342925 -0.012756337
0000a0 09 b3 ad bd 79 a6 10 3e eb 0b e2 3d 1c 61 ae bd
       -0.08481414 0.14126004 0.110374294 -0.08514616
0000b0 09 00 26 be 15 a3 cf bd 96 5c 3b 3e 6d 07 b2 3b
       -0.16210951 -0.10138527 0.18297037 0.005433014
0000c0 60 8f af bd 3d 43 9c bc 77 a1 92 3e 10 bc 3d 3e
       -0.085722685 -0.01907503 0.28638813 0.18528771
0000d0 91 c2 0f be ea a9 89 3e 4c b3 e4 3d 35 42 aa be
       -0.14039065 0.26887447 0.11167011 -0.33253637
0000e0 71 b2 80 3e 5b 74 16 bf fc f1 8d 3d 5f 89 23 bf
       0.2513614 -0.58771294 0.069309205 -0.63881487
0000f0 0d 56 82 3e 4d 3b b2 3d 89 95 5b 3d 8c fb 9f 3e
       0.25456277 0.08702717 0.053609405 0.31246603
000100 1d 11 92 bd c8 db 22 3d 42 8f 11 bc 24 d8 1e be
       -0.0713217 0.03976038 -0.008884253 -0.15512139
000110 94 bd 0c 3e e3 bf 5f bd 41 8f a8 bc 18 47 08 bc
       0.13744193 -0.054626357 -0.020576121 -0.008317731
000120 c2 c2 be 3c 4a 19 04 bf 11 4a 8f bc 58 7e e5 be
       0.023286227 -0.5160109 -0.017491372 -0.44822955
000130 29 3d eb be 94 69 48 3c 02 ad fb be a4 7a 7c be
       -0.459451 0.012232203 -0.49155432 -0.24656159
000140 4d f8 b0 bd 99 14 7e be 67 55 02 bf 80 e3 47 be
       -0.086411096 -0.24812545 -0.50911564 -0.19520378
000150 74 12 c5 be 73 15 a2 3b 3c 4c 39 be 4a a5 b1 bd
       -0.3849064 0.0049464046 -0.18095487 -0.086741045
000160 5d 76 f2 3d 43 07 b0 3d 35 a0 44 3d 5d a8 90 bc
       0.11838982 0.08595135 0.048004348 -0.017658407
000170 9f 6d 14 3b 02 75 12 3e 1f d0 88 3d 71 29 8d 3d
       0.0022648347 0.14302447 0.06680321 0.0689267
000180 1d a1 32 be d6 d7 fc 3d 2d 3f 10 3d bd cc 0b bd
       -0.17444272 0.12345855 0.0352165 -0.0341308
000190 05 8c 08 be 29 90 3f be 29 cc fe bc ea 17 a7 3d
       -0.13334663 -0.18707336 -0.03110321 0.08158858
0001a0 bf be 86 3d e1 f4 11 3e f5 70 a1 be 3d 5c d9 bd
       0.06579351 0.1425357 -0.31531492 -0.10613296
0001b0 26 2d 8f 3d da 93 95 3d c5 af 52 be 20 92 dc 3d
       0.06991033 0.07303591 -0.20574863 0.10770059
0001c0 34 b0 12 bc c1 19 82 be 18 59 c7 bd 40 f9 f8 bd
       -0.008953143 -0.25410274 -0.0973379 -0.12156916
0001d0 a0 37 34 be c6 eb 90 bb 05 e8 2e 3d c1 48 94 bd
       -0.17599344 -0.0044226376 0.04270174 -0.07240439
0001e0 54 75 86 3c 63 f8 44 bd 61 b2 f4 bd 58 42 1c bd
       0.016413368 -0.048088443 -0.119480856 -0.038149208
0001f0 05 4a 1a 3d 48 f7 13 3d fe b1 14 3c b1 a8 80 3d
       0.037668247 0.036124498 0.00907564 0.06282175
000200 fb 3f c5 bd b8 db 83 bd 2e 3e c1 bd 32 d1 2f 3d
       -0.09631344 -0.064383924 -0.09435688 0.042924114
000210 48 75 bf bd 15 64 a4 bd 8e bb 74 3d 00 be 71 3d
       -0.093485415 -0.08026902 0.05974918 0.05901909
000220 db 80 ee 3c f4 df cf bb c7 2e bf 3d dc 1b 7e bd
       0.029114177 -0.006343836 0.09335094 -0.062038288
000230 93 91 2b bd 26 59 21 3d 7e ad f9 3c 6b 56 ee 3d
       -0.041886877 0.03939166 0.030478235 0.11637577
000240 cd 1b 8a 3d 6c eb 28 be e7 2a 08 3e 66 18 78 3d
       0.06743584 -0.16496056 0.13297616 0.060570143
000250 5f 31 b8 3e db fa d1 3c 98 af 44 bd bf 54 56 3d
       0.35975167 0.025632313 -0.04801902 0.052326914
000260 2d 84 4a bc 1d 2a d6 3d 3a 83 52 be 67 17 6e be
       -0.012360615 0.10457251 -0.20557871 -0.23251115
000270 55 17 07 be e3 ac 88 be 7e 96 73 be 4e 73 8c 3e
       -0.13192494 -0.26694402 -0.23787877 0.2743172
000280 e6 e4 1f 3e af 24 24 3e 5d e5 6c 3e 12 8d 32 be
       0.15614662 0.16029619 0.2313437 -0.17436627
000290 70 a6 02 bb 24 60 22 be 20 c7 73 3e 11 0c c7 bc
       -0.001993563 -0.15856987 0.23806429 -0.024297746
0002a0 b6 80 5e 3e b9 fb e6 bc 36 4c 18 bd 70 11 3e 3c
       0.21728787 -0.028196203 -0.037182055 0.011600837
0002b0 c0 e5 81 3c 5e 0e 00 bc ff 7c 98 3d a2 eb 89 3e
       0.015856624 -0.007815925 0.07445716 0.26937586
0002c0 17 1b 8a be 88 5d b5 3d e6 68 1b 3e 28 9a cd 3d
       -0.26973793 0.0885573 0.15176734 0.100391686
0002d0 53 48 81 3c 2f 98 99 be b9 49 ed bb 62 30 ba 3c
       0.015781557 -0.2999892 -0.0072414544 0.022728149
0002e0 0b c1 34 be 75 ab 0c be 96 10 f0 be 54 b3 7d 3e
       -0.17651765 -0.1373728 -0.46887654 0.2477544
0002f0 12 1a b7 bd 15 88 b4 be f1 b0 b2 be f7 23 a4 be
       -0.089405194 -0.35260072 -0.3490062 -0.3205869
000300 3c 25 4b 3e 5d 95 b5 be 2d c1 15 be 24 23 37 3e
       0.19838423 -0.35465518 -0.14624472 0.17884499
000310 b0 b7 ab 3c 32 3b 59 3d fc 4c 36 bc c4 bb ac 3d
       0.020961612 0.05303497 -0.011126753 0.08434251
000320 21 33 5b be 45 8d a5 be 2d 4e 55 3e 6e 92 22 3e
       -0.21406223 -0.32334343 0.20830603 0.15876171
000330 13 70 ea 3d 4e 7f 3f 3e 6b 29 c8 be c2 4d a8 bd
       0.11447158 0.18700907 -0.390941 -0.08217956
000340 2a d9 0d be 00 e8 4f 3e a0 6e 16 be f2 46 ba 3e
       -0.13852373 0.20303345 -0.14690638 0.36382252
000350 e2 25 3b be 51 12 46 be f5 ff 50 bc 09 b3 ad bd
       -0.1827617 -0.19342925 -0.012756337 -0.08481414
000360 79 a6 10 3e eb 0b e2 3d 1c 61 ae bd 09 00 26 be
       0.14126004 0.110374294 -0.08514616 -0.16210951
000370 15 a3 cf bd 96 5c 3b 3e 6d 07 b2 3b 60 8f af bd
       -0.10138527 0.18297037 0.005433014 -0.085722685
000380 3d 43 9c bc 77 a1 92 3e 10 bc 3d 3e 91 c2 0f be
       -0.01907503 0.28638813 0.18528771 -0.14039065
000390 ea a9 89 3e 4c b3 e4 3d 35 42 aa be 71 b2 80 3e
       0.26887447 0.11167011 -0.33253637 0.2513614
0003a0 5b 74 16 bf fc f1 8d 3d 5f 89 23 bf 0d 56 82 3e
       -0.58771294 0.069309205 -0.63881487 0.25456277
0003b0 4d 3b b2 3d 89 95 5b 3d 8c fb 9f 3e 1d 11 92 bd
       0.08702717 0.053609405 0.31246603 -0.0713217
0003c0 c8 db 22 3d 42 8f 11 bc 24 d8 1e be 94 bd 0c 3e
       0.03976038 -0.008884253 -0.15512139 0.13744193
0003d0 e3 bf 5f bd 41 8f a8 bc 18 47 08 bc c2 c2 be 3c
       -0.054626357 -0.020576121 -0.008317731 0.023286227
0003e0 4a 19 04 bf 11 4a 8f bc 58 7e e5 be 29 3d eb be
       -0.5160109 -0.017491372 -0.44822955 -0.459451
0003f0 94 69 48 3c 02 ad fb be a4 7a 7c be 4d f8 b0 bd
       0.012232203 -0.49155432 -0.24656159 -0.086411096

bias f4 [175]
000000 00 00 00 00 00 00 00 00 00 00 00 00 00 00 00 00
       0.0 0.0 0.0 0.0
000010 00 00 00 00 00 00 00 00 00 00 00 00 00 00 00 00
       0.0 0.0 0.0 0.0
000020 00 00 00 00 00 00 00 00 00 00 00 00 00 00 00 00
       0.0 0.0 0.0 0.0
000030 00 00 00 00 00 00 00 00 00 00 00 00 00 00 00 00
       0.0 0.0 0.0 0.0
000040 00 00 00 00 00 00 00 00 00 00 00 00 00 00 00 00
       0.0 0.0 0.0 0.0
000050 00 00 00 00 00 00 00 00 00 00 00 00 00 00 00 00
       0.0 0.0 0.0 0.0
000060 00 00 00 00 00 00 00 00 00 00 00 00 00 00 00 00
       0.0 0.0 0.0 0.0
000070 00 00 00 00 00 00 00 00 00 00 00 00 00 00 00 00
       0.0 0.0 0.0 0.0
000080 00 00 00 00 00 00 00 00 00 00 00 00 00 00 00 00
       0.0 0.0 0.0 0.0
000090 00 00 00 00 00 00 00 00 00 00 00 00 00 00 00 00
       0.0 0.0 0.0 0.0
0000a0 00 00 00 00 00 00 00 00 00 00 00 00 00 00 00 00
       0.0 0.0 0.0 0.0
0000b0 00 00 00 00 00 00 00 00 00 00 00 00 00 00 00 00
       0.0 0.0 0.0 0.0
0000c0 00 00 00 00 00 00 00 00 00 00 00 00 00 00 00 00
       0.0 0.0 0.0 0.0
0000d0 00 00 00 00 00 00 00 00 00 00 00 00 00 00 00 00
       0.0 0.0 0.0 0.0
0000e0 00 00 00 00 00 00 00 00 00 00 00 00 00 00 00 00
       0.0 0.0 0.0 0.0
0000f0 00 00 00 00 00 00 00 00 00 00 00 00 00 00 00 00
       0.0 0.0 0.0 0.0
000100 00 00 00 00 00 00 00 00 00 00 00 00 00 00 00 00
       0.0 0.0 0.0 0.0
000110 00 00 00 00 00 00 00 00 00 00 00 00 00 00 00 00
       0.0 0.0 0.0 0.0
000120 00 00 00 00 00 00 00 00 00 00 00 00 00 00 00 00
       0.0 0.0 0.0 0.0
000130 00 00 00 00 00 00 00 00 00 00 00 00 00 00 00 00
       0.0 0.0 0.0 0.0
000140 00 00 00 00 00 00 00 00 00 00 00 00 00 00 00 00
       0.0 0.0 0.0 0.0
000150 00 00 00 00 00 00 00 00 00 00 00 00 00 00 00 00
       0.0 0.0 0.0 0.0
000160 00 00 00 00 00 00 00 00 00 00 00 00 00 00 00 00
       0.0 0.0 0.0 0.0
000170 00 00 00 00 00 00 00 00 00 00 00 00 00 00 00 00
       0.0 0.0 0.0 0.0
000180 00 00 00 00 00 00 00 00 00 00 00 00 00 00 00 00
       0.0 0.0 0.0 0.0
000190 00 00 00 00 00 00 00 00 00 00 00 00 00 00 00 00
       0.0 0.0 0.0 0.0
0001a0 00 00 00 00 00 00 00 00 00 00 00 00 00 00 00 00
       0.0 0.0 0.0 0.0
0001b0 00 00 00 00 00 00 00 00 00 00 00 00 00 00 00 00
       0.0 0.0 0.0 0.0
0001c0 00 00 00 00 00 00 00 00 00 00 00 00 00 00 00 00
       0.0 0.0 0.0 0.0
0001d0 00 00 00 00 00 00 00 00 00 00 00 00 00 00 00 00
       0.0 0.0 0.0 0.0
0001e0 00 00 00 00 00 00 00 00 00 00 00 00 00 00 00 00
       0.0 0.0 0.0 0.0
0001f0 00 00 00 00 00 00 00 00 00 00 00 00 00 00 00 00
       0.0 0.0 0.0 0.0
000200 00 00 00 00 00 00 00 00 00 00 00 00 00 00 00 00
       0.0 0.0 0.0 0.0
000210 00 00 00 00 00 00 00 00 00 00 00 00 00 00 00 00
       0.0 0.0 0.0 0.0
000220 00 00 00 00 00 00 00 00 00 00 00 00 00 00 00 00
       0.0 0.0 0.0 0.0
000230 00 00 00 00 00 00 00 00 00 00 00 00 00 00 00 00
       0.0 0.0 0.0 0.0
000240 00 00 00 00 00 00 00 00 00 00 00 00 00 00 00 00
       0.0 0.0 0.0 0.0
000250 00 00 00 00 00 00 00 00 00 00 00 00 00 00 00 00
       0.0 0.0 0.0 0.0
000260 00 00 00 00 00 00 00 00 00 00 00 00 00 00 00 00
       0.0 0.0 0.0 0.0
000270 00 00 00 00 00 00 00 00 00 00 00 00 00 00 00 00
       0.0 0.0 0.0 0.0
000280 00 00 00 00 00 00 00 00 00 00 00 00 00 00 00 00
       0.0 0.0 0.0 0.0
000290 00 00 00 00 00 00 00 00 00 00 00 00 00 00 00 00
       0.0 0.0 0.0 0.0
0002a0 00 00 00 00 00 00 00 00 00 00 00 00 00 00 00 00
       0.0 0.0 0.0 0.0
0002b0 00 00 00 00 00 00 00 00 00 00 00 00
       0.0 0.0 0.0
