checkpoints/version116/model.pt (torch, 47789 bytes, 21 tensors)

bias f4 [175]
00000000: 2b4b e73e 9147 7940 adfb d0be afa7 3440
00000010: c269 ff3d 5d08 6d40 5dca 2340 5a98 9240
00000020: 69a2 d63f 961a 4740 d807 e53f 0c42 0040
00000030: 2941 8dbe 33c0 4cbc 52d7 e33e 475a 3c40
00000040: 3d80 cf3e cd62 0b3f 2323 d13e bdee 8740
00000050: 69f8 2a3f 5935 0d40 96e2 1940 1984 b8bc
00000060: 7d00 52bf e9d1 8940 9b58 2c3f 6371 3c40
00000070: c9e2 c13f aa83 8840 0889 933f d7e6 0f3e
00000080: 70fa e93f e620 7abe c154 513f db80 a140
00000090: 5a9a 883f 9034 e33f 66fc e03f 1392 0740
000000a0: a958 2440 f52d bc3f b339 873e af02 e43e
000000b0: e0d5 9c3f 9ee6 b5be 225a 1a3f e427 ff3e
000000c0: 693e 9c3e 638d 0fbe 0465 d639 56d6 6c3d
000000d0: 93d5 cd3f 7101 ce3e 536d db3e 6438 a23f
000000e0: 5148 843d 986c 5d3f da51 143f 908b 493c
000000f0: 5f5e 943e 30db 813e 30a0 953f 378d c33f
00000100: 42cd fd3e 5794 433f cac8 263f 540f 823e
00000110: f40e 173f 4e53 ff3f ce94 dd3d 5121 1640
00000120: 8919 2a40 849a 933f 8c93 0240 3883 993f
00000130: bc1a 0c40 4725 2540 7819 e53f 58d1 0e40
00000140: f5be 2340 e12f 5940 9245 a13f 63b2 6040
00000150: b4f6 f93f 0e96 1140 533a 7840 1d2c 9440
00000160: 5b45 933f 9b4c a23f 4199 1040 6e4f eb3e
00000170: 09db 8240 9334 8b3f 90b5 d33f f4cf ef3e
00000180: 22b4 af40 f7be 513f 26df 133e 5922 973e
00000190: db3f 5540 9ee4 493f bf75 d93f 0a2d 3540
000001a0: 7f0b b33f 4cfa 1940 bfe1 b93f 35ab 2240
000001b0: 2070 ff3f b58e 8440 fbc5 bb3f cbdf ae3e
000001c0: a6d8 593c d84b 6a40 afcb 9d3f e7fe 6a40
000001d0: 2458 f73d b696 8340 0a77 4e40 db51 5d40
000001e0: 1825 b140 a151 d93f 652d 3240 eaf2 6640
000001f0: 4015 c240 9bae 1540 d087 ac3e 9b5c 1f3e
00000200: 47b6 7c3f 468d 623f 347b da3e ec9e 7a3e
00000210: 237b ddbc b7e5 4740 edc8 f33f 6df8 493e
00000220: d396 dc3e 0a6a 1040 618a a53f f655 ea3f
00000230: f505 543f 9bad 1f3f b4d9 453f d61c 9f3f
00000240: 2c74 603e 56e9 c93f 5924 e53f 0bb9 923f
00000250: d6a3 4bc0 5fba 70bd a7ca 673e 6bb9 8e3e
00000260: cf1e 5b40 d9c8 533f 943c a740 7290 3340
00000270: 002f b43f 444c af40 23b7 3a3f 683d 4a3f
00000280: 42b3 233f 1818 76bf 22de ff3e 17ba 883f
00000290: ebb6 2e40 b043 8540 9678 993e 3c94 2340
000002a0: e3c2 d5be 528f 4c40 dfe4 2340 4871 3840
000002b0: ba94 1c40 572a dd3e 4017 943f
0.45174536 3.894993 -0.40817013 2.8227346 0.124713436 3.7036355 2.5592263 4.5810976
1.6768314 3.1109977 1.7893019 2.0040312 -0.27588776 -0.012496996 0.44500214 2.94301
0.40527526 0.54447633 0.4084712 4.247893 0.66785294 2.206381 2.4044547 -0.022523927
-0.82031995 4.306874 0.673227 2.9444206 1.5147334 4.2660723 1.1526194 0.14052902
1.8279552 -0.24426612 0.8176995 5.0469794 1.0672104 1.7750416 1.7577026 2.1182907
2.5679114 1.4701525 0.2641121 0.44533297 1.225277 -0.3552751 0.6029378 0.49835122
0.30516365 -0.14018779 0.00040892523 0.057821594 1.6080803 0.40235475 0.42856845 1.2673459
0.06459106 0.86493826 0.57937396 0.012301341 0.2897825 0.2536254 1.168951 1.527747
0.49570662 0.76398224 0.6515013 0.2540232 0.5900719 1.9947298 0.10819398 2.3457835
2.6578085 1.153153 2.0402555 1.199317 2.1891317 2.5804002 1.7898397 2.2315273
2.55853 3.3935473 1.2599356 3.5108879 1.9528413 2.2747836 3.8785598 4.630385
1.1505541 1.2679628 2.2593539 0.45959038 4.0892377 1.0875419 1.6539783 0.46838343
5.490739 0.81932014 0.14440593 0.29518393 3.3320224 0.7886447 1.6989058 2.830874
1.3987883 2.405902 1.4522017 2.5416996 1.9956093 4.1424203 1.4669794 0.34155115
0.013296282 3.6608791 1.2327784 3.671808 0.12077358 4.1121473 3.2260156 3.458121
5.535778 1.6978036 2.7840207 3.6085763 6.065094 2.338782 0.33697367 0.1556267
0.98715633 0.88496816 0.42672122 0.24474686 -0.027036255 3.1233957 1.9045693 0.19723673
0.4308382 2.256472 1.2932855 1.8307483 0.8282159 0.62374276 0.77285314 1.2430675
0.21919316 1.5774333 1.7901717 1.1462721 -3.1818748 -0.058771487 0.226359 0.27875838
3.4237554 0.82728344 5.226145 2.8056912 1.4076843 5.47806 0.72935694 0.7899995
0.639454 -0.96130514 0.4997416 1.068179 2.7299144 4.1645126 0.29974812 2.5559225
-0.4175025 3.1962476 2.5608442 2.8819141 2.4465775 0.43196365 1.1569595

weight f4 [9, 175]
00000000: 2d73 c03e 6f35 623e 2a8d d02a 894a a73e
00000010: 5c9d 0dad cb64 0e3f 1b3d c33e 780b fe3e
00000020: 4794 523f dd90 173f 6ac1 293f cafb 263f
00000030: e2ba bf2a 326e e13e c58d 0e3e ba61 0433
00000040: d840 293e 56a4 b93e c729 823e 0ddf 003f
00000050: ccfa 2827 71bd 303f 4952 f13e 91bb 68be
00000060: da76 763f 2a4a 2b3f 1e05 8a3f f495 883e
00000070: 0270 813e d1d0 e7a5 76fb 783f 16ca b43d
00000080: 9cae 083f 84ab 8e3f 655c 532a 57b0 1433
00000090: 750d 053f cd51 353e 60ce 083f 52ef 253f
000000a0: d4a9 583e 2f77 b7be 76bd 3a3f 90ca 243f
000000b0: b6be 813b ca6b f73e 2544 dc3d f998 65be
000000c0: 41b1 312a 79fe 893b ef8c e73e 9a65 fe3e
000000d0: 5b2a b23e 2440 1c3f a422 e13e 0bed 9d30
000000e0: 1b80 6033 a030 023f f732 c43e 9c50 af3e
000000f0: eca7 003f e7a4 0b3f aa07 04a8 fac1 9dac
00000100: 64f7 6c26 9100 003f 1d65 af3e 7824 0a3f
00000110: 9b47 523e b67f e13e 8456 803e bb5f 513e
00000120: 0c72 8b3e 85cc 902f f893 833e 0a0e 963e
00000130: ab32 42b9 b0cc 8a3e 2a9b 7fb0 715f c83e
00000140: 87e2 4fb9 0da9 4bba 2f84 e73e 53d1 423a
00000150: 2e37 543e 410c 853e 6236 aa3e 70ce bd3e
00000160: e60a 5bab 7d79 0d3f c0c5 b43e be27 a93e
00000170: 0285 9629 cc79 d13e 4698 1c3f 28b0 1a3f
00000180: 3a1d 07bc aea4 ee3e 0b06 013f 7d65 5a3f
00000190: 22b3 423f e028 873f e1fd 1628 560a 1cac
000001a0: caa2 e5b5 e793 a02a 5ade 773f 24a2 dc3e
000001b0: 7b99 f23e e441 d23e 90a2 38ae eb47 a7bd
000001c0: 67c1 2e3f 28f8 163f 2158 2e3f a027 123f
000001d0: 9781 423f 6981 bdb6 d17c 053f 6fa8 ce3e
000001e0: 9ccd fc3e d1a6 e03e bbca cd3e 280d 8c3e
000001f0: faf9 063d a1b1 33b7 88fb 003f 640c 383e
00000200: b0ce d63d aab7 0d3f 6dcc 263f 682e 1ba9
00000210: f699 513f fb26 773e 10e6 c9ab 5743 193f
00000220: b0e9 883e a04f 62b9 2638 88bb eccf b139
00000230: b183 0e3f 4a71 0e3f a32e b33e e248 9ab8
00000240: 847d 873e 62ee 603f c8dc e5b7 6e87 893e
00000250: ae51 e63e d3e7 e53e 420f 963e 6f7e 883e
00000260: 96dd 9f38 d8a0 d73e f0c7 beba 9145 6a3e
00000270: 64d9 093f 5324 133d e6f5 143e d6a2 423f
00000280: f12c 073f 24df 073f c724 593f 3b37 263f
00000290: 26ee 893d 42f1 8332 11b0 323e 91e2 133e
000002a0: 8c8a 003f 4502 54b8 21ad d327 6036 383e
000002b0: 1dd0 843e 5099 303f 23dd b43e 81a9 c93e
000002c0: 155d de3e fd15 283f c89a b03e 1e58 983f
000002d0: 2b41 7eb8 f65a de3e 4be4 903e 5c8a 6f28
000002e0: 117e db3e cc82 a8ad f838 fa2f cff9 443f
000002f0: 0241 46af 20e3 ea3e 44a4 353f d5a4 d9be
00000300: 1da5 5239 0ed8 b6be 35f7 183e 818e 223f
00000310: 8b20 532c feef d13b d9b7 913e fb33 94af
00000320: c99f b63e 0468 802a 7a77 8f3e 6ea8 be3e
00000330: 0476 873f 5196 5b2a cb49 8ebe 3b3b 13b0
00000340: 7580 1fa9 064d 773f 67ac 583f 7e42 153e
00000350: e7a7 813d 68e9 c1b4 087e be2b 09aa 003f
00000360: 7b50 093f 194a aaa8 1092 843b 906f 263f
00000370: b0f1 a33e 8cf7 ea3e f3f3 113f ed21 ce3e
00000380: 5530 c13e 92c8 c13e 44f6 b23e 7c76 033d
00000390: 2a95 5abe 41c8 0bb6 1f24 e93e e429 053f
000003a0: 19fd 9a36 5633 17b7 745d d4be 999f f22b
000003b0: 243d 7cac f6e6 f63e ef19 4b3f a245 273f
000003c0: b74e 78ab dffc 1fbd f9a5 a0a5 1843 ce3e
000003d0: 8a69 413e 0df0 6abd de44 6e3c 56bc e13d
000003e0: 74b6 b63e acd3 8f39 e1a6 5f3e a173 bc3e
000003f0: fc7a e93c 03eb e43e 6db3 c93e 99bc d03e
0.37587872 0.22090696 3.7046175e-13 0.32674053 -8.049863e-12 0.5562255 0.38132557 0.49618125
0.82257503 0.5920542 0.6631075 0.6522795 3.4058092e-13 0.44029385 0.13921268 3.0822527e-08
0.16528642 0.3625819 0.254225 0.5034035 2.345064e-15 0.69039065 0.4713309 -0.22727801
0.96275103 0.6691004 1.0782812 0.26676905 0.25280768 -4.0213612e-16 0.972587 0.08827607
0.5339143 1.1146092 1.877262e-13 3.4619315e-08 0.5197366 0.17706986 0.53439903 0.648183
0.21158534 -0.35833117 0.72945344 0.64371586 0.003959502 0.48324424 0.10755185 -0.22421636
1.5782255e-13 0.0042112437 0.4522471 0.4968689 0.3479794 0.6103537 0.4397174 1.1490625e-09
5.2270575e-08 0.50855446 0.38320133 0.34241188 0.5025623 0.54548496 -7.329134e-15 -4.483744e-12
8.2214225e-16 0.50000864 0.3425683 0.53961897 0.20535128 0.44042748 0.25066006 0.20446675
0.27235448 2.6338767e-10 0.2569883 0.29307586 -0.00018520157 0.2710929 -9.298896e-10 0.39135316
-0.00019825446 -0.0007769026 0.45218036 0.00074317044 0.20724174 0.2598591 0.33244616 0.37071562
-7.7819554e-13 0.552635 0.3530712 0.33038133 6.684411e-14 0.40913236 0.6116985 0.60425043
-0.008246714 0.46610016 0.50399846 0.8531111 0.76054585 1.0559349 8.381724e-15 -2.217467e-12
-1.7109207e-06 2.8524337e-13 0.96823657 0.43092453 0.4738272 0.41065896 -4.198114e-11 -0.08168014
0.6826386 0.58972406 0.68103224 0.5709171 0.7597899 -5.6477043e-06 0.5214358 0.4036288
0.49375618 0.4387727 0.40193734 0.27353787 0.03295324 -1.0710589e-05 0.50383806 0.17973477
0.10488641 0.55358374 0.6515568 -3.4457165e-14 0.8187555 0.24135964 -1.4345764e-12 0.5986838
0.2674079 -0.00021582702 -0.004157084 0.00033914985 0.55669695 0.55641615 0.34996518 -7.356868e-05
0.26462948 0.87863743 -2.7401737e-05 0.26861137 0.44984192 0.4490343 0.29308516 0.2665896
7.6229844e-05 0.42114902 -0.0014555436 0.228781 0.53847337 0.035923313 0.14546928 0.7602972
0.5280295 0.5307486 0.8482174 0.64928025 0.06734876 1.5360119e-08 0.17449977 0.14441897
0.50211406 -5.0546852e-05 5.875197e-15 0.17989492 0.25940028 0.68983936 0.35324964 0.39387134
0.4343039 0.6565855 0.3449309 1.1901891 -6.061901e-05 0.43428773 0.28299174 1.3297167e-14
0.4286962 -1.9157474e-11 4.5515214e-10 0.7694368 -1.803109e-10 0.45876408 0.70953774 -0.4250857
0.0002008867 -0.35711712 0.14938052 0.63498694 3.0002968e-12 0.006406783 0.28460577 -2.6957978e-10
0.3566878 2.2809543e-13 0.2802084 0.37237877 1.058289 1.9503259e-13 -0.27790675 -5.356246e-10
-3.541651e-14 0.96601903 0.84638065 0.14576146 0.06330853 -3.6118877e-07 1.3535293e-12 0.50259453
0.5363843 -1.8905926e-14 0.0040457323 0.6501398 0.3202033 0.45891988 0.5701286 0.40260258
0.37732187 0.37848336 0.3495351 0.032095417 -0.21345964 -2.0829177e-06 0.4553537 0.52017045
4.619022e-06 -9.012254e-06 -0.4147755 1.7239431e-12 -3.5845294e-12 0.48223084 0.79336447 0.65340626
-8.821654e-13 -0.039059516 -2.7868043e-16 0.40285563 0.18887916 -0.057357837 0.014542786 0.1102225
0.35686076 0.00027432793 0.21841003 0.36806968 0.028501026 0.4471055 0.39394704 0.4076889

bias f4 [175]
00000000: 0000 0000 0000 0000 0000 0000 0000 0000
00000010: 0000 0000 0000 0000 0000 0000 0000 0000
00000020: 0000 0000 0000 0000 0000 0000 0000 0000
00000030: 0000 0000 0000 0000 0000 0000 0000 0000
00000040: 0000 0000 0000 0000 0000 0000 0000 0000
00000050: 0000 0000 0000 0000 0000 0000 0000 0000
00000060: 0000 0000 0000 0000 0000 0000 0000 0000
00000070: 0000 0000 0000 0000 0000 0000 0000 0000
00000080: 0000 0000 0000 0000 0000 0000 0000 0000
00000090: 0000 0000 0000 0000 0000 0000 0000 0000
000000a0: 0000 0000 0000 0000 0000 0000 0000 0000
000000b0: 0000 0000 0000 0000 0000 0000 0000 0000
000000c0: 0000 0000 0000 0000 0000 0000 0000 0000
000000d0: 0000 0000 0000 0000 0000 0000 0000 0000
000000e0: 0000 0000 0000 0000 0000 0000 0000 0000
000000f0: 0000 0000 0000 0000 0000 0000 0000 0000
00000100: 0000 0000 0000 0000 0000 0000 0000 0000
00000110: 0000 0000 0000 0000 0000 0000 0000 0000
00000120: 0000 0000 0000 0000 0000 0000 0000 0000
00000130: 0000 0000 0000 0000 0000 0000 0000 0000
00000140: 0000 0000 0000 0000 0000 0000 0000 0000
00000150: 0000 0000 0000 0000 0000 0000 0000 0000
00000160: 0000 0000 0000 0000 0000 0000 0000 0000
00000170: 0000 0000 0000 0000 0000 0000 0000 0000
00000180: 0000 0000 0000 0000 0000 0000 0000 0000
00000190: 0000 0000 0000 0000 0000 0000 0000 0000
000001a0: 0000 0000 0000 0000 0000 0000 0000 0000
000001b0: 0000 0000 0000 0000 0000 0000 0000 0000
000001c0: 0000 0000 0000 0000 0000 0000 0000 0000
000001d0: 0000 0000 0000 0000 0000 0000 0000 0000
000001e0: 0000 0000 0000 0000 0000 0000 0000 0000
000001f0: 0000 0000 0000 0000 0000 0000 0000 0000
00000200: 0000 0000 0000 0000 0000 0000 0000 0000
00000210: 0000 0000 0000 0000 0000 0000 0000 0000
00000220: 0000 0000 0000 0000 0000 0000 0000 0000
00000230: 0000 0000 0000 0000 0000 0000 0000 0000
00000240: 0000 0000 0000 0000 0000 0000 0000 0000
00000250: 0000 0000 0000 0000 0000 0000 0000 0000
00000260: 0000 0000 0000 0000 0000 0000 0000 0000
00000270: 0000 0000 0000 0000 0000 0000 0000 0000
00000280: 0000 0000 0000 0000 0000 0000 0000 0000
00000290: 0000 0000 0000 0000 0000 0000 0000 0000
000002a0: 0000 0000 0000 0000 0000 0000 0000 0000
000002b0: 0000 0000 0000 0000 0000 0000
0.0 0.0 0.0 0.0 0.0 0.0 0.0 0.0
0.0 0.0 0.0 0.0 0.0 0.0 0.0 0.0
0.0 0.0 0.0 0.0 0.0 0.0 0.0 0.0
0.0 0.0 0.0 0.0 0.0 0.0 0.0 0.0
0.0 0.0 0.0 0.0 0.0 0.0 0.0 0.0
0.0 0.0 0.0 0.0 0.0 0.0 0.0 0.0
0.0 0.0 0.0 0.0 0.0 0.0 0.0 0.0
0.0 0.0 0.0 0.0 0.0 0.0 0.0 0.0
0.0 0.0 0.0 0.0 0.0 0.0 0.0 0.0
0.0 0.0 0.0 0.0 0.0 0.0 0.0 0.0
0.0 0.0 0.0 0.0 0.0 0.0 0.0 0.0
0.0 0.0 0.0 0.0 0.0 0.0 0.0 0.0
0.0 0.0 0.0 0.0 0.0 0.0 0.0 0.0
0.0 0.0 0.0 0.0 0.0 0.0 0.0 0.0
0.0 0.0 0.0 0.0 0.0 0.0 0.0 0.0
0.0 0.0 0.0 0.0 0.0 0.0 0.0 0.0
0.0 0.0 0.0 0.0 0.0 0.0 0.0 0.0
0.0 0.0 0.0 0.0 0.0 0.0 0.0 0.0
0.0 0.0 0.0 0.0 0.0 0.0 0.0 0.0
0.0 0.0 0.0 0.0 0.0 0.0 0.0 0.0
0.0 0.0 0.0 0.0 0.0 0.0 0.0 0.0
0.0 0.0 0.0 0.0 0.0 0.0 0.0

_ei_mask f4 [175]
00000000: 0000 803f 0000 803f 0000 803f 0000 803f
00000010: 0000 803f 0000 803f 0000 803f 0000 803f
00000020: 0000 803f 0000 803f 0000 803f 0000 803f
00000030: 0000 803f 0000 803f 0000 803f 0000 803f
00000040: 0000 803f 0000 803f 0000 803f 0000 803f
00000050: 0000 803f 0000 803f 0000 803f 0000 803f
00000060: 0000 803f 0000 803f 0000 803f 0000 803f
00000070: 0000 803f 0000 803f 0000 803f 0000 803f
00000080: 0000 803f 0000 803f 0000 803f 0000 803f
00000090: 0000 803f 0000 803f 0000 803f 0000 803f
000000a0: 0000 803f 0000 803f 0000 803f 0000 803f
000000b0: 0000 803f 0000 803f 0000 803f 0000 803f
000000c0: 0000 803f 0000 803f 0000 803f 0000 803f
000000d0: 0000 803f 0000 803f 0000 803f 0000 803f
000000e0: 0000 803f 0000 803f 0000 803f 0000 803f
000000f0: 0000 803f 0000 803f 0000 803f 0000 803f
00000100: 0000 803f 0000 803f 0000 803f 0000 803f
00000110: 0000 803f 0000 803f 0000 803f 0000 803f
00000120: 0000 803f 0000 803f 0000 803f 0000 803f
00000130: 0000 803f 0000 803f 0000 803f 0000 803f
00000140: 0000 803f 0000 803f 0000 803f 0000 803f
00000150: 0000 803f 0000 803f 0000 803f 0000 803f
00000160: 0000 803f 0000 803f 0000 803f 0000 803f
00000170: 0000 803f 0000 803f 0000 803f 0000 803f
00000180: 0000 803f 0000 803f 0000 803f 0000 803f
00000190: 0000 803f 0000 803f 0000 803f 0000 803f
000001a0: 0000 803f 0000 803f 0000 803f 0000 803f
000001b0: 0000 803f 0000 803f 0000 803f 0000 803f
000001c0: 0000 803f 0000 803f 0000 803f 0000 803f
000001d0: 0000 803f 0000 803f 0000 803f 0000 803f
000001e0: 0000 803f 0000 803f 0000 803f 0000 803f
000001f0: 0000 803f 0000 803f 0000 803f 0000 803f
00000200: 0000 803f 0000 803f 0000 803f 0000 803f
00000210: 0000 803f 0000 803f 0000 803f 0000 803f
00000220: 0000 803f 0000 803f 0000 803f 0000 803f
00000230: 0000 803f 0000 803f 0000 803f 0000 803f
00000240: 0000 803f 0000 803f 0000 803f 0000 803f
00000250: 0000 803f 0000 803f 0000 803f 0000 803f
00000260: 0000 803f 0000 803f 0000 803f 0000 803f
00000270: 0000 803f 0000 803f 0000 803f 0000 803f
00000280: 0000 803f 0000 803f 0000 803f 0000 803f
00000290: 0000 803f 0000 803f 0000 803f 0000 803f
000002a0: 0000 803f 0000 803f 0000 803f 0000 803f
000002b0: 0000 803f 0000 803f 0000 803f
1.0 1.0 1.0 1.0 1.0 1.0 1.0 1.0
1.0 1.0 1.0 1.0 1.0 1.0 1.0 1.0
1.0 1.0 1.0 1.0 1.0 1.0 1.0 1.0
1.0 1.0 1.0 1.0 1.0 1.0 1.0 1.0
1.0 1.0 1.0 1.0 1.0 1.0 1.0 1.0
1.0 1.0 1.0 1.0 1.0 1.0 1.0 1.0
1.0 1.0 1.0 1.0 1.0 1.0 1.0 1.0
1.0 1.0 1.0 1.0 1.0 1.0 1.0 1.0
1.0 1.0 1.0 1.0 1.0 1.0 1.0 1.0
1.0 1.0 1.0 1.0 1.0 1.0 1.0 1.0
1.0 1.0 1.0 1.0 1.0 1.0 1.0 1.0
1.0 1.0 1.0 1.0 1.0 1.0 1.0 1.0
1.0 1.0 1.0 1.0 1.0 1.0 1.0 1.0
1.0 1.0 1.0 1.0 1.0 1.0 1.0 1.0
1.0 1.0 1.0 1.0 1.0 1.0 1.0 1.0
1.0 1.0 1.0 1.0 1.0 1.0 1.0 1.0
1.0 1.0 1.0 1.0 1.0 1.0 1.0 1.0
1.0 1.0 1.0 1.0 1.0 1.0 1.0 1.0
1.0 1.0 1.0 1.0 1.0 1.0 1.0 1.0
1.0 1.0 1.0 1.0 1.0 1.0 1.0 1.0
1.0 1.0 1.0 1.0 1.0 1.0 1.0 1.0
1.0 1.0 1.0 1.0 1.0 1.0 1.0

weight f4 [2, 175]
00000000: e551 da3e 9214 00be cf63 653d 2da6 f43c
00000010: f035 b83e 28e8 293d 40e8 88bc bdc9 923e
00000020: 0007 2d3e 87fa 153e cd0e bfbe 8f9e 2ebe
00000030: bd7c e1bd 3266 953d 5791 b23d bd5a f43d
00000040: 3c2b 363e 4d9f bbbc 84ff 2a3e 5aba 923d
00000050: 0efd ed3d 8e35 bcbe 68dc a8bd 8b75 59bb
00000060: 3899 633f 673d 3c3d 358b 97be 51b8 02be
00000070: 6574 f4bd 173e 123e 70e3 af3e a352 5f3d
00000080: 9d59 b83d fc29 4f3d a6ba 06bb a056 223e
00000090: 0deb 27be 46ee 42bd e774 cf3d 9368 9e3d
000000a0: 2b4c f93e 3794 8fbd 844c 1b3e b904 b7be
000000b0: ba3c 06bb 867b 0d3c 8ec1 9dbd 0ea9 5ebe
000000c0: 72d5 983d f3a2 d63e 4524 b13e 973b a53e
000000d0: 120d 573e 976e 70be 7505 813b 330c 4cbf
000000e0: 4957 2c3d de6f f4bd 45ae 993e 77fe f73e
000000f0: ff56 ee3d c12f 3f3e 0d9a 703e 3636 dfbd
00000100: d119 43be fb6d 123e 1649 c13d 424d 7abe
00000110: b41b 0abe 0c1f a9bc 3e6d 69bd 158b 3e3d
00000120: 6044 133d 407a 87be 6bb2 6e3d bf43 34be
00000130: 2613 2dbe 08c8 9f3c 980b 0bbe 93d5 cf3c
00000140: 1669 903d 756a 183e 4f0f 23be 2d66 58bc
00000150: e503 e5bd 5328 803d 5105 1bbe 3af4 6cbe
00000160: 7dcb a9be 01ba b43c ddf5 513e 2911 3a3e
00000170: 8ea8 8f3d ee2d d93c 5b25 533e 1474 d03c
00000180: afb4 fabd 2a05 823d dcf0 093e 6381 20bc
00000190: 038c abbd 1151 9cbe 7427 4a3e cf81 0c3d
000001a0: 4f70 823d e581 a63d 71dc b9be ddba 653d
000001b0: 1ee2 7dbe 0944 ca3d d234 74be 50ca 08bd
000001c0: 8d31 43bd c154 a23d 7318 bcbe 26fb 6a3e
000001d0: 4c56 e4bd d261 d3be 9014 cf3e fbc3 6b3d
000001e0: 4906 c1bc b028 fe3d e534 1ebd 2798 95bd
000001f0: 8d0f 1cbe 6080 063e 45cc f4bc 338d cabd
00000200: b28b d43c 0813 cdbe bf4c 88bd 5021 53be
00000210: a734 f6bd 03b8 d3ba 0db8 153c b94a f5bc
00000220: 168c a33e ba00 813e fbf8 f13d cdee 34bc
00000230: 3760 6a3e da06 293e d4a4 473f bb22 643e
00000240: 6edb f63c a7fe 09be a84c 4d3e 9665 02bf
00000250: 642c b73e 3184 2bbd 5b2f 723d 5738 d8bc
00000260: 753f b13c e589 14be 1058 513e a1ed 8d3e
00000270: 82c6 b9bd f49e 2f3e 71ee e6bc 6c22 19bf
00000280: ec73 92bc a0fc fbbd eb20 863e 17a5 2fbd
00000290: 8d37 b03d defb bebd 305a d4bd 4d09 d73d
000002a0: ec67 e8be 8826 f63d 2176 ffbd 18ba 523d
000002b0: b0ea 803d e257 aabe c454 28bb 39dd e9be
000002c0: 6db9 073e 0bf0 34be ebb3 aabd 64c5 1bbf
000002d0: e271 6e3e 264d 5bbd 10a8 46be 0f78 b2bd
000002e0: 338e 29be f217 ef3e ba76 233d c267 913e
000002f0: ca69 4ebe 25fd b7be a78b 04be 7958 afbe
00000300: de3b e23d 4599 c2be 52de b23c d9d6 06bd
00000310: 852c 063f b102 ea3c 93e1 0d3e ec67 50bf
00000320: 4727 0fbe 53fd 12bf 605b ce3e 64a5 3e3e
00000330: e555 883e 514c 22bb fd7c 3cbd 229c 743d
00000340: d1d6 cabe fe8c a2bd 9e4d 7cbe ddb8 923e
00000350: 385d 843e 5bed 0bbe f836 2d3e 2c83 f8be
00000360: d9a3 4e3c e180 1dbe eb0f cf3e ffb3 b2be
00000370: 04f5 0cbd acad 473e 0a18 a63e acbe 54be
00000380: 9af0 05bf 3723 2abf 277f 20bf 122b 01be
00000390: 59bb 4a3e ba7f df3d c409 523e 1666 3e3e
000003a0: a34e 963b 393f 00be 4bf1 10bf e0a7 b9bd
000003b0: 4b52 34be 1474 48be d0d5 f23e 4f82 243e
000003c0: defb 963d 78e4 ae3d f559 e1bb e53c 2fbe
000003d0: 776e 5ebd b24e 773e 86f5 693c c2e3 2a3d
000003e0: a51b d03d 7b89 873d 8a65 243e 6e62 fa3d
000003f0: 25c9 783d e3e9 1ebe c007 cdbd 43ff 6d3d
0.42640606 -0.12507847 0.056003388 0.029864395 0.3597865 0.041481167 -0.016712308 0.2866954
0.16897202 0.1464635 -0.3731598 -0.17052673 -0.1101012 0.07294883 0.087191276 0.119313695
0.1778993 -0.022903109 0.16699034 0.0716445 0.11620532 -0.3675961 -0.08245164 -0.0033181633
0.8890567 0.045956995 -0.29598394 -0.12765624 -0.11936263 0.14281498 0.3435321 0.054522168
0.090014674 0.05057715 -0.0020558028 0.15853357 -0.16398259 -0.047590517 0.10129719 0.0773479
0.48690924 -0.070106916 0.15165907 -0.3574579 -0.0020482973 0.008635407 -0.07702933 -0.21744177
0.074625865 0.41921195 0.34597984 0.32272026 0.2100108 -0.23479687 0.003937418 -0.79706115
0.04207543 -0.119353995 0.3001577 0.4843633 0.11637687 0.1867056 0.23496266 -0.10899012
-0.19052817 0.14299767 0.09437768 -0.24443534 -0.1348713 -0.020644687 -0.056988947 0.046519358
0.03595388 -0.26460457 0.05827562 -0.17603968 -0.16901836 0.019504562 -0.13578641 0.025370395
0.070512936 0.1488436 -0.15923809 -0.013207954 -0.111823834 0.06257691 -0.15138747 -0.2314004
-0.33163062 0.02206135 0.20503946 0.18170609 0.07014571 0.026511159 0.20619719 0.025445975
-0.12241494 0.06348641 0.13470787 -0.009796473 -0.083763145 -0.305306 0.19741613 0.034303483
0.063690774 0.08130244 -0.36300996 0.05608641 -0.24793288 0.09876258 -0.23848274 -0.033396065
-0.047654677 0.07926322 -0.36737403 0.22947368 -0.11149272 -0.41285568 0.40445375 0.05755995
-0.023562567 0.12410104 -0.038624663 -0.073044114 -0.15240307 0.13134909 -0.02988256 -0.09890213
0.025945518 -0.40053582 -0.06655263 -0.20618176 -0.120217614 -0.0016152862 0.009138119 -0.029942857
0.31942815 0.25195867 0.118150674 -0.011043263 0.22888266 0.1650652 0.7798588 0.22278874
0.03013393 -0.13476048 0.20048773 -0.5093626 0.35776055 -0.041874114 0.059127193 -0.026394052
0.021636704 -0.14505728 0.2044375 0.2772036 -0.090710655 0.1715048 -0.02818987 -0.5981815
-0.017877541 -0.12304044 0.2619699 -0.04288205 0.086043455 -0.093253836 -0.103687644 0.10499821
-0.45391786 0.12019068 -0.12473703 0.051447004 0.06294763 -0.33270174 -0.002568529 -0.45676592
0.13254328 -0.17669694 -0.08335098 -0.6084807 0.2328563 -0.05354037 -0.19400048 -0.087143056
-0.16558151 0.46697956 0.03990815 0.28399473 -0.20157543 -0.3593532 -0.12943898 -0.34247187
0.11046575 -0.3800756 0.021834526 -0.03291974 0.5241168 0.028565736 0.13855581 -0.8140857
-0.13979827 -0.5741779 0.4030409 0.18617779 0.26628032 -0.0024764726 -0.046017636 0.059719212
-0.39617017 -0.079370484 -0.24638984 0.28656664 0.2585237 -0.13664763 0.169155 -0.48537576
0.0126123065 -0.15381195 0.40441832 -0.3490295 -0.034413353 0.19499844 0.32440215 -0.2077586
-0.52320254 -0.66459984 -0.6269402 -0.12614086 0.1979803 0.10913034 0.20511538 0.1859363
0.004587011 -0.12524118 -0.56618184 -0.09065223 -0.17609517 -0.1957553 0.4742875 0.16065334
0.073722586 0.08539671 -0.006877179 -0.17113073 -0.054304566 0.24151114 0.014279729 0.041721113
0.10161523 0.06618019 0.16054359 0.12225805 0.0607387 -0.15518908 -0.10011244 0.058104765

bias f4 [175]
00000000: 0000 0000 0000 0000 0000 0000 0000 0000
00000010: 0000 0000 0000 0000 0000 0000 0000 0000
00000020: 0000 0000 0000 0000 0000 0000 0000 0000
00000030: 0000 0000 0000 0000 0000 0000 0000 0000
00000040: 0000 0000 0000 0000 0000 0000 0000 0000
00000050: 0000 0000 0000 0000 0000 0000 0000 0000
00000060: 0000 0000 0000 0000 0000 0000 0000 0000
00000070: 0000 0000 0000 0000 0000 0000 0000 0000
00000080: 0000 0000 0000 0000 0000 0000 0000 0000
00000090: 0000 0000 0000 0000 0000 0000 0000 0000
000000a0: 0000 0000 0000 0000 0000 0000 0000 0000
000000b0: 0000 0000 0000 0000 0000 0000 0000 0000
000000c0: 0000 0000 0000 0000 0000 0000 0000 0000
000000d0: 0000 0000 0000 0000 0000 0000 0000 0000
000000e0: 0000 0000 0000 0000 0000 0000 0000 0000
000000f0: 0000 0000 0000 0000 0000 0000 0000 0000
00000100: 0000 0000 0000 0000 0000 0000 0000 0000
00000110: 0000 0000 0000 0000 0000 0000 0000 0000
00000120: 0000 0000 0000 0000 0000 0000 0000 0000
00000130: 0000 0000 0000 0000 0000 0000 0000 0000
00000140: 0000 0000 0000 0000 0000 0000 0000 0000
00000150: 0000 0000 0000 0000 0000 0000 0000 0000
00000160: 0000 0000 0000 0000 0000 0000 0000 0000
00000170: 0000 0000 0000 0000 0000 0000 0000 0000
00000180: 0000 0000 0000 0000 0000 0000 0000 0000
00000190: 0000 0000 0000 0000 0000 0000 0000 0000
000001a0: 0000 0000 0000 0000 0000 0000 0000 0000
000001b0: 0000 0000 0000 0000 0000 0000 0000 0000
000001c0: 0000 0000 0000 0000 0000 0000 0000 0000
000001d0: 0000 0000 0000 0000 0000 0000 0000 0000
000001e0: 0000 0000 0000 0000 0000 0000 0000 0000
000001f0: 0000 0000 0000 0000 0000 0000 0000 0000
00000200: 0000 0000 0000 0000 0000 0000 0000 0000
00000210: 0000 0000 0000 0000 0000 0000 0000 0000
00000220: 0000 0000 0000 0000 0000 0000 0000 0000
00000230: 0000 0000 0000 0000 0000 0000 0000 0000
00000240: 0000 0000 0000 0000 0000 0000 0000 0000
00000250: 0000 0000 0000 0000 0000 0000 0000 0000
00000260: 0000 0000 0000 0000 0000 0000 0000 0000
00000270: 0000 0000 0000 0000 0000 0000 0000 0000
00000280: 0000 0000 0000 0000 0000 0000 0000 0000
00000290: 0000 0000 0000 0000 0000 0000 0000 0000
000002a0: 0000 0000 0000 0000 0000 0000 0000 0000
000002b0: 0000 0000 0000 0000 0000 0000
0.0 0.0 0.0 0.0 0.0 0.0 0.0 0.0
0.0 0.0 0.0 0.0 0.0 0.0 0.0 0.0
0.0 0.0 0.0 0.0 0.0 0.0 0.0 0.0
0.0 0.0 0.0 0.0 0.0 0.0 0.0 0.0
0.0 0.0 0.0 0.0 0.0 0.0 0.0 0.0
0.0 0.0 0.0 0.0 0.0 0.0 0.0 0.0
0.0 0.0 0.0 0.0 0.0 0.0 0.0 0.0
0.0 0.0 0.0 0.0 0.0 0.0 0.0 0.0
0.0 0.0 0.0 0.0 0.0 0.0 0.0 0.0
0.0 0.0 0.0 0.0 0.0 0.0 0.0 0.0
0.0 0.0 0.0 0.0 0.0 0.0 0.0 0.0
0.0 0.0 0.0 0.0 0.0 0.0 0.0 0.0
0.0 0.0 0.0 0.0 0.0 0.0 0.0 0.0
0.0 0.0 0.0 0.0 0.0 0.0 0.0 0.0
0.0 0.0 0.0 0.0 0.0 0.0 0.0 0.0
0.0 0.0 0.0 0.0 0.0 0.0 0.0 0.0
0.0 0.0 0.0 0.0 0.0 0.0 0.0 0.0
0.0 0.0 0.0 0.0 0.0 0.0 0.0 0.0
0.0 0.0 0.0 0.0 0.0 0.0 0.0 0.0
0.0 0.0 0.0 0.0 0.0 0.0 0.0 0.0
0.0 0.0 0.0 0.0 0.0 0.0 0.0 0.0
0.0 0.0 0.0 0.0 0.0 0.0 0.0

_ei_mask f4 [175]
00000000: 0000 803f 0000 803f 0000 803f 0000 803f
00000010: 0000 803f 0000 803f 0000 803f 0000 803f
00000020: 0000 803f 0000 803f 0000 803f 0000 803f
00000030: 0000 803f 0000 803f 0000 803f 0000 803f
00000040: 0000 803f 0000 803f 0000 803f 0000 803f
00000050: 0000 803f 0000 803f 0000 803f 0000 803f
00000060: 0000 803f 0000 803f 0000 803f 0000 803f
00000070: 0000 803f 0000 803f 0000 803f 0000 803f
00000080: 0000 803f 0000 803f 0000 803f 0000 803f
00000090: 0000 803f 0000 803f 0000 803f 0000 803f
000000a0: 0000 803f 0000 803f 0000 803f 0000 803f
000000b0: 0000 803f 0000 803f 0000 803f 0000 803f
000000c0: 0000 803f 0000 803f 0000 803f 0000 803f
000000d0: 0000 803f 0000 803f 0000 803f 0000 803f
000000e0: 0000 803f 0000 803f 0000 803f 0000 803f
000000f0: 0000 803f 0000 803f 0000 803f 0000 803f
00000100: 0000 803f 0000 803f 0000 803f 0000 803f
00000110: 0000 803f 0000 803f 0000 803f 0000 803f
00000120: 0000 803f 0000 803f 0000 803f 0000 803f
00000130: 0000 803f 0000 803f 0000 803f 0000 803f
00000140: 0000 803f 0000 803f 0000 803f 0000 803f
00000150: 0000 803f 0000 803f 0000 803f 0000 803f
00000160: 0000 803f 0000 803f 0000 803f 0000 803f
00000170: 0000 803f 0000 803f 0000 803f 0000 803f
00000180: 0000 803f 0000 803f 0000 803f 0000 803f
00000190: 0000 803f 0000 803f 0000 803f 0000 803f
000001a0: 0000 803f 0000 803f 0000 803f 0000 803f
000001b0: 0000 803f 0000 803f 0000 803f 0000 803f
000001c0: 0000 803f 0000 803f 0000 803f 0000 803f
000001d0: 0000 803f 0000 803f 0000 803f 0000 803f
000001e0: 0000 803f 0000 803f 0000 803f 0000 803f
000001f0: 0000 803f 0000 803f 0000 803f 0000 803f
00000200: 0000 803f 0000 803f 0000 803f 0000 803f
00000210: 0000 803f 0000 803f 0000 803f 0000 803f
00000220: 0000 803f 0000 803f 0000 803f 0000 803f
00000230: 0000 803f 0000 803f 0000 803f 0000 803f
00000240: 0000 803f 0000 803f 0000 803f 0000 803f
00000250: 0000 803f 0000 803f 0000 803f 0000 803f
00000260: 0000 803f 0000 803f 0000 803f 0000 803f
00000270: 0000 803f 0000 803f 0000 803f 0000 803f
00000280: 0000 803f 0000 803f 0000 803f 0000 803f
00000290: 0000 803f 0000 803f 0000 803f 0000 803f
000002a0: 0000 803f 0000 803f 0000 803f 0000 803f
000002b0: 0000 803f 0000 803f 0000 803f
1.0 1.0 1.0 1.0 1.0 1.0 1.0 1.0
1.0 1.0 1.0 1.0 1.0 1.0 1.0 1.0
1.0 1.0 1.0 1.0 1.0 1.0 1.0 1.0
1.0 1.0 1.0 1.0 1.0 1.0 1.0 1.0
1.0 1.0 1.0 1.0 1.0 1.0 1.0 1.0
1.0 1.0 1.0 1.0 1.0 1.0 1.0 1.0
1.0 1.0 1.0 1.0 1.0 1.0 1.0 1.0
1.0 1.0 1.0 1.0 1.0 1.0 1.0 1.0
1.0 1.0 1.0 1.0 1.0 1.0 1.0 1.0
1.0 1.0 1.0 1.0 1.0 1.0 1.0 1.0
1.0 1.0 1.0 1.0 1.0 1.0 1.0 1.0
1.0 1.0 1.0 1.0 1.0 1.0 1.0 1.0
1.0 1.0 1.0 1.0 1.0 1.0 1.0 1.0
1.0 1.0 1.0 1.0 1.0 1.0 1.0 1.0
1.0 1.0 1.0 1.0 1.0 1.0 1.0 1.0
1.0 1.0 1.0 1.0 1.0 1.0 1.0 1.0
1.0 1.0 1.0 1.0 1.0 1.0 1.0 1.0
1.0 1.0 1.0 1.0 1.0 1.0 1.0 1.0
1.0 1.0 1.0 1.0 1.0 1.0 1.0 1.0
1.0 1.0 1.0 1.0 1.0 1.0 1.0 1.0
1.0 1.0 1.0 1.0 1.0 1.0 1.0 1.0
1.0 1.0 1.0 1.0 1.0 1.0 1.0

weight f4 [403, 3]
00000000: 6907 03c0 560c 303f 1a87 9e3f f65f f0bf
00000010: e889 91be 277b ed3f cc34 c4bf 1d5e 5abf
00000020: e0cd fd3f 4cc7 9ebf 13d2 84bf 23d0 0140
00000030: c3a6 21bf 340e 76bf 46ac 0740 b17a 143f
00000040: cf34 c9be c0f6 0a40 a3d4 c33e a7a0 e3be
00000050: 7c0f e63f 9fb7 b6be bcb6 56bf 80fc fa3f
00000060: 5e26 94bd 9779 95bf 4aa0 0540 9b0c 0340
00000070: 6e62 12bf a7c3 c73f d833 0e40 fd6d 1bbd
00000080: 41a8 f63f 385b 593f 135e fcbd 107e 843f
00000090: 91c2 133f 1bb5 4cbe 862f ac3f 7c0d 2e3f
000000a0: 7a8c 99be 1c22 ae3f 9a07 3a3e a96a a7bb
000000b0: fa93 d83f e947 e4be a26f 5fbf be6e 0540
000000c0: 1d16 803f 065e 51be dfbb d73f 7b6c 453f
000000d0: 6c3d c6be eb4d f13f 7b59 423f 0a47 d9be
000000e0: 72e9 e53f 6021 843f 3df2 0dbf d76f 8c3f
000000f0: 1604 983f d13f e6be ac38 cc3f 0564 5b3f
00000100: 24eb 97be acad 1140 540a debe fe69 85bf
00000110: 795e 1340 b6e1 aabe ffe8 84bf 8a57 1740
00000120: 14a3 76be e437 8ebf d80b 0f40 6e5b b53e
00000130: 4b22 96bf 6f2f 1840 e4fa 9b3f 7201 8abf
00000140: 4b92 0640 6ba8 883f 0a3b bebf 60b7 1a40
00000150: d7b8 ec3f caf9 bbbf 8194 0b40 84f7 e83f
00000160: c169 aebf 1307 f53f 0074 bc3f 4804 aebf
00000170: 4532 f53f e65e 9d3f 6207 88bf dea9 0140
00000180: dbbb b03f 825a 80bf 1a77 983f edc0 6b3f
00000190: 97cb fcbe 87be a93f c96d 043f 9ea2 84bf
000001a0: b1a8 0240 c35b 723f ce4c 23bf f308 ef3f
000001b0: 0528 e83f eb76 8bbf bad6 0540 d612 f53f
000001c0: 514c dabf 88cc 1b40 6efe f13f 346a e6bf
000001d0: d8bd 3840 509a 0940 5713 85bf ffb2 2340
000001e0: 969e d53f d149 aabf 1fe1 2140 91fa 1040
000001f0: c692 b3bf 6ef2 1c40 528c 1f40 a45a e7bf
00000200: dd3e 3340 7f7e 1440 0cc8 d8bf f1c6 3f40
00000210: 65b6 1040 29ee b3bf 9826 2740 8928 d53f
00000220: abf4 b8bf f934 1840 4d0e cf3f 9fbc acbf
00000230: f4a3 0440 a5d0 823f 4bb1 8dbf 240c e23f
00000240: 6f62 423f a58f 98bf 3da6 0b40 bc61 903f
00000250: b61a f2bf f3a3 3a40 41a8 6d3f 36b9 04c0
00000260: 2c21 5540 231d 313f 18a3 e0bf 4c32 5c40
00000270: 3702 b03f bc44 c5bf 9419 3740 e234 693f
00000280: 200e f5bf ec31 1a40 5b61 683f dfb4 f0bf
00000290: 952b e53f 4735 6d3f 5455 adbf dfa3 f03f
000002a0: dbde 613f 8289 bebf bee7 f83f c39a 2b3f
000002b0: 8d96 54bf 93ec ce3f 39c5 323f 9b51 35bf
000002c0: 71a8 7b3f d3a1 4c3f 0ccd 63bf 4bb9 943f
000002d0: 2b01 0a3f d370 17bf e147 903f f897 773f
000002e0: f3b6 a7bf 2344 c33f 28d0 3b3f 10b2 7dbf
000002f0: 9cd4 d93f 7051 dc3e 7c89 82bf 60dd c43f
00000300: 04f8 123f 6fdd 7fbf ba82 cf3f e15e 5e3f
00000310: 12e9 bcbf 0db4 c83f e6b1 5c3f 09cb cabf
00000320: 1026 c73f ad05 123f 5adc d5bf e993 eb3f
00000330: 71c6 533f a2d3 99bf 8b1b fd3f 7c28 b73f
00000340: 697b a1bf 8d1e e83f 1235 d23f 9f36 b8bf
00000350: 8c01 db3f 6e09 b13f 0112 bdbf 885c ba3f
00000360: 1965 bb3f c44c d2bf 5042 bd3f c5f3 513c
00000370: fc43 d4bf a12f 1340 061d 5d3f 548e d1bf
00000380: 9df7 2c40 42de ea3f d123 d7bf 5b4f 1140
00000390: 80c4 be3f 06fb c6bf d18d 2540 1800 ad3f
000003a0: 4fa3 d4bf 8039 2640 27d4 b13f 746c acbf
000003b0: d145 2640 e431 0d40 f05f d4bf 9ea1 2640
000003c0: 0d83 1940 f0f4 0cc0 54de 1e40 cb04 0240
000003d0: 34e3 00c0 7fbc 3440 6474 0440 6c1a f5bf
000003e0: 7167 1e40 f8e3 f43f bf44 bfbf 9f57 2240
000003f0: f3c3 fb3f 9620 95bf c67f 4a40 38b1 0e40
-2.0473273 0.68768823 1.238498 -1.8779285 -0.28425527 1.8553208 -1.5328612 -0.85299855
1.9828453 -1.240457 -1.037661 2.0283287 -0.63145083 -0.9611542 2.1198897 0.5799971
-0.39298102 2.1713104 0.38248166 -0.44458506 1.7973475 -0.35686967 -0.8387258 1.9608307
-0.072338805 -1.1677731 2.0879083 2.0476444 -0.5718144 1.5606583 2.2219143 -0.03794669
1.9270097 0.84904814 -0.12322631 1.0350971 0.5771876 -0.19990961 1.3452003 0.67989326
-0.29989988 1.3604159 0.18166962 -0.0051091504 1.6920159 -0.44586113 -0.87279713 2.0848842
1.0006748 -0.20446023 1.6854209 0.77118653 -0.38718736 1.8851904 0.75917786 -0.4243701
1.7961867 1.0322685 -0.5544775 1.0971631 1.1876247 -0.44970563 1.5954795 0.8569949
-0.29671586 2.276225 -0.43367255 -1.0422971 2.3026412 -0.3337533 -1.0383605 2.364718
-0.24085647 -1.1110806 2.235098 0.35421318 -1.1729215 2.377895 1.2185941 -1.0781691
2.102679 1.0676397 -1.4861767 2.4174423 1.8493909 -1.4685605 2.180939 1.8200536
-1.3626024 1.9142784 1.47229 -1.3595057 1.9155966 1.2294586 -1.0627253 2.0259929
1.3807329 -1.0027621 1.1911347 0.92091256 -0.49374077 1.3261269 0.5173002 -1.0362127
2.041546 0.9467127 -0.6378907 1.8674606 1.8137213 -1.0895666 2.0912309 1.9146373
-1.705454 2.4343586 1.8905771 -1.8001161 2.8865871 2.1500435 -1.0396527 2.5578
1.6689022 -1.3303777 2.5293653 2.2652934 -1.4029167 2.4522967 2.4929395 -1.8074536
2.8007119 2.3202207 -1.693605 2.9965174 2.2611325 -1.4057056 2.6117306 1.6652995
-1.4449667 2.3782332 1.6176239 -1.3495063 2.072507 1.0219923 -1.106973 1.7659955
0.7593145 -1.1918837 2.1820214 1.1279826 -1.8914402 2.9162567 0.9283486 -2.0738044
3.3301497 0.69185084 -1.7549772 3.4405699 1.3750676 -1.5411601 2.8609362 0.9109632
-1.9144936 2.409297 0.9077355 -1.8805197 1.7903925 0.9265942 -1.3541665 1.880001
0.88230675 -1.4885714 1.9445722 0.6703302 -0.8304222 1.6165947 0.6983219 -0.70827645
0.98303896 0.79934424 -0.8898475 1.1619047 0.5390803 -0.5915653 1.1271936 0.9671626
-1.3102707 1.5255169 0.73364496 -0.99099827 1.7018008 0.43030882 -1.0198207 1.5380058
0.5740969 -0.99947256 1.621177 0.86863524 -1.4758627 1.5679947 0.8620895 -1.5843211
1.5558491 0.5703991 -1.6707871 1.8404514 0.8272467 -1.201771 1.977403 1.430923
-1.2615787 1.8134323 1.6422446 -1.4391669 1.7109847 1.3831003 -1.4771119 1.4559488
1.4640228 -1.6429677 1.4785862 0.012814467 -1.6583247 2.299782 0.8637241 -1.637156
2.702613 1.8349078 -1.6807805 2.2704685 1.4903717 -1.5545356 2.5867808 1.3515654
-1.6612338 2.5972595 1.3892869 -1.3470597 2.5980113 2.20617 -1.6591778 2.6036143
2.3986237 -2.2024498 2.4823198 2.0315425 -2.0138674 2.824005 2.069604 -1.9148688
2.4750636 1.913207 -1.4942855 2.536598 1.9669174 -1.165057 3.1640487 2.2295666

bias f4 [3]
00000000: 0000 0000 0000 0000 0000 0000
0.0 0.0 0.0

_ei_mask f4 [3]
00000000: 0000 803f 0000 803f 0000 803f
1.0 1.0 1.0

rmat f4 [1, 1, 3]
00000000: 0000 80bf 0000 0040 0000 80bf
-1.0 2.0 -1.0

weight f4 [3, 175]
00000000: d818 fa3d 916c 9abe 0ac6 52be d03a 6abe
00000010: caca 0b3d 68d2 a7be ed5c 973e 22ed 033e
00000020: 5a41 283e 7c81 6a3e ab18 103f 9884 073e
00000030: 02b1 e43e 53f7 a53e dd93 9fbf 6f29 89bd
00000040: 8cab acbf dff5 d73e de77 9dbf 3b87 d9bd
00000050: a6fd edbe 45de 8d3e 7768 a9ba aa86 833f
00000060: ca49 cd3e 2ddf 4cbd 95ea 973d 8bd8 a23c
00000070: cf9b 34be 7460 5cbc 36c8 7e3e 375a 00bf
00000080: 29e2 d93e fef1 403e 5337 27be 7ee5 76be
00000090: 6206 67be bfec a13d cded 083e 1a49 a4bd
000000a0: 90fe 753e 9c9f 143e 86d1 873d d3c9 0040
000000b0: a562 febc 21f5 21be fa18 b33e 5abf f33f
000000c0: 6c12 3fbe 7d7a a5bc 928d 1540 0021 1940
000000d0: e0b2 6abd afb0 2e3f 6534 1abe aa95 e53e
000000e0: ab7c c73c 317b 943e 43d0 97be db8e ccbe
000000f0: 86e6 39be 9727 e7be 9a95 2bbe 5cb5 2fbe
00000100: 4272 c1bd aff9 9e3e ea67 4d3e 70af a73d
00000110: 4d02 28be 4d4f 92bd 0566 22bf 2b1d 3b3e
00000120: 0fc6 ef3d c563 193e 0e33 a93c 22b9 083f
00000130: f1a9 903e c599 e23d 22ba fabd d025 9c3e
00000140: 742a 9e3b 317d 1ebe 98c7 f6be 2ecf 833e
00000150: c6dc 21be 4aad 903d 4965 c43d 8c24 3d3e
00000160: 2de3 883d b820 5a3d bc48 463e 9643 b73e
00000170: 8d57 d137 50b9 a33d e741 133d 6e24 a1bd
00000180: 8145 d7bd 79dc 3e3f fc6e 573e b2b5 c5bc
00000190: 3c43 38bd c7f8 693a dbfc babc a84b a43c
000001a0: 9038 dfbc e17f a73c c674 9f3e 2e19 91bd
000001b0: 4aa8 6b3f e890 4cbe ab54 b13e 6131 60be
000001c0: ac52 e4be 8a1d 833e ea59 c83e 181b 0b3e
000001d0: 5075 1d3e 1cf2 693d 82c4 70be ca9c 8f3d
000001e0: c210 abbd 0f70 bb3e 2a36 bb3e 9872 c53e
000001f0: a556 7bbe 983b f7bd 93f5 263e f3be cebd
00000200: 3636 6d3e 99e4 dd3d fb01 263e 6fc1 753d
00000210: 1aaa 2f3e bd60 b0be 1c64 f2bc efd7 753c
00000220: 4be5 b43d 5287 5e3d 3510 ccbd 4278 adbd
00000230: 991e 6a3e efd2 57be 8e6f 243d 109b 9b3e
00000240: 137d da3e 40e6 553d e562 10be 821d 3cbf
00000250: d16b 9abe 12cf 673e ad72 d2be d5ec 9c3e
00000260: 44e5 3a3e 4699 2f3e 6607 97be 70df bebe
00000270: ef2c 7fbe baed 7abe 8660 c0be 130c 253e
00000280: a2a2 913e 940e ffbd 24c9 41bd 97b5 853e
00000290: 1030 9f3d 0791 35bc a354 15be a6a8 003e
000002a0: 02c8 743f e802 0d3d a04d 1b3c 5eb1 453e
000002b0: fa1f f43d 9eb7 6a3e 6b87 87be 22d3 b4be
000002c0: 8d5e 1abd 721e 593e 5c69 2d3d 389e 30bb
000002d0: dbfb c1be 531b 34be 6b01 a3bd 7c6a 03be
000002e0: feae a0be a944 73bd c053 c33d 68dd 933f
000002f0: f989 043e 4fb7 433f d216 80be 2183 123f
00000300: 80d0 25be 50b7 503f 1388 38be ff13 b8be
00000310: efda a4bd 5177 9bbe 09d6 03be ad4e 0fbe
00000320: 266b bdbe 02b2 4b3e e2b6 0f3f c259 673e
00000330: 8b15 163d 0194 463e ac58 6ebe a94c dd3e
00000340: 68d8 613e 19ce dbbe 0462 c4bd 4e04 4fbf
00000350: 6474 0cbe 5e92 25be 26d5 96bd 95bb 40be
00000360: 4107 1cbf 6d11 6dbe d260 0640 29ef e0be
00000370: edc3 9b3f ae19 88be 6098 9fbf 9e79 3ebe
00000380: a7f4 74bd 2de1 2540 8f21 2b40 c619 3abf
00000390: b175 7abd 4f9e 21bf e404 203e d276 bbbd
000003a0: b965 9fbe 48a4 a23e 6281 88bf cb66 f3bd
000003b0: 17a5 f73e b6dd aebe 7a51 dd3e d7a4 9dbb
000003c0: b9dd ff3e eea5 393f 1ce3 113d 59e5 9b3e
000003d0: 0cdd b0be e3fc ffbe e51b fe3d 0ff2 82bd
000003e0: abc9 e8bd 7079 88bd 5f15 a3be 7020 073f
000003f0: dd45 1cbd ea31 cfbe 64f7 babe bd1f 50be
0.1221177 -0.30160955 -0.20583358 -0.22873998 0.03412894 -0.32777715 0.29563084 0.12883428
0.1643118 0.22900957 0.5628764 0.13234174 0.44666296 0.32415256 -1.2466999 -0.06697356
-1.3489852 0.42179772 -1.2302206 -0.10621496 -0.4648258 0.2770864 -0.001292481 1.0275471
0.4009536 -0.050017525 0.0741779 0.019878646 -0.17637561 -0.013450731 0.24881062 -0.50137657
0.4255536 0.18842313 -0.16329698 -0.24110982 -0.22561029 0.07906484 0.13371964 -0.080217555
0.24022889 0.14514011 0.0663176 2.0123184 -0.031052897 -0.15816166 0.34979993 1.9042771
-0.18659371 -0.020200009 2.3367658 2.3926392 -0.057299495 0.6823835 -0.1505905 0.44840747
0.024351439 0.29000238 -0.2965108 -0.3995274 -0.18154344 -0.45147392 -0.16756287 -0.17159027
-0.09445621 0.31049868 0.20059171 0.08187759 -0.16407128 -0.07144032 -0.6343692 0.18272845
0.117076986 0.14979465 0.020654228 0.5340749 0.28254655 0.110644855 -0.12242533 0.304976
0.004826838 -0.15477444 -0.48199153 0.25744003 -0.15806875 0.07064302 0.09589631 0.18470973
0.06683955 0.05325386 0.19363683 0.3579375 2.495551e-05 0.0799433 0.03595152 -0.078682765
-0.10511304 0.74555165 0.21038431 -0.02413449 -0.044985995 0.00089253153 -0.022825649 0.020055607
-0.02724865 0.02044672 0.3114378 -0.07084881 0.92053664 -0.19977152 0.3463491 -0.21893837
-0.44594324 0.25608474 0.391311 0.13584554 0.15376782 0.05711566 -0.23512462 0.07012327
-0.08352806 0.3660893 0.3656476 0.3856399 -0.24544771 -0.120719135 0.16304617 -0.100950144
0.23165211 0.10834617 0.16211693 0.059998926 0.17154732 -0.34448805 -0.029588751 0.015005096
0.08832797 0.05432827 -0.09964029 -0.08470203 0.22863235 -0.21076559 0.04014545 0.3039174
0.4267355 0.052221537 -0.14100225 -0.73482525 -0.30160382 0.22637585 -0.41103116 0.30649439
0.1825152 0.17148313 -0.29497832 -0.37279844 -0.24919485 -0.24504748 -0.37573642 0.16117887
0.2844439 -0.124539524 -0.047310963 0.26115105 0.07772839 -0.0110819405 -0.14583068 0.12564334
0.9561769 0.0344266 0.009478956 0.19305941 0.119201615 0.22921607 -0.26470503 -0.35317332
-0.037687827 0.2120302 0.042336807 -0.0026949774 -0.37887463 -0.17588548 -0.07959255 -0.1283359
-0.31383508 -0.05939165 0.095374584 1.1551943 0.12943257 0.7645158 -0.2501741 0.57231337
-0.16192818 0.8152971 -0.18020658 -0.35952756 -0.08049571 -0.3036447 -0.12874617 -0.13994856
-0.3699581 0.19892123 0.5613843 0.22592834 0.03664164 0.19392397 -0.23276013 0.4322255
0.22055209 -0.42930678 -0.095890075 -0.80865943 -0.13716274 -0.16169116 -0.073648736 -0.18821557
-0.6094857 -0.23151179 2.0996594 -0.43932465 1.2169167 -0.26582092 -1.2468376 -0.18601081
-0.05980363 2.5918686 2.6739233 -0.7269558 -0.061147396 -0.63132185 0.15626866 -0.091535226
-0.31132296 0.31765962 -1.0664485 -0.118848406 0.4836814 -0.34153527 0.43226224 -0.00481091
0.49973848 0.72518814 0.03561698 0.30448416 -0.34543645 -0.49997625 0.12407664 -0.06393825
-0.1136659 -0.06663787 -0.31852242 0.5278387 -0.038152564 -0.4046777 -0.3651687 -0.20324607

bias f4 [175]
00000000: 0000 0000 0000 0000 0000 0000 0000 0000
00000010: 0000 0000 0000 0000 0000 0000 0000 0000
00000020: 0000 0000 0000 0000 0000 0000 0000 0000
00000030: 0000 0000 0000 0000 0000 0000 0000 0000
00000040: 0000 0000 0000 0000 0000 0000 0000 0000
00000050: 0000 0000 0000 0000 0000 0000 0000 0000
00000060: 0000 0000 0000 0000 0000 0000 0000 0000
00000070: 0000 0000 0000 0000 0000 0000 0000 0000
00000080: 0000 0000 0000 0000 0000 0000 0000 0000
00000090: 0000 0000 0000 0000 0000 0000 0000 0000
000000a0: 0000 0000 0000 0000 0000 0000 0000 0000
000000b0: 0000 0000 0000 0000 0000 0000 0000 0000
000000c0: 0000 0000 0000 0000 0000 0000 0000 0000
000000d0: 0000 0000 0000 0000 0000 0000 0000 0000
000000e0: 0000 0000 0000 0000 0000 0000 0000 0000
000000f0: 0000 0000 0000 0000 0000 0000 0000 0000
00000100: 0000 0000 0000 0000 0000 0000 0000 0000
00000110: 0000 0000 0000 0000 0000 0000 0000 0000
00000120: 0000 0000 0000 0000 0000 0000 0000 0000
00000130: 0000 0000 0000 0000 0000 0000 0000 0000
00000140: 0000 0000 0000 0000 0000 0000 0000 0000
00000150: 0000 0000 0000 0000 0000 0000 0000 0000
00000160: 0000 0000 0000 0000 0000 0000 0000 0000
00000170: 0000 0000 0000 0000 0000 0000 0000 0000
00000180: 0000 0000 0000 0000 0000 0000 0000 0000
00000190: 0000 0000 0000 0000 0000 0000 0000 0000
000001a0: 0000 0000 0000 0000 0000 0000 0000 0000
000001b0: 0000 0000 0000 0000 0000 0000 0000 0000
000001c0: 0000 0000 0000 0000 0000 0000 0000 0000
000001d0: 0000 0000 0000 0000 0000 0000 0000 0000
000001e0: 0000 0000 0000 0000 0000 0000 0000 0000
000001f0: 0000 0000 0000 0000 0000 0000 0000 0000
00000200: 0000 0000 0000 0000 0000 0000 0000 0000
00000210: 0000 0000 0000 0000 0000 0000 0000 0000
00000220: 0000 0000 0000 0000 0000 0000 0000 0000
00000230: 0000 0000 0000 0000 0000 0000 0000 0000
00000240: 0000 0000 0000 0000 0000 0000 0000 0000
00000250: 0000 0000 0000 0000 0000 0000 0000 0000
00000260: 0000 0000 0000 0000 0000 0000 0000 0000
00000270: 0000 0000 0000 0000 0000 0000 0000 0000
00000280: 0000 0000 0000 0000 0000 0000 0000 0000
00000290: 0000 0000 0000 0000 0000 0000 0000 0000
000002a0: 0000 0000 0000 0000 0000 0000 0000 0000
000002b0: 0000 0000 0000 0000 0000 0000
0.0 0.0 0.0 0.0 0.0 0.0 0.0 0.0
0.0 0.0 0.0 0.0 0.0 0.0 0.0 0.0
0.0 0.0 0.0 0.0 0.0 0.0 0.0 0.0
0.0 0.0 0.0 0.0 0.0 0.0 0.0 0.0
0.0 0.0 0.0 0.0 0.0 0.0 0.0 0.0
0.0 0.0 0.0 0.0 0.0 0.0 0.0 0.0
0.0 0.0 0.0 0.0 0.0 0.0 0.0 0.0
0.0 0.0 0.0 0.0 0.0 0.0 0.0 0.0
0.0 0.0 0.0 0.0 0.0 0.0 0.0 0.0
0.0 0.0 0.0 0.0 0.0 0.0 0.0 0.0
0.0 0.0 0.0 0.0 0.0 0.0 0.0 0.0
0.0 0.0 0.0 0.0 0.0 0.0 0.0 0.0
0.0 0.0 0.0 0.0 0.0 0.0 0.0 0.0
0.0 0.0 0.0 0.0 0.0 0.0 0.0 0.0
0.0 0.0 0.0 0.0 0.0 0.0 0.0 0.0
0.0 0.0 0.0 0.0 0.0 0.0 0.0 0.0
0.0 0.0 0.0 0.0 0.0 0.0 0.0 0.0
0.0 0.0 0.0 0.0 0.0 0.0 0.0 0.0
0.0 0.0 0.0 0.0 0.0 0.0 0.0 0.0
0.0 0.0 0.0 0.0 0.0 0.0 0.0 0.0
0.0 0.0 0.0 0.0 0.0 0.0 0.0 0.0
0.0 0.0 0.0 0.0 0.0 0.0 0.0

_ei_mask f4 [175]
00000000: 0000 803f 0000 803f 0000 803f 0000 803f
00000010: 0000 803f 0000 803f 0000 803f 0000 803f
00000020: 0000 803f 0000 803f 0000 803f 0000 803f
00000030: 0000 803f 0000 803f 0000 803f 0000 803f
00000040: 0000 803f 0000 803f 0000 803f 0000 803f
00000050: 0000 803f 0000 803f 0000 803f 0000 803f
00000060: 0000 803f 0000 803f 0000 803f 0000 803f
00000070: 0000 803f 0000 803f 0000 803f 0000 803f
00000080: 0000 803f 0000 803f 0000 803f 0000 803f
00000090: 0000 803f 0000 803f 0000 803f 0000 803f
000000a0: 0000 803f 0000 803f 0000 803f 0000 803f
000000b0: 0000 803f 0000 803f 0000 803f 0000 803f
000000c0: 0000 803f 0000 803f 0000 803f 0000 803f
000000d0: 0000 803f 0000 803f 0000 803f 0000 803f
000000e0: 0000 803f 0000 803f 0000 803f 0000 803f
000000f0: 0000 803f 0000 803f 0000 803f 0000 803f
00000100: 0000 803f 0000 803f 0000 803f 0000 803f
00000110: 0000 803f 0000 803f 0000 803f 0000 803f
00000120: 0000 803f 0000 803f 0000 803f 0000 803f
00000130: 0000 803f 0000 803f 0000 803f 0000 803f
00000140: 0000 803f 0000 803f 0000 803f 0000 803f
00000150: 0000 803f 0000 803f 0000 803f 0000 803f
00000160: 0000 803f 0000 803f 0000 803f 0000 803f
00000170: 0000 803f 0000 803f 0000 803f 0000 803f
00000180: 0000 803f 0000 803f 0000 803f 0000 803f
00000190: 0000 803f 0000 803f 0000 803f 0000 803f
000001a0: 0000 803f 0000 803f 0000 803f 0000 803f
000001b0: 0000 803f 0000 803f 0000 803f 0000 803f
000001c0: 0000 803f 0000 803f 0000 803f 0000 803f
000001d0: 0000 803f 0000 803f 0000 803f 0000 803f
000001e0: 0000 803f 0000 803f 0000 803f 0000 803f
000001f0: 0000 803f 0000 803f 0000 803f 0000 803f
00000200: 0000 803f 0000 803f 0000 803f 0000 803f
00000210: 0000 803f 0000 803f 0000 803f 0000 803f
00000220: 0000 803f 0000 803f 0000 803f 0000 803f
00000230: 0000 803f 0000 803f 0000 803f 0000 803f
00000240: 0000 803f 0000 803f 0000 803f 0000 803f
00000250: 0000 803f 0000 803f 0000 803f 0000 803f
00000260: 0000 803f 0000 803f 0000 803f 0000 803f
00000270: 0000 803f 0000 803f 0000 803f 0000 803f
00000280: 0000 803f 0000 803f 0000 803f 0000 803f
00000290: 0000 803f 0000 803f 0000 803f 0000 803f
000002a0: 0000 803f 0000 803f 0000 803f 0000 803f
000002b0: 0000 803f 0000 803f 0000 803f
1.0 1.0 1.0 1.0 1.0 1.0 1.0 1.0
1.0 1.0 1.0 1.0 1.0 1.0 1.0 1.0
1.0 1.0 1.0 1.0 1.0 1.0 1.0 1.0
1.0 1.0 1.0 1.0 1.0 1.0 1.0 1.0
1.0 1.0 1.0 1.0 1.0 1.0 1.0 1.0
1.0 1.0 1.0 1.0 1.0 1.0 1.0 1.0
1.0 1.0 1.0 1.0 1.0 1.0 1.0 1.0
1.0 1.0 1.0 1.0 1.0 1.0 1.0 1.0
1.0 1.0 1.0 1.0 1.0 1.0 1.0 1.0
1.0 1.0 1.0 1.0 1.0 1.0 1.0 1.0
1.0 1.0 1.0 1.0 1.0 1.0 1.0 1.0
1.0 1.0 1.0 1.0 1.0 1.0 1.0 1.0
1.0 1.0 1.0 1.0 1.0 1.0 1.0 1.0
1.0 1.0 1.0 1.0 1.0 1.0 1.0 1.0
1.0 1.0 1.0 1.0 1.0 1.0 1.0 1.0
1.0 1.0 1.0 1.0 1.0 1.0 1.0 1.0
1.0 1.0 1.0 1.0 1.0 1.0 1.0 1.0
1.0 1.0 1.0 1.0 1.0 1.0 1.0 1.0
1.0 1.0 1.0 1.0 1.0 1.0 1.0 1.0
1.0 1.0 1.0 1.0 1.0 1.0 1.0 1.0
1.0 1.0 1.0 1.0 1.0 1.0 1.0 1.0
1.0 1.0 1.0 1.0 1.0 1.0 1.0
