checkpoints/version128/model.pt (torch, 41468 bytes, 19 tensors)

bias f4 [175]
1.176172 2.2835279 -0.62433326 1.3078587 0.03363765 1.9116375 1.9619418 2.6049619
1.6148232 3.0080745 1.3457576 1.5405133 0.1549819 -0.11211859 0.022085546 2.191215
-0.05059262 -0.06323788 -0.033295106 2.7835605 0.29462302 1.4478623 1.5654514 -0.4016703
-1.7974513 3.4288654 0.97961664 1.4151857 1.0250045 2.5952315 0.51245815 0.03976314
1.2079531 0.07056285 0.62490964 3.7347658 0.7028213 1.092279 1.8080285 1.4330995
2.1811383 1.5304117 0.19755308 0.38674477 1.5969607 -0.19576743 0.47863308 0.17875284
0.32007912 0.2983999 0.552549 0.50893176 1.0457611 0.21937828 0.23711221 1.2944893
-0.37572756 0.6935055 0.16506144 -0.36620536 -0.08233831 0.054402385 0.7204933 0.70596653
0.07322078 0.33173627 -0.005290684 0.35413522 0.6536703 1.6385264 -0.34023672 1.1898345
1.3381654 0.87786937 1.1474148 0.9912238 1.3436654 1.5210295 1.5221992 2.1571205
1.3290526 1.952906 0.98631966 2.6475315 1.3656546 1.2414049 2.9590795 3.430328
1.4907129 1.042792 1.0551752 -0.41356632 3.4488804 -0.04826546 0.96016246 0.37307718
3.5217113 0.41070488 -0.72352415 0.1277314 2.3158438 0.9293586 1.4818529 1.8384211
0.9793627 2.1692727 1.5017606 1.5071826 1.5706391 2.0076387 1.0221453 -0.30279556
0.08599486 2.2551754 1.188863 2.2859688 0.15488262 2.2690187 1.8481114 2.0943997
2.589356 1.7294072 2.0814342 2.284281 2.654623 1.3617069 0.15848835 -0.06947042
0.855483 1.4127622 0.28304803 0.19358234 -0.061305627 2.0018814 1.4166145 0.066943854
-0.05363269 1.4104266 0.54355687 0.9783248 0.6401503 0.40210265 1.1450542 0.34340328
-0.10120825 1.5867575 1.3274585 1.2594433 0.6470741 -0.10875219 0.2596411 -0.09427074
1.681649 0.9605918 3.0897007 2.0529141 1.1294178 3.415652 0.29712042 0.32707095
0.8765504 -0.9688467 0.56282085 1.169546 1.5583237 2.7859383 0.85231614 1.3423984
0.9176098 1.8664771 2.0267165 1.5550025 1.1774375 0.43609557 0.31509435
00000000: ce8c 963f 5225 1240 4ed4 1fbf ea67 a73f
00000010: a2c7 093d 8ab0 f43f e920 fb3f b2b7 2640
00000020: 87b2 ce3f 4b84 4040 c941 ac3f 8a2f c53f
00000030: 93b3 1e3e 6e9e e5bd bfec b43c de3c 0c40
00000040: 353a 4fbd dd82 81bd 7360 08bd db25 3240
00000050: d4d8 963e 8d53 b93f b660 c83f bba7 cdbe
00000060: e212 e6bf 8872 5b40 28c8 7a3f ce24 b53f
00000070: 5933 833f 4618 2640 7530 033f adde 223d
00000080: 359e 9a3f 4183 903d 14fa 1f3f 6706 6f40
00000090: 19ec 333f cccf 8b3f 7a6d e73f ce6f b73f
000000a0: c597 0b40 88e4 c33f 5b4b 4a3e 6903 c63e
000000b0: 3569 cc3f 4277 48be 650f f53e fc0a 373e
000000c0: 69e1 a33e dfc7 983e da73 0d3f 5a49 023f
000000d0: 80db 853f b3a4 603e 8bcd 723e d3b1 a53f
000000e0: 5d5f c0be 9489 313f de05 293e 457f bbbe
000000f0: fda0 a8bd 09d5 5e3d 4072 383f 39ba 343f
00000100: c7f4 953d 56d9 a93e 795d adbb 3651 b53e
00000110: f056 273f 3cbb d13f 8233 aebe 7f4c 983f
00000120: 0149 ab3f 0cbc 603f 7dde 923f d8c0 7d3f
00000130: 3afd ab3f 18b1 c23f 6cd7 c23f 430e 0a40
00000140: 651e aa3f d3f8 f93f 727f 7c3f 2871 2940
00000150: c5cd ae3f 5be6 9e3f 8f61 3d40 7e8a 5b40
00000160: aecf be3f 357a 853f fb0f 873f f7be d3be
00000170: 75ba 5c40 01b2 45bd 35cd 753f f903 bf3e
00000180: b863 6140 e947 d23e e138 39bf 05cc 023e
00000190: c936 1440 72ea 6d3f 5bad bd3f 6251 eb3f
000001a0: 84b7 7a3f 5dd5 0a40 b139 c03f 5ceb c03f
000001b0: b40a c93f 277d 0040 a8d5 823f 0508 9bbe
000001c0: 131e b03d cb54 1040 aa2c 983f 504d 1240
000001d0: 8d99 1e3e 9a37 1140 ea8e ec3f a50a 0640
000001e0: 02b8 2540 375d dd3f 3836 0540 a931 1240
000001f0: 58e5 2940 694c ae3f c54a 223e 8246 8ebd
00000200: ef00 5b3f 64d5 b43f aceb 903e 733a 463e
00000210: 9c1b 7bbd d31e 0040 a053 b53f dc19 893d
00000220: f4ad 5bbd dc88 b43f 8b26 0b3f 7e73 7a3f
00000230: e4e0 233f 66e0 cd3e 2391 923f 8ed2 af3e
00000240: 4546 cfbd df1a cb3f 29ea a93f 7035 a13f
00000250: a6a6 253f 78b9 debd aeef 843e 0511 c1bd
00000260: 4640 d73f 58e9 753f a8bd 4540 f262 0340
00000270: c390 903f 0b9a 5a40 2b20 983e d875 a73e
00000280: 9b65 603f 5606 78bf 0715 103f afb3 953f
00000290: 2777 c73f d04c 3240 6431 5a3f b6d3 ab3f
000002a0: 7ae8 6a3f b9e8 ee3f b9b5 0140 520a c73f
000002b0: 46b6 963f eb47 df3e 0c54 a13e

weight f4 [9, 175]
0.34810987 0.4844271 -1.1070822e-06 0.42126498 4.250051e-06 0.74705637 0.4932728 0.76778316
0.9812695 0.73263985 0.77309054 0.7351318 -1.6098343e-07 0.5008552 0.22197448 -0.0024768126
0.27101496 0.4041892 0.30903828 0.7765473 6.317423e-08 0.8327443 0.6114875 -0.34938708
1.1628395 0.8506797 1.290789 0.57343554 0.50049764 -1.2842396e-08 1.124193 0.33651868
0.6726674 1.336935 -6.361605e-07 0.01948583 0.5664624 0.3502635 0.6475338 0.8057484
0.45373344 -0.4519555 0.8249345 0.60620254 0.040393524 0.54695064 3.5351382e-05 -0.0435637
2.3541938e-07 0.01366513 0.4947184 0.52927166 0.32451776 0.67830664 0.4361143 0.004134878
8.79507e-05 0.597264 0.45437953 0.4156316 0.5758938 0.5955434 -7.210641e-10 -7.694578e-08
-1.2962436e-09 0.6130333 0.49528816 0.7195723 0.22738245 0.5607416 0.3796109 0.43270156
0.4949505 -0.009276893 0.42612678 0.27309984 0.109588884 0.46213138 0.0031668346 0.40883696
0.24650453 0.41191754 0.46844155 0.34540275 0.34520945 0.46219307 0.50990754 0.59157014
7.64116e-07 0.66649145 0.4932064 0.47372025 3.9148965e-08 0.4931962 0.69513476 0.7533884
0.6679129 0.53246546 0.62142223 1.0021526 0.9205539 1.2613662 -1.1508716e-07 -5.9170054e-07
0.012430747 -1.7403778e-07 1.1375403 0.60226697 0.60507447 0.7024673 -3.850893e-08 -0.00061613444
0.78690165 0.8032145 0.7893015 0.7695687 0.88619506 0.48702538 0.73020506 0.643763
0.7991926 0.57987946 0.57429504 0.49158648 0.7387107 0.13154118 0.5556973 0.05167621
0.28193104 0.65547967 0.83676094 2.1362132e-08 0.9366685 0.51679367 -5.883807e-07 0.6344213
0.32963338 0.3593309 0.37181652 0.34128025 0.65155035 0.6985565 0.40482154 0.25819358
0.34245053 1.0094825 0.28958192 0.40573648 0.47047672 0.54906154 0.37164965 0.33147797
0.4832589 0.4782099 0.5277387 0.4235159 0.61225456 0.5029782 0.265858 0.94764197
0.60737157 0.5852452 1.0653772 0.7914728 0.40410757 -0.008293615 0.2290042 0.4213964
0.56978196 0.28217915 7.170455e-08 0.46248016 0.49683678 0.82014966 0.41720766 0.47303867
0.70052683 0.73315465 0.6268651 1.3771584 0.36778992 0.61549157 0.57500273 -4.825874e-07
0.571905 1.943079e-05 -0.0033854358 0.8272325 2.8206136e-06 0.5751861 0.8576003 -0.5510802
0.15662351 -0.51640874 0.53763074 0.7508185 -1.8277697e-06 0.29685295 0.38885665 -0.0041674757
0.55181587 -1.9142017e-07 0.5147802 0.55216336 1.218881 3.179403e-08 -0.4141738 -2.2310157e-06
-1.9101694e-07 1.1368401 0.991026 0.2311103 0.40787935 -0.068368904 -2.746367e-07 0.61012965
0.65566224 -4.3008948e-09 0.07799072 0.8079874 0.34098458 0.536477 0.5857599 0.529925
0.46282396 0.3604089 0.3405003 0.3759531 -2.476647e-05 -0.00125862 0.5483095 0.6324905
-0.18639182 0.11373005 -0.5526192 1.266253e-06 2.3277673e-06 0.6122918 0.91947204 0.77233326
-8.093191e-07 -0.32976475 1.3519788e-10 0.4699434 0.3331851 -0.32710963 0.39435205 0.41419837
0.5126523 0.3115727 0.44414255 0.6190441 0.34391376 0.5883308 0.5429345 0.59912443
00000000: 753b b23e d406 f83e 0e97 94b5 0bb0 d73e
00000010: a99b 8e36 163f 3f3f 418e fc3e 708d 443f
00000020: 7a34 7b3f 498e 3b3f 43e9 453f 9931 3c3f
00000030: cada 2cb4 0c38 003f 474d 633e 0552 22bb
00000040: 79c2 8a3e e3f1 ce3e 443a 9e3e cecb 463f
00000050: 66aa 8733 bb2e 553f 728a 1c3f dde2 b2be
00000060: edd7 943f 25c6 593f 9338 a53f accc 123f
00000070: 9d20 003f 74a1 5cb2 8ee5 8f3f 2d4c ac3e
00000080: ee33 2c3f b020 ab3f 9ec4 2ab5 bfa0 9f3c
00000090: ae03 113f bd55 b33e c6c4 253f 8745 4e3f
000000a0: c04f e83e b666 e7be e82e 533f 1730 1b3f
000000b0: ae73 253d f504 0c3f 4246 1438 da6f 32bd
000000c0: 96c7 7c34 b6e3 5f3c bb4b fd3e 597e 073f
000000d0: 3127 a63e 81a5 2d3f 604a df3e df7d 873b
000000e0: 2c72 b838 4be6 183f 6fa4 e83e aacd d43e
000000f0: c76d 133f 8875 183f 6034 46b0 643d a5b3
00000100: 8427 b2b0 c0ef 1c3f 6996 fd3e e435 383f
00000110: f2d6 683e c38c 0f3f 5c5c c23e 0f8b dd3e
00000120: 276a fd3e 1cfe 17bc 4a2d da3e bed3 8b3e
00000130: 2370 e03d 7c9c ec3e ab8a 4f3b 1453 d13e
00000140: af6b 7c3e dbe6 d23e 92d7 ef3e a1d8 b03e
00000150: 4bbf b03e 92a4 ec3e 4d89 023f 2471 173f
00000160: a71d 4d35 2f9f 2a3f 8d85 fc3e 768b f23e
00000170: be24 2833 3684 fc3e 5af4 313f 10de 403f
00000180: 57fc 2a3f a84f 083f 8715 1f3f 8946 803f
00000190: 6ca9 6b3f 7374 a13f d625 f7b3 5ad5 1eb5
000001a0: 55aa 4b3c 24df 3ab4 ec9a 913f 2b2e 1a3f
000001b0: 29e6 1a3f e6d4 333f 0465 25b3 1584 21ba
000001c0: 6372 493f 779f 4d3f aa0f 4a3f 7402 453f
000001d0: aedd 623f 645b f93e b8ee 3a3f a7cd 243f
000001e0: e397 4c3f fb72 143f 0005 133f 39b1 fb3e
000001f0: 251c 3d3f bbb2 063e 2e42 0e3f 6faa 533d
00000200: 4459 903e 84cd 273f f735 563f d37f b732
00000210: 82c9 6f3f 974c 043f 37f1 1db5 6f69 223f
00000220: b5c5 a83e 38fa b73e bc5e be3e 49bc ae3e
00000230: 01cc 263f 99d4 323f c544 cf3e f331 843e
00000240: ad55 af3e b936 813f 1544 943e b1bc cf3e
00000250: 53e2 f03e 4c8f 0c3f dd48 be3e 7bb7 a93e
00000260: b66d f73e eed7 f43e e219 073f 13d7 d83e
00000270: b7bc 1c3f 2ec3 003f 8a1e 883e aa98 723f
00000280: b47c 1b3f a1d2 153f 485e 883f f69d 4a3f
00000290: 30e7 ce3e f1e1 07bc 1480 6a3e 45c1 d73e
000002a0: 3bdd 113f c979 903e fefb 9933 33ca ec3e
000002b0: 6461 fe3e 54f5 513f 3e9c d53e 2032 f23e
000002c0: ba55 333f 06b0 3b3f 3b7a 203f ba46 b03f
000002d0: f64e bc3e db90 1d3f 6133 133f 278b 01b5
000002e0: 5e68 123f 4eff a237 30de 5dbb 82c5 533f
000002f0: c649 3d36 653f 133f b18b 5b3f 9813 0dbf
00000300: ea61 203e 5d33 04bf 2ba2 093f a435 403f
00000310: b051 f5b5 1cfd 973e 3818 c73e 528f 88bb
00000320: ce43 0d3f 2d89 4db4 a3c8 033f 945a 0d3f
00000330: 4b04 9c3f e88d 0833 970e d4be 8fb8 15b6
00000340: 561a 4db4 fa83 913f e1b3 7d3f 2ea8 6c3e
00000350: 90d5 d03e ff04 8cbd c871 93b4 7531 1c3f
00000360: 7bd9 273f 12c7 93b1 99b9 9f3d 43d8 4e3f
00000370: 8895 ae3e 8f56 093f 5cf4 153f 2aa9 073f
00000380: 43f7 ec3e 8487 b83e 0e56 ae3e ed7c c03e
00000390: 97c1 cfb7 47f8 a4ba 035e 0c3f e6ea 213f
000003a0: 7fdd 3ebe 4deb e83d 7478 0dbf 1ff4 a935
000003b0: bd36 1c36 28bf 1c3f 8562 6b3f a2b7 453f
000003c0: fc3f 59b5 edd6 a8be d2a6 142f 6c9c f03e
000003d0: 3d97 aa3e ea7a a7be 83e8 c93e cf11 d43e
000003e0: 2e3d 033f 7586 9f3e a766 e33e ad79 1e3f
000003f0: 7715 b03e d99c 163f c1fd 0a3f 3860 193f

bias f4 [175]
0.0 0.0 0.0 0.0 0.0 0.0 0.0 0.0
0.0 0.0 0.0 0.0 0.0 0.0 0.0 0.0
0.0 0.0 0.0 0.0 0.0 0.0 0.0 0.0
0.0 0.0 0.0 0.0 0.0 0.0 0.0 0.0
0.0 0.0 0.0 0.0 0.0 0.0 0.0 0.0
0.0 0.0 0.0 0.0 0.0 0.0 0.0 0.0
0.0 0.0 0.0 0.0 0.0 0.0 0.0 0.0
0.0 0.0 0.0 0.0 0.0 0.0 0.0 0.0
0.0 0.0 0.0 0.0 0.0 0.0 0.0 0.0
0.0 0.0 0.0 0.0 0.0 0.0 0.0 0.0
0.0 0.0 0.0 0.0 0.0 0.0 0.0 0.0
0.0 0.0 0.0 0.0 0.0 0.0 0.0 0.0
0.0 0.0 0.0 0.0 0.0 0.0 0.0 0.0
0.0 0.0 0.0 0.0 0.0 0.0 0.0 0.0
0.0 0.0 0.0 0.0 0.0 0.0 0.0 0.0
0.0 0.0 0.0 0.0 0.0 0.0 0.0 0.0
0.0 0.0 0.0 0.0 0.0 0.0 0.0 0.0
0.0 0.0 0.0 0.0 0.0 0.0 0.0 0.0
0.0 0.0 0.0 0.0 0.0 0.0 0.0 0.0
0.0 0.0 0.0 0.0 0.0 0.0 0.0 0.0
0.0 0.0 0.0 0.0 0.0 0.0 0.0 0.0
0.0 0.0 0.0 0.0 0.0 0.0 0.0
00000000: 0000 0000 0000 0000 0000 0000 0000 0000
00000010: 0000 0000 0000 0000 0000 0000 0000 0000
00000020: 0000 0000 0000 0000 0000 0000 0000 0000
00000030: 0000 0000 0000 0000 0000 0000 0000 0000
00000040: 0000 0000 0000 0000 0000 0000 0000 0000
00000050: 0000 0000 0000 0000 0000 0000 0000 0000
00000060: 0000 0000 0000 0000 0000 0000 0000 0000
00000070: 0000 0000 0000 0000 0000 0000 0000 0000
00000080: 0000 0000 0000 0000 0000 0000 0000 0000
00000090: 0000 0000 0000 0000 0000 0000 0000 0000
000000a0: 0000 0000 0000 0000 0000 0000 0000 0000
000000b0: 0000 0000 0000 0000 0000 0000 0000 0000
000000c0: 0000 0000 0000 0000 0000 0000 0000 0000
000000d0: 0000 0000 0000 0000 0000 0000 0000 0000
000000e0: 0000 0000 0000 0000 0000 0000 0000 0000
000000f0: 0000 0000 0000 0000 0000 0000 0000 0000
00000100: 0000 0000 0000 0000 0000 0000 0000 0000
00000110: 0000 0000 0000 0000 0000 0000 0000 0000
00000120: 0000 0000 0000 0000 0000 0000 0000 0000
00000130: 0000 0000 0000 0000 0000 0000 0000 0000
00000140: 0000 0000 0000 0000 0000 0000 0000 0000
00000150: 0000 0000 0000 0000 0000 0000 0000 0000
00000160: 0000 0000 0000 0000 0000 0000 0000 0000
00000170: 0000 0000 0000 0000 0000 0000 0000 0000
00000180: 0000 0000 0000 0000 0000 0000 0000 0000
00000190: 0000 0000 0000 0000 0000 0000 0000 0000
000001a0: 0000 0000 0000 0000 0000 0000 0000 0000
000001b0: 0000 0000 0000 0000 0000 0000 0000 0000
000001c0: 0000 0000 0000 0000 0000 0000 0000 0000
000001d0: 0000 0000 0000 0000 0000 0000 0000 0000
000001e0: 0000 0000 0000 0000 0000 0000 0000 0000
000001f0: 0000 0000 0000 0000 0000 0000 0000 0000
00000200: 0000 0000 0000 0000 0000 0000 0000 0000
00000210: 0000 0000 0000 0000 0000 0000 0000 0000
00000220: 0000 0000 0000 0000 0000 0000 0000 0000
00000230: 0000 0000 0000 0000 0000 0000 0000 0000
00000240: 0000 0000 0000 0000 0000 0000 0000 0000
00000250: 0000 0000 0000 0000 0000 0000 0000 0000
00000260: 0000 0000 0000 0000 0000 0000 0000 0000
00000270: 0000 0000 0000 0000 0000 0000 0000 0000
00000280: 0000 0000 0000 0000 0000 0000 0000 0000
00000290: 0000 0000 0000 0000 0000 0000 0000 0000
000002a0: 0000 0000 0000 0000 0000 0000 0000 0000
000002b0: 0000 0000 0000 0000 0000 0000

_ei_mask f4 [175]
1.0 1.0 1.0 1.0 1.0 1.0 1.0 1.0
1.0 1.0 1.0 1.0 1.0 1.0 1.0 1.0
1.0 1.0 1.0 1.0 1.0 1.0 1.0 1.0
1.0 1.0 1.0 1.0 1.0 1.0 1.0 1.0
1.0 1.0 1.0 1.0 1.0 1.0 1.0 1.0
1.0 1.0 1.0 1.0 1.0 1.0 1.0 1.0
1.0 1.0 1.0 1.0 1.0 1.0 1.0 1.0
1.0 1.0 1.0 1.0 1.0 1.0 1.0 1.0
1.0 1.0 1.0 1.0 1.0 1.0 1.0 1.0
1.0 1.0 1.0 1.0 1.0 1.0 1.0 1.0
1.0 1.0 1.0 1.0 1.0 1.0 1.0 1.0
1.0 1.0 1.0 1.0 1.0 1.0 1.0 1.0
1.0 1.0 1.0 1.0 1.0 1.0 1.0 1.0
1.0 1.0 1.0 1.0 1.0 1.0 1.0 1.0
1.0 1.0 1.0 1.0 1.0 1.0 1.0 1.0
1.0 1.0 1.0 1.0 1.0 1.0 1.0 1.0
1.0 1.0 1.0 1.0 1.0 1.0 1.0 1.0
1.0 1.0 1.0 1.0 1.0 1.0 1.0 1.0
1.0 1.0 1.0 1.0 1.0 1.0 1.0 1.0
1.0 1.0 1.0 1.0 1.0 1.0 1.0 1.0
1.0 1.0 1.0 1.0 1.0 1.0 1.0 1.0
1.0 1.0 1.0 1.0 1.0 1.0 1.0
00000000: 0000 803f 0000 803f 0000 803f 0000 803f
00000010: 0000 803f 0000 803f 0000 803f 0000 803f
00000020: 0000 803f 0000 803f 0000 803f 0000 803f
00000030: 0000 803f 0000 803f 0000 803f 0000 803f
00000040: 0000 803f 0000 803f 0000 803f 0000 803f
00000050: 0000 803f 0000 803f 0000 803f 0000 803f
00000060: 0000 803f 0000 803f 0000 803f 0000 803f
00000070: 0000 803f 0000 803f 0000 803f 0000 803f
00000080: 0000 803f 0000 803f 0000 803f 0000 803f
00000090: 0000 803f 0000 803f 0000 803f 0000 803f
000000a0: 0000 803f 0000 803f 0000 803f 0000 803f
000000b0: 0000 803f 0000 803f 0000 803f 0000 803f
000000c0: 0000 803f 0000 803f 0000 803f 0000 803f
000000d0: 0000 803f 0000 803f 0000 803f 0000 803f
000000e0: 0000 803f 0000 803f 0000 803f 0000 803f
000000f0: 0000 803f 0000 803f 0000 803f 0000 803f
00000100: 0000 803f 0000 803f 0000 803f 0000 803f
00000110: 0000 803f 0000 803f 0000 803f 0000 803f
00000120: 0000 803f 0000 803f 0000 803f 0000 803f
00000130: 0000 803f 0000 803f 0000 803f 0000 803f
00000140: 0000 803f 0000 803f 0000 803f 0000 803f
00000150: 0000 803f 0000 803f 0000 803f 0000 803f
00000160: 0000 803f 0000 803f 0000 803f 0000 803f
00000170: 0000 803f 0000 803f 0000 803f 0000 803f
00000180: 0000 803f 0000 803f 0000 803f 0000 803f
00000190: 0000 803f 0000 803f 0000 803f 0000 803f
000001a0: 0000 803f 0000 803f 0000 803f 0000 803f
000001b0: 0000 803f 0000 803f 0000 803f 0000 803f
000001c0: 0000 803f 0000 803f 0000 803f 0000 803f
000001d0: 0000 803f 0000 803f 0000 803f 0000 803f
000001e0: 0000 803f 0000 803f 0000 803f 0000 803f
000001f0: 0000 803f 0000 803f 0000 803f 0000 803f
00000200: 0000 803f 0000 803f 0000 803f 0000 803f
00000210: 0000 803f 0000 803f 0000 803f 0000 803f
00000220: 0000 803f 0000 803f 0000 803f 0000 803f
00000230: 0000 803f 0000 803f 0000 803f 0000 803f
00000240: 0000 803f 0000 803f 0000 803f 0000 803f
00000250: 0000 803f 0000 803f 0000 803f 0000 803f
00000260: 0000 803f 0000 803f 0000 803f 0000 803f
00000270: 0000 803f 0000 803f 0000 803f 0000 803f
00000280: 0000 803f 0000 803f 0000 803f 0000 803f
00000290: 0000 803f 0000 803f 0000 803f 0000 803f
000002a0: 0000 803f 0000 803f 0000 803f 0000 803f
000002b0: 0000 803f 0000 803f 0000 803f

weight f4 [2, 175]
0.6057482 0.39343566 0.20061219 0.23917948 0.62810373 0.4871677 0.47185686 0.91220915
0.49385723 0.81057525 -0.06763666 0.29898232 0.053952374 0.22923587 0.16230269 0.5729159
0.25020573 0.05649954 0.231319 0.70344305 0.17323318 -0.0543352 0.22503349 0.16246414
1.7382462 0.8250224 0.20158394 0.13860239 0.16061825 0.6794194 0.6807263 0.36443448
0.37231144 0.54465234 0.16526966 0.7202147 -0.019476758 0.13986984 0.4989153 0.3607011
0.8424009 0.2649781 0.29934072 -0.4266273 0.3895114 0.06236359 0.07941401 0.07916471
0.14349528 0.59886986 0.35124543 0.32949075 0.37722242 0.033770677 0.07807732 -0.43668532
0.2140517 0.25460586 0.32972124 0.87958777 0.1833856 0.24016942 0.38378775 0.12828897
0.0007214587 0.29149926 0.25690532 0.010829582 -0.08831684 0.2981505 0.039758425 0.27025846
0.2916781 0.022731522 0.2422147 0.075936235 0.06816704 0.22252889 0.1608096 0.3934829
0.35359293 0.56752783 0.1309513 0.514511 0.13862877 0.2802108 0.5282192 0.52819526
-0.09069781 0.3545913 0.46854106 0.43854615 0.5650726 0.23888622 0.38646898 0.22573724
0.5852489 0.14464109 0.4051977 0.2723572 0.3381025 0.08681195 0.45623752 0.3093475
0.15958208 0.33201897 0.11553424 0.4218378 -0.051337797 0.5578787 -0.0887353 0.23512919
0.1261429 0.6031146 -0.1105568 0.6955428 0.14011449 -0.031630304 0.8016652 0.47007126
0.53322464 0.43875045 0.24835749 0.34242117 0.5020067 0.36516863 0.06951971 0.001942174
0.22503714 -0.1417702 0.2599548 -0.032252744 0.16498773 0.35062864 0.2029984 0.09490636
0.43029293 0.46408436 0.27017465 0.20099445 0.4103964 0.3292676 1.0338011 0.45842004
0.09080188 0.17362939 0.43012592 -0.124363035 0.53858167 0.083099194 0.15889123 0.05566554
0.3671162 -0.03038769 0.7392755 0.6779906 0.101298146 0.7076256 0.25066346 -0.15243287
0.19444774 0.11013052 0.62237626 0.20791486 0.3273417 0.46460956 -0.05571704 0.36448234
-0.36531186 0.46912894 0.14904408 0.30228832 0.3361201 -0.21445477 0.11221286 -0.33268762
0.6606637 0.024348572 0.20907341 -0.34641188 0.62889117 0.37046668 0.41003722 0.15051505
0.32208008 0.6907636 0.48561615 0.4770588 -0.026648402 -0.24858287 0.2809204 -0.2407509
0.1900132 -0.27678904 0.6570702 0.04206813 0.74621487 0.26996273 0.21893762 -0.2946389
0.53881294 -0.11876284 0.7798449 0.5833173 0.783365 0.33833033 0.19566908 0.3251276
0.14038643 0.035727777 0.3560753 0.39004457 0.45003602 0.17555866 0.4404014 -0.22557819
0.1944956 -0.080020115 0.5147556 -0.05353074 0.23742658 0.31068242 0.39794794 -0.051181976
-0.36079833 -0.70454645 -0.6444428 -0.033777285 0.35958138 0.16241346 0.46745518 0.36033037
0.28365538 -0.0599078 -0.2870366 -0.04306465 -0.094459 -0.09391246 0.7465433 0.36609614
0.26893058 0.33729827 0.17393813 -0.09049421 0.20989817 0.34383696 0.24733266 0.2999555
0.32595095 0.24126142 0.3761153 0.44284904 0.2708659 0.07910423 0.17532496 0.31037438
00000000: 5012 1b3f 6670 c93e 486d 4d3e 77eb 743e
00000010: 68cb 203f 0b6e f93e 3997 f13e 8a86 693f
00000020: dbda fc3e dc81 4f3f 1785 8abd 3614 993e
00000030: 2afd 5c3d cfbc 6a3e ad32 263e 9eaa 123f
00000040: f71a 803e 106c 673d e3de 6c3e d814 343f
00000050: 0a64 313e 968e 5ebd 2e6f 663e 005d 263e
00000060: da7e de3f ab34 533f 056c 4e3e c9ed 0d3e
00000070: 1c79 243e 6eee 2d3f 1444 2e3f 2897 ba3e
00000080: 9b9f be3e 566e 0b3f 733c 293e fe5f 383f
00000090: b98d 9fbc 0a3a 0f3e d471 ff3e d1ad b83e
000000a0: 96a7 573f 36ab 873e 3043 993e e56e dabe
000000b0: 0a6e c73e f770 7f3d d0a3 a23d 1c21 a23d
000000c0: 6df0 123e 894f 193f 71d6 b33e 03b3 a83e
000000d0: 4c23 c13e 1f53 0a3d 00e7 9f3d 3895 dfbe
000000e0: 5e30 5b3e b35b 823e 39d1 a83e aa2c 613f
000000f0: 6fc9 3b3e f9ee 753e d47f c43e 2f5e 033e
00000100: 4620 3d3a 643f 953e 1889 833e 8f6e 313c
00000110: 76df b4bd 2fa7 983e bbd9 223d 515f 8a3e
00000120: d556 953e 7537 ba3c 2107 783e 7584 9b3d
00000130: 299b 8b3d 9dde 633e 46ab 243e 9776 c93e
00000140: 220a b53e 8149 113f 1918 063e feb6 033f
00000150: b3f4 0d3e ca77 8f3e 6039 073f ce37 073f
00000160: c6bf b9bd fe8c b53e 9de4 ef3e 1f89 e03e
00000170: 99a8 103f 979e 743e 43df c53e aa27 673e
00000180: dfd2 153f cb1c 143e 1376 cf3e 6772 8b3e
00000190: c51b ad3e 77ca b13d f797 e93e cc62 9e3e
000001a0: 7c69 233e 64fe a93e 379d ec3d 20fb d73e
000001b0: 9547 52bd 23d1 0e3f daba b5bd b5c5 703e
000001c0: 9b2b 013e b865 1a3f 9b6b e2bd 180f 323f
000001d0: 2c7a 0f3e c78e 01bd ee39 4d3f 2ead f03e
000001e0: 6981 083f e6a3 e03e 6d51 7e3e d451 af3e
000001f0: 8383 003f 62f7 ba3e 5a60 8e3d 8c90 fe3a
00000200: 2370 663e 352c 11be cc18 853e 741b 04bd
00000210: 8bf2 283e 9985 b33e d0de 4f3e 445e c23d
00000220: 5b4f dc3e 779c ed3e 5554 8a3e 7dd1 4d3e
00000230: 7a1f d23e c395 a83e 9853 843f 08b6 ea3e
00000240: 56f6 b93d e7cb 313e 7739 dc3e 0cb2 febd
00000250: 7de0 093f e92f aa3d 62b4 223e 8d01 643d
00000260: a8f6 bb3e 9bef f8bc 2941 3d3f cb90 2d3f
00000270: 6775 cf3d f426 353f f656 803e 5d17 1cbe
00000280: 4f1d 473e 1c8c e13d 0d54 1f3f a2e7 543e
00000290: 5599 a73e 4ee1 ed3e 8d37 64bd 6e9d ba3e
000002a0: 280a bbbe ab31 f03e 039f 183e 89c5 9a3e
000002b0: ef17 ac3e 089a 5bbe dbcf e53d 0856 aabe
000002c0: 4221 293f a876 c73c 5717 563e e65c b1be
000002d0: 03ff 203f cfad bd3e 66f0 d13e 9e20 1a3e
000002e0: aee7 a43e e2d5 303f aea2 f83e 0d41 f43e
000002f0: c04d dabc 828c 7ebe ccd4 8f3e 6787 76be
00000300: d292 423e 4bb7 8dbe c135 283f a24f 2c3d
00000310: f007 3f3f 8e38 8a3e 2f31 603e e9da 96be
00000320: a5ef 093f ef39 f3bd eaa3 473f 4854 153f
00000330: 9c8a 483f a239 ad3e 7a5d 483e 2077 a63e
00000340: 76c1 0f3e 4a57 123d 804f b63e ecb3 c73e
00000350: 1f6b e63e a6c5 333e 4b7c e13e f8fd 66be
00000360: db29 473e 96e1 a3bd 06c7 033f 0d43 5bbd
00000370: f41f 733e c411 9f3e d5bf cb3e 31a4 51bd
00000380: 8fba b8be 285d 34bf 34fa 24bf 0d5a 0abd
00000390: 0d1b b83e b74f 263e 4956 ef3e 397d b83e
000003a0: 473b 913e e261 75bd 76f6 92be 8f64 30bd
000003b0: b873 c1bd 2d55 c0bd 761d 3f3f f470 bb3e
000003c0: 45b1 893e 5cb2 ac3e d61c 323e 0755 b9bd
000003d0: 8cef 563e 660b b03e c644 7d3e c493 993e
000003e0: 0be3 a63e 3c0d 773e 2f92 c03e 1cbd e23e
000003f0: efae 8a3e 6601 a23d 6388 333e 64e9 9e3e

bias f4 [175]
0.0 0.0 0.0 0.0 0.0 0.0 0.0 0.0
0.0 0.0 0.0 0.0 0.0 0.0 0.0 0.0
0.0 0.0 0.0 0.0 0.0 0.0 0.0 0.0
0.0 0.0 0.0 0.0 0.0 0.0 0.0 0.0
0.0 0.0 0.0 0.0 0.0 0.0 0.0 0.0
0.0 0.0 0.0 0.0 0.0 0.0 0.0 0.0
0.0 0.0 0.0 0.0 0.0 0.0 0.0 0.0
0.0 0.0 0.0 0.0 0.0 0.0 0.0 0.0
0.0 0.0 0.0 0.0 0.0 0.0 0.0 0.0
0.0 0.0 0.0 0.0 0.0 0.0 0.0 0.0
0.0 0.0 0.0 0.0 0.0 0.0 0.0 0.0
0.0 0.0 0.0 0.0 0.0 0.0 0.0 0.0
0.0 0.0 0.0 0.0 0.0 0.0 0.0 0.0
0.0 0.0 0.0 0.0 0.0 0.0 0.0 0.0
0.0 0.0 0.0 0.0 0.0 0.0 0.0 0.0
0.0 0.0 0.0 0.0 0.0 0.0 0.0 0.0
0.0 0.0 0.0 0.0 0.0 0.0 0.0 0.0
0.0 0.0 0.0 0.0 0.0 0.0 0.0 0.0
0.0 0.0 0.0 0.0 0.0 0.0 0.0 0.0
0.0 0.0 0.0 0.0 0.0 0.0 0.0 0.0
0.0 0.0 0.0 0.0 0.0 0.0 0.0 0.0
0.0 0.0 0.0 0.0 0.0 0.0 0.0
00000000: 0000 0000 0000 0000 0000 0000 0000 0000
00000010: 0000 0000 0000 0000 0000 0000 0000 0000
00000020: 0000 0000 0000 0000 0000 0000 0000 0000
00000030: 0000 0000 0000 0000 0000 0000 0000 0000
00000040: 0000 0000 0000 0000 0000 0000 0000 0000
00000050: 0000 0000 0000 0000 0000 0000 0000 0000
00000060: 0000 0000 0000 0000 0000 0000 0000 0000
00000070: 0000 0000 0000 0000 0000 0000 0000 0000
00000080: 0000 0000 0000 0000 0000 0000 0000 0000
00000090: 0000 0000 0000 0000 0000 0000 0000 0000
000000a0: 0000 0000 0000 0000 0000 0000 0000 0000
000000b0: 0000 0000 0000 0000 0000 0000 0000 0000
000000c0: 0000 0000 0000 0000 0000 0000 0000 0000
000000d0: 0000 0000 0000 0000 0000 0000 0000 0000
000000e0: 0000 0000 0000 0000 0000 0000 0000 0000
000000f0: 0000 0000 0000 0000 0000 0000 0000 0000
00000100: 0000 0000 0000 0000 0000 0000 0000 0000
00000110: 0000 0000 0000 0000 0000 0000 0000 0000
00000120: 0000 0000 0000 0000 0000 0000 0000 0000
00000130: 0000 0000 0000 0000 0000 0000 0000 0000
00000140: 0000 0000 0000 0000 0000 0000 0000 0000
00000150: 0000 0000 0000 0000 0000 0000 0000 0000
00000160: 0000 0000 0000 0000 0000 0000 0000 0000
00000170: 0000 0000 0000 0000 0000 0000 0000 0000
00000180: 0000 0000 0000 0000 0000 0000 0000 0000
00000190: 0000 0000 0000 0000 0000 0000 0000 0000
000001a0: 0000 0000 0000 0000 0000 0000 0000 0000
000001b0: 0000 0000 0000 0000 0000 0000 0000 0000
000001c0: 0000 0000 0000 0000 0000 0000 0000 0000
000001d0: 0000 0000 0000 0000 0000 0000 0000 0000
000001e0: 0000 0000 0000 0000 0000 0000 0000 0000
000001f0: 0000 0000 0000 0000 0000 0000 0000 0000
00000200: 0000 0000 0000 0000 0000 0000 0000 0000
00000210: 0000 0000 0000 0000 0000 0000 0000 0000
00000220: 0000 0000 0000 0000 0000 0000 0000 0000
00000230: 0000 0000 0000 0000 0000 0000 0000 0000
00000240: 0000 0000 0000 0000 0000 0000 0000 0000
00000250: 0000 0000 0000 0000 0000 0000 0000 0000
00000260: 0000 0000 0000 0000 0000 0000 0000 0000
00000270: 0000 0000 0000 0000 0000 0000 0000 0000
00000280: 0000 0000 0000 0000 0000 0000 0000 0000
00000290: 0000 0000 0000 0000 0000 0000 0000 0000
000002a0: 0000 0000 0000 0000 0000 0000 0000 0000
000002b0: 0000 0000 0000 0000 0000 0000

_ei_mask f4 [175]
1.0 1.0 1.0 1.0 1.0 1.0 1.0 1.0
1.0 1.0 1.0 1.0 1.0 1.0 1.0 1.0
1.0 1.0 1.0 1.0 1.0 1.0 1.0 1.0
1.0 1.0 1.0 1.0 1.0 1.0 1.0 1.0
1.0 1.0 1.0 1.0 1.0 1.0 1.0 1.0
1.0 1.0 1.0 1.0 1.0 1.0 1.0 1.0
1.0 1.0 1.0 1.0 1.0 1.0 1.0 1.0
1.0 1.0 1.0 1.0 1.0 1.0 1.0 1.0
1.0 1.0 1.0 1.0 1.0 1.0 1.0 1.0
1.0 1.0 1.0 1.0 1.0 1.0 1.0 1.0
1.0 1.0 1.0 1.0 1.0 1.0 1.0 1.0
1.0 1.0 1.0 1.0 1.0 1.0 1.0 1.0
1.0 1.0 1.0 1.0 1.0 1.0 1.0 1.0
1.0 1.0 1.0 1.0 1.0 1.0 1.0 1.0
1.0 1.0 1.0 1.0 1.0 1.0 1.0 1.0
1.0 1.0 1.0 1.0 1.0 1.0 1.0 1.0
1.0 1.0 1.0 1.0 1.0 1.0 1.0 1.0
1.0 1.0 1.0 1.0 1.0 1.0 1.0 1.0
1.0 1.0 1.0 1.0 1.0 1.0 1.0 1.0
1.0 1.0 1.0 1.0 1.0 1.0 1.0 1.0
1.0 1.0 1.0 1.0 1.0 1.0 1.0 1.0
1.0 1.0 1.0 1.0 1.0 1.0 1.0
00000000: 0000 803f 0000 803f 0000 803f 0000 803f
00000010: 0000 803f 0000 803f 0000 803f 0000 803f
00000020: 0000 803f 0000 803f 0000 803f 0000 803f
00000030: 0000 803f 0000 803f 0000 803f 0000 803f
00000040: 0000 803f 0000 803f 0000 803f 0000 803f
00000050: 0000 803f 0000 803f 0000 803f 0000 803f
00000060: 0000 803f 0000 803f 0000 803f 0000 803f
00000070: 0000 803f 0000 803f 0000 803f 0000 803f
00000080: 0000 803f 0000 803f 0000 803f 0000 803f
00000090: 0000 803f 0000 803f 0000 803f 0000 803f
000000a0: 0000 803f 0000 803f 0000 803f 0000 803f
000000b0: 0000 803f 0000 803f 0000 803f 0000 803f
000000c0: 0000 803f 0000 803f 0000 803f 0000 803f
000000d0: 0000 803f 0000 803f 0000 803f 0000 803f
000000e0: 0000 803f 0000 803f 0000 803f 0000 803f
000000f0: 0000 803f 0000 803f 0000 803f 0000 803f
00000100: 0000 803f 0000 803f 0000 803f 0000 803f
00000110: 0000 803f 0000 803f 0000 803f 0000 803f
00000120: 0000 803f 0000 803f 0000 803f 0000 803f
00000130: 0000 803f 0000 803f 0000 803f 0000 803f
00000140: 0000 803f 0000 803f 0000 803f 0000 803f
00000150: 0000 803f 0000 803f 0000 803f 0000 803f
00000160: 0000 803f 0000 803f 0000 803f 0000 803f
00000170: 0000 803f 0000 803f 0000 803f 0000 803f
00000180: 0000 803f 0000 803f 0000 803f 0000 803f
00000190: 0000 803f 0000 803f 0000 803f 0000 803f
000001a0: 0000 803f 0000 803f 0000 803f 0000 803f
000001b0: 0000 803f 0000 803f 0000 803f 0000 803f
000001c0: 0000 803f 0000 803f 0000 803f 0000 803f
000001d0: 0000 803f 0000 803f 0000 803f 0000 803f
000001e0: 0000 803f 0000 803f 0000 803f 0000 803f
000001f0: 0000 803f 0000 803f 0000 803f 0000 803f
00000200: 0000 803f 0000 803f 0000 803f 0000 803f
00000210: 0000 803f 0000 803f 0000 803f 0000 803f
00000220: 0000 803f 0000 803f 0000 803f 0000 803f
00000230: 0000 803f 0000 803f 0000 803f 0000 803f
00000240: 0000 803f 0000 803f 0000 803f 0000 803f
00000250: 0000 803f 0000 803f 0000 803f 0000 803f
00000260: 0000 803f 0000 803f 0000 803f 0000 803f
00000270: 0000 803f 0000 803f 0000 803f 0000 803f
00000280: 0000 803f 0000 803f 0000 803f 0000 803f
00000290: 0000 803f 0000 803f 0000 803f 0000 803f
000002a0: 0000 803f 0000 803f 0000 803f 0000 803f
000002b0: 0000 803f 0000 803f 0000 803f

weight f4 [175, 3]
12.433305 6.5314064 0.685225 -7.530618 3.8663616 8.148149 0.030153973 16.012316
1.1471938 -12.503944 20.797361 0.080507845 -8.333333 5.171297 -4.221268 1.8332963
-10.685121 4.8192544 -0.4418282 2.9162264 -4.6508036 1.1219023 -0.24104708 2.4956346
11.96072 -1.5176721 -5.563727 -1.3156445 -18.789364 4.42991 4.6406417 -7.650827
-4.3004365 -7.8258967 -9.021695 -2.850632 12.88396 -1.6169187 -9.520146 -3.9922628
5.9168825 0.027090482 -15.153814 13.885243 -0.7035349 -1.4938458 -5.023205 5.102917
-12.535051 13.865289 -0.18873166 1.3135062 6.120934 -4.6640906 -14.517165 13.22959
-0.6231594 -1.1998899 -2.6464558 4.268151 2.0713096 10.955358 5.1959023 8.586155
4.519808 0.9606557 4.2865796 1.3611696 4.1313753 -1.6106734 -11.965761 7.3696375
26.083443 2.445998 -2.587754 2.0464466 8.511698 4.7341256 -17.260351 8.555662
-0.44624606 -0.07844421 5.2762575 4.1839595 -1.7071831 9.517422 9.626353 7.752244
13.464517 -7.133458 1.2012863 -3.3904896 -5.7703943 -9.756556 -8.863547 0.13973054
0.45408425 -3.69667 -2.9745684 -2.4224324 6.83673 -4.6150074 1.240688 -5.016547
5.998961 1.7173536 4.2001047 7.8096914 4.09487 0.51289415 8.163568 -8.3258915
-14.804624 -2.1736062 -7.235243 -13.536078 8.439092 -0.16782248 3.95908 -2.8457472
7.8712597 2.8899505 -0.7005793 17.141766 -8.131695 4.911891 6.413527 -0.24898075
1.4698741 0.54085046 -15.238733 -12.428446 7.0133 -7.475859 2.9550319 -11.923155
18.443144 -3.0867069 9.174108 -7.771828 -3.23545 -1.2042336 -12.707006 -3.5597038
-1.2702514 4.161507 -0.8987949 0.3708549 -4.4172773 1.1873606 4.0319414 1.0375223
-22.09551 3.3914912 -0.5022494 -21.148922 -4.103337 -5.0728955 -0.53122425 7.619313
5.3790503 -0.6822345 4.074026 4.0598855 4.260559 -8.674711 5.4756093 -12.067982
6.8153214 -3.1165743 4.9865646 -5.2621174 -10.456982 -3.6367126 -3.362552 0.33083236
4.181845 -12.291409 -26.023806 3.7953224 8.315129 11.814164 -2.1005626 -6.208327
12.934596 3.4480233 1.8408403 1.7624465 3.200287 9.033964 18.994194 1.5436399
-9.84643 4.651069 1.5871956 -6.314894 -1.5034938 -0.4052481 -7.4292903 2.3788393
-5.71071 -5.4310303 8.044805 2.3246088 4.4537063 18.147642 2.947534 9.361421
-2.0328026 2.708942 0.27436674 -2.9789855 3.9762158 -8.09064 -4.583566 -2.1075716
2.6248906 4.18658 -1.9103729 -3.669101 -6.7903786 -2.9601605 -4.271892 -10.112258
-1.7285506 1.2796584 -7.5867033 -4.00851 -2.5863214 1.3934418 -4.7584476 1.5679401
-6.70164 -0.95250934 -9.764215 -4.412102 0.6607771 3.4602344 -10.159556 0.8663502
-1.8949732 2.644949 -1.6607099 1.6378332 -0.90229 0.013410232 -9.674638 -3.0394351
0.00532793 -1.599194 5.162269 -3.0608065 -1.2816274 -8.109126 -1.0016252 -0.79770464
00000000: d1ee 4641 4801 d140 e86a 2f3f d3fa f0c0
00000010: 7872 7740 d15e 0241 7705 f73c 3919 8041
00000020: 3fd7 923f 2810 48c1 ff60 a641 4ce1 a43d
00000030: 5555 05c1 447b a540 a114 87c0 74a9 ea3f
00000040: 41f6 2ac1 5537 9a40 4e37 e2be 74a3 3a40
00000050: 62d3 94c0 7f9a 8f3f 0cd5 76be 7ab8 1f40
00000060: 1c5f 3f41 1443 c2bf 0d0a b2c0 0a67 a8bf
00000070: 9e50 96c1 d3c1 8d40 2380 9440 93d3 f4c0
00000080: 2d9d 89c0 bf6d fac0 dd58 10c1 c170 36c0
00000090: b324 4e41 31f7 cebf 8552 18c1 3c81 7fc0
000000a0: 1a57 bd40 dcec dd3c 0676 72c1 f529 5e41
000000b0: dd1a 34bf 5736 bfbf 18be a0c0 194b a340
000000c0: 928f 48c1 39d8 5d41 df42 41be f920 a83f
000000d0: b1de c340 3b40 95c0 4f46 68c1 67ac 5341
000000e0: 6087 1fbf fe95 99bf 885f 29c0 b194 8840
000000f0: 5690 0440 2549 2f41 d544 a640 e460 0941
00000100: 44a2 9040 88ed 753f a92b 8940 ce3a ae3f
00000110: 3a34 8440 8c2a cebf c273 3fc1 12d4 eb40
00000120: e4aa d041 3b8b 1c40 c39d 25c0 fbf8 0240
00000130: ea2f 0841 f57d 9740 3315 8ac1 fee3 0841
00000140: 5d7a e4be 5ca7 a0bd 1ad7 a840 ffe2 8540
00000150: fa84 dabf 5c47 1841 8b05 1a41 6212 f840
00000160: a96e 5741 4a45 e4c0 c0c3 993f c8fd 58c0
00000170: 12a7 b8c0 da1a 1cc1 17d1 0dc1 8615 0f3e
00000180: bb7d e83e 3e96 6cc0 545f 3ec0 2209 1bc0
00000190: 7ec6 da40 24ae 93c0 ddce 9e3f 8e87 a0c0
000001a0: 7df7 bf40 3ed2 db3f 4267 8640 fee8 f940
000001b0: 2d09 8340 084d 033f f99d 0241 da36 05c1
000001c0: bddf 6cc1 5d1c 0bc0 1c87 e7c0 c793 58c1
000001d0: 8506 0741 a8d9 2bbe 9161 7d40 b920 36c0
000001e0: 5ce1 fb40 f3f4 3840 2a59 33bf 5622 8941
000001f0: 6c1b 02c1 362e 9d40 9d3b cd40 cff4 7ebe
00000200: d624 bc3f 2d75 0a3f dad1 73c1 eada 46c1
00000210: f46c e040 3d3a efc0 3e1f 3d40 3ec5 3ec1
00000220: 8f8b 9341 9b8c 45c0 25c9 1241 d1b2 f8c0
00000230: 9d11 4fc0 5424 9abf e64f 4bc1 30d2 63c0
00000240: 9997 a2bf 112b 8540 6c17 66bf b2e0 bd3e
00000250: 565a 8dc0 6ffb 973f aa05 8140 88cd 843f
00000260: 9bc3 b0c1 310e 5940 6b93 00bf fe30 a9c1
00000270: 894e 83c0 2955 a2c0 50fe 07bf 69d1 f340
00000280: 2e21 ac40 eca6 2ebf 6c5e 8240 95ea 8140
00000290: 8056 8840 9ecb 0ac1 3138 af40 7416 41c1
000002a0: 1d17 da40 f475 47c0 f091 9f40 4463 a8c0
000002b0: cc4f 27c1 e6bf 68c0 0d34 57c0 dc62 a93e
000002c0: add1 8540 9ca9 44c1 c130 d0c1 90e6 7240
000002d0: c50a 0541 d106 3d41 9e6f 06c0 9daa c6c0
000002e0: 1bf4 4e41 6aac 5c40 a8a0 eb3f d997 e13f
000002f0: 81d1 4c40 1e8b 1041 1cf4 9741 fe95 c53f
00000300: fa8a 1dc1 8fd5 9440 3a29 cb3f 9d13 cac0
00000310: 7c72 c0bf ae7c cfbe bfbc edc0 e73e 1840
00000320: 23be b6c0 00cb adc0 85b7 0041 64c6 1440
00000330: c384 8e40 5f2e 9141 66a4 3c40 61c8 1541
00000340: 7019 02c0 4e5f 2d40 cc79 8c3e b3a7 3ec0
00000350: 527a 7e40 4373 01c1 93ac 92c0 74e2 06c0
00000360: 35fe 2740 77f8 8540 1987 f4bf 8dd2 6ac0
00000370: c84a d9c0 4573 3dc0 57b3 88c0 cfcb 21c1
00000380: 2541 ddbf d9cb a33f 46c6 f2c0 b745 80c0
00000390: 4a86 25c0 4d5c b23f 3445 98c0 43b2 c83f
000003a0: d673 d6c0 a7d7 73bf 3a3a 1cc1 f12f 8dc0
000003b0: b028 293f 7b74 5d40 8b8d 22c1 20c9 5d3f
000003c0: 7b8e f2bf d846 2940 2492 d4bf 85a4 d13f
000003d0: 7afc 66bf 97b6 5b3c 51cb 1ac1 1b86 42c0
000003e0: eb95 ae3b 64b2 ccbf 4f31 a540 41e4 43c0
000003f0: 5e0c a4bf fbbe 01c1 4135 80bf 5f36 4cbf

bias f4 [3]
0.0 0.0 0.0
00000000: 0000 0000 0000 0000 0000 0000

_ei_mask f4 [3]
1.0 1.0 1.0
00000000: 0000 803f 0000 803f 0000 803f

weight f4 [3, 175]
0.14810587 0.05974509 0.062553 -0.042031318 0.077684835 0.0965634 0.10989149 0.10832787
0.10426039 0.13252503 0.13285375 0.044393316 0.09792027 0.05748872 -0.42852542 0.08890705
-0.41326338 0.09279551 -0.42021617 0.07393828 0.01567496 0.118395634 0.16127764 0.17620839
0.14123763 0.08744885 0.030728664 0.016928406 0.022368371 0.082469285 0.08687586 -0.0022004507
0.032628223 0.05682136 0.10711056 0.0778958 0.18202032 0.041439265 0.10187328 0.056403585
0.14116171 0.22037058 0.14953153 0.048995502 0.15983373 -0.19716133 0.13355026 0.094937526
0.056388784 0.10767843 0.08760649 0.08132438 0.08901812 0.2086844 0.040019646 0.099406146
0.12714389 0.06023958 -0.13766995 0.033460066 0.09487781 -0.0872964 0.01049758 0.04985787
0.055238947 -0.0062260283 -0.07528245 0.04590638 -0.10339361 0.1172056 0.03242523 0.078770764
0.100710616 0.0092171235 0.08043383 0.051914223 -0.05169557 0.087473124 0.0029367912 0.12744942
0.03800365 0.066655286 -0.10265369 0.1281682 -0.008146346 0.09120142 0.13550009 0.12735803
0.07535665 0.07028933 0.10801152 0.0023021884 0.06854723 -0.033112835 0.04018386 0.089980125
0.0623578 0.12019752 0.06671852 0.04285763 0.008013825 0.036847606 0.055849377 0.07938269
0.04949686 0.06770383 0.062003627 0.109614156 0.08910567 0.0970203 -0.015584725 0.10281355
0.03467392 0.06683454 0.040373363 0.096736446 0.03606551 0.056342043 0.07724595 0.110089175
0.06196513 0.120099664 0.10444135 0.12990671 0.078580946 0.08145388 0.039087124 0.10860447
0.061609738 0.03270297 0.06037654 0.13507889 0.09488271 0.026795868 0.06949588 0.13114166
0.023934584 0.059726164 0.0889519 0.020186523 0.08871409 -0.007091313 0.05762456 0.09288511
0.09776474 0.06548596 0.13930207 0.027382629 0.08996928 0.12206759 0.04399505 0.050335493
0.056128763 0.079990104 0.047323044 0.041838296 0.053413324 0.048388023 -0.023209274 0.058252648
0.20436308 0.08247885 0.049601633 0.058949113 0.091649584 0.10584076 0.068668835 0.0965544
0.19751598 0.08233687 0.10367365 0.10704873 0.1083287 -0.0008603853 0.015639666 0.05192692
0.0691763 0.16810389 0.2385423 0.026744546 0.0054323995 0.0040538684 0.035122465 -0.039303087
-0.019442497 -0.05398811 0.0050894385 0.021657405 0.09553971 0.35890287 0.031239945 0.346268
0.14459148 0.34947133 0.03705641 0.13035871 0.015220575 0.0035177527 -0.031203005 -0.0043169092
0.026399484 0.050228287 0.13229547 0.11099021 0.06890683 0.023565877 -0.089436404 0.0035161483
0.036427233 0.013129981 0.0868964 -0.029046427 -0.058066454 -0.04115644 0.030766403 0.0014184567
-0.07461093 -0.06103605 -0.19011198 -0.06873127 0.29897767 -0.067052655 -0.15751906 0.075611025
-0.005244288 0.13404007 0.12091037 -0.11342592 -0.04492842 0.08519179 0.040494204 0.0064767385
-0.08802589 0.2630542 -0.13888547 0.1562666 0.25368738 0.15663339 0.16183275 0.07682167
0.07558999 0.13050716 0.053336743 0.3646415 0.017093472 0.018723536 0.071308754 0.06186026
-0.016661422 0.02411272 -0.07482563 0.096519984 0.06519735 -0.027296681 -0.045895744 0.07186774
00000000: 11a9 173e 44b7 743d ca1b 803d 0829 2cbd
00000010: 3a19 9f3d 08c3 c53d ca0e e13d 01db dd3d
00000020: 7986 d53d a4b4 073e d00a 083e c4d5 353d
00000030: 6c8a c83d 4b79 6b3d af67 dbbe e614 b63d
00000040: 4297 d3be 930b be3d 9326 d7be f46c 973d
00000050: c668 803c 6979 f23d f725 253e f96f 343e
00000060: 99a0 103e 6218 b33d aeba fb3c 71ad 8a3c
00000070: e03d b73c a8e5 a83d f9eb b13d 7035 10bb
00000080: 2ca5 053d 84bd 683d c85c db3d d587 9f3d
00000090: 8963 3a3e 38bc 293d f0a2 d03d 7207 673d
000000a0: b28c 103e d3a8 613e cb1e 193e 82af 483d
000000b0: 74ab 233e a9e4 49be 66c1 083e 9b6e c23d
000000c0: edf7 663d 8286 dc3d 086b b33d 668d a63d
000000d0: 224f b63d 5db1 553e a4eb 233d 7395 cb3d
000000e0: 0232 023e c7bd 763d 5af9 0cbe 6c0d 093d
000000f0: 4c4f c23d 74c8 b2bd 0bfe 2b3c c437 4c3d
00000100: 3c42 623d b603 ccbb af2d 9abd 5408 3c3d
00000110: 07c0 d3bd 7d09 f03d 51d0 043d 9152 a13d
00000120: 5e41 ce3d 6b03 173c 7eba a43d 02a4 543d
00000130: bcbe 53bd 1c25 b33d 2e77 403b 1a82 023e
00000140: b7a9 1b3d 9182 883d 193c d2bd 863e 033e
00000150: 4078 05bc cfc7 ba3d 89c0 0a3e 256a 023e
00000160: 9654 9a3d daf3 8f3d 2535 dd3d 50e0 163b
00000170: 7d62 8c3d 53a1 07bd d597 243d 8047 b83d
00000180: e46a 7f3d 1e2a f63d b8a3 883d 7b8b 2f3d
00000190: 6b4c 033c 84ed 163d 51c2 643d 6493 a23d
000001a0: 38bd 4a3d 4ea8 8a3d 84f7 7d3d 637d e03d
000001b0: 097d b63d 94b2 c63d 1357 7fbc e98f d23d
000001c0: 3e06 0e3d 8ce0 883d 8a5e 253d c21d c63d
000001d0: 6eb9 133d eac6 663d 2033 9e3d 6f76 e13d
000001e0: 26cf 7d3d d0f6 f53d 59e5 d53d 4406 053e
000001f0: 0cef a03d 4bd1 a63d d219 203d 056c de3d
00000200: 7e5a 7c3d 8df3 053d 644d 773d 1f52 0a3e
00000210: de51 c23d 0283 db3c db53 8e3d 004a 063e
00000220: 7612 c43c 6ca3 743d 6a2c b63d 355e a53c
00000230: bcaf b53d 3f5e e8bb bb07 6c3d 8c3a be3d
00000240: e138 c83d 811d 863d 34a5 0e3e 8951 e03c
00000250: d041 b83d 93fe f93d 2734 343d 972c 4e3d
00000260: 46e7 653d dad1 a33d cfd5 413d a25e 2b3d
00000270: eec7 5a3d 8532 463d 6021 bebc 549a 6e3d
00000280: 8e44 513e acea a83d 152b 4b3d a074 713d
00000290: c7b2 bb3d 0ac3 d83d 3fa2 8c3d 50be c53d
000002a0: a141 4a3e 3ca0 a83d da52 d43d 5d3c db3d
000002b0: 70db dd3d 7b8b 61ba c21e 803c 52b1 543d
000002c0: 4eac 8d3d 6d23 2c3e 6f44 743e 6117 db3c
000002d0: 4502 b23b 50d6 843b 93dc 0f3d 46fc 20bd
000002e0: df45 9fbc a322 5dbd 4ec5 a63b df6a b13c
000002f0: 53aa c33d 1ec2 b73e eaea ff3c 0a4a b13e
00000300: ca0f 143e e8ed b23e 76c8 173d c17c 053e
00000310: b85f 793c 198a 663b 729d ffbc dc74 8dbb
00000320: bb43 d83c 2dbc 4d3d 7778 073e d64e e33d
00000330: 061f 8d3d 3a0d c13c 6f2a b7bd 2e6f 663b
00000340: b934 153d 221f 573c bdf6 b13d c6f2 edbc
00000350: 17d7 6dbd a893 28bd d309 fc3c 82eb b93a
00000360: 9ecd 98bd f000 7abd b7ac 42be fbc2 8cbd
00000370: 9a13 993e e752 89bd ad4c 21be f4d9 9a3d
00000380: 47d8 abbb cd41 093e db9f f73d d94b e8bd
00000390: dd06 38bd 0879 ae3d 40dd 253d d23a d43b
000003a0: eb46 b4bd 0aaf 863e fe37 0ebe 5a04 203e
000003b0: 50e3 813e 8164 203e 7cb7 253e ae54 9d3d
000003c0: edce 9a3d aba3 053e a177 5a3d 4ab2 ba3e
000003d0: 9c07 8c3c 1a62 993c 530a 923d 2f61 7d3d
000003e0: 897d 88bc 0a88 c53c 2e3e 99bd 45ac c53d
000003f0: 3086 853d 4a9d dfbc 2dfd 3bbd 652f 933d

bias f4 [175]
0.0 0.0 0.0 0.0 0.0 0.0 0.0 0.0
0.0 0.0 0.0 0.0 0.0 0.0 0.0 0.0
0.0 0.0 0.0 0.0 0.0 0.0 0.0 0.0
0.0 0.0 0.0 0.0 0.0 0.0 0.0 0.0
0.0 0.0 0.0 0.0 0.0 0.0 0.0 0.0
0.0 0.0 0.0 0.0 0.0 0.0 0.0 0.0
0.0 0.0 0.0 0.0 0.0 0.0 0.0 0.0
0.0 0.0 0.0 0.0 0.0 0.0 0.0 0.0
0.0 0.0 0.0 0.0 0.0 0.0 0.0 0.0
0.0 0.0 0.0 0.0 0.0 0.0 0.0 0.0
0.0 0.0 0.0 0.0 0.0 0.0 0.0 0.0
0.0 0.0 0.0 0.0 0.0 0.0 0.0 0.0
0.0 0.0 0.0 0.0 0.0 0.0 0.0 0.0
0.0 0.0 0.0 0.0 0.0 0.0 0.0 0.0
0.0 0.0 0.0 0.0 0.0 0.0 0.0 0.0
0.0 0.0 0.0 0.0 0.0 0.0 0.0 0.0
0.0 0.0 0.0 0.0 0.0 0.0 0.0 0.0
0.0 0.0 0.0 0.0 0.0 0.0 0.0 0.0
0.0 0.0 0.0 0.0 0.0 0.0 0.0 0.0
0.0 0.0 0.0 0.0 0.0 0.0 0.0 0.0
0.0 0.0 0.0 0.0 0.0 0.0 0.0 0.0
0.0 0.0 0.0 0.0 0.0 0.0 0.0
00000000: 0000 0000 0000 0000 0000 0000 0000 0000
00000010: 0000 0000 0000 0000 0000 0000 0000 0000
00000020: 0000 0000 0000 0000 0000 0000 0000 0000
00000030: 0000 0000 0000 0000 0000 0000 0000 0000
00000040: 0000 0000 0000 0000 0000 0000 0000 0000
00000050: 0000 0000 0000 0000 0000 0000 0000 0000
00000060: 0000 0000 0000 0000 0000 0000 0000 0000
00000070: 0000 0000 0000 0000 0000 0000 0000 0000
00000080: 0000 0000 0000 0000 0000 0000 0000 0000
00000090: 0000 0000 0000 0000 0000 0000 0000 0000
000000a0: 0000 0000 0000 0000 0000 0000 0000 0000
000000b0: 0000 0000 0000 0000 0000 0000 0000 0000
000000c0: 0000 0000 0000 0000 0000 0000 0000 0000
000000d0: 0000 0000 0000 0000 0000 0000 0000 0000
000000e0: 0000 0000 0000 0000 0000 0000 0000 0000
000000f0: 0000 0000 0000 0000 0000 0000 0000 0000
00000100: 0000 0000 0000 0000 0000 0000 0000 0000
00000110: 0000 0000 0000 0000 0000 0000 0000 0000
00000120: 0000 0000 0000 0000 0000 0000 0000 0000
00000130: 0000 0000 0000 0000 0000 0000 0000 0000
00000140: 0000 0000 0000 0000 0000 0000 0000 0000
00000150: 0000 0000 0000 0000 0000 0000 0000 0000
00000160: 0000 0000 0000 0000 0000 0000 0000 0000
00000170: 0000 0000 0000 0000 0000 0000 0000 0000
00000180: 0000 0000 0000 0000 0000 0000 0000 0000
00000190: 0000 0000 0000 0000 0000 0000 0000 0000
000001a0: 0000 0000 0000 0000 0000 0000 0000 0000
000001b0: 0000 0000 0000 0000 0000 0000 0000 0000
000001c0: 0000 0000 0000 0000 0000 0000 0000 0000
000001d0: 0000 0000 0000 0000 0000 0000 0000 0000
000001e0: 0000 0000 0000 0000 0000 0000 0000 0000
000001f0: 0000 0000 0000 0000 0000 0000 0000 0000
00000200: 0000 0000 0000 0000 0000 0000 0000 0000
00000210: 0000 0000 0000 0000 0000 0000 0000 0000
00000220: 0000 0000 0000 0000 0000 0000 0000 0000
00000230: 0000 0000 0000 0000 0000 0000 0000 0000
00000240: 0000 0000 0000 0000 0000 0000 0000 0000
00000250: 0000 0000 0000 0000 0000 0000 0000 0000
00000260: 0000 0000 0000 0000 0000 0000 0000 0000
00000270: 0000 0000 0000 0000 0000 0000 0000 0000
00000280: 0000 0000 0000 0000 0000 0000 0000 0000
00000290: 0000 0000 0000 0000 0000 0000 0000 0000
000002a0: 0000 0000 0000 0000 0000 0000 0000 0000
000002b0: 0000 0000 0000 0000 0000 0000

_ei_mask f4 [175]
1.0 1.0 1.0 1.0 1.0 1.0 1.0 1.0
1.0 1.0 1.0 1.0 1.0 1.0 1.0 1.0
1.0 1.0 1.0 1.0 1.0 1.0 1.0 1.0
1.0 1.0 1.0 1.0 1.0 1.0 1.0 1.0
1.0 1.0 1.0 1.0 1.0 1.0 1.0 1.0
1.0 1.0 1.0 1.0 1.0 1.0 1.0 1.0
1.0 1.0 1.0 1.0 1.0 1.0 1.0 1.0
1.0 1.0 1.0 1.0 1.0 1.0 1.0 1.0
1.0 1.0 1.0 1.0 1.0 1.0 1.0 1.0
1.0 1.0 1.0 1.0 1.0 1.0 1.0 1.0
1.0 1.0 1.0 1.0 1.0 1.0 1.0 1.0
1.0 1.0 1.0 1.0 1.0 1.0 1.0 1.0
1.0 1.0 1.0 1.0 1.0 1.0 1.0 1.0
1.0 1.0 1.0 1.0 1.0 1.0 1.0 1.0
1.0 1.0 1.0 1.0 1.0 1.0 1.0 1.0
1.0 1.0 1.0 1.0 1.0 1.0 1.0 1.0
1.0 1.0 1.0 1.0 1.0 1.0 1.0 1.0
1.0 1.0 1.0 1.0 1.0 1.0 1.0 1.0
1.0 1.0 1.0 1.0 1.0 1.0 1.0 1.0
1.0 1.0 1.0 1.0 1.0 1.0 1.0 1.0
1.0 1.0 1.0 1.0 1.0 1.0 1.0 1.0
1.0 1.0 1.0 1.0 1.0 1.0 1.0
00000000: 0000 803f 0000 803f 0000 803f 0000 803f
00000010: 0000 803f 0000 803f 0000 803f 0000 803f
00000020: 0000 803f 0000 803f 0000 803f 0000 803f
00000030: 0000 803f 0000 803f 0000 803f 0000 803f
00000040: 0000 803f 0000 803f 0000 803f 0000 803f
00000050: 0000 803f 0000 803f 0000 803f 0000 803f
00000060: 0000 803f 0000 803f 0000 803f 0000 803f
00000070: 0000 803f 0000 803f 0000 803f 0000 803f
00000080: 0000 803f 0000 803f 0000 803f 0000 803f
00000090: 0000 803f 0000 803f 0000 803f 0000 803f
000000a0: 0000 803f 0000 803f 0000 803f 0000 803f
000000b0: 0000 803f 0000 803f 0000 803f 0000 803f
000000c0: 0000 803f 0000 803f 0000 803f 0000 803f
000000d0: 0000 803f 0000 803f 0000 803f 0000 803f
000000e0: 0000 803f 0000 803f 0000 803f 0000 803f
000000f0: 0000 803f 0000 803f 0000 803f 0000 803f
00000100: 0000 803f 0000 803f 0000 803f 0000 803f
00000110: 0000 803f 0000 803f 0000 803f 0000 803f
00000120: 0000 803f 0000 803f 0000 803f 0000 803f
00000130: 0000 803f 0000 803f 0000 803f 0000 803f
00000140: 0000 803f 0000 803f 0000 803f 0000 803f
00000150: 0000 803f 0000 803f 0000 803f 0000 803f
00000160: 0000 803f 0000 803f 0000 803f 0000 803f
00000170: 0000 803f 0000 803f 0000 803f 0000 803f
00000180: 0000 803f 0000 803f 0000 803f 0000 803f
00000190: 0000 803f 0000 803f 0000 803f 0000 803f
000001a0: 0000 803f 0000 803f 0000 803f 0000 803f
000001b0: 0000 803f 0000 803f 0000 803f 0000 803f
000001c0: 0000 803f 0000 803f 0000 803f 0000 803f
000001d0: 0000 803f 0000 803f 0000 803f 0000 803f
000001e0: 0000 803f 0000 803f 0000 803f 0000 803f
000001f0: 0000 803f 0000 803f 0000 803f 0000 803f
00000200: 0000 803f 0000 803f 0000 803f 0000 803f
00000210: 0000 803f 0000 803f 0000 803f 0000 803f
00000220: 0000 803f 0000 803f 0000 803f 0000 803f
00000230: 0000 803f 0000 803f 0000 803f 0000 803f
00000240: 0000 803f 0000 803f 0000 803f 0000 803f
00000250: 0000 803f 0000 803f 0000 803f 0000 803f
00000260: 0000 803f 0000 803f 0000 803f 0000 803f
00000270: 0000 803f 0000 803f 0000 803f 0000 803f
00000280: 0000 803f 0000 803f 0000 803f 0000 803f
00000290: 0000 803f 0000 803f 0000 803f 0000 803f
000002a0: 0000 803f 0000 803f 0000 803f 0000 803f
000002b0: 0000 803f 0000 803f 0000 803f
