checkpoints/version17/model.pt (torch, 31342 bytes, 13 tensors)

bias f4 [175]
0	0x3f968cce	1.176172
1	0x40122552	2.2835279
2	0xbf1fd44e	-0.62433326
3	0x3fa767ea	1.3078587
4	0x3d09c7a2	0.03363765
5	0x3ff4b08a	1.9116375
6	0x3ffb20e9	1.9619418
7	0x4026b7b2	2.6049619
8	0x3fceb287	1.6148232
9	0x4040844b	3.0080745
10	0x3fac41c9	1.3457576
11	0x3fc52f8a	1.5405133
12	0x3e1eb393	0.1549819
13	0xbde59e6e	-0.11211859
14	0x3cb4ecbf	0.022085546
15	0x400c3cde	2.191215
16	0xbd4f3a35	-0.05059262
17	0xbd8182dd	-0.06323788
18	0xbd086073	-0.033295106
19	0x403225db	2.7835605
20	0x3e96d8d4	0.29462302
21	0x3fb9538d	1.4478623
22	0x3fc860b6	1.5654514
23	0xbecda7bb	-0.4016703
24	0xbfe612e2	-1.7974513
25	0x405b7288	3.4288654
26	0x3f7ac828	0.97961664
27	0x3fb524ce	1.4151857
28	0x3f833359	1.0250045
29	0x40261846	2.5952315
30	0x3f033075	0.51245815
31	0x3d22dead	0.03976314
32	0x3f9a9e35	1.2079531
33	0x3d908341	0.07056285
34	0x3f1ffa14	0.62490964
35	0x406f0667	3.7347658
36	0x3f33ec19	0.7028213
37	0x3f8bcfcc	1.092279
38	0x3fe76d7a	1.8080285
39	0x3fb76fce	1.4330995
40	0x400b97c5	2.1811383
41	0x3fc3e488	1.5304117
42	0x3e4a4b5b	0.19755308
43	0x3ec60369	0.38674477
44	0x3fcc6935	1.5969607
45	0xbe487742	-0.19576743
46	0x3ef50f65	0.47863308
47	0x3e370afc	0.17875284
48	0x3ea3e169	0.32007912
49	0x3e98c7df	0.2983999
50	0x3f0d73da	0.552549
51	0x3f02495a	0.50893176
52	0x3f85db80	1.0457611
53	0x3e60a4b3	0.21937828
54	0x3e72cd8b	0.23711221
55	0x3fa5b1d3	1.2944893
56	0xbec05f5d	-0.37572756
57	0x3f318994	0.6935055
58	0x3e2905de	0.16506144
59	0xbebb7f45	-0.36620536
60	0xbda8a0fd	-0.08233831
61	0x3d5ed509	0.054402385
62	0x3f387240	0.7204933
63	0x3f34ba39	0.70596653
64	0x3d95f4c7	0.07322078
65	0x3ea9d956	0.33173627
66	0xbbad5d79	-0.005290684
67	0x3eb55136	0.35413522
68	0x3f2756f0	0.6536703
69	0x3fd1bb3c	1.6385264
70	0xbeae3382	-0.34023672
71	0x3f984c7f	1.1898345
72	0x3fab4901	1.3381654
73	0x3f60bc0c	0.87786937
74	0x3f92de7d	1.1474148
75	0x3f7dc0d8	0.9912238
76	0x3fabfd3a	1.3436654
77	0x3fc2b118	1.5210295
78	0x3fc2d76c	1.5221992
79	0x400a0e43	2.1571205
80	0x3faa1e65	1.3290526
81	0x3ff9f8d3	1.952906
82	0x3f7c7f72	0.98631966
83	0x40297128	2.6475315
84	0x3faecdc5	1.3656546
85	0x3f9ee65b	1.2414049
86	0x403d618f	2.9590795
87	0x405b8a7e	3.430328
88	0x3fbecfae	1.4907129
89	0x3f857a35	1.042792
90	0x3f870ffb	1.0551752
91	0xbed3bef7	-0.41356632
92	0x405cba75	3.4488804
93	0xbd45b201	-0.04826546
94	0x3f75cd35	0.96016246
95	0x3ebf03f9	0.37307718
96	0x406163b8	3.5217113
97	0x3ed247e9	0.41070488
98	0xbf3938e1	-0.72352415
99	0x3e02cc05	0.1277314
100	0x401436c9	2.3158438
101	0x3f6dea72	0.9293586
102	0x3fbdad5b	1.4818529
103	0x3feb5162	1.8384211
104	0x3f7ab784	0.9793627
105	0x400ad55d	2.1692727
106	0x3fc039b1	1.5017606
107	0x3fc0eb5c	1.5071826
108	0x3fc90ab4	1.5706391
109	0x40007d27	2.0076387
110	0x3f82d5a8	1.0221453
111	0xbe9b0805	-0.30279556
112	0x3db01e13	0.08599486
113	0x401054cb	2.2551754
114	0x3f982caa	1.188863
115	0x40124d50	2.2859688
116	0x3e1e998d	0.15488262
117	0x4011379a	2.2690187
118	0x3fec8eea	1.8481114
119	0x40060aa5	2.0943997
120	0x4025b802	2.589356
121	0x3fdd5d37	1.7294072
122	0x40053638	2.0814342
123	0x401231a9	2.284281
124	0x4029e558	2.654623
125	0x3fae4c69	1.3617069
126	0x3e224ac5	0.15848835
127	0xbd8e4682	-0.06947042
128	0x3f5b00ef	0.855483
129	0x3fb4d564	1.4127622
130	0x3e90ebac	0.28304803
131	0x3e463a73	0.19358234
132	0xbd7b1b9c	-0.061305627
133	0x40001ed3	2.0018814
134	0x3fb553a0	1.4166145
135	0x3d8919dc	0.066943854
136	0xbd5badf4	-0.05363269
137	0x3fb488dc	1.4104266
138	0x3f0b268b	0.54355687
139	0x3f7a737e	0.9783248
140	0x3f23e0e4	0.6401503
141	0x3ecde066	0.40210265
142	0x3f929123	1.1450542
143	0x3eafd28e	0.34340328
144	0xbdcf4645	-0.10120825
145	0x3fcb1adf	1.5867575
146	0x3fa9ea29	1.3274585
147	0x3fa13570	1.2594433
148	0x3f25a6a6	0.6470741
149	0xbddeb978	-0.10875219
150	0x3e84efae	0.2596411
151	0xbdc11105	-0.09427074
152	0x3fd74046	1.681649
153	0x3f75e958	0.9605918
154	0x4045bda8	3.0897007
155	0x400362f2	2.0529141
156	0x3f9090c3	1.1294178
157	0x405a9a0b	3.415652
158	0x3e98202b	0.29712042
159	0x3ea775d8	0.32707095
160	0x3f60659b	0.8765504
161	0xbf780656	-0.9688467
162	0x3f101507	0.56282085
163	0x3f95b3af	1.169546
164	0x3fc77727	1.5583237
165	0x40324cd0	2.7859383
166	0x3f5a3164	0.85231614
167	0x3fabd3b6	1.3423984
168	0x3f6ae87a	0.9176098
169	0x3feee8b9	1.8664771
170	0x4001b5b9	2.0267165
171	0x3fc70a52	1.5550025
172	0x3f96b646	1.1774375
173	0x3edf47eb	0.43609557
174	0x3ea1540c	0.31509435

weight f4 [9, 175]
0	0x3a4c3ce2	0.00077910547
1	0x39bf9ffa	0.0003654955
2	0xb9690a48	-0.00022224442
3	0x38bb92d0	8.944201e-05
4	0xba4b3216	-0.0007751299
5	0x3f1c9b94	0.61174893
6	0x3b4585c8	0.0030139554
7	0x3f054563	0.52059
8	0x3f8d07e7	1.1018037
9	0x3f0cd3e5	0.55010825
10	0x3f43b0ad	0.7644146
11	0x3f33b61b	0.70199746
12	0x37d8aa90	2.582863e-05
13	0x3f09c149	0.53810555
14	0x39460dd7	0.00018887907
15	0x3970e376	0.0002297292
16	0xbaa9cef5	-0.0012955355
17	0x3eafd204	0.34339917
18	0xba9d2282	-0.0011988434
19	0x3f1a9d9f	0.6039676
20	0x37372be4	1.0917869e-05
21	0x3f493ce6	0.7860855
22	0x3edd7bf2	0.43258625
23	0xb8fe6632	-0.00012130699
24	0x3f8c0007	1.0937508
25	0x3f2c79fe	0.67373645
26	0x3fb2e5ae	1.3976343
27	0x3ea43363	0.32070455
28	0xbc26ddea	-0.010184744
29	0xb6b793cf	-5.471032e-06
30	0x3f964b2b	1.174169
31	0xbbdf6cda	-0.006818396
32	0x3f29a632	0.6626922
33	0x3fbcab52	1.4739783
34	0xb865500c	-5.4672404e-05
35	0xb9ef3f78	-0.0004563292
36	0x3f03c141	0.5146676
37	0xba8cbb16	-0.0010736908
38	0x3f294c37	0.6613192
39	0x3f60170b	0.8753516
40	0x39aed3a3	0.00033345548
41	0x398e6f72	0.00027167384
42	0x3f571490	0.8401575
43	0x3f167571	0.5877295
44	0x39aab887	0.0003256241
45	0x3ed135a9	0.40861252
46	0x37d3a1d9	2.5228526e-05
47	0xb6ab8d72	-5.1126635e-06
48	0xb5ec2948	-1.7595385e-06
49	0x37b43204	2.1480962e-05
50	0x3ea723e7	0.3264458
51	0x3ee129cf	0.4397721
52	0xbb928799	-0.004471731
53	0x3f33dae4	0.70255876
54	0x3ef7f3aa	0.48428088
55	0xb9f6e4bc	-0.00047091197
56	0x35f0f14c	1.795162e-06
57	0xbf0778be	-0.5291861
58	0x3ec7056a	0.38871318
59	0xbd954144	-0.07287839
60	0x3f0e508d	0.5559166
61	0x3f12790b	0.57215947
62	0xb4a3cb28	-3.0508932e-07
63	0xb8bfa9db	-9.139228e-05
64	0x3672389c	3.609376e-06
65	0x3f26f570	0.6521826
66	0x3e98d84d	0.29852524
67	0x3f4a43b7	0.79009575
68	0xb8c9e324	-9.626735e-05
69	0x3ec6b088	0.38806558
70	0x3e88f008	0.2674563
71	0x3da2ab86	0.07942872
72	0x3e51e0d9	0.20495929
73	0xb89d36ad	-7.4965275e-05
74	0x3e8523d5	0.260039
75	0x3716230e	8.9488585e-06
76	0xb8b49ff9	-8.612866e-05
77	0x3e902122	0.28150278
78	0xb817f75c	-3.6231577e-05
79	0x3b22f228	0.0024863575
80	0xb914093a	-0.00014117817
81	0xb9e0bca6	-0.00042865163
82	0x3e07c0a0	0.13257074
83	0xba224df0	-0.0006191423
84	0xbb7d2bf6	-0.003863094
85	0x3e92a534	0.28641665
86	0x3a370c49	0.00069827266
87	0x3956088e	0.00020411817
88	0x39a28562	0.00030998426
89	0x3f20700e	0.6267098
90	0x3da6f542	0.08152248
91	0xbe51eee8	-0.20501292
92	0xb8bdb7c2	-9.04645e-05
93	0x3e8b9f08	0.2726977
94	0x3f3839e8	0.7196336
95	0x3f469abb	0.7757985
96	0x3c3e9e02	0.011634352
97	0x3f077d4a	0.5292555
98	0x3f03dd1f	0.5150928
99	0x3f8383c7	1.027459
100	0x3f770395	0.9648984
101	0x3fabbbe5	1.3416716
102	0x378d29e3	1.6828015e-05
103	0x3927dd3d	0.00016008779
104	0x3888706f	6.505928e-05
105	0x380fa976	3.425168e-05
106	0x3f9f0c35	1.24256
107	0x3eeda90c	0.46418035
108	0x3ee68391	0.45022252
109	0x3f056ee3	0.52122325
110	0x39014bb0	0.00012330594
111	0x39e032d2	0.00042762473
112	0x3f521853	0.82068366
113	0x3f3dfa22	0.742098
114	0x3f56927b	0.8381726
115	0x3f395c46	0.72406423
116	0x3f704405	0.9385379
117	0xbbb61526	-0.0055567203
118	0x3f21aa48	0.63150454
119	0x3f04e447	0.51910824
120	0x3f1889dd	0.5958536
121	0x3ecc2ea5	0.39879337
122	0x3ef49c9a	0.47775728
123	0xb93efd44	-0.00018214161
124	0x3ea7f08b	0.32800707
125	0x3912cc16	0.00013999673
126	0x3f10a2a9	0.564982
127	0x375ad4e8	1.3043384e-05
128	0x3e90c8ed	0.28278294
129	0x3f26a4d9	0.6509529
130	0x3f51323c	0.81717277
131	0xb6996be2	-4.5723145e-06
132	0x3f80d46a	1.0064824
133	0x3e70e9fe	0.23526761
134	0xb7d3b1c1	-2.5235933e-05
135	0x3f22d50d	0.6360634
136	0x3e849d17	0.259011
137	0x39b719b7	0.0003492364
138	0xba4e0d0f	-0.0007860222
139	0x3b8cd6f9	0.0042980877
140	0x3f23a9f0	0.6393118
141	0x3f403d37	0.75093406
142	0x3d8aa58c	0.06769857
143	0xb8fe9776	-0.000121398756
144	0x3e92efe3	0.28698644
145	0x3f84bc6c	1.0370002
146	0x37fa747f	2.985657e-05
147	0x3a36c0c9	0.0006971476
148	0xba9ca31a	-0.0011950464
149	0x3f0334fd	0.5125273
150	0x3ec6c2c7	0.38820478
151	0x3e6af16e	0.2294366
152	0x3b16c185	0.002300353
153	0x3eaa496f	0.3325915
154	0x39d58f15	0.0004073313
155	0x39096233	0.0001310192
156	0x3f1e5c7d	0.61859876
157	0x39ba96ed	0.00035589133
158	0x3b634ace	0.0034682038
159	0x3f803b35	1.0018069
160	0x3f0c95d7	0.5491614
161	0x3f0ec670	0.5577154
162	0x3f967920	1.1755714
163	0x3f68db58	0.9095969
164	0xbba38d8a	-0.004991238
165	0xb98cbe02	-0.00026844448
166	0xb79d8563	-1.8777971e-05
167	0xbbe66cc3	-0.0070320084
168	0x3f1db7b5	0.6160844
169	0x390d451b	0.00013472552
170	0x38c7ac90	9.521202e-05
171	0x3dc80dd4	0.097682625
172	0x3e728f76	0.23687539
173	0x3f5ef1c1	0.8708764
174	0x3e80046c	0.25003374
175	0x3eb30340	0.34963417
176	0x3f04241f	0.51617616
177	0x3f4488df	0.7677135
178	0x3f056aac	0.52115893
179	0x3fbf5d70	1.495039
180	0xb990fc06	-0.00027653592
181	0x3ebb08e9	0.36530235
182	0x34b5a480	3.3833567e-07
183	0xb8781f69	-5.915706e-05
184	0x39d0abe8	0.00039800932
185	0xb9f61660	-0.00046937447
186	0x39f50140	0.00046730973
187	0x3f6447f5	0.891723
188	0xb6d0898f	-6.214897e-06
189	0x3ed93370	0.42422056
190	0x3f5b5d29	0.85689026
191	0xbeb0818e	-0.34473842
192	0x398060df	0.00024486237
193	0xbe96ec46	-0.29477137
194	0xb9ab5623	-0.00032679838
195	0x3f50b4a8	0.8152566
196	0xb93a4568	-0.00017764198
197	0xb91434ce	-0.00014134051
198	0x3e8da403	0.27664194
199	0x38888e8d	6.5115375e-05
200	0x384d774e	4.898692e-05
201	0xb8fd7d76	-0.00012087349
202	0x3ab98ce5	0.001415637
203	0x3de95bef	0.11394488
204	0x3fa9df97	1.3271359
205	0xb719570a	-9.139776e-06
206	0xbe2347db	-0.1594538
207	0x39131d76	0.00014029988
208	0xb8a0401f	-7.641338e-05
209	0x3fa1eb15	1.2649866
210	0x3f7a532d	0.97783166
211	0x389d3ab5	7.4972784e-05
212	0x3e9850ef	0.29749247
213	0xb93649f8	-0.00017384428
214	0x39038cf1	0.00012545638
215	0x3ee71f06	0.45140857
216	0x3f14c08e	0.58106315
217	0x3645fbeb	2.9501923e-06
218	0xb7c12c90	-2.3028144e-05
219	0x3f585020	0.8449726
220	0xb72d6b1c	-1.0336542e-05
221	0x3f185a1d	0.595125
222	0x3ef14d22	0.4712916
223	0x3f032301	0.51225287
224	0x3efe2393	0.49636516
225	0x3a8944da	0.001047279
226	0xb90e5900	-0.0001357533
227	0x3e8473fd	0.25869742
228	0x36766731	3.6716922e-06
229	0x375e24a8	1.3240766e-05
230	0x3f13a355	0.576711
231	0x3f1b6948	0.6070752
232	0x3940ed8f	0.00018399044
233	0x37002517	7.63803e-06
234	0xbdb37373	-0.087622546
235	0xb874918c	-5.8309684e-05
236	0xb8338443	-4.2800104e-05
237	0x3f29898a	0.6622549
238	0x3f85a19d	1.0439945
239	0x3f49e4ed	0.7886494
240	0xb7c79d6a	-2.379595e-05
241	0xb869de10	-5.575834e-05
242	0xb595e269	-1.1167259e-06
243	0x3ec9427e	0.39308542
244	0x3ad756a3	0.0016429018
245	0x391556be	0.00014242061
246	0x3dd0cfee	0.101959094
247	0x3b19e403	0.0023481853
248	0x3f05d7ef	0.52282614
249	0xbbb8e1d5	-0.0056421557
250	0x3ec1b11c	0.37830436
251	0x3f14eef0	0.5817709
252	0xbb9de166	-0.0048181294
253	0x3f18a0fa	0.5962063
254	0x3ea4e90a	0.32209045
255	0x3f109063	0.56470317

bias f4 [175]
0	0x00000000	0.0
1	0x00000000	0.0
2	0x00000000	0.0
3	0x00000000	0.0
4	0x00000000	0.0
5	0x00000000	0.0
6	0x00000000	0.0
7	0x00000000	0.0
8	0x00000000	0.0
9	0x00000000	0.0
10	0x00000000	0.0
11	0x00000000	0.0
12	0x00000000	0.0
13	0x00000000	0.0
14	0x00000000	0.0
15	0x00000000	0.0
16	0x00000000	0.0
17	0x00000000	0.0
18	0x00000000	0.0
19	0x00000000	0.0
20	0x00000000	0.0
21	0x00000000	0.0
22	0x00000000	0.0
23	0x00000000	0.0
24	0x00000000	0.0
25	0x00000000	0.0
26	0x00000000	0.0
27	0x00000000	0.0
28	0x00000000	0.0
29	0x00000000	0.0
30	0x00000000	0.0
31	0x00000000	0.0
32	0x00000000	0.0
33	0x00000000	0.0
34	0x00000000	0.0
35	0x00000000	0.0
36	0x00000000	0.0
37	0x00000000	0.0
38	0x00000000	0.0
39	0x00000000	0.0
40	0x00000000	0.0
41	0x00000000	0.0
42	0x00000000	0.0
43	0x00000000	0.0
44	0x00000000	0.0
45	0x00000000	0.0
46	0x00000000	0.0
47	0x00000000	0.0
48	0x00000000	0.0
49	0x00000000	0.0
50	0x00000000	0.0
51	0x00000000	0.0
52	0x00000000	0.0
53	0x00000000	0.0
54	0x00000000	0.0
55	0x00000000	0.0
56	0x00000000	0.0
57	0x00000000	0.0
58	0x00000000	0.0
59	0x00000000	0.0
60	0x00000000	0.0
61	0x00000000	0.0
62	0x00000000	0.0
63	0x00000000	0.0
64	0x00000000	0.0
65	0x00000000	0.0
66	0x00000000	0.0
67	0x00000000	0.0
68	0x00000000	0.0
69	0x00000000	0.0
70	0x00000000	0.0
71	0x00000000	0.0
72	0x00000000	0.0
73	0x00000000	0.0
74	0x00000000	0.0
75	0x00000000	0.0
76	0x00000000	0.0
77	0x00000000	0.0
78	0x00000000	0.0
79	0x00000000	0.0
80	0x00000000	0.0
81	0x00000000	0.0
82	0x00000000	0.0
83	0x00000000	0.0
84	0x00000000	0.0
85	0x00000000	0.0
86	0x00000000	0.0
87	0x00000000	0.0
88	0x00000000	0.0
89	0x00000000	0.0
90	0x00000000	0.0
91	0x00000000	0.0
92	0x00000000	0.0
93	0x00000000	0.0
94	0x00000000	0.0
95	0x00000000	0.0
96	0x00000000	0.0
97	0x00000000	0.0
98	0x00000000	0.0
99	0x00000000	0.0
100	0x00000000	0.0
101	0x00000000	0.0
102	0x00000000	0.0
103	0x00000000	0.0
104	0x00000000	0.0
105	0x00000000	0.0
106	0x00000000	0.0
107	0x00000000	0.0
108	0x00000000	0.0
109	0x00000000	0.0
110	0x00000000	0.0
111	0x00000000	0.0
112	0x00000000	0.0
113	0x00000000	0.0
114	0x00000000	0.0
115	0x00000000	0.0
116	0x00000000	0.0
117	0x00000000	0.0
118	0x00000000	0.0
119	0x00000000	0.0
120	0x00000000	0.0
121	0x00000000	0.0
122	0x00000000	0.0
123	0x00000000	0.0
124	0x00000000	0.0
125	0x00000000	0.0
126	0x00000000	0.0
127	0x00000000	0.0
128	0x00000000	0.0
129	0x00000000	0.0
130	0x00000000	0.0
131	0x00000000	0.0
132	0x00000000	0.0
133	0x00000000	0.0
134	0x00000000	0.0
135	0x00000000	0.0
136	0x00000000	0.0
137	0x00000000	0.0
138	0x00000000	0.0
139	0x00000000	0.0
140	0x00000000	0.0
141	0x00000000	0.0
142	0x00000000	0.0
143	0x00000000	0.0
144	0x00000000	0.0
145	0x00000000	0.0
146	0x00000000	0.0
147	0x00000000	0.0
148	0x00000000	0.0
149	0x00000000	0.0
150	0x00000000	0.0
151	0x00000000	0.0
152	0x00000000	0.0
153	0x00000000	0.0
154	0x00000000	0.0
155	0x00000000	0.0
156	0x00000000	0.0
157	0x00000000	0.0
158	0x00000000	0.0
159	0x00000000	0.0
160	0x00000000	0.0
161	0x00000000	0.0
162	0x00000000	0.0
163	0x00000000	0.0
164	0x00000000	0.0
165	0x00000000	0.0
166	0x00000000	0.0
167	0x00000000	0.0
168	0x00000000	0.0
169	0x00000000	0.0
170	0x00000000	0.0
171	0x00000000	0.0
172	0x00000000	0.0
173	0x00000000	0.0
174	0x00000000	0.0

_ei_mask f4 [175]
0	0x3f800000	1.0
1	0x3f800000	1.0
2	0x3f800000	1.0
3	0x3f800000	1.0
4	0x3f800000	1.0
5	0x3f800000	1.0
6	0x3f800000	1.0
7	0x3f800000	1.0
8	0x3f800000	1.0
9	0x3f800000	1.0
10	0x3f800000	1.0
11	0x3f800000	1.0
12	0x3f800000	1.0
13	0x3f800000	1.0
14	0x3f800000	1.0
15	0x3f800000	1.0
16	0x3f800000	1.0
17	0x3f800000	1.0
18	0x3f800000	1.0
19	0x3f800000	1.0
20	0x3f800000	1.0
21	0x3f800000	1.0
22	0x3f800000	1.0
23	0x3f800000	1.0
24	0x3f800000	1.0
25	0x3f800000	1.0
26	0x3f800000	1.0
27	0x3f800000	1.0
28	0x3f800000	1.0
29	0x3f800000	1.0
30	0x3f800000	1.0
31	0x3f800000	1.0
32	0x3f800000	1.0
33	0x3f800000	1.0
34	0x3f800000	1.0
35	0x3f800000	1.0
36	0x3f800000	1.0
37	0x3f800000	1.0
38	0x3f800000	1.0
39	0x3f800000	1.0
40	0x3f800000	1.0
41	0x3f800000	1.0
42	0x3f800000	1.0
43	0x3f800000	1.0
44	0x3f800000	1.0
45	0x3f800000	1.0
46	0x3f800000	1.0
47	0x3f800000	1.0
48	0x3f800000	1.0
49	0x3f800000	1.0
50	0x3f800000	1.0
51	0x3f800000	1.0
52	0x3f800000	1.0
53	0x3f800000	1.0
54	0x3f800000	1.0
55	0x3f800000	1.0
56	0x3f800000	1.0
57	0x3f800000	1.0
58	0x3f800000	1.0
59	0x3f800000	1.0
60	0x3f800000	1.0
61	0x3f800000	1.0
62	0x3f800000	1.0
63	0x3f800000	1.0
64	0x3f800000	1.0
65	0x3f800000	1.0
66	0x3f800000	1.0
67	0x3f800000	1.0
68	0x3f800000	1.0
69	0x3f800000	1.0
70	0x3f800000	1.0
71	0x3f800000	1.0
72	0x3f800000	1.0
73	0x3f800000	1.0
74	0x3f800000	1.0
75	0x3f800000	1.0
76	0x3f800000	1.0
77	0x3f800000	1.0
78	0x3f800000	1.0
79	0x3f800000	1.0
80	0x3f800000	1.0
81	0x3f800000	1.0
82	0x3f800000	1.0
83	0x3f800000	1.0
84	0x3f800000	1.0
85	0x3f800000	1.0
86	0x3f800000	1.0
87	0x3f800000	1.0
88	0x3f800000	1.0
89	0x3f800000	1.0
90	0x3f800000	1.0
91	0x3f800000	1.0
92	0x3f800000	1.0
93	0x3f800000	1.0
94	0x3f800000	1.0
95	0x3f800000	1.0
96	0x3f800000	1.0
97	0x3f800000	1.0
98	0x3f800000	1.0
99	0x3f800000	1.0
100	0x3f800000	1.0
101	0x3f800000	1.0
102	0x3f800000	1.0
103	0x3f800000	1.0
104	0x3f800000	1.0
105	0x3f800000	1.0
106	0x3f800000	1.0
107	0x3f800000	1.0
108	0x3f800000	1.0
109	0x3f800000	1.0
110	0x3f800000	1.0
111	0x3f800000	1.0
112	0x3f800000	1.0
113	0x3f800000	1.0
114	0x3f800000	1.0
115	0x3f800000	1.0
116	0x3f800000	1.0
117	0x3f800000	1.0
118	0x3f800000	1.0
119	0x3f800000	1.0
120	0x3f800000	1.0
121	0x3f800000	1.0
122	0x3f800000	1.0
123	0x3f800000	1.0
124	0x3f800000	1.0
125	0x3f800000	1.0
126	0x3f800000	1.0
127	0x3f800000	1.0
128	0x3f800000	1.0
129	0x3f800000	1.0
130	0x3f800000	1.0
131	0x3f800000	1.0
132	0x3f800000	1.0
133	0x3f800000	1.0
134	0x3f800000	1.0
135	0x3f800000	1.0
136	0x3f800000	1.0
137	0x3f800000	1.0
138	0x3f800000	1.0
139	0x3f800000	1.0
140	0x3f800000	1.0
141	0x3f800000	1.0
142	0x3f800000	1.0
143	0x3f800000	1.0
144	0x3f800000	1.0
145	0x3f800000	1.0
146	0x3f800000	1.0
147	0x3f800000	1.0
148	0x3f800000	1.0
149	0x3f800000	1.0
150	0x3f800000	1.0
151	0x3f800000	1.0
152	0x3f800000	1.0
153	0x3f800000	1.0
154	0x3f800000	1.0
155	0x3f800000	1.0
156	0x3f800000	1.0
157	0x3f800000	1.0
158	0x3f800000	1.0
159	0x3f800000	1.0
160	0x3f800000	1.0
161	0x3f800000	1.0
162	0x3f800000	1.0
163	0x3f800000	1.0
164	0x3f800000	1.0
165	0x3f800000	1.0
166	0x3f800000	1.0
167	0x3f800000	1.0
168	0x3f800000	1.0
169	0x3f800000	1.0
170	0x3f800000	1.0
171	0x3f800000	1.0
172	0x3f800000	1.0
173	0x3f800000	1.0
174	0x3f800000	1.0

weight f4 [2, 175]
0	0x402f62c6	2.7404037
1	0x3fc84ca6	1.5648391
2	0x3f73fb3c	0.9530523
3	0x4049a163	3.1504753
4	0x3fc95103	1.5727848
5	0x4009429f	2.1446912
6	0x3fd15a0f	1.6355609
7	0x4073caae	3.8092456
8	0x3f279800	0.6546631
9	0x403fb1b5	2.9952214
10	0x3f31c787	0.6944508
11	0x3f6effe1	0.9335919
12	0x3e562516	0.20912585
13	0x3ef85720	0.4850397
14	0xb9e427b0	-0.00043517118
15	0x3f5a278f	0.8521661
16	0x3e8ce97f	0.27521893
17	0x3f9188d8	1.1369886
18	0x3e0343e5	0.12818868
19	0x4003b78d	2.058078
20	0x3fcba8a1	1.5910836
21	0x3feefc58	1.8670759
22	0x3fde28be	1.7356184
23	0x3f531601	0.8245545
24	0x4090b2af	4.521812
25	0x4078e34a	3.8888726
26	0xbf77f4b6	-0.96857774
27	0x3fc0fe41	1.5077592
28	0x3f5085e5	0.81454307
29	0x40353f83	2.8320014
30	0x400d21ac	2.2051802
31	0xbf083295	-0.5320218
32	0x3ec331cb	0.38123927
33	0x3f3534b5	0.7078355
34	0x3fe889c0	1.8167038
35	0x40313001	2.768555
36	0x400a70a4	2.163125
37	0x3f314251	0.69241816
38	0x3f150498	0.58210135
39	0x3f44c4be	0.76862705
40	0x3fe7db2e	1.8113763
41	0x402458d4	2.5679216
42	0x3f812967	1.009076
43	0xbf180c8a	-0.59394133
44	0x3f4d1cb7	0.8012194
45	0x3d6ad711	0.05733401
46	0x3f57ad64	0.8424895
47	0x3f2217eb	0.63317746
48	0x3e286d46	0.16447935
49	0x3fa5d91c	1.2956882
50	0x3f40b7ed	0.7528065
51	0x3ec03da2	0.37547022
52	0x3f468f5f	0.77562517
53	0x4000bd1f	2.011543
54	0x3f73ec4a	0.95282423
55	0xbf68a8a3	-0.9088232
56	0x3faa29ee	1.3294046
57	0xbf09f81e	-0.5389422
58	0x3f9ecb7c	1.2405849
59	0x3edca2ec	0.4309305
60	0x3fb3b902	1.4040835
61	0x3f61a9ea	0.88149893
62	0x3fad5446	1.3541343
63	0x3ff233fc	1.8922114
64	0x3eef9744	0.46795094
65	0x3f080c20	0.531435
66	0x3f342ec1	0.7038384
67	0xbefef35d	-0.49795046
68	0x3f53dc21	0.82757765
69	0x3fc21db5	1.5165316
70	0x3f46fda0	0.7773075
71	0x3fb6f1ed	1.429258
72	0x3fdc4ae5	1.7210356
73	0xbf171e5f	-0.5903072
74	0x3f7f9b6c	0.9984653
75	0xbd79ea1d	-0.061014283
76	0x3d5172e0	0.051134944
77	0x3fa9b28c	1.3257613
78	0xbecfcd45	-0.40586296
79	0x3f965711	1.174532
80	0x3fcdad87	1.6068581
81	0x3fc4ed50	1.5384922
82	0x3c7a5bf7	0.015280715
83	0x3fc642d2	1.5489142
84	0xbd4aa3ff	-0.049472805
85	0x3fa4a548	1.286294
86	0x402a70de	2.6631389
87	0x40617c5b	3.523215
88	0x3e0af31a	0.13569298
89	0x3faaf39c	1.3355594
90	0x401068eb	2.2564037
91	0x3fcfa153	1.6221107
92	0x3fa7c0ac	1.3105674
93	0x40104fc6	2.254869
94	0x3fb57223	1.4175457
95	0x3f7acf33	0.9797241
96	0x3fd829bf	1.688774
97	0x3f81d04a	1.014169
98	0x3ffb6a06	1.9641731
99	0x3e7ec32f	0.24879144
100	0x3eaa0b07	0.33211538
101	0xbf08e66b	-0.5347659
102	0x3f7ed212	0.9953929
103	0x3fb8309a	1.4389832
104	0x3f1acc32	0.6046783
105	0x3fa84a64	1.3147702
106	0xbeb19988	-0.34687448
107	0x3fcaa970	1.5832958
108	0x3f3a5013	0.72778434
109	0x401f3050	2.4873238
110	0x3ede8df7	0.43467686
111	0x3ffefb7d	1.9920498
112	0x3f0c682e	0.54846466
113	0x3f98c86a	1.1936162
114	0x3dc5f32a	0.096655205
115	0x3fc964fd	1.5733944
116	0xbd79e919	-0.061013315
117	0x3f9a63b0	1.2061672
118	0x40004bb3	2.0046203
119	0x3fb41508	1.4068918
120	0x4035c884	2.8403635
121	0x3fc99ba7	1.5750626
122	0x3f35e092	0.7104579
123	0x40016268	2.0216312
124	0x4043a864	3.0571527
125	0x3fb1e0e5	1.3896757
126	0x3ed75d71	0.42063478
127	0x3f872f35	1.0561281
128	0x3d74b185	0.05973961
129	0x3e958a64	0.29207146
130	0xbdc5c909	-0.09657485
131	0x3f3c24ae	0.7349347
132	0x3dad1a67	0.084523015
133	0x3fb6f4ac	1.4293418
134	0x3f1cbd5b	0.61226434
135	0x3f697a30	0.9120207
136	0x3fa2c9eb	1.271787
137	0x3f8d932e	1.1060541
138	0x3fda59ff	1.7058715
139	0x3f4617c7	0.7738003
140	0x3f63022f	0.88675207
141	0x3f1122d5	0.56693774
142	0x40020fbd	2.0322106
143	0x3ff29a23	1.8953289
144	0x3f429210	0.76004124
145	0xbd4c76db	-0.049918037
146	0x3f9fb46d	1.2476937
147	0x3e5616de	0.2090716
148	0x3ff31273	1.8990005
149	0x3e9d4362	0.30715472
150	0xbbad57ca	-0.0052900063
151	0x3f2693f3	0.650695
152	0x3fce3b73	1.6111892
153	0x3f395551	0.7239581
154	0x40176897	2.3657587
155	0x3fb6a5e6	1.4269378
156	0x3f2c3ce6	0.67280424
157	0x400b01dd	2.1719887
158	0x3e1a0161	0.15039589
159	0xbe352b28	-0.17692244
160	0x3ff0cb3e	1.8812025
161	0x3fa17297	1.2613095
162	0x3fd57fad	1.6679589
163	0x3cc2476b	0.023715695
164	0x3fbe86be	1.488487
165	0x3fd6dd55	1.6786295
166	0x3eb909d2	0.36140305
167	0x3fc34ebe	1.5258405
168	0x3ea25784	0.31707394
169	0x3ff595ba	1.9186318
170	0x3f7eeadb	0.9957711
171	0x3fc87240	1.5659866
172	0x3fd34b3c	1.6507335
173	0xbecc982c	-0.39959848
174	0x3f5db913	0.86610526
175	0x3f394403	0.723694
176	0x3fefddf5	1.8739611
177	0x3f484f8a	0.78246367
178	0x4023d8d7	2.5601099
179	0x3e21a894	0.15786964
180	0x400c41e1	2.191521
181	0x3f90862f	1.129095
182	0x40289865	2.6343014
183	0xbded47ec	-0.11585984
184	0x3fca748d	1.5816818
185	0x3f962ab0	1.1731777
186	0x3f4d9718	0.80308676
187	0x3fa599f3	1.2937607
188	0xbd2acf5a	-0.041701652
189	0xbeb83605	-0.35978714
190	0x3f0265b8	0.5093646
191	0xbe8ad852	-0.27118164
192	0x3f897c53	1.0741066
193	0xbe81f07c	-0.25378788
194	0x3fe1d9a6	1.7644546
195	0x3fa4dc4c	1.2879729
196	0x40107e60	2.2577133
197	0x3fc93d51	1.5721837
198	0x3f2bd9ae	0.6712903
199	0x3f8371f9	1.0269157
200	0x40262570	2.596035
201	0xbf6e80c5	-0.93165237
202	0x401dc5ae	2.4651904
203	0x3fef7122	1.87064
204	0x404c6936	3.1939216
205	0x3fadb9fe	1.3572385
206	0xbf042cd4	-0.516309
207	0x3eee138e	0.46499294
208	0xbe46939a	-0.19392243
209	0x3fa67a27	1.3006028
210	0x40113979	2.2691329
211	0x4005b4af	2.089153
212	0x3f59d141	0.8508492
213	0xbdf70ebb	-0.120633565
214	0x3f67ab75	0.90496
215	0x3ea1e5d7	0.31620666
216	0x3ffbbce8	1.9667025
217	0x3e4583f5	0.19288619
218	0x3e79d275	0.24396689
219	0x3dd9bfc5	0.1063228
220	0x3f97ac69	1.184949
221	0x3f6413ab	0.8909251
222	0x3ea01a39	0.31270006
223	0xbe2c3efd	-0.16820903
224	0xbc2b90b1	-0.010471509
225	0xbf87c5d3	-1.0607246
226	0xbf96b4fa	-1.177398
227	0x3dbfd761	0.09367252
228	0x3fb01aa9	1.3758136
229	0x3f32c7ee	0.6983632
230	0x3ea4b0cd	0.32166138
231	0x3f9fc422	1.248173
232	0xbf201688	-0.6253438
233	0x3f302599	0.6880737
234	0xbf9df2c8	-1.2339716
235	0x3f83badd	1.0291401
236	0x3f5014de	0.8128184
237	0x3f2b803e	0.6699256
238	0x4038bc27	2.886484
239	0x3f584c38	0.844913
240	0x3ef5eba3	0.4803134
241	0x3f8befb3	1.0932525
242	0xbd874a63	-0.06605985
243	0x3f51a851	0.81897455
244	0x3f943850	1.1579685
245	0x3f7df113	0.99195975
246	0x3fa31c6b	1.2743047
247	0x3fc809b8	1.5627966
248	0xbe643054	-0.2228406
249	0x3f6d0e53	0.9259998
250	0x3da4fe7d	0.08056352
251	0x3e52e429	0.20594849
252	0x3fa15cda	1.2606461
253	0xbf07038f	-0.52739805
254	0x3ecdee8a	0.40221053
255	0x3fad22aa	1.3526204

bias f4 [175]
0	0x00000000	0.0
1	0x00000000	0.0
2	0x00000000	0.0
3	0x00000000	0.0
4	0x00000000	0.0
5	0x00000000	0.0
6	0x00000000	0.0
7	0x00000000	0.0
8	0x00000000	0.0
9	0x00000000	0.0
10	0x00000000	0.0
11	0x00000000	0.0
12	0x00000000	0.0
13	0x00000000	0.0
14	0x00000000	0.0
15	0x00000000	0.0
16	0x00000000	0.0
17	0x00000000	0.0
18	0x00000000	0.0
19	0x00000000	0.0
20	0x00000000	0.0
21	0x00000000	0.0
22	0x00000000	0.0
23	0x00000000	0.0
24	0x00000000	0.0
25	0x00000000	0.0
26	0x00000000	0.0
27	0x00000000	0.0
28	0x00000000	0.0
29	0x00000000	0.0
30	0x00000000	0.0
31	0x00000000	0.0
32	0x00000000	0.0
33	0x00000000	0.0
34	0x00000000	0.0
35	0x00000000	0.0
36	0x00000000	0.0
37	0x00000000	0.0
38	0x00000000	0.0
39	0x00000000	0.0
40	0x00000000	0.0
41	0x00000000	0.0
42	0x00000000	0.0
43	0x00000000	0.0
44	0x00000000	0.0
45	0x00000000	0.0
46	0x00000000	0.0
47	0x00000000	0.0
48	0x00000000	0.0
49	0x00000000	0.0
50	0x00000000	0.0
51	0x00000000	0.0
52	0x00000000	0.0
53	0x00000000	0.0
54	0x00000000	0.0
55	0x00000000	0.0
56	0x00000000	0.0
57	0x00000000	0.0
58	0x00000000	0.0
59	0x00000000	0.0
60	0x00000000	0.0
61	0x00000000	0.0
62	0x00000000	0.0
63	0x00000000	0.0
64	0x00000000	0.0
65	0x00000000	0.0
66	0x00000000	0.0
67	0x00000000	0.0
68	0x00000000	0.0
69	0x00000000	0.0
70	0x00000000	0.0
71	0x00000000	0.0
72	0x00000000	0.0
73	0x00000000	0.0
74	0x00000000	0.0
75	0x00000000	0.0
76	0x00000000	0.0
77	0x00000000	0.0
78	0x00000000	0.0
79	0x00000000	0.0
80	0x00000000	0.0
81	0x00000000	0.0
82	0x00000000	0.0
83	0x00000000	0.0
84	0x00000000	0.0
85	0x00000000	0.0
86	0x00000000	0.0
87	0x00000000	0.0
88	0x00000000	0.0
89	0x00000000	0.0
90	0x00000000	0.0
91	0x00000000	0.0
92	0x00000000	0.0
93	0x00000000	0.0
94	0x00000000	0.0
95	0x00000000	0.0
96	0x00000000	0.0
97	0x00000000	0.0
98	0x00000000	0.0
99	0x00000000	0.0
100	0x00000000	0.0
101	0x00000000	0.0
102	0x00000000	0.0
103	0x00000000	0.0
104	0x00000000	0.0
105	0x00000000	0.0
106	0x00000000	0.0
107	0x00000000	0.0
108	0x00000000	0.0
109	0x00000000	0.0
110	0x00000000	0.0
111	0x00000000	0.0
112	0x00000000	0.0
113	0x00000000	0.0
114	0x00000000	0.0
115	0x00000000	0.0
116	0x00000000	0.0
117	0x00000000	0.0
118	0x00000000	0.0
119	0x00000000	0.0
120	0x00000000	0.0
121	0x00000000	0.0
122	0x00000000	0.0
123	0x00000000	0.0
124	0x00000000	0.0
125	0x00000000	0.0
126	0x00000000	0.0
127	0x00000000	0.0
128	0x00000000	0.0
129	0x00000000	0.0
130	0x00000000	0.0
131	0x00000000	0.0
132	0x00000000	0.0
133	0x00000000	0.0
134	0x00000000	0.0
135	0x00000000	0.0
136	0x00000000	0.0
137	0x00000000	0.0
138	0x00000000	0.0
139	0x00000000	0.0
140	0x00000000	0.0
141	0x00000000	0.0
142	0x00000000	0.0
143	0x00000000	0.0
144	0x00000000	0.0
145	0x00000000	0.0
146	0x00000000	0.0
147	0x00000000	0.0
148	0x00000000	0.0
149	0x00000000	0.0
150	0x00000000	0.0
151	0x00000000	0.0
152	0x00000000	0.0
153	0x00000000	0.0
154	0x00000000	0.0
155	0x00000000	0.0
156	0x00000000	0.0
157	0x00000000	0.0
158	0x00000000	0.0
159	0x00000000	0.0
160	0x00000000	0.0
161	0x00000000	0.0
162	0x00000000	0.0
163	0x00000000	0.0
164	0x00000000	0.0
165	0x00000000	0.0
166	0x00000000	0.0
167	0x00000000	0.0
168	0x00000000	0.0
169	0x00000000	0.0
170	0x00000000	0.0
171	0x00000000	0.0
172	0x00000000	0.0
173	0x00000000	0.0
174	0x00000000	0.0

_ei_mask f4 [175]
0	0x3f800000	1.0
1	0x3f800000	1.0
2	0x3f800000	1.0
3	0x3f800000	1.0
4	0x3f800000	1.0
5	0x3f800000	1.0
6	0x3f800000	1.0
7	0x3f800000	1.0
8	0x3f800000	1.0
9	0x3f800000	1.0
10	0x3f800000	1.0
11	0x3f800000	1.0
12	0x3f800000	1.0
13	0x3f800000	1.0
14	0x3f800000	1.0
15	0x3f800000	1.0
16	0x3f800000	1.0
17	0x3f800000	1.0
18	0x3f800000	1.0
19	0x3f800000	1.0
20	0x3f800000	1.0
21	0x3f800000	1.0
22	0x3f800000	1.0
23	0x3f800000	1.0
24	0x3f800000	1.0
25	0x3f800000	1.0
26	0x3f800000	1.0
27	0x3f800000	1.0
28	0x3f800000	1.0
29	0x3f800000	1.0
30	0x3f800000	1.0
31	0x3f800000	1.0
32	0x3f800000	1.0
33	0x3f800000	1.0
34	0x3f800000	1.0
35	0x3f800000	1.0
36	0x3f800000	1.0
37	0x3f800000	1.0
38	0x3f800000	1.0
39	0x3f800000	1.0
40	0x3f800000	1.0
41	0x3f800000	1.0
42	0x3f800000	1.0
43	0x3f800000	1.0
44	0x3f800000	1.0
45	0x3f800000	1.0
46	0x3f800000	1.0
47	0x3f800000	1.0
48	0x3f800000	1.0
49	0x3f800000	1.0
50	0x3f800000	1.0
51	0x3f800000	1.0
52	0x3f800000	1.0
53	0x3f800000	1.0
54	0x3f800000	1.0
55	0x3f800000	1.0
56	0x3f800000	1.0
57	0x3f800000	1.0
58	0x3f800000	1.0
59	0x3f800000	1.0
60	0x3f800000	1.0
61	0x3f800000	1.0
62	0x3f800000	1.0
63	0x3f800000	1.0
64	0x3f800000	1.0
65	0x3f800000	1.0
66	0x3f800000	1.0
67	0x3f800000	1.0
68	0x3f800000	1.0
69	0x3f800000	1.0
70	0x3f800000	1.0
71	0x3f800000	1.0
72	0x3f800000	1.0
73	0x3f800000	1.0
74	0x3f800000	1.0
75	0x3f800000	1.0
76	0x3f800000	1.0
77	0x3f800000	1.0
78	0x3f800000	1.0
79	0x3f800000	1.0
80	0x3f800000	1.0
81	0x3f800000	1.0
82	0x3f800000	1.0
83	0x3f800000	1.0
84	0x3f800000	1.0
85	0x3f800000	1.0
86	0x3f800000	1.0
87	0x3f800000	1.0
88	0x3f800000	1.0
89	0x3f800000	1.0
90	0x3f800000	1.0
91	0x3f800000	1.0
92	0x3f800000	1.0
93	0x3f800000	1.0
94	0x3f800000	1.0
95	0x3f800000	1.0
96	0x3f800000	1.0
97	0x3f800000	1.0
98	0x3f800000	1.0
99	0x3f800000	1.0
100	0x3f800000	1.0
101	0x3f800000	1.0
102	0x3f800000	1.0
103	0x3f800000	1.0
104	0x3f800000	1.0
105	0x3f800000	1.0
106	0x3f800000	1.0
107	0x3f800000	1.0
108	0x3f800000	1.0
109	0x3f800000	1.0
110	0x3f800000	1.0
111	0x3f800000	1.0
112	0x3f800000	1.0
113	0x3f800000	1.0
114	0x3f800000	1.0
115	0x3f800000	1.0
116	0x3f800000	1.0
117	0x3f800000	1.0
118	0x3f800000	1.0
119	0x3f800000	1.0
120	0x3f800000	1.0
121	0x3f800000	1.0
122	0x3f800000	1.0
123	0x3f800000	1.0
124	0x3f800000	1.0
125	0x3f800000	1.0
126	0x3f800000	1.0
127	0x3f800000	1.0
128	0x3f800000	1.0
129	0x3f800000	1.0
130	0x3f800000	1.0
131	0x3f800000	1.0
132	0x3f800000	1.0
133	0x3f800000	1.0
134	0x3f800000	1.0
135	0x3f800000	1.0
136	0x3f800000	1.0
137	0x3f800000	1.0
138	0x3f800000	1.0
139	0x3f800000	1.0
140	0x3f800000	1.0
141	0x3f800000	1.0
142	0x3f800000	1.0
143	0x3f800000	1.0
144	0x3f800000	1.0
145	0x3f800000	1.0
146	0x3f800000	1.0
147	0x3f800000	1.0
148	0x3f800000	1.0
149	0x3f800000	1.0
150	0x3f800000	1.0
151	0x3f800000	1.0
152	0x3f800000	1.0
153	0x3f800000	1.0
154	0x3f800000	1.0
155	0x3f800000	1.0
156	0x3f800000	1.0
157	0x3f800000	1.0
158	0x3f800000	1.0
159	0x3f800000	1.0
160	0x3f800000	1.0
161	0x3f800000	1.0
162	0x3f800000	1.0
163	0x3f800000	1.0
164	0x3f800000	1.0
165	0x3f800000	1.0
166	0x3f800000	1.0
167	0x3f800000	1.0
168	0x3f800000	1.0
169	0x3f800000	1.0
170	0x3f800000	1.0
171	0x3f800000	1.0
172	0x3f800000	1.0
173	0x3f800000	1.0
174	0x3f800000	1.0

weight f4 [175, 3]
0	0xc090cdfa	-4.5251436
1	0x40862642	4.19217
2	0x403713f8	2.8605938
3	0x4024fe28	2.5780125
4	0x4014d53b	2.3255146
5	0xc075a6b3	-3.8382995
6	0xc0290dff	-2.6414793
7	0x3f744af8	0.95426893
8	0xc094b393	-4.6469207
9	0xc0b23331	-5.568749
10	0x40f0d370	7.5258102
11	0x40cb4ab6	6.35287
12	0x40713496	3.7688346
13	0xc08cce34	-4.4001713
14	0x40a32df9	5.099362
15	0xc06cbc70	-3.6990013
16	0xc028c0e3	-2.6367729
17	0xc0612d54	-3.5183916
18	0x40614ebb	3.5204303
19	0x4039fd70	2.9060936
20	0xc0d30c7c	-6.595274
21	0x3f2db5ff	0.6785583
22	0xbe4efab0	-0.20212817
23	0xbe6b7bc3	-0.2299643
24	0x3f2057f8	0.6263423
25	0xc1112e3b	-9.073787
26	0x40754c7d	3.8327935
27	0xbe112ffe	-0.14178464
28	0x3fcf17d7	1.617915
29	0x3fbc04ab	1.4688925
30	0x3f77a3d4	0.96734357
31	0xbfd86efd	-1.6908871
32	0x40233609	2.550173
33	0x408fd12b	4.494283
34	0x40c18b1f	6.0482326
35	0xc0b8168b	-5.752752
36	0xc0c4f3b3	-6.1547484
37	0xc13707af	-11.439376
38	0xbd5ec47d	-0.054386605
39	0x40003eac	2.0038252
40	0xbfd0150d	-1.6256424
41	0x4010d801	2.2631838
42	0x404ee8c9	3.232958
43	0x40a0dcd0	5.0269547
44	0xc00ddc08	-2.2165546
45	0x40bf86d1	5.985207
46	0xbf605691	-0.8763209
47	0x406b1d25	3.6736538
48	0x3fc95206	1.5728157
49	0x4084fe73	4.1560607
50	0xbf2f8200	-0.6855774
51	0xbe641f58	-0.22277582
52	0xbfeb087f	-1.8361968
53	0x406e56ae	3.7240405
54	0x40886c01	4.263184
55	0x405e2193	3.4707992
56	0xc00a3a8a	-2.159823
57	0x3f81eda6	1.015065
58	0x3e825443	0.25454912
59	0xbfe79fd9	-1.8095657
60	0xc062c95f	-3.5435407
61	0x4031b0f9	2.7764266
62	0x3fc4beba	1.5370705
63	0xc0f36be0	-7.6069183
64	0x404f7f12	3.2421308
65	0x3e74258e	0.23842451
66	0xc05989d3	-3.3990371
67	0x3fd2d7dd	1.6472126
68	0x403f7057	2.9912317
69	0xbef03321	-0.46914008
70	0x3ca8eb10	0.020619899
71	0xc0ee316e	-7.443534
72	0xbf3c63e2	-0.7358991
73	0xc0d945ca	-6.789769
74	0x408e7335	4.4515634
75	0x40db3b40	6.8509827
76	0x41119a24	9.100132
77	0xbff6793a	-1.9255745
78	0x406ae5cf	3.6702764
79	0xc0842e5e	-4.13066
80	0x3f204944	0.62611794
81	0xc04e3bd7	-3.2224023
82	0x3ff1b7dd	1.8884236
83	0x40c64d54	6.1969395
84	0x3ef61fc2	0.48071104
85	0x404ab5c2	3.1673436
86	0x3fea3b70	1.8299389
87	0xc052cc80	-3.2937317
88	0xbf1734fc	-0.5906522
89	0xc0472e85	-3.1122143
90	0xc03e5b8d	-2.9743378
91	0xbe40d83b	-0.18832485
92	0x40729df1	3.79089
93	0x410764b8	8.46209
94	0xc02efd19	-2.7341979
95	0xc0549447	-3.3215501
96	0xbf111d2f	-0.56685156
97	0xc09124db	-4.535749
98	0xbf165dda	-0.58736956
99	0x3ff1b75a	1.888408
100	0x4001a867	2.0259035
101	0x40e0f67d	7.030089
102	0xbfb0a7b8	-1.3801184
103	0x4049be0f	3.1522253
104	0x40a636ee	5.1942053
105	0x409774d4	4.7330112
106	0x404fbaf7	3.2457864
107	0xc0cdbaf2	-6.4290705
108	0xc110b166	-9.04331
109	0x40d66574	6.6998844
110	0xbe7c86a4	-0.24660736
111	0xbffcc6a0	-1.9748116
112	0x3faf992d	1.371862
113	0xc04956ed	-3.1459305
114	0x409a7efb	4.8280005
115	0xc082caa6	-4.0872374
116	0xc03a8a3e	-2.9146876
117	0x400c2783	2.1899116
118	0x3e0b36b2	0.13595083
119	0x409f7f07	4.9842563
120	0xbe9c0bcc	-0.3047775
121	0x40221385	2.5324414
122	0xc0b16dc3	-5.5446486
123	0xc04baae9	-3.1823065
124	0x3feeba19	1.8650542
125	0xc0677c61	-3.6169665
126	0xc08a74af	-4.3267436
127	0xbf43b54e	-0.76448524
128	0xbfc188b6	-1.5119846
129	0x3ec01095	0.3751265
130	0xc01aa8b4	-2.4165468
131	0xbe960584	-0.29301083
132	0x40d4328b	6.63117
133	0xc07c4900	-3.9419556
134	0x40d4fd19	6.6558957
135	0x3c1800f4	0.009277571
136	0x3fa5fc05	1.2967535
137	0xbdbe9fae	-0.093078
138	0xc06c91fb	-3.69641
139	0xbe5a2a91	-0.213053
140	0x401434d1	2.3157237
141	0x3fdeaa63	1.7395748
142	0xc04b2e84	-3.174714
143	0xc06a308e	-3.6592135
144	0x3fe4ed05	1.7884833
145	0xc00e5164	-2.2237177
146	0xbfead487	-1.8346108
147	0x3fba61fd	1.4561154
148	0x3fe7e7e5	1.8117644
149	0xc0556a7b	-3.334624
150	0x3ffd5274	1.9790788
151	0xc16067b6	-14.02532
152	0x3ff4e1f9	1.9131461
153	0xc060e03c	-3.5136862
154	0xc172647a	-15.14953
155	0x3efd7a05	0.49507156
156	0xbf09b198	-0.5378661
157	0xbef2c862	-0.47418505
158	0xbf854e11	-1.0414449
159	0xc00f83f2	-2.2424283
160	0xbea47455	-0.32120004
161	0x404b8b34	3.1803713
162	0xc0d84d87	-6.759464
163	0x4072cf06	3.7938857
164	0x40064a6f	2.098293
165	0x40a5e90e	5.184699
166	0xc0c564fa	-6.1685762
167	0xc0ae9c8f	-5.456611
168	0xbfd428a0	-1.6574898
169	0xbf4f548a	-0.8098837
170	0xc0304e38	-2.754774
171	0x40a52c8e	5.161689
172	0xc01630e3	-2.3467338
173	0xc0c0d07a	-6.025449
174	0xc064d0dd	-3.575248
175	0x40843c46	4.1323576
176	0xc091b2fe	-4.5530996
177	0x40fba1db	7.8635077
178	0x40606c89	3.5066245
179	0xbd5c5ee7	-0.053801443
180	0xc09c21a3	-4.879106
181	0xbf09459c	-0.5362184
182	0x4046e252	3.1075635
183	0x3ec3b783	0.38225946
184	0xbed68af3	-0.41902885
185	0xc036f3ce	-2.8586307
186	0xbf62ceba	-0.8859669
187	0x3f9fe1b6	1.2490757
188	0xc04a1f09	-3.1581442
189	0xc0e07102	-7.013795
190	0xc0101a1d	-2.2515938
191	0xbf191073	-0.59790725
192	0x40bb2241	5.8479314
193	0x3f58558c	0.84505534
194	0x4068bba9	3.6364539
195	0xbf9b49ab	-1.2131857
196	0xbd748b62	-0.05970324
197	0xc00300b8	-2.0469189
198	0x3f14a6aa	0.5806681
199	0x40773cd9	3.8630888
200	0xc00452b4	-2.0675478
201	0x40359100	2.836975
202	0xc0190d7e	-2.3914485
203	0x40640b20	3.563179
204	0xc0955466	-4.6665525
205	0x3f9095dd	1.1295735
206	0x400f7c70	2.24197
207	0x400bb744	2.1830606
208	0x3f8cef63	1.1010555
209	0xc0084d27	-2.129709
210	0xbe9a38ee	-0.3012156
211	0x40c06353	6.0121245
212	0x408877f8	4.2646446
213	0xc0a6f2c6	-5.2171354
214	0x3f918b5f	1.1370658
215	0xc0c29151	-6.080239
216	0xc10da25d	-8.852139
217	0x403e592f	2.9741933
218	0x3fe6e744	1.8039327
219	0x40c38797	6.1103015
220	0x3fc6adbc	1.552177
221	0xc0d3dc9d	-6.6206803
222	0xc0d1adeb	-6.55248
223	0x3e934cb1	0.28769448
224	0xc016d9a2	-2.3570333
225	0x40905d99	4.5114255
226	0x401ec006	2.4804702
227	0xc0a253f9	-5.0727506
228	0x40550619	3.3284972
229	0x4042fd05	3.046693
230	0xc0994af1	-4.790398
231	0xc0f86455	-7.7622476
232	0x3f210aac	0.6290691
233	0x3fcde454	1.6085305
234	0x40ea0311	7.3128743
235	0x407dcb04	3.965516
236	0x3f1aa313	0.6040508
237	0x4076c8a1	3.8559954
238	0xc024360e	-2.5657992
239	0x3e198cbd	0.14995094
240	0xc010993f	-2.2593534
241	0x402fdc60	2.7478256
242	0xc07d29ab	-3.9556682
243	0x40b7c181	5.742371
244	0x3ffca025	1.9736372
245	0xbe29b24a	-0.16571918
246	0x40b0b26d	5.5217805
247	0x40284a48	2.6295338
248	0xc0cf0e53	-6.4704986
249	0x3f53e2ec	0.8276813
250	0xc0511320	-3.2667923
251	0x40c59c5f	6.1753383
252	0x40b8923c	5.767851
253	0x402a558b	2.6614711
254	0xc099efbf	-4.810516
255	0xc0a661d7	-5.1994433

bias f4 [3]
0	0x00000000	0.0
1	0x00000000	0.0
2	0x00000000	0.0

_ei_mask f4 [3]
0	0x3f800000	1.0
1	0x3f800000	1.0
2	0x3f800000	1.0

weight f4 [3, 175]
0	0xbdbf1bf6	-0.09331505
1	0x3dca67e8	0.098831
2	0xbd8a0b3c	-0.06740424
3	0xbe1e74c7	-0.15474235
4	0xbe20c106	-0.15698633
5	0x3b5da612	0.003382091
6	0x3dee2aa9	0.116292305
7	0x3d530fc8	0.051528722
8	0x3e1fb14a	0.15594974
9	0x3e00cf40	0.1257906
10	0x3d12ae57	0.035810795
11	0x3e42fd8c	0.19042033
12	0xbe0d1f7b	-0.1378154
13	0x3d25080d	0.04029088
14	0x3db150fd	0.086580254
15	0x3dc5e8b9	0.09663529
16	0x3d9626f3	0.07331648
17	0xbdbbc93a	-0.0916924
18	0x3dad65d0	0.08466685
19	0x3e5b82e0	0.21436644
20	0xbe0ffa7c	-0.14060396
21	0xbe05f415	-0.13081391
22	0xbcb12661	-0.021624746
23	0xbd488ee4	-0.048964396
24	0xbc3459dc	-0.011007752
25	0x3e42c5c1	0.1902075
26	0x3e9b17bf	0.30291554
27	0xbd2609d7	-0.040536728
28	0x3d2bcfe6	0.041946314
29	0xbe5a140c	-0.2129671
30	0xbd38d179	-0.045121644
31	0x3e4ed9bd	0.20200248
32	0x3dc4c097	0.09607046
33	0x3ea29764	0.31756127
34	0xbe61147d	-0.21980472
35	0x3cb80e6d	0.022467816
36	0xbe22e5a8	-0.1590792
37	0x3cd4c3a0	0.025972188
38	0x3e378432	0.17921522
39	0x3df712d7	0.1206414
40	0xbc986b08	-0.018605724
41	0xbe0679bd	-0.13132377
42	0xbd19fde2	-0.037595637
43	0x3d73f9b4	0.059564307
44	0x3d86c059	0.06579656
45	0x3d787aae	0.06066387
46	0xbdd10146	-0.10205321
47	0xbd538ffa	-0.05165098
48	0x3d53c86e	0.051704817
49	0xbca4d750	-0.0201222
50	0xbdc3d735	-0.09562532
51	0xbd5f7f17	-0.05456456
52	0x3d75b841	0.05999017
53	0xbe10e566	-0.14150009
54	0xbd53593e	-0.05159878
55	0x3d103c7a	0.035213925
56	0xbdacbe30	-0.08434713
57	0x3e7773a0	0.24165201
58	0xbd966e29	-0.0734523
59	0x3ea732ef	0.32656047
60	0xbdd7d46b	-0.105385624
61	0xbd894564	-0.06702688
62	0xbda72370	-0.08161056
63	0xbe8e22fd	-0.2776107
64	0xbc8e2b16	-0.01735453
65	0x3d4fae4b	0.050703328
66	0x3c8d7dd6	0.017271917
67	0x3db2e135	0.08734361
68	0xbd15fa61	-0.036615733
69	0x3d3c7dc8	0.04601839
70	0xbc9e86f7	-0.019351466
71	0xbc171bde	-0.009222953
72	0xbc80a397	-0.015703006
73	0x3e1c2cbc	0.1525144
74	0x3b95b934	0.004569197
75	0x3e13773f	0.14400958
76	0x3df4046f	0.11914908
77	0x3aa37046	0.0012469373
78	0x3e1f72a5	0.15571077
79	0x3db547e7	0.08851605
80	0xbc15d137	-0.009144119
81	0x3dc3f47c	0.09568116
82	0x3e2663b2	0.16248968
83	0x3d6bf2e5	0.05760469
84	0x3e0ed7d5	0.13949521
85	0xbb4b4e01	-0.0031021836
86	0x3d53ccbe	0.05170893
87	0x3d189f4d	0.037261296
88	0xbe2a2e4d	-0.16619225
89	0x3d27ed29	0.040997658
90	0xbd6ea43e	-0.058262102
91	0xbd58d3f8	-0.052936524
92	0x3c57c818	0.013170265
93	0xbe08b04e	-0.13348505
94	0xbb20b45b	-0.0024521563
95	0xbd478213	-0.048708033
96	0x3e5672dd	0.20942254
97	0xbd513504	-0.05107595
98	0xbda44436	-0.08020823
99	0x3dd414bc	0.10355517
100	0x3e42f79a	0.19039765
101	0x3e87a312	0.264916
102	0xbdfcfd76	-0.12353031
103	0xbd8ef9e5	-0.06981257
104	0xbcadb926	-0.02120645
105	0xbe44700f	-0.19183372
106	0x3ea80272	0.32814366
107	0x3d4e32a2	0.050341256
108	0xbdb309c3	-0.08742096
109	0x3d121e38	0.03567335
110	0xbd2d0083	-0.042236816
111	0xbdf0a87a	-0.11750884
112	0x3d8b9773	0.06815996
113	0x3e250c12	0.16117886
114	0x3dfdaa2f	0.123859756
115	0x3dd686f6	0.104749605
116	0x3e46fed0	0.19433141
117	0x3cef5486	0.029215109
118	0x3d3d6871	0.04624218
119	0x3dd32eab	0.103116356
120	0x3d5aaab6	0.05338546
121	0x3d626b1c	0.05527793
122	0x3d839eb3	0.06426754
123	0xbc89a09d	-0.01680022
124	0x3d8bcbc7	0.06825977
125	0xbd14c570	-0.036321104
126	0x3c38bec9	0.0112759555
127	0xbd8b9289	-0.06815059
128	0x3dc8e691	0.09809602
129	0x3dede003	0.116149925
130	0x3d9e1ce5	0.07720355
131	0xbd9c23b2	-0.07623996
132	0x3e0b5c4e	0.1360943
133	0x3db3c8eb	0.087785564
134	0xbcba049a	-0.022707272
135	0xbd030fdd	-0.03199755
136	0xbb08a6d7	-0.0020851397
137	0x3d03f100	0.032212257
138	0xbe1a6b95	-0.15080102
139	0x3d360448	0.044437677
140	0x3c853ca0	0.01626426
141	0x3dadbfb7	0.08483832
142	0x3d418eef	0.047255453
143	0xbd937194	-0.07199398
144	0xbd3caf72	-0.046065755
145	0x3e0125de	0.12612101
146	0xbc775633	-0.015096235
147	0xba5cc35c	-0.0008421445
148	0xbdbdfe61	-0.092770346
149	0xb9ce561b	-0.00039355535
150	0x3cb4e6fe	0.022082802
151	0xbcef38c3	-0.02920187
152	0x3cf65fe8	0.030075029
153	0xbcc68db7	-0.024237497
154	0x3d64b42f	0.0558359
155	0x3dc719a0	0.097216845
156	0x3d9993c2	0.07498886
157	0x3d8bb52f	0.068216674
158	0x3e212e20	0.15740252
159	0x3e09c3cf	0.13453601
160	0xbd3c5fac	-0.045989677
161	0xbb1be979	-0.0023790284
162	0x3ddaebef	0.10689532
163	0x3e397e90	0.18114686
164	0x3b0f0344	0.0021822015
165	0x3d249df8	0.040189713
166	0xbdedb3c4	-0.11606553
167	0x3b19373d	0.0023378872
168	0xbd2a9d78	-0.04165408
169	0xbcbd7805	-0.023128519
170	0xbd17a54a	-0.037022866
171	0xbb56ec11	-0.0032794515
172	0x3b0e29e4	0.002169245
173	0x3d92bdea	0.071651295
174	0xbd16e77b	-0.03684185
175	0x3db1bd0c	0.08678636
176	0x3c9c437b	0.019075146
177	0xbd76e073	-0.060272645
178	0x3e889a96	0.2668044
179	0xbde7a555	-0.113108315
180	0xbbf42c7a	-0.007451591
181	0xbb38e231	-0.0028210992
182	0x3cc71932	0.024304006
183	0xbdb19b0b	-0.0867215
184	0xbc87891e	-0.016544875
185	0xbc0a1ff7	-0.008430473
186	0x3e289c61	0.16465904
187	0xbec4bf3f	-0.3842716
188	0xbc47403b	-0.01216131
189	0x3e01deb0	0.12682605
190	0xbd2ec4bc	-0.04266809
191	0x3dfce683	0.12348654
192	0x3c0abeb1	0.008468316
193	0x3e061c2f	0.13096689
194	0x3d491e81	0.049101356
195	0x3deb06b5	0.11475889
196	0x3e027b3f	0.12742327
197	0xbbf71e8c	-0.0075414833
198	0xbd199398	-0.037494272
199	0xbe7595e7	-0.23982964
200	0x3e4ced64	0.20012432
201	0xbd865b95	-0.06560437
202	0x3cdce32f	0.026963798
203	0x3bb40287	0.0054934653
204	0xbdcb57b7	-0.0992884
205	0x3d160c2b	0.036632698
206	0xbd650fc4	-0.05592324
207	0xbdcbba92	-0.09947695
208	0x3d3dc52b	0.046330612
209	0x3d889c83	0.06670477
210	0x3ca7d8f1	0.020489188
211	0x3dcaaa41	0.098957546
212	0x3d78d7a6	0.060752533
213	0xbd599a9c	-0.053125963
214	0xbc675567	-0.014119483
215	0xbdc9f949	-0.098620005
216	0xbc162394	-0.009163756
217	0xbc6a14dc	-0.0142872
218	0xbdbcda77	-0.09221356
219	0xbdd1f87e	-0.10252474
220	0x3c211c14	0.0098333545
221	0xbcf4b75e	-0.029872593
222	0xbdbd7f69	-0.09252817
223	0xbc726003	-0.014793399
224	0x3b91070d	0.0044258893
225	0xbefc670f	-0.49297377
226	0xbef59bb8	-0.47970366
227	0x3c152423	0.009102854
228	0xbc9c7db7	-0.019102914
229	0x3da437c9	0.08018453
230	0xbdfb213f	-0.122622006
231	0xbc8bf9b1	-0.017086836
232	0xbbd99d89	-0.006641094
233	0x3db12514	0.0864965
234	0x3d738f50	0.059462845
235	0x3d292ccd	0.04130249
236	0x3ca1d4c3	0.019754773
237	0x3d1ab3f8	0.037769288
238	0xbc575d1a	-0.013144756
239	0x3d045687	0.03230908
240	0x3c3b44f1	0.011430011
241	0x3d686bb3	0.056743335
242	0xbdae0f67	-0.084990315
243	0x3d08561f	0.033285256
244	0x3cfa1ba9	0.030530768
245	0x3dc573fc	0.09641263
246	0x3a8760d3	0.0010328538
247	0x3b843fac	0.0040359106
248	0x3d7fd837	0.062462058
249	0xbab875c7	-0.0014073186
250	0x3da75e34	0.08172265
251	0x3dc2bfbe	0.09509228
252	0x3c7af20a	0.015316496
253	0x3d9e3269	0.07724459
254	0x3b664559	0.003513655
255	0x3d8b15a6	0.067912385

bias f4 [175]
0	0x00000000	0.0
1	0x00000000	0.0
2	0x00000000	0.0
3	0x00000000	0.0
4	0x00000000	0.0
5	0x00000000	0.0
6	0x00000000	0.0
7	0x00000000	0.0
8	0x00000000	0.0
9	0x00000000	0.0
10	0x00000000	0.0
11	0x00000000	0.0
12	0x00000000	0.0
13	0x00000000	0.0
14	0x00000000	0.0
15	0x00000000	0.0
16	0x00000000	0.0
17	0x00000000	0.0
18	0x00000000	0.0
19	0x00000000	0.0
20	0x00000000	0.0
21	0x00000000	0.0
22	0x00000000	0.0
23	0x00000000	0.0
24	0x00000000	0.0
25	0x00000000	0.0
26	0x00000000	0.0
27	0x00000000	0.0
28	0x00000000	0.0
29	0x00000000	0.0
30	0x00000000	0.0
31	0x00000000	0.0
32	0x00000000	0.0
33	0x00000000	0.0
34	0x00000000	0.0
35	0x00000000	0.0
36	0x00000000	0.0
37	0x00000000	0.0
38	0x00000000	0.0
39	0x00000000	0.0
40	0x00000000	0.0
41	0x00000000	0.0
42	0x00000000	0.0
43	0x00000000	0.0
44	0x00000000	0.0
45	0x00000000	0.0
46	0x00000000	0.0
47	0x00000000	0.0
48	0x00000000	0.0
49	0x00000000	0.0
50	0x00000000	0.0
51	0x00000000	0.0
52	0x00000000	0.0
53	0x00000000	0.0
54	0x00000000	0.0
55	0x00000000	0.0
56	0x00000000	0.0
57	0x00000000	0.0
58	0x00000000	0.0
59	0x00000000	0.0
60	0x00000000	0.0
61	0x00000000	0.0
62	0x00000000	0.0
63	0x00000000	0.0
64	0x00000000	0.0
65	0x00000000	0.0
66	0x00000000	0.0
67	0x00000000	0.0
68	0x00000000	0.0
69	0x00000000	0.0
70	0x00000000	0.0
71	0x00000000	0.0
72	0x00000000	0.0
73	0x00000000	0.0
74	0x00000000	0.0
75	0x00000000	0.0
76	0x00000000	0.0
77	0x00000000	0.0
78	0x00000000	0.0
79	0x00000000	0.0
80	0x00000000	0.0
81	0x00000000	0.0
82	0x00000000	0.0
83	0x00000000	0.0
84	0x00000000	0.0
85	0x00000000	0.0
86	0x00000000	0.0
87	0x00000000	0.0
88	0x00000000	0.0
89	0x00000000	0.0
90	0x00000000	0.0
91	0x00000000	0.0
92	0x00000000	0.0
93	0x00000000	0.0
94	0x00000000	0.0
95	0x00000000	0.0
96	0x00000000	0.0
97	0x00000000	0.0
98	0x00000000	0.0
99	0x00000000	0.0
100	0x00000000	0.0
101	0x00000000	0.0
102	0x00000000	0.0
103	0x00000000	0.0
104	0x00000000	0.0
105	0x00000000	0.0
106	0x00000000	0.0
107	0x00000000	0.0
108	0x00000000	0.0
109	0x00000000	0.0
110	0x00000000	0.0
111	0x00000000	0.0
112	0x00000000	0.0
113	0x00000000	0.0
114	0x00000000	0.0
115	0x00000000	0.0
116	0x00000000	0.0
117	0x00000000	0.0
118	0x00000000	0.0
119	0x00000000	0.0
120	0x00000000	0.0
121	0x00000000	0.0
122	0x00000000	0.0
123	0x00000000	0.0
124	0x00000000	0.0
125	0x00000000	0.0
126	0x00000000	0.0
127	0x00000000	0.0
128	0x00000000	0.0
129	0x00000000	0.0
130	0x00000000	0.0
131	0x00000000	0.0
132	0x00000000	0.0
133	0x00000000	0.0
134	0x00000000	0.0
135	0x00000000	0.0
136	0x00000000	0.0
137	0x00000000	0.0
138	0x00000000	0.0
139	0x00000000	0.0
140	0x00000000	0.0
141	0x00000000	0.0
142	0x00000000	0.0
143	0x00000000	0.0
144	0x00000000	0.0
145	0x00000000	0.0
146	0x00000000	0.0
147	0x00000000	0.0
148	0x00000000	0.0
149	0x00000000	0.0
150	0x00000000	0.0
151	0x00000000	0.0
152	0x00000000	0.0
153	0x00000000	0.0
154	0x00000000	0.0
155	0x00000000	0.0
156	0x00000000	0.0
157	0x00000000	0.0
158	0x00000000	0.0
159	0x00000000	0.0
160	0x00000000	0.0
161	0x00000000	0.0
162	0x00000000	0.0
163	0x00000000	0.0
164	0x00000000	0.0
165	0x00000000	0.0
166	0x00000000	0.0
167	0x00000000	0.0
168	0x00000000	0.0
169	0x00000000	0.0
170	0x00000000	0.0
171	0x00000000	0.0
172	0x00000000	0.0
173	0x00000000	0.0
174	0x00000000	0.0
