checkpoints/version64/model.pt (torch, 10301 bytes, 4 tensors)

bias f4 [186]
2.2726362 5.240934 0.7153694 2.9858673 2.488047 4.5047064 4.6240172 6.443611
3.619931 6.513766 3.1981723 3.9059267 1.6991878 0.87843907 1.0957956 0.7393189
4.8090086 0.6931885 0.48501566 0.73887086 6.8069654 1.1720017 3.380249 3.3736193
0.5736557 2.8918211 7.9683795 3.600794 3.6152472 3.7715976 6.336382 3.022672
1.320033 2.773228 3.8614435 2.2058902 7.395711 1.663914 2.3138802 3.8928466
3.4844055 2.0530539 4.179123 3.5521092 1.1645827 1.0874604 3.6488662 0.96489364
1.0976346 1.1012816 0.944859 1.1446403 1.3424337 1.2801763 2.0019586 2.0620172
1.5168045 0.7240949 3.0531483 1.0144757 2.529841 0.6882402 1.5907753 0.560411
0.79791385 1.6459442 2.6483927 1.2607864 1.6519257 1.357389 1.7104118 1.2090721
1.7780269 3.4578316 0.498182 2.597002 2.956366 2.1510613 1.400867 2.249558
2.3607323 2.907563 2.8381038 2.728776 3.996311 3.0543935 4.222608 2.4272
5.6302166 2.6219943 2.5688963 6.986921 8.121423 3.8819213 3.590106 2.5210319
0.74541706 7.431439 0.9631219 2.2565353 1.3688141 7.8958154 1.0871764 0.74554676
2.1483126 5.257974 3.9183817 3.6404583 3.913072 1.784176 4.561691 4.4134936
3.5730839 2.7609613 4.8467884 2.5135725 1.391558 1.3925216 5.1760445 3.164994
4.992623 2.0770326 4.606809 4.332183 4.4452977 6.262257 3.7089758 3.8261619
4.757362 6.8256235 2.9413831 0.8424123 3.5548825 0.6637166 1.2544924 1.7343285
3.4451187 1.8348262 2.6492474 1.1809453 1.5578065 4.3359537 2.8067217 0.8210994
0.5943374 2.8642204 1.6331012 2.2384944 1.7034706 1.9297804 2.768004 1.7934862
0.33186474 3.530157 2.698317 0.59996104 2.6365633 2.0369365 0.6875536 0.83746654
0.33810902 4.057452 2.1543715 6.27586 4.451267 2.4443119 6.8626957 1.7445134
3.6697526 2.5026107 0.90570444 2.7776558 3.5126553 2.773776 3.0263066 6.1506968
1.7911824 2.8924344 1.720596 4.185077 4.16835 3.13706 2.8722787 1.5714953
0.41412675 1.0501812
00000000: df72 1140 bbb5 a740 7322 373f 7318 3f40
00000010: 293c 1f40 8e26 9040 f3f7 9340 1032 ce40
00000020: f3ac 6740 c570 d040 dbae 4c40 b4fa 7940
00000030: fc7e d93f 62e1 603f 0843 8c3f 0144 3d3f
00000040: 66e3 9940 cd74 313f f953 f83e a426 3d3f
00000050: a9d2 d940 2704 963f 0056 5840 61e9 5740
00000060: 1adb 123f 9913 3940 f7fc fe40 6973 6640
00000070: 3660 6740 db61 7140 a4c3 ca40 7573 4140
00000080: d7f6 a83f 917c 3140 e421 7740 4e2d 0d40
00000090: aaa9 ec40 22fb d43f 9d16 1440 6624 7940
000000a0: 8000 5f40 3c65 0340 60bb 8540 c255 6340
000000b0: 0c11 953f e731 8b3f 0687 6940 4503 773f
000000c0: 4a7f 8c3f ccf6 8c3f 48e2 713f 9383 923f
000000d0: ded4 ab3f d1dc a33f 1720 0040 17f8 0340
000000e0: a626 c23f 495e 393f c866 4340 57da 813f
000000f0: eae8 2140 8230 303f 869e cb3f 1877 0f3f
00000100: 1544 4c3f 4dae d23f 447f 2940 7361 a13f
00000110: 4d72 d33f ecbe ad3f c6ee da3f e0c2 9a3f
00000120: 6396 e33f 1d4d 5d40 b611 ff3e 4835 2640
00000130: 1a35 3d40 fdaa 0940 9c4f b33f c2f8 0f40
00000140: 3d16 1740 8315 3a40 7ea3 3540 44a4 2e40
00000150: 8fc3 7f40 2f7b 4340 9b1f 8740 3f57 1b40
00000160: bc2a b440 c1ce 2740 cc68 2440 db94 df40
00000170: 59f1 0141 6671 7840 4cc4 6540 9658 2140
00000180: a7d3 3e3f 59ce ed40 288f 763f 136b 1040
00000190: 4d35 af3f 85aa fc40 9928 8b3f 27dc 3e3f
000001a0: f47d 0940 5341 a840 c4c6 7a40 45fd 6840
000001b0: c66f 7a40 e15f e43f 5ff9 9140 573b 8d40
000001c0: 68ad 6440 97b3 3040 e418 9b40 5fde 2040
000001d0: 931e b23f 263e b23f 28a2 a540 438f 4a40
000001e0: 91c3 9f40 1aee 0440 fb6a 9340 3ea1 8a40
000001f0: e13f 8e40 6964 c840 dc5f 6d40 d6df 7440
00000200: 4f3c 9840 826b da40 9f3f 3c40 55a8 573f
00000210: 3283 6340 55e9 293f 3593 a03f 7afe dd3f
00000220: d37c 5c40 96db ea3f 458d 2940 3729 973f
00000230: 3466 c73f 22c0 8a40 54a1 3340 9233 523f
00000240: 7f26 183f 634f 3740 7609 d13f 7e43 0f40
00000250: 530b da3f 0b03 f73f fa26 3140 f590 e53f
00000260: 2dea a93e 18ee 6140 3ab1 2c40 0c97 193f
00000270: 74bd 2840 2b5d 0240 8303 303f 3564 563f
00000280: a01c ad3e a6d6 8140 39e1 0940 d8d3 c840
00000290: c770 8e40 9b6f 1c40 349b db40 374c df3f
000002a0: 3add 6a40 c62a 2040 3fdc 673f 1dc5 3140
000002b0: 58cf 6040 8c85 3140 02af 4140 82d2 c440
000002c0: 7745 e53f a51d 3940 7d3c dc3f 27ec 8540
000002d0: 2063 8540 97c5 4840 6ad3 3740 c226 c93f
000002e0: 6c08 d43e 566c 863f

weight f4 [2, 186]
0.9288796 -0.09623653 0.0116032865 0.51883686 0.45487428 0.011921667 0.2792185 0.58578414
0.4164039 0.7648504 -0.14695388 0.19625929 -0.81127846 0.31617182 0.16264202 0.3293188
0.22006422 0.3602114 0.0024591717 0.29573086 0.1167294 0.12701298 0.09298724 0.059900694
0.09280487 1.7185649 0.74466324 0.333499 -0.5628595 -0.6455614 -0.2702797 0.4888189
-0.0021402496 -0.054282106 0.6341584 0.25633442 0.26708773 0.012011003 -0.038605466 0.32869574
0.010380232 -0.36901563 0.8238193 0.24384344 0.43707278 -0.4530587 0.2954851 -0.54475224
-0.097048484 0.10097002 0.11826304 0.6537999 0.60818595 0.55137473 0.3529169 -0.3804478
0.3553129 0.18835947 -0.47746006 -0.055946037 0.13384628 0.36338395 0.9725746 0.17995742
0.110465065 0.3733399 -0.47126788 -0.14636557 0.002928826 -0.20293301 -0.18746014 0.0027875807
0.24759482 0.17793544 -0.0046141455 0.08128632 0.08302824 -0.028761573 -0.46673563 0.04286293
0.049930744 0.04896963 0.045345798 0.23349652 0.45519575 0.14745867 0.2407479 -0.03756725
0.11166207 -0.063265346 0.083987616 0.004724728 -0.07583554 -0.28018814 0.1048224 0.42538252
0.3226357 -0.3153151 0.24718922 0.3451515 0.34613633 -0.46331146 0.13565153 0.34417585
-0.048686683 -0.47841772 -0.24914071 0.099606074 -0.2946812 0.02445409 -0.11412898 -0.120793425
0.22542705 -0.32644862 0.10312942 -0.17523034 0.13345142 0.10117342 0.0049118716 -0.32313222
0.26332647 -0.04160562 -0.73856974 0.3579815 0.035580136 -0.17392895 0.28219202 -0.07291145
0.05514555 -0.34720016 0.050922398 0.015538214 -0.16785291 0.022183128 0.08400652 0.07227321
-0.5360069 -0.3025454 -0.050934717 0.060920257 0.20939906 -0.22705041 -0.21492653 0.2557399
0.5008628 0.21842799 0.1765543 -0.097607024 0.4426515 0.0032585068 1.0581323 0.3232145
0.07991704 -0.07711054 0.14770532 0.14446902 -0.9701337 0.4260059 0.016885836 0.02334884
-0.0074845133 -0.23293386 -0.1670886 0.10076775 0.28523278 0.06975577 -0.020296378 0.054507874
-1.2706324 0.5453942 0.050852906 0.100230016 0.44103685 0.284338 0.10264773 -0.15641458
-0.6431304 0.120023645 -0.346584 0.036382575 -0.27642155 0.06540405 0.110288225 -0.54186475
0.12227363 -0.13616578 -0.9373021 0.07371583 -0.01411614 -0.53212535 -0.46585757 -0.03021738
-0.2980441 -0.61215127 -0.43021527 -0.79113513 0.13417387 -0.21141528 0.80388945 -0.32063264
-0.16752647 -0.33289123 -0.23975182 -0.36270732 -0.00479768 -0.2981558 -0.14558041 -0.13188814
-0.10648222 -0.07394278 -0.095197685 -1.7302998 -0.7774146 -0.34877634 0.5485396 0.63034487
0.24547608 -0.5020014 -0.0028426545 0.043117717 -0.6498988 -0.26634964 -0.2977563 -0.018702837
0.028643008 -0.34526405 -0.025451459 0.36111584 -0.8409347 -0.25791636 -0.44152042 0.44807714
-0.31117466 0.54124683 0.09207824 -0.10540796 -0.122290544 -0.6580061 -0.6139226 -0.5569811
-0.3610779 0.3714758 -0.36150935 -0.19171076 0.46504608 0.05108172 -0.14482564 -0.36689916
-0.97917503 -0.18161231 -0.114343405 -0.38134137 0.46002546 0.1412742 -0.009583772 0.19759274
00000000: 0ecb 6d3f a817 c5bd b61b 3e3c 7ed2 043f
00000010: 48e5 e83e 1853 433c baf5 8e3e f3f5 153f
00000020: e432 d53e 3ccd 433f 147b 16be 32f8 483e
00000030: f2af 4fbf 46e1 a13e a18b 263e 799c a83e
00000040: 8458 613e a16d b83e 0e2a 213b 096a 973e
00000050: d30f ef3d b10f 023e 1870 be3d 6e5a 753d
00000060: 7b10 be3d eff9 db3f 40a2 3e3f 62c0 aa3e
00000070: 8f17 10bf 8343 25bf 1a62 8abe 7946 fa3e
00000080: 6e43 0cbb ea56 5ebd 3458 223f 443e 833e
00000090: b9bf 883e ccc9 443c c420 1ebd cf4a a83e
000000a0: d911 2a3c 9eef bcbe d2e5 523f 18b2 793e
000000b0: 01c8 df3e 4ff7 e7be d349 973e e274 0bbf
000000c0: 5bc1 c6bd 5fc9 ce3d e533 f23d 6e5f 273f
000000d0: 13b2 1b3f e526 0d3f 86b1 b43e 0eca c2be
000000e0: 93eb b53e 4ee1 403e a575 f4be ac27 65bd
000000f0: 000f 093e 760d ba3e a6fa 783f c246 383e
00000100: 823b e23d 6826 bf3e 064a f1be dbe0 15be
00000110: 8cf1 3f3b accd 4fbe 8df5 3fbe d8af 363b
00000120: 7f89 7d3e b534 363e 4232 97bb 7179 a63d
00000130: b60a aa3d 649d ebbc f9f7 eebe 0a91 2f3d
00000140: 2e84 4c3d 6194 483d 84bc 393d b619 6f3e
00000150: 6b0f e93e 68ff 163e 9e86 763e 1ee0 19bd
00000160: 15af e43d 4391 81bd b301 ac3d e4d1 9a3b
00000170: aa4f 9bbd d274 8fbe 20ad d63d bdcb d93e
00000180: 8230 a53e fb70 a1be 2c1f 7d3e b3b7 b03e
00000190: c838 b13e 2937 edbe 3ce8 0a3e d137 b03e
000001a0: b06b 47bd 2bf3 f4be be1e 7fbe 45fe cb3d
000001b0: 74e0 96be f253 c83c 74bc e9bd 8b62 f7bd
000001c0: 59d6 663e 4624 a7be 8435 d33d 956f 33be
000001d0: 7da7 083e 0334 cf3d c4f3 a03b 9671 a5be
000001e0: bad2 863e a86a 2abd e812 3dbf 5a49 b73e
000001f0: 7abc 113d 6e1a 32be 797b 903e 9952 95bd
00000200: 4de0 613d 38c4 b1be 0194 503d fe93 7e3c
00000210: a2e1 2bbe 64b9 b53c 9c0b ac3d fa03 943d
00000220: c037 09bf 3be7 9abe eca0 50bd 8587 793d
00000230: b56c 563e e77f 68be b315 5cbe 57f0 823e
00000240: 8b38 003f 96ab 5f3e a7ca 343e 31e6 c7bd
00000250: 38a3 e23e ac8c 553b e170 873f 5f7c a53e
00000260: 8cab a33d 21ec 9dbd 1040 173e b0ef 133e
00000270: af5a 78bf 721d da3e 2a54 8a3c 1146 bf3c
00000280: a640 f5bb 3786 6ebe 4619 2bbe 525f ce3d
00000290: 080a 923e 1ddc 8e3d 9744 a6bc a643 5f3d
000002a0: 15a4 a2bf f49e 0b3f 234b 503d 6545 cd3d
000002b0: 95cf e13e c094 913e f938 d23d 252b 20be
000002c0: 32a4 24bf f5ce f53d 7573 b1be e505 153d
000002d0: 2087 8dbe 8ff2 853d cbde e13d a6b7 0abf
000002e0: 996a fa3d 0b6f 0bbe 08f3 6fbf 53f8 963d
000002f0: 6247 67bc 5e39 08bf e284 eebe 708a f7bc
00000300: 3c99 98be f2b5 1cbf 2d45 dcbe d587 4abf
00000310: e064 093e 3f7d 58be b3cb 4d3f f629 a4be
00000320: 0f8c 2bbe b870 aabe 8081 75be c6b4 b9be
00000330: db35 9dbb e1a7 98be 0813 15be af0d 07be
00000340: 5a13 dabd 506f 97bd 01f7 c2bd 777a ddbf
00000350: a504 47bf d092 b2be 176d 0c3f 485e 213f
00000360: 155e 7b3e 2a83 00bf d44b 3abb 349c 303d
00000370: c55f 26bf fb5e 88be 8473 98be b136 99bc
00000380: bea4 ea3c 73c6 b0be 947f d0bc 2de4 b83e
00000390: 7f47 57bf 9d0d 84be f70e e2be 5e6a e53e
000003a0: 4952 9fbe 278f 0a3f 8493 bc3d 21e0 d7bd
000003b0: 7773 fabd 1673 28bf 082a 1dbf 5096 0ebf
000003c0: 34df b8be 1332 be3e c117 b9be d34f 44be
000003d0: 851a ee3e 113b 513d 2c4d 14be 35da bbbe
000003e0: 37ab 7abf 94f8 39be e02c eabd 2d3f c3be
000003f0: 7588 eb3e 2faa 103e 4105 1dbc c055 4a3e

bias f4 [186]
0.0 0.0 0.0 0.0 0.0 0.0 0.0 0.0
0.0 0.0 0.0 0.0 0.0 0.0 0.0 0.0
0.0 0.0 0.0 0.0 0.0 0.0 0.0 0.0
0.0 0.0 0.0 0.0 0.0 0.0 0.0 0.0
0.0 0.0 0.0 0.0 0.0 0.0 0.0 0.0
0.0 0.0 0.0 0.0 0.0 0.0 0.0 0.0
0.0 0.0 0.0 0.0 0.0 0.0 0.0 0.0
0.0 0.0 0.0 0.0 0.0 0.0 0.0 0.0
0.0 0.0 0.0 0.0 0.0 0.0 0.0 0.0
0.0 0.0 0.0 0.0 0.0 0.0 0.0 0.0
0.0 0.0 0.0 0.0 0.0 0.0 0.0 0.0
0.0 0.0 0.0 0.0 0.0 0.0 0.0 0.0
0.0 0.0 0.0 0.0 0.0 0.0 0.0 0.0
0.0 0.0 0.0 0.0 0.0 0.0 0.0 0.0
0.0 0.0 0.0 0.0 0.0 0.0 0.0 0.0
0.0 0.0 0.0 0.0 0.0 0.0 0.0 0.0
0.0 0.0 0.0 0.0 0.0 0.0 0.0 0.0
0.0 0.0 0.0 0.0 0.0 0.0 0.0 0.0
0.0 0.0 0.0 0.0 0.0 0.0 0.0 0.0
0.0 0.0 0.0 0.0 0.0 0.0 0.0 0.0
0.0 0.0 0.0 0.0 0.0 0.0 0.0 0.0
0.0 0.0 0.0 0.0 0.0 0.0 0.0 0.0
0.0 0.0 0.0 0.0 0.0 0.0 0.0 0.0
0.0 0.0
00000000: 0000 0000 0000 0000 0000 0000 0000 0000
00000010: 0000 0000 0000 0000 0000 0000 0000 0000
00000020: 0000 0000 0000 0000 0000 0000 0000 0000
00000030: 0000 0000 0000 0000 0000 0000 0000 0000
00000040: 0000 0000 0000 0000 0000 0000 0000 0000
00000050: 0000 0000 0000 0000 0000 0000 0000 0000
00000060: 0000 0000 0000 0000 0000 0000 0000 0000
00000070: 0000 0000 0000 0000 0000 0000 0000 0000
00000080: 0000 0000 0000 0000 0000 0000 0000 0000
00000090: 0000 0000 0000 0000 0000 0000 0000 0000
000000a0: 0000 0000 0000 0000 0000 0000 0000 0000
000000b0: 0000 0000 0000 0000 0000 0000 0000 0000
000000c0: 0000 0000 0000 0000 0000 0000 0000 0000
000000d0: 0000 0000 0000 0000 0000 0000 0000 0000
000000e0: 0000 0000 0000 0000 0000 0000 0000 0000
000000f0: 0000 0000 0000 0000 0000 0000 0000 0000
00000100: 0000 0000 0000 0000 0000 0000 0000 0000
00000110: 0000 0000 0000 0000 0000 0000 0000 0000
00000120: 0000 0000 0000 0000 0000 0000 0000 0000
00000130: 0000 0000 0000 0000 0000 0000 0000 0000
00000140: 0000 0000 0000 0000 0000 0000 0000 0000
00000150: 0000 0000 0000 0000 0000 0000 0000 0000
00000160: 0000 0000 0000 0000 0000 0000 0000 0000
00000170: 0000 0000 0000 0000 0000 0000 0000 0000
00000180: 0000 0000 0000 0000 0000 0000 0000 0000
00000190: 0000 0000 0000 0000 0000 0000 0000 0000
000001a0: 0000 0000 0000 0000 0000 0000 0000 0000
000001b0: 0000 0000 0000 0000 0000 0000 0000 0000
000001c0: 0000 0000 0000 0000 0000 0000 0000 0000
000001d0: 0000 0000 0000 0000 0000 0000 0000 0000
000001e0: 0000 0000 0000 0000 0000 0000 0000 0000
000001f0: 0000 0000 0000 0000 0000 0000 0000 0000
00000200: 0000 0000 0000 0000 0000 0000 0000 0000
00000210: 0000 0000 0000 0000 0000 0000 0000 0000
00000220: 0000 0000 0000 0000 0000 0000 0000 0000
00000230: 0000 0000 0000 0000 0000 0000 0000 0000
00000240: 0000 0000 0000 0000 0000 0000 0000 0000
00000250: 0000 0000 0000 0000 0000 0000 0000 0000
00000260: 0000 0000 0000 0000 0000 0000 0000 0000
00000270: 0000 0000 0000 0000 0000 0000 0000 0000
00000280: 0000 0000 0000 0000 0000 0000 0000 0000
00000290: 0000 0000 0000 0000 0000 0000 0000 0000
000002a0: 0000 0000 0000 0000 0000 0000 0000 0000
000002b0: 0000 0000 0000 0000 0000 0000 0000 0000
000002c0: 0000 0000 0000 0000 0000 0000 0000 0000
000002d0: 0000 0000 0000 0000 0000 0000 0000 0000
000002e0: 0000 0000 0000 0000

_ei_mask f4 [186]
1.0 1.0 1.0 1.0 1.0 1.0 1.0 1.0
1.0 1.0 1.0 1.0 1.0 1.0 1.0 1.0
1.0 1.0 1.0 1.0 1.0 1.0 1.0 1.0
1.0 1.0 1.0 1.0 1.0 1.0 1.0 1.0
1.0 1.0 1.0 1.0 1.0 1.0 1.0 1.0
1.0 1.0 1.0 1.0 1.0 1.0 1.0 1.0
1.0 1.0 1.0 1.0 1.0 1.0 1.0 1.0
1.0 1.0 1.0 1.0 1.0 1.0 1.0 1.0
1.0 1.0 1.0 1.0 1.0 1.0 1.0 1.0
1.0 1.0 1.0 1.0 1.0 1.0 1.0 1.0
1.0 1.0 1.0 1.0 1.0 1.0 1.0 1.0
1.0 1.0 1.0 1.0 1.0 1.0 1.0 1.0
1.0 1.0 1.0 1.0 1.0 1.0 1.0 1.0
1.0 1.0 1.0 1.0 1.0 1.0 1.0 1.0
1.0 1.0 1.0 1.0 1.0 1.0 1.0 1.0
1.0 1.0 1.0 1.0 1.0 1.0 1.0 1.0
1.0 1.0 1.0 1.0 1.0 1.0 1.0 1.0
1.0 1.0 1.0 1.0 1.0 1.0 1.0 1.0
1.0 1.0 1.0 1.0 1.0 1.0 1.0 1.0
1.0 1.0 1.0 1.0 1.0 1.0 1.0 1.0
1.0 1.0 1.0 1.0 1.0 1.0 1.0 1.0
1.0 1.0 1.0 1.0 1.0 1.0 1.0 1.0
1.0 1.0 1.0 1.0 1.0 1.0 1.0 1.0
1.0 1.0
00000000: 0000 803f 0000 803f 0000 803f 0000 803f
00000010: 0000 803f 0000 803f 0000 803f 0000 803f
00000020: 0000 803f 0000 803f 0000 803f 0000 803f
00000030: 0000 803f 0000 803f 0000 803f 0000 803f
00000040: 0000 803f 0000 803f 0000 803f 0000 803f
00000050: 0000 803f 0000 803f 0000 803f 0000 803f
00000060: 0000 803f 0000 803f 0000 803f 0000 803f
00000070: 0000 803f 0000 803f 0000 803f 0000 803f
00000080: 0000 803f 0000 803f 0000 803f 0000 803f
00000090: 0000 803f 0000 803f 0000 803f 0000 803f
000000a0: 0000 803f 0000 803f 0000 803f 0000 803f
000000b0: 0000 803f 0000 803f 0000 803f 0000 803f
000000c0: 0000 803f 0000 803f 0000 803f 0000 803f
000000d0: 0000 803f 0000 803f 0000 803f 0000 803f
000000e0: 0000 803f 0000 803f 0000 803f 0000 803f
000000f0: 0000 803f 0000 803f 0000 803f 0000 803f
00000100: 0000 803f 0000 803f 0000 803f 0000 803f
00000110: 0000 803f 0000 803f 0000 803f 0000 803f
00000120: 0000 803f 0000 803f 0000 803f 0000 803f
00000130: 0000 803f 0000 803f 0000 803f 0000 803f
00000140: 0000 803f 0000 803f 0000 803f 0000 803f
00000150: 0000 803f 0000 803f 0000 803f 0000 803f
00000160: 0000 803f 0000 803f 0000 803f 0000 803f
00000170: 0000 803f 0000 803f 0000 803f 0000 803f
00000180: 0000 803f 0000 803f 0000 803f 0000 803f
00000190: 0000 803f 0000 803f 0000 803f 0000 803f
000001a0: 0000 803f 0000 803f 0000 803f 0000 803f
000001b0: 0000 803f 0000 803f 0000 803f 0000 803f
000001c0: 0000 803f 0000 803f 0000 803f 0000 803f
000001d0: 0000 803f 0000 803f 0000 803f 0000 803f
000001e0: 0000 803f 0000 803f 0000 803f 0000 803f
000001f0: 0000 803f 0000 803f 0000 803f 0000 803f
00000200: 0000 803f 0000 803f 0000 803f 0000 803f
00000210: 0000 803f 0000 803f 0000 803f 0000 803f
00000220: 0000 803f 0000 803f 0000 803f 0000 803f
00000230: 0000 803f 0000 803f 0000 803f 0000 803f
00000240: 0000 803f 0000 803f 0000 803f 0000 803f
00000250: 0000 803f 0000 803f 0000 803f 0000 803f
00000260: 0000 803f 0000 803f 0000 803f 0000 803f
00000270: 0000 803f 0000 803f 0000 803f 0000 803f
00000280: 0000 803f 0000 803f 0000 803f 0000 803f
00000290: 0000 803f 0000 803f 0000 803f 0000 803f
000002a0: 0000 803f 0000 803f 0000 803f 0000 803f
000002b0: 0000 803f 0000 803f 0000 803f 0000 803f
000002c0: 0000 803f 0000 803f 0000 803f 0000 803f
000002d0: 0000 803f 0000 803f 0000 803f 0000 803f
000002e0: 0000 803f 0000 803f
