checkpoints/version138/model.pt (torch, 34217 bytes, 14 tensors)

bias f4 [175]
000000 c8 0d 9e 3f bc 1d fb 3f a0 29 32 bf 5e 81 ba 3f
       1.2347956 1.9618449 -0.69594765 1.457073
000010 e7 d2 11 bd 0b 6c f0 3f fa 49 d8 3f e3 d3 20 40
       -0.035601523 1.8782972 1.6897576 2.5129325
000020 75 f6 97 3f a1 f3 3c 40 15 d2 a3 3f f9 b0 a5 3f
       1.1872088 2.95237 1.2798487 1.2944633
000030 53 a2 10 bd 79 90 4c be dd fc 83 bd 62 e7 cd 3f
       -0.035311054 -0.19976987 -0.06444714 1.6086237
000040 91 8a 06 be f5 5b cc bb 2e bc dc bd ef c0 1e 40
       -0.13138796 -0.006236548 -0.1077808 2.4805257
000050 74 2f 6b 3e 84 b8 ae 3f ab 7b c1 3f 33 d2 ea be
       0.2296732 1.365006 1.5115865 -0.45863494
000060 42 10 10 c0 2f 2e 4c 40 1f 4a 52 3f 9f 16 ad 3f
       -2.2509923 3.1903188 0.8214435 1.3522528
000070 df 87 5f 3f d9 7b 18 40 77 25 00 3f 9a 90 ab be
       0.873167 2.382559 0.50057167 -0.3350876
000080 2a 44 92 3f 88 85 30 be f6 3b 16 3f 38 df 59 40
       1.1427052 -0.17238438 0.58685243 3.4042492
000090 8d ba 38 3f 28 50 99 3f a1 92 d7 3f 4e 7b a6 3f
       0.72159654 1.1977587 1.6841623 1.300638
0000a0 9c 17 03 40 e7 bc b9 3f be 62 21 3e 31 de be 3e
       2.048316 1.4510773 0.15760323 0.37278894
0000b0 31 d7 ab 3f 92 9a a1 be 9d 73 db 3e 79 a7 07 3e
       1.3425046 -0.3156324 0.42861643 0.1324748
0000c0 18 ab 0f 3e 80 26 79 3e c2 29 ed 3e 8b 3b e1 3e
       0.14030111 0.24331093 0.4632092 0.4399074
0000d0 98 c8 92 3f 4f e7 56 3e f7 10 78 3e ce 2c 88 3f
       1.1467466 0.20986675 0.24225222 1.0638673
0000e0 33 0e e2 be 30 a2 0b 3f 3f d9 bf 3d 2f a5 31 bf
       -0.44151458 0.54544353 0.09367608 -0.69392675
0000f0 ba 39 62 bd 52 56 f3 3c c0 4d 26 3f 46 13 00 3f
       -0.055230834 0.029704247 0.6496239 0.5002941
000100 d7 75 c8 bc 65 d9 c8 3e 7d 62 64 bc cf a1 91 3e
       -0.024470253 0.3922836 -0.013939497 0.28443763
000110 66 ce 33 3f a9 98 c2 3f be 63 c1 be 73 03 97 3f
       0.70236814 1.5202838 -0.3777141 1.1797928
000120 77 30 ab 3f 15 b6 11 3f 23 fa 92 3f 23 3d 5f 3f
       1.3374165 0.5691846 1.1482586 0.8720266
000130 dd fc 88 3f 66 90 c2 3f 2b cc 9e 3f 5e 21 00 40
       1.0702168 1.5200317 1.2406057 2.0020366
000140 3d f2 a3 3f 3b 20 f2 3f fa c9 88 3f 0a a6 22 40
       1.28083 1.8916086 1.0686638 2.5413842
000150 02 e4 9a 3f 03 29 9e 3f 83 de 32 40 5a 84 53 40
       1.2100832 1.2356266 2.794831 3.304953
000160 2e b1 b5 3f 18 9f 66 3f 3a 92 8f 3f 86 d0 a3 be
       1.4194696 0.9008651 1.12165 -0.31995028
000170 33 04 55 40 ce d2 79 3d b7 c4 6e 3f fb 85 c6 3e
       3.3283813 0.060992055 0.93268913 0.38774094
000180 f0 ef 4d 40 f4 5d bd 3e c3 87 45 bf 0a 3c a5 3c
       3.2177696 0.36985743 -0.7716028 0.02017023
000190 3b 53 0f 40 0d bc 47 3f f6 79 9d 3f 9f fb e6 3f
       2.239455 0.7802132 1.2302845 1.8045539
0001a0 8f e2 74 3f fe 9b 06 40 b2 90 a8 3f c8 17 bd 3f
       0.956582 2.103271 1.3169158 1.4772882
0001b0 87 14 cf 3f 9c 7c f3 3f d3 85 5b 3f 1a 3d c4 be
       1.617814 1.9022403 0.85751075 -0.38327867
0001c0 ec 50 4d 3d be 75 05 40 29 44 91 3f 07 4e 06 40
       0.050126 2.0853114 1.1348926 2.0985124
0001d0 f5 0c 99 ba 2a 8a 09 40 9c 14 e5 3f c5 41 ff 3f
       -0.0011676835 2.1490579 1.7896914 1.9941946
0001e0 ab 97 22 40 be 7b bc 3f 80 6e 02 40 15 3c 0d 40
       2.540507 1.4725263 2.0379944 2.206792
0001f0 00 63 23 40 79 e2 ab 3f 40 90 15 3e 16 79 cd bd
       2.5529175 1.3428489 0.14605808 -0.10032861
000200 27 35 22 3f cd c7 a0 3f 57 19 6f 3e 6b b8 e0 3d
       0.63362354 1.2560974 0.2334951 0.10972675
000210 5c b0 1e be 9d 53 e0 3f 4d 34 ae 3f c0 77 78 3d
       -0.15496963 1.7525517 1.3609711 0.060661077
000220 21 10 a8 bd bb e8 b1 3f bb 5e db 3e cc c4 6f 3f
       -0.08206201 1.3899149 0.4284571 0.93659663
000230 e4 15 13 3f ca 83 bb 3e 13 22 83 3f 8b b7 a7 3e
       0.5745528 0.36623985 1.0244774 0.3275722
000240 ec ec cf bd 85 5d be 3f 0b 95 7d 3f 43 46 98 3f
       -0.10152611 1.487229 0.99055547 1.1896442
000250 e4 39 20 be bf 32 0b bd 7e aa 84 3e 9e 37 e3 bd
       -0.15647084 -0.033983942 0.25911325 -0.110945925
000260 d9 1a d4 3f 45 fb 6b 3f 10 bd 42 40 ca 9d e8 3f
       1.6570693 0.9218028 3.0427895 1.8173153
000270 f6 c4 75 3f 34 c6 4f 40 e6 f2 b1 3b 4e 18 3c 3d
       0.96003664 3.2464724 0.005430567 0.045921616
000280 fc 00 5f 3f c7 0e 8b bf 22 f2 8c 3e 17 23 7b 3f
       0.8711088 -1.0863885 0.27528483 0.9810042
000290 8f fc c8 3f 23 08 29 40 c1 6c 31 3f f6 65 ab 3f
       1.5702075 2.6411216 0.6930657 1.3390491
0002a0 4a 31 5e 3f 0d 5d e2 3f a7 78 fd 3f c6 a8 c7 3f
       0.8679396 1.7684647 1.9802445 1.559838
0002b0 89 f5 98 3f 54 f2 c3 3e 1b 0a 97 3e
       1.1949931 0.3827082 0.29499897

weight f4 [9, 175]
000000 48 b1 73 3e 33 0c 9c 3e 50 d1 1c 2e 1e f6 cb 3e
       0.23798096 0.30478057 3.56562e-11 0.3983621
000010 cc fb 6f af 8c 88 05 3f d4 ea ac 3e 37 1e d6 3e
       -2.182638e-10 0.5216148 0.3377291 0.41819927
000020 3c 7c 6b 3f 73 c8 02 3f b4 4e 1f 3f 7d 38 37 3f
       0.9198644 0.5108711 0.62229466 0.7157057
000030 cf ad 61 ab 34 5c e3 3e 48 d0 a0 3e fd 48 ed 32
       -8.0177266e-13 0.44406283 0.31408906 2.7623623e-08
000040 44 f1 b6 3e 1b b0 d6 3e aa 89 e0 3e d8 97 15 3f
       0.35730946 0.41931233 0.4385503 0.5843482
000050 96 33 5a 2d e5 27 2f 3f 23 e5 cc 3e ca 97 02 33
       1.240332e-11 0.6842025 0.40018567 3.0406035e-08
000060 5e 0f 74 3f f8 ff 16 3f 52 d6 96 3f 0d ca 91 3e
       0.9533595 0.5898433 1.1784155 0.28474465
000070 c6 75 2e be d3 08 c5 ab 4e 29 84 3f 77 28 e4 3e
       -0.17037115 -1.4000141e-12 1.0325105 0.44562122
000080 9c 30 1a 3f c4 61 9c 3f c5 e4 b2 ab 25 8d 16 ae
       0.6023042 1.2217336 -1.2711157e-12 -3.4231413e-11
000090 29 16 10 3f 7f 78 b2 3e a0 43 0d 3f 21 0e 3e 3f
       0.56283814 0.34857556 0.5518131 0.7424031
0000a0 e2 bd 65 30 28 19 33 b2 70 19 3e 3f d5 04 1f 3f
       8.3579554e-10 -1.0424891e-08 0.74257565 0.6211675
0000b0 55 30 0d 3a 13 cc cd 3e 6b e3 42 2c 2d db b1 af
       0.0005385925 0.4019476 2.76953e-12 -3.2351846e-10
0000c0 d6 74 62 b2 ee c0 35 af 1e b8 ce 3e 61 2a e5 3e
       -1.3181497e-08 -1.6530396e-10 0.40374845 0.44758895
0000d0 13 c7 82 3e 06 37 13 3f 6d 20 fb 3e 65 cd a3 31
       0.25542507 0.57505834 0.49048176 4.767275e-09
0000e0 07 7a 0e ac 08 5d 28 3f 6f 56 f5 3e 61 9c 10 3f
       -2.0247152e-12 0.65766954 0.47917506 0.56488615
0000f0 32 eb 0d 3f 00 71 e4 3e 03 cc 62 aa 3f 5d cb ab
       0.55437005 0.44617462 -2.0143613e-13 -1.4449899e-12
000100 2b 24 b8 2c a4 52 10 3f ab 68 90 3e 12 ce 25 3f
       5.23361e-12 0.563761 0.28204855 0.64767563
000110 36 3e e9 b8 80 40 ba 3e 53 55 b3 3e 96 87 dc 3d
       -0.000111218935 0.36377335 0.35026035 0.107680485
000120 07 f8 47 3e 04 1b cf 3e 9f c4 7f 3e 9e f3 db 3e
       0.19528209 0.404503 0.24977349 0.42959303
000130 97 e9 a6 3e e6 00 8b 3e b6 39 c7 3e 4d c8 b1 3e
       0.3260009 0.27149123 0.38911217 0.3472313
000140 75 ca 18 2f be 30 26 3e 12 26 f6 3e 8b f3 65 31
       1.3896247e-10 0.16229531 0.4807592 3.3462324e-09
000150 7f 98 d7 3e 5f b0 87 3e 57 a0 a5 37 9f ed 5b ae
       0.42108533 0.26501748 1.9744197e-05 -5.0005885e-11
000160 c0 7b 3f ac 74 d7 0d 3f 54 13 b7 3e 7d ca fe 3e
       -2.7211428e-12 0.5540688 0.35756934 0.4976386
000170 a3 ca f7 af d8 f2 18 3f e5 18 26 3f 8b b9 24 3f
       -4.507302e-10 0.5974555 0.64881736 0.64345616
000180 8c 9e f0 3e 09 2b fb 3e 8e de fb 3e c4 0b 5f 3f
       0.46995962 0.4905627 0.49193233 0.8712733
000190 bb b7 4f 3f 5a b6 8d 3f 00 62 83 2c a3 87 c8 2d
       0.81139725 1.1071274 3.734124e-12 2.2797602e-11
0001a0 49 98 b4 af fe 2a ce ac 6e d9 87 3f f1 01 c9 3e
       -3.2850014e-10 -5.8596452e-12 1.0613229 0.39259294
0001b0 9f 73 a1 3e 6d 1c f7 3e f4 3a 8c 31 b3 5b c8 ad
       0.31533524 0.48263875 4.0812385e-09 -2.277809e-11
0001c0 0a 6d 3a 3f 04 a3 28 3f da 72 38 3f 97 20 16 3f
       0.7282263 0.6587374 0.7205025 0.5864348
0001d0 df 60 4e 3f 48 d2 5b 3e 72 14 0f 3f 26 09 e6 3e
       0.80616564 0.21466935 0.5589057 0.44928855
0001e0 c7 63 06 3f aa 31 c0 3e 69 dc bd 3e 29 59 07 31
       0.52496 0.3753789 0.37082222 1.9695767e-09
0001f0 e4 7c ae 3e 9c c1 55 2f 6d 90 08 3f dc a9 d3 35
       0.3407966 1.9441021e-10 0.53345376 1.5770161e-06
000200 88 a1 c1 3e 2f 4a 0b 3f b4 6c 33 3f e9 d0 8c 2b
       0.3781855 0.5441007 0.7008774 1.0005583e-12
000210 90 9e 59 3f 45 0d 8d 3e 45 fe 9a 30 eb 1f 1a 3f
       0.8500757 0.27549186 1.1277242e-09 0.6020495
000220 d0 59 9f 3e f9 a7 67 3a f0 b4 12 34 20 f6 02 b5
       0.3112321 0.00088369806 1.3663134e-07 -4.8786933e-07
000230 12 af 09 3f 95 82 23 3f 32 4a 91 3e 7f 05 19 b1
       0.5378276 0.6387113 0.2837692 -2.2267554e-09
000240 6d 3c ad 3e 60 5e 5d 3f 5e 35 47 3e a7 bd 47 3e
       0.33835164 0.8647213 0.19453952 0.1950594
000250 02 de dc 3e 95 b4 f2 3e 85 0d 94 3e e3 eb b9 3e
       0.4313813 0.47403398 0.28916565 0.3631278
000260 46 47 bc 31 63 f4 98 3e ba 90 f7 30 a9 5d 72 3e
       5.479623e-09 0.29873952 1.8012749e-09 0.23668541
000270 84 ba 0c 3f 79 f5 84 b4 fe 91 bc 3e 7b 5e 65 3f
       0.549721 -2.476552e-07 0.36830133 0.8959729
000280 67 dc da 3e 9c 31 07 3f ee 5d 78 3f 26 e2 42 3f
       0.4274628 0.5281007 0.97018325 0.76126325
000290 78 f6 db b5 33 c3 11 b0 37 58 8a 3b 5a 92 48 b8
       -1.6388503e-06 -5.302809e-10 0.004221942 -4.7820016e-05
0002a0 73 a2 08 3f 4b b8 0b 30 f1 8c 49 af b9 de 90 3d
       0.5337288 5.08298e-10 -1.8330916e-10 0.07073731
0002b0 c1 a9 5a 3e 50 55 3e 3f b2 8c ac 3e f7 9b c8 3e
       0.21353818 0.74348927 0.33701092 0.39181492
0002c0 11 c6 e6 3e 75 54 26 3f 50 0a 10 3f ee f6 a8 3f
       0.45072988 0.6497262 0.56265736 1.3200357
0002d0 b3 da fb 2f 78 ac cb 3e 98 3b 88 ad bf 4f 85 ac
       4.581203e-10 0.3978002 -1.5487875e-11 -3.788941e-12
0002e0 2c f7 a9 2f 9f d5 b3 b0 e4 34 60 2e 56 f5 53 3f
       3.0916547e-10 -1.3084679e-09 5.097868e-11 0.8279623
0002f0 46 60 f4 2d 39 ea 06 3f be 1f 36 3f b5 e9 fe be
       2.7782342e-11 0.52701145 0.71142185 -0.4978768
000300 9c f0 7f 3e 6a 77 f1 be dc cb 00 31 f1 fa 37 3f
       0.24994129 -0.47161418 1.8742332e-09 0.7186728
000310 ec 0e cb 2f 6c d3 33 2d 1e 50 99 3e f1 58 12 2f
       3.6936088e-10 1.0221917e-11 0.29943937 1.3310221e-10
000320 de 3d 37 2e 17 1c 94 2c 71 b3 68 3e 3d a0 3b 3e
       4.166433e-11 4.2095316e-12 0.22724701 0.18322845
000330 f2 10 93 3f fc a3 06 2b b2 ca c0 be a4 9a c3 2b
       1.1489546 4.783394e-13 -0.37654644 1.3898505e-12
000340 14 4e 6f aa b1 54 8c 3f 02 e8 52 3f 5f b2 19 3e
       -2.1254553e-13 1.0963346 0.82385266 0.1500945
000350 2a 58 ba 3e 69 52 41 30 7f 96 68 2f b0 a0 ef 3e
       0.3639539 7.0330103e-10 2.1153744e-10 0.46802282
000360 9e 32 ef 3e f7 d2 07 2e 23 97 50 3a cc 85 1c 3f
       0.46718305 3.088282e-11 0.00079570914 0.6114166
000370 ee 30 84 30 2f 6d 07 3f 48 0f 02 3f f1 4a d1 3e
       9.618171e-10 0.52900976 0.5080457 0.40877488
000380 03 de f2 3e 98 0c f4 3e c4 20 e3 3e 04 af 9a 3e
       0.47435006 0.47665858 0.44360936 0.3021165
000390 00 74 89 2e 11 0c 66 ab eb 58 06 3f b5 0f 1b 3f
       6.2506444e-11 -8.172916e-13 0.5247943 0.6057084
0003a0 c6 62 85 be e5 42 1d 3d b2 c3 d0 be 62 e5 2c 2d
       -0.2605192 0.038393874 -0.40774304 9.828001e-12
0003b0 01 d8 fb ae 54 9b 15 3f f0 6d 6b 3f 64 d0 30 3f
       -1.14525285e-10 0.58440137 0.91964626 0.6906798
0003c0 c7 8b d2 2c 3a 65 17 b7 46 16 2f 2d fb 4d cd 3e
       5.9840774e-12 -9.02387e-06 9.952544e-12 0.40098557
0003d0 7e 81 5e b6 39 d4 01 be e7 20 d2 3d f7 ab 82 3a
       -3.3155952e-06 -0.12678613 0.10260182 0.0009969462
0003e0 18 2b 0b 3f 11 be 8f af 9a 68 f1 3e 94 da 26 3f
       0.5436263 -2.61466e-10 0.47150117 0.65177274
0003f0 3d 34 51 af 4f ed 13 3f 4d 06 c1 3e f7 02 06 3f
       -1.9026998e-10 0.5778398 0.3770012 0.52348274

bias f4 [175]
000000 00 00 00 00 00 00 00 00 00 00 00 00 00 00 00 00
       0.0 0.0 0.0 0.0
000010 00 00 00 00 00 00 00 00 00 00 00 00 00 00 00 00
       0.0 0.0 0.0 0.0
000020 00 00 00 00 00 00 00 00 00 00 00 00 00 00 00 00
       0.0 0.0 0.0 0.0
000030 00 00 00 00 00 00 00 00 00 00 00 00 00 00 00 00
       0.0 0.0 0.0 0.0
000040 00 00 00 00 00 00 00 00 00 00 00 00 00 00 00 00
       0.0 0.0 0.0 0.0
000050 00 00 00 00 00 00 00 00 00 00 00 00 00 00 00 00
       0.0 0.0 0.0 0.0
000060 00 00 00 00 00 00 00 00 00 00 00 00 00 00 00 00
       0.0 0.0 0.0 0.0
000070 00 00 00 00 00 00 00 00 00 00 00 00 00 00 00 00
       0.0 0.0 0.0 0.0
000080 00 00 00 00 00 00 00 00 00 00 00 00 00 00 00 00
       0.0 0.0 0.0 0.0
000090 00 00 00 00 00 00 00 00 00 00 00 00 00 00 00 00
       0.0 0.0 0.0 0.0
0000a0 00 00 00 00 00 00 00 00 00 00 00 00 00 00 00 00
       0.0 0.0 0.0 0.0
0000b0 00 00 00 00 00 00 00 00 00 00 00 00 00 00 00 00
       0.0 0.0 0.0 0.0
0000c0 00 00 00 00 00 00 00 00 00 00 00 00 00 00 00 00
       0.0 0.0 0.0 0.0
0000d0 00 00 00 00 00 00 00 00 00 00 00 00 00 00 00 00
       0.0 0.0 0.0 0.0
0000e0 00 00 00 00 00 00 00 00 00 00 00 00 00 00 00 00
       0.0 0.0 0.0 0.0
0000f0 00 00 00 00 00 00 00 00 00 00 00 00 00 00 00 00
       0.0 0.0 0.0 0.0
000100 00 00 00 00 00 00 00 00 00 00 00 00 00 00 00 00
       0.0 0.0 0.0 0.0
000110 00 00 00 00 00 00 00 00 00 00 00 00 00 00 00 00
       0.0 0.0 0.0 0.0
000120 00 00 00 00 00 00 00 00 00 00 00 00 00 00 00 00
       0.0 0.0 0.0 0.0
000130 00 00 00 00 00 00 00 00 00 00 00 00 00 00 00 00
       0.0 0.0 0.0 0.0
000140 00 00 00 00 00 00 00 00 00 00 00 00 00 00 00 00
       0.0 0.0 0.0 0.0
000150 00 00 00 00 00 00 00 00 00 00 00 00 00 00 00 00
       0.0 0.0 0.0 0.0
000160 00 00 00 00 00 00 00 00 00 00 00 00 00 00 00 00
       0.0 0.0 0.0 0.0
000170 00 00 00 00 00 00 00 00 00 00 00 00 00 00 00 00
       0.0 0.0 0.0 0.0
000180 00 00 00 00 00 00 00 00 00 00 00 00 00 00 00 00
       0.0 0.0 0.0 0.0
000190 00 00 00 00 00 00 00 00 00 00 00 00 00 00 00 00
       0.0 0.0 0.0 0.0
0001a0 00 00 00 00 00 00 00 00 00 00 00 00 00 00 00 00
       0.0 0.0 0.0 0.0
0001b0 00 00 00 00 00 00 00 00 00 00 00 00 00 00 00 00
       0.0 0.0 0.0 0.0
0001c0 00 00 00 00 00 00 00 00 00 00 00 00 00 00 00 00
       0.0 0.0 0.0 0.0
0001d0 00 00 00 00 00 00 00 00 00 00 00 00 00 00 00 00
       0.0 0.0 0.0 0.0
0001e0 00 00 00 00 00 00 00 00 00 00 00 00 00 00 00 00
       0.0 0.0 0.0 0.0
0001f0 00 00 00 00 00 00 00 00 00 00 00 00 00 00 00 00
       0.0 0.0 0.0 0.0
000200 00 00 00 00 00 00 00 00 00 00 00 00 00 00 00 00
       0.0 0.0 0.0 0.0
000210 00 00 00 00 00 00 00 00 00 00 00 00 00 00 00 00
       0.0 0.0 0.0 0.0
000220 00 00 00 00 00 00 00 00 00 00 00 00 00 00 00 00
       0.0 0.0 0.0 0.0
000230 00 00 00 00 00 00 00 00 00 00 00 00 00 00 00 00
       0.0 0.0 0.0 0.0
000240 00 00 00 00 00 00 00 00 00 00 00 00 00 00 00 00
       0.0 0.0 0.0 0.0
000250 00 00 00 00 00 00 00 00 00 00 00 00 00 00 00 00
       0.0 0.0 0.0 0.0
000260 00 00 00 00 00 00 00 00 00 00 00 00 00 00 00 00
       0.0 0.0 0.0 0.0
000270 00 00 00 00 00 00 00 00 00 00 00 00 00 00 00 00
       0.0 0.0 0.0 0.0
000280 00 00 00 00 00 00 00 00 00 00 00 00 00 00 00 00
       0.0 0.0 0.0 0.0
000290 00 00 00 00 00 00 00 00 00 00 00 00 00 00 00 00
       0.0 0.0 0.0 0.0
0002a0 00 00 00 00 00 00 00 00 00 00 00 00 00 00 00 00
       0.0 0.0 0.0 0.0
0002b0 00 00 00 00 00 00 00 00 00 00 00 00
       0.0 0.0 0.0

_ei_mask f4 [175]
000000 00 00 80 3f 00 00 80 3f 00 00 80 3f 00 00 80 3f
       1.0 1.0 1.0 1.0
000010 00 00 80 3f 00 00 80 3f 00 00 80 3f 00 00 80 3f
       1.0 1.0 1.0 1.0
000020 00 00 80 3f 00 00 80 3f 00 00 80 3f 00 00 80 3f
       1.0 1.0 1.0 1.0
000030 00 00 80 3f 00 00 80 3f 00 00 80 3f 00 00 80 3f
       1.0 1.0 1.0 1.0
000040 00 00 80 3f 00 00 80 3f 00 00 80 3f 00 00 80 3f
       1.0 1.0 1.0 1.0
000050 00 00 80 3f 00 00 80 3f 00 00 80 3f 00 00 80 3f
       1.0 1.0 1.0 1.0
000060 00 00 80 3f 00 00 80 3f 00 00 80 3f 00 00 80 3f
       1.0 1.0 1.0 1.0
000070 00 00 80 3f 00 00 80 3f 00 00 80 3f 00 00 80 3f
       1.0 1.0 1.0 1.0
000080 00 00 80 3f 00 00 80 3f 00 00 80 3f 00 00 80 3f
       1.0 1.0 1.0 1.0
000090 00 00 80 3f 00 00 80 3f 00 00 80 3f 00 00 80 3f
       1.0 1.0 1.0 1.0
0000a0 00 00 80 3f 00 00 80 3f 00 00 80 3f 00 00 80 3f
       1.0 1.0 1.0 1.0
0000b0 00 00 80 3f 00 00 80 3f 00 00 80 3f 00 00 80 3f
       1.0 1.0 1.0 1.0
0000c0 00 00 80 3f 00 00 80 3f 00 00 80 3f 00 00 80 3f
       1.0 1.0 1.0 1.0
0000d0 00 00 80 3f 00 00 80 3f 00 00 80 3f 00 00 80 3f
       1.0 1.0 1.0 1.0
0000e0 00 00 80 3f 00 00 80 3f 00 00 80 3f 00 00 80 3f
       1.0 1.0 1.0 1.0
0000f0 00 00 80 3f 00 00 80 3f 00 00 80 3f 00 00 80 3f
       1.0 1.0 1.0 1.0
000100 00 00 80 3f 00 00 80 3f 00 00 80 3f 00 00 80 3f
       1.0 1.0 1.0 1.0
000110 00 00 80 3f 00 00 80 3f 00 00 80 3f 00 00 80 3f
       1.0 1.0 1.0 1.0
000120 00 00 80 3f 00 00 80 3f 00 00 80 3f 00 00 80 3f
       1.0 1.0 1.0 1.0
000130 00 00 80 3f 00 00 80 3f 00 00 80 3f 00 00 80 3f
       1.0 1.0 1.0 1.0
000140 00 00 80 3f 00 00 80 3f 00 00 80 3f 00 00 80 3f
       1.0 1.0 1.0 1.0
000150 00 00 80 3f 00 00 80 3f 00 00 80 3f 00 00 80 3f
       1.0 1.0 1.0 1.0
000160 00 00 80 3f 00 00 80 3f 00 00 80 3f 00 00 80 3f
       1.0 1.0 1.0 1.0
000170 00 00 80 3f 00 00 80 3f 00 00 80 3f 00 00 80 3f
       1.0 1.0 1.0 1.0
000180 00 00 80 3f 00 00 80 3f 00 00 80 3f 00 00 80 3f
       1.0 1.0 1.0 1.0
000190 00 00 80 3f 00 00 80 3f 00 00 80 3f 00 00 80 3f
       1.0 1.0 1.0 1.0
0001a0 00 00 80 3f 00 00 80 3f 00 00 80 3f 00 00 80 3f
       1.0 1.0 1.0 1.0
0001b0 00 00 80 3f 00 00 80 3f 00 00 80 3f 00 00 80 3f
       1.0 1.0 1.0 1.0
0001c0 00 00 80 3f 00 00 80 3f 00 00 80 3f 00 00 80 3f
       1.0 1.0 1.0 1.0
0001d0 00 00 80 3f 00 00 80 3f 00 00 80 3f 00 00 80 3f
       1.0 1.0 1.0 1.0
0001e0 00 00 80 3f 00 00 80 3f 00 00 80 3f 00 00 80 3f
       1.0 1.0 1.0 1.0
0001f0 00 00 80 3f 00 00 80 3f 00 00 80 3f 00 00 80 3f
       1.0 1.0 1.0 1.0
000200 00 00 80 3f 00 00 80 3f 00 00 80 3f 00 00 80 3f
       1.0 1.0 1.0 1.0
000210 00 00 80 3f 00 00 80 3f 00 00 80 3f 00 00 80 3f
       1.0 1.0 1.0 1.0
000220 00 00 80 3f 00 00 80 3f 00 00 80 3f 00 00 80 3f
       1.0 1.0 1.0 1.0
000230 00 00 80 3f 00 00 80 3f 00 00 80 3f 00 00 80 3f
       1.0 1.0 1.0 1.0
000240 00 00 80 3f 00 00 80 3f 00 00 80 3f 00 00 80 3f
       1.0 1.0 1.0 1.0
000250 00 00 80 3f 00 00 80 3f 00 00 80 3f 00 00 80 3f
       1.0 1.0 1.0 1.0
000260 00 00 80 3f 00 00 80 3f 00 00 80 3f 00 00 80 3f
       1.0 1.0 1.0 1.0
000270 00 00 80 3f 00 00 80 3f 00 00 80 3f 00 00 80 3f
       1.0 1.0 1.0 1.0
000280 00 00 80 3f 00 00 80 3f 00 00 80 3f 00 00 80 3f
       1.0 1.0 1.0 1.0
000290 00 00 80 3f 00 00 80 3f 00 00 80 3f 00 00 80 3f
       1.0 1.0 1.0 1.0
0002a0 00 00 80 3f 00 00 80 3f 00 00 80 3f 00 00 80 3f
       1.0 1.0 1.0 1.0
0002b0 00 00 80 3f 00 00 80 3f 00 00 80 3f
       1.0 1.0 1.0

weight f4 [2, 175]
000000 8b da bd 3f b0 64 08 40 f4 0b 2d 3f 17 b0 ae 3f
       1.4832319 2.1311455 0.67596364 1.3647488
000010 b2 9b a1 3f 82 10 05 40 21 92 10 40 d7 30 7c 40
       1.262564 2.0791326 2.258919 3.940481
000020 9a 40 47 3f e0 16 6c 40 ae 52 7f 3f 9f d2 cb 3f
       0.7783295 3.6888962 0.99735534 1.5923651
000030 58 98 dd be 9a e4 31 3f f3 6a a7 3e 22 1f d3 3f
       -0.43280292 0.69489443 0.32698783 1.6493876
000040 c4 94 02 3f f1 35 86 3e f8 db f7 3e 1a ff 34 40
       0.5100825 0.2621303 0.4841001 2.8280702
000050 b2 35 9f 3e 9c ab 45 3f dc 71 c4 3f 05 f8 3c 3f
       0.31095654 0.7721498 1.5347247 0.7381595
000060 b2 d1 8b 40 0d 77 86 40 a5 1d 05 3f 4d 63 54 3f
       4.3693476 4.2020326 0.5199836 0.8296402
000070 9d f9 12 3f d3 7d 01 40 3d ed b5 3f eb e3 11 3e
       0.5741213 2.0233047 1.4213024 0.142471
000080 8e 2f 40 3f 4b 98 e0 3f f2 39 d7 3e ec 92 3c 40
       0.7507256 1.7546476 0.42036396 2.9464674
000090 ab 45 67 3e 3a 89 3b 3f 7d 5a bf 3f 9c fd 79 3f
       0.2258517 0.73256266 1.494949 0.976526
0000a0 98 d4 02 40 f3 79 dd 3f 9b 2a 1f 3f ae 08 99 be
       2.0442257 1.7302841 0.62174386 -0.29889435
0000b0 fd ea 81 3f f5 98 97 3e d4 3e 28 3e 85 29 2f 3f
       1.0149838 0.29608884 0.16430217 0.6842273
0000c0 f4 fd b6 3e e6 e8 9c 3f 11 ba 06 3e eb 4f 0d 3e
       0.35740626 1.2258575 0.13156916 0.13800018
0000d0 4c 4f 6b 3f 6b b7 39 3f 83 31 a6 3e 09 72 b8 bd
       0.9191787 0.725455 0.3245965 -0.090061255
0000e0 c0 8b 1e 3f 80 a8 55 3f 82 12 1f 3f 4d a6 b1 3f
       0.6193199 0.83460236 0.62137616 1.3878876
0000f0 6e ff b6 3e 8c 21 b8 3e c1 f9 53 3f 34 6b c3 3e
       0.35741752 0.35963094 0.8280297 0.38167727
000100 cd cb d5 3e c2 27 1f 3f 75 a7 1d 3f 75 e9 c3 3d
       0.4175705 0.6217004 0.61583644 0.09566013
000110 d0 40 3d 3e 6f 7d cf 3f 19 46 db 3e 4d f4 b2 3f
       0.18481755 1.6210154 0.42826918 1.3980805
000120 cb 57 ce 3f ba 62 5e 3e f8 33 86 3f 02 af 05 3f
       1.6120542 0.21717349 1.048461 0.52220166
000130 bc 7e 31 3f 7c b8 a1 3f b6 ff ab 3e 08 99 d6 3f
       0.69334006 1.2634425 0.3359353 1.6765451
000140 f2 8b b2 3f 57 a9 f8 3f 24 07 1d 3f 26 6e 0d 40
       1.3948958 1.9426678 0.6133902 2.209848
000150 67 c7 c7 3e aa fd 9f 3f 55 33 3e 40 31 70 77 40
       0.3901932 1.2499287 2.971883 3.8662226
000160 f7 b9 7d 3d 9a 19 9d 3f 8e 4a d2 3f d0 b9 8d 3f
       0.061944928 1.2273438 1.6429002 1.107233
000170 b7 fa e4 3f f4 12 38 3f ed 5e 86 3f 60 2f a7 3e
       1.7889012 0.7190392 1.0497719 0.32653332
000180 3e 92 17 40 de ac cf 3e c3 41 a1 3f 01 ef 24 3f
       2.368301 0.40561575 1.2598194 0.6442719
000190 cf bc 8e 3f d4 2f e4 3e 70 61 2b 3f f2 90 97 3f
       1.115137 0.4456774 0.6694555 1.1841109
0001a0 47 e7 e1 3e 38 56 3a 3f 5b 7d 83 3f 5a 2f eb 3f
       0.44121763 0.7278781 1.027263 1.8373826
0001b0 c6 32 ab 3e f8 d6 14 40 89 a5 d4 3e 0a e4 93 3f
       0.33437175 2.3256207 0.41532543 1.1553967
0001c0 2d b9 d8 3e 6f 39 05 40 ef a1 24 3f 2e 9a 07 40
       0.42328778 2.0816305 0.6430959 2.1187854
0001d0 a9 22 40 3f 9f 3e a1 3f 03 cd 00 40 6d c0 ce 3f
       0.7505289 1.2597235 2.012513 1.6152474
0001e0 c7 0e 39 40 70 38 d5 3f c7 d8 9d 3f 3c e7 06 40
       2.891527 1.6657848 1.233178 2.1078634
0001f0 66 7e 4b 40 bb c3 a3 3f 78 c0 a5 3e 6d c4 d3 3e
       3.1795897 1.2794107 0.32373405 0.41360798
000200 7a 2e 7e 3d 8f 3a 30 3f ed e4 ce 3e 41 44 ce 3e
       0.062056042 0.68839353 0.40409032 0.4028645
000210 c3 06 22 3f 90 df c3 3f d2 45 1f 3f db 7f 0c 3f
       0.6329157 1.5302601 0.6221591 0.5488259
000220 c3 bb 80 3f 24 2a 9c 3f 6c ce 33 3f 7c 7d 74 3f
       1.00573 1.220036 0.7023685 0.95503974
000230 74 e2 5b 3f 8c 1f 0e 3f ca 7c 02 40 30 50 b3 3f
       0.85892415 0.55516887 2.0388665 1.4008846
000240 99 75 af 3e 69 74 37 3f 06 17 38 3f 46 50 0a bd
       0.34269407 0.71662 0.7191013 -0.03376796
000250 b0 10 de 3e f8 50 ed 3e 4a 21 fa 3d 6b 17 ab 3e
       0.43372107 0.46350837 0.12213381 0.33416304
000260 ef ae e5 3f c6 dc ef 3e 0a 5f 35 40 20 76 fb 3f
       1.794401 0.46848124 2.8339257 1.9645424
000270 a2 67 5b 3f 4e 9b 2d 40 d3 b0 58 3f f3 f7 65 be
       0.85705006 2.712604 0.8464481 -0.22457866
000280 68 c2 b5 3f 99 b7 32 3f 55 7a a6 3f 22 12 61 3f
       1.4199953 0.698114 1.3006083 0.87918293
000290 ee 70 bf 3f 94 d0 0f 40 fc 55 d8 be 75 40 c8 3f
       1.4956338 2.2471056 -0.422531 1.5644671
0002a0 ee 7e 93 be 51 49 ff 3f d3 a1 76 3f e7 a4 c8 3f
       -0.28807777 1.9944249 0.96340674 1.5675324
0002b0 98 8b d2 3f 5b 54 59 be 18 de d3 3e 99 4e 03 bf
       1.6448851 -0.21223585 0.41380382 -0.51291806
0002c0 9c 38 1c 40 57 28 07 3f b8 36 34 3f 84 9d 94 bd
       2.4409552 0.5279593 0.70395994 -0.07256606
0002d0 e1 79 06 40 69 aa db 3f 25 10 2b 40 75 d7 d9 bc
       2.101189 1.716138 2.6728604 -0.026591996
0002e0 f7 84 0c 40 14 cb b9 3f a9 7b 92 3f 0c 49 50 3f
       2.1956155 1.45151 1.1443988 0.8136146
0002f0 ca 14 0d 3e 48 db cd 3d c9 a1 ac 3f 1b fd cb 3d
       0.13777462 0.1005159 1.3486873 0.099603854
000300 e4 34 87 3e 9c cf d4 3d fb 7b 0f 40 69 da 1b bc
       0.2640754 0.10391161 2.2419422 -0.009512522
000310 f5 8c 8c 3f 2c 41 b0 3f 31 24 16 3f f5 39 98 3f
       1.0980517 1.3769889 0.58648974 1.1892687
000320 d0 f3 24 40 ee 32 cf 3e 40 70 e7 3f ee 41 c6 3f
       2.5773811 0.40468544 1.8081131 1.548887
000330 46 60 1d 40 24 8b 24 3f 7c ef b1 3d d3 19 4b 3f
       2.459001 0.6427481 0.08688256 0.7933628
000340 83 81 0a 3f 5e 48 ea bd d5 76 1d 40 54 d5 8a 3e
       0.5410387 -0.11439584 2.460378 0.2711588
000350 52 5a 71 3f a2 ce 27 3f fc 7a 84 3f 3d ca 0e 3f
       0.9427844 0.6554967 1.0350032 0.5577734
000360 e6 8a 93 3f ee 45 03 be 91 88 24 3f 5a f4 a4 3e
       1.1526763 -0.12819645 0.64270884 0.32217675
000370 1b ab ab 3f 9e ad 6d 3e 81 b5 f5 3e 14 bf 01 3c
       1.3411592 0.23210761 0.4799004 0.007919092
000380 9b 84 b3 bd ae f8 2d bf 5d 56 22 bf 00 3c 61 3e
       -0.08765527 -0.6795758 -0.6341303 0.21995544
000390 9d 0c 7d 3e 5a e6 6a 3d e9 29 90 3f a6 03 10 3f
       0.24711843 0.057348587 1.126279 0.5625557
0003a0 4a a5 25 3f ba 9b 83 3d da 48 ed be ff 68 f6 3d
       0.64705336 0.06426187 -0.46344644 0.12031745
0003b0 84 f4 a0 3e 94 ea 1b 3e 7c 07 a4 3f 28 80 3c 3f
       0.3143655 0.15226203 1.2814784 0.7363305
0003c0 8d 33 08 3f fd 54 75 3f a4 ff 0c 3f 07 1c bd 3d
       0.5320366 0.95832807 0.55077577 0.092338614
0003d0 6b 95 99 3f b1 ff 12 3f c5 01 a1 3f 6b 3f ba 3f
       1.1998724 0.57421404 1.2578665 1.4550604
0003e0 56 16 05 3f 6d f0 76 3f a2 a5 19 3f f9 44 51 3f
       0.51987207 0.9646061 0.6001836 0.8174587
0003f0 fb 19 98 3f be 47 31 3e 0d 83 64 3f 39 1c 97 3f
       1.1882929 0.17312524 0.8926247 1.1805488

bias f4 [175]
000000 00 00 00 00 00 00 00 00 00 00 00 00 00 00 00 00
       0.0 0.0 0.0 0.0
000010 00 00 00 00 00 00 00 00 00 00 00 00 00 00 00 00
       0.0 0.0 0.0 0.0
000020 00 00 00 00 00 00 00 00 00 00 00 00 00 00 00 00
       0.0 0.0 0.0 0.0
000030 00 00 00 00 00 00 00 00 00 00 00 00 00 00 00 00
       0.0 0.0 0.0 0.0
000040 00 00 00 00 00 00 00 00 00 00 00 00 00 00 00 00
       0.0 0.0 0.0 0.0
000050 00 00 00 00 00 00 00 00 00 00 00 00 00 00 00 00
       0.0 0.0 0.0 0.0
000060 00 00 00 00 00 00 00 00 00 00 00 00 00 00 00 00
       0.0 0.0 0.0 0.0
000070 00 00 00 00 00 00 00 00 00 00 00 00 00 00 00 00
       0.0 0.0 0.0 0.0
000080 00 00 00 00 00 00 00 00 00 00 00 00 00 00 00 00
       0.0 0.0 0.0 0.0
000090 00 00 00 00 00 00 00 00 00 00 00 00 00 00 00 00
       0.0 0.0 0.0 0.0
0000a0 00 00 00 00 00 00 00 00 00 00 00 00 00 00 00 00
       0.0 0.0 0.0 0.0
0000b0 00 00 00 00 00 00 00 00 00 00 00 00 00 00 00 00
       0.0 0.0 0.0 0.0
0000c0 00 00 00 00 00 00 00 00 00 00 00 00 00 00 00 00
       0.0 0.0 0.0 0.0
0000d0 00 00 00 00 00 00 00 00 00 00 00 00 00 00 00 00
       0.0 0.0 0.0 0.0
0000e0 00 00 00 00 00 00 00 00 00 00 00 00 00 00 00 00
       0.0 0.0 0.0 0.0
0000f0 00 00 00 00 00 00 00 00 00 00 00 00 00 00 00 00
       0.0 0.0 0.0 0.0
000100 00 00 00 00 00 00 00 00 00 00 00 00 00 00 00 00
       0.0 0.0 0.0 0.0
000110 00 00 00 00 00 00 00 00 00 00 00 00 00 00 00 00
       0.0 0.0 0.0 0.0
000120 00 00 00 00 00 00 00 00 00 00 00 00 00 00 00 00
       0.0 0.0 0.0 0.0
000130 00 00 00 00 00 00 00 00 00 00 00 00 00 00 00 00
       0.0 0.0 0.0 0.0
000140 00 00 00 00 00 00 00 00 00 00 00 00 00 00 00 00
       0.0 0.0 0.0 0.0
000150 00 00 00 00 00 00 00 00 00 00 00 00 00 00 00 00
       0.0 0.0 0.0 0.0
000160 00 00 00 00 00 00 00 00 00 00 00 00 00 00 00 00
       0.0 0.0 0.0 0.0
000170 00 00 00 00 00 00 00 00 00 00 00 00 00 00 00 00
       0.0 0.0 0.0 0.0
000180 00 00 00 00 00 00 00 00 00 00 00 00 00 00 00 00
       0.0 0.0 0.0 0.0
000190 00 00 00 00 00 00 00 00 00 00 00 00 00 00 00 00
       0.0 0.0 0.0 0.0
0001a0 00 00 00 00 00 00 00 00 00 00 00 00 00 00 00 00
       0.0 0.0 0.0 0.0
0001b0 00 00 00 00 00 00 00 00 00 00 00 00 00 00 00 00
       0.0 0.0 0.0 0.0
0001c0 00 00 00 00 00 00 00 00 00 00 00 00 00 00 00 00
       0.0 0.0 0.0 0.0
0001d0 00 00 00 00 00 00 00 00 00 00 00 00 00 00 00 00
       0.0 0.0 0.0 0.0
0001e0 00 00 00 00 00 00 00 00 00 00 00 00 00 00 00 00
       0.0 0.0 0.0 0.0
0001f0 00 00 00 00 00 00 00 00 00 00 00 00 00 00 00 00
       0.0 0.0 0.0 0.0
000200 00 00 00 00 00 00 00 00 00 00 00 00 00 00 00 00
       0.0 0.0 0.0 0.0
000210 00 00 00 00 00 00 00 00 00 00 00 00 00 00 00 00
       0.0 0.0 0.0 0.0
000220 00 00 00 00 00 00 00 00 00 00 00 00 00 00 00 00
       0.0 0.0 0.0 0.0
000230 00 00 00 00 00 00 00 00 00 00 00 00 00 00 00 00
       0.0 0.0 0.0 0.0
000240 00 00 00 00 00 00 00 00 00 00 00 00 00 00 00 00
       0.0 0.0 0.0 0.0
000250 00 00 00 00 00 00 00 00 00 00 00 00 00 00 00 00
       0.0 0.0 0.0 0.0
000260 00 00 00 00 00 00 00 00 00 00 00 00 00 00 00 00
       0.0 0.0 0.0 0.0
000270 00 00 00 00 00 00 00 00 00 00 00 00 00 00 00 00
       0.0 0.0 0.0 0.0
000280 00 00 00 00 00 00 00 00 00 00 00 00 00 00 00 00
       0.0 0.0 0.0 0.0
000290 00 00 00 00 00 00 00 00 00 00 00 00 00 00 00 00
       0.0 0.0 0.0 0.0
0002a0 00 00 00 00 00 00 00 00 00 00 00 00 00 00 00 00
       0.0 0.0 0.0 0.0
0002b0 00 00 00 00 00 00 00 00 00 00 00 00
       0.0 0.0 0.0

_ei_mask f4 [175]
000000 00 00 80 3f 00 00 80 3f 00 00 80 3f 00 00 80 3f
       1.0 1.0 1.0 1.0
000010 00 00 80 3f 00 00 80 3f 00 00 80 3f 00 00 80 3f
       1.0 1.0 1.0 1.0
000020 00 00 80 3f 00 00 80 3f 00 00 80 3f 00 00 80 3f
       1.0 1.0 1.0 1.0
000030 00 00 80 3f 00 00 80 3f 00 00 80 3f 00 00 80 3f
       1.0 1.0 1.0 1.0
000040 00 00 80 3f 00 00 80 3f 00 00 80 3f 00 00 80 3f
       1.0 1.0 1.0 1.0
000050 00 00 80 3f 00 00 80 3f 00 00 80 3f 00 00 80 3f
       1.0 1.0 1.0 1.0
000060 00 00 80 3f 00 00 80 3f 00 00 80 3f 00 00 80 3f
       1.0 1.0 1.0 1.0
000070 00 00 80 3f 00 00 80 3f 00 00 80 3f 00 00 80 3f
       1.0 1.0 1.0 1.0
000080 00 00 80 3f 00 00 80 3f 00 00 80 3f 00 00 80 3f
       1.0 1.0 1.0 1.0
000090 00 00 80 3f 00 00 80 3f 00 00 80 3f 00 00 80 3f
       1.0 1.0 1.0 1.0
0000a0 00 00 80 3f 00 00 80 3f 00 00 80 3f 00 00 80 3f
       1.0 1.0 1.0 1.0
0000b0 00 00 80 3f 00 00 80 3f 00 00 80 3f 00 00 80 3f
       1.0 1.0 1.0 1.0
0000c0 00 00 80 3f 00 00 80 3f 00 00 80 3f 00 00 80 3f
       1.0 1.0 1.0 1.0
0000d0 00 00 80 3f 00 00 80 3f 00 00 80 3f 00 00 80 3f
       1.0 1.0 1.0 1.0
0000e0 00 00 80 3f 00 00 80 3f 00 00 80 3f 00 00 80 3f
       1.0 1.0 1.0 1.0
0000f0 00 00 80 3f 00 00 80 3f 00 00 80 3f 00 00 80 3f
       1.0 1.0 1.0 1.0
000100 00 00 80 3f 00 00 80 3f 00 00 80 3f 00 00 80 3f
       1.0 1.0 1.0 1.0
000110 00 00 80 3f 00 00 80 3f 00 00 80 3f 00 00 80 3f
       1.0 1.0 1.0 1.0
000120 00 00 80 3f 00 00 80 3f 00 00 80 3f 00 00 80 3f
       1.0 1.0 1.0 1.0
000130 00 00 80 3f 00 00 80 3f 00 00 80 3f 00 00 80 3f
       1.0 1.0 1.0 1.0
000140 00 00 80 3f 00 00 80 3f 00 00 80 3f 00 00 80 3f
       1.0 1.0 1.0 1.0
000150 00 00 80 3f 00 00 80 3f 00 00 80 3f 00 00 80 3f
       1.0 1.0 1.0 1.0
000160 00 00 80 3f 00 00 80 3f 00 00 80 3f 00 00 80 3f
       1.0 1.0 1.0 1.0
000170 00 00 80 3f 00 00 80 3f 00 00 80 3f 00 00 80 3f
       1.0 1.0 1.0 1.0
000180 00 00 80 3f 00 00 80 3f 00 00 80 3f 00 00 80 3f
       1.0 1.0 1.0 1.0
000190 00 00 80 3f 00 00 80 3f 00 00 80 3f 00 00 80 3f
       1.0 1.0 1.0 1.0
0001a0 00 00 80 3f 00 00 80 3f 00 00 80 3f 00 00 80 3f
       1.0 1.0 1.0 1.0
0001b0 00 00 80 3f 00 00 80 3f 00 00 80 3f 00 00 80 3f
       1.0 1.0 1.0 1.0
0001c0 00 00 80 3f 00 00 80 3f 00 00 80 3f 00 00 80 3f
       1.0 1.0 1.0 1.0
0001d0 00 00 80 3f 00 00 80 3f 00 00 80 3f 00 00 80 3f
       1.0 1.0 1.0 1.0
0001e0 00 00 80 3f 00 00 80 3f 00 00 80 3f 00 00 80 3f
       1.0 1.0 1.0 1.0
0001f0 00 00 80 3f 00 00 80 3f 00 00 80 3f 00 00 80 3f
       1.0 1.0 1.0 1.0
000200 00 00 80 3f 00 00 80 3f 00 00 80 3f 00 00 80 3f
       1.0 1.0 1.0 1.0
000210 00 00 80 3f 00 00 80 3f 00 00 80 3f 00 00 80 3f
       1.0 1.0 1.0 1.0
000220 00 00 80 3f 00 00 80 3f 00 00 80 3f 00 00 80 3f
       1.0 1.0 1.0 1.0
000230 00 00 80 3f 00 00 80 3f 00 00 80 3f 00 00 80 3f
       1.0 1.0 1.0 1.0
000240 00 00 80 3f 00 00 80 3f 00 00 80 3f 00 00 80 3f
       1.0 1.0 1.0 1.0
000250 00 00 80 3f 00 00 80 3f 00 00 80 3f 00 00 80 3f
       1.0 1.0 1.0 1.0
000260 00 00 80 3f 00 00 80 3f 00 00 80 3f 00 00 80 3f
       1.0 1.0 1.0 1.0
000270 00 00 80 3f 00 00 80 3f 00 00 80 3f 00 00 80 3f
       1.0 1.0 1.0 1.0
000280 00 00 80 3f 00 00 80 3f 00 00 80 3f 00 00 80 3f
       1.0 1.0 1.0 1.0
000290 00 00 80 3f 00 00 80 3f 00 00 80 3f 00 00 80 3f
       1.0 1.0 1.0 1.0
0002a0 00 00 80 3f 00 00 80 3f 00 00 80 3f 00 00 80 3f
       1.0 1.0 1.0 1.0
0002b0 00 00 80 3f 00 00 80 3f 00 00 80 3f
       1.0 1.0 1.0

weight f4 [403, 3]
000000 0c b7 68 bf e9 1e ab 3f 7f 2e 30 40 c5 1d a4 bf
       -0.9090431 1.3368808 2.752838 -1.2821585
000010 5a 31 d5 3f 24 45 76 40 8d 0d ad bf c4 39 a0 3f
       1.6655686 3.84797 -1.351976 1.2517629
000020 68 c2 8f 40 92 52 b7 bf 33 30 a4 3f 0a 21 8c 40
       4.492481 -1.4322073 1.2827209 4.379033
000030 29 9b 9e bf 61 19 9f 3f d8 85 8b 40 7b 64 a1 bf
       -1.2391101 1.242962 4.3600883 -1.2608789
000040 df fb a4 3f 2b 1e 8f 40 30 4c d7 bf 87 09 9f 3f
       1.2889365 4.4724326 -1.6820126 1.2424783
000050 ff 6f 94 40 60 90 df bf 95 04 6e 3f 9c c0 93 40
       4.6386714 -1.7465935 0.9297574 4.617262
000060 93 32 3b bf e3 0f 9f 3f 1e aa 38 40 ad 42 4f 3f
       -0.73124045 1.2426723 2.8853831 0.80961114
000070 f7 6d 85 3f 5d a5 eb be 85 89 cb 3f cc ff 70 3f
       1.0424184 -0.460246 1.5901343 0.94140315
000080 2f 82 a7 bf 2a ec 8f 3f be ec cc 3f 57 09 7c bf
       -1.3086604 1.1243947 1.6009748 -0.9845175
000090 5b 50 a3 3e 1c 4a 57 3f 69 94 74 be 16 2a e5 3e
       0.31897244 0.84097457 -0.23884739 0.44758672
0000a0 5d 7b 5c 3f db d5 e8 bd 48 94 ad bd 97 15 85 3f
       0.8612574 -0.11368915 -0.08475548 1.0397214
0000b0 e3 f4 2d 3e 55 e3 9f be 84 c3 c3 3f 11 b5 93 3f
       0.16987948 -0.31228128 1.5294042 1.1539632
0000c0 26 c6 d0 3e d8 55 9c 3f cf 8c 22 bd bc 42 e8 3e
       0.40776175 1.2213697 -0.039685067 0.45363414
0000d0 33 7a 2e 3f 87 f8 38 3e 7b bc 06 3f e7 4e ef 3f
       0.6815521 0.18063556 0.5263135 1.8695954
0000e0 20 bc a7 3e a9 e8 12 3e 70 37 02 40 97 80 09 3e
       0.32760715 0.14346565 2.0346336 0.1342796
0000f0 8e d2 54 3e c3 cd d7 3f 75 7c 8a 3c bd 72 44 3f
       0.20783445 1.6859668 0.016905049 0.76737577
000100 c6 6e af 3f e4 09 e0 3e db 10 ac bd 42 87 8f 3f
       1.370568 0.43757546 -0.084016524 1.1213152
000110 08 6f 08 40 be be 1c bf ff bc 7a 3f ab e0 53 40
       2.1317768 -0.6122855 0.97944635 3.3105876
000120 94 8e 29 bf 52 8b 61 3f 73 eb 57 40 0e d3 64 be
       -0.6623318 0.8810321 3.3737457 -0.22346136
000130 a9 ad 4c 3f 9e 6d 37 40 bd 35 d3 3d d4 45 8b 3e
       0.79952484 2.8660655 0.10312984 0.27201712
000140 9e 20 00 40 7e ac d6 3e 71 aa 11 3f 8b a2 a8 3f
       2.0019908 0.41928476 0.569007 1.3174604
000150 e8 62 66 3f eb c0 08 3f 85 34 37 3f 64 30 0c bd
       0.8999467 0.5341937 0.71564513 -0.034225836
000160 15 4f 2f 3f 53 a2 dd 3f 36 35 48 be 1e 5e fa 3e
       0.68480045 1.7315162 -0.19551548 0.4889993
000170 f5 db 12 40 c4 9e 76 3e b8 52 cc 3e 41 9f da 3f
       2.294675 0.24084002 0.3990686 1.707985
000180 38 a8 99 3f c4 01 e5 3f ad fb b2 3e b0 eb 78 3f
       1.2004461 1.7891164 0.34957638 0.9723463
000190 1c b9 25 3f 81 05 56 3e ab 5c 97 3f 80 e5 02 3e
       0.6473558 0.20900537 1.1825155 0.1278286
0001a0 b2 ea 7d 3f 6b 9c b3 3f 09 b3 20 3f 7b 27 08 3f
       0.9918624 1.403211 0.62773186 0.5318524
0001b0 c7 ee 81 3f 46 88 11 3f 1e 24 80 3e e5 47 89 3f
       1.0150994 0.5684856 0.25027555 1.0725065
0001c0 47 9b 5b 3e 30 45 31 3f 76 ba 8d 3f a5 d1 2f 3e
       0.21445952 0.69246197 1.1072528 0.17169817
0001d0 78 fb 78 3f 62 be a3 3f d2 32 6b 3e 32 86 6f be
       0.9725871 1.2792475 0.22968605 -0.23391035
0001e0 b9 1d 9b 3f 36 6c 10 3e 7d 61 88 3e 01 9d b6 3f
       1.2118446 0.14103779 0.26636878 1.4266664
0001f0 88 1f 0a 3e f7 e3 17 3e 4e c6 8c 3f a2 1b 31 3e
       0.1348859 0.14833055 1.0998018 0.17295697
000200 9a 63 c1 3e 8f 88 cb 3f 76 f6 87 3e 3a 0c e4 3e
       0.37771302 1.5901049 0.26555222 0.44540578
000210 f0 7d bb 3f af e1 56 bc 31 14 66 be 02 98 96 3f
       1.4647808 -0.013115331 -0.2246864 1.1765139
000220 71 20 5b 3e 8f 74 e3 3e dc 41 8d 3f 60 29 de 3d
       0.21399094 0.44424865 1.1035724 0.108477354
000230 11 76 10 3f f6 be 6b 3f 41 5a 77 3e 48 19 57 3f
       0.56430155 0.9208826 0.24155523 0.8402295
000240 be fb 82 3f 9f 1d 6a bc d5 e7 48 3f 2d 5b dd 3e
       1.0233076 -0.014289289 0.7847875 0.43233624
000250 f9 6e 5d bd ea 9e f6 3f 6e ae b0 be 3c 1b 69 3f
       -0.05406091 1.9267247 -0.3450808 0.9105718
000260 d1 1d 38 40 7b d1 53 be a9 f9 67 3f a9 7d 38 40
       2.8768198 -0.20685379 0.90615326 2.8826697
000270 4c 00 70 be 7e fc 66 3e ae 6f 19 40 5b 2e 10 be
       -0.23437613 0.22557256 2.3974414 -0.14080183
000280 b8 07 42 3f 49 c5 01 40 b0 01 81 be c4 45 d6 3f
       0.7579303 2.0276663 -0.251966 1.6740041
000290 7e 49 ca 3f a6 27 c0 3d 9e 25 2b 3f fc 31 e5 3f
       1.5803678 0.09382562 0.66854274 1.7905879
0002a0 7a 12 74 be d7 39 64 3f 86 59 0e 40 e4 f8 6e bf
       -0.23835173 0.89150757 2.224214 -0.93348527
0002b0 ad 1e 06 40 1f 5b d1 3f da 1e 48 bf 65 91 f6 3f
       2.0956223 1.6355933 -0.78172076 1.9263121
0002c0 f5 1a 71 3f ff 21 ca be b6 bb 0c 40 69 d8 b2 3f
       0.9418176 -0.39479062 2.198957 1.3972293
0002d0 56 f2 9f bf 7a 6c d2 3f be 95 1d 40 1f 5c 85 bf
       -1.249583 1.6439354 2.4622645 -1.0418738
0002e0 cd df 9b 3f 68 1f 56 40 b6 be a6 bf 58 33 e5 3f
       1.2177674 3.345667 -1.302695 1.7906294
0002f0 89 0b 6c 40 8c 99 bc bf 92 8f c5 3f f2 7f 79 40
       3.688204 -1.4734359 1.5434439 3.8984342
000300 9a 9c bd bf db 0e b0 3f f6 48 7e 40 0c e2 be bf
       -1.4813416 1.3754534 3.9732032 -1.4912734
000310 63 3a ca 3f 8f 86 79 40 4d e7 a9 bf cc bf d6 3f
       1.5799068 3.8988378 -1.3273712 1.6777282
000320 e0 c7 6f 40 7a fd 95 bf b7 1f 85 3f a8 b8 75 40
       3.7465744 -1.171798 1.0400304 3.8393955
000330 71 57 72 bf 56 f7 81 3f 1a f9 54 40 6b 60 1d bf
       -0.94664675 1.0153606 3.327704 -0.6147525
000340 37 d8 7a 3f 5b 3f 1a 40 69 bf aa 3e 6f c8 d8 3f
       0.9798617 2.410117 0.3334916 1.6936167
000350 28 de 85 3f ad cf 9a 3d ad 4c 7d 3f 8f 74 41 3f
       1.0458422 0.07559142 0.9894512 0.7556848
000360 c8 d4 d6 bd cb 2b 32 3f 49 60 89 3f b0 8e bd 3e
       -0.104898036 0.6959807 1.0732509 0.37022924
000370 22 cb 51 3f 89 26 cf 3f fd 9b 5e 3c 3d 09 21 3f
       0.8195058 1.6183635 0.013586995 0.6290472
000380 a2 1c 14 40 14 78 2e be 10 92 bb 3e f2 8a 15 40
       2.3142476 -0.17037994 0.36634874 2.3366055
000390 60 c0 71 be 97 64 bd 3e b9 25 22 40 f7 3d 7b be
       -0.23608541 0.36990806 2.5335524 -0.24535356
0003a0 17 f6 10 3f 6d bd 09 40 81 a8 d7 3e 7b 04 a2 3f
       0.56625503 2.1521866 0.42120746 1.2657617
0003b0 07 e3 af 3f 9f b3 16 3f 62 41 80 3f 92 f5 73 3f
       1.3741158 0.5886783 1.0019953 0.95296586
0003c0 27 fd 09 bd fb 0a 4e 3f 70 eb 7d 3f 11 23 18 3f
       -0.03368869 0.80485505 0.99187374 0.5942851
0003d0 af cd 82 3f 89 18 ac 3f cd 8d 17 3f 5e ac 3d 3f
       1.021902 1.3444988 0.59200746 0.74091136
0003e0 bc 8e 70 3f be f0 62 3f 32 03 74 3f 34 2e 35 3f
       0.93967795 0.88648593 0.95317376 0.70773625
0003f0 67 25 b9 3f 7e 0d 4b 3f ca 2d ee 3e 56 92 37 3f
       1.4464539 0.7931746 0.4651931 0.71707666

bias f4 [3]
000000 00 00 00 00 00 00 00 00 00 00 00 00
       0.0 0.0 0.0

_ei_mask f4 [3]
000000 00 00 80 3f 00 00 80 3f 00 00 80 3f
       1.0 1.0 1.0

rmat f4 [1, 1, 3]
000000 00 00 80 bf 00 00 00 40 00 00 80 bf
       -1.0 2.0 -1.0

weight f4 [3, 175]
000000 5e e2 48 3e 0a 6a 59 3e d9 be 72 3f a9 7d cc be
       0.19617602 0.21231857 0.9482246 -0.3993962
000010 ed ab d7 3e d2 1d bb 3e 7d 74 62 3e 8e b6 1d 3f
       0.42123356 0.3654619 0.22114749 0.6160668
000020 41 38 3c 3f 4b cc ba 3e 4c c4 96 3e a5 59 fd bc
       0.73523337 0.36483988 0.29446638 -0.030926535
000030 0e b7 8a 3f e4 a1 0d 3f 65 51 62 bf 70 af dc 3e
       1.0837114 0.5532515 -0.8840545 0.43102598
000040 21 57 68 bf 64 5a ee 3c fe 26 59 bf 3e 26 38 3f
       -0.9075795 0.029095836 -0.8482512 0.7193335
000050 ba 56 b5 3e c8 e9 8e 3e 15 a9 10 3f a8 6c e5 3e
       0.3541773 0.27912736 0.56508 0.4480946
000060 22 66 21 3f 15 36 13 3f 5b 28 10 3f a6 16 0e 3f
       0.6304647 0.575044 0.5631158 0.5550331
000070 1a 85 18 3f 47 61 15 3f 40 97 e9 3e ce b2 19 3f
       0.59578097 0.5835156 0.45623207 0.6003846
000080 22 fc 02 3f 68 e5 19 3f 5b a3 f5 3e 78 bd ed 3e
       0.51165974 0.6011567 0.47976193 0.46433616
000090 46 36 11 3e 9e 23 53 bf db ca 24 3f 86 ba 27 3f
       0.1418086 -0.8247622 0.6437203 0.6551899
0000a0 88 71 3a 3f a8 43 61 3f fa b6 dc 3e d4 41 1f be
       0.72829485 0.8799386 0.4310835 -0.15552455
0000b0 54 41 36 3f 84 9f bd 3e 48 b8 ec 3e 90 ae 30 be
       0.7119343 0.37035763 0.46234345 -0.1725409
0000c0 3d 01 1c 3f 04 e8 cb 3e 57 d0 64 3f 3e 9b 60 3f
       0.6093939 0.3982545 0.893804 0.8773688
0000d0 18 e5 be be 3f 18 ec 3e d1 e1 02 3d c3 8f 0a 3f
       -0.3728416 0.46112248 0.031953637 0.5412561
0000e0 06 e6 03 3f cf 24 f3 bd 48 4d 8c be 46 fe 62 3e
       0.5152286 -0.11872255 -0.2740271 0.2216731
0000f0 dd 21 37 3e 25 44 10 3f a9 b1 8e 3e 01 2a 1e 3f
       0.17884012 0.5635398 0.2786992 0.6178284
000100 9c 9a d9 3e 7f 3f b4 3e ea 74 a4 bb 83 1b 14 3f
       0.4250077 0.35204694 -0.00501882 0.5785448
000110 9b 67 24 3f 03 87 ea 3e b2 d5 1b be 78 8a 45 bd
       0.6422059 0.4580613 -0.15218237 -0.048227757
000120 ef 70 fc 3d 7c 5e 66 be d3 86 d3 bc f1 f9 b6 be
       0.12326228 -0.2249698 -0.025821125 -0.35737565
000130 83 ca c0 be e0 f3 30 3e f4 b3 84 be 4d 58 b8 3b
       -0.37654504 0.17280531 -0.25918543 0.0056257606
000140 db d4 74 be 88 92 42 be 13 71 88 bf 10 5a 0a 3f
       -0.23909323 -0.1900121 -1.0659508 0.54043674
000150 64 51 42 be 88 d1 f7 3d c8 12 f2 3e b9 1f 03 3f
       -0.1897636 0.12100512 0.47279954 0.5122028
000160 d6 04 e5 3e 27 d3 ce 3e a4 e9 e0 be b9 35 0d bf
       0.44730252 0.4039547 -0.43928254 -0.551601
000170 a0 6d d1 3e 8b 4c 08 bf cb d6 a7 3e db b7 00 3f
       0.4090395 -0.53241795 0.32781062 0.5028054
000180 29 6b 38 3f 27 93 07 3f f5 5f 84 3d 27 16 12 3f
       0.72038513 0.5295891 0.06463615 0.5706505
000190 8d 66 12 3f 4d 11 13 3f 28 94 e5 3e b3 a2 ef 3e
       0.5718773 0.57448274 0.44839597 0.46803817
0001a0 04 6b b0 3e e1 81 09 3f 5b c1 10 3f 2e 5a 83 3e
       0.34456646 0.53713804 0.5654504 0.2565474
0001b0 1f 46 b7 3e 90 8c 36 3f a1 6c 07 3e 3d 21 04 3f
       0.35795686 0.7130823 0.13225032 0.5161322
0001c0 3d 48 02 3f f7 c9 01 3f ea 57 bd 3e d0 a5 22 3f
       0.50891477 0.506988 0.36981136 0.6353426
0001d0 3b 6f 17 3f 70 7f 3c 3f 9c 59 18 3f de 86 6b 3f
       0.591541 0.73631954 0.59511733 0.92002666
0001e0 6d 11 19 3f a8 34 8e 3f 6e da fc 3e 7c a9 9c 3e
       0.59792215 1.110982 0.493854 0.30598056
0001f0 9e 48 25 3f f3 34 06 3f 4f 0b 2a 3e 24 14 81 3e
       0.6456393 0.52424544 0.16605876 0.2521068
000200 71 44 89 3f bf 63 0a 3f 22 45 f6 3e 0e 08 25 3f
       1.0724012 0.5405845 0.4809962 0.64465415
000210 d6 5d 32 3f eb 4a 54 3f 8f 32 1e 3f ec 4b 1d 3e
       0.6967443 0.82926816 0.61795896 0.15360993
000220 3d 92 49 be 8a 94 f1 3e c2 83 ab 3e 91 49 05 bd
       -0.19684692 0.4718364 0.3349896 -0.03254086
000230 67 45 d7 3e d6 5d 07 3f 82 ef 1e 3f 6f bc 13 3f
       0.42045137 0.5287756 0.6208421 0.577094
000240 5d 60 79 3d 29 88 f8 3e ce 2e 7b 3f 98 df 0c 3f
       0.060882915 0.48541382 0.98118293 0.55028677
000250 df f5 99 3f d3 0f 5d 3e 7f e5 04 3f 77 cc de be
       1.2028159 0.21588068 0.51912683 -0.4351537
000260 5e b2 cb 3e a9 26 0c 3f b7 65 b4 be 9b 91 df 3e
       0.3978452 0.5474649 -0.35233852 0.43665776
000270 ce ec 88 3e 8f b3 41 3d 25 18 d5 3e 35 fd 38 3f
       0.26743168 0.04729038 0.41619983 0.72261363
000280 ac ee f1 3e 4d 3c e4 3e eb 50 23 3f 7c 67 f8 3e
       0.47252405 0.44577256 0.63795346 0.48516452
000290 56 38 c2 ba 65 04 f4 3e 59 fe a7 3f 1d 0f ab bd
       -0.0014817815 0.47659603 1.3124496 -0.08352492
0002a0 ef 19 33 3f fa 8c e2 3e a5 60 d5 3e cd a9 57 3e
       0.69961447 0.44248182 0.41675296 0.21060868
0002b0 64 31 aa 3e 32 ee 0b 3f a3 b5 40 be 73 8d 25 bf
       0.33240807 0.5466033 -0.18819289 -0.6466896
0002c0 0d 9d 8b 3f 5e 2d 0a bd 4c 14 d5 be 26 4b 7e 3e
       1.0907303 -0.03373467 -0.41617048 0.24833354
0002d0 78 80 0a 3e a7 56 a4 3f b7 45 ee 3e 8f 32 a2 3e
       0.1352557 1.2838944 0.46537563 0.31679198
0002e0 64 0a 80 3f a7 ea e4 3e 2f bc 48 3f 80 97 d3 3e
       1.0003171 0.44710276 0.78412145 0.41326523
0002f0 17 fa a6 3e 4d 58 80 3f ae ef 70 3f 97 f6 6d 3f
       0.32612678 1.0026947 0.9411572 0.9295439
000300 47 2a 8a bf d9 fb 42 3f 80 06 26 3f 73 be f3 be
       -1.0794152 0.7616554 0.6485367 -0.4760624
000310 82 39 55 3d ed 6d 86 be 68 6b 37 3e a8 dc 05 3e
       0.052056797 -0.26255742 0.17912066 0.13072455
000320 8f 17 2a 3f 02 07 c0 3e d0 5d 2c 3c 3d 92 1c 3e
       0.664422 0.37505347 0.0105204135 0.1529016
000330 9f f9 aa 3e af 8f 5a bd 73 9a ba 3f c5 ed 1e 3f
       0.3339357 -0.053359684 1.4578384 0.6208156
000340 36 88 ca 3e d7 8e 07 be d3 e0 19 3f af 71 58 bf
       0.39557046 -0.13238083 0.6010868 -0.8454847
000350 38 33 ec 3e 33 95 50 3f fc 27 83 3e c1 12 17 3f
       0.46132827 0.8147766 0.25616443 0.5901299
000360 5e 17 bb be c6 bf c5 bd 80 63 0c 3f 81 ea 36 3f
       -0.36541265 -0.096557185 0.54839325 0.71451575
000370 73 3f 4d 3f 71 20 8f be f7 8f c1 3e 0e 6a 81 3f
       0.8017494 -0.27954438 0.3780515 1.011049
000380 d3 06 5b 3f 1a cd c6 3e e9 2d 0a 3f c0 03 4e 3f
       0.8555729 0.38828355 0.53976303 0.8047447
000390 a2 7f 48 be 96 33 be be 0e 62 2d 3f 1f 95 7a be
       -0.19579938 -0.37148732 0.67727745 -0.24470948
0003a0 3a d8 71 3f fb 11 c4 be 33 02 a7 3f 4e 88 c9 bf
       0.9447056 -0.38294968 1.3047546 -1.5744722
0003b0 86 59 be be da f9 6f bd 0c d6 5f be a6 d0 96 3e
       -0.37177676 -0.058587886 -0.21858996 0.2945606
0003c0 0b 82 66 3e 77 ee 55 3e 9e a6 a5 3e 7f f6 10 bf
       0.22510545 0.20891748 0.3235368 -0.56626123
0003d0 69 77 34 3e 29 cc f6 bd 64 d8 4a 3e 11 cc 88 bd
       0.17623676 -0.12050659 0.19809109 -0.066795476
0003e0 d1 ba 92 3f 69 2f 68 3e 2a 3e 71 3f 13 58 74 3f
       1.1463262 0.22674336 0.9423548 0.9544689
0003f0 4e 31 c9 bd 38 3a 88 3f 21 d0 91 3f b5 6f 01 3f
       -0.09823857 1.0642767 1.1391641 0.50561076

bias f4 [175]
000000 00 00 00 00 00 00 00 00 00 00 00 00 00 00 00 00
       0.0 0.0 0.0 0.0
000010 00 00 00 00 00 00 00 00 00 00 00 00 00 00 00 00
       0.0 0.0 0.0 0.0
000020 00 00 00 00 00 00 00 00 00 00 00 00 00 00 00 00
       0.0 0.0 0.0 0.0
000030 00 00 00 00 00 00 00 00 00 00 00 00 00 00 00 00
       0.0 0.0 0.0 0.0
000040 00 00 00 00 00 00 00 00 00 00 00 00 00 00 00 00
       0.0 0.0 0.0 0.0
000050 00 00 00 00 00 00 00 00 00 00 00 00 00 00 00 00
       0.0 0.0 0.0 0.0
000060 00 00 00 00 00 00 00 00 00 00 00 00 00 00 00 00
       0.0 0.0 0.0 0.0
000070 00 00 00 00 00 00 00 00 00 00 00 00 00 00 00 00
       0.0 0.0 0.0 0.0
000080 00 00 00 00 00 00 00 00 00 00 00 00 00 00 00 00
       0.0 0.0 0.0 0.0
000090 00 00 00 00 00 00 00 00 00 00 00 00 00 00 00 00
       0.0 0.0 0.0 0.0
0000a0 00 00 00 00 00 00 00 00 00 00 00 00 00 00 00 00
       0.0 0.0 0.0 0.0
0000b0 00 00 00 00 00 00 00 00 00 00 00 00 00 00 00 00
       0.0 0.0 0.0 0.0
0000c0 00 00 00 00 00 00 00 00 00 00 00 00 00 00 00 00
       0.0 0.0 0.0 0.0
0000d0 00 00 00 00 00 00 00 00 00 00 00 00 00 00 00 00
       0.0 0.0 0.0 0.0
0000e0 00 00 00 00 00 00 00 00 00 00 00 00 00 00 00 00
       0.0 0.0 0.0 0.0
0000f0 00 00 00 00 00 00 00 00 00 00 00 00 00 00 00 00
       0.0 0.0 0.0 0.0
000100 00 00 00 00 00 00 00 00 00 00 00 00 00 00 00 00
       0.0 0.0 0.0 0.0
000110 00 00 00 00 00 00 00 00 00 00 00 00 00 00 00 00
       0.0 0.0 0.0 0.0
000120 00 00 00 00 00 00 00 00 00 00 00 00 00 00 00 00
       0.0 0.0 0.0 0.0
000130 00 00 00 00 00 00 00 00 00 00 00 00 00 00 00 00
       0.0 0.0 0.0 0.0
000140 00 00 00 00 00 00 00 00 00 00 00 00 00 00 00 00
       0.0 0.0 0.0 0.0
000150 00 00 00 00 00 00 00 00 00 00 00 00 00 00 00 00
       0.0 0.0 0.0 0.0
000160 00 00 00 00 00 00 00 00 00 00 00 00 00 00 00 00
       0.0 0.0 0.0 0.0
000170 00 00 00 00 00 00 00 00 00 00 00 00 00 00 00 00
       0.0 0.0 0.0 0.0
000180 00 00 00 00 00 00 00 00 00 00 00 00 00 00 00 00
       0.0 0.0 0.0 0.0
000190 00 00 00 00 00 00 00 00 00 00 00 00 00 00 00 00
       0.0 0.0 0.0 0.0
0001a0 00 00 00 00 00 00 00 00 00 00 00 00 00 00 00 00
       0.0 0.0 0.0 0.0
0001b0 00 00 00 00 00 00 00 00 00 00 00 00 00 00 00 00
       0.0 0.0 0.0 0.0
0001c0 00 00 00 00 00 00 00 00 00 00 00 00 00 00 00 00
       0.0 0.0 0.0 0.0
0001d0 00 00 00 00 00 00 00 00 00 00 00 00 00 00 00 00
       0.0 0.0 0.0 0.0
0001e0 00 00 00 00 00 00 00 00 00 00 00 00 00 00 00 00
       0.0 0.0 0.0 0.0
0001f0 00 00 00 00 00 00 00 00 00 00 00 00 00 00 00 00
       0.0 0.0 0.0 0.0
000200 00 00 00 00 00 00 00 00 00 00 00 00 00 00 00 00
       0.0 0.0 0.0 0.0
000210 00 00 00 00 00 00 00 00 00 00 00 00 00 00 00 00
       0.0 0.0 0.0 0.0
000220 00 00 00 00 00 00 00 00 00 00 00 00 00 00 00 00
       0.0 0.0 0.0 0.0
000230 00 00 00 00 00 00 00 00 00 00 00 00 00 00 00 00
       0.0 0.0 0.0 0.0
000240 00 00 00 00 00 00 00 00 00 00 00 00 00 00 00 00
       0.0 0.0 0.0 0.0
000250 00 00 00 00 00 00 00 00 00 00 00 00 00 00 00 00
       0.0 0.0 0.0 0.0
000260 00 00 00 00 00 00 00 00 00 00 00 00 00 00 00 00
       0.0 0.0 0.0 0.0
000270 00 00 00 00 00 00 00 00 00 00 00 00 00 00 00 00
       0.0 0.0 0.0 0.0
000280 00 00 00 00 00 00 00 00 00 00 00 00 00 00 00 00
       0.0 0.0 0.0 0.0
000290 00 00 00 00 00 00 00 00 00 00 00 00 00 00 00 00
       0.0 0.0 0.0 0.0
0002a0 00 00 00 00 00 00 00 00 00 00 00 00 00 00 00 00
       0.0 0.0 0.0 0.0
0002b0 00 00 00 00 00 00 00 00 00 00 00 00
       0.0 0.0 0.0
