checkpoints/version93/model.pt (torch, 34217 bytes, 14 tensors)

bias f4 [175]
000000 2a 90 a3 3f 8b 1f f9 3f 71 c6 40 bf 04 ff b0 3f
       1.277837 1.9462751 -0.753028 1.3827825
000010 98 79 65 be 47 f6 f5 3f be bd b9 3f c2 8f 1e 40
       -0.22409666 1.9215783 1.451103 2.4775243
000020 f4 5b 87 3f fe fe 33 40 f7 78 91 3f a8 45 96 3f
       1.0574937 2.8124385 1.136504 1.1740007
000030 86 9b 8c bf a0 e4 b2 be 4e 95 15 be 07 47 b8 3f
       -1.0984962 -0.34940052 -0.14607736 1.4396676
000040 37 67 52 be ea b6 89 3b df 80 4d be 20 75 17 40
       -0.20547186 0.0042027133 -0.20068692 2.3665237
000050 ca 90 d3 3e 29 9e a9 3f 51 42 c5 3f 67 20 0c bf
       0.41321403 1.3251392 1.5410863 -0.5473694
000060 9a 46 1f c0 a1 04 53 40 b4 ed 21 3f 36 9d 9a 3f
       -2.4886842 3.2971575 0.6325333 1.2079227
000070 3d b8 3e 3f ac 5b 0c 40 52 43 66 3e 9c ab c6 be
       0.74499875 2.1930952 0.22486618 -0.38802803
000080 fe 14 0b 3f d6 b8 46 bf c8 ff 16 3f 62 84 58 40
       0.54328907 -0.7762579 0.5898404 3.38308
000090 15 30 69 3f ba 63 94 3f 4d 0c 71 3f c9 04 b4 3f
       0.9108899 1.1592934 0.94159395 1.406396
0000a0 c8 2c fd 3f 1d 08 c7 3f 12 cf a8 3d f2 8d d7 3e
       1.9779291 1.5549351 0.082426205 0.42100483
0000b0 c2 b2 ce 3f 7b 35 f4 be dd cb 9d 3e c1 2a 2a be
       1.6148303 -0.47697052 0.30819598 -0.16617872
0000c0 62 d5 84 bb 59 33 d4 3d a5 5c 9c c0 eb 50 a0 c0
       -0.0040537575 0.10361356 -4.886309 -5.0098777
0000d0 83 39 91 3f 8a 66 c9 bd 94 5a 55 3e 17 63 59 3f
       1.1345676 -0.09834011 0.20835334 0.84916824
0000e0 2c 71 0b bf d5 22 aa 3e 71 2b 8e 3d 42 e8 72 bf
       -0.5446956 0.332297 0.069418795 -0.9488565
0000f0 a0 af 24 bd 13 20 49 ba 4f c4 23 3f 5d df ce 3e
       -0.04020655 -0.0007672321 0.6397142 0.40404788
000100 0f 55 ff bd 9f 41 b0 3d 0b 8b 63 be 87 33 42 3e
       -0.124673955 0.08606266 -0.2222101 0.18964969
000110 53 dc 3c 3f fc 5e d9 3f 58 1d bb be de e5 95 3f
       0.7377369 1.6982112 -0.36545825 1.1710775
000120 4a 11 ab 3f 80 9b 3b 3e cb 02 92 3f 28 4d 06 3f
       1.3364651 0.18321037 1.1407102 0.5246148
000130 8e 24 12 3f fa 3b c3 3f 2c 69 7c 3f fa 92 d4 3f
       0.5708703 1.5252678 0.9859798 1.6607354
000140 55 6a a2 3f 80 9c f2 3f 6a fb 86 3f 6a 19 13 40
       1.26887 1.895401 1.0545475 2.2984262
000150 b3 c5 90 3f f9 ad 9b 3f 93 a4 38 40 7f 91 4a 40
       1.1310333 1.2162467 2.8850448 3.1651304
000160 77 a2 92 3f 2d 54 35 3f 9d 16 9c 3f e5 58 d8 be
       1.145583 0.7083157 1.2194401 -0.4225532
000170 a6 98 49 40 46 b0 42 3e 7d dd 64 3f 67 08 d1 3e
       3.149942 0.19012555 0.89400464 0.40826723
000180 4b c7 38 40 1f 87 9c 3e 3e 15 52 bf de 10 64 be
       2.8871639 0.3057184 -0.82063663 -0.2227206
000190 70 15 f4 3f 31 61 06 3f 19 ab 7f 3f 57 96 dd 3f
       1.9069042 0.5249205 0.9987045 1.7311505
0001a0 8b 47 6a 3f 8f 2c f9 3f bc f2 3a 3f 73 fa be 3f
       0.91515416 1.9466723 0.73026633 1.4920181
0001b0 97 5f b2 3f a0 5d 03 40 bd 39 ec 3e d8 08 c9 be
       1.3935422 2.0525894 0.461378 -0.3926456
0001c0 10 d0 ea 3d 3c 32 02 40 d7 88 3c 3f 9c 9e 0e 40
       0.11465466 2.034316 0.736463 2.2284307
0001d0 4d 8b c1 be db 8c 02 40 cb 46 e0 3f 37 9c fa 3f
       -0.3780159 2.0398471 1.7521604 1.9578923
0001e0 b0 d6 1d 40 be 7c 85 3f af 9d f7 3f 62 e3 06 40
       2.4662285 1.0428693 1.9344996 2.1076283
0001f0 25 8c 27 40 27 45 a7 3f 30 e8 b1 3d c9 5a 75 bc
       2.6179287 1.3067979 0.086868644 -0.014975258
000200 86 7d 74 be d5 a8 78 3f 03 03 29 3e 7b e1 cf 3a
       -0.23876008 0.9713262 0.16505055 0.0015860045
000210 88 71 a4 be 1a bc 11 40 4c 84 ad 3f ca ab 44 bc
       -0.32117867 2.2771058 1.3555999 -0.012003848
000220 ec 1d 6b bd 8d 38 a8 3f cd 92 c2 3e ca 73 70 3f
       -0.057401583 1.3142258 0.38002625 0.9392668
000230 52 12 01 3f 51 57 38 3e 9f 5c 64 3f 2a b6 98 3e
       0.5041858 0.18002059 0.8920383 0.2982648
000240 d6 b6 ce bd 9a 82 b0 3f b7 0f c6 3f b5 23 bf 3f
       -0.10093467 1.3789856 1.5473546 1.4932772
000250 4d 46 5b 3f 20 3b c4 be 2a 2c 73 3e c2 36 df bd
       0.85654145 -0.3832636 0.23747316 -0.10899116
000260 b4 e5 cb 3f 03 53 47 3f 9a 63 40 40 f1 21 f0 3f
       1.5929475 0.7786104 3.0060792 1.8760358
000270 ef c1 80 3f 64 fb 44 40 8c 26 0f be 2b 63 0d bf
       1.0059184 3.0778437 -0.13979548 -0.55229443
000280 64 8d 4d 3f c3 ba 94 bf 47 9d 4f 3d 44 ba 67 3f
       0.8029387 -1.1619495 0.0506871 0.90518594
000290 46 c8 c8 3f 22 de 23 40 83 b2 4a 3f b4 6f aa 3f
       1.5686119 2.560433 0.7917864 1.3315339
0002a0 88 58 11 bf 62 d5 cf 3f e0 cb f0 3f 9d b0 c6 3f
       -0.5677571 1.6236994 1.8812218 1.5522648
0002b0 59 61 97 3f 44 1c 62 3e 50 fb 98 3e
       1.1826583 0.22081095 0.29879236

weight f4 [9, 175]
000000 66 e5 00 3e 83 79 8f 3e e2 de 3d 2b 65 52 1f ba
       0.12587509 0.28022394 6.74556e-13 -0.00060776464
000010 9f e4 89 29 76 eb 05 3f 6a 89 b3 3e 94 85 cf 3e
       6.1236816e-14 0.5231241 0.35065776 0.405316
000020 4d 1f 65 3f 99 c8 fc 3e aa d5 14 3f 0b d4 33 3f
       0.89500886 0.49371794 0.58138525 0.70245427
000030 cd af d4 aa 7d a0 e5 3e d8 5f 95 3e 76 b7 02 32
       -3.778075e-13 0.44849005 0.29174685 7.60871e-09
000040 f3 c5 a4 3e 41 ed be 3e 2b f3 cf 3e b1 92 12 3f
       0.32182273 0.37290385 0.4061521 0.57255083
000050 ac b9 89 a8 a2 43 17 3f 9b e0 bd 3e bc ed 8c ab
       -1.5290578e-14 0.59087574 0.37085423 -1.0013583e-12
000060 c8 80 6c 3f 12 eb 10 3f a3 09 93 3f a3 4f 87 3e
       0.92384005 0.5660869 1.1487316 0.26427945
000070 0f 18 cf 39 a8 c6 8f 23 aa bb 77 3f 92 30 dd 3e
       0.00039500042 1.5588225e-17 0.9677073 0.4320112
000080 9f df 0a 3f 32 5f 95 3f 70 e1 c7 a1 14 61 55 2c
       0.5424747 1.1669676 -1.3544437e-18 3.032301e-12
000090 7f ac 0b 3f b7 bc 96 3e c4 31 04 3f 03 ee 3a 3f
       0.54560083 0.29440853 0.51638436 0.7301943
0000a0 16 1f 10 aa f8 df 05 2e 92 d9 38 3f 5e 7f fe 3e
       -1.2800554e-13 3.0439623e-11 0.72206986 0.49706548
0000b0 52 5b a7 30 e5 a7 cc 3e 8f 0d 5e 2c 79 77 4b 2c
       1.2176804e-09 0.39971843 3.1555624e-12 2.8914356e-12
0000c0 5c 15 3a b3 6b 8d 2f a8 b0 7d e4 3e 78 48 ed 3e
       -4.3325926e-08 -9.745117e-15 0.44627142 0.46344352
0000d0 a0 0f 77 3e 0e 3b f4 3e 2a d9 f3 3e fa 73 ac 30
       0.24127054 0.47701305 0.4762662 1.254761e-09
0000e0 f8 9d a6 28 ae 66 23 3f 39 78 db 3e 18 05 0f 3f
       1.849821e-14 0.6382855 0.4286516 0.5586715
0000f0 e3 ea 0d 3f d9 95 dd 3e 9c aa 61 a2 ac 4f 16 29
       0.55436534 0.43278387 -3.0583506e-18 3.3375795e-14
000100 88 9e cc a8 b9 ec 04 3f 22 04 90 3e ec c0 1f 3f
       -2.2717302e-14 0.5192371 0.28128153 0.6240375
000110 63 33 25 33 52 a2 a9 3e 4e 0f 91 3e 9d 95 aa 3d
       3.8463792e-08 0.33131653 0.2833199 0.08329318
000120 96 6f 3e 3e 2a 23 d6 3e f9 49 76 3e ba 3c dd 3e
       0.18597254 0.41823703 0.24051656 0.43210393
000130 c0 cc af 3e b0 38 87 3e d7 94 cd 3e 4a 02 b0 3e
       0.343359 0.26410437 0.40152618 0.34376746
000140 e1 b3 17 ac 89 29 40 3e 44 bc ea 3e 74 5e 84 33
       -2.1558243e-12 0.18765844 0.4584676 6.16391e-08
000150 9c 78 d7 3e ec 82 7c 3e 7e 64 2c b4 d8 49 41 2d
       0.42084205 0.24659318 -1.6055307e-07 1.09871764e-11
000160 55 45 4d ab 72 c5 08 3f 2a a0 99 3e 23 d2 bf 3e
       -7.292685e-13 0.5342628 0.30005008 0.3746501
000170 f8 1a 9b 29 96 99 11 3f ba 6d 22 3f 0a 98 15 3f
       6.888061e-14 0.5687498 0.6344868 0.5843512
000180 60 7c ee 3e 36 89 e9 3e e2 46 d5 3e 7f 92 55 3f
       0.46579266 0.45612496 0.41655642 0.8342666
000190 f4 60 45 3f a9 99 89 3f a0 d0 28 a8 26 e3 a1 a8
       0.77101064 1.0750018 -9.371112e-15 -1.79731e-14
0001a0 f4 c1 7e 29 2d 6a 83 29 a7 c0 81 3f 87 9e ba 3e
       5.6567557e-14 5.835987e-14 1.0136918 0.36449072
0001b0 de 2a 86 3e c8 6b eb 3e e1 dd bf 32 40 18 07 27
       0.2620458 0.45980668 2.2336225e-08 1.874816e-15
0001c0 0f c5 36 3f 90 df 25 3f 41 cc 2b 3f 74 e3 15 3f
       0.7139444 0.64794254 0.6710854 0.5855019
0001d0 d3 e9 44 3f a8 8a 65 3e 57 08 0b 3f 61 58 df 3e
       0.7691929 0.22416174 0.543096 0.43622115
0001e0 4a 9e 01 3f e5 d3 ba 3e fb 4d b7 3e de aa f1 25
       0.50632155 0.36489788 0.35801682 4.192262e-16
0001f0 cb 2e 99 3e c3 b3 b8 ab 10 66 00 3f aa 92 ea ad
       0.29918513 -1.312388e-12 0.50155735 -2.6667852e-11
000200 2a 2d c3 3e af 8e 02 3f db 5b 2e 3f f9 1f 83 a8
       0.38120395 0.5099897 0.6810891 -1.4557788e-14
000210 9a b8 52 3f ca 57 10 3e 0a 0d 37 28 04 ab 10 3f
       0.8231293 0.14095989 1.0161368e-14 0.5651095
000220 89 a1 8c 3e 06 62 d5 3d 16 a8 ae af 6e a1 cb af
       0.27466992 0.10419087 -3.1769848e-10 -3.7040188e-10
000230 95 2e 04 3f 5c 9e 1d 3f e0 b9 91 3e d0 b5 1d 2a
       0.5163358 0.6156976 0.28462124 1.400748e-13
000240 d9 fc 8d 3e 7f 93 57 3f 63 81 1a b5 54 97 d7 38
       0.2773197 0.84209436 -5.7557753e-07 0.00010280186
000250 b1 64 80 3e 97 51 c3 3e 8c cc 8b 3e da 58 99 3e
       0.2507682 0.38148186 0.27304494 0.299506
000260 e7 27 d2 31 0b 2c 9a 3e 4a ed ef 2f c9 56 51 3e
       6.1163408e-09 0.30111727 4.364245e-10 0.20443262
000270 55 d8 09 3f 57 6c 8f ba 62 ce b6 3e 53 58 5c 3f
       0.5384572 -0.0010942322 0.35704333 0.8607227
000280 2a e6 d2 3e e6 d4 f2 3e dc c6 6c 3f 70 27 3d 3f
       0.41191226 0.47428054 0.92490935 0.738883
000290 94 22 02 34 9f 19 68 a8 9c 4e 8f 31 c6 bb ca 33
       1.2119773e-07 -1.2884143e-14 4.1707846e-09 9.440514e-08
0002a0 b5 ae ff 3e 42 ae ca ac 3e fa d8 26 58 59 3d 3d
       0.49937978 -5.760532e-12 1.5055839e-15 0.046227783
0002b0 76 0b 52 3e 65 83 34 3f 46 a8 9e 3e e6 33 ca 3e
       0.20512185 0.7051299 0.30987757 0.3949272
0002c0 10 14 d2 3e 34 18 24 3f 85 a2 06 3f 84 b1 a3 3f
       0.4103093 0.6409943 0.52591735 1.2788548
0002d0 51 f0 e1 aa 6c 3d b3 3e 84 c0 0b ac cc bc b5 28
       -4.0134782e-13 0.350078 -1.9859956e-12 2.0176914e-14
0002e0 47 ef aa ac 96 7d ee ab bd c1 03 2c 17 51 3e 3f
       -4.8582557e-12 -1.6945774e-12 1.8723766e-12 0.74342483
0002f0 a7 a7 2f a7 82 7e fb 3e 1c 86 2a 3f bd ee eb be
       -2.4377013e-15 0.49119955 0.66610885 -0.4608058
000300 94 60 60 3e 55 70 d3 be a4 d0 7c ac c9 03 3c 3f
       0.21911842 -0.4129664 -3.5927173e-12 0.73443276
000310 f8 a5 ed 2a f1 87 c4 2a 00 d2 88 3e 78 34 ed a9
       4.221482e-13 3.4910922e-13 0.26722717 -1.0534016e-13
000320 a3 d6 61 ab d2 81 0f a9 6d da 4e 3e a7 4a cd 3d
       -8.0233926e-13 -3.186498e-14 0.2020051 0.100240044
000330 77 29 90 3f 90 11 37 28 6b a7 91 be cc 57 63 2b
       1.1262654 1.0162349e-14 -0.28448042 8.0768443e-13
000340 f0 cb 1f 2a 19 a6 8d 3f 1a 83 4f 3f 7c e9 8c 3e
       1.4192792e-13 1.1066314 0.8105942 0.27521884
000350 0b f1 b1 3e 1d c6 8b 31 18 93 17 ac 83 5b e8 3e
       0.34754214 4.0679553e-09 -2.1540044e-12 0.45382318
000360 ce c6 fe 3e e8 fb 26 27 46 bc 93 32 5b 6a 19 3f
       0.4976105 2.3173686e-15 1.719867e-08 0.5992791
000370 e8 4d 5c 28 93 9a 01 3f 7e 5d ec 3e f3 77 be 3e
       1.22293465e-14 0.50626487 0.4616508 0.3720089
000380 e2 fb e1 3e 16 6a 01 3f f0 ca fc 3e 74 ae 82 3e
       0.44137484 0.505525 0.4937358 0.25523722
000390 60 0a e6 2b 2d 1f 09 ad c3 f5 ea 3e 03 4b 16 3f
       1.6345363e-12 -7.794471e-12 0.45890626 0.5870821
0003a0 70 91 9e bd b5 4c 80 36 23 06 a5 be 52 a9 80 23
       -0.07742584 3.823627e-06 -0.32231244 1.3949498e-17
0003b0 23 ce 96 2b cc 54 15 3f 36 0d 70 3f fa 99 2a 3f
       1.0715355e-12 0.58332515 0.9377016 0.666412
0003c0 cd 0e 19 aa f3 37 c5 b2 06 be 7e a9 05 6d c2 3e
       -1.3594265e-13 -2.2959261e-08 -5.656415e-14 0.379738
0003d0 5f ff 95 ae b3 5e a8 39 ec dc cf 3d 77 76 60 33
       -6.8210985e-11 0.00032114013 0.101495594 5.2261807e-08
0003e0 d2 db f8 3e 4d 3c 0e 2d c3 75 d4 3e b6 2c 18 3f
       0.4860521 8.085155e-12 0.41496095 0.59443223
0003f0 98 a1 12 ae e1 d7 07 3f 69 3f af 3e d3 30 04 3f
       -3.334008e-11 0.5306378 0.34228066 0.51637

bias f4 [175]
000000 00 00 00 00 00 00 00 00 00 00 00 00 00 00 00 00
       0.0 0.0 0.0 0.0
000010 00 00 00 00 00 00 00 00 00 00 00 00 00 00 00 00
       0.0 0.0 0.0 0.0
000020 00 00 00 00 00 00 00 00 00 00 00 00 00 00 00 00
       0.0 0.0 0.0 0.0
000030 00 00 00 00 00 00 00 00 00 00 00 00 00 00 00 00
       0.0 0.0 0.0 0.0
000040 00 00 00 00 00 00 00 00 00 00 00 00 00 00 00 00
       0.0 0.0 0.0 0.0
000050 00 00 00 00 00 00 00 00 00 00 00 00 00 00 00 00
       0.0 0.0 0.0 0.0
000060 00 00 00 00 00 00 00 00 00 00 00 00 00 00 00 00
       0.0 0.0 0.0 0.0
000070 00 00 00 00 00 00 00 00 00 00 00 00 00 00 00 00
       0.0 0.0 0.0 0.0
000080 00 00 00 00 00 00 00 00 00 00 00 00 00 00 00 00
       0.0 0.0 0.0 0.0
000090 00 00 00 00 00 00 00 00 00 00 00 00 00 00 00 00
       0.0 0.0 0.0 0.0
0000a0 00 00 00 00 00 00 00 00 00 00 00 00 00 00 00 00
       0.0 0.0 0.0 0.0
0000b0 00 00 00 00 00 00 00 00 00 00 00 00 00 00 00 00
       0.0 0.0 0.0 0.0
0000c0 00 00 00 00 00 00 00 00 00 00 00 00 00 00 00 00
       0.0 0.0 0.0 0.0
0000d0 00 00 00 00 00 00 00 00 00 00 00 00 00 00 00 00
       0.0 0.0 0.0 0.0
0000e0 00 00 00 00 00 00 00 00 00 00 00 00 00 00 00 00
       0.0 0.0 0.0 0.0
0000f0 00 00 00 00 00 00 00 00 00 00 00 00 00 00 00 00
       0.0 0.0 0.0 0.0
000100 00 00 00 00 00 00 00 00 00 00 00 00 00 00 00 00
       0.0 0.0 0.0 0.0
000110 00 00 00 00 00 00 00 00 00 00 00 00 00 00 00 00
       0.0 0.0 0.0 0.0
000120 00 00 00 00 00 00 00 00 00 00 00 00 00 00 00 00
       0.0 0.0 0.0 0.0
000130 00 00 00 00 00 00 00 00 00 00 00 00 00 00 00 00
       0.0 0.0 0.0 0.0
000140 00 00 00 00 00 00 00 00 00 00 00 00 00 00 00 00
       0.0 0.0 0.0 0.0
000150 00 00 00 00 00 00 00 00 00 00 00 00 00 00 00 00
       0.0 0.0 0.0 0.0
000160 00 00 00 00 00 00 00 00 00 00 00 00 00 00 00 00
       0.0 0.0 0.0 0.0
000170 00 00 00 00 00 00 00 00 00 00 00 00 00 00 00 00
       0.0 0.0 0.0 0.0
000180 00 00 00 00 00 00 00 00 00 00 00 00 00 00 00 00
       0.0 0.0 0.0 0.0
000190 00 00 00 00 00 00 00 00 00 00 00 00 00 00 00 00
       0.0 0.0 0.0 0.0
0001a0 00 00 00 00 00 00 00 00 00 00 00 00 00 00 00 00
       0.0 0.0 0.0 0.0
0001b0 00 00 00 00 00 00 00 00 00 00 00 00 00 00 00 00
       0.0 0.0 0.0 0.0
0001c0 00 00 00 00 00 00 00 00 00 00 00 00 00 00 00 00
       0.0 0.0 0.0 0.0
0001d0 00 00 00 00 00 00 00 00 00 00 00 00 00 00 00 00
       0.0 0.0 0.0 0.0
0001e0 00 00 00 00 00 00 00 00 00 00 00 00 00 00 00 00
       0.0 0.0 0.0 0.0
0001f0 00 00 00 00 00 00 00 00 00 00 00 00 00 00 00 00
       0.0 0.0 0.0 0.0
000200 00 00 00 00 00 00 00 00 00 00 00 00 00 00 00 00
       0.0 0.0 0.0 0.0
000210 00 00 00 00 00 00 00 00 00 00 00 00 00 00 00 00
       0.0 0.0 0.0 0.0
000220 00 00 00 00 00 00 00 00 00 00 00 00 00 00 00 00
       0.0 0.0 0.0 0.0
000230 00 00 00 00 00 00 00 00 00 00 00 00 00 00 00 00
       0.0 0.0 0.0 0.0
000240 00 00 00 00 00 00 00 00 00 00 00 00 00 00 00 00
       0.0 0.0 0.0 0.0
000250 00 00 00 00 00 00 00 00 00 00 00 00 00 00 00 00
       0.0 0.0 0.0 0.0
000260 00 00 00 00 00 00 00 00 00 00 00 00 00 00 00 00
       0.0 0.0 0.0 0.0
000270 00 00 00 00 00 00 00 00 00 00 00 00 00 00 00 00
       0.0 0.0 0.0 0.0
000280 00 00 00 00 00 00 00 00 00 00 00 00 00 00 00 00
       0.0 0.0 0.0 0.0
000290 00 00 00 00 00 00 00 00 00 00 00 00 00 00 00 00
       0.0 0.0 0.0 0.0
0002a0 00 00 00 00 00 00 00 00 00 00 00 00 00 00 00 00
       0.0 0.0 0.0 0.0
0002b0 00 00 00 00 00 00 00 00 00 00 00 00
       0.0 0.0 0.0

_ei_mask f4 [175]
000000 00 00 80 3f 00 00 80 3f 00 00 80 3f 00 00 80 3f
       1.0 1.0 1.0 1.0
000010 00 00 80 3f 00 00 80 3f 00 00 80 3f 00 00 80 3f
       1.0 1.0 1.0 1.0
000020 00 00 80 3f 00 00 80 3f 00 00 80 3f 00 00 80 3f
       1.0 1.0 1.0 1.0
000030 00 00 80 3f 00 00 80 3f 00 00 80 3f 00 00 80 3f
       1.0 1.0 1.0 1.0
000040 00 00 80 3f 00 00 80 3f 00 00 80 3f 00 00 80 3f
       1.0 1.0 1.0 1.0
000050 00 00 80 3f 00 00 80 3f 00 00 80 3f 00 00 80 3f
       1.0 1.0 1.0 1.0
000060 00 00 80 3f 00 00 80 3f 00 00 80 3f 00 00 80 3f
       1.0 1.0 1.0 1.0
000070 00 00 80 3f 00 00 80 3f 00 00 80 3f 00 00 80 3f
       1.0 1.0 1.0 1.0
000080 00 00 80 3f 00 00 80 3f 00 00 80 3f 00 00 80 3f
       1.0 1.0 1.0 1.0
000090 00 00 80 3f 00 00 80 3f 00 00 80 3f 00 00 80 3f
       1.0 1.0 1.0 1.0
0000a0 00 00 80 3f 00 00 80 3f 00 00 80 3f 00 00 80 3f
       1.0 1.0 1.0 1.0
0000b0 00 00 80 3f 00 00 80 3f 00 00 80 3f 00 00 80 3f
       1.0 1.0 1.0 1.0
0000c0 00 00 80 3f 00 00 80 3f 00 00 80 3f 00 00 80 3f
       1.0 1.0 1.0 1.0
0000d0 00 00 80 3f 00 00 80 3f 00 00 80 3f 00 00 80 3f
       1.0 1.0 1.0 1.0
0000e0 00 00 80 3f 00 00 80 3f 00 00 80 3f 00 00 80 3f
       1.0 1.0 1.0 1.0
0000f0 00 00 80 3f 00 00 80 3f 00 00 80 3f 00 00 80 3f
       1.0 1.0 1.0 1.0
000100 00 00 80 3f 00 00 80 3f 00 00 80 3f 00 00 80 3f
       1.0 1.0 1.0 1.0
000110 00 00 80 3f 00 00 80 3f 00 00 80 3f 00 00 80 3f
       1.0 1.0 1.0 1.0
000120 00 00 80 3f 00 00 80 3f 00 00 80 3f 00 00 80 3f
       1.0 1.0 1.0 1.0
000130 00 00 80 3f 00 00 80 3f 00 00 80 3f 00 00 80 3f
       1.0 1.0 1.0 1.0
000140 00 00 80 3f 00 00 80 3f 00 00 80 3f 00 00 80 3f
       1.0 1.0 1.0 1.0
000150 00 00 80 3f 00 00 80 3f 00 00 80 3f 00 00 80 3f
       1.0 1.0 1.0 1.0
000160 00 00 80 3f 00 00 80 3f 00 00 80 3f 00 00 80 3f
       1.0 1.0 1.0 1.0
000170 00 00 80 3f 00 00 80 3f 00 00 80 3f 00 00 80 3f
       1.0 1.0 1.0 1.0
000180 00 00 80 3f 00 00 80 3f 00 00 80 3f 00 00 80 3f
       1.0 1.0 1.0 1.0
000190 00 00 80 3f 00 00 80 3f 00 00 80 3f 00 00 80 3f
       1.0 1.0 1.0 1.0
0001a0 00 00 80 3f 00 00 80 3f 00 00 80 3f 00 00 80 3f
       1.0 1.0 1.0 1.0
0001b0 00 00 80 3f 00 00 80 3f 00 00 80 3f 00 00 80 3f
       1.0 1.0 1.0 1.0
0001c0 00 00 80 3f 00 00 80 3f 00 00 80 3f 00 00 80 3f
       1.0 1.0 1.0 1.0
0001d0 00 00 80 3f 00 00 80 3f 00 00 80 3f 00 00 80 3f
       1.0 1.0 1.0 1.0
0001e0 00 00 80 3f 00 00 80 3f 00 00 80 3f 00 00 80 3f
       1.0 1.0 1.0 1.0
0001f0 00 00 80 3f 00 00 80 3f 00 00 80 3f 00 00 80 3f
       1.0 1.0 1.0 1.0
000200 00 00 80 3f 00 00 80 3f 00 00 80 3f 00 00 80 3f
       1.0 1.0 1.0 1.0
000210 00 00 80 3f 00 00 80 3f 00 00 80 3f 00 00 80 3f
       1.0 1.0 1.0 1.0
000220 00 00 80 3f 00 00 80 3f 00 00 80 3f 00 00 80 3f
       1.0 1.0 1.0 1.0
000230 00 00 80 3f 00 00 80 3f 00 00 80 3f 00 00 80 3f
       1.0 1.0 1.0 1.0
000240 00 00 80 3f 00 00 80 3f 00 00 80 3f 00 00 80 3f
       1.0 1.0 1.0 1.0
000250 00 00 80 3f 00 00 80 3f 00 00 80 3f 00 00 80 3f
       1.0 1.0 1.0 1.0
000260 00 00 80 3f 00 00 80 3f 00 00 80 3f 00 00 80 3f
       1.0 1.0 1.0 1.0
000270 00 00 80 3f 00 00 80 3f 00 00 80 3f 00 00 80 3f
       1.0 1.0 1.0 1.0
000280 00 00 80 3f 00 00 80 3f 00 00 80 3f 00 00 80 3f
       1.0 1.0 1.0 1.0
000290 00 00 80 3f 00 00 80 3f 00 00 80 3f 00 00 80 3f
       1.0 1.0 1.0 1.0
0002a0 00 00 80 3f 00 00 80 3f 00 00 80 3f 00 00 80 3f
       1.0 1.0 1.0 1.0
0002b0 00 00 80 3f 00 00 80 3f 00 00 80 3f
       1.0 1.0 1.0

weight f4 [2, 175]
000000 73 77 bd 3f 39 74 07 40 5b 39 2d 3f 82 d2 ad 3f
       1.4802078 2.1164687 0.6766564 1.3579867
000010 1c 5d a1 3f e4 34 05 40 dd 8e 10 40 ff 3b 7c 40
       1.260654 2.0813532 2.2587197 3.9411619
000020 0d 0e 47 3f 79 0d 6c 40 62 47 7f 3f ef 2d cc 3f
       0.77755815 3.6883223 0.99718297 1.5951518
000030 03 d1 dc be b4 09 32 3f 9d 13 a7 3e 9c 15 d3 3f
       -0.43128213 0.69546056 0.3263215 1.649097
000040 4b 30 02 3f 5a 28 86 3e 1b 42 f8 3e 83 22 35 40
       0.5085494 0.2620266 0.48487934 2.8302314
000050 51 28 9e 3e b3 e8 45 3f f7 60 c4 3f 2f 24 3d 3f
       0.30890134 0.77308196 1.5342091 0.73883337
000060 3b a2 8b 40 6b 74 86 40 a3 f2 04 3f 52 92 54 3f
       4.3635535 4.201711 0.51932734 0.8303577
000070 66 83 12 3f 28 61 01 40 07 16 b6 3f db 60 16 3e
       0.5723175 2.021555 1.4225472 0.14685385
000080 2b 75 40 3f 08 7f e0 3f cf 16 d7 3e 27 70 3c 40
       0.75178784 1.7538767 0.4200959 2.9443452
000090 e4 45 6a 3e a8 e0 3b 3f 29 ca c1 3f 57 92 79 3f
       0.22878224 0.73389673 1.5139819 0.9748892
0000a0 00 d7 02 40 44 29 dd 3f e8 0a 1f 3f f1 57 99 be
       2.0443726 1.7278218 0.62126017 -0.29949906
0000b0 1a 72 85 3f 17 6f 97 3e 1f 73 29 3e 0d d4 2e 3f
       1.0425446 0.29576942 0.16547821 0.68292314
0000c0 28 ce b8 3e 0c 5e 9d 3f 7f 2a 0d 3e f5 8d 10 3e
       0.36094785 1.2294326 0.13785742 0.14116652
0000d0 2c 46 69 3f 33 97 39 3f 05 37 a7 3e ca 2e b7 bd
       0.911227 0.72496337 0.32659164 -0.08944471
0000e0 de 7d 1e 3f 08 d7 56 3f 4c a4 1e 3f 39 d3 b2 3f
       0.6191081 0.8392186 0.6196945 1.397071
0000f0 58 a5 b6 3e c6 0d b8 3e b4 fa 53 3f e7 8c c3 3e
       0.35673022 0.35948008 0.8280442 0.38193437
000100 6c c5 d5 3e d8 3f 1f 3f 91 a8 1d 3f 15 c7 c0 3d
       0.41752183 0.6220679 0.61585337 0.09412972
000110 62 59 3d 3e 66 8e d0 3f 9f cd db 3e e4 84 b3 3f
       0.18491128 1.6293457 0.42930314 1.402493
000120 c7 7e ce 3f 79 12 63 3e b1 68 86 3f ae 4a 07 3f
       1.6132439 0.22175016 1.0500699 0.5284833
000130 d3 cd 31 3f 02 8f a1 3f 5f 4b ae 3e 7e e2 d6 3f
       0.6945469 1.2621768 0.3404188 1.678787
000140 e8 6b b2 3f 9c a8 f8 3f 29 84 1d 3f 44 71 0d 40
       1.393918 1.9426455 0.61529785 2.2100382
000150 00 f7 cd 3e 17 ef 9f 3f b8 dd 3d 40 84 5d 76 40
       0.4022751 1.249484 2.9666576 3.8494577
000160 32 69 81 3d ec 3f 9d 3f e4 90 d2 3f a4 b4 8d 3f
       0.063188925 1.2285132 1.6450467 1.1070752
000170 5f d5 e4 3f 77 0d 38 3f a8 5a 86 3f 12 96 a8 3e
       1.7877616 0.71895546 1.0496416 0.32926995
000180 62 d4 17 40 6a f3 d0 3e b1 53 a1 3f 60 64 25 3f
       2.3723378 0.4081071 1.2603666 0.64606285
000190 a6 e6 8e 3f d1 af e6 3e 17 88 2b 3f 9b 9d 97 3f
       1.1164138 0.45056012 0.6700453 1.1844972
0001a0 20 f7 e0 3e 17 78 3a 3f 8d 91 84 3f ab 5e eb 3f
       0.4393854 0.7283949 1.0356919 1.8388265
0001b0 dd 42 ab 3e 41 e1 14 40 de af d4 3e 93 db 93 3f
       0.3344945 2.3262484 0.41540426 1.1551384
0001c0 30 10 da 3e 76 4a 05 40 7b 61 24 3f 37 93 08 40
       0.42590475 2.0826697 0.64211243 2.1339853
0001d0 eb 55 40 3f d3 e2 9f 3f e3 e8 00 40 6e ac ce 3f
       0.751311 1.2491096 2.0142143 1.6146371
0001e0 9b 10 39 40 8c da d4 3f af 12 9f 3f d4 f1 06 40
       2.8916385 1.6629195 1.2427577 2.10851
0001f0 a2 4c 4b 40 ff ba a3 3f 9b e6 a5 3e b6 fc d0 3e
       3.1765523 1.2791442 0.324025 0.40817803
000200 fc 98 90 3d bf 79 30 3f 94 23 cf 3e 0b fb cd 3e
       0.070604295 0.6893577 0.4045683 0.40230593
000210 38 5b 20 3f 07 25 c4 3f 0d 15 1f 3f bc e6 0c 3f
       0.6263919 1.53238 0.62141496 0.5503957
000220 11 a2 80 3f 36 38 9c 3f 68 07 34 3f 85 f1 74 3f
       1.0049459 1.2204654 0.703238 0.9568103
000230 26 d5 5b 3f 56 eb 0e 3f e1 4b 02 40 ed 95 b3 3f
       0.85872114 0.55827844 2.0358813 1.4030129
000240 bf 96 af 3e 2a ac 37 3f 7c 95 38 3f 8a d1 15 bd
       0.34294698 0.71747077 0.72103095 -0.036576785
000250 c4 be d9 3e d6 fa eb 3e a5 32 fa 3d 08 da ad 3e
       0.42528355 0.4608981 0.12216691 0.33955407
000260 aa 5d e5 3f 30 c2 ef 3e eb 7d 35 40 ee 54 fb 3f
       1.7919209 0.4682784 2.8358104 1.9635293
000270 ad 79 5b 3f 4a 88 2d 40 e5 a9 59 3f 23 73 63 be
       0.8573254 2.7114434 0.85024863 -0.2221189
000280 f9 04 b6 3f f4 3c 33 3f 53 27 a7 3f 71 77 60 3f
       1.4220268 0.7001488 1.3058876 0.87682253
000290 9e 28 c0 3f 6d d8 0e 40 5f 11 d5 be b8 66 c9 3f
       1.5012395 2.2319596 -0.41614816 1.5734472
0002a0 74 13 92 be c1 45 00 40 8f 71 76 3f 86 3d c9 3f
       -0.28530467 2.0042574 0.96267027 1.57219
0002b0 5b 91 d2 3f 9a 20 59 be 29 6c fc 3e f4 1b 04 bf
       1.6450609 -0.21203843 0.4930127 -0.51605153
0002c0 52 49 1b 40 08 93 07 3f d1 fb 32 3f 99 f8 92 bd
       2.42635 0.52958727 0.6991549 -0.071763225
0002d0 31 a9 06 40 5f 97 db 3f c8 16 2b 40 f1 fd d4 bc
       2.1040766 1.715557 2.6732655 -0.025999995
0002e0 ce 7f 0c 40 36 da b9 3f 38 ea 92 3f 5e 02 50 3f
       2.1953006 1.4519718 1.1477728 0.8125361
0002f0 a0 8c 0e 3e 1e 70 c9 3d 71 09 ad 3f 54 95 d0 3d
       0.13920832 0.09835838 1.3518506 0.10184732
000300 86 d0 86 3e 1d 1b d3 3d 3d d7 0f 40 64 6a 02 bc
       0.26330966 0.10307906 2.247512 -0.007959936
000310 88 94 8c 3f 01 32 b0 3f 9d df 15 3f fe af 97 3f
       1.0982828 1.376526 0.5854433 1.1850584
000320 f8 31 25 40 23 de ce 3e e9 b4 e7 3f b9 71 c6 3f
       2.5811749 0.40403852 1.8102084 1.5503455
000330 1a 74 1d 40 f7 03 25 3f a0 cb bd 3d 68 b3 4a 3f
       2.4602113 0.64459175 0.09267354 0.7918
000340 dc 1b 0b 3f 5b d3 e2 bd 76 a2 1d 40 6d a6 8e 3e
       0.54339385 -0.11075469 2.4630408 0.27861348
000350 ae b8 71 3f 62 82 2c 3f 0c 5f 84 3f ed 2b 0f 3f
       0.94422424 0.6738645 1.0341506 0.559264
000360 53 53 93 3f 95 c5 03 be 44 85 22 3f 5c 10 b7 3e
       1.1509804 -0.1286834 0.634846 0.3575467
000370 88 83 ab 3f 5c 73 6a 3e 6c 08 f0 3e 42 3c 72 3c
       1.3399515 0.22895569 0.46881425 0.014784874
000380 d4 12 ab bd 9d 92 30 bf c5 18 27 bf fc 7d 58 3e
       -0.083532006 -0.68973714 -0.6527217 0.21141809
000390 76 c6 7c 3e 20 23 74 3d 7d 4b 90 3f 92 3c 10 3f
       0.24685082 0.05960381 1.1273037 0.5634242
0003a0 5a 56 26 3f 56 49 80 3d 53 c6 e4 be a5 0d f8 3d
       0.6497551 0.06263988 -0.4468256 0.121119775
0003b0 b0 8d a1 3e b1 b4 1c 3e 58 25 a4 3f cc bb 3c 3f
       0.3155341 0.15303303 1.2823896 0.73724055
0003c0 b9 1c 08 3f bc e7 74 3f b9 0c 0d 3f f9 e9 c3 3d
       0.5316883 0.956661 0.5509754 0.09566111
0003d0 38 ca 9a 3f 96 68 13 3f 41 5f a1 3f de 2c ba 3f
       1.2092962 0.5758146 1.2607194 1.4544942
0003e0 fa 5a 06 3f c8 2d 77 3f eb 5c 1b 3f 62 8c 51 3f
       0.5248257 0.9655423 0.60688657 0.8185483
0003f0 3f d3 97 3f ca ee 36 3e 8d 2e 65 3f eb f0 96 3f
       1.1861342 0.17864528 0.89524156 1.1792272

bias f4 [175]
000000 00 00 00 00 00 00 00 00 00 00 00 00 00 00 00 00
       0.0 0.0 0.0 0.0
000010 00 00 00 00 00 00 00 00 00 00 00 00 00 00 00 00
       0.0 0.0 0.0 0.0
000020 00 00 00 00 00 00 00 00 00 00 00 00 00 00 00 00
       0.0 0.0 0.0 0.0
000030 00 00 00 00 00 00 00 00 00 00 00 00 00 00 00 00
       0.0 0.0 0.0 0.0
000040 00 00 00 00 00 00 00 00 00 00 00 00 00 00 00 00
       0.0 0.0 0.0 0.0
000050 00 00 00 00 00 00 00 00 00 00 00 00 00 00 00 00
       0.0 0.0 0.0 0.0
000060 00 00 00 00 00 00 00 00 00 00 00 00 00 00 00 00
       0.0 0.0 0.0 0.0
000070 00 00 00 00 00 00 00 00 00 00 00 00 00 00 00 00
       0.0 0.0 0.0 0.0
000080 00 00 00 00 00 00 00 00 00 00 00 00 00 00 00 00
       0.0 0.0 0.0 0.0
000090 00 00 00 00 00 00 00 00 00 00 00 00 00 00 00 00
       0.0 0.0 0.0 0.0
0000a0 00 00 00 00 00 00 00 00 00 00 00 00 00 00 00 00
       0.0 0.0 0.0 0.0
0000b0 00 00 00 00 00 00 00 00 00 00 00 00 00 00 00 00
       0.0 0.0 0.0 0.0
0000c0 00 00 00 00 00 00 00 00 00 00 00 00 00 00 00 00
       0.0 0.0 0.0 0.0
0000d0 00 00 00 00 00 00 00 00 00 00 00 00 00 00 00 00
       0.0 0.0 0.0 0.0
0000e0 00 00 00 00 00 00 00 00 00 00 00 00 00 00 00 00
       0.0 0.0 0.0 0.0
0000f0 00 00 00 00 00 00 00 00 00 00 00 00 00 00 00 00
       0.0 0.0 0.0 0.0
000100 00 00 00 00 00 00 00 00 00 00 00 00 00 00 00 00
       0.0 0.0 0.0 0.0
000110 00 00 00 00 00 00 00 00 00 00 00 00 00 00 00 00
       0.0 0.0 0.0 0.0
000120 00 00 00 00 00 00 00 00 00 00 00 00 00 00 00 00
       0.0 0.0 0.0 0.0
000130 00 00 00 00 00 00 00 00 00 00 00 00 00 00 00 00
       0.0 0.0 0.0 0.0
000140 00 00 00 00 00 00 00 00 00 00 00 00 00 00 00 00
       0.0 0.0 0.0 0.0
000150 00 00 00 00 00 00 00 00 00 00 00 00 00 00 00 00
       0.0 0.0 0.0 0.0
000160 00 00 00 00 00 00 00 00 00 00 00 00 00 00 00 00
       0.0 0.0 0.0 0.0
000170 00 00 00 00 00 00 00 00 00 00 00 00 00 00 00 00
       0.0 0.0 0.0 0.0
000180 00 00 00 00 00 00 00 00 00 00 00 00 00 00 00 00
       0.0 0.0 0.0 0.0
000190 00 00 00 00 00 00 00 00 00 00 00 00 00 00 00 00
       0.0 0.0 0.0 0.0
0001a0 00 00 00 00 00 00 00 00 00 00 00 00 00 00 00 00
       0.0 0.0 0.0 0.0
0001b0 00 00 00 00 00 00 00 00 00 00 00 00 00 00 00 00
       0.0 0.0 0.0 0.0
0001c0 00 00 00 00 00 00 00 00 00 00 00 00 00 00 00 00
       0.0 0.0 0.0 0.0
0001d0 00 00 00 00 00 00 00 00 00 00 00 00 00 00 00 00
       0.0 0.0 0.0 0.0
0001e0 00 00 00 00 00 00 00 00 00 00 00 00 00 00 00 00
       0.0 0.0 0.0 0.0
0001f0 00 00 00 00 00 00 00 00 00 00 00 00 00 00 00 00
       0.0 0.0 0.0 0.0
000200 00 00 00 00 00 00 00 00 00 00 00 00 00 00 00 00
       0.0 0.0 0.0 0.0
000210 00 00 00 00 00 00 00 00 00 00 00 00 00 00 00 00
       0.0 0.0 0.0 0.0
000220 00 00 00 00 00 00 00 00 00 00 00 00 00 00 00 00
       0.0 0.0 0.0 0.0
000230 00 00 00 00 00 00 00 00 00 00 00 00 00 00 00 00
       0.0 0.0 0.0 0.0
000240 00 00 00 00 00 00 00 00 00 00 00 00 00 00 00 00
       0.0 0.0 0.0 0.0
000250 00 00 00 00 00 00 00 00 00 00 00 00 00 00 00 00
       0.0 0.0 0.0 0.0
000260 00 00 00 00 00 00 00 00 00 00 00 00 00 00 00 00
       0.0 0.0 0.0 0.0
000270 00 00 00 00 00 00 00 00 00 00 00 00 00 00 00 00
       0.0 0.0 0.0 0.0
000280 00 00 00 00 00 00 00 00 00 00 00 00 00 00 00 00
       0.0 0.0 0.0 0.0
000290 00 00 00 00 00 00 00 00 00 00 00 00 00 00 00 00
       0.0 0.0 0.0 0.0
0002a0 00 00 00 00 00 00 00 00 00 00 00 00 00 00 00 00
       0.0 0.0 0.0 0.0
0002b0 00 00 00 00 00 00 00 00 00 00 00 00
       0.0 0.0 0.0

_ei_mask f4 [175]
000000 00 00 80 3f 00 00 80 3f 00 00 80 3f 00 00 80 3f
       1.0 1.0 1.0 1.0
000010 00 00 80 3f 00 00 80 3f 00 00 80 3f 00 00 80 3f
       1.0 1.0 1.0 1.0
000020 00 00 80 3f 00 00 80 3f 00 00 80 3f 00 00 80 3f
       1.0 1.0 1.0 1.0
000030 00 00 80 3f 00 00 80 3f 00 00 80 3f 00 00 80 3f
       1.0 1.0 1.0 1.0
000040 00 00 80 3f 00 00 80 3f 00 00 80 3f 00 00 80 3f
       1.0 1.0 1.0 1.0
000050 00 00 80 3f 00 00 80 3f 00 00 80 3f 00 00 80 3f
       1.0 1.0 1.0 1.0
000060 00 00 80 3f 00 00 80 3f 00 00 80 3f 00 00 80 3f
       1.0 1.0 1.0 1.0
000070 00 00 80 3f 00 00 80 3f 00 00 80 3f 00 00 80 3f
       1.0 1.0 1.0 1.0
000080 00 00 80 3f 00 00 80 3f 00 00 80 3f 00 00 80 3f
       1.0 1.0 1.0 1.0
000090 00 00 80 3f 00 00 80 3f 00 00 80 3f 00 00 80 3f
       1.0 1.0 1.0 1.0
0000a0 00 00 80 3f 00 00 80 3f 00 00 80 3f 00 00 80 3f
       1.0 1.0 1.0 1.0
0000b0 00 00 80 3f 00 00 80 3f 00 00 80 3f 00 00 80 3f
       1.0 1.0 1.0 1.0
0000c0 00 00 80 3f 00 00 80 3f 00 00 80 3f 00 00 80 3f
       1.0 1.0 1.0 1.0
0000d0 00 00 80 3f 00 00 80 3f 00 00 80 3f 00 00 80 3f
       1.0 1.0 1.0 1.0
0000e0 00 00 80 3f 00 00 80 3f 00 00 80 3f 00 00 80 3f
       1.0 1.0 1.0 1.0
0000f0 00 00 80 3f 00 00 80 3f 00 00 80 3f 00 00 80 3f
       1.0 1.0 1.0 1.0
000100 00 00 80 3f 00 00 80 3f 00 00 80 3f 00 00 80 3f
       1.0 1.0 1.0 1.0
000110 00 00 80 3f 00 00 80 3f 00 00 80 3f 00 00 80 3f
       1.0 1.0 1.0 1.0
000120 00 00 80 3f 00 00 80 3f 00 00 80 3f 00 00 80 3f
       1.0 1.0 1.0 1.0
000130 00 00 80 3f 00 00 80 3f 00 00 80 3f 00 00 80 3f
       1.0 1.0 1.0 1.0
000140 00 00 80 3f 00 00 80 3f 00 00 80 3f 00 00 80 3f
       1.0 1.0 1.0 1.0
000150 00 00 80 3f 00 00 80 3f 00 00 80 3f 00 00 80 3f
       1.0 1.0 1.0 1.0
000160 00 00 80 3f 00 00 80 3f 00 00 80 3f 00 00 80 3f
       1.0 1.0 1.0 1.0
000170 00 00 80 3f 00 00 80 3f 00 00 80 3f 00 00 80 3f
       1.0 1.0 1.0 1.0
000180 00 00 80 3f 00 00 80 3f 00 00 80 3f 00 00 80 3f
       1.0 1.0 1.0 1.0
000190 00 00 80 3f 00 00 80 3f 00 00 80 3f 00 00 80 3f
       1.0 1.0 1.0 1.0
0001a0 00 00 80 3f 00 00 80 3f 00 00 80 3f 00 00 80 3f
       1.0 1.0 1.0 1.0
0001b0 00 00 80 3f 00 00 80 3f 00 00 80 3f 00 00 80 3f
       1.0 1.0 1.0 1.0
0001c0 00 00 80 3f 00 00 80 3f 00 00 80 3f 00 00 80 3f
       1.0 1.0 1.0 1.0
0001d0 00 00 80 3f 00 00 80 3f 00 00 80 3f 00 00 80 3f
       1.0 1.0 1.0 1.0
0001e0 00 00 80 3f 00 00 80 3f 00 00 80 3f 00 00 80 3f
       1.0 1.0 1.0 1.0
0001f0 00 00 80 3f 00 00 80 3f 00 00 80 3f 00 00 80 3f
       1.0 1.0 1.0 1.0
000200 00 00 80 3f 00 00 80 3f 00 00 80 3f 00 00 80 3f
       1.0 1.0 1.0 1.0
000210 00 00 80 3f 00 00 80 3f 00 00 80 3f 00 00 80 3f
       1.0 1.0 1.0 1.0
000220 00 00 80 3f 00 00 80 3f 00 00 80 3f 00 00 80 3f
       1.0 1.0 1.0 1.0
000230 00 00 80 3f 00 00 80 3f 00 00 80 3f 00 00 80 3f
       1.0 1.0 1.0 1.0
000240 00 00 80 3f 00 00 80 3f 00 00 80 3f 00 00 80 3f
       1.0 1.0 1.0 1.0
000250 00 00 80 3f 00 00 80 3f 00 00 80 3f 00 00 80 3f
       1.0 1.0 1.0 1.0
000260 00 00 80 3f 00 00 80 3f 00 00 80 3f 00 00 80 3f
       1.0 1.0 1.0 1.0
000270 00 00 80 3f 00 00 80 3f 00 00 80 3f 00 00 80 3f
       1.0 1.0 1.0 1.0
000280 00 00 80 3f 00 00 80 3f 00 00 80 3f 00 00 80 3f
       1.0 1.0 1.0 1.0
000290 00 00 80 3f 00 00 80 3f 00 00 80 3f 00 00 80 3f
       1.0 1.0 1.0 1.0
0002a0 00 00 80 3f 00 00 80 3f 00 00 80 3f 00 00 80 3f
       1.0 1.0 1.0 1.0
0002b0 00 00 80 3f 00 00 80 3f 00 00 80 3f
       1.0 1.0 1.0

weight f4 [403, 3]
000000 29 1a de be 29 1a de be 52 22 27 40 c6 52 07 bf
       -0.43379334 -0.43379334 2.6114697 -0.5286068
000010 c6 52 07 bf 00 4f 3e 40 a5 42 46 be a5 42 46 be
       -0.5286068 2.9735718 -0.1936136 -0.1936136
000020 53 7d 1f 40 d9 7d 72 bd d9 7d 72 bd ac 8e 17 40
       2.4920242 -0.05920205 -0.05920205 2.368083
000030 b9 73 15 3e b9 73 15 3e 57 c1 1b 40 f3 b1 ab 3e
       0.14594926 0.14594926 2.4336755 0.33534202
000040 f3 b1 ab 3e 6e 50 27 40 53 a4 4d 3e 53 a4 4d 3e
       0.33534202 2.614284 0.20082216 0.20082216
000050 e5 2a 1d 40 15 2b 78 3d 15 2b 78 3d 5a bd 0e 40
       2.455743 0.06058796 0.06058796 2.230307
000060 bc dd 07 be bc dd 07 be 71 04 23 40 aa 1b 15 3f
       -0.13268179 -0.13268179 2.547146 0.58245337
000070 aa 1b 15 3f 0a df 33 40 64 fd 87 3f 64 fd 87 3f
       0.58245337 2.8104882 1.0624204 1.0624204
000080 46 ed 34 40 65 51 e1 3e 65 51 e1 3e 6d c7 39 40
       2.826982 0.44007412 0.44007412 2.902797
000090 a0 bb d3 3d a0 bb d3 3d ed 68 0f 40 cb 48 78 3e
       0.10338521 0.10338521 2.2407792 0.24246518
0000a0 cb 48 78 3e 8c de 0d 40 b5 39 a0 be b5 39 a0 be
       0.24246518 2.2167082 -0.31294027 -0.31294027
0000b0 08 70 1c 40 e1 01 1e bf e1 01 1e bf 36 a6 34 40
       2.4443378 -0.61721617 -0.61721617 2.8226447
0000c0 c2 fd 63 3d c2 fd 63 3d 6a 90 28 40 7d 3d bd 3e
       0.055661924 0.055661924 2.6338143 0.36960974
0000d0 7d 3d bd 3e bf 82 f9 3f d6 31 2d be d6 31 2d be
       0.36960974 1.9493026 -0.16913542 -0.16913542
0000e0 db 94 4f 40 5d 5f 32 bf 5d 5f 32 bf 37 88 5c 40
       3.2434604 -0.6967676 -0.6967676 3.445814
0000f0 6b 09 de be 6b 09 de be c5 09 4e 40 8c b4 9a 3e
       -0.4336656 -0.4336656 3.2193463 0.3021587
000100 8c b4 9a 3e 10 a5 3c 40 c8 02 cb 3e c8 02 cb 3e
       0.3021587 2.9475746 0.3965056 0.3965056
000110 a0 26 1b 40 68 ca fa 3e 68 ca fa 3e 74 90 0b 40
       2.4242325 0.4898255 0.4898255 2.1806917
000120 57 b1 f0 3e 57 b1 f0 3e 40 de e3 3f 8b 80 35 3f
       0.470103 0.470103 1.78022 0.70899266
000130 8b 80 35 3f 4a 86 d8 3f f7 b9 93 3f f7 b9 93 3f
       0.70899266 1.6915982 1.1541127 1.1541127
000140 c3 66 ac 3f 2b 03 57 3f 2b 03 57 3f 31 ab bd 3f
       1.346886 0.8398921 0.8398921 1.4817868
000150 8f 95 8d 3f 8f 95 8d 3f 62 19 e1 3f 4b ef 4f 3f
       1.1061267 1.1061267 1.7585871 0.8122451
000160 4b ef 4f 3f ca aa eb 3f 0a 85 6e 3f 0a 85 6e 3f
       0.8122451 1.8411496 0.9317175 0.9317175
000170 d8 52 cd 3f b9 24 76 3f b9 24 76 3f c6 3e c9 3f
       1.6040907 0.96149784 0.96149784 1.5722282
000180 9e 2a 6a 3f 9e 2a 6a 3f c6 58 3f 40 6c e2 8e 3f
       0.9147128 0.9147128 2.9897933 1.1162848
000190 6c e2 8e 3f f1 b2 ca 3f bc 93 d2 3f bc 93 d2 3f
       1.1162848 1.5835859 1.6451335 1.6451335
0001a0 57 4f 37 3f 76 af e9 3f 76 af e9 3f 50 89 9c 3f
       0.7160544 1.8256671 1.8256671 1.2229404
0001b0 6d ae c3 3f 6d ae c3 3f 2e 2b 84 3f 34 ff d4 3f
       1.5287606 1.5287606 1.0325677 1.6640382
0001c0 34 ff d4 3f 74 92 2f 3f 72 b9 d6 3f 72 b9 d6 3f
       1.6640382 0.68582845 1.6775343 1.6775343
0001d0 f2 3a 19 3f 42 f4 d5 3f 42 f4 d5 3f b5 00 40 3f
       0.5985557 1.6715167 1.6715167 0.7500108
0001e0 32 be e6 3f 32 be e6 3f 91 5f 1d 3f 39 5d 00 40
       1.8026793 1.8026793 0.6147395 2.0056899
0001f0 39 5d 00 40 7a a9 11 3f 7b ff e7 3f 7b ff e7 3f
       2.0056899 0.56899226 1.8124841 1.8124841
000200 e0 d5 19 3f c4 a2 fd 3f c4 a2 fd 3f b5 7b 4c 3f
       0.6009197 1.9815297 1.9815297 0.7987626
000210 46 77 fd 3f 46 77 fd 3f 44 da 04 3f 34 4f e4 3f
       1.9802024 1.9802024 0.51895547 1.7836671
000220 34 4f e4 3f be 46 27 3f 67 87 e4 3f 67 87 e4 3f
       1.7836671 0.6534232 1.7853822 1.7853822
000230 88 1e 20 3f b6 4c ce 3f b6 4c ce 3f d1 53 06 3f
       0.62546587 1.611716 1.611716 0.52471644
000240 a6 d3 dc 3f a6 d3 dc 3f 8c 6b 9f 3e 58 96 bb 3f
       1.725209 1.725209 0.3113674 1.4655256
000250 58 96 bb 3f a6 f1 c6 3e 21 62 03 3f 21 62 03 3f
       1.4655256 0.38856238 0.5132161 0.5132161
000260 11 9f b3 3f 47 53 fd 3e 47 53 fd 3e 2f 7b b8 3f
       1.4032918 0.49477598 0.49477598 1.4412593
000270 81 29 31 3f 81 29 31 3f fd 3d 5c 3f bb 8f c9 3e
       0.69203955 0.69203955 0.86032087 0.3936747
000280 bb 8f c9 3e 9f f6 b6 3f f2 29 e2 bd f2 29 e2 bd
       0.3936747 1.4294013 -0.11043157 -0.11043157
000290 39 a5 16 40 41 79 02 3f 41 79 02 3f fa 98 af 3f
       2.3538344 0.5096627 0.5096627 1.371856
0002a0 02 96 30 3e 02 96 30 3e 3b 27 e2 3f c9 f8 95 bf
       0.17244723 0.17244723 1.7668222 -1.1716548
0002b0 c9 f8 95 bf 05 ba 4f 40 54 62 af bf 54 62 af bf
       -1.1716548 3.2457287 -1.3701882 -1.3701882
0002c0 0d 51 54 40 f3 88 96 bf f3 88 96 bf 1e 8b 68 40
       3.317447 -1.1760544 -1.1760544 3.633491
0002d0 90 7a a1 bf 90 7a a1 bf a8 fc 3f 40 34 2a 03 bf
       -1.2615528 -1.2615528 2.999796 -0.5123627
0002e0 34 2a 03 bf 70 2e 2d 40 9c 2d 15 bf 9c 2d 15 bf
       -0.5123627 2.7059593 -0.5827272 -0.5827272
0002f0 b0 f3 48 40 00 cb 14 bf 00 cb 14 bf f7 93 3f 40
       3.1398735 -0.58122253 -0.58122253 2.993406
000300 bd fe 11 bf bd fe 11 bf 59 56 31 40 d3 0c 39 bf
       -0.57029325 -0.57029325 2.7708952 -0.72285193
000310 d3 0c 39 bf e1 f3 40 40 93 6c 1e bf 93 6c 1e bf
       -0.72285193 3.0148852 -0.6188442 -0.6188442
000320 95 5e 40 40 cd 95 cd bd cd 95 cd bd 4e c3 16 40
       3.0057728 -0.10038338 -0.10038338 2.3556705
000330 ec 84 40 3d ec 84 40 3d f6 dd 0c 40 27 58 b5 3c
       0.047001764 0.047001764 2.2010474 0.02213676
000340 27 58 b5 3c 36 45 15 40 a5 50 9c bd a5 50 9c bd
       0.02213676 2.3323493 -0.07632569 -0.07632569
000350 a4 ca 29 40 8c ed 37 bd 8c ed 37 bd 20 ee 00 40
       2.6529932 -0.044904277 -0.044904277 2.014534
000360 e4 91 43 3e e4 91 43 3e af 1f c8 3f 41 b8 15 3f
       0.19098622 0.19098622 1.5634669 0.58484274
000370 41 b8 15 3f 42 4b be 3f 77 eb 37 3f 77 eb 37 3f
       0.58484274 1.4866717 0.71843666 0.71843666
000380 41 05 b4 3f 1d 5c 4b 3f 1d 5c 4b 3f 48 92 6f 3f
       1.4064103 0.7943743 0.7943743 0.9358258
000390 5e b1 49 3f 5e b1 49 3f 6f 3e 61 3f 43 08 f1 3e
       0.78786266 0.78786266 0.8798589 0.47076616
0003a0 43 08 f1 3e 62 d9 9d 3f 73 81 c1 3e 73 81 c1 3e
       0.47076616 1.2331965 0.37794074 0.37794074
0003b0 57 a5 0f 40 95 90 01 3f 95 90 01 3f 02 2a fa 3f
       2.2444665 0.5061124 0.5061124 1.954407
0003c0 6b 83 1c 3e 6b 83 1c 3e bb ab d9 3f 2b a4 f3 3e
       0.15284507 0.15284507 1.7005533 0.47586188
0003d0 2b a4 f3 3e 35 16 06 40 06 58 29 3f 06 58 29 3f
       0.47586188 2.0951054 0.6614994 0.6614994
0003e0 ef 3c f5 3f 95 54 60 3f 95 54 60 3f b3 5c e7 3f
       1.915922 0.8762906 0.8762906 1.8075165
0003f0 82 02 bd 3f 82 02 bd 3f 57 6a e9 3f ae e2 58 3f
       1.476639 1.476639 1.8235577 0.84720886

bias f4 [3]
000000 00 00 00 00 00 00 00 00 00 00 00 00
       0.0 0.0 0.0

_ei_mask f4 [3]
000000 00 00 80 3f 00 00 80 3f 00 00 80 3f
       1.0 1.0 1.0

rmat f4 [1, 1, 3]
000000 00 00 80 bf 00 00 00 40 00 00 80 bf
       -1.0 2.0 -1.0

weight f4 [3, 175]
000000 b3 e6 0c 3e 24 60 be bc 4c 0d cc 3e 63 25 d0 bc
       0.1375988 -0.023239203 0.39853895 -0.025408452
000010 5a e6 19 3e c1 46 0e 3e 65 ae 5a 3d f1 9e 71 3e
       0.15029278 0.13894178 0.05338897 0.23595788
000020 70 6d a2 3e 13 1e 21 3e 45 63 1c 3e 0b 13 09 bd
       0.3172412 0.15734129 0.15272243 -0.033465426
000030 05 36 20 3f c7 01 79 3e 50 4f e0 be 5d f4 b9 3d
       0.6258243 0.24317084 -0.4381051 0.09079812
000040 ef 0c eb be ff 67 2a 3e 96 34 c9 be 32 8a 8e 3e
       -0.45908305 0.16641234 -0.39297932 0.2783981
000050 e3 b9 a2 3d 88 3f 36 3e bb fc 89 3e 21 25 85 3e
       0.07945611 0.17797673 0.2695063 0.2600489
000060 9e b7 90 3e d8 53 36 3e a0 d8 64 3e e2 b6 87 3e
       0.2826509 0.17805421 0.22348261 0.26506716
000070 80 34 7c 3e 61 af 4b 3e 5e 68 7a 3e 3e 55 41 3e
       0.24629402 0.1989112 0.24453875 0.18880174
000080 33 b9 c5 3e 5d 88 88 3e c3 85 10 3e d0 db 9f 3d
       0.38617858 0.26666537 0.14113526 0.07805598
000090 14 42 06 3d 24 bf ce be c9 62 b5 3e ee 5f 89 3e
       0.03277786 -0.40380204 0.3542693 0.26831
0000a0 71 be 8a 3e 8b c5 80 3e 12 a7 58 3e cb 42 2e 3e
       0.2709842 0.25150713 0.21157482 0.17017667
0000b0 df 3a 37 3e 91 c0 25 3e 62 d4 97 3e 3f c1 53 3e
       0.17893551 0.1618674 0.29654223 0.20679186
0000c0 40 a4 90 3e cf 89 0f 3e eb 3f b2 3f 77 d5 b0 3f
       0.28250313 0.14017414 1.3925756 1.3815144
0000d0 1a ec 36 be fd 8a a5 3e 83 76 a0 3d 28 b9 5e 3e
       -0.17863503 0.32332602 0.07835104 0.21750319
0000e0 f5 96 79 3e 37 c5 5d bd fe 0f c1 3a 40 79 45 3d
       0.24373992 -0.054143157 0.0014729497 0.048211336
0000f0 5a e4 4b 3e e0 89 97 3e aa 9d 3b 3d 04 60 64 3e
       0.19911328 0.29597378 0.045804657 0.22302252
000100 f4 76 12 3e e5 46 70 3e 72 4f a2 3d ed e6 74 3e
       0.1430319 0.23464544 0.07925309 0.23916216
000110 4a b9 c4 3e a2 35 1d 3e a4 24 bc bb a4 46 2e bd
       0.38422614 0.1535249 -0.0057416726 -0.042547837
000120 80 67 fa 3d e3 d1 d4 bd 09 ce 47 bc ee d0 06 be
       0.12226772 -0.10391595 -0.012195119 -0.13165638
000130 95 dc 05 be 83 43 fd 3d cb 14 10 be 5c 7f 30 3d
       -0.13072427 0.123663925 -0.14070432 0.04309021
000140 be d0 3b be b2 c4 2c be a6 b3 0a bf 63 d9 43 3e
       -0.18341348 -0.16871908 -0.5418037 0.19125895
000150 32 28 1d be ed e3 af 3d 1e 6a ff 3d fd cf 4c 3e
       -0.15347365 0.08588395 0.12471412 0.20001216
000160 b9 f2 2c 3e c6 6b 41 3e 97 d3 2b be e0 ae f3 bd
       0.16889466 0.18888769 -0.16779934 -0.11898589
000170 87 87 16 3e 80 78 22 be c0 e2 2e 3e 63 be 67 3e
       0.14700137 -0.1586628 0.17078686 0.2263122
000180 b8 d1 93 3e 32 d5 c4 3e 0c e0 06 3e 97 56 7d 3e
       0.2887094 0.38443905 0.13171405 0.24740063
000190 63 c2 80 3e 47 23 73 3e 99 a6 11 3e 57 50 37 3e
       0.25148305 0.23743926 0.14223708 0.17901741
0001a0 63 79 19 3e 6d 3f 51 3e b7 f5 87 3e 3f d8 b3 3d
       0.14987712 0.20434351 0.26554653 0.0878148
0001b0 02 ff b3 3e af 7b 84 3e 7f af 2e 3d f7 a8 34 3e
       0.35155493 0.25875613 0.042647835 0.1764258
0001c0 32 9a 63 3e f7 65 33 3e 7d 69 71 3e f6 50 71 3e
       0.2222679 0.17519365 0.23575397 0.2356604
0001d0 a7 0b 8e 3e f0 86 aa 3e be 83 6d 3e a3 53 c5 3e
       0.27743265 0.33306074 0.23194787 0.38540372
0001e0 af 3a 86 3e 39 77 12 3f 92 17 65 3e aa a0 04 3e
       0.26216647 0.5721317 0.22372273 0.12951913
0001f0 8f 7d 80 3e 3e 9f 4a 3e b6 c0 0d 3e 91 c8 89 3d
       0.25095794 0.19787309 0.13843045 0.06727708
000200 3d 81 23 3f fe ef 8e 3e c9 72 4b 3e ee 1c 78 3e
       0.63869077 0.27917475 0.19868006 0.24229786
000210 78 8b 9c 3e 43 2d 59 3e bb 34 6c 3e dc 72 de 3d
       0.30575156 0.21208672 0.2306699 0.108617514
000220 f6 68 c8 bc 6f 8e 3f 3e 9c ae 56 3e a2 fb 6a bd
       -0.024464112 0.18706678 0.20965046 -0.057368882
000230 a0 30 4a 3e 00 70 83 3e b7 24 85 3e f7 0a ab 3e
       0.19745111 0.25671387 0.26004574 0.33406803
000240 b4 da 2d 3e 4f 14 4c 3e 2a 42 93 3e 4b 20 11 3e
       0.1697796 0.19929622 0.28761417 0.14172475
000250 f6 e9 ab 3e 80 8f 73 3e 19 66 24 3e 56 f8 6a bd
       0.33576936 0.2378521 0.16054572 -0.057365738
000260 4e ae 33 3e 21 9b 8d 3e 2a 41 66 be 1a 17 61 3d
       0.1754696 0.27657416 -0.22485796 0.054953672
000270 65 31 88 3d 20 31 c7 bc e8 3b 24 3e 85 43 b6 3e
       0.06650046 -0.024315417 0.16038477 0.35598388
000280 b5 92 7e 3e 25 29 52 3e 27 ec 8d 3e 93 8f 67 3e
       0.24860652 0.20523508 0.27719232 0.22613363
000290 96 ce 6d bb 01 34 2d 3e 3e 13 0f 3f 9d e5 40 bd
       -0.0036286465 0.16914369 0.55888736 -0.047093976
0002a0 e1 c5 23 3f ed 06 05 3e 67 c3 04 3e e9 ff 0e 3e
       0.63973814 0.12990923 0.12965165 0.1396481
0002b0 1d 84 4e 3e 75 f1 87 3e 1e 6a 7e bd b3 e6 0c 3e
       0.20167585 0.26551405 -0.06211292 0.1375988
0002c0 24 60 be bc 4c 0d cc 3e 63 25 d0 bc 5a e6 19 3e
       -0.023239203 0.39853895 -0.025408452 0.15029278
0002d0 c1 46 0e 3e 65 ae 5a 3d f1 9e 71 3e 70 6d a2 3e
       0.13894178 0.05338897 0.23595788 0.3172412
0002e0 13 1e 21 3e 45 63 1c 3e 0b 13 09 bd 05 36 20 3f
       0.15734129 0.15272243 -0.033465426 0.6258243
0002f0 c7 01 79 3e 50 4f e0 be 5d f4 b9 3d ef 0c eb be
       0.24317084 -0.4381051 0.09079812 -0.45908305
000300 ff 67 2a 3e 96 34 c9 be 32 8a 8e 3e e3 b9 a2 3d
       0.16641234 -0.39297932 0.2783981 0.07945611
000310 88 3f 36 3e bb fc 89 3e 21 25 85 3e 9e b7 90 3e
       0.17797673 0.2695063 0.2600489 0.2826509
000320 d8 53 36 3e a0 d8 64 3e e2 b6 87 3e 80 34 7c 3e
       0.17805421 0.22348261 0.26506716 0.24629402
000330 61 af 4b 3e 5e 68 7a 3e 3e 55 41 3e 33 b9 c5 3e
       0.1989112 0.24453875 0.18880174 0.38617858
000340 5d 88 88 3e c3 85 10 3e d0 db 9f 3d 14 42 06 3d
       0.26666537 0.14113526 0.07805598 0.03277786
000350 24 bf ce be c9 62 b5 3e ee 5f 89 3e 71 be 8a 3e
       -0.40380204 0.3542693 0.26831 0.2709842
000360 8b c5 80 3e 12 a7 58 3e cb 42 2e 3e df 3a 37 3e
       0.25150713 0.21157482 0.17017667 0.17893551
000370 91 c0 25 3e 62 d4 97 3e 3f c1 53 3e 40 a4 90 3e
       0.1618674 0.29654223 0.20679186 0.28250313
000380 cf 89 0f 3e eb 3f b2 3f 77 d5 b0 3f 1a ec 36 be
       0.14017414 1.3925756 1.3815144 -0.17863503
000390 fd 8a a5 3e 83 76 a0 3d 28 b9 5e 3e f5 96 79 3e
       0.32332602 0.07835104 0.21750319 0.24373992
0003a0 37 c5 5d bd fe 0f c1 3a 40 79 45 3d 5a e4 4b 3e
       -0.054143157 0.0014729497 0.048211336 0.19911328
0003b0 e0 89 97 3e aa 9d 3b 3d 04 60 64 3e f4 76 12 3e
       0.29597378 0.045804657 0.22302252 0.1430319
0003c0 e5 46 70 3e 72 4f a2 3d ed e6 74 3e 4a b9 c4 3e
       0.23464544 0.07925309 0.23916216 0.38422614
0003d0 a2 35 1d 3e a4 24 bc bb a4 46 2e bd 80 67 fa 3d
       0.1535249 -0.0057416726 -0.042547837 0.12226772
0003e0 e3 d1 d4 bd 09 ce 47 bc ee d0 06 be 95 dc 05 be
       -0.10391595 -0.012195119 -0.13165638 -0.13072427
0003f0 83 43 fd 3d cb 14 10 be 5c 7f 30 3d be d0 3b be
       0.123663925 -0.14070432 0.04309021 -0.18341348

bias f4 [175]
000000 00 00 00 00 00 00 00 00 00 00 00 00 00 00 00 00
       0.0 0.0 0.0 0.0
000010 00 00 00 00 00 00 00 00 00 00 00 00 00 00 00 00
       0.0 0.0 0.0 0.0
000020 00 00 00 00 00 00 00 00 00 00 00 00 00 00 00 00
       0.0 0.0 0.0 0.0
000030 00 00 00 00 00 00 00 00 00 00 00 00 00 00 00 00
       0.0 0.0 0.0 0.0
000040 00 00 00 00 00 00 00 00 00 00 00 00 00 00 00 00
       0.0 0.0 0.0 0.0
000050 00 00 00 00 00 00 00 00 00 00 00 00 00 00 00 00
       0.0 0.0 0.0 0.0
000060 00 00 00 00 00 00 00 00 00 00 00 00 00 00 00 00
       0.0 0.0 0.0 0.0
000070 00 00 00 00 00 00 00 00 00 00 00 00 00 00 00 00
       0.0 0.0 0.0 0.0
000080 00 00 00 00 00 00 00 00 00 00 00 00 00 00 00 00
       0.0 0.0 0.0 0.0
000090 00 00 00 00 00 00 00 00 00 00 00 00 00 00 00 00
       0.0 0.0 0.0 0.0
0000a0 00 00 00 00 00 00 00 00 00 00 00 00 00 00 00 00
       0.0 0.0 0.0 0.0
0000b0 00 00 00 00 00 00 00 00 00 00 00 00 00 00 00 00
       0.0 0.0 0.0 0.0
0000c0 00 00 00 00 00 00 00 00 00 00 00 00 00 00 00 00
       0.0 0.0 0.0 0.0
0000d0 00 00 00 00 00 00 00 00 00 00 00 00 00 00 00 00
       0.0 0.0 0.0 0.0
0000e0 00 00 00 00 00 00 00 00 00 00 00 00 00 00 00 00
       0.0 0.0 0.0 0.0
0000f0 00 00 00 00 00 00 00 00 00 00 00 00 00 00 00 00
       0.0 0.0 0.0 0.0
000100 00 00 00 00 00 00 00 00 00 00 00 00 00 00 00 00
       0.0 0.0 0.0 0.0
000110 00 00 00 00 00 00 00 00 00 00 00 00 00 00 00 00
       0.0 0.0 0.0 0.0
000120 00 00 00 00 00 00 00 00 00 00 00 00 00 00 00 00
       0.0 0.0 0.0 0.0
000130 00 00 00 00 00 00 00 00 00 00 00 00 00 00 00 00
       0.0 0.0 0.0 0.0
000140 00 00 00 00 00 00 00 00 00 00 00 00 00 00 00 00
       0.0 0.0 0.0 0.0
000150 00 00 00 00 00 00 00 00 00 00 00 00 00 00 00 00
       0.0 0.0 0.0 0.0
000160 00 00 00 00 00 00 00 00 00 00 00 00 00 00 00 00
       0.0 0.0 0.0 0.0
000170 00 00 00 00 00 00 00 00 00 00 00 00 00 00 00 00
       0.0 0.0 0.0 0.0
000180 00 00 00 00 00 00 00 00 00 00 00 00 00 00 00 00
       0.0 0.0 0.0 0.0
000190 00 00 00 00 00 00 00 00 00 00 00 00 00 00 00 00
       0.0 0.0 0.0 0.0
0001a0 00 00 00 00 00 00 00 00 00 00 00 00 00 00 00 00
       0.0 0.0 0.0 0.0
0001b0 00 00 00 00 00 00 00 00 00 00 00 00 00 00 00 00
       0.0 0.0 0.0 0.0
0001c0 00 00 00 00 00 00 00 00 00 00 00 00 00 00 00 00
       0.0 0.0 0.0 0.0
0001d0 00 00 00 00 00 00 00 00 00 00 00 00 00 00 00 00
       0.0 0.0 0.0 0.0
0001e0 00 00 00 00 00 00 00 00 00 00 00 00 00 00 00 00
       0.0 0.0 0.0 0.0
0001f0 00 00 00 00 00 00 00 00 00 00 00 00 00 00 00 00
       0.0 0.0 0.0 0.0
000200 00 00 00 00 00 00 00 00 00 00 00 00 00 00 00 00
       0.0 0.0 0.0 0.0
000210 00 00 00 00 00 00 00 00 00 00 00 00 00 00 00 00
       0.0 0.0 0.0 0.0
000220 00 00 00 00 00 00 00 00 00 00 00 00 00 00 00 00
       0.0 0.0 0.0 0.0
000230 00 00 00 00 00 00 00 00 00 00 00 00 00 00 00 00
       0.0 0.0 0.0 0.0
000240 00 00 00 00 00 00 00 00 00 00 00 00 00 00 00 00
       0.0 0.0 0.0 0.0
000250 00 00 00 00 00 00 00 00 00 00 00 00 00 00 00 00
       0.0 0.0 0.0 0.0
000260 00 00 00 00 00 00 00 00 00 00 00 00 00 00 00 00
       0.0 0.0 0.0 0.0
000270 00 00 00 00 00 00 00 00 00 00 00 00 00 00 00 00
       0.0 0.0 0.0 0.0
000280 00 00 00 00 00 00 00 00 00 00 00 00 00 00 00 00
       0.0 0.0 0.0 0.0
000290 00 00 00 00 00 00 00 00 00 00 00 00 00 00 00 00
       0.0 0.0 0.0 0.0
0002a0 00 00 00 00 00 00 00 00 00 00 00 00 00 00 00 00
       0.0 0.0 0.0 0.0
0002b0 00 00 00 00 00 00 00 00 00 00 00 00
       0.0 0.0 0.0
