checkpoints/version73/model.pt (torch, 31342 bytes, 13 tensors)

bias f4 [175]
00000000: ce8c 963f 5225 1240 4ed4 1fbf ea67 a73f
00000010: a2c7 093d 8ab0 f43f e920 fb3f b2b7 2640
00000020: 87b2 ce3f 4b84 4040 c941 ac3f 8a2f c53f
00000030: 93b3 1e3e 6e9e e5bd bfec b43c de3c 0c40
00000040: 353a 4fbd dd82 81bd 7360 08bd db25 3240
00000050: d4d8 963e 8d53 b93f b660 c83f bba7 cdbe
00000060: e212 e6bf 8872 5b40 28c8 7a3f ce24 b53f
00000070: 5933 833f 4618 2640 7530 033f adde 223d
00000080: 359e 9a3f 4183 903d 14fa 1f3f 6706 6f40
00000090: 19ec 333f cccf 8b3f 7a6d e73f ce6f b73f
000000a0: c597 0b40 88e4 c33f 5b4b 4a3e 6903 c63e
000000b0: 3569 cc3f 4277 48be 650f f53e fc0a 373e
000000c0: 69e1 a33e dfc7 983e da73 0d3f 5a49 023f
000000d0: 80db 853f b3a4 603e 8bcd 723e d3b1 a53f
000000e0: 5d5f c0be 9489 313f de05 293e 457f bbbe
000000f0: fda0 a8bd 09d5 5e3d 4072 383f 39ba 343f
00000100: c7f4 953d 56d9 a93e 795d adbb 3651 b53e
00000110: f056 273f 3cbb d13f 8233 aebe 7f4c 983f
00000120: 0149 ab3f 0cbc 603f 7dde 923f d8c0 7d3f
00000130: 3afd ab3f 18b1 c23f 6cd7 c23f 430e 0a40
00000140: 651e aa3f d3f8 f93f 727f 7c3f 2871 2940
00000150: c5cd ae3f 5be6 9e3f 8f61 3d40 7e8a 5b40
00000160: aecf be3f 357a 853f fb0f 873f f7be d3be
00000170: 75ba 5c40 01b2 45bd 35cd 753f f903 bf3e
00000180: b863 6140 e947 d23e e138 39bf 05cc 023e
00000190: c936 1440 72ea 6d3f 5bad bd3f 6251 eb3f
000001a0: 84b7 7a3f 5dd5 0a40 b139 c03f 5ceb c03f
000001b0: b40a c93f 277d 0040 a8d5 823f 0508 9bbe
000001c0: 131e b03d cb54 1040 aa2c 983f 504d 1240
000001d0: 8d99 1e3e 9a37 1140 ea8e ec3f a50a 0640
000001e0: 02b8 2540 375d dd3f 3836 0540 a931 1240
000001f0: 58e5 2940 694c ae3f c54a 223e 8246 8ebd
00000200: ef00 5b3f 64d5 b43f aceb 903e 733a 463e
00000210: 9c1b 7bbd d31e 0040 a053 b53f dc19 893d
00000220: f4ad 5bbd dc88 b43f 8b26 0b3f 7e73 7a3f
00000230: e4e0 233f 66e0 cd3e 2391 923f 8ed2 af3e
00000240: 4546 cfbd df1a cb3f 29ea a93f 7035 a13f
00000250: a6a6 253f 78b9 debd aeef 843e 0511 c1bd
00000260: 4640 d73f 58e9 753f a8bd 4540 f262 0340
00000270: c390 903f 0b9a 5a40 2b20 983e d875 a73e
00000280: 9b65 603f 5606 78bf 0715 103f afb3 953f
00000290: 2777 c73f d04c 3240 6431 5a3f b6d3 ab3f
000002a0: 7ae8 6a3f b9e8 ee3f b9b5 0140 520a c73f
000002b0: 46b6 963f eb47 df3e 0c54 a13e
1.176172 2.2835279 -0.62433326 1.3078587 0.03363765 1.9116375 1.9619418 2.6049619
1.6148232 3.0080745 1.3457576 1.5405133 0.1549819 -0.11211859 0.022085546 2.191215
-0.05059262 -0.06323788 -0.033295106 2.7835605 0.29462302 1.4478623 1.5654514 -0.4016703
-1.7974513 3.4288654 0.97961664 1.4151857 1.0250045 2.5952315 0.51245815 0.03976314
1.2079531 0.07056285 0.62490964 3.7347658 0.7028213 1.092279 1.8080285 1.4330995
2.1811383 1.5304117 0.19755308 0.38674477 1.5969607 -0.19576743 0.47863308 0.17875284
0.32007912 0.2983999 0.552549 0.50893176 1.0457611 0.21937828 0.23711221 1.2944893
-0.37572756 0.6935055 0.16506144 -0.36620536 -0.08233831 0.054402385 0.7204933 0.70596653
0.07322078 0.33173627 -0.005290684 0.35413522 0.6536703 1.6385264 -0.34023672 1.1898345
1.3381654 0.87786937 1.1474148 0.9912238 1.3436654 1.5210295 1.5221992 2.1571205
1.3290526 1.952906 0.98631966 2.6475315 1.3656546 1.2414049 2.9590795 3.430328
1.4907129 1.042792 1.0551752 -0.41356632 3.4488804 -0.04826546 0.96016246 0.37307718
3.5217113 0.41070488 -0.72352415 0.1277314 2.3158438 0.9293586 1.4818529 1.8384211
0.9793627 2.1692727 1.5017606 1.5071826 1.5706391 2.0076387 1.0221453 -0.30279556
0.08599486 2.2551754 1.188863 2.2859688 0.15488262 2.2690187 1.8481114 2.0943997
2.589356 1.7294072 2.0814342 2.284281 2.654623 1.3617069 0.15848835 -0.06947042
0.855483 1.4127622 0.28304803 0.19358234 -0.061305627 2.0018814 1.4166145 0.066943854
-0.05363269 1.4104266 0.54355687 0.9783248 0.6401503 0.40210265 1.1450542 0.34340328
-0.10120825 1.5867575 1.3274585 1.2594433 0.6470741 -0.10875219 0.2596411 -0.09427074
1.681649 0.9605918 3.0897007 2.0529141 1.1294178 3.415652 0.29712042 0.32707095
0.8765504 -0.9688467 0.56282085 1.169546 1.5583237 2.7859383 0.85231614 1.3423984
0.9176098 1.8664771 2.0267165 1.5550025 1.1774375 0.43609557 0.31509435

weight f4 [9, 175]
00000000: 9b7c 6935 3877 1935 d45c 90b3 cbd9 3334
00000010: c899 4bb5 76ff 173f 5d04 ec36 adf1 c93e
00000020: a87e 683f b10a de3e 73d0 463f ed16 243f
00000030: a0a8 31b3 a682 fb3e 7915 6eb4 7bc2 48b5
00000040: cd4a bfb7 b323 b43e 8b09 05ba 8851 2c3e
00000050: abe6 1eb1 2a49 5c3f c1fa dd3e 769e 78be
00000060: d79f 873f 1970 c93e 0783 9b3f caae 40bb
00000070: b67d e8b5 1565 0bb3 2714 8b3f f316 77b7
00000080: 1372 0f3f 39cd 993f 481a d7b4 ddd8 4c35
00000090: 0ed8 f83e 8777 92bd 99b0 f73e 9d9c 303f
000000a0: 09f3 8238 4033 1934 53b4 4f3f 9a85 113f
000000b0: 8cc5 1a35 e3e5 ac3e 2831 fb32 3028 a333
000000c0: 5137 d6b0 101b 1933 bedd 023f 2a4e 123f
000000d0: 42a5 0f39 e285 383f 189b e53e 501a c1b5
000000e0: cd6a de30 4700 06bf edf5 dd3e 26cb cfb7
000000f0: 8a86 063f 408c 183f ef11 1bb0 5e60 8ab4
00000100: a465 9fb1 d401 023f 49ff 3c3e e66c 3b3f
00000110: bc01 64b3 dcca 9d3e 5759 843e 92bb 343e
00000120: 6856 6f3e ab34 72b4 c22b 893e e070 68b2
00000130: a9e4 82b4 1ebf 723e 1b59 d4b3 ad50 bdb8
00000140: 11e9 37b4 abac 54b5 0c1c 8f3e 9476 d8b5
00000150: 9f62 29bd fa3d 8d3e 6c50 e435 69d8 e934
00000160: 3902 30b6 5ef8 ea3e 1669 7d3e 00bd bbbe
00000170: f43b 6d35 c233 b63e cd03 213f 156b 403f
00000180: 1622 afb6 29e8 f03e 639b 123f d491 6a3f
00000190: 70d0 453f e7f0 913f 2376 3334 5559 a434
000001a0: 3a78 8333 2bc4 6a33 d0b2 813f e857 df3e
000001b0: d60d 113f d913 ac3e f08b cc34 b1ff 8d35
000001c0: 4269 2e3f f21a 233f 6dac 313f e07f 253f
000001d0: e4d7 3b3f 9696 f135 a45c f93e c282 bf3e
000001e0: ccbc d83e 4494 a63e 7e9f e53e b1ef 8034
000001f0: 84c9 c539 40c8 1134 9293 033f e091 9532
00000200: c6da 8ab9 9185 d93e 60d4 3f3f c4ea 19b2
00000210: 3db1 5e3f 62a1 1d3a 4e75 6fb2 a920 1f3f
00000220: 11c3 b23d 4a03 ad34 5598 48be 3159 6436
00000230: 8ce6 193f f8dc 063f 8892 d9b6 88c9 34b4
00000240: 290b 9e3e 5ec6 763f 2a39 e432 c0bf 2031
00000250: c0b0 6832 4455 033f cef9 b83e 45e6 463e
00000260: 2095 1636 b20d 973e 27e6 2735 9864 7034
00000270: 4c29 083f 3229 8235 e8ad 4035 f33e 273f
00000280: 3a7a 013f 9946 be3e bffe 6a3f 32f9 3c3f
00000290: f8a9 fc38 33e2 8e34 cb52 fab2 102f 9738
000002a0: 429b 0c3f 2cb4 5634 ef9f 41b4 052b e03d
000002b0: 883c 5f3e 9736 3f3f 6e37 713e dfeb df3e
000002c0: f396 fc3e 8b50 2d3f 5b31 e73e b8a8 ab3f
000002d0: 62c1 4db4 c89d 9d3e d02f 252e 1d58 2334
000002e0: 01a6 5035 9650 91b5 1073 f234 44c6 323f
000002f0: 0beb fdb1 ab5a a13e 1657 403f d59d 1bbe
00000300: c368 5bb4 a4c9 e9bd 8db5 09ba 4f80 3f3f
00000310: b232 0e35 04ff 5eb4 e76d 7cb9 3982 adb4
00000320: ca25 44b3 c07d 8f35 dd41 2c3e 120c f63e
00000330: 6509 913f eeaf 8bb2 e222 80be 5e40 3634
00000340: 4720 4035 9e87 903f 534f 683f c808 0234
00000350: 27c6 23bb c30c b6b4 50af 9ab3 1ed7 293e
00000360: 6bc2 c83e 09c5 7631 ea85 8ab2 7039 4c3f
00000370: 8f19 2832 5a3c 093f 0e15 6e3e 2cd1 053f
00000380: 75bd d13e e2ec 4fb4 4257 9732 36b7 583e
00000390: 03fd 96b0 0da8 9b32 584c 883e a087 1a3f
000003a0: 0c27 4334 349b 0e32 dfc5 bdbe 148d d0b3
000003b0: 30fc d3b2 0ddc 0a3f 5eb8 5a3f 00d0 363f
000003c0: 7a6b 7fb3 265f ab35 b36e 4030 6e8c e93e
000003d0: 18c9 5736 7471 0bb4 67d7 da3a 2706 45b8
000003e0: ccca c23e 0e73 d2b6 b3e0 7d3e 823a e53e
000003f0: 929b d838 5610 f63e ea55 623e a89e f03e
8.698059e-07 5.717043e-07 -6.722408e-08 1.6749907e-07 -7.5847174e-07 0.5937418 7.033856e-06 0.39442196
0.9081826 0.43367532 0.7766182 0.6409748 -4.1364387e-08 0.49123114 -2.2173289e-07 -7.478881e-07
-2.2803806e-05 0.35183486 -0.00050749694 0.16827977 -2.3123146e-09 0.8604914 0.43355373 -0.24279198
1.0595654 0.39343336 1.2149361 -0.0029401057 -1.7321934e-06 -3.2455393e-08 1.0865525 -1.47276905e-05
0.5603344 1.2015754 -4.0065993e-07 7.63115e-07 0.48602337 -0.07151704 0.4837692 0.6898897
6.244152e-05 1.426788e-07 0.8113453 0.56844485 5.765694e-07 0.3376914 2.92426e-08 7.597589e-08
-1.5586271e-09 3.56477e-08 0.511196 0.5715052 0.00013699106 0.7207929 0.4484489 -1.4387278e-06
1.618298e-09 -0.52344173 0.4335169 -2.4770921e-05 0.5254904 0.59589005 -5.6414157e-10 -2.577462e-07
-4.6390642e-09 0.5078404 0.18456759 0.7321304 -5.3086964e-08 0.30818832 0.2584941 0.17649677
0.23372805 -2.2557167e-07 0.26791197 -1.3529842e-08 -2.438076e-07 0.23705718 -9.8882275e-08 -9.027249e-05
-1.7127992e-07 -7.922742e-07 0.27951086 -1.6127765e-06 -0.041353818 0.27586347 1.701073e-06 4.355709e-07
-2.6227337e-06 0.45892614 0.24747118 -0.36667633 8.8376623e-07 0.35586363 0.62896425 0.75163394
-5.2193745e-06 0.47052124 0.5726835 0.91628766 0.77271175 1.1401643 1.6713652e-07 3.0612378e-07
6.122032e-08 5.4660784e-08 1.0132694 0.43621755 0.56661737 0.33608893 3.809978e-07 1.0579735e-06
0.6812936 0.6371299 0.69403726 0.64648247 0.733763 1.7999726e-06 0.48703492 0.37404448
0.4233154 0.32534993 0.44848245 2.4016256e-07 0.0003772491 1.3577028e-07 0.5139705 1.741222e-08
-0.0002648441 0.42484716 0.74933434 -8.959152e-09 0.86989194 0.00060131226 -1.3938303e-08 0.6215921
0.08728612 3.2226154e-07 -0.1958936 3.4026564e-06 0.6011741 0.5268092 -6.4841624e-06 -1.6837123e-07
0.3086789 0.96396434 2.6568689e-08 2.3392062e-09 1.3544366e-08 0.5130198 0.36128086 0.19423778
2.2438544e-06 0.29502636 6.2547264e-07 2.2388338e-07 0.53188014 9.697744e-07 7.177864e-07 0.6533043
0.5057713 0.37163237 0.9179496 0.7381774 0.000120479555 2.6614143e-07 -2.914148e-08 7.209007e-05
0.54924405 1.9995849e-07 -1.8032709e-07 0.10945705 0.21800435 0.7469267 0.23556301 0.43734643
0.49333915 0.67701024 0.45154843 1.3410864 -1.9162465e-07 0.3078444 3.7559122e-11 1.5212613e-07
7.7727606e-07 -1.0826795e-06 4.5159732e-07 0.6983378 -7.3899904e-09 0.31514487 0.7513288 -0.15196927
-2.0434076e-07 -0.11415413 -0.00052531884 0.7480516 5.2972894e-07 -2.0768135e-07 -0.00024073535 -3.231851e-07
-4.5669175e-08 1.0690928e-06 0.16822 0.48056084 1.1330992 -1.6261733e-08 -0.25026613 1.6973488e-07
7.1572543e-07 1.1291387 0.9074604 1.2110388e-07 -0.0024989934 -3.3909427e-07 -7.203073e-08 0.16585967
0.3921083 3.5909713e-09 -1.6126211e-08 0.7977514 9.784698e-09 0.53607714 0.23250219 0.52272296
0.40964857 -1.9364555e-07 1.7618394e-08 0.2116364 -1.0985847e-09 1.8120796e-08 0.26620746 0.603632
1.8174995e-07 8.300777e-09 -0.37065026 -9.711417e-08 -2.4678315e-08 0.5424202 0.8543757 0.7141113
-5.9469563e-08 1.2768185e-06 7.0006506e-10 0.45614952 3.2154549e-06 -1.2986658e-07 0.0016696275 -4.697419e-05
0.38045347 -6.271882e-06 0.24792747 0.447712 0.0001032866 0.48059338 0.22103086 0.46996045

bias f4 [175]
00000000: 0000 0000 0000 0000 0000 0000 0000 0000
00000010: 0000 0000 0000 0000 0000 0000 0000 0000
00000020: 0000 0000 0000 0000 0000 0000 0000 0000
00000030: 0000 0000 0000 0000 0000 0000 0000 0000
00000040: 0000 0000 0000 0000 0000 0000 0000 0000
00000050: 0000 0000 0000 0000 0000 0000 0000 0000
00000060: 0000 0000 0000 0000 0000 0000 0000 0000
00000070: 0000 0000 0000 0000 0000 0000 0000 0000
00000080: 0000 0000 0000 0000 0000 0000 0000 0000
00000090: 0000 0000 0000 0000 0000 0000 0000 0000
000000a0: 0000 0000 0000 0000 0000 0000 0000 0000
000000b0: 0000 0000 0000 0000 0000 0000 0000 0000
000000c0: 0000 0000 0000 0000 0000 0000 0000 0000
000000d0: 0000 0000 0000 0000 0000 0000 0000 0000
000000e0: 0000 0000 0000 0000 0000 0000 0000 0000
000000f0: 0000 0000 0000 0000 0000 0000 0000 0000
00000100: 0000 0000 0000 0000 0000 0000 0000 0000
00000110: 0000 0000 0000 0000 0000 0000 0000 0000
00000120: 0000 0000 0000 0000 0000 0000 0000 0000
00000130: 0000 0000 0000 0000 0000 0000 0000 0000
00000140: 0000 0000 0000 0000 0000 0000 0000 0000
00000150: 0000 0000 0000 0000 0000 0000 0000 0000
00000160: 0000 0000 0000 0000 0000 0000 0000 0000
00000170: 0000 0000 0000 0000 0000 0000 0000 0000
00000180: 0000 0000 0000 0000 0000 0000 0000 0000
00000190: 0000 0000 0000 0000 0000 0000 0000 0000
000001a0: 0000 0000 0000 0000 0000 0000 0000 0000
000001b0: 0000 0000 0000 0000 0000 0000 0000 0000
000001c0: 0000 0000 0000 0000 0000 0000 0000 0000
000001d0: 0000 0000 0000 0000 0000 0000 0000 0000
000001e0: 0000 0000 0000 0000 0000 0000 0000 0000
000001f0: 0000 0000 0000 0000 0000 0000 0000 0000
00000200: 0000 0000 0000 0000 0000 0000 0000 0000
00000210: 0000 0000 0000 0000 0000 0000 0000 0000
00000220: 0000 0000 0000 0000 0000 0000 0000 0000
00000230: 0000 0000 0000 0000 0000 0000 0000 0000
00000240: 0000 0000 0000 0000 0000 0000 0000 0000
00000250: 0000 0000 0000 0000 0000 0000 0000 0000
00000260: 0000 0000 0000 0000 0000 0000 0000 0000
00000270: 0000 0000 0000 0000 0000 0000 0000 0000
00000280: 0000 0000 0000 0000 0000 0000 0000 0000
00000290: 0000 0000 0000 0000 0000 0000 0000 0000
000002a0: 0000 0000 0000 0000 0000 0000 0000 0000
000002b0: 0000 0000 0000 0000 0000 0000
0.0 0.0 0.0 0.0 0.0 0.0 0.0 0.0
0.0 0.0 0.0 0.0 0.0 0.0 0.0 0.0
0.0 0.0 0.0 0.0 0.0 0.0 0.0 0.0
0.0 0.0 0.0 0.0 0.0 0.0 0.0 0.0
0.0 0.0 0.0 0.0 0.0 0.0 0.0 0.0
0.0 0.0 0.0 0.0 0.0 0.0 0.0 0.0
0.0 0.0 0.0 0.0 0.0 0.0 0.0 0.0
0.0 0.0 0.0 0.0 0.0 0.0 0.0 0.0
0.0 0.0 0.0 0.0 0.0 0.0 0.0 0.0
0.0 0.0 0.0 0.0 0.0 0.0 0.0 0.0
0.0 0.0 0.0 0.0 0.0 0.0 0.0 0.0
0.0 0.0 0.0 0.0 0.0 0.0 0.0 0.0
0.0 0.0 0.0 0.0 0.0 0.0 0.0 0.0
0.0 0.0 0.0 0.0 0.0 0.0 0.0 0.0
0.0 0.0 0.0 0.0 0.0 0.0 0.0 0.0
0.0 0.0 0.0 0.0 0.0 0.0 0.0 0.0
0.0 0.0 0.0 0.0 0.0 0.0 0.0 0.0
0.0 0.0 0.0 0.0 0.0 0.0 0.0 0.0
0.0 0.0 0.0 0.0 0.0 0.0 0.0 0.0
0.0 0.0 0.0 0.0 0.0 0.0 0.0 0.0
0.0 0.0 0.0 0.0 0.0 0.0 0.0 0.0
0.0 0.0 0.0 0.0 0.0 0.0 0.0

_ei_mask f4 [175]
00000000: 0000 803f 0000 803f 0000 803f 0000 803f
00000010: 0000 803f 0000 803f 0000 803f 0000 803f
00000020: 0000 803f 0000 803f 0000 803f 0000 803f
00000030: 0000 803f 0000 803f 0000 803f 0000 803f
00000040: 0000 803f 0000 803f 0000 803f 0000 803f
00000050: 0000 803f 0000 803f 0000 803f 0000 803f
00000060: 0000 803f 0000 803f 0000 803f 0000 803f
00000070: 0000 803f 0000 803f 0000 803f 0000 803f
00000080: 0000 803f 0000 803f 0000 803f 0000 803f
00000090: 0000 803f 0000 803f 0000 803f 0000 803f
000000a0: 0000 803f 0000 803f 0000 803f 0000 803f
000000b0: 0000 803f 0000 803f 0000 803f 0000 803f
000000c0: 0000 803f 0000 803f 0000 803f 0000 803f
000000d0: 0000 803f 0000 803f 0000 803f 0000 803f
000000e0: 0000 803f 0000 803f 0000 803f 0000 803f
000000f0: 0000 803f 0000 803f 0000 803f 0000 803f
00000100: 0000 803f 0000 803f 0000 803f 0000 803f
00000110: 0000 803f 0000 803f 0000 803f 0000 803f
00000120: 0000 803f 0000 803f 0000 803f 0000 803f
00000130: 0000 803f 0000 803f 0000 803f 0000 803f
00000140: 0000 803f 0000 803f 0000 803f 0000 803f
00000150: 0000 803f 0000 803f 0000 803f 0000 803f
00000160: 0000 803f 0000 803f 0000 803f 0000 803f
00000170: 0000 803f 0000 803f 0000 803f 0000 803f
00000180: 0000 803f 0000 803f 0000 803f 0000 803f
00000190: 0000 803f 0000 803f 0000 803f 0000 803f
000001a0: 0000 803f 0000 803f 0000 803f 0000 803f
000001b0: 0000 803f 0000 803f 0000 803f 0000 803f
000001c0: 0000 803f 0000 803f 0000 803f 0000 803f
000001d0: 0000 803f 0000 803f 0000 803f 0000 803f
000001e0: 0000 803f 0000 803f 0000 803f 0000 803f
000001f0: 0000 803f 0000 803f 0000 803f 0000 803f
00000200: 0000 803f 0000 803f 0000 803f 0000 803f
00000210: 0000 803f 0000 803f 0000 803f 0000 803f
00000220: 0000 803f 0000 803f 0000 803f 0000 803f
00000230: 0000 803f 0000 803f 0000 803f 0000 803f
00000240: 0000 803f 0000 803f 0000 803f 0000 803f
00000250: 0000 803f 0000 803f 0000 803f 0000 803f
00000260: 0000 803f 0000 803f 0000 803f 0000 803f
00000270: 0000 803f 0000 803f 0000 803f 0000 803f
00000280: 0000 803f 0000 803f 0000 803f 0000 803f
00000290: 0000 803f 0000 803f 0000 803f 0000 803f
000002a0: 0000 803f 0000 803f 0000 803f 0000 803f
000002b0: 0000 803f 0000 803f 0000 803f
1.0 1.0 1.0 1.0 1.0 1.0 1.0 1.0
1.0 1.0 1.0 1.0 1.0 1.0 1.0 1.0
1.0 1.0 1.0 1.0 1.0 1.0 1.0 1.0
1.0 1.0 1.0 1.0 1.0 1.0 1.0 1.0
1.0 1.0 1.0 1.0 1.0 1.0 1.0 1.0
1.0 1.0 1.0 1.0 1.0 1.0 1.0 1.0
1.0 1.0 1.0 1.0 1.0 1.0 1.0 1.0
1.0 1.0 1.0 1.0 1.0 1.0 1.0 1.0
1.0 1.0 1.0 1.0 1.0 1.0 1.0 1.0
1.0 1.0 1.0 1.0 1.0 1.0 1.0 1.0
1.0 1.0 1.0 1.0 1.0 1.0 1.0 1.0
1.0 1.0 1.0 1.0 1.0 1.0 1.0 1.0
1.0 1.0 1.0 1.0 1.0 1.0 1.0 1.0
1.0 1.0 1.0 1.0 1.0 1.0 1.0 1.0
1.0 1.0 1.0 1.0 1.0 1.0 1.0 1.0
1.0 1.0 1.0 1.0 1.0 1.0 1.0 1.0
1.0 1.0 1.0 1.0 1.0 1.0 1.0 1.0
1.0 1.0 1.0 1.0 1.0 1.0 1.0 1.0
1.0 1.0 1.0 1.0 1.0 1.0 1.0 1.0
1.0 1.0 1.0 1.0 1.0 1.0 1.0 1.0
1.0 1.0 1.0 1.0 1.0 1.0 1.0 1.0
1.0 1.0 1.0 1.0 1.0 1.0 1.0

weight f4 [2, 175]
00000000: 047c 2f40 5a41 d23f eda3 783f 2c13 4e40
00000010: 881f d73f c4a8 0940 e672 dc3f 28af 7a40
00000020: 370a 553f 5374 4240 37d4 293f 68c1 653f
00000030: 1f09 ab3e ff67 fc3e d8db fc3d 068f 8a3f
00000040: caab d23e 6388 973f 7744 843e 7805 1c40
00000050: f48c ce3f 5466 ed3f bce3 dd3f 1f6e 5e3f
00000060: a483 9240 58d6 8440 495e 3dbf 19cd d73f
00000070: 4444 683f 9da7 4d40 03ab 1c40 0caa 00bf
00000080: fea8 f33e afe4 a73f cce7 fb3f 446c 3b40
00000090: 190d 1240 2d90 393f 6989 433f 7c16 6d3f
000000a0: b468 fd3f 2993 2d40 d8d9 843f b724 1cbf
000000b0: 182f 5f3f 2ab2 c23d d57f 5d3f f1dc 2e3f
000000c0: 1a18 2d3e bd3f a73f 56d7 2f3f c64b 9a3e
000000d0: 1a9b 4d3f 0dcb ff3f d941 793f 63bd 1ebf
000000e0: 1f5e b13f 393f ddbe 473c 9c3f 0c6e cc3e
000000f0: 534f c13f 8c47 5d3f cd81 bd3f 4644 0c40
00000100: 725b 173f 64c0 3c3f ae9b 433f f4bc eabe
00000110: dadd 443f 5b65 c83f a155 453f 9541 b73f
00000120: 90c5 db3f a44d c2be 994d 7f3f 308e cb3d
00000130: 05db 843e db82 ac3f 69e4 45be e1ba a13f
00000140: e4cd ce3f e96b cc3f 9d4a f03d 6e33 d73f
00000150: 31ec ad3c dc12 a53f a42c 3240 2153 6640
00000160: 12f0 d73e ac21 cb3f 5936 0e40 c0dd ce3f
00000170: f4e6 aa3f 86b9 0e40 8776 c33f 6ee5 773f
00000180: dc93 d73f 10dd 853f 9e5c f93f 5121 023f
00000190: c17f 3a3f fbb5 fabd a11a af3f cd74 b93f
000001a0: 9691 1b3f 3e94 c13f 0b85 d9bc eede ca3f
000001b0: 9bc1 2e3f e150 2b40 3ef1 383f c40e 0840
000001c0: 4be9 543f 42ef 9f3f 7bf1 b63e d01a d03f
000001d0: f1e7 9a3e dac2 993f 3382 0d40 bd09 c63f
000001e0: aa5f 4340 ef17 cb3f bb7f 3a3f 2ee2 0740
000001f0: 2ebc 4d40 c308 b33f c9d6 ed3e 2c0d 8e3f
00000200: a00d b63d a4ae 133f 2f34 36bd 8ad0 5f3f
00000210: 498c 623e 9145 ba3f 6f21 213f 817f 733f
00000220: fef0 a93f 7ef8 8c3f ffda e83f b64d 433f
00000230: 31f1 643f 3f7e 6b3f 3eb8 0340 ab05 f53f
00000240: 61e7 403f 24a4 363d c937 a73f 0854 633e
00000250: 2195 fe3f ddc0 9f3e 222b 3f3b 2c25 253f
00000260: 38e3 ce3f 8275 413f 30ef 1740 8125 c03f
00000270: a696 3b3f f294 1240 a08c e83d a915 173f
00000280: 7613 fc3f 8789 c03f 260f 1740 460d 763e
00000290: 04d6 be3f c224 e63f 1f9b ce3e b2eb c43f
000002a0: b9b4 b23e 7bd1 fe3f 7812 8b3f 6bc4 c83f
000002b0: dfeb d43f 53e0 67be b8ef 623f 6c40 3d3f
000002c0: 55fb f83f baf2 4b3f 9971 2640 8e94 7c3e
000002d0: a2ea 0c40 87f9 9a3f 83e9 2f40 17a5 b13d
000002e0: 706d d13f 4e15 923f 86f7 433f 04f1 b53f
000002f0: d976 c9bc 48e2 73be 8c4b 353f 3967 0bbe
00000300: e6de 8f3f 6cd9 09be 5d70 0a40 6df8 a63f
00000310: ef93 0e40 83fd c83f cf73 363f 6b8c 8a3f
00000320: d6aa 3840 caf6 34bf 7574 2940 e8ee f83f
00000330: 4f8f 6140 5e97 cd3f cc36 f2be 6266 103f
00000340: dd7a e63e 7474 b43f c180 1a40 861c 0d40
00000350: 6f15 5f3f 1be9 8f3d b185 883f 941b ee3e
00000360: 7d7c 0740 99cf 673e c57f 633e 5d46 363e
00000370: a30c 9d3f 19f2 683f 4bc5 ba3e f1a2 20be
00000380: ae44 0bbc 2827 90bf 6fb8 a0bf 439d ee3d
00000390: f0d8 af3f 9cba 363f 6a3d 143f 33bd a63f
000003a0: db67 07bf bd46 2a3f ee71 a2bf b76d 903f
000003b0: 3d3f 4b3f 2c91 473f 583a 4940 c854 743f
000003c0: c73a 323f 2f90 933f 0797 7fbc 5f67 433f
000003d0: e655 9a3f 7db4 7b3f adc4 a23f 3883 c73f
000003e0: 0e26 34bd 4d81 6c3f cded 663e 4fbb c93e
000003f0: d1f8 a33f 2b7d b2be 22ed f63e c618 ad3f
2.7419443 1.6426194 0.9712513 3.2199202 1.6806498 2.1509256 1.7222564 3.9169407
0.8321871 3.0383499 0.6633944 0.8974824 0.33405396 0.49298093 0.12346619 1.0824897
0.4114669 1.1838497 0.25833485 2.4378338 1.6136765 1.8546853 1.7335124 0.8688678
4.5785694 4.151165 -0.7397199 1.6859466 0.90729165 3.2133553 2.4479377 -0.5025947
0.47589868 1.3116664 1.9680114 2.928483 2.2820494 0.7248562 0.76381546 0.92612433
1.9797578 2.712107 1.0378981 -0.6099352 0.87181234 0.09506638 0.8652318 0.6830588
0.16903725 1.3066326 0.6868795 0.30135936 0.8031479 1.9983841 0.973661 -0.6200773
1.3856848 -0.43212298 1.2205895 0.3992771 1.5102333 0.86437297 1.4805237 2.191667
0.5912391 0.73731065 0.76409423 -0.45847285 0.7690102 1.5655931 0.77083784 1.4316889
1.7169666 -0.3794986 0.9972778 0.099392295 0.2594835 1.3477434 -0.19325413 1.2635156
1.6156583 1.5970432 0.11732981 1.681257 0.021230789 1.289638 2.7839746 3.5988238
0.42175347 1.5869651 2.222067 1.6161423 1.3351731 2.2300735 1.5270547 0.96834457
1.6841998 1.0458088 1.948139 0.50832087 0.72851187 -0.12241741 1.3680001 1.448877
0.6076902 1.5123365 -0.026552698 1.5849283 0.6826417 2.6768115 0.72243106 2.1259012
0.83168477 1.2494891 0.3573111 1.6258183 0.30255082 1.2012589 2.2110717 1.5471722
3.0527139 1.5866679 0.7285115 2.12318 3.2146106 1.3987049 0.4645293 1.109777
0.088893175 0.57688355 -0.04448336 0.8742758 0.22123827 1.455248 0.6294164 0.9511643
1.327667 1.1013334 1.8191832 0.7629045 0.8943053 0.9198951 2.0581203 1.9142355
0.75353056 0.04459013 1.3063899 0.22200024 1.988926 0.3120183 0.0029169996 0.64509845
1.6163092 0.7556993 2.3739738 1.5011445 0.73276746 2.290341 0.11354947 0.59017426
1.9693439 1.504197 2.3602996 0.24028501 1.4909062 1.7979968 0.40352723 1.5384429
0.34903505 1.9907678 1.0865011 1.5684942 1.6634482 -0.22644167 0.8864703 0.73926425
1.94517 0.79667246 2.6006835 0.24666044 2.2018209 1.21074 2.7486274 0.086740665
1.6361523 1.1412752 0.76549566 1.4214177 -0.024592804 -0.23816788 0.708184 -0.13613595
1.1239898 -0.13461846 2.163108 1.3044564 2.2277792 1.5702366 0.7127046 1.0824102
2.885427 -0.7068907 2.647733 1.9447908 3.5243719 1.6061819 -0.47307432 0.56406224
0.45015612 1.4098039 2.4141085 2.204866 0.8714208 0.07026883 1.0665799 0.46505415
2.1169732 0.22637786 0.22216709 0.17800279 1.2269481 0.9099441 0.36478648 -0.15687157
-0.008500261 -1.126195 -1.2556285 0.11651089 1.3738079 0.71378493 0.5790621 1.3026489
-0.52892846 0.6651419 -1.2691019 1.1283482 0.7939337 0.7795589 3.144186 0.95441866
0.6962094 1.1528376 -0.015599973 0.76329607 1.2057464 0.9832228 1.2716271 1.558692
-0.043981604 0.923848 0.22551651 0.39400718 1.2810308 -0.3486112 0.48227793 1.3523185

bias f4 [175]
00000000: 0000 0000 0000 0000 0000 0000 0000 0000
00000010: 0000 0000 0000 0000 0000 0000 0000 0000
00000020: 0000 0000 0000 0000 0000 0000 0000 0000
00000030: 0000 0000 0000 0000 0000 0000 0000 0000
00000040: 0000 0000 0000 0000 0000 0000 0000 0000
00000050: 0000 0000 0000 0000 0000 0000 0000 0000
00000060: 0000 0000 0000 0000 0000 0000 0000 0000
00000070: 0000 0000 0000 0000 0000 0000 0000 0000
00000080: 0000 0000 0000 0000 0000 0000 0000 0000
00000090: 0000 0000 0000 0000 0000 0000 0000 0000
000000a0: 0000 0000 0000 0000 0000 0000 0000 0000
000000b0: 0000 0000 0000 0000 0000 0000 0000 0000
000000c0: 0000 0000 0000 0000 0000 0000 0000 0000
000000d0: 0000 0000 0000 0000 0000 0000 0000 0000
000000e0: 0000 0000 0000 0000 0000 0000 0000 0000
000000f0: 0000 0000 0000 0000 0000 0000 0000 0000
00000100: 0000 0000 0000 0000 0000 0000 0000 0000
00000110: 0000 0000 0000 0000 0000 0000 0000 0000
00000120: 0000 0000 0000 0000 0000 0000 0000 0000
00000130: 0000 0000 0000 0000 0000 0000 0000 0000
00000140: 0000 0000 0000 0000 0000 0000 0000 0000
00000150: 0000 0000 0000 0000 0000 0000 0000 0000
00000160: 0000 0000 0000 0000 0000 0000 0000 0000
00000170: 0000 0000 0000 0000 0000 0000 0000 0000
00000180: 0000 0000 0000 0000 0000 0000 0000 0000
00000190: 0000 0000 0000 0000 0000 0000 0000 0000
000001a0: 0000 0000 0000 0000 0000 0000 0000 0000
000001b0: 0000 0000 0000 0000 0000 0000 0000 0000
000001c0: 0000 0000 0000 0000 0000 0000 0000 0000
000001d0: 0000 0000 0000 0000 0000 0000 0000 0000
000001e0: 0000 0000 0000 0000 0000 0000 0000 0000
000001f0: 0000 0000 0000 0000 0000 0000 0000 0000
00000200: 0000 0000 0000 0000 0000 0000 0000 0000
00000210: 0000 0000 0000 0000 0000 0000 0000 0000
00000220: 0000 0000 0000 0000 0000 0000 0000 0000
00000230: 0000 0000 0000 0000 0000 0000 0000 0000
00000240: 0000 0000 0000 0000 0000 0000 0000 0000
00000250: 0000 0000 0000 0000 0000 0000 0000 0000
00000260: 0000 0000 0000 0000 0000 0000 0000 0000
00000270: 0000 0000 0000 0000 0000 0000 0000 0000
00000280: 0000 0000 0000 0000 0000 0000 0000 0000
00000290: 0000 0000 0000 0000 0000 0000 0000 0000
000002a0: 0000 0000 0000 0000 0000 0000 0000 0000
000002b0: 0000 0000 0000 0000 0000 0000
0.0 0.0 0.0 0.0 0.0 0.0 0.0 0.0
0.0 0.0 0.0 0.0 0.0 0.0 0.0 0.0
0.0 0.0 0.0 0.0 0.0 0.0 0.0 0.0
0.0 0.0 0.0 0.0 0.0 0.0 0.0 0.0
0.0 0.0 0.0 0.0 0.0 0.0 0.0 0.0
0.0 0.0 0.0 0.0 0.0 0.0 0.0 0.0
0.0 0.0 0.0 0.0 0.0 0.0 0.0 0.0
0.0 0.0 0.0 0.0 0.0 0.0 0.0 0.0
0.0 0.0 0.0 0.0 0.0 0.0 0.0 0.0
0.0 0.0 0.0 0.0 0.0 0.0 0.0 0.0
0.0 0.0 0.0 0.0 0.0 0.0 0.0 0.0
0.0 0.0 0.0 0.0 0.0 0.0 0.0 0.0
0.0 0.0 0.0 0.0 0.0 0.0 0.0 0.0
0.0 0.0 0.0 0.0 0.0 0.0 0.0 0.0
0.0 0.0 0.0 0.0 0.0 0.0 0.0 0.0
0.0 0.0 0.0 0.0 0.0 0.0 0.0 0.0
0.0 0.0 0.0 0.0 0.0 0.0 0.0 0.0
0.0 0.0 0.0 0.0 0.0 0.0 0.0 0.0
0.0 0.0 0.0 0.0 0.0 0.0 0.0 0.0
0.0 0.0 0.0 0.0 0.0 0.0 0.0 0.0
0.0 0.0 0.0 0.0 0.0 0.0 0.0 0.0
0.0 0.0 0.0 0.0 0.0 0.0 0.0

_ei_mask f4 [175]
00000000: 0000 803f 0000 803f 0000 803f 0000 803f
00000010: 0000 803f 0000 803f 0000 803f 0000 803f
00000020: 0000 803f 0000 803f 0000 803f 0000 803f
00000030: 0000 803f 0000 803f 0000 803f 0000 803f
00000040: 0000 803f 0000 803f 0000 803f 0000 803f
00000050: 0000 803f 0000 803f 0000 803f 0000 803f
00000060: 0000 803f 0000 803f 0000 803f 0000 803f
00000070: 0000 803f 0000 803f 0000 803f 0000 803f
00000080: 0000 803f 0000 803f 0000 803f 0000 803f
00000090: 0000 803f 0000 803f 0000 803f 0000 803f
000000a0: 0000 803f 0000 803f 0000 803f 0000 803f
000000b0: 0000 803f 0000 803f 0000 803f 0000 803f
000000c0: 0000 803f 0000 803f 0000 803f 0000 803f
000000d0: 0000 803f 0000 803f 0000 803f 0000 803f
000000e0: 0000 803f 0000 803f 0000 803f 0000 803f
000000f0: 0000 803f 0000 803f 0000 803f 0000 803f
00000100: 0000 803f 0000 803f 0000 803f 0000 803f
00000110: 0000 803f 0000 803f 0000 803f 0000 803f
00000120: 0000 803f 0000 803f 0000 803f 0000 803f
00000130: 0000 803f 0000 803f 0000 803f 0000 803f
00000140: 0000 803f 0000 803f 0000 803f 0000 803f
00000150: 0000 803f 0000 803f 0000 803f 0000 803f
00000160: 0000 803f 0000 803f 0000 803f 0000 803f
00000170: 0000 803f 0000 803f 0000 803f 0000 803f
00000180: 0000 803f 0000 803f 0000 803f 0000 803f
00000190: 0000 803f 0000 803f 0000 803f 0000 803f
000001a0: 0000 803f 0000 803f 0000 803f 0000 803f
000001b0: 0000 803f 0000 803f 0000 803f 0000 803f
000001c0: 0000 803f 0000 803f 0000 803f 0000 803f
000001d0: 0000 803f 0000 803f 0000 803f 0000 803f
000001e0: 0000 803f 0000 803f 0000 803f 0000 803f
000001f0: 0000 803f 0000 803f 0000 803f 0000 803f
00000200: 0000 803f 0000 803f 0000 803f 0000 803f
00000210: 0000 803f 0000 803f 0000 803f 0000 803f
00000220: 0000 803f 0000 803f 0000 803f 0000 803f
00000230: 0000 803f 0000 803f 0000 803f 0000 803f
00000240: 0000 803f 0000 803f 0000 803f 0000 803f
00000250: 0000 803f 0000 803f 0000 803f 0000 803f
00000260: 0000 803f 0000 803f 0000 803f 0000 803f
00000270: 0000 803f 0000 803f 0000 803f 0000 803f
00000280: 0000 803f 0000 803f 0000 803f 0000 803f
00000290: 0000 803f 0000 803f 0000 803f 0000 803f
000002a0: 0000 803f 0000 803f 0000 803f 0000 803f
000002b0: 0000 803f 0000 803f 0000 803f
1.0 1.0 1.0 1.0 1.0 1.0 1.0 1.0
1.0 1.0 1.0 1.0 1.0 1.0 1.0 1.0
1.0 1.0 1.0 1.0 1.0 1.0 1.0 1.0
1.0 1.0 1.0 1.0 1.0 1.0 1.0 1.0
1.0 1.0 1.0 1.0 1.0 1.0 1.0 1.0
1.0 1.0 1.0 1.0 1.0 1.0 1.0 1.0
1.0 1.0 1.0 1.0 1.0 1.0 1.0 1.0
1.0 1.0 1.0 1.0 1.0 1.0 1.0 1.0
1.0 1.0 1.0 1.0 1.0 1.0 1.0 1.0
1.0 1.0 1.0 1.0 1.0 1.0 1.0 1.0
1.0 1.0 1.0 1.0 1.0 1.0 1.0 1.0
1.0 1.0 1.0 1.0 1.0 1.0 1.0 1.0
1.0 1.0 1.0 1.0 1.0 1.0 1.0 1.0
1.0 1.0 1.0 1.0 1.0 1.0 1.0 1.0
1.0 1.0 1.0 1.0 1.0 1.0 1.0 1.0
1.0 1.0 1.0 1.0 1.0 1.0 1.0 1.0
1.0 1.0 1.0 1.0 1.0 1.0 1.0 1.0
1.0 1.0 1.0 1.0 1.0 1.0 1.0 1.0
1.0 1.0 1.0 1.0 1.0 1.0 1.0 1.0
1.0 1.0 1.0 1.0 1.0 1.0 1.0 1.0
1.0 1.0 1.0 1.0 1.0 1.0 1.0 1.0
1.0 1.0 1.0 1.0 1.0 1.0 1.0

weight f4 [175, 3]
00000000: facd 90c0 4226 8640 f813 3740 28fe 2440
00000010: 3bd5 1440 b3a6 75c0 ff0d 29c0 f84a 743f
00000020: 93b3 94c0 3133 b2c0 70d3 f040 b64a cb40
00000030: 9634 7140 34ce 8cc0 f92d a340 70bc 6cc0
00000040: e3c0 28c0 542d 61c0 bb4e 6140 70fd 3940
00000050: 7c0c d3c0 ffb5 2d3f b0fa 4ebe c37b 6bbe
00000060: f857 203f 3b2e 11c1 7d4c 7540 fe2f 11be
00000070: d717 cf3f ab04 bc3f d4a3 773f fd6e d8bf
00000080: 0936 2340 2bd1 8f40 1f8b c140 8b16 b8c0
00000090: b3f3 c4c0 af07 37c1 7dc4 5ebd ac3e 0040
000000a0: 0d15 d0bf 01d8 1040 c9e8 4e40 d0dc a040
000000b0: 08dc 0dc0 d186 bf40 9156 60bf 251d 6b40
000000c0: 0652 c93f 73fe 8440 0082 2fbf 581f 64be
000000d0: 7f08 ebbf ae56 6e40 016c 8840 9321 5e40
000000e0: 8a3a 0ac0 a6ed 813f 4354 823e d99f e7bf
000000f0: 5fc9 62c0 f9b0 3140 babe c43f e06b f3c0
00000100: 127f 4f40 8e25 743e d389 59c0 ddd7 d23f
00000110: 5770 3f40 2133 f0be 10eb a83c 6e31 eec0
00000120: e263 3cbf ca45 d9c0 3573 8e40 403b db40
00000130: 249a 1141 3a79 f6bf cfe5 6a40 5e2e 84c0
00000140: 4449 203f d73b 4ec0 ddb7 f13f 544d c640
00000150: c21f f63e c2b5 4a40 703b ea3f 80cc 52c0
00000160: fc34 17bf 852e 47c0 8d5b 3ec0 3bd8 40be
00000170: f19d 7240 b864 0741 19fd 2ec0 4794 54c0
00000180: 2f1d 11bf db24 91c0 da5d 16bf 5ab7 f13f
00000190: 67a8 0140 7df6 e040 b8a7 b0bf 0fbe 4940
000001a0: ee36 a640 d474 9740 f7ba 4f40 f2ba cdc0
000001b0: 66b1 10c1 7465 d640 a486 7cbe a0c6 fcbf
000001c0: 2d99 af3f ed56 49c0 fb7e 9a40 a6ca 82c0
000001d0: 3e8a 3ac0 8327 0c40 b236 0b3e 077f 9f40
000001e0: cc0b 9cbe 8513 2240 c36d b1c0 e9aa 4bc0
000001f0: 19ba ee3f 617c 67c0 af74 8ac0 4eb5 43bf
00000200: b688 c1bf 9510 c03e b4a8 1ac0 8405 96be
00000210: 8b32 d440 0049 7cc0 19fd d440 f400 183c
00000220: 05fc a53f ae9f bebd fb91 6cc0 912a 5abe
00000230: d134 1440 63aa de3f 842e 4bc0 8e30 6ac0
00000240: 05ed e43f 6451 0ec0 87d4 eabf fd61 ba3f
00000250: e5e7 e73f 7b6a 55c0 7452 fd3f b667 60c1
00000260: f9e1 f43f 3ce0 60c0 7a64 72c1 057a fd3e
00000270: 98b1 09bf 62c8 f2be 114e 85bf f283 0fc0
00000280: 5574 a4be 348b 4b40 874d d8c0 06cf 7240
00000290: 6f4a 0640 0ee9 a540 fa64 c5c0 8f9c aec0
000002a0: a028 d4bf 8a54 4fbf 384e 30c0 8e2c a540
000002b0: e330 16c0 7ad0 c0c0 ddd0 64c0 463c 8440
000002c0: feb2 91c0 dba1 fb40 896c 6040 e75e 5cbd
000002d0: a321 9cc0 9c45 09bf 52e2 4640 83b7 c33e
000002e0: f38a d6be cef3 36c0 bace 62bf b6e1 9f3f
000002f0: 091f 4ac0 0271 e0c0 1d1a 10c0 7310 19bf
00000300: 4122 bb40 8c55 583f a9bb 6840 ab49 9bbf
00000310: 628b 74bd b800 03c0 aaa6 143f d93c 7740
00000320: b452 04c0 0091 3540 7e0d 19c0 200b 6440
00000330: 6654 95c0 dd95 903f 707c 0f40 44b7 0b40
00000340: 63ef 8c3f 274d 08c0 ee38 9abe 5363 c040
00000350: f877 8840 c6f2 a6c0 5f8b 913f 5191 c2c0
00000360: 5da2 0dc1 2f59 3e40 44e7 e63f 9787 c340
00000370: bcad c63f 9ddc d3c0 ebad d1c0 b14c 933e
00000380: a2d9 16c0 995d 9040 06c0 1e40 f953 a2c0
00000390: 1906 5540 05fd 4240 f14a 99c0 5564 f8c0
000003a0: ac0a 213f 54e4 cd3f 1103 ea40 04cb 7d40
000003b0: 13a3 1a3f a1c8 7640 0e36 24c0 bd8c 193e
000003c0: 3f99 10c0 60dc 2f40 ab29 7dc0 81c1 b740
000003d0: 25a0 fc3f 4ab2 29be 6db2 b040 484a 2840
000003e0: 530e cfc0 ece2 533f 2013 51c0 5f9c c540
000003f0: 3c92 b840 8b55 2a40 bfef 99c0 d761 a6c0
-4.5251436 4.19217 2.8605938 2.5780125 2.3255146 -3.8382995 -2.6414793 0.95426893
-4.6469207 -5.568749 7.5258102 6.35287 3.7688346 -4.4001713 5.099362 -3.6990013
-2.6367729 -3.5183916 3.5204303 2.9060936 -6.595274 0.6785583 -0.20212817 -0.2299643
0.6263423 -9.073787 3.8327935 -0.14178464 1.617915 1.4688925 0.96734357 -1.6908871
2.550173 4.494283 6.0482326 -5.752752 -6.1547484 -11.439376 -0.054386605 2.0038252
-1.6256424 2.2631838 3.232958 5.0269547 -2.2165546 5.985207 -0.8763209 3.6736538
1.5728157 4.1560607 -0.6855774 -0.22277582 -1.8361968 3.7240405 4.263184 3.4707992
-2.159823 1.015065 0.25454912 -1.8095657 -3.5435407 2.7764266 1.5370705 -7.6069183
3.2421308 0.23842451 -3.3990371 1.6472126 2.9912317 -0.46914008 0.020619899 -7.443534
-0.7358991 -6.789769 4.4515634 6.8509827 9.100132 -1.9255745 3.6702764 -4.13066
0.62611794 -3.2224023 1.8884236 6.1969395 0.48071104 3.1673436 1.8299389 -3.2937317
-0.5906522 -3.1122143 -2.9743378 -0.18832485 3.79089 8.46209 -2.7341979 -3.3215501
-0.56685156 -4.535749 -0.58736956 1.888408 2.0259035 7.030089 -1.3801184 3.1522253
5.1942053 4.7330112 3.2457864 -6.4290705 -9.04331 6.6998844 -0.24660736 -1.9748116
1.371862 -3.1459305 4.8280005 -4.0872374 -2.9146876 2.1899116 0.13595083 4.9842563
-0.3047775 2.5324414 -5.5446486 -3.1823065 1.8650542 -3.6169665 -4.3267436 -0.76448524
-1.5119846 0.3751265 -2.4165468 -0.29301083 6.63117 -3.9419556 6.6558957 0.009277571
1.2967535 -0.093078 -3.69641 -0.213053 2.3157237 1.7395748 -3.174714 -3.6592135
1.7884833 -2.2237177 -1.8346108 1.4561154 1.8117644 -3.334624 1.9790788 -14.02532
1.9131461 -3.5136862 -15.14953 0.49507156 -0.5378661 -0.47418505 -1.0414449 -2.2424283
-0.32120004 3.1803713 -6.759464 3.7938857 2.098293 5.184699 -6.1685762 -5.456611
-1.6574898 -0.8098837 -2.754774 5.161689 -2.3467338 -6.025449 -3.575248 4.1323576
-4.5530996 7.8635077 3.5066245 -0.053801443 -4.879106 -0.5362184 3.1075635 0.38225946
-0.41902885 -2.8586307 -0.8859669 1.2490757 -3.1581442 -7.013795 -2.2515938 -0.59790725
5.8479314 0.84505534 3.6364539 -1.2131857 -0.05970324 -2.0469189 0.5806681 3.8630888
-2.0675478 2.836975 -2.3914485 3.563179 -4.6665525 1.1295735 2.24197 2.1830606
1.1010555 -2.129709 -0.3012156 6.0121245 4.2646446 -5.2171354 1.1370658 -6.080239
-8.852139 2.9741933 1.8039327 6.1103015 1.552177 -6.6206803 -6.55248 0.28769448
-2.3570333 4.5114255 2.4804702 -5.0727506 3.3284972 3.046693 -4.790398 -7.7622476
0.6290691 1.6085305 7.3128743 3.965516 0.6040508 3.8559954 -2.5657992 0.14995094
-2.2593534 2.7478256 -3.9556682 5.742371 1.9736372 -0.16571918 5.5217805 2.6295338
-6.4704986 0.8276813 -3.2667923 6.1753383 5.767851 2.6614711 -4.810516 -5.1994433

bias f4 [3]
00000000: 0000 0000 0000 0000 0000 0000
0.0 0.0 0.0

_ei_mask f4 [3]
00000000: 0000 803f 0000 803f 0000 803f
1.0 1.0 1.0

weight f4 [3, 175]
00000000: f61b bfbd e867 ca3d 3c0b 8abd c774 1ebe
00000010: 06c1 20be 12a6 5d3b a92a ee3d c80f 533d
00000020: 4ab1 1f3e 40cf 003e 57ae 123d 8cfd 423e
00000030: 7b1f 0dbe 0d08 253d fd50 b13d b9e8 c53d
00000040: f326 963d 3ac9 bbbd d065 ad3d e082 5b3e
00000050: 7cfa 0fbe 15f4 05be 6126 b1bc e48e 48bd
00000060: dc59 34bc c1c5 423e bf17 9b3e d709 26bd
00000070: e6cf 2b3d 0c14 5abe 79d1 38bd bdd9 4e3e
00000080: 97c0 c43d 6497 a23e 7d14 61be 6d0e b83c
00000090: a8e5 22be a0c3 d43c 3284 373e d712 f73d
000000a0: 086b 98bc bd79 06be e2fd 19bd b4f9 733d
000000b0: 59c0 863d ae7a 783d 4601 d1bd fa8f 53bd
000000c0: 6ec8 533d 50d7 a4bc 35d7 c3bd 177f 5fbd
000000d0: 41b8 753d 66e5 10be 3e59 53bd 7a3c 103d
000000e0: 30be acbd a073 773e 296e 96bd ef32 a73e
000000f0: 6bd4 d7bd 6445 89bd 7023 a7bd fd22 8ebe
00000100: 162b 8ebc 4bae 4f3d d67d 8d3c 35e1 b23d
00000110: 61fa 15bd c87d 3c3d f786 9ebc de1b 17bc
00000120: 97a3 80bc bc2c 1c3e 34b9 953b 3f77 133e
00000130: 6f04 f43d 4670 a33a a572 1f3e e747 b53d
00000140: 37d1 15bc 7cf4 c33d b263 263e e5f2 6b3d
00000150: d5d7 0e3e 014e 4bbb becc 533d 4d9f 183d
00000160: 4d2e 2abe 29ed 273d 3ea4 6ebd f8d3 58bd
00000170: 18c8 573c 4eb0 08be 5bb4 20bb 1382 47bd
00000180: dd72 563e 0435 51bd 3644 a4bd bc14 d43d
00000190: 9af7 423e 12a3 873e 76fd fcbd e5f9 8ebd
000001a0: 26b9 adbc 0f70 44be 7202 a83e a232 4e3d
000001b0: c309 b3bd 381e 123d 8300 2dbd 7aa8 f0bd
000001c0: 7397 8b3d 120c 253e 2faa fd3d f686 d63d
000001d0: d0fe 463e 8654 ef3c 7168 3d3d ab2e d33d
000001e0: b6aa 5a3d 1c6b 623d b39e 833d 9da0 89bc
000001f0: c7cb 8b3d 70c5 14bd c9be 383c 8992 8bbd
00000200: 91e6 c83d 03e0 ed3d e51c 9e3d b223 9cbd
00000210: 4e5c 0b3e ebc8 b33d 9a04 babc dd0f 03bd
00000220: d7a6 08bb 00f1 033d 956b 1abe 4804 363d
00000230: a03c 853c b7bf ad3d ef8e 413d 9471 93bd
00000240: 72af 3cbd de25 013e 3356 77bc 5cc3 5cba
00000250: 61fe bdbd 1b56 ceb9 fee6 b43c c338 efbc
00000260: e85f f63c b78d c6bc 2fb4 643d a019 c73d
00000270: c293 993d 2fb5 8b3d 202e 213e cfc3 093e
00000280: ac5f 3cbd 79e9 1bbb efeb da3d 907e 393e
00000290: 4403 0f3b f89d 243d c4b3 edbd 3d37 193b
000002a0: 789d 2abd 0578 bdbc 4aa5 17bd 11ec 56bb
000002b0: e429 0e3b eabd 923d 7be7 16bd 0cbd b13d
000002c0: 7b43 9c3c 73e0 76bd 969a 883e 55a5 e7bd
000002d0: 7a2c f4bb 31e2 38bb 3219 c73c 0b9b b1bd
000002e0: 1e89 87bc f71f 0abc 619c 283e 3fbf c4be
000002f0: 3b40 47bc b0de 013e bcc4 2ebd 83e6 fc3d
00000300: b1be 0a3c 2f1c 063e 811e 493d b506 eb3d
00000310: 3f7b 023e 8c1e f7bb 9893 19bd e795 75be
00000320: 64ed 4c3e 955b 86bd 2fe3 dc3c 8702 b43b
00000330: b757 cbbd 2b0c 163d c40f 65bd 92ba cbbd
00000340: 2bc5 3d3d 839c 883d f1d8 a73c 41aa ca3d
00000350: a6d7 783d 9c9a 59bd 6755 67bc 49f9 c9bd
00000360: 9423 16bc dc14 6abc 77da bcbd 7ef8 d1bd
00000370: 141c 213c 5eb7 f4bc 697f bdbd 0360 72bc
00000380: 0d07 913b 0f67 fcbe b89b f5be 2324 153c
00000390: b77d 9cbc c937 a43d 3f21 fbbd b1f9 8bbc
000003a0: 899d d9bb 1425 b13d 508f 733d cd2c 293d
000003b0: c3d4 a13c f8b3 1a3d 1a5d 57bc 8756 043d
000003c0: f144 3b3c b36b 683d 670f aebd 1f56 083d
000003d0: a91b fa3c fc73 c53d d360 873a ac3f 843b
000003e0: 37d8 7f3d c775 b8ba 345e a73d bebf c23d
000003f0: 0af2 7a3c 6932 9e3d 5945 663b a615 8b3d
-0.09331505 0.098831 -0.06740424 -0.15474235 -0.15698633 0.003382091 0.116292305 0.051528722
0.15594974 0.1257906 0.035810795 0.19042033 -0.1378154 0.04029088 0.086580254 0.09663529
0.07331648 -0.0916924 0.08466685 0.21436644 -0.14060396 -0.13081391 -0.021624746 -0.048964396
-0.011007752 0.1902075 0.30291554 -0.040536728 0.041946314 -0.2129671 -0.045121644 0.20200248
0.09607046 0.31756127 -0.21980472 0.022467816 -0.1590792 0.025972188 0.17921522 0.1206414
-0.018605724 -0.13132377 -0.037595637 0.059564307 0.06579656 0.06066387 -0.10205321 -0.05165098
0.051704817 -0.0201222 -0.09562532 -0.05456456 0.05999017 -0.14150009 -0.05159878 0.035213925
-0.08434713 0.24165201 -0.0734523 0.32656047 -0.105385624 -0.06702688 -0.08161056 -0.2776107
-0.01735453 0.050703328 0.017271917 0.08734361 -0.036615733 0.04601839 -0.019351466 -0.009222953
-0.015703006 0.1525144 0.004569197 0.14400958 0.11914908 0.0012469373 0.15571077 0.08851605
-0.009144119 0.09568116 0.16248968 0.05760469 0.13949521 -0.0031021836 0.05170893 0.037261296
-0.16619225 0.040997658 -0.058262102 -0.052936524 0.013170265 -0.13348505 -0.0024521563 -0.048708033
0.20942254 -0.05107595 -0.08020823 0.10355517 0.19039765 0.264916 -0.12353031 -0.06981257
-0.02120645 -0.19183372 0.32814366 0.050341256 -0.08742096 0.03567335 -0.042236816 -0.11750884
0.06815996 0.16117886 0.123859756 0.104749605 0.19433141 0.029215109 0.04624218 0.103116356
0.05338546 0.05527793 0.06426754 -0.01680022 0.06825977 -0.036321104 0.0112759555 -0.06815059
0.09809602 0.116149925 0.07720355 -0.07623996 0.1360943 0.087785564 -0.022707272 -0.03199755
-0.0020851397 0.032212257 -0.15080102 0.044437677 0.01626426 0.08483832 0.047255453 -0.07199398
-0.046065755 0.12612101 -0.015096235 -0.0008421445 -0.092770346 -0.00039355535 0.022082802 -0.02920187
0.030075029 -0.024237497 0.0558359 0.097216845 0.07498886 0.068216674 0.15740252 0.13453601
-0.045989677 -0.0023790284 0.10689532 0.18114686 0.0021822015 0.040189713 -0.11606553 0.0023378872
-0.04165408 -0.023128519 -0.037022866 -0.0032794515 0.002169245 0.071651295 -0.03684185 0.08678636
0.019075146 -0.060272645 0.2668044 -0.113108315 -0.007451591 -0.0028210992 0.024304006 -0.0867215
-0.016544875 -0.008430473 0.16465904 -0.3842716 -0.01216131 0.12682605 -0.04266809 0.12348654
0.008468316 0.13096689 0.049101356 0.11475889 0.12742327 -0.0075414833 -0.037494272 -0.23982964
0.20012432 -0.06560437 0.026963798 0.0054934653 -0.0992884 0.036632698 -0.05592324 -0.09947695
0.046330612 0.06670477 0.020489188 0.098957546 0.060752533 -0.053125963 -0.014119483 -0.098620005
-0.009163756 -0.0142872 -0.09221356 -0.10252474 0.0098333545 -0.029872593 -0.09252817 -0.014793399
0.0044258893 -0.49297377 -0.47970366 0.009102854 -0.019102914 0.08018453 -0.122622006 -0.017086836
-0.006641094 0.0864965 0.059462845 0.04130249 0.019754773 0.037769288 -0.013144756 0.03230908
0.011430011 0.056743335 -0.084990315 0.033285256 0.030530768 0.09641263 0.0010328538 0.0040359106
0.062462058 -0.0014073186 0.08172265 0.09509228 0.015316496 0.07724459 0.003513655 0.067912385

bias f4 [175]
00000000: 0000 0000 0000 0000 0000 0000 0000 0000
00000010: 0000 0000 0000 0000 0000 0000 0000 0000
00000020: 0000 0000 0000 0000 0000 0000 0000 0000
00000030: 0000 0000 0000 0000 0000 0000 0000 0000
00000040: 0000 0000 0000 0000 0000 0000 0000 0000
00000050: 0000 0000 0000 0000 0000 0000 0000 0000
00000060: 0000 0000 0000 0000 0000 0000 0000 0000
00000070: 0000 0000 0000 0000 0000 0000 0000 0000
00000080: 0000 0000 0000 0000 0000 0000 0000 0000
00000090: 0000 0000 0000 0000 0000 0000 0000 0000
000000a0: 0000 0000 0000 0000 0000 0000 0000 0000
000000b0: 0000 0000 0000 0000 0000 0000 0000 0000
000000c0: 0000 0000 0000 0000 0000 0000 0000 0000
000000d0: 0000 0000 0000 0000 0000 0000 0000 0000
000000e0: 0000 0000 0000 0000 0000 0000 0000 0000
000000f0: 0000 0000 0000 0000 0000 0000 0000 0000
00000100: 0000 0000 0000 0000 0000 0000 0000 0000
00000110: 0000 0000 0000 0000 0000 0000 0000 0000
00000120: 0000 0000 0000 0000 0000 0000 0000 0000
00000130: 0000 0000 0000 0000 0000 0000 0000 0000
00000140: 0000 0000 0000 0000 0000 0000 0000 0000
00000150: 0000 0000 0000 0000 0000 0000 0000 0000
00000160: 0000 0000 0000 0000 0000 0000 0000 0000
00000170: 0000 0000 0000 0000 0000 0000 0000 0000
00000180: 0000 0000 0000 0000 0000 0000 0000 0000
00000190: 0000 0000 0000 0000 0000 0000 0000 0000
000001a0: 0000 0000 0000 0000 0000 0000 0000 0000
000001b0: 0000 0000 0000 0000 0000 0000 0000 0000
000001c0: 0000 0000 0000 0000 0000 0000 0000 0000
000001d0: 0000 0000 0000 0000 0000 0000 0000 0000
000001e0: 0000 0000 0000 0000 0000 0000 0000 0000
000001f0: 0000 0000 0000 0000 0000 0000 0000 0000
00000200: 0000 0000 0000 0000 0000 0000 0000 0000
00000210: 0000 0000 0000 0000 0000 0000 0000 0000
00000220: 0000 0000 0000 0000 0000 0000 0000 0000
00000230: 0000 0000 0000 0000 0000 0000 0000 0000
00000240: 0000 0000 0000 0000 0000 0000 0000 0000
00000250: 0000 0000 0000 0000 0000 0000 0000 0000
00000260: 0000 0000 0000 0000 0000 0000 0000 0000
00000270: 0000 0000 0000 0000 0000 0000 0000 0000
00000280: 0000 0000 0000 0000 0000 0000 0000 0000
00000290: 0000 0000 0000 0000 0000 0000 0000 0000
000002a0: 0000 0000 0000 0000 0000 0000 0000 0000
000002b0: 0000 0000 0000 0000 0000 0000
0.0 0.0 0.0 0.0 0.0 0.0 0.0 0.0
0.0 0.0 0.0 0.0 0.0 0.0 0.0 0.0
0.0 0.0 0.0 0.0 0.0 0.0 0.0 0.0
0.0 0.0 0.0 0.0 0.0 0.0 0.0 0.0
0.0 0.0 0.0 0.0 0.0 0.0 0.0 0.0
0.0 0.0 0.0 0.0 0.0 0.0 0.0 0.0
0.0 0.0 0.0 0.0 0.0 0.0 0.0 0.0
0.0 0.0 0.0 0.0 0.0 0.0 0.0 0.0
0.0 0.0 0.0 0.0 0.0 0.0 0.0 0.0
0.0 0.0 0.0 0.0 0.0 0.0 0.0 0.0
0.0 0.0 0.0 0.0 0.0 0.0 0.0 0.0
0.0 0.0 0.0 0.0 0.0 0.0 0.0 0.0
0.0 0.0 0.0 0.0 0.0 0.0 0.0 0.0
0.0 0.0 0.0 0.0 0.0 0.0 0.0 0.0
0.0 0.0 0.0 0.0 0.0 0.0 0.0 0.0
0.0 0.0 0.0 0.0 0.0 0.0 0.0 0.0
0.0 0.0 0.0 0.0 0.0 0.0 0.0 0.0
0.0 0.0 0.0 0.0 0.0 0.0 0.0 0.0
0.0 0.0 0.0 0.0 0.0 0.0 0.0 0.0
0.0 0.0 0.0 0.0 0.0 0.0 0.0 0.0
0.0 0.0 0.0 0.0 0.0 0.0 0.0 0.0
0.0 0.0 0.0 0.0 0.0 0.0 0.0

_ei_mask f4 [175]
00000000: 0000 803f 0000 803f 0000 803f 0000 803f
00000010: 0000 803f 0000 803f 0000 803f 0000 803f
00000020: 0000 803f 0000 803f 0000 803f 0000 803f
00000030: 0000 803f 0000 803f 0000 803f 0000 803f
00000040: 0000 803f 0000 803f 0000 803f 0000 803f
00000050: 0000 803f 0000 803f 0000 803f 0000 803f
00000060: 0000 803f 0000 803f 0000 803f 0000 803f
00000070: 0000 803f 0000 803f 0000 803f 0000 803f
00000080: 0000 803f 0000 803f 0000 803f 0000 803f
00000090: 0000 803f 0000 803f 0000 803f 0000 803f
000000a0: 0000 803f 0000 803f 0000 803f 0000 803f
000000b0: 0000 803f 0000 803f 0000 803f 0000 803f
000000c0: 0000 803f 0000 803f 0000 803f 0000 803f
000000d0: 0000 803f 0000 803f 0000 803f 0000 803f
000000e0: 0000 803f 0000 803f 0000 803f 0000 803f
000000f0: 0000 803f 0000 803f 0000 803f 0000 803f
00000100: 0000 803f 0000 803f 0000 803f 0000 803f
00000110: 0000 803f 0000 803f 0000 803f 0000 803f
00000120: 0000 803f 0000 803f 0000 803f 0000 803f
00000130: 0000 803f 0000 803f 0000 803f 0000 803f
00000140: 0000 803f 0000 803f 0000 803f 0000 803f
00000150: 0000 803f 0000 803f 0000 803f 0000 803f
00000160: 0000 803f 0000 803f 0000 803f 0000 803f
00000170: 0000 803f 0000 803f 0000 803f 0000 803f
00000180: 0000 803f 0000 803f 0000 803f 0000 803f
00000190: 0000 803f 0000 803f 0000 803f 0000 803f
000001a0: 0000 803f 0000 803f 0000 803f 0000 803f
000001b0: 0000 803f 0000 803f 0000 803f 0000 803f
000001c0: 0000 803f 0000 803f 0000 803f 0000 803f
000001d0: 0000 803f 0000 803f 0000 803f 0000 803f
000001e0: 0000 803f 0000 803f 0000 803f 0000 803f
000001f0: 0000 803f 0000 803f 0000 803f 0000 803f
00000200: 0000 803f 0000 803f 0000 803f 0000 803f
00000210: 0000 803f 0000 803f 0000 803f 0000 803f
00000220: 0000 803f 0000 803f 0000 803f 0000 803f
00000230: 0000 803f 0000 803f 0000 803f 0000 803f
00000240: 0000 803f 0000 803f 0000 803f 0000 803f
00000250: 0000 803f 0000 803f 0000 803f 0000 803f
00000260: 0000 803f 0000 803f 0000 803f 0000 803f
00000270: 0000 803f 0000 803f 0000 803f 0000 803f
00000280: 0000 803f 0000 803f 0000 803f 0000 803f
00000290: 0000 803f 0000 803f 0000 803f 0000 803f
000002a0: 0000 803f 0000 803f 0000 803f 0000 803f
000002b0: 0000 803f 0000 803f 0000 803f
1.0 1.0 1.0 1.0 1.0 1.0 1.0 1.0
1.0 1.0 1.0 1.0 1.0 1.0 1.0 1.0
1.0 1.0 1.0 1.0 1.0 1.0 1.0 1.0
1.0 1.0 1.0 1.0 1.0 1.0 1.0 1.0
1.0 1.0 1.0 1.0 1.0 1.0 1.0 1.0
1.0 1.0 1.0 1.0 1.0 1.0 1.0 1.0
1.0 1.0 1.0 1.0 1.0 1.0 1.0 1.0
1.0 1.0 1.0 1.0 1.0 1.0 1.0 1.0
1.0 1.0 1.0 1.0 1.0 1.0 1.0 1.0
1.0 1.0 1.0 1.0 1.0 1.0 1.0 1.0
1.0 1.0 1.0 1.0 1.0 1.0 1.0 1.0
1.0 1.0 1.0 1.0 1.0 1.0 1.0 1.0
1.0 1.0 1.0 1.0 1.0 1.0 1.0 1.0
1.0 1.0 1.0 1.0 1.0 1.0 1.0 1.0
1.0 1.0 1.0 1.0 1.0 1.0 1.0 1.0
1.0 1.0 1.0 1.0 1.0 1.0 1.0 1.0
1.0 1.0 1.0 1.0 1.0 1.0 1.0 1.0
1.0 1.0 1.0 1.0 1.0 1.0 1.0 1.0
1.0 1.0 1.0 1.0 1.0 1.0 1.0 1.0
1.0 1.0 1.0 1.0 1.0 1.0 1.0 1.0
1.0 1.0 1.0 1.0 1.0 1.0 1.0 1.0
1.0 1.0 1.0 1.0 1.0 1.0 1.0
