checkpoints/version135/model.pt (torch, 34217 bytes, 14 tensors)

bias f4 [175]
0	0x3f92944f	1.145151
1	0x40062ce6	2.0964904
2	0xbf4d02c2	-0.80082333
3	0x3fb1a906	1.3879707
4	0xbe994203	-0.29933175
5	0x3feb1114	1.8364587
6	0x3fe354b8	1.7760229
7	0x401dc0d0	2.4648933
8	0x3fa5b418	1.2945585
9	0x403b2cee	2.9246173
10	0x3f9cae29	1.224065
11	0x3f9bbcfa	1.2167046
12	0xbe300bc5	-0.1719199
13	0xbe6b8a98	-0.23002088
14	0xbd91fe5f	-0.071285956
15	0x3ff0d307	1.88144
16	0xbe0e35b4	-0.13887674
17	0xbbc0df04	-0.0058859605
18	0xbde2b75a	-0.11070128
19	0x401684bc	2.3518515
20	0x3e3f220f	0.18665336
21	0x3f9fdac3	1.2488636
22	0x3fbf640e	1.4952409
23	0xbeebd34f	-0.46059653
24	0xc00c9302	-2.1964726
25	0x40450a9d	3.0787728
26	0x3f1092a1	0.5647374
27	0x3fa5062d	1.289251
28	0x3f30569e	0.6888217
29	0x40105f3e	2.2558131
30	0x3e9ccd0a	0.30625182
31	0xbeac763c	-0.33683956
32	0x3f896a39	1.0735542
33	0xbee98b3d	-0.45614043
34	0x3ec1e94f	0.37873313
35	0x405f736c	3.4914198
36	0x3f30c0f9	0.6904445
37	0x3f941b35	1.1570803
38	0x3fcc50d8	1.5962172
39	0x3f9e998c	1.2390609
40	0x3ffd4304	1.9786077
41	0x3fb36598	1.4015379
42	0x3dc5f406	0.096656844
43	0x3ec0b6f5	0.37639585
44	0x3fa2038c	1.2657332
45	0xbe811aaf	-0.2521567
46	0x3ec9e075	0.3942906
47	0x3e03dbe5	0.12876852
48	0x3e6610ea	0.2246739
49	0x3e815bf2	0.2526546
50	0x3ef77ca4	0.4833728
51	0x3ee77b0f	0.45211074
52	0x3f8b1f5c	1.0868945
53	0x3d4e4f6e	0.05036872
54	0x3e591296	0.21198496
55	0x3f72d81c	0.94861007
56	0xbefc0f7a	-0.49230558
57	0x3efbb664	0.4916259
58	0x3dcaef8c	0.09908971
59	0xbf48362f	-0.7820768
60	0xbd842df7	-0.064540796
61	0xbcb2c821	-0.021823945
62	0x3f1d5c2c	0.6146877
63	0x3ed75dad	0.42063656
64	0xbd70b924	-0.058770314
65	0x3e9e5e58	0.30931354
66	0xbd92b290	-0.07162964
67	0x3e1a9bb7	0.15098463
68	0x3f269854	0.65076184
69	0x3fc3b98d	1.5291001
70	0xbec55c72	-0.38547093
71	0x3f931823	1.1491741
72	0x3faa6f43	1.3315204
73	0x3f15c99c	0.58510756
74	0x3f932119	1.1494476
75	0x3f4a44ce	0.7901124
76	0x3f8577c6	1.0427177
77	0x3fc1cbc8	1.5140314
78	0x3fa0d3e7	1.2564667
79	0x4002f74e	2.0463443
80	0x3fa0e344	1.2569356
81	0x3fedb48e	1.8570726
82	0x3f7de122	0.9917165
83	0x401cbb6b	2.448939
84	0x3f94e89d	1.1633488
85	0x3f9d731e	1.2300756
86	0x402f06f0	2.7347984
87	0x405252fe	3.2863154
88	0x3f8b3f97	1.0878781
89	0x3f476a1b	0.7789628
90	0x3f8ae6ef	1.0851725
91	0xbec0ada3	-0.37632474
92	0x4043e137	3.060621
93	0xbc65801b	-0.0140075935
94	0x3f616b8f	0.88054746
95	0x3e788733	0.24270324
96	0x4045f06a	3.0927987
97	0x3eadf20c	0.3397373
98	0xbf507b62	-0.8143827
99	0xbe0747d3	-0.13210993
100	0x4004381c	2.0659246
101	0x3f03f1c0	0.51540756
102	0x3f8ef1fb	1.1167597
103	0x3fdb9e0b	1.7157606
104	0x3f6c7328	0.92363214
105	0x3fe9b146	1.8257225
106	0x3f9497b1	1.1608793
107	0x3fbb0fce	1.4614198
108	0x3fb72065	1.4306761
109	0x3ff18651	1.8869115
110	0x3f4fc1da	0.8115517
111	0xbee3d631	-0.44499353
112	0xbda6d01f	-0.08145165
113	0x4005546b	2.0832775
114	0x3f8604fe	1.0470273
115	0x4007dccb	2.1228511
116	0xbe0298a3	-0.12753539
117	0x400c8847	2.1958177
118	0x3fd62514	1.6730065
119	0x3ff6529f	1.9243964
120	0x401e01fb	2.4688709
121	0x3fc7d99f	1.5613288
122	0x40001f61	2.0019152
123	0x400b56db	2.1771762
124	0x40217295	2.5226185
125	0x3fa596e0	1.2936668
126	0x3df1c3cd	0.11804924
127	0xbe252dbb	-0.16130726
128	0x3f2bb12f	0.67067236
129	0x3f988f76	1.1918781
130	0x3e1cf20d	0.1532671
131	0x3d83a04f	0.06427061
132	0xbe83116c	-0.2559923
133	0x3fef79fa	1.8709099
134	0x3fa83748	1.314187
135	0x3c0d2389	0.008614429
136	0xbdb0c8d4	-0.08632055
137	0x3faa56e9	1.3307773
138	0x3ec7a996	0.3899657
139	0x3f74dad0	0.9564638
140	0x3f0c2672	0.5474616
141	0x3e83416c	0.2563585
142	0x3f800841	1.0002519
143	0x3e90875d	0.28228274
144	0xbdf3abb8	-0.11897987
145	0x3faea142	1.3642962
146	0x3f8a3a51	1.0799047
147	0x3f939336	1.15293
148	0x3e129713	0.14315443
149	0xbd5f7448	-0.054554254
150	0x3e41ccbf	0.1892576
151	0xbdff108a	-0.124543265
152	0x3fd01727	1.6257066
153	0x3f59b687	0.8504414
154	0x40402f7e	3.0028987
155	0x3fef2ebd	1.8686138
156	0x3f717b70	0.94328976
157	0x404f4430	3.2385368
158	0x3d81862e	0.06324421
159	0xbda3df84	-0.080016166
160	0x3f404fba	0.75121653
161	0xbf9b104a	-1.2114346
162	0x3e050b8d	0.12992688
163	0x3f83167b	1.0241235
164	0x3fc79d9e	1.5594976
165	0x40272060	2.611351
166	0x3f22084e	0.6329392
167	0x3faac7bd	1.3342205
168	0x3f5ef223	0.8708822
169	0x3fe319d6	1.774226
170	0x3fed6458	1.8546247
171	0x3fc837f7	1.5642079
172	0x3f98bbff	1.1932372
173	0x3e97affe	0.2962646
174	0x3e97aba6	0.29623145

weight f4 [9, 175]
0	0x3e9f3356	0.31093854
1	0x3dd975ba	0.10618158
2	0xb439532c	-1.7259725e-07
3	0x3edc4169	0.43018654
4	0xb696aac6	-4.490229e-06
5	0x3f1275e9	0.57211167
6	0x3ea8cb7a	0.3296774
7	0x3ef337fb	0.47503647
8	0x3f837489	1.0269939
9	0x3f0c47ce	0.54797065
10	0x3f39c387	0.72563976
11	0x3f46a518	0.77595663
12	0xb28538b2	-1.550902e-08
13	0x3f00ccb5	0.5031236
14	0x3e935f58	0.2878368
15	0xb4cb44c4	-3.786173e-07
16	0x3ea81d60	0.3283491
17	0x3ec25aea	0.37959987
18	0x3ed7fc50	0.42184687
19	0x3f21fe78	0.63278913
20	0x3368ff0e	5.424868e-08
21	0x3f4fcdfc	0.8117368
22	0x3edaa4d5	0.42703882
23	0xb845d2d8	-4.7164824e-05
24	0x3f88054d	1.0626618
25	0x3f2b09b7	0.668117
26	0x3fa7160d	1.3053604
27	0x3ea56555	0.32303873
28	0xbe6360e5	-0.22204931
29	0xb36fb9a1	-5.5815352e-08
30	0x3f91fd89	1.1405498
31	0x3ef398b5	0.47577444
32	0x3f2b22a8	0.66849756
33	0x3faf6434	1.3702455
34	0xb55ee7dd	-8.303885e-07
35	0x34863256	2.499607e-07
36	0x3f14f688	0.58188677
37	0x3ebad56e	0.3649096
38	0x3f1fc642	0.6241189
39	0x3f5406e9	0.82823044
40	0xb5f23049	-1.8044458e-06
41	0xb4c17275	-3.603233e-07
42	0x3f4efac3	0.8085138
43	0x3f187f9c	0.59569716
44	0x3803b1d5	3.1398453e-05
45	0x3ed4b23b	0.4154223
46	0x31b531c7	5.2734523e-09
47	0x35625235	8.431119e-07
48	0xb3dd3d5a	-1.0302274e-07
49	0xb5b653a4	-1.3584399e-06
50	0x3ee6d270	0.45082426
51	0x3ef40c41	0.476656
52	0x3e96827b	0.29396424
53	0x3f37408a	0.71582854
54	0x3efb4ee3	0.49083623
55	0x3641417e	2.8797363e-06
56	0xb190de24	-4.216206e-09
57	0x3f367e20	0.712862
58	0x3efd6ade	0.49495596
59	0x3f1b1120	0.60573006
60	0x3f0d934d	0.5530289
61	0x3f06f8fb	0.52723664
62	0xaf5fa2fd	-2.0339637e-10
63	0x3316e3da	3.5131826e-08
64	0xb254437f	-1.2355371e-08
65	0x3f1c6335	0.6108888
66	0x3eaf8b19	0.3428581
67	0x3f3bd755	0.73375446
68	0x3bf68dd9	0.007524234
69	0x3ec4476f	0.3833575
70	0x3eaabec9	0.33348683
71	0x3e32564c	0.17415732
72	0x3e52f7b3	0.20602302
73	0x3edb0655	0.42778268
74	0x3e78f755	0.243131
75	0x3eed6d2b	0.4637235
76	0x3ebb54b5	0.36588064
77	0x3e8f70f0	0.28015852
78	0x3eca6178	0.39527488
79	0x3ec20796	0.37896413
80	0xb5bc6e45	-1.4039184e-06
81	0x3e04995f	0.12949131
82	0x3f057b86	0.52141607
83	0xb403dcf7	-1.2280712e-07
84	0x3ee797c6	0.4523298
85	0x3e917408	0.28408837
86	0x388c5518	6.69157e-05
87	0x345726b9	2.0037523e-07
88	0x34244110	1.529736e-07
89	0x3f1908f0	0.5977926
90	0x3edb7f97	0.4287078
91	0x3efd2d47	0.49448606
92	0x35de4fa3	1.6563466e-06
93	0x3f159239	0.58426243
94	0x3f32c006	0.69824255
95	0x3f3e0d5f	0.7423915
96	0x3f04171c	0.5159776
97	0x3f0dc721	0.5538197
98	0x3f16e610	0.589448
99	0x3f773a50	0.9657335
100	0x3f691234	0.910434
101	0x3f9e4c8c	1.236711
102	0xb4d027f5	-3.8772092e-07
103	0x35357792	6.760175e-07
104	0x350b6416	5.192718e-07
105	0xb487ad59	-2.5271837e-07
106	0x3f96703b	1.1753
107	0x3ee07005	0.43835464
108	0x3f02952e	0.5100888
109	0x3f05de68	0.5229249
110	0x3617db2b	2.2628326e-06
111	0x3538f12a	6.889628e-07
112	0x3f4b80e0	0.7949352
113	0x3f39bccf	0.72553724
114	0x3f4b1db0	0.79342175
115	0x3f2980c0	0.6621208
116	0x3f65115c	0.89479613
117	0x3e37d3df	0.17951916
118	0x3f1db395	0.61602145
119	0x3f015a81	0.50528723
120	0x3f12775a	0.57213366
121	0x3ed47e34	0.41502535
122	0x3edff993	0.43745098
123	0x36535bd6	3.1494906e-06
124	0x3eb3d1db	0.35121045
125	0x35a3292f	1.2156432e-06
126	0x3f11bd28	0.56929255
127	0xb988db84	-0.00026103493
128	0x3ed5dd89	0.4177058
129	0x3f1f3cdf	0.62202257
130	0x3f451c34	0.7699616
131	0x32241dac	9.552803e-09
132	0x3f70b3cd	0.94024354
133	0x3e926820	0.28595066
134	0x35af4d68	1.3061044e-06
135	0x3f24b417	0.64337295
136	0x3eac8835	0.33697668
137	0x398ab7e3	0.00026458417
138	0xbb324f10	-0.002720777
139	0xb902caff	-0.00012473388
140	0x3f18d384	0.5969775
141	0x3f345bd5	0.70452625
142	0x3e8e448c	0.27786672
143	0xb6888ee8	-4.0697523e-06
144	0x3ebfcb87	0.37459967
145	0x3f764128	0.9619317
146	0x3e2a7b7b	0.16648667
147	0x3e2da9e4	0.1695934
148	0x3ee1fa7f	0.44136426
149	0x3efc8b4e	0.4932503
150	0x3eb0906a	0.3448518
151	0x3ec309e7	0.38093492
152	0xb4b2c38a	-3.3297357e-07
153	0x3eadd116	0.33948582
154	0xb5a852d5	-1.2541083e-06
155	0x3e3d8353	0.18507127
156	0x3f1909a9	0.59780365
157	0xb4a94380	-3.1527816e-07
158	0x3eafee4f	0.34361503
159	0x3f7c08b9	0.9845081
160	0x3eff6adc	0.49886215
161	0x3f1281fd	0.57229596
162	0x3f8ceeb8	1.1010351
163	0x3f582792	0.8443538
164	0x38bb247e	8.923652e-05
165	0x367f3ce2	3.80334e-06
166	0x3acc8a3f	0.0015605165
167	0xb93f0cc7	-0.0001821994
168	0x3f1773cf	0.59161085
169	0x34fab266	4.669593e-07
170	0xb5aaff13	-1.2740223e-06
171	0x3da0cf70	0.078520656
172	0x3e6f08f3	0.23343258
173	0x3f528a04	0.82241845
174	0x3eb6eec0	0.35729027
175	0x3edde9c8	0.43342423
176	0x3ef62249	0.48073032
177	0x3f37c7cb	0.71789235
178	0x3f2c4187	0.67287487
179	0x3fb77ea6	1.4335525
180	0xb595afa6	-1.1152486e-06
181	0x3edf77ff	0.43646237
182	0x34ab9937	3.196271e-07
183	0x32b5efd2	2.1180231e-08
184	0xb5449c02	-7.324271e-07
185	0xb6a9c935	-5.060016e-06
186	0xb3e610cc	-1.0713265e-07
187	0x3f64af5c	0.8933008
188	0x32f46722	2.8452238e-08
189	0x3f145522	0.579424
190	0x3f4e81c8	0.8066678
191	0xbf0f8a5d	-0.560705
192	0x3e5983ee	0.21241733
193	0xbf079011	-0.529542
194	0x340f6724	1.3355435e-07
195	0x3f493d94	0.78609586
196	0xb5a1238f	-1.2005784e-06
197	0x3416958c	1.4024243e-07
198	0x3e9acb2d	0.30233136
199	0x35b27983	1.3297398e-06
200	0xb3570734	-5.006514e-08
201	0xb46aaa30	-2.1854862e-07
202	0x3e1e4802	0.15457156
203	0x3e5e717b	0.21722977
204	0x3f9fb622	1.2477458
205	0xb339bde8	-4.3246388e-08
206	0xbee2ece9	-0.44321373
207	0x34ffef1a	4.767142e-07
208	0x321aa39c	9.00118e-09
209	0x3f978ef4	1.1840501
210	0x3f6924bd	0.91071683
211	0x3e35d71c	0.17757839
212	0x3ede23d3	0.43386707
213	0x33b90186	8.615011e-08
214	0xb5a2ce87	-1.2130048e-06
215	0x3ef3078e	0.474667
216	0x3f04738f	0.5173883
217	0xb386b1f6	-6.272232e-08
218	0x3c956f29	0.018241482
219	0x3f3962b9	0.72416264
220	0x3486830d	2.5054797e-07
221	0x3f138219	0.5762039
222	0x3f10be24	0.5654013
223	0x3eedd28b	0.46449694
224	0x3efc30fb	0.4925612
225	0x3ed32066	0.41235656
226	0x3ec8d697	0.3922622
227	0x3ea73448	0.32657075
228	0xb3ffa943	-1.1905151e-07
229	0xb4056ed4	-1.2426909e-07
230	0x3f1443f6	0.579162
231	0x3f1f4063	0.6220762
232	0xbea25d0f	-0.31711623
233	0x3ce7d756	0.028300922
234	0xbf00e6f4	-0.50352407
235	0xb2a680c0	-1.9383492e-08
236	0xb40932be	-1.2777579e-07
237	0x3f26000f	0.6484384
238	0x3f8046f2	1.0021651
239	0x3f40ecf7	0.7536158
240	0x3203adf4	7.664756e-09
241	0xbbf7e832	-0.0075655216
242	0x3255694c	1.24221735e-08
243	0x3ed34348	0.4126227
244	0xb743b273	-1.1664454e-05
245	0xbe322fcc	-0.17401046
246	0x3e3e4650	0.1858151
247	0x3b8fba21	0.004386202
248	0x3f1a5d60	0.6029873
249	0x34c3279c	3.63504e-07
250	0x3f09b579	0.5379253
251	0x3f368cc8	0.71308565
252	0xb3e08ab2	-1.04560414e-07
253	0x3f22bd3a	0.63569987
254	0x3ecb8602	0.39750677
255	0x3f0f9d5e	0.560995

bias f4 [175]
0	0x00000000	0.0
1	0x00000000	0.0
2	0x00000000	0.0
3	0x00000000	0.0
4	0x00000000	0.0
5	0x00000000	0.0
6	0x00000000	0.0
7	0x00000000	0.0
8	0x00000000	0.0
9	0x00000000	0.0
10	0x00000000	0.0
11	0x00000000	0.0
12	0x00000000	0.0
13	0x00000000	0.0
14	0x00000000	0.0
15	0x00000000	0.0
16	0x00000000	0.0
17	0x00000000	0.0
18	0x00000000	0.0
19	0x00000000	0.0
20	0x00000000	0.0
21	0x00000000	0.0
22	0x00000000	0.0
23	0x00000000	0.0
24	0x00000000	0.0
25	0x00000000	0.0
26	0x00000000	0.0
27	0x00000000	0.0
28	0x00000000	0.0
29	0x00000000	0.0
30	0x00000000	0.0
31	0x00000000	0.0
32	0x00000000	0.0
33	0x00000000	0.0
34	0x00000000	0.0
35	0x00000000	0.0
36	0x00000000	0.0
37	0x00000000	0.0
38	0x00000000	0.0
39	0x00000000	0.0
40	0x00000000	0.0
41	0x00000000	0.0
42	0x00000000	0.0
43	0x00000000	0.0
44	0x00000000	0.0
45	0x00000000	0.0
46	0x00000000	0.0
47	0x00000000	0.0
48	0x00000000	0.0
49	0x00000000	0.0
50	0x00000000	0.0
51	0x00000000	0.0
52	0x00000000	0.0
53	0x00000000	0.0
54	0x00000000	0.0
55	0x00000000	0.0
56	0x00000000	0.0
57	0x00000000	0.0
58	0x00000000	0.0
59	0x00000000	0.0
60	0x00000000	0.0
61	0x00000000	0.0
62	0x00000000	0.0
63	0x00000000	0.0
64	0x00000000	0.0
65	0x00000000	0.0
66	0x00000000	0.0
67	0x00000000	0.0
68	0x00000000	0.0
69	0x00000000	0.0
70	0x00000000	0.0
71	0x00000000	0.0
72	0x00000000	0.0
73	0x00000000	0.0
74	0x00000000	0.0
75	0x00000000	0.0
76	0x00000000	0.0
77	0x00000000	0.0
78	0x00000000	0.0
79	0x00000000	0.0
80	0x00000000	0.0
81	0x00000000	0.0
82	0x00000000	0.0
83	0x00000000	0.0
84	0x00000000	0.0
85	0x00000000	0.0
86	0x00000000	0.0
87	0x00000000	0.0
88	0x00000000	0.0
89	0x00000000	0.0
90	0x00000000	0.0
91	0x00000000	0.0
92	0x00000000	0.0
93	0x00000000	0.0
94	0x00000000	0.0
95	0x00000000	0.0
96	0x00000000	0.0
97	0x00000000	0.0
98	0x00000000	0.0
99	0x00000000	0.0
100	0x00000000	0.0
101	0x00000000	0.0
102	0x00000000	0.0
103	0x00000000	0.0
104	0x00000000	0.0
105	0x00000000	0.0
106	0x00000000	0.0
107	0x00000000	0.0
108	0x00000000	0.0
109	0x00000000	0.0
110	0x00000000	0.0
111	0x00000000	0.0
112	0x00000000	0.0
113	0x00000000	0.0
114	0x00000000	0.0
115	0x00000000	0.0
116	0x00000000	0.0
117	0x00000000	0.0
118	0x00000000	0.0
119	0x00000000	0.0
120	0x00000000	0.0
121	0x00000000	0.0
122	0x00000000	0.0
123	0x00000000	0.0
124	0x00000000	0.0
125	0x00000000	0.0
126	0x00000000	0.0
127	0x00000000	0.0
128	0x00000000	0.0
129	0x00000000	0.0
130	0x00000000	0.0
131	0x00000000	0.0
132	0x00000000	0.0
133	0x00000000	0.0
134	0x00000000	0.0
135	0x00000000	0.0
136	0x00000000	0.0
137	0x00000000	0.0
138	0x00000000	0.0
139	0x00000000	0.0
140	0x00000000	0.0
141	0x00000000	0.0
142	0x00000000	0.0
143	0x00000000	0.0
144	0x00000000	0.0
145	0x00000000	0.0
146	0x00000000	0.0
147	0x00000000	0.0
148	0x00000000	0.0
149	0x00000000	0.0
150	0x00000000	0.0
151	0x00000000	0.0
152	0x00000000	0.0
153	0x00000000	0.0
154	0x00000000	0.0
155	0x00000000	0.0
156	0x00000000	0.0
157	0x00000000	0.0
158	0x00000000	0.0
159	0x00000000	0.0
160	0x00000000	0.0
161	0x00000000	0.0
162	0x00000000	0.0
163	0x00000000	0.0
164	0x00000000	0.0
165	0x00000000	0.0
166	0x00000000	0.0
167	0x00000000	0.0
168	0x00000000	0.0
169	0x00000000	0.0
170	0x00000000	0.0
171	0x00000000	0.0
172	0x00000000	0.0
173	0x00000000	0.0
174	0x00000000	0.0

_ei_mask f4 [175]
0	0x3f800000	1.0
1	0x3f800000	1.0
2	0x3f800000	1.0
3	0x3f800000	1.0
4	0x3f800000	1.0
5	0x3f800000	1.0
6	0x3f800000	1.0
7	0x3f800000	1.0
8	0x3f800000	1.0
9	0x3f800000	1.0
10	0x3f800000	1.0
11	0x3f800000	1.0
12	0x3f800000	1.0
13	0x3f800000	1.0
14	0x3f800000	1.0
15	0x3f800000	1.0
16	0x3f800000	1.0
17	0x3f800000	1.0
18	0x3f800000	1.0
19	0x3f800000	1.0
20	0x3f800000	1.0
21	0x3f800000	1.0
22	0x3f800000	1.0
23	0x3f800000	1.0
24	0x3f800000	1.0
25	0x3f800000	1.0
26	0x3f800000	1.0
27	0x3f800000	1.0
28	0x3f800000	1.0
29	0x3f800000	1.0
30	0x3f800000	1.0
31	0x3f800000	1.0
32	0x3f800000	1.0
33	0x3f800000	1.0
34	0x3f800000	1.0
35	0x3f800000	1.0
36	0x3f800000	1.0
37	0x3f800000	1.0
38	0x3f800000	1.0
39	0x3f800000	1.0
40	0x3f800000	1.0
41	0x3f800000	1.0
42	0x3f800000	1.0
43	0x3f800000	1.0
44	0x3f800000	1.0
45	0x3f800000	1.0
46	0x3f800000	1.0
47	0x3f800000	1.0
48	0x3f800000	1.0
49	0x3f800000	1.0
50	0x3f800000	1.0
51	0x3f800000	1.0
52	0x3f800000	1.0
53	0x3f800000	1.0
54	0x3f800000	1.0
55	0x3f800000	1.0
56	0x3f800000	1.0
57	0x3f800000	1.0
58	0x3f800000	1.0
59	0x3f800000	1.0
60	0x3f800000	1.0
61	0x3f800000	1.0
62	0x3f800000	1.0
63	0x3f800000	1.0
64	0x3f800000	1.0
65	0x3f800000	1.0
66	0x3f800000	1.0
67	0x3f800000	1.0
68	0x3f800000	1.0
69	0x3f800000	1.0
70	0x3f800000	1.0
71	0x3f800000	1.0
72	0x3f800000	1.0
73	0x3f800000	1.0
74	0x3f800000	1.0
75	0x3f800000	1.0
76	0x3f800000	1.0
77	0x3f800000	1.0
78	0x3f800000	1.0
79	0x3f800000	1.0
80	0x3f800000	1.0
81	0x3f800000	1.0
82	0x3f800000	1.0
83	0x3f800000	1.0
84	0x3f800000	1.0
85	0x3f800000	1.0
86	0x3f800000	1.0
87	0x3f800000	1.0
88	0x3f800000	1.0
89	0x3f800000	1.0
90	0x3f800000	1.0
91	0x3f800000	1.0
92	0x3f800000	1.0
93	0x3f800000	1.0
94	0x3f800000	1.0
95	0x3f800000	1.0
96	0x3f800000	1.0
97	0x3f800000	1.0
98	0x3f800000	1.0
99	0x3f800000	1.0
100	0x3f800000	1.0
101	0x3f800000	1.0
102	0x3f800000	1.0
103	0x3f800000	1.0
104	0x3f800000	1.0
105	0x3f800000	1.0
106	0x3f800000	1.0
107	0x3f800000	1.0
108	0x3f800000	1.0
109	0x3f800000	1.0
110	0x3f800000	1.0
111	0x3f800000	1.0
112	0x3f800000	1.0
113	0x3f800000	1.0
114	0x3f800000	1.0
115	0x3f800000	1.0
116	0x3f800000	1.0
117	0x3f800000	1.0
118	0x3f800000	1.0
119	0x3f800000	1.0
120	0x3f800000	1.0
121	0x3f800000	1.0
122	0x3f800000	1.0
123	0x3f800000	1.0
124	0x3f800000	1.0
125	0x3f800000	1.0
126	0x3f800000	1.0
127	0x3f800000	1.0
128	0x3f800000	1.0
129	0x3f800000	1.0
130	0x3f800000	1.0
131	0x3f800000	1.0
132	0x3f800000	1.0
133	0x3f800000	1.0
134	0x3f800000	1.0
135	0x3f800000	1.0
136	0x3f800000	1.0
137	0x3f800000	1.0
138	0x3f800000	1.0
139	0x3f800000	1.0
140	0x3f800000	1.0
141	0x3f800000	1.0
142	0x3f800000	1.0
143	0x3f800000	1.0
144	0x3f800000	1.0
145	0x3f800000	1.0
146	0x3f800000	1.0
147	0x3f800000	1.0
148	0x3f800000	1.0
149	0x3f800000	1.0
150	0x3f800000	1.0
151	0x3f800000	1.0
152	0x3f800000	1.0
153	0x3f800000	1.0
154	0x3f800000	1.0
155	0x3f800000	1.0
156	0x3f800000	1.0
157	0x3f800000	1.0
158	0x3f800000	1.0
159	0x3f800000	1.0
160	0x3f800000	1.0
161	0x3f800000	1.0
162	0x3f800000	1.0
163	0x3f800000	1.0
164	0x3f800000	1.0
165	0x3f800000	1.0
166	0x3f800000	1.0
167	0x3f800000	1.0
168	0x3f800000	1.0
169	0x3f800000	1.0
170	0x3f800000	1.0
171	0x3f800000	1.0
172	0x3f800000	1.0
173	0x3f800000	1.0
174	0x3f800000	1.0

weight f4 [2, 175]
0	0x3fbdda8b	1.4832319
1	0x400864b0	2.1311455
2	0x3f2d0bf4	0.67596364
3	0x3faeb017	1.3647488
4	0x3fa19bb2	1.262564
5	0x40051082	2.0791326
6	0x40109221	2.258919
7	0x407c30d7	3.940481
8	0x3f47409a	0.7783295
9	0x406c16e0	3.6888962
10	0x3f7f52ae	0.99735534
11	0x3fcbd29f	1.5923651
12	0xbedd9858	-0.43280292
13	0x3f31e49a	0.69489443
14	0x3ea76af3	0.32698783
15	0x3fd31f22	1.6493876
16	0x3f0294c4	0.5100825
17	0x3e8635f1	0.2621303
18	0x3ef7dbf8	0.4841001
19	0x4034ff1a	2.8280702
20	0x3e9f35b2	0.31095654
21	0x3f45ab9c	0.7721498
22	0x3fc471dc	1.5347247
23	0x3f3cf805	0.7381595
24	0x408bd1b2	4.3693476
25	0x4086770d	4.2020326
26	0x3f051da5	0.5199836
27	0x3f54634d	0.8296402
28	0x3f12f99d	0.5741213
29	0x40017dd3	2.0233047
30	0x3fb5ed3d	1.4213024
31	0x3e11e3eb	0.142471
32	0x3f402f8e	0.7507256
33	0x3fe0984b	1.7546476
34	0x3ed739f2	0.42036396
35	0x403c92ec	2.9464674
36	0x3e6745ab	0.2258517
37	0x3f3b893a	0.73256266
38	0x3fbf5a7d	1.494949
39	0x3f79fd9c	0.976526
40	0x4002d498	2.0442257
41	0x3fdd79f3	1.7302841
42	0x3f1f2a9b	0.62174386
43	0xbe9908ae	-0.29889435
44	0x3f81eafd	1.0149838
45	0x3e9798f5	0.29608884
46	0x3e283ed4	0.16430217
47	0x3f2f2985	0.6842273
48	0x3eb6fdf4	0.35740626
49	0x3f9ce8e6	1.2258575
50	0x3e06ba11	0.13156916
51	0x3e0d4feb	0.13800018
52	0x3f6b4f4c	0.9191787
53	0x3f39b76b	0.725455
54	0x3ea63183	0.3245965
55	0xbdb87209	-0.090061255
56	0x3f1e8bc0	0.6193199
57	0x3f55a880	0.83460236
58	0x3f1f1282	0.62137616
59	0x3fb1a64d	1.3878876
60	0x3eb6ff6e	0.35741752
61	0x3eb8218c	0.35963094
62	0x3f53f9c1	0.8280297
63	0x3ec36b34	0.38167727
64	0x3ed5cbcd	0.4175705
65	0x3f1f27c2	0.6217004
66	0x3f1da775	0.61583644
67	0x3dc3e975	0.09566013
68	0x3e3d40d0	0.18481755
69	0x3fcf7d6f	1.6210154
70	0x3edb4619	0.42826918
71	0x3fb2f44d	1.3980805
72	0x3fce57cb	1.6120542
73	0x3e5e62ba	0.21717349
74	0x3f8633f8	1.048461
75	0x3f05af02	0.52220166
76	0x3f317ebc	0.69334006
77	0x3fa1b87c	1.2634425
78	0x3eabffb6	0.3359353
79	0x3fd69908	1.6765451
80	0x3fb28bf2	1.3948958
81	0x3ff8a957	1.9426678
82	0x3f1d0724	0.6133902
83	0x400d6e26	2.209848
84	0x3ec7c767	0.3901932
85	0x3f9ffdaa	1.2499287
86	0x403e3355	2.971883
87	0x40777031	3.8662226
88	0x3d7db9f7	0.061944928
89	0x3f9d199a	1.2273438
90	0x3fd24a8e	1.6429002
91	0x3f8db9d0	1.107233
92	0x3fe4fab7	1.7889012
93	0x3f3812f4	0.7190392
94	0x3f865eed	1.0497719
95	0x3ea72f60	0.32653332
96	0x4017923e	2.368301
97	0x3ecfacde	0.40561575
98	0x3fa141c3	1.2598194
99	0x3f24ef01	0.6442719
100	0x3f8ebccf	1.115137
101	0x3ee42fd4	0.4456774
102	0x3f2b6170	0.6694555
103	0x3f9790f2	1.1841109
104	0x3ee1e747	0.44121763
105	0x3f3a5638	0.7278781
106	0x3f837d5b	1.027263
107	0x3feb2f5a	1.8373826
108	0x3eab32c6	0.33437175
109	0x4014d6f8	2.3256207
110	0x3ed4a589	0.41532543
111	0x3f93e40a	1.1553967
112	0x3ed8b92d	0.42328778
113	0x4005396f	2.0816305
114	0x3f24a1ef	0.6430959
115	0x40079a2e	2.1187854
116	0x3f4022a9	0.7505289
117	0x3fa13e9f	1.2597235
118	0x4000cd03	2.012513
119	0x3fcec06d	1.6152474
120	0x40390ec7	2.891527
121	0x3fd53870	1.6657848
122	0x3f9dd8c7	1.233178
123	0x4006e73c	2.1078634
124	0x404b7e66	3.1795897
125	0x3fa3c3bb	1.2794107
126	0x3ea5c078	0.32373405
127	0x3ed3c46d	0.41360798
128	0x3d7e2e7a	0.062056042
129	0x3f303a8f	0.68839353
130	0x3ecee4ed	0.40409032
131	0x3ece4441	0.4028645
132	0x3f2206c3	0.6329157
133	0x3fc3df90	1.5302601
134	0x3f1f45d2	0.6221591
135	0x3f0c7fdb	0.5488259
136	0x3f80bbc3	1.00573
137	0x3f9c2a24	1.220036
138	0x3f33ce6c	0.7023685
139	0x3f747d7c	0.95503974
140	0x3f5be274	0.85892415
141	0x3f0e1f8c	0.55516887
142	0x40027cca	2.0388665
143	0x3fb35030	1.4008846
144	0x3eaf7599	0.34269407
145	0x3f377469	0.71662
146	0x3f381706	0.7191013
147	0xbd0a5046	-0.03376796
148	0x3ede10b0	0.43372107
149	0x3eed50f8	0.46350837
150	0x3dfa214a	0.12213381
151	0x3eab176b	0.33416304
152	0x3fe5aeef	1.794401
153	0x3eefdcc6	0.46848124
154	0x40355f0a	2.8339257
155	0x3ffb7620	1.9645424
156	0x3f5b67a2	0.85705006
157	0x402d9b4e	2.712604
158	0x3f58b0d3	0.8464481
159	0xbe65f7f3	-0.22457866
160	0x3fb5c268	1.4199953
161	0x3f32b799	0.698114
162	0x3fa67a55	1.3006083
163	0x3f611222	0.87918293
164	0x3fbf70ee	1.4956338
165	0x400fd094	2.2471056
166	0xbed855fc	-0.422531
167	0x3fc84075	1.5644671
168	0xbe937eee	-0.28807777
169	0x3fff4951	1.9944249
170	0x3f76a1d3	0.96340674
171	0x3fc8a4e7	1.5675324
172	0x3fd28b98	1.6448851
173	0xbe59545b	-0.21223585
174	0x3ed3de18	0.41380382
175	0xbf034e99	-0.51291806
176	0x401c389c	2.4409552
177	0x3f072857	0.5279593
178	0x3f3436b8	0.70395994
179	0xbd949d84	-0.07256606
180	0x400679e1	2.101189
181	0x3fdbaa69	1.716138
182	0x402b1025	2.6728604
183	0xbcd9d775	-0.026591996
184	0x400c84f7	2.1956155
185	0x3fb9cb14	1.45151
186	0x3f927ba9	1.1443988
187	0x3f50490c	0.8136146
188	0x3e0d14ca	0.13777462
189	0x3dcddb48	0.1005159
190	0x3faca1c9	1.3486873
191	0x3dcbfd1b	0.099603854
192	0x3e8734e4	0.2640754
193	0x3dd4cf9c	0.10391161
194	0x400f7bfb	2.2419422
195	0xbc1bda69	-0.009512522
196	0x3f8c8cf5	1.0980517
197	0x3fb0412c	1.3769889
198	0x3f162431	0.58648974
199	0x3f9839f5	1.1892687
200	0x4024f3d0	2.5773811
201	0x3ecf32ee	0.40468544
202	0x3fe77040	1.8081131
203	0x3fc641ee	1.548887
204	0x401d6046	2.459001
205	0x3f248b24	0.6427481
206	0x3db1ef7c	0.08688256
207	0x3f4b19d3	0.7933628
208	0x3f0a8183	0.5410387
209	0xbdea485e	-0.11439584
210	0x401d76d5	2.460378
211	0x3e8ad554	0.2711588
212	0x3f715a52	0.9427844
213	0x3f27cea2	0.6554967
214	0x3f847afc	1.0350032
215	0x3f0eca3d	0.5577734
216	0x3f938ae6	1.1526763
217	0xbe0345ee	-0.12819645
218	0x3f248891	0.64270884
219	0x3ea4f45a	0.32217675
220	0x3fabab1b	1.3411592
221	0x3e6dad9e	0.23210761
222	0x3ef5b581	0.4799004
223	0x3c01bf14	0.007919092
224	0xbdb3849b	-0.08765527
225	0xbf2df8ae	-0.6795758
226	0xbf22565d	-0.6341303
227	0x3e613c00	0.21995544
228	0x3e7d0c9d	0.24711843
229	0x3d6ae65a	0.057348587
230	0x3f9029e9	1.126279
231	0x3f1003a6	0.5625557
232	0x3f25a54a	0.64705336
233	0x3d839bba	0.06426187
234	0xbeed48da	-0.46344644
235	0x3df668ff	0.12031745
236	0x3ea0f484	0.3143655
237	0x3e1bea94	0.15226203
238	0x3fa4077c	1.2814784
239	0x3f3c8028	0.7363305
240	0x3f08338d	0.5320366
241	0x3f7554fd	0.95832807
242	0x3f0cffa4	0.55077577
243	0x3dbd1c07	0.092338614
244	0x3f99956b	1.1998724
245	0x3f12ffb1	0.57421404
246	0x3fa101c5	1.2578665
247	0x3fba3f6b	1.4550604
248	0x3f051656	0.51987207
249	0x3f76f06d	0.9646061
250	0x3f19a5a2	0.6001836
251	0x3f5144f9	0.8174587
252	0x3f9819fb	1.1882929
253	0x3e3147be	0.17312524
254	0x3f64830d	0.8926247
255	0x3f971c39	1.1805488

bias f4 [175]
0	0x00000000	0.0
1	0x00000000	0.0
2	0x00000000	0.0
3	0x00000000	0.0
4	0x00000000	0.0
5	0x00000000	0.0
6	0x00000000	0.0
7	0x00000000	0.0
8	0x00000000	0.0
9	0x00000000	0.0
10	0x00000000	0.0
11	0x00000000	0.0
12	0x00000000	0.0
13	0x00000000	0.0
14	0x00000000	0.0
15	0x00000000	0.0
16	0x00000000	0.0
17	0x00000000	0.0
18	0x00000000	0.0
19	0x00000000	0.0
20	0x00000000	0.0
21	0x00000000	0.0
22	0x00000000	0.0
23	0x00000000	0.0
24	0x00000000	0.0
25	0x00000000	0.0
26	0x00000000	0.0
27	0x00000000	0.0
28	0x00000000	0.0
29	0x00000000	0.0
30	0x00000000	0.0
31	0x00000000	0.0
32	0x00000000	0.0
33	0x00000000	0.0
34	0x00000000	0.0
35	0x00000000	0.0
36	0x00000000	0.0
37	0x00000000	0.0
38	0x00000000	0.0
39	0x00000000	0.0
40	0x00000000	0.0
41	0x00000000	0.0
42	0x00000000	0.0
43	0x00000000	0.0
44	0x00000000	0.0
45	0x00000000	0.0
46	0x00000000	0.0
47	0x00000000	0.0
48	0x00000000	0.0
49	0x00000000	0.0
50	0x00000000	0.0
51	0x00000000	0.0
52	0x00000000	0.0
53	0x00000000	0.0
54	0x00000000	0.0
55	0x00000000	0.0
56	0x00000000	0.0
57	0x00000000	0.0
58	0x00000000	0.0
59	0x00000000	0.0
60	0x00000000	0.0
61	0x00000000	0.0
62	0x00000000	0.0
63	0x00000000	0.0
64	0x00000000	0.0
65	0x00000000	0.0
66	0x00000000	0.0
67	0x00000000	0.0
68	0x00000000	0.0
69	0x00000000	0.0
70	0x00000000	0.0
71	0x00000000	0.0
72	0x00000000	0.0
73	0x00000000	0.0
74	0x00000000	0.0
75	0x00000000	0.0
76	0x00000000	0.0
77	0x00000000	0.0
78	0x00000000	0.0
79	0x00000000	0.0
80	0x00000000	0.0
81	0x00000000	0.0
82	0x00000000	0.0
83	0x00000000	0.0
84	0x00000000	0.0
85	0x00000000	0.0
86	0x00000000	0.0
87	0x00000000	0.0
88	0x00000000	0.0
89	0x00000000	0.0
90	0x00000000	0.0
91	0x00000000	0.0
92	0x00000000	0.0
93	0x00000000	0.0
94	0x00000000	0.0
95	0x00000000	0.0
96	0x00000000	0.0
97	0x00000000	0.0
98	0x00000000	0.0
99	0x00000000	0.0
100	0x00000000	0.0
101	0x00000000	0.0
102	0x00000000	0.0
103	0x00000000	0.0
104	0x00000000	0.0
105	0x00000000	0.0
106	0x00000000	0.0
107	0x00000000	0.0
108	0x00000000	0.0
109	0x00000000	0.0
110	0x00000000	0.0
111	0x00000000	0.0
112	0x00000000	0.0
113	0x00000000	0.0
114	0x00000000	0.0
115	0x00000000	0.0
116	0x00000000	0.0
117	0x00000000	0.0
118	0x00000000	0.0
119	0x00000000	0.0
120	0x00000000	0.0
121	0x00000000	0.0
122	0x00000000	0.0
123	0x00000000	0.0
124	0x00000000	0.0
125	0x00000000	0.0
126	0x00000000	0.0
127	0x00000000	0.0
128	0x00000000	0.0
129	0x00000000	0.0
130	0x00000000	0.0
131	0x00000000	0.0
132	0x00000000	0.0
133	0x00000000	0.0
134	0x00000000	0.0
135	0x00000000	0.0
136	0x00000000	0.0
137	0x00000000	0.0
138	0x00000000	0.0
139	0x00000000	0.0
140	0x00000000	0.0
141	0x00000000	0.0
142	0x00000000	0.0
143	0x00000000	0.0
144	0x00000000	0.0
145	0x00000000	0.0
146	0x00000000	0.0
147	0x00000000	0.0
148	0x00000000	0.0
149	0x00000000	0.0
150	0x00000000	0.0
151	0x00000000	0.0
152	0x00000000	0.0
153	0x00000000	0.0
154	0x00000000	0.0
155	0x00000000	0.0
156	0x00000000	0.0
157	0x00000000	0.0
158	0x00000000	0.0
159	0x00000000	0.0
160	0x00000000	0.0
161	0x00000000	0.0
162	0x00000000	0.0
163	0x00000000	0.0
164	0x00000000	0.0
165	0x00000000	0.0
166	0x00000000	0.0
167	0x00000000	0.0
168	0x00000000	0.0
169	0x00000000	0.0
170	0x00000000	0.0
171	0x00000000	0.0
172	0x00000000	0.0
173	0x00000000	0.0
174	0x00000000	0.0

_ei_mask f4 [175]
0	0x3f800000	1.0
1	0x3f800000	1.0
2	0x3f800000	1.0
3	0x3f800000	1.0
4	0x3f800000	1.0
5	0x3f800000	1.0
6	0x3f800000	1.0
7	0x3f800000	1.0
8	0x3f800000	1.0
9	0x3f800000	1.0
10	0x3f800000	1.0
11	0x3f800000	1.0
12	0x3f800000	1.0
13	0x3f800000	1.0
14	0x3f800000	1.0
15	0x3f800000	1.0
16	0x3f800000	1.0
17	0x3f800000	1.0
18	0x3f800000	1.0
19	0x3f800000	1.0
20	0x3f800000	1.0
21	0x3f800000	1.0
22	0x3f800000	1.0
23	0x3f800000	1.0
24	0x3f800000	1.0
25	0x3f800000	1.0
26	0x3f800000	1.0
27	0x3f800000	1.0
28	0x3f800000	1.0
29	0x3f800000	1.0
30	0x3f800000	1.0
31	0x3f800000	1.0
32	0x3f800000	1.0
33	0x3f800000	1.0
34	0x3f800000	1.0
35	0x3f800000	1.0
36	0x3f800000	1.0
37	0x3f800000	1.0
38	0x3f800000	1.0
39	0x3f800000	1.0
40	0x3f800000	1.0
41	0x3f800000	1.0
42	0x3f800000	1.0
43	0x3f800000	1.0
44	0x3f800000	1.0
45	0x3f800000	1.0
46	0x3f800000	1.0
47	0x3f800000	1.0
48	0x3f800000	1.0
49	0x3f800000	1.0
50	0x3f800000	1.0
51	0x3f800000	1.0
52	0x3f800000	1.0
53	0x3f800000	1.0
54	0x3f800000	1.0
55	0x3f800000	1.0
56	0x3f800000	1.0
57	0x3f800000	1.0
58	0x3f800000	1.0
59	0x3f800000	1.0
60	0x3f800000	1.0
61	0x3f800000	1.0
62	0x3f800000	1.0
63	0x3f800000	1.0
64	0x3f800000	1.0
65	0x3f800000	1.0
66	0x3f800000	1.0
67	0x3f800000	1.0
68	0x3f800000	1.0
69	0x3f800000	1.0
70	0x3f800000	1.0
71	0x3f800000	1.0
72	0x3f800000	1.0
73	0x3f800000	1.0
74	0x3f800000	1.0
75	0x3f800000	1.0
76	0x3f800000	1.0
77	0x3f800000	1.0
78	0x3f800000	1.0
79	0x3f800000	1.0
80	0x3f800000	1.0
81	0x3f800000	1.0
82	0x3f800000	1.0
83	0x3f800000	1.0
84	0x3f800000	1.0
85	0x3f800000	1.0
86	0x3f800000	1.0
87	0x3f800000	1.0
88	0x3f800000	1.0
89	0x3f800000	1.0
90	0x3f800000	1.0
91	0x3f800000	1.0
92	0x3f800000	1.0
93	0x3f800000	1.0
94	0x3f800000	1.0
95	0x3f800000	1.0
96	0x3f800000	1.0
97	0x3f800000	1.0
98	0x3f800000	1.0
99	0x3f800000	1.0
100	0x3f800000	1.0
101	0x3f800000	1.0
102	0x3f800000	1.0
103	0x3f800000	1.0
104	0x3f800000	1.0
105	0x3f800000	1.0
106	0x3f800000	1.0
107	0x3f800000	1.0
108	0x3f800000	1.0
109	0x3f800000	1.0
110	0x3f800000	1.0
111	0x3f800000	1.0
112	0x3f800000	1.0
113	0x3f800000	1.0
114	0x3f800000	1.0
115	0x3f800000	1.0
116	0x3f800000	1.0
117	0x3f800000	1.0
118	0x3f800000	1.0
119	0x3f800000	1.0
120	0x3f800000	1.0
121	0x3f800000	1.0
122	0x3f800000	1.0
123	0x3f800000	1.0
124	0x3f800000	1.0
125	0x3f800000	1.0
126	0x3f800000	1.0
127	0x3f800000	1.0
128	0x3f800000	1.0
129	0x3f800000	1.0
130	0x3f800000	1.0
131	0x3f800000	1.0
132	0x3f800000	1.0
133	0x3f800000	1.0
134	0x3f800000	1.0
135	0x3f800000	1.0
136	0x3f800000	1.0
137	0x3f800000	1.0
138	0x3f800000	1.0
139	0x3f800000	1.0
140	0x3f800000	1.0
141	0x3f800000	1.0
142	0x3f800000	1.0
143	0x3f800000	1.0
144	0x3f800000	1.0
145	0x3f800000	1.0
146	0x3f800000	1.0
147	0x3f800000	1.0
148	0x3f800000	1.0
149	0x3f800000	1.0
150	0x3f800000	1.0
151	0x3f800000	1.0
152	0x3f800000	1.0
153	0x3f800000	1.0
154	0x3f800000	1.0
155	0x3f800000	1.0
156	0x3f800000	1.0
157	0x3f800000	1.0
158	0x3f800000	1.0
159	0x3f800000	1.0
160	0x3f800000	1.0
161	0x3f800000	1.0
162	0x3f800000	1.0
163	0x3f800000	1.0
164	0x3f800000	1.0
165	0x3f800000	1.0
166	0x3f800000	1.0
167	0x3f800000	1.0
168	0x3f800000	1.0
169	0x3f800000	1.0
170	0x3f800000	1.0
171	0x3f800000	1.0
172	0x3f800000	1.0
173	0x3f800000	1.0
174	0x3f800000	1.0

weight f4 [403, 3]
0	0xbf7ca577	-0.9868998
1	0x3f9b7a79	1.2146751
2	0x402be744	2.6859903
3	0xbfacbd92	-1.3495352
4	0x3fcc196b	1.5945257
5	0x4077ab56	3.8698325
6	0xbfb17ff4	-1.3867173
7	0x3f9d3099	1.2280456
8	0x4090ac0b	4.5210013
9	0xbfbbc20d	-1.4668595
10	0x3fa1f7ed	1.2653786
11	0x408d02b4	4.40658
12	0xbfa3cc85	-1.279679
13	0x3f9c027e	1.218826
14	0x408c5122	4.384904
15	0xbfa2a955	-1.2707926
16	0x3fa1f839	1.2653877
17	0x408e566e	4.4480505
18	0xbfcdecd2	-1.6087897
19	0x3f9a3d64	1.2049985
20	0x409055d6	4.510478
21	0xbfcfeae5	-1.6243559
22	0x3f5d971c	0.865587
23	0x408d833b	4.4222693
24	0xbf403916	-0.75087106
25	0x3f8ee4bc	1.1163554
26	0x402b0908	2.6724262
27	0x3f24589a	0.64197695
28	0x3f4835ce	0.782071
29	0xbf245159	-0.64186627
30	0x3fab0a76	1.3362567
31	0x3f2cf612	0.67562973
32	0xbfc10fa5	-1.5082899
33	0x3f6f95ab	0.9358775
34	0x3fb524b3	1.4151825
35	0xbf8ac11c	-1.0840182
36	0x3e0c96bc	0.13729376
37	0x3f1d7a95	0.6151517
38	0xbec1c45c	-0.37845123
39	0x3e9944e9	0.29935387
40	0x3f27718e	0.65407646
41	0xbe7f1070	-0.24908614
42	0xbe56120f	-0.20905326
43	0x3f4b24b6	0.7935289
44	0x3c19d698	0.009389542
45	0xbedbba36	-0.42915505
46	0x3fa7d9a6	1.3113296
47	0x3f788c69	0.9708925
48	0x3e68ad43	0.22722344
49	0x3f7c7ace	0.98624885
50	0xbe77b9c7	-0.24191962
51	0x3e9f916b	0.31165633
52	0x3efa23f6	0.4885556
53	0x3d37e518	0.044896215
54	0x3eb27441	0.3485432
55	0x3fd1c315	1.6387659
56	0x3e4471cd	0.19184037
57	0xbd4382cc	-0.04773216
58	0x3fe8637c	1.815536
59	0xbc400bee	-0.011721594
60	0x3cae6638	0.021288976
61	0x3fb8aec9	1.442834
62	0xbe14fb7b	-0.14549057
63	0x3f1991fc	0.5998838
64	0x3f9611b6	1.1724155
65	0x3eb0df80	0.34545517
66	0xbe83a775	-0.25713697
67	0x3f80214d	1.0010163
68	0x4008e6cf	2.1390874
69	0xbf3eb272	-0.74491036
70	0x3f698203	0.9121401
71	0x40575336	3.3644538
72	0xbf3e64d9	-0.7437263
73	0x3f5a1e8e	0.8520287
74	0x40597bbb	3.398177
75	0xbea3de50	-0.32005548
76	0x3f3ebdcc	0.7450836
77	0x4032ad94	2.7918444
78	0x3d3d0f1a	0.04615698
79	0x3e32b504	0.17451864
80	0x3feb1815	1.8366724
81	0x3ea62519	0.32450178
82	0x3edf8cad	0.43662015
83	0x3f92e32c	1.1475577
84	0x3f3b5526	0.731768
85	0x3ec38063	0.3818389
86	0x3f18ebd9	0.59734875
87	0xbe0b19d5	-0.13584073
88	0x3f07da05	0.53067046
89	0x3fc9c61d	1.5763584
90	0xbe6d12a3	-0.2315164
91	0x3ec22d9b	0.3792542
92	0x40079a82	2.1188054
93	0x3e01fdad	0.12694426
94	0x3e88b4c0	0.267004
95	0x3fc710d3	1.5552009
96	0x3f62499f	0.88393587
97	0x3fd07ae6	1.6287506
98	0x3e1ec69b	0.1550545
99	0x3f334f24	0.70042634
100	0x3f07832e	0.5293454
101	0x3ded67ad	0.1159204
102	0x3f727f8a	0.9472586
103	0x3d8fa0fa	0.07013126
104	0x3f6994bc	0.91242576
105	0x3f8ffd0e	1.1249101
106	0x3f0fa4cc	0.56110835
107	0x3eec0c74	0.4610325
108	0x3f3f4106	0.7470859
109	0x3efc6dcc	0.49302518
110	0x3e44bd78	0.19212902
111	0x3f568e67	0.8381104
112	0x3e42a4b8	0.19008148
113	0x3f27239d	0.65288717
114	0x3f65738e	0.8962945
115	0x3e02530e	0.12726995
116	0x3f65bb00	0.89738464
117	0x3f8521e4	1.0400968
118	0x3e012b7d	0.12614246
119	0xbe9517ae	-0.2911963
120	0x3f7557a8	0.9583688
121	0x3d5c8f2b	0.053847473
122	0x3e560c37	0.20903097
123	0x3f964a88	1.1741495
124	0x3dc062fd	0.093938805
125	0x3df73147	0.12069946
126	0x3f596db6	0.8493303
127	0x3deb2b95	0.11482922
128	0x3ea7aab9	0.3274744
129	0x3fa98d66	1.3246276
130	0x3e6362ce	0.2220566
131	0x3ed6a7c2	0.41924864
132	0x3f9166c1	1.1359483
133	0xbce6cc6d	-0.02817365
134	0xbdea677a	-0.11445518
135	0x3f6b7d66	0.9198822
136	0x3e4c3ebb	0.19945805
137	0x3ee5f5b7	0.44914028
138	0x3f684aa5	0.907389
139	0x3c915876	0.017742377
140	0x3efd3a27	0.4945843
141	0x3f345ba5	0.7045234
142	0x3e3560c3	0.17712693
143	0x3f4b42b2	0.79398644
144	0x3f58c1e8	0.8467088
145	0xbd850784	-0.06495574
146	0x3f49099b	0.7853028
147	0x3ea1b6d0	0.31584787
148	0xbda3f155	-0.08005015
149	0x3ff8f7d2	1.9450629
150	0xbeed6b3f	-0.46370885
151	0x3f5b79d4	0.8573277
152	0x403e9986	2.9781203
153	0xbe9c1682	-0.30485922
154	0x3f631e33	0.88717955
155	0x40412097	3.0176141
156	0xbeaf7693	-0.34270152
157	0x3e36caab	0.17850749
158	0x401d2dcc	2.4559202
159	0xbe93c54c	-0.28861463
160	0x3f3452dc	0.70438933
161	0x400f0a74	2.235013
162	0xbeff94d6	-0.4991824
163	0x3fcce6de	1.6007955
164	0x3ff49dd8	1.911067
165	0xbdc9790b	-0.0983754
166	0x3f1fcd81	0.6242295
167	0x4002b6b7	2.042402
168	0xbec61404	-0.38687146
169	0x3f4e6f59	0.80638653
170	0x40139f80	2.30661
171	0xbf8c5627	-1.0963792
172	0x3ff0c0c3	1.8808826
173	0x3fce967e	1.6139677
174	0xbf76dd13	-0.9643108
175	0x3fdc186b	1.7194952
176	0x3f687272	0.9079963
177	0xbf0292b2	-0.5100509
178	0x3fff08a1	1.9924508
179	0x3fa5932a	1.2935536
180	0xbfa82b7c	-1.313827
181	0x3fbbe61f	1.4679602
182	0x4019a0af	2.4004323
183	0xbf8c5d96	-1.096606
184	0x3f8de5b2	1.1085722
185	0x40555d57	3.333822
186	0xbfaefec0	-1.3671494
187	0x3fd99523	1.6998638
188	0x406cdcfb	3.7009876
189	0xbfbff5a4	-1.4996839
190	0x3fb9c2d2	1.451258
191	0x407a65c4	3.9124613
192	0xbfc0203e	-1.500984
193	0x3fa46f52	1.2846472
194	0x407e73c0	3.9758148
195	0xbfc34fac	-1.5258689
196	0x3fbef0a6	1.491719
197	0x407d6f62	3.9599233
198	0xbfb37979	-1.4021446
199	0x3fcb9129	1.5903674
200	0x407761c8	3.865343
201	0xbf9c8194	-1.2227044
202	0x3f796027	0.9741234
203	0x4078f2e8	3.8898258
204	0xbf7dd404	-0.99151635
205	0x3f6fc8b6	0.93665636
206	0x4052dc81	3.2947085
207	0xbf34f99f	-0.7069339
208	0x3f5748b3	0.84095305
209	0x40162e9c	2.3465948
210	0x3e2e372f	0.17013238
211	0x3fc36c02	1.5267336
212	0x3f6d6ce8	0.927443
213	0xbdaf2214	-0.08551422
214	0x3f4c2e63	0.7975828
215	0x3f20fb1c	0.6288316
216	0xbe84039f	-0.25784013
217	0x3f0e4f40	0.55589676
218	0x3f86285a	1.0481064
219	0x3e5f2f5c	0.2179541
220	0x3f45a825	0.77209693
221	0x3fdef078	1.7417135
222	0xbdabdc0a	-0.083915785
223	0x3f0d885a	0.5528618
224	0x40141922	2.314034
225	0xbe5833c5	-0.21113499
226	0x3e84969a	0.2589615
227	0x40083137	2.1280038
228	0xbe87a737	-0.26494762
229	0x3e8f54f1	0.27994493
230	0x401254a7	2.2864168
231	0xbe9fee89	-0.31236675
232	0x3ee89653	0.45427188
233	0x40017835	2.0229619
234	0x3e87a9f5	0.26496854
235	0x3f904bd3	1.127314
236	0x3fa7d31f	1.3111304
237	0x3edb73a3	0.4286166
238	0x3f5bf04e	0.8591355
239	0x3f547e06	0.83004797
240	0xbe1f70e5	-0.1557041
241	0x3f1d2f2d	0.6140011
242	0x3f450db8	0.7697406
243	0x3ee63b60	0.44967175
244	0x3f642d01	0.8913117
245	0x3f9d2aab	1.2278646
246	0x3ecc45ef	0.39897105
247	0x3f1a9c7c	0.60395026
248	0x3f722f3f	0.9460334
249	0x3f2f5004	0.6848147
250	0x3f550ea3	0.8322546
251	0x3f28e44c	0.65973353
252	0x3f9de81e	1.2336462
253	0x3f2e4520	0.68074226
254	0x3ec1f51b	0.37882313
255	0x3f0aa1fd	0.54153425

bias f4 [3]
0	0x00000000	0.0
1	0x00000000	0.0
2	0x00000000	0.0

_ei_mask f4 [3]
0	0x3f800000	1.0
1	0x3f800000	1.0
2	0x3f800000	1.0

rmat f4 [1, 1, 3]
0	0xbf800000	-1.0
1	0x40000000	2.0
2	0xbf800000	-1.0

weight f4 [3, 175]
0	0x3e11d388	0.14240849
1	0x3dde4f8e	0.108550176
2	0x3f5fa3ad	0.87359124
3	0xbf0982fc	-0.5371549
4	0x3ec6c538	0.3882234
5	0x3eaca02b	0.33715948
6	0x3e17abe1	0.1481166
7	0x3f154fa1	0.5832463
8	0x3f2f6fec	0.68530154
9	0x3eb4df38	0.35326552
10	0x3e5bf80b	0.2148134
11	0xbdd8a02f	-0.105774276
12	0x3f7e0a34	0.9923432
13	0x3efbc8b5	0.49176565
14	0xbf771ddd	-0.9652994
15	0x3ec36f37	0.38170788
16	0xbf7d728b	-0.99002904
17	0xbbc420bc	-0.0059853476
18	0xbf739592	-0.951501
19	0x3f2dd55f	0.67903703
20	0x3e9699ef	0.29414317
21	0x3e2d3776	0.16915688
22	0x3f0fa87f	0.5611648
23	0x3eafe069	0.343509
24	0x3f0d9974	0.55312276
25	0x3f0ad8b6	0.54236925
26	0x3f05a0ac	0.5219829
27	0x3eff6fc4	0.49889958
28	0x3f0dc385	0.55376464
29	0x3f0b9bd1	0.5453463
30	0x3ec3a4c1	0.38211635
31	0x3f069ae8	0.5258012
32	0x3ed4ed8d	0.41587487
33	0x3f0e9424	0.55694795
34	0x3edd9d8f	0.4328427
35	0x3ed80f40	0.42199135
36	0x3dc69ea5	0.09698228
37	0xbf6ab1bb	-0.91677445
38	0x3f1cbea7	0.6122841
39	0x3f1eb94d	0.62001497
40	0x3f2c7c9f	0.67377657
41	0x3f599d75	0.85005885
42	0x3ec461e5	0.38355938
43	0xbe81e26b	-0.25368056
44	0x3f3028bf	0.68812174
45	0x3eab7584	0.33488095
46	0x3ec4c77f	0.38433453
47	0xbe927bee	-0.28610176
48	0x3f0b1d3d	0.5434149
49	0x3ec8820c	0.39161718
50	0x3f6e2c61	0.93036467
51	0x3f6cda1a	0.92520297
52	0xbeb60865	-0.3555328
53	0x3eabcb5c	0.33553588
54	0xbcb310a1	-0.021858515
55	0x3ef66563	0.48124227
56	0x3eeccc15	0.46249452
57	0xbe3381fb	-0.17530052
58	0xbed7aba4	-0.4212314
59	0x3e22b0cb	0.15887754
60	0x3e0be2b6	0.13660702
61	0x3ef655ca	0.48112327
62	0x3e596339	0.21229257
63	0x3f081d00	0.5316925
64	0x3ec2c39a	0.38039857
65	0x3ea31a41	0.31855968
66	0xbde63e92	-0.11242403
67	0x3f0779e3	0.5292036
68	0x3f1a2c38	0.6022372
69	0x3ef17230	0.4715743
70	0xbe528c6b	-0.20561378
71	0xbe3d1fe3	-0.18469195
72	0x3dc47b65	0.09593848
73	0xbea17545	-0.31534782
74	0xbd1e4608	-0.038641006
75	0xbec6100b	-0.38684115
76	0xbee741c5	-0.45167366
77	0x3e177c8f	0.14793609
78	0xbeb0464e	-0.34428638
79	0xbd183413	-0.037159037
80	0xbe9345bb	-0.28764138
81	0xbe667060	-0.22503805
82	0xbf8b155e	-1.0865896
83	0x3f040aeb	0.5157916
84	0xbe80d77d	-0.25164405
85	0x3db47fb0	0.08813417
86	0x3ee7225f	0.4514341
87	0x3f0358ed	0.51307565
88	0x3ed50bb8	0.41610503
89	0x3eb3a38e	0.3508572
90	0xbf170f86	-0.5900806
91	0xbf23bdf4	-0.6396172
92	0x3ec578a0	0.38568592
93	0xbf1e3a7d	-0.61807996
94	0x3e86db36	0.2633912
95	0x3eecd484	0.46255887
96	0x3f2c6613	0.6734325
97	0x3ed2f6d2	0.41203934
98	0xbdce45bc	-0.100718945
99	0x3f08db20	0.5345936
100	0x3f08d88f	0.5345544
101	0x3f0bcd0b	0.54609746
102	0x3ecde085	0.40210357
103	0x3ede9df1	0.43479875
104	0x3ea05c47	0.31320402
105	0x3eff5642	0.49870497
106	0x3f060679	0.52353626
107	0x3e71aca5	0.23601015
108	0x3e3b4940	0.18289661
109	0x3f2ad88d	0.6673668
110	0x3d7f1777	0.062278237
111	0x3ee56308	0.44802117
112	0x3eec6e33	0.46177825
113	0x3eed5ae9	0.4635842
114	0x3e995a1f	0.2995157
115	0x3f194ada	0.5987984
116	0x3f09964b	0.53744954
117	0x3f3c74cc	0.7361572
118	0x3f0ee662	0.55820286
119	0x3f6e0b53	0.9298603
120	0x3f0c3672	0.54770577
121	0x3f851c1b	1.0399202
122	0x3ee9a01d	0.4562997
123	0x3e61f274	0.22065145
124	0x3f1a2d41	0.602253
125	0x3ef4e269	0.47828987
126	0x3dc87637	0.09788173
127	0x3e18c4c6	0.14918813
128	0x3f79d727	0.9759392
129	0x3eef69ce	0.4676041
130	0x3ee8ad92	0.45444924
131	0x3f1ba486	0.6079792
132	0x3f2aafa4	0.66674256
133	0x3f458761	0.77159697
134	0x3f1983b2	0.59966576
135	0x3dc15470	0.09439933
136	0xbe7335e9	-0.23751034
137	0x3ef05f26	0.46947592
138	0x3e4d71cd	0.20062943
139	0xbda9c529	-0.082895584
140	0x3ebfc70c	0.37456548
141	0x3ef9e1c5	0.4880506
142	0x3f1835ef	0.59457296
143	0x3ef51291	0.47865728
144	0x3c2991d1	0.010349707
145	0x3ee68008	0.45019555
146	0x3f5afdc4	0.85543466
147	0x3f1bc4b1	0.60847
148	0x3f838aba	1.0276711
149	0x3e00f9c9	0.12595285
150	0x3f0608d0	0.52357197
151	0xbf0dce5d	-0.5539301
152	0x3ec1f6ca	0.37883598
153	0x3f02cf9a	0.51098025
154	0xbebe5c3f	-0.37179753
155	0x3ec6e089	0.38843182
156	0x3e74910d	0.23883457
157	0x3c77c2de	0.015122144
158	0x3ea68d2b	0.32529578
159	0x3f27f1b0	0.6560316
160	0x3ed73b9f	0.42037675
161	0x3ecb6323	0.39724073
162	0x3f1804e9	0.5938249
163	0x3ee6d69e	0.45085615
164	0x3ba5025d	0.005035682
165	0x3ef08b46	0.46981257
166	0x3fa8e9f5	1.3196398
167	0xbddb88d8	-0.1071946
168	0x3f21956e	0.63118637
169	0x3edd79ba	0.43256932
170	0x3ec8da7f	0.392292
171	0x3e60d336	0.2195557
172	0x3ec38e4a	0.38194495
173	0x3efd4eb7	0.49474117
174	0xbe84d36d	-0.25942555
175	0xbf2a1660	-0.6644039
176	0x3f89eef3	1.0776047
177	0x3c17fdc1	0.009276808
178	0xbf09dd19	-0.53852993
179	0x3e632ac1	0.22184278
180	0x3e1a94a0	0.15095758
181	0x3f9fa4bd	1.2472149
182	0x3ef18b1d	0.47176448
183	0x3eaf0ab6	0.3418786
184	0x3f8004ce	1.0001466
185	0x3ec937f6	0.39300507
186	0x3f31347c	0.6922071
187	0x3ed285f8	0.41117835
188	0x3ea381ae	0.31934875
189	0x3f6b5931	0.9193297
190	0x3f5f2a71	0.87174135
191	0x3f5794a6	0.84211195
192	0xbfa2e7c6	-1.2726982
193	0x3f2c0d8a	0.6720816
194	0x3f289027	0.6584496
195	0xbf00d475	-0.50324184
196	0xbc36909e	-0.011142878
197	0xbe737a78	-0.23777187
198	0x3deb3976	0.11485569
199	0x3e053070	0.13006759
200	0x3f2ab1ff	0.6667785
201	0x3ec754b1	0.38931802
202	0x3c8b5c92	0.017011914
203	0x3e34c52a	0.17653337
204	0x3e9ba0b0	0.30396032
205	0xbd63ebdb	-0.05564485
206	0x3fb4e7c1	1.4133226
207	0x3f1756af	0.59116644
208	0x3ece27db	0.40264782
209	0xbe1002f7	-0.14063631
210	0x3f0b2381	0.5435105
211	0xbf6e5c3d	-0.93109494
212	0x3e9a931a	0.30190355
213	0x3f507a75	0.81436855
214	0x3e94c8af	0.2905936
215	0x3f134141	0.57521445
216	0xbeaa127f	-0.33217236
217	0xbdc16246	-0.09442572
218	0x3ee9ce37	0.45665142
219	0x3f37cf23	0.7180044
220	0x3f52ab53	0.8229267
221	0xbea492fd	-0.32143393
222	0x3e85816d	0.26075307
223	0x3f8a197d	1.0789028
224	0x3f55bbca	0.8348967
225	0x3e99089b	0.29889378
226	0x3efee4c3	0.49783906
227	0x3f3fe86f	0.7496404
228	0xbe6ed838	-0.23324668
229	0xbede2a33	-0.4339157
230	0x3f22cccb	0.6359374
231	0xbe80e282	-0.25172812
232	0x3f5cb038	0.8620639
233	0xbefe6090	-0.49683046
234	0x3f9d0372	1.2266676
235	0xbfdddab2	-1.7332366
236	0xbeb86f7a	-0.3602255
237	0xbdcab989	-0.09898669
238	0xbe7d2b66	-0.24723586
239	0x3e7f3fab	0.24926631
240	0x3e5ae97b	0.21378128
241	0x3dda406a	0.10656817
242	0x3eac7b95	0.33688036
243	0xbf0a82c8	-0.54105806
244	0x3e570d05	0.2100106
245	0xbe4d871b	-0.2007107
246	0x3d4eeaf9	0.050517056
247	0xbda6f832	-0.08152808
248	0x3f84263f	1.0324172
249	0x3e6a9175	0.2290705
250	0x3f589a85	0.8461078
251	0x3f4e43ff	0.80572504
252	0xbde06184	-0.109561
253	0x3f78fb83	0.97258776
254	0x3f89a92a	1.075475
255	0x3eda9e92	0.42699105

bias f4 [175]
0	0x00000000	0.0
1	0x00000000	0.0
2	0x00000000	0.0
3	0x00000000	0.0
4	0x00000000	0.0
5	0x00000000	0.0
6	0x00000000	0.0
7	0x00000000	0.0
8	0x00000000	0.0
9	0x00000000	0.0
10	0x00000000	0.0
11	0x00000000	0.0
12	0x00000000	0.0
13	0x00000000	0.0
14	0x00000000	0.0
15	0x00000000	0.0
16	0x00000000	0.0
17	0x00000000	0.0
18	0x00000000	0.0
19	0x00000000	0.0
20	0x00000000	0.0
21	0x00000000	0.0
22	0x00000000	0.0
23	0x00000000	0.0
24	0x00000000	0.0
25	0x00000000	0.0
26	0x00000000	0.0
27	0x00000000	0.0
28	0x00000000	0.0
29	0x00000000	0.0
30	0x00000000	0.0
31	0x00000000	0.0
32	0x00000000	0.0
33	0x00000000	0.0
34	0x00000000	0.0
35	0x00000000	0.0
36	0x00000000	0.0
37	0x00000000	0.0
38	0x00000000	0.0
39	0x00000000	0.0
40	0x00000000	0.0
41	0x00000000	0.0
42	0x00000000	0.0
43	0x00000000	0.0
44	0x00000000	0.0
45	0x00000000	0.0
46	0x00000000	0.0
47	0x00000000	0.0
48	0x00000000	0.0
49	0x00000000	0.0
50	0x00000000	0.0
51	0x00000000	0.0
52	0x00000000	0.0
53	0x00000000	0.0
54	0x00000000	0.0
55	0x00000000	0.0
56	0x00000000	0.0
57	0x00000000	0.0
58	0x00000000	0.0
59	0x00000000	0.0
60	0x00000000	0.0
61	0x00000000	0.0
62	0x00000000	0.0
63	0x00000000	0.0
64	0x00000000	0.0
65	0x00000000	0.0
66	0x00000000	0.0
67	0x00000000	0.0
68	0x00000000	0.0
69	0x00000000	0.0
70	0x00000000	0.0
71	0x00000000	0.0
72	0x00000000	0.0
73	0x00000000	0.0
74	0x00000000	0.0
75	0x00000000	0.0
76	0x00000000	0.0
77	0x00000000	0.0
78	0x00000000	0.0
79	0x00000000	0.0
80	0x00000000	0.0
81	0x00000000	0.0
82	0x00000000	0.0
83	0x00000000	0.0
84	0x00000000	0.0
85	0x00000000	0.0
86	0x00000000	0.0
87	0x00000000	0.0
88	0x00000000	0.0
89	0x00000000	0.0
90	0x00000000	0.0
91	0x00000000	0.0
92	0x00000000	0.0
93	0x00000000	0.0
94	0x00000000	0.0
95	0x00000000	0.0
96	0x00000000	0.0
97	0x00000000	0.0
98	0x00000000	0.0
99	0x00000000	0.0
100	0x00000000	0.0
101	0x00000000	0.0
102	0x00000000	0.0
103	0x00000000	0.0
104	0x00000000	0.0
105	0x00000000	0.0
106	0x00000000	0.0
107	0x00000000	0.0
108	0x00000000	0.0
109	0x00000000	0.0
110	0x00000000	0.0
111	0x00000000	0.0
112	0x00000000	0.0
113	0x00000000	0.0
114	0x00000000	0.0
115	0x00000000	0.0
116	0x00000000	0.0
117	0x00000000	0.0
118	0x00000000	0.0
119	0x00000000	0.0
120	0x00000000	0.0
121	0x00000000	0.0
122	0x00000000	0.0
123	0x00000000	0.0
124	0x00000000	0.0
125	0x00000000	0.0
126	0x00000000	0.0
127	0x00000000	0.0
128	0x00000000	0.0
129	0x00000000	0.0
130	0x00000000	0.0
131	0x00000000	0.0
132	0x00000000	0.0
133	0x00000000	0.0
134	0x00000000	0.0
135	0x00000000	0.0
136	0x00000000	0.0
137	0x00000000	0.0
138	0x00000000	0.0
139	0x00000000	0.0
140	0x00000000	0.0
141	0x00000000	0.0
142	0x00000000	0.0
143	0x00000000	0.0
144	0x00000000	0.0
145	0x00000000	0.0
146	0x00000000	0.0
147	0x00000000	0.0
148	0x00000000	0.0
149	0x00000000	0.0
150	0x00000000	0.0
151	0x00000000	0.0
152	0x00000000	0.0
153	0x00000000	0.0
154	0x00000000	0.0
155	0x00000000	0.0
156	0x00000000	0.0
157	0x00000000	0.0
158	0x00000000	0.0
159	0x00000000	0.0
160	0x00000000	0.0
161	0x00000000	0.0
162	0x00000000	0.0
163	0x00000000	0.0
164	0x00000000	0.0
165	0x00000000	0.0
166	0x00000000	0.0
167	0x00000000	0.0
168	0x00000000	0.0
169	0x00000000	0.0
170	0x00000000	0.0
171	0x00000000	0.0
172	0x00000000	0.0
173	0x00000000	0.0
174	0x00000000	0.0

_ei_mask f4 [175]
0	0x3f800000	1.0
1	0x3f800000	1.0
2	0x3f800000	1.0
3	0x3f800000	1.0
4	0x3f800000	1.0
5	0x3f800000	1.0
6	0x3f800000	1.0
7	0x3f800000	1.0
8	0x3f800000	1.0
9	0x3f800000	1.0
10	0x3f800000	1.0
11	0x3f800000	1.0
12	0x3f800000	1.0
13	0x3f800000	1.0
14	0x3f800000	1.0
15	0x3f800000	1.0
16	0x3f800000	1.0
17	0x3f800000	1.0
18	0x3f800000	1.0
19	0x3f800000	1.0
20	0x3f800000	1.0
21	0x3f800000	1.0
22	0x3f800000	1.0
23	0x3f800000	1.0
24	0x3f800000	1.0
25	0x3f800000	1.0
26	0x3f800000	1.0
27	0x3f800000	1.0
28	0x3f800000	1.0
29	0x3f800000	1.0
30	0x3f800000	1.0
31	0x3f800000	1.0
32	0x3f800000	1.0
33	0x3f800000	1.0
34	0x3f800000	1.0
35	0x3f800000	1.0
36	0x3f800000	1.0
37	0x3f800000	1.0
38	0x3f800000	1.0
39	0x3f800000	1.0
40	0x3f800000	1.0
41	0x3f800000	1.0
42	0x3f800000	1.0
43	0x3f800000	1.0
44	0x3f800000	1.0
45	0x3f800000	1.0
46	0x3f800000	1.0
47	0x3f800000	1.0
48	0x3f800000	1.0
49	0x3f800000	1.0
50	0x3f800000	1.0
51	0x3f800000	1.0
52	0x3f800000	1.0
53	0x3f800000	1.0
54	0x3f800000	1.0
55	0x3f800000	1.0
56	0x3f800000	1.0
57	0x3f800000	1.0
58	0x3f800000	1.0
59	0x3f800000	1.0
60	0x3f800000	1.0
61	0x3f800000	1.0
62	0x3f800000	1.0
63	0x3f800000	1.0
64	0x3f800000	1.0
65	0x3f800000	1.0
66	0x3f800000	1.0
67	0x3f800000	1.0
68	0x3f800000	1.0
69	0x3f800000	1.0
70	0x3f800000	1.0
71	0x3f800000	1.0
72	0x3f800000	1.0
73	0x3f800000	1.0
74	0x3f800000	1.0
75	0x3f800000	1.0
76	0x3f800000	1.0
77	0x3f800000	1.0
78	0x3f800000	1.0
79	0x3f800000	1.0
80	0x3f800000	1.0
81	0x3f800000	1.0
82	0x3f800000	1.0
83	0x3f800000	1.0
84	0x3f800000	1.0
85	0x3f800000	1.0
86	0x3f800000	1.0
87	0x3f800000	1.0
88	0x3f800000	1.0
89	0x3f800000	1.0
90	0x3f800000	1.0
91	0x3f800000	1.0
92	0x3f800000	1.0
93	0x3f800000	1.0
94	0x3f800000	1.0
95	0x3f800000	1.0
96	0x3f800000	1.0
97	0x3f800000	1.0
98	0x3f800000	1.0
99	0x3f800000	1.0
100	0x3f800000	1.0
101	0x3f800000	1.0
102	0x3f800000	1.0
103	0x3f800000	1.0
104	0x3f800000	1.0
105	0x3f800000	1.0
106	0x3f800000	1.0
107	0x3f800000	1.0
108	0x3f800000	1.0
109	0x3f800000	1.0
110	0x3f800000	1.0
111	0x3f800000	1.0
112	0x3f800000	1.0
113	0x3f800000	1.0
114	0x3f800000	1.0
115	0x3f800000	1.0
116	0x3f800000	1.0
117	0x3f800000	1.0
118	0x3f800000	1.0
119	0x3f800000	1.0
120	0x3f800000	1.0
121	0x3f800000	1.0
122	0x3f800000	1.0
123	0x3f800000	1.0
124	0x3f800000	1.0
125	0x3f800000	1.0
126	0x3f800000	1.0
127	0x3f800000	1.0
128	0x3f800000	1.0
129	0x3f800000	1.0
130	0x3f800000	1.0
131	0x3f800000	1.0
132	0x3f800000	1.0
133	0x3f800000	1.0
134	0x3f800000	1.0
135	0x3f800000	1.0
136	0x3f800000	1.0
137	0x3f800000	1.0
138	0x3f800000	1.0
139	0x3f800000	1.0
140	0x3f800000	1.0
141	0x3f800000	1.0
142	0x3f800000	1.0
143	0x3f800000	1.0
144	0x3f800000	1.0
145	0x3f800000	1.0
146	0x3f800000	1.0
147	0x3f800000	1.0
148	0x3f800000	1.0
149	0x3f800000	1.0
150	0x3f800000	1.0
151	0x3f800000	1.0
152	0x3f800000	1.0
153	0x3f800000	1.0
154	0x3f800000	1.0
155	0x3f800000	1.0
156	0x3f800000	1.0
157	0x3f800000	1.0
158	0x3f800000	1.0
159	0x3f800000	1.0
160	0x3f800000	1.0
161	0x3f800000	1.0
162	0x3f800000	1.0
163	0x3f800000	1.0
164	0x3f800000	1.0
165	0x3f800000	1.0
166	0x3f800000	1.0
167	0x3f800000	1.0
168	0x3f800000	1.0
169	0x3f800000	1.0
170	0x3f800000	1.0
171	0x3f800000	1.0
172	0x3f800000	1.0
173	0x3f800000	1.0
174	0x3f800000	1.0
