checkpoints/version94/model.pt (torch, 47789 bytes, 21 tensors)

bias f4 [175]
00000000: 6c51 923f 75e4 3840 9c15 10bf f74c 0f40
00000010: 63ab 053e 32ab 2540 a6a6 1540 19d2 6040
00000020: d432 cf3f db6b 5740 5b63 d33f adba 0140
00000030: 9220 cfbe 076f 2a3d c66e da3e fc65 1d40
00000040: 9aa6 ca3e 1aaa ed3e 23a9 be3e 96fc 5140
00000050: 3664 073f 8e9c fe3f 7c9d f63f 031f 48be
00000060: ca70 bebf 15ae 7740 6459 353f 08bf 0640
00000070: e392 903f edcc 3140 47a0 6a3f 677f cf3d
00000080: 7879 b73f 21eb 903c 9381 423f c09a 8540
00000090: b65d 913f 6c5c d33f 5d74 d83f 5c86 c73f
000000a0: d919 1140 d6af 9b3f ca25 613e a19b d93e
000000b0: d7b1 bc3f f575 26bf b72a 123f 1c10 083f
000000c0: 8f99 f23e 7e58 1b3d 02bf bbbb a1d9 733c
000000d0: eb22 b13f 0ce8 1b3f 4bf5 023f 5ce5 a13f
000000e0: 6088 28be 0110 6c3f 884d ea3e c600 fd3b
000000f0: bafa ac3d ad96 0d3e 4296 6f3f 3c3b 6f3f
00000100: 704a a33e bf96 143f 5d65 c63e f258 543e
00000110: 5545 4c3f 4d0a df3f cd63 97bd 8dac e33f
00000120: 0d25 ef3f 9d71 8c3f 6136 cb3f 4567 aa3f
00000130: 3e72 fd3f 6627 fc3f 4915 e03f b27f 1e40
00000140: dc10 f43f 8e10 2240 a7ea 943f dfa7 3d40
00000150: 4702 df3f 0099 d33f e36a 4e40 1277 7840
00000160: 2608 9e3f 1422 a23f 2cd1 f03f ea04 e23d
00000170: 6915 6a40 a0a0 323f 8106 9f3f 0062 e03e
00000180: a531 8740 5897 263f b7ae 8abe bed4 303e
00000190: 0010 2940 c318 393f bdf3 d23f 7559 0940
000001a0: c85e 963f d285 1240 99a3 c23f 7e28 f83f
000001b0: 36e3 e63f e297 3c40 928c b63f 8d8c 2d3d
000001c0: 12a9 d03c 948e 2b40 51cc a13f 295d 2b40
000001d0: 7b43 433e 9121 4440 1f9d 2e40 41c8 2740
000001e0: 1ac2 7a40 f04d d53f 5203 1540 5087 3c40
000001f0: 45f2 8240 acf7 d53f 866f 9a3e 5c8e ce3d
00000200: 16e3 7a3f 233d a33f 9b48 7a3e 77bc e03e
00000210: d19a 91bd 6255 1340 7150 bd3f 5f8d 773e
00000220: c6fa 8e3e 4574 e33f 1367 7a3f d827 ae3f
00000230: c227 4a3f c7b0 033f 669a 8a3f b3ad 4d3f
00000240: 9ed3 843d da6e c73f baa1 c33f 4c07 803f
00000250: b7d2 eebf a4f8 66bd 8a4d 633e 7421 0d3e
00000260: 7751 2540 f485 633f cee5 8140 a210 1040
00000270: 5566 b03f 780e 8840 c5a0 153f 0908 bb3e
00000280: 49f5 703f 9a6f 62bf 09b7 103f 2df7 a93f
00000290: 3dae 0740 d218 4e40 4ffa d23e 555a 0740
000002a0: b7f8 0d3f c955 1140 0538 1340 c711 1140
000002b0: ed34 f13f 4bd0 d63e 7dfc 963f
1.1431098 2.888944 -0.56282973 2.2390726 0.1305366 2.588574 2.3382964 3.5128233
1.6187387 3.365958 1.6514696 2.0270188 -0.40454537 0.04160979 0.42662638 2.4593496
0.39580232 0.4641884 0.37238416 3.2810416 0.52887285 1.9891527 1.926681 -0.1954308
-1.487817 3.8700001 0.70839524 2.1054096 1.1294826 2.7781327 0.91650814 0.10131722
1.4333944 0.017690243 0.75978965 4.1751404 1.1356723 1.651258 1.6910511 1.5587878
2.2672026 1.2163036 0.21987072 0.42501548 1.4741772 -0.6502374 0.5709643 0.5314958
0.4738278 0.03792619 -0.005729557 0.01488343 1.3838781 0.6090095 0.5115554 1.264812
-0.16458273 0.9221192 0.45762277 0.0077210395 0.0844626 0.1382701 0.9358865 0.9344976
0.3189273 0.5804252 0.3874921 0.20737055 0.7979329 1.7425019 -0.07392082 1.7787033
1.8683182 1.0972172 1.587597 1.3312765 1.9800489 1.9699523 1.7506496 2.476544
1.9067645 2.5322604 1.163411 2.963371 1.742257 1.6531067 3.2252738 3.8822675
1.2346237 1.266665 1.8813834 0.110360935 3.6575568 0.69776344 1.242386 0.43824768
4.22481 0.6507468 -0.27086422 0.17268655 2.6416016 0.7230341 1.6480633 2.146085
1.1747675 2.2894177 1.5206176 1.9387357 1.8038089 2.9467702 1.4261649 0.042370368
0.025471244 2.6805773 1.2640477 2.677561 0.1906871 3.0645487 2.72834 2.6215975
3.918097 1.666441 2.3283277 2.9457588 4.092074 1.6716208 0.3016321 0.10085747
0.98002756 1.2753032 0.2444176 0.43893787 -0.07109607 2.3020864 1.4790174 0.24175023
0.279257 1.7769858 0.9781353 1.3605909 0.78966916 0.51441616 1.0828369 0.8034317
0.06485675 1.5580704 1.528373 1.0002227 -1.8658055 -0.056389466 0.22197548 0.13782293
2.5830972 0.8887627 4.0593023 2.2510152 1.3781229 4.251766 0.5844844 0.36529568
0.94124275 -0.8845154 0.5652929 1.3278557 2.1200097 3.220265 0.41206595 2.1148884
0.55457634 2.270861 2.3002942 2.26671 1.8844277 0.4195579 1.1795803

weight f4 [9, 175]
00000000: 1d11 a83e d072 db3e a8e5 88b2 088a ba3e
00000010: 88f1 f5b2 a0ec 333f 608f df3e 4cad 333f
00000020: e349 6b3f 5cf3 273f 54fd 3b3f 2cc9 2b3f
00000030: bf2a 6ab1 9a21 e23e b7c0 d93d 96a1 53b9
00000040: 014f 643e f3e6 c23e 102a a03e 7c32 343f
00000050: 9e46 2c2d 3376 4b3f 4ecd 143f ca5b abbe
00000060: 48af 8a3f 01bc 433f 26c5 9a3f 65a0 073f
00000070: ec16 f33e 6fbe 9c2c c3df 873f 897a 373e
00000080: 775d 1b3f 4330 a03f a696 b730 8dc5 86ba
00000090: 681b 0e3f 6a1f a53e 43c5 173f 6cc5 3e3f
000000a0: 12c4 d83e 0719 e0be 368a 4c3f 7b03 173f
000000b0: 98f4 4c38 2040 063f f836 303e 6546 6bbe
000000c0: bf3a 85b1 66ae 0c3c d68b fb3e b2de 043f
000000d0: 19c4 913e 05a2 2b3f 84b3 d23e 4694 a535
000000e0: d547 03b9 6e3d 003f 2ac7 db3e 8af4 893e
000000f0: 2241 0c3f 5cda 113f 9e49 982e 4cc4 8233
00000100: d55c 562d 0e3c 0e3f 590f ee3e 4115 293f
00000110: ba7d 103e 7d1a 043f 49ea b73e 0b0a d03e
00000120: d3f6 ec3e d27e 60b7 7362 cb3e a619 343e
00000130: 5f8a 4c3c 51a1 da3e d519 0cb8 6f5f bb3e
00000140: af8d 613e a9a9 bd3e e96f d93e 28fe 903e
00000150: b6ed 993e 2645 db3e 375a f13e 598d 0b3f
00000160: fb94 c032 001d 1f3f a9b4 f13e 7cf4 e13e
00000170: ce93 1430 f94f f93e 9bcb 263f 05f5 333f
00000180: f737 193f 9f46 023f 2b5b 173f a874 743f
00000190: 6e13 593f 464a 993f 0804 c3ae fb22 5b33
000001a0: 4b5a 8d3b 9ca2 a430 83e9 873f faff 0c3f
000001b0: 9a4c 153f 5b3b 263f 325d 4e34 4b9f 25be
000001c0: 31d6 3e3f 06e7 3b3f 43b4 3c3f de2d 353f
000001d0: 4f3b 543f a040 e23e 4b25 2e3f 1e72 153f
000001e0: 4795 3c3f 57dd 073f 3041 073f 05a2 ec3e
000001f0: 2370 2c3f fc0f ef3d 6319 083f 206d 293e
00000200: 4783 153e 171b 1a3f 606a 473f ba75 26af
00000210: 9647 633f 28c4 eb3e a1f0 7b33 1a6b 1b3f
00000220: 58d3 903e da66 a93e cbbe c43e e551 953e
00000230: f6d5 1c3f 3eac 223f 1264 b33e f033 6c3e
00000240: 3efb a63e d261 783f 6e2d 883e 6f38 c23e
00000250: e6eb db3e 9b4f 073f 3658 b23e 5a76 a53e
00000260: cfd9 e43e 635a e93e 9f70 fd3e 9039 c63e
00000270: 4f2f 113f abc9 f03e c7e8 523e 046a 623f
00000280: 1e3c 183f 9292 0d3f 8186 7a3f f39a 393f
00000290: 258c be3e 643c 10b9 2083 873e 06da c83e
000002a0: 70e1 0d3f 126f 893e 34df aeae b60c dd3e
000002b0: 4027 ed3e 67e3 443f 67b2 d03e 54ec e83e
000002c0: c33f 263f eb9a 313f f39a 143f 51a2 a63f
000002d0: ed43 ab3e bf21 0f3f aa61 093f 8d41 bb2f
000002e0: 796b 083f dd3f 19b4 b3ec 4ab7 3ed0 433f
000002f0: eb1a edb3 5f72 0e3f 2e18 4e3f 41ec 05bf
00000300: e16f 333e f1e6 ffbe f79d 003f d478 363f
00000310: 09b7 09b3 3fa6 713e b8af af3e 143c 4f36
00000320: 34e8 013f baa1 2e31 80a8 013f 0ed5 093f
00000330: 9b62 923f 83d5 57b0 6a26 c2be 01f9 1eb7
00000340: 4c6b 3daf d3dd 873f 4d0f 713f 8941 643e
00000350: 9984 ad3e 9240 b73a 26a9 d332 c4d3 103f
00000360: 9f1e 193f 8be9 45af e1f7 463e 9177 413f
00000370: 372e b43e 63b3 023f 7e4b 0d3f 3e74 013f
00000380: 0936 d33e 3e86 bd3e bfa8 b93e 633d a63e
00000390: f80b 15be 0d16 12ba af4b f73e 130a 1a3f
000003a0: 9af7 8f3b 66b4 e53d b728 04bf abe1 26b3
000003b0: e344 f6b3 3c96 0f3f 770e 593f 972d 3d3f
000003c0: 9098 8032 5907 acbe 32cf 722c 1515 e83e
000003d0: eb4f 923e 4339 a0be 2ec8 b43e 976a c33e
000003e0: 8c9a f23e 2eb8 913e a46b c53e e312 133f
000003f0: 6810 a53e 19d4 0d3f 0785 fc3e 1ae6 0d3f
0.32825556 0.42861032 -1.593692e-08 0.36433434 -2.863159e-08 0.70282936 0.43664074 0.70186305
0.9190962 0.6560571 0.73433423 0.6710384 -3.407578e-09 0.4416626 0.106324606 -0.00020182724
0.22295763 0.38066825 0.3128209 0.70389533 9.792748e-12 0.7947723 0.5812577 -0.33468467
1.0834742 0.76458746 1.2091415 0.5297912 0.47478426 4.454929e-12 1.0615162 0.17917837
0.6068949 1.2514728 1.3357819e-09 -0.0010282263 0.5551057 0.3225053 0.5928537 0.7451999
0.4233709 -0.43769094 0.79898393 0.58989686 4.8865186e-05 0.52441597 0.17208469 -0.22976072
-3.877488e-09 0.008586502 0.49130124 0.51902306 0.28469923 0.670441 0.41152585 1.2336611e-06
-0.00012519893 0.50093734 0.42925388 0.2694438 0.54786885 0.56973815 6.925237e-11 6.089303e-08
1.21851045e-11 0.55560386 0.46496084 0.66048056 0.14110461 0.5160292 0.35920933 0.40632662
0.46282062 -1.3380968e-05 0.39723548 0.17587909 0.012484162 0.427012 -3.340266e-05 0.36596248
0.22026704 0.37043503 0.42468193 0.28318906 0.30064172 0.42826194 0.4713914 0.54512554
2.241949e-08 0.62153625 0.47208145 0.4413184 5.405213e-10 0.48693827 0.6515443 0.70295745
0.5985102 0.5088901 0.59123486 0.95490503 0.8479527 1.1975791 -8.8682894e-11 5.1021726e-08
0.0043137423 1.1978787e-09 1.0618137 0.5507809 0.5832001 0.6493432 1.921915e-07 -0.16174047
0.7454558 0.7339939 0.7371256 0.7077311 0.82903 0.4418993 0.68025655 0.58377254
0.7366528 0.5307211 0.52833843 0.4621736 0.6735861 0.11672971 0.5316374 0.16545534
0.1460086 0.60197586 0.7789669 -1.5139437e-10 0.88781106 0.46048093 5.8659342e-08 0.607103
0.28286242 0.33086282 0.38426813 0.29164043 0.6126398 0.6354407 0.35037285 0.23066688
0.32613558 0.9702426 0.2659716 0.3793368 0.42953414 0.52855843 0.34832925 0.32316858
0.44697425 0.45576772 0.49499986 0.38715792 0.5671281 0.4702886 0.2059661 0.88443017
0.5946673 0.55301774 0.97861487 0.7250206 0.37216297 -0.00013755407 0.26467228 0.3922884
0.55422115 0.26842552 -7.952253e-11 0.4317376 0.46319008 0.7690949 0.4076111 0.45492804
0.6494104 0.6937701 0.58048934 1.3018285 0.3345026 0.5591087 0.5366465 3.4061678e-10
0.5328899 -1.4272469e-07 -1.2095249e-05 0.7648963 -1.1041069e-07 0.55643266 0.80505645 -0.5231362
0.17523147 -0.49980882 0.50241035 0.7127812 -3.2064268e-08 0.23598574 0.3431375 3.0880374e-06
0.5074494 2.5412263e-09 0.50647736 0.5384072 1.1436342 -7.851996e-10 -0.37919933 -9.47551e-06
-1.722757e-10 1.061457 0.9416397 0.22290625 0.33890226 0.0013981035 2.4640553e-08 0.5657313
0.5981235 -1.8000017e-10 0.19430496 0.7557307 0.3519151 0.5105497 0.55193317 0.50567997
0.41252163 0.3701648 0.36261556 0.3246871 -0.14555347 -0.0005572744 0.4829993 0.6017162
0.00439353 0.11216049 -0.51624626 -3.885513e-08 -1.1467798e-07 0.56088614 0.84787697 0.7389769
1.4970539e-08 -0.33599356 3.4505285e-12 0.45328584 0.28576598 -0.31293687 0.35308975 0.3816726
0.47383535 0.2846083 0.38558686 0.57450694 0.3223908 0.5540176 0.49320242 0.5542923

bias f4 [175]
00000000: 0000 0000 0000 0000 0000 0000 0000 0000
00000010: 0000 0000 0000 0000 0000 0000 0000 0000
00000020: 0000 0000 0000 0000 0000 0000 0000 0000
00000030: 0000 0000 0000 0000 0000 0000 0000 0000
00000040: 0000 0000 0000 0000 0000 0000 0000 0000
00000050: 0000 0000 0000 0000 0000 0000 0000 0000
00000060: 0000 0000 0000 0000 0000 0000 0000 0000
00000070: 0000 0000 0000 0000 0000 0000 0000 0000
00000080: 0000 0000 0000 0000 0000 0000 0000 0000
00000090: 0000 0000 0000 0000 0000 0000 0000 0000
000000a0: 0000 0000 0000 0000 0000 0000 0000 0000
000000b0: 0000 0000 0000 0000 0000 0000 0000 0000
000000c0: 0000 0000 0000 0000 0000 0000 0000 0000
000000d0: 0000 0000 0000 0000 0000 0000 0000 0000
000000e0: 0000 0000 0000 0000 0000 0000 0000 0000
000000f0: 0000 0000 0000 0000 0000 0000 0000 0000
00000100: 0000 0000 0000 0000 0000 0000 0000 0000
00000110: 0000 0000 0000 0000 0000 0000 0000 0000
00000120: 0000 0000 0000 0000 0000 0000 0000 0000
00000130: 0000 0000 0000 0000 0000 0000 0000 0000
00000140: 0000 0000 0000 0000 0000 0000 0000 0000
00000150: 0000 0000 0000 0000 0000 0000 0000 0000
00000160: 0000 0000 0000 0000 0000 0000 0000 0000
00000170: 0000 0000 0000 0000 0000 0000 0000 0000
00000180: 0000 0000 0000 0000 0000 0000 0000 0000
00000190: 0000 0000 0000 0000 0000 0000 0000 0000
000001a0: 0000 0000 0000 0000 0000 0000 0000 0000
000001b0: 0000 0000 0000 0000 0000 0000 0000 0000
000001c0: 0000 0000 0000 0000 0000 0000 0000 0000
000001d0: 0000 0000 0000 0000 0000 0000 0000 0000
000001e0: 0000 0000 0000 0000 0000 0000 0000 0000
000001f0: 0000 0000 0000 0000 0000 0000 0000 0000
00000200: 0000 0000 0000 0000 0000 0000 0000 0000
00000210: 0000 0000 0000 0000 0000 0000 0000 0000
00000220: 0000 0000 0000 0000 0000 0000 0000 0000
00000230: 0000 0000 0000 0000 0000 0000 0000 0000
00000240: 0000 0000 0000 0000 0000 0000 0000 0000
00000250: 0000 0000 0000 0000 0000 0000 0000 0000
00000260: 0000 0000 0000 0000 0000 0000 0000 0000
00000270: 0000 0000 0000 0000 0000 0000 0000 0000
00000280: 0000 0000 0000 0000 0000 0000 0000 0000
00000290: 0000 0000 0000 0000 0000 0000 0000 0000
000002a0: 0000 0000 0000 0000 0000 0000 0000 0000
000002b0: 0000 0000 0000 0000 0000 0000
0.0 0.0 0.0 0.0 0.0 0.0 0.0 0.0
0.0 0.0 0.0 0.0 0.0 0.0 0.0 0.0
0.0 0.0 0.0 0.0 0.0 0.0 0.0 0.0
0.0 0.0 0.0 0.0 0.0 0.0 0.0 0.0
0.0 0.0 0.0 0.0 0.0 0.0 0.0 0.0
0.0 0.0 0.0 0.0 0.0 0.0 0.0 0.0
0.0 0.0 0.0 0.0 0.0 0.0 0.0 0.0
0.0 0.0 0.0 0.0 0.0 0.0 0.0 0.0
0.0 0.0 0.0 0.0 0.0 0.0 0.0 0.0
0.0 0.0 0.0 0.0 0.0 0.0 0.0 0.0
0.0 0.0 0.0 0.0 0.0 0.0 0.0 0.0
0.0 0.0 0.0 0.0 0.0 0.0 0.0 0.0
0.0 0.0 0.0 0.0 0.0 0.0 0.0 0.0
0.0 0.0 0.0 0.0 0.0 0.0 0.0 0.0
0.0 0.0 0.0 0.0 0.0 0.0 0.0 0.0
0.0 0.0 0.0 0.0 0.0 0.0 0.0 0.0
0.0 0.0 0.0 0.0 0.0 0.0 0.0 0.0
0.0 0.0 0.0 0.0 0.0 0.0 0.0 0.0
0.0 0.0 0.0 0.0 0.0 0.0 0.0 0.0
0.0 0.0 0.0 0.0 0.0 0.0 0.0 0.0
0.0 0.0 0.0 0.0 0.0 0.0 0.0 0.0
0.0 0.0 0.0 0.0 0.0 0.0 0.0

_ei_mask f4 [175]
00000000: 0000 803f 0000 803f 0000 803f 0000 803f
00000010: 0000 803f 0000 803f 0000 803f 0000 803f
00000020: 0000 803f 0000 803f 0000 803f 0000 803f
00000030: 0000 803f 0000 803f 0000 803f 0000 803f
00000040: 0000 803f 0000 803f 0000 803f 0000 803f
00000050: 0000 803f 0000 803f 0000 803f 0000 803f
00000060: 0000 803f 0000 803f 0000 803f 0000 803f
00000070: 0000 803f 0000 803f 0000 803f 0000 803f
00000080: 0000 803f 0000 803f 0000 803f 0000 803f
00000090: 0000 803f 0000 803f 0000 803f 0000 803f
000000a0: 0000 803f 0000 803f 0000 803f 0000 803f
000000b0: 0000 803f 0000 803f 0000 803f 0000 803f
000000c0: 0000 803f 0000 803f 0000 803f 0000 803f
000000d0: 0000 803f 0000 803f 0000 803f 0000 803f
000000e0: 0000 803f 0000 803f 0000 803f 0000 803f
000000f0: 0000 803f 0000 803f 0000 803f 0000 803f
00000100: 0000 803f 0000 803f 0000 803f 0000 803f
00000110: 0000 803f 0000 803f 0000 803f 0000 803f
00000120: 0000 803f 0000 803f 0000 803f 0000 803f
00000130: 0000 803f 0000 803f 0000 803f 0000 803f
00000140: 0000 803f 0000 803f 0000 803f 0000 803f
00000150: 0000 803f 0000 803f 0000 803f 0000 803f
00000160: 0000 803f 0000 803f 0000 803f 0000 803f
00000170: 0000 803f 0000 803f 0000 803f 0000 803f
00000180: 0000 803f 0000 803f 0000 803f 0000 803f
00000190: 0000 803f 0000 803f 0000 803f 0000 803f
000001a0: 0000 803f 0000 803f 0000 803f 0000 803f
000001b0: 0000 803f 0000 803f 0000 803f 0000 803f
000001c0: 0000 803f 0000 803f 0000 803f 0000 803f
000001d0: 0000 803f 0000 803f 0000 803f 0000 803f
000001e0: 0000 803f 0000 803f 0000 803f 0000 803f
000001f0: 0000 803f 0000 803f 0000 803f 0000 803f
00000200: 0000 803f 0000 803f 0000 803f 0000 803f
00000210: 0000 803f 0000 803f 0000 803f 0000 803f
00000220: 0000 803f 0000 803f 0000 803f 0000 803f
00000230: 0000 803f 0000 803f 0000 803f 0000 803f
00000240: 0000 803f 0000 803f 0000 803f 0000 803f
00000250: 0000 803f 0000 803f 0000 803f 0000 803f
00000260: 0000 803f 0000 803f 0000 803f 0000 803f
00000270: 0000 803f 0000 803f 0000 803f 0000 803f
00000280: 0000 803f 0000 803f 0000 803f 0000 803f
00000290: 0000 803f 0000 803f 0000 803f 0000 803f
000002a0: 0000 803f 0000 803f 0000 803f 0000 803f
000002b0: 0000 803f 0000 803f 0000 803f
1.0 1.0 1.0 1.0 1.0 1.0 1.0 1.0
1.0 1.0 1.0 1.0 1.0 1.0 1.0 1.0
1.0 1.0 1.0 1.0 1.0 1.0 1.0 1.0
1.0 1.0 1.0 1.0 1.0 1.0 1.0 1.0
1.0 1.0 1.0 1.0 1.0 1.0 1.0 1.0
1.0 1.0 1.0 1.0 1.0 1.0 1.0 1.0
1.0 1.0 1.0 1.0 1.0 1.0 1.0 1.0
1.0 1.0 1.0 1.0 1.0 1.0 1.0 1.0
1.0 1.0 1.0 1.0 1.0 1.0 1.0 1.0
1.0 1.0 1.0 1.0 1.0 1.0 1.0 1.0
1.0 1.0 1.0 1.0 1.0 1.0 1.0 1.0
1.0 1.0 1.0 1.0 1.0 1.0 1.0 1.0
1.0 1.0 1.0 1.0 1.0 1.0 1.0 1.0
1.0 1.0 1.0 1.0 1.0 1.0 1.0 1.0
1.0 1.0 1.0 1.0 1.0 1.0 1.0 1.0
1.0 1.0 1.0 1.0 1.0 1.0 1.0 1.0
1.0 1.0 1.0 1.0 1.0 1.0 1.0 1.0
1.0 1.0 1.0 1.0 1.0 1.0 1.0 1.0
1.0 1.0 1.0 1.0 1.0 1.0 1.0 1.0
1.0 1.0 1.0 1.0 1.0 1.0 1.0 1.0
1.0 1.0 1.0 1.0 1.0 1.0 1.0 1.0
1.0 1.0 1.0 1.0 1.0 1.0 1.0

weight f4 [2, 175]
00000000: e551 da3e 9214 00be cf63 653d 2da6 f43c
00000010: f035 b83e 28e8 293d 40e8 88bc bdc9 923e
00000020: 0007 2d3e 87fa 153e cd0e bfbe 8f9e 2ebe
00000030: bd7c e1bd 3266 953d 5791 b23d bd5a f43d
00000040: 3c2b 363e 4d9f bbbc 84ff 2a3e 5aba 923d
00000050: 0efd ed3d 8e35 bcbe 68dc a8bd 8b75 59bb
00000060: 3899 633f 673d 3c3d 358b 97be 51b8 02be
00000070: 6574 f4bd 173e 123e 70e3 af3e a352 5f3d
00000080: 9d59 b83d fc29 4f3d a6ba 06bb a056 223e
00000090: 0deb 27be 46ee 42bd e774 cf3d 9368 9e3d
000000a0: 2b4c f93e 3794 8fbd 844c 1b3e b904 b7be
000000b0: ba3c 06bb 867b 0d3c 8ec1 9dbd 0ea9 5ebe
000000c0: 72d5 983d f3a2 d63e 4524 b13e 973b a53e
000000d0: 120d 573e 976e 70be 7505 813b 330c 4cbf
000000e0: 4957 2c3d de6f f4bd 45ae 993e 77fe f73e
000000f0: ff56 ee3d c12f 3f3e 0d9a 703e 3636 dfbd
00000100: d119 43be fb6d 123e 1649 c13d 424d 7abe
00000110: b41b 0abe 0c1f a9bc 3e6d 69bd 158b 3e3d
00000120: 6044 133d 407a 87be 6bb2 6e3d bf43 34be
00000130: 2613 2dbe 08c8 9f3c 980b 0bbe 93d5 cf3c
00000140: 1669 903d 756a 183e 4f0f 23be 2d66 58bc
00000150: e503 e5bd 5328 803d 5105 1bbe 3af4 6cbe
00000160: 7dcb a9be 01ba b43c ddf5 513e 2911 3a3e
00000170: 8ea8 8f3d ee2d d93c 5b25 533e 1474 d03c
00000180: afb4 fabd 2a05 823d dcf0 093e 6381 20bc
00000190: 038c abbd 1151 9cbe 7427 4a3e cf81 0c3d
000001a0: 4f70 823d e581 a63d 71dc b9be ddba 653d
000001b0: 1ee2 7dbe 0944 ca3d d234 74be 50ca 08bd
000001c0: 8d31 43bd c154 a23d 7318 bcbe 26fb 6a3e
000001d0: 4c56 e4bd d261 d3be 9014 cf3e fbc3 6b3d
000001e0: 4906 c1bc b028 fe3d e534 1ebd 2798 95bd
000001f0: 8d0f 1cbe 6080 063e 45cc f4bc 338d cabd
00000200: b28b d43c 0813 cdbe bf4c 88bd 5021 53be
00000210: a734 f6bd 03b8 d3ba 0db8 153c b94a f5bc
00000220: 168c a33e ba00 813e fbf8 f13d cdee 34bc
00000230: 3760 6a3e da06 293e d4a4 473f bb22 643e
00000240: 6edb f63c a7fe 09be a84c 4d3e 9665 02bf
00000250: 642c b73e 3184 2bbd 5b2f 723d 5738 d8bc
00000260: 753f b13c e589 14be 1058 513e a1ed 8d3e
00000270: 82c6 b9bd f49e 2f3e 71ee e6bc 6c22 19bf
00000280: ec73 92bc a0fc fbbd eb20 863e 17a5 2fbd
00000290: 8d37 b03d defb bebd 305a d4bd 4d09 d73d
000002a0: ec67 e8be 8826 f63d 2176 ffbd 18ba 523d
000002b0: b0ea 803d e257 aabe c454 28bb 39dd e9be
000002c0: 6db9 073e 0bf0 34be ebb3 aabd 64c5 1bbf
000002d0: e271 6e3e 264d 5bbd 10a8 46be 0f78 b2bd
000002e0: 338e 29be f217 ef3e ba76 233d c267 913e
000002f0: ca69 4ebe 25fd b7be a78b 04be 7958 afbe
00000300: de3b e23d 4599 c2be 52de b23c d9d6 06bd
00000310: 852c 063f b102 ea3c 93e1 0d3e ec67 50bf
00000320: 4727 0fbe 53fd 12bf 605b ce3e 64a5 3e3e
00000330: e555 883e 514c 22bb fd7c 3cbd 229c 743d
00000340: d1d6 cabe fe8c a2bd 9e4d 7cbe ddb8 923e
00000350: 385d 843e 5bed 0bbe f836 2d3e 2c83 f8be
00000360: d9a3 4e3c e180 1dbe eb0f cf3e ffb3 b2be
00000370: 04f5 0cbd acad 473e 0a18 a63e acbe 54be
00000380: 9af0 05bf 3723 2abf 277f 20bf 122b 01be
00000390: 59bb 4a3e ba7f df3d c409 523e 1666 3e3e
000003a0: a34e 963b 393f 00be 4bf1 10bf e0a7 b9bd
000003b0: 4b52 34be 1474 48be d0d5 f23e 4f82 243e
000003c0: defb 963d 78e4 ae3d f559 e1bb e53c 2fbe
000003d0: 776e 5ebd b24e 773e 86f5 693c c2e3 2a3d
000003e0: a51b d03d 7b89 873d 8a65 243e 6e62 fa3d
000003f0: 25c9 783d e3e9 1ebe c007 cdbd 43ff 6d3d
0.42640606 -0.12507847 0.056003388 0.029864395 0.3597865 0.041481167 -0.016712308 0.2866954
0.16897202 0.1464635 -0.3731598 -0.17052673 -0.1101012 0.07294883 0.087191276 0.119313695
0.1778993 -0.022903109 0.16699034 0.0716445 0.11620532 -0.3675961 -0.08245164 -0.0033181633
0.8890567 0.045956995 -0.29598394 -0.12765624 -0.11936263 0.14281498 0.3435321 0.054522168
0.090014674 0.05057715 -0.0020558028 0.15853357 -0.16398259 -0.047590517 0.10129719 0.0773479
0.48690924 -0.070106916 0.15165907 -0.3574579 -0.0020482973 0.008635407 -0.07702933 -0.21744177
0.074625865 0.41921195 0.34597984 0.32272026 0.2100108 -0.23479687 0.003937418 -0.79706115
0.04207543 -0.119353995 0.3001577 0.4843633 0.11637687 0.1867056 0.23496266 -0.10899012
-0.19052817 0.14299767 0.09437768 -0.24443534 -0.1348713 -0.020644687 -0.056988947 0.046519358
0.03595388 -0.26460457 0.05827562 -0.17603968 -0.16901836 0.019504562 -0.13578641 0.025370395
0.070512936 0.1488436 -0.15923809 -0.013207954 -0.111823834 0.06257691 -0.15138747 -0.2314004
-0.33163062 0.02206135 0.20503946 0.18170609 0.07014571 0.026511159 0.20619719 0.025445975
-0.12241494 0.06348641 0.13470787 -0.009796473 -0.083763145 -0.305306 0.19741613 0.034303483
0.063690774 0.08130244 -0.36300996 0.05608641 -0.24793288 0.09876258 -0.23848274 -0.033396065
-0.047654677 0.07926322 -0.36737403 0.22947368 -0.11149272 -0.41285568 0.40445375 0.05755995
-0.023562567 0.12410104 -0.038624663 -0.073044114 -0.15240307 0.13134909 -0.02988256 -0.09890213
0.025945518 -0.40053582 -0.06655263 -0.20618176 -0.120217614 -0.0016152862 0.009138119 -0.029942857
0.31942815 0.25195867 0.118150674 -0.011043263 0.22888266 0.1650652 0.7798588 0.22278874
0.03013393 -0.13476048 0.20048773 -0.5093626 0.35776055 -0.041874114 0.059127193 -0.026394052
0.021636704 -0.14505728 0.2044375 0.2772036 -0.090710655 0.1715048 -0.02818987 -0.5981815
-0.017877541 -0.12304044 0.2619699 -0.04288205 0.086043455 -0.093253836 -0.103687644 0.10499821
-0.45391786 0.12019068 -0.12473703 0.051447004 0.06294763 -0.33270174 -0.002568529 -0.45676592
0.13254328 -0.17669694 -0.08335098 -0.6084807 0.2328563 -0.05354037 -0.19400048 -0.087143056
-0.16558151 0.46697956 0.03990815 0.28399473 -0.20157543 -0.3593532 -0.12943898 -0.34247187
0.11046575 -0.3800756 0.021834526 -0.03291974 0.5241168 0.028565736 0.13855581 -0.8140857
-0.13979827 -0.5741779 0.4030409 0.18617779 0.26628032 -0.0024764726 -0.046017636 0.059719212
-0.39617017 -0.079370484 -0.24638984 0.28656664 0.2585237 -0.13664763 0.169155 -0.48537576
0.0126123065 -0.15381195 0.40441832 -0.3490295 -0.034413353 0.19499844 0.32440215 -0.2077586
-0.52320254 -0.66459984 -0.6269402 -0.12614086 0.1979803 0.10913034 0.20511538 0.1859363
0.004587011 -0.12524118 -0.56618184 -0.09065223 -0.17609517 -0.1957553 0.4742875 0.16065334
0.073722586 0.08539671 -0.006877179 -0.17113073 -0.054304566 0.24151114 0.014279729 0.041721113
0.10161523 0.06618019 0.16054359 0.12225805 0.0607387 -0.15518908 -0.10011244 0.058104765

bias f4 [175]
00000000: 0000 0000 0000 0000 0000 0000 0000 0000
00000010: 0000 0000 0000 0000 0000 0000 0000 0000
00000020: 0000 0000 0000 0000 0000 0000 0000 0000
00000030: 0000 0000 0000 0000 0000 0000 0000 0000
00000040: 0000 0000 0000 0000 0000 0000 0000 0000
00000050: 0000 0000 0000 0000 0000 0000 0000 0000
00000060: 0000 0000 0000 0000 0000 0000 0000 0000
00000070: 0000 0000 0000 0000 0000 0000 0000 0000
00000080: 0000 0000 0000 0000 0000 0000 0000 0000
00000090: 0000 0000 0000 0000 0000 0000 0000 0000
000000a0: 0000 0000 0000 0000 0000 0000 0000 0000
000000b0: 0000 0000 0000 0000 0000 0000 0000 0000
000000c0: 0000 0000 0000 0000 0000 0000 0000 0000
000000d0: 0000 0000 0000 0000 0000 0000 0000 0000
000000e0: 0000 0000 0000 0000 0000 0000 0000 0000
000000f0: 0000 0000 0000 0000 0000 0000 0000 0000
00000100: 0000 0000 0000 0000 0000 0000 0000 0000
00000110: 0000 0000 0000 0000 0000 0000 0000 0000
00000120: 0000 0000 0000 0000 0000 0000 0000 0000
00000130: 0000 0000 0000 0000 0000 0000 0000 0000
00000140: 0000 0000 0000 0000 0000 0000 0000 0000
00000150: 0000 0000 0000 0000 0000 0000 0000 0000
00000160: 0000 0000 0000 0000 0000 0000 0000 0000
00000170: 0000 0000 0000 0000 0000 0000 0000 0000
00000180: 0000 0000 0000 0000 0000 0000 0000 0000
00000190: 0000 0000 0000 0000 0000 0000 0000 0000
000001a0: 0000 0000 0000 0000 0000 0000 0000 0000
000001b0: 0000 0000 0000 0000 0000 0000 0000 0000
000001c0: 0000 0000 0000 0000 0000 0000 0000 0000
000001d0: 0000 0000 0000 0000 0000 0000 0000 0000
000001e0: 0000 0000 0000 0000 0000 0000 0000 0000
000001f0: 0000 0000 0000 0000 0000 0000 0000 0000
00000200: 0000 0000 0000 0000 0000 0000 0000 0000
00000210: 0000 0000 0000 0000 0000 0000 0000 0000
00000220: 0000 0000 0000 0000 0000 0000 0000 0000
00000230: 0000 0000 0000 0000 0000 0000 0000 0000
00000240: 0000 0000 0000 0000 0000 0000 0000 0000
00000250: 0000 0000 0000 0000 0000 0000 0000 0000
00000260: 0000 0000 0000 0000 0000 0000 0000 0000
00000270: 0000 0000 0000 0000 0000 0000 0000 0000
00000280: 0000 0000 0000 0000 0000 0000 0000 0000
00000290: 0000 0000 0000 0000 0000 0000 0000 0000
000002a0: 0000 0000 0000 0000 0000 0000 0000 0000
000002b0: 0000 0000 0000 0000 0000 0000
0.0 0.0 0.0 0.0 0.0 0.0 0.0 0.0
0.0 0.0 0.0 0.0 0.0 0.0 0.0 0.0
0.0 0.0 0.0 0.0 0.0 0.0 0.0 0.0
0.0 0.0 0.0 0.0 0.0 0.0 0.0 0.0
0.0 0.0 0.0 0.0 0.0 0.0 0.0 0.0
0.0 0.0 0.0 0.0 0.0 0.0 0.0 0.0
0.0 0.0 0.0 0.0 0.0 0.0 0.0 0.0
0.0 0.0 0.0 0.0 0.0 0.0 0.0 0.0
0.0 0.0 0.0 0.0 0.0 0.0 0.0 0.0
0.0 0.0 0.0 0.0 0.0 0.0 0.0 0.0
0.0 0.0 0.0 0.0 0.0 0.0 0.0 0.0
0.0 0.0 0.0 0.0 0.0 0.0 0.0 0.0
0.0 0.0 0.0 0.0 0.0 0.0 0.0 0.0
0.0 0.0 0.0 0.0 0.0 0.0 0.0 0.0
0.0 0.0 0.0 0.0 0.0 0.0 0.0 0.0
0.0 0.0 0.0 0.0 0.0 0.0 0.0 0.0
0.0 0.0 0.0 0.0 0.0 0.0 0.0 0.0
0.0 0.0 0.0 0.0 0.0 0.0 0.0 0.0
0.0 0.0 0.0 0.0 0.0 0.0 0.0 0.0
0.0 0.0 0.0 0.0 0.0 0.0 0.0 0.0
0.0 0.0 0.0 0.0 0.0 0.0 0.0 0.0
0.0 0.0 0.0 0.0 0.0 0.0 0.0

_ei_mask f4 [175]
00000000: 0000 803f 0000 803f 0000 803f 0000 803f
00000010: 0000 803f 0000 803f 0000 803f 0000 803f
00000020: 0000 803f 0000 803f 0000 803f 0000 803f
00000030: 0000 803f 0000 803f 0000 803f 0000 803f
00000040: 0000 803f 0000 803f 0000 803f 0000 803f
00000050: 0000 803f 0000 803f 0000 803f 0000 803f
00000060: 0000 803f 0000 803f 0000 803f 0000 803f
00000070: 0000 803f 0000 803f 0000 803f 0000 803f
00000080: 0000 803f 0000 803f 0000 803f 0000 803f
00000090: 0000 803f 0000 803f 0000 803f 0000 803f
000000a0: 0000 803f 0000 803f 0000 803f 0000 803f
000000b0: 0000 803f 0000 803f 0000 803f 0000 803f
000000c0: 0000 803f 0000 803f 0000 803f 0000 803f
000000d0: 0000 803f 0000 803f 0000 803f 0000 803f
000000e0: 0000 803f 0000 803f 0000 803f 0000 803f
000000f0: 0000 803f 0000 803f 0000 803f 0000 803f
00000100: 0000 803f 0000 803f 0000 803f 0000 803f
00000110: 0000 803f 0000 803f 0000 803f 0000 803f
00000120: 0000 803f 0000 803f 0000 803f 0000 803f
00000130: 0000 803f 0000 803f 0000 803f 0000 803f
00000140: 0000 803f 0000 803f 0000 803f 0000 803f
00000150: 0000 803f 0000 803f 0000 803f 0000 803f
00000160: 0000 803f 0000 803f 0000 803f 0000 803f
00000170: 0000 803f 0000 803f 0000 803f 0000 803f
00000180: 0000 803f 0000 803f 0000 803f 0000 803f
00000190: 0000 803f 0000 803f 0000 803f 0000 803f
000001a0: 0000 803f 0000 803f 0000 803f 0000 803f
000001b0: 0000 803f 0000 803f 0000 803f 0000 803f
000001c0: 0000 803f 0000 803f 0000 803f 0000 803f
000001d0: 0000 803f 0000 803f 0000 803f 0000 803f
000001e0: 0000 803f 0000 803f 0000 803f 0000 803f
000001f0: 0000 803f 0000 803f 0000 803f 0000 803f
00000200: 0000 803f 0000 803f 0000 803f 0000 803f
00000210: 0000 803f 0000 803f 0000 803f 0000 803f
00000220: 0000 803f 0000 803f 0000 803f 0000 803f
00000230: 0000 803f 0000 803f 0000 803f 0000 803f
00000240: 0000 803f 0000 803f 0000 803f 0000 803f
00000250: 0000 803f 0000 803f 0000 803f 0000 803f
00000260: 0000 803f 0000 803f 0000 803f 0000 803f
00000270: 0000 803f 0000 803f 0000 803f 0000 803f
00000280: 0000 803f 0000 803f 0000 803f 0000 803f
00000290: 0000 803f 0000 803f 0000 803f 0000 803f
000002a0: 0000 803f 0000 803f 0000 803f 0000 803f
000002b0: 0000 803f 0000 803f 0000 803f
1.0 1.0 1.0 1.0 1.0 1.0 1.0 1.0
1.0 1.0 1.0 1.0 1.0 1.0 1.0 1.0
1.0 1.0 1.0 1.0 1.0 1.0 1.0 1.0
1.0 1.0 1.0 1.0 1.0 1.0 1.0 1.0
1.0 1.0 1.0 1.0 1.0 1.0 1.0 1.0
1.0 1.0 1.0 1.0 1.0 1.0 1.0 1.0
1.0 1.0 1.0 1.0 1.0 1.0 1.0 1.0
1.0 1.0 1.0 1.0 1.0 1.0 1.0 1.0
1.0 1.0 1.0 1.0 1.0 1.0 1.0 1.0
1.0 1.0 1.0 1.0 1.0 1.0 1.0 1.0
1.0 1.0 1.0 1.0 1.0 1.0 1.0 1.0
1.0 1.0 1.0 1.0 1.0 1.0 1.0 1.0
1.0 1.0 1.0 1.0 1.0 1.0 1.0 1.0
1.0 1.0 1.0 1.0 1.0 1.0 1.0 1.0
1.0 1.0 1.0 1.0 1.0 1.0 1.0 1.0
1.0 1.0 1.0 1.0 1.0 1.0 1.0 1.0
1.0 1.0 1.0 1.0 1.0 1.0 1.0 1.0
1.0 1.0 1.0 1.0 1.0 1.0 1.0 1.0
1.0 1.0 1.0 1.0 1.0 1.0 1.0 1.0
1.0 1.0 1.0 1.0 1.0 1.0 1.0 1.0
1.0 1.0 1.0 1.0 1.0 1.0 1.0 1.0
1.0 1.0 1.0 1.0 1.0 1.0 1.0

weight f4 [403, 3]
00000000: 038f e7bf 8338 2f3f 2dec b93e 07c3 cebf
00000010: cc19 9ebe 8492 883f a10b a1bf f948 54bf
00000020: 29ee aa3f 7dc5 6bbf 652d 83bf c947 b53f
00000030: ed9a 96be 15cd 7cbf e9c4 d43f e04f 283f
00000040: 934f 06bf 2fc1 f13f a3e6 cc3e e04c 06bf
00000050: 64d6 bb3f c539 93be 66bf 72bf 5c84 bf3f
00000060: 2a25 febd 73aa 91bf 4881 d63f 6f55 c83f
00000070: 771a a4be c3ab b43f 6721 ca3f 49e9 603e
00000080: c502 c83f 14e1 043f 3aa2 363d 5d62 103f
00000090: adc2 983e 0176 8fbd 9e59 4b3f db45 f23e
000000a0: 5aef 6abe 9820 443f 4dfa 63bd 1efe b53d
000000b0: 0ae8 983f fc4c 13bf af52 43bf 4ae3 b93f
000000c0: 8b10 5d3f 156a 52be d54d 9c3f 836e 333f
000000d0: b1d9 d7be 0407 bf3f 51bf 113f f562 bfbe
000000e0: 83ff bb3f 84de 533f c933 eebe 0ccb 373f
000000f0: 68ba 783f 06ed afbe a086 963f 809d 323f
00000100: 6fad 7dbe f429 f43f d37b bebe 0514 83bf
00000110: 13ad ee3f 973e 11be 2ab6 7fbf 8b22 ef3f
00000120: c9fe 25bd a4af 89bf 1f2d ec3f f4d8 0f3f
00000130: 814c 95bf 1a52 0b40 a166 a33f 7ca1 8bbf
00000140: ff2d ff3f 9e60 883f be7a b7bf ba40 1340
00000150: 9071 db3f 2835 abbf ea98 0540 a641 d23f
00000160: d208 9abf be25 ea3f ec11 a63f 1e2e 96bf
00000170: 8c95 e43f 2873 963f 27cd 82bf 2b2c e43f
00000180: 97a2 a23f e29f 6abf 92e3 583f c67a 4c3f
00000190: f892 ebbe a2ec 823f 3baf f33e 3c8c 8abf
000001a0: a9c5 eb3f cd70 743f 9a3c 2ebf 6169 e43f
000001b0: 79a7 ed3f 26d6 90bf b553 0240 b5c4 f93f
000001c0: 153b d8bf a817 1a40 779d f33f 837c e3bf
000001d0: 9892 3340 6b63 0940 3bb1 8abf 84f8 1e40
000001e0: ff14 d93f 0ae7 acbf 0c59 2140 c7ab 1040
000001f0: eb47 b1bf c649 1f40 bbad 2240 427e e4bf
00000200: 193b 3840 e651 1440 f1b3 d6bf a33a 4840
00000210: b0ad 1240 e463 b5bf a1dd 2540 b2d0 d03f
00000220: 043f b3bf 0f4f 1440 ff60 be3f ee96 9fbf
00000230: 5cac f63f 7bae 6c3f 4669 7ebf fbe9 d63f
00000240: dfac 383f c4eb 96bf 117e 0940 0908 983f
00000250: 4ff0 e9bf 27b1 3140 048d 7f3f e481 f4bf
00000260: 6512 4140 441b 383f a92d d2bf 04bb 4740
00000270: b695 b13f cb5f b8bf 9579 2940 ccec 823f
00000280: 6f75 e9bf 8b56 0940 b274 873f df29 e8bf
00000290: 1639 b03f 74d7 7e3f 1333 99bf 542a cb3f
000002a0: 7886 4c3f ff67 a5bf 4354 ce3f b1c2 df3e
000002b0: b030 24bf 0f2a 983f 432b e33e d136 07bf
000002c0: 90f2 193f 56ce 0a3f 4990 2fbf 621d 683f
000002d0: c4f6 a03e 2f5b cabe 5e4f 693f c9d4 3c3f
000002e0: 11f7 88bf 25cc a83f 899b 163f f77c 59bf
000002f0: c4a9 b93f f818 903e 7ba7 67bf 56a1 a43f
00000300: 66ea a33e e2a2 4ebf 3bea aa3f f4fb 1d3f
00000310: 186c 9bbf e210 b03f 76ef 113f efd5 abbf
00000320: ae2f b63f f164 ab3e fcc9 bebf 380b cf3f
00000330: 31db 1c3f e07c 86bf 434e dd3f a5a4 813f
00000340: 489e 6fbf 1c7b c73f e24b 893f 163d 76bf
00000350: 62e0 af3f 84c0 883f 9f52 94bf 3880 933f
00000360: 3dd1 a53f 312c b1bf 63b3 933f f118 0cbb
00000370: 43b0 c2bf 1a3a 0140 34cc 523f a5e9 bebf
00000380: a131 2240 2d1d d93f b088 bebf 60fc 0e40
00000390: 87b4 ad3f 44cc b6bf 589f 2340 7245 ab3f
000003a0: 3b47 cfbf 31d4 2140 cebe c43f 7d9f b1bf
000003b0: 361e 2240 2adc 0a40 0d89 c6bf a702 2140
000003c0: 335e 1340 d8a9 00c0 edf2 2040 f7bf 0040
000003d0: 6da1 efbf ba8f 3840 457e 0240 72cd e4bf
000003e0: 9cc2 2540 0d25 eb3f 43f4 b0bf 2c17 2640
000003f0: 0cdb e93f e8f0 8dbf 9151 4f40 2be3 0740
-1.8090519 0.68445605 0.36313 -1.6153268 -0.30879056 1.0669713 -1.2581674 -0.8292385
1.3353931 -0.9209822 -1.0248228 1.4162532 -0.29415074 -0.9875043 1.6622592 0.6574688
-0.5246517 1.888708 0.40019712 -0.5246105 1.4674802 -0.28755012 -0.948233 1.4962268
-0.12409432 -1.1380142 1.6758204 1.5651072 -0.3205144 1.4114918 1.5791444 0.21963991
1.5625845 0.5190594 0.044588305 0.5640009 0.29836026 -0.07004929 0.7943362 0.4731892
-0.22942868 0.76612234 -0.055658627 0.0888636 1.1945813 -0.57539344 -0.7629804 1.4522488
0.8635337 -0.2054828 1.2211252 0.700905 -0.42158273 1.4924016 0.5693255 -0.37380186
1.4687351 0.82761407 -0.46523884 0.717942 0.97159433 -0.34360522 1.1759834 0.69771576
-0.24773191 1.9075303 -0.37203845 -1.0240484 1.8646568 -0.14184032 -0.99887335 1.8682417
-0.040526185 -1.0756726 1.845127 0.5619042 -1.1663972 2.176886 1.2765695 -1.0908656
1.9935912 1.0654485 -1.4334333 2.3008256 1.7144032 -1.3375597 2.0874581 1.6426284
-1.2033942 1.8292768 1.2974219 -1.1732824 1.7858138 1.1753893 -1.0218858 1.7825979
1.2705868 -0.9165021 0.84722245 0.7987484 -0.46010566 1.0228465 0.47594628 -1.0824046
1.8419696 0.9548462 -0.6806122 1.7844659 1.8566734 -1.1315353 2.036359 1.9513155
-1.689303 2.4076939 1.903243 -1.7772373 2.8058224 2.146693 -1.0835336 2.4839182
1.6959532 -1.3508008 2.52106 2.2604845 -1.3850073 2.4888778 2.5418537 -1.7851031
2.878607 2.3174987 -1.6773664 3.128579 2.291851 -1.4171109 2.5916522 1.6313689
-1.4003606 2.3173254 1.4873351 -1.2467935 1.927135 0.92453736 -0.99379385 1.6790155
0.7213878 -1.17907 2.1483195 1.1877452 -1.8276461 2.7764375 0.9982455 -1.910214
3.0167477 0.71916604 -1.6420184 3.1207895 1.3873813 -1.4404234 2.6480458 1.0228515
-1.8238963 2.1459072 1.0582488 -1.8137778 1.3767421 0.99547505 -1.1968712 1.5872293
0.79892683 -1.2922362 1.6119465 0.43703225 -0.6413679 1.1887835 0.44368944 -0.5281802
0.60135746 0.54221094 -0.68579537 0.90669835 0.31438267 -0.39522693 0.9113673 0.73762184
-1.0700399 1.31873 0.5883108 -0.84956306 1.4504933 0.2814405 -0.9048993 1.2861736
0.3201477 -0.8071729 1.3352731 0.61712575 -1.2142363 1.3755152 0.57006013 -1.3424662
1.4233301 0.3347545 -1.4905391 1.6175299 0.6127196 -1.0506859 1.7289509 1.012837
-0.93600893 1.5584445 1.0726283 -0.9618696 1.3740351 1.0683751 -1.1587714 1.1523504
1.295448 -1.3841611 1.153912 -0.002137717 -1.5210041 2.0191712 0.8234284 -1.4915053
2.534279 1.6962029 -1.4885464 2.2341537 1.3570718 -1.4281087 2.5566006 1.3380568
-1.6193613 2.5285761 1.5370729 -1.3876797 2.533094 2.1696877 -1.5510575 2.515787
2.3026245 -2.0103664 2.514827 2.0117166 -1.8721138 2.8837724 2.0389569 -1.7875197
2.590003 1.8370682 -1.3824543 2.5951643 1.8269973 -1.1089144 3.2393534 2.1232402

bias f4 [3]
00000000: 0000 0000 0000 0000 0000 0000
0.0 0.0 0.0

_ei_mask f4 [3]
00000000: 0000 803f 0000 803f 0000 803f
1.0 1.0 1.0

rmat f4 [1, 1, 3]
00000000: 0000 80bf 0000 0040 0000 80bf
-1.0 2.0 -1.0

weight f4 [3, 175]
00000000: 9c71 e53d 55f1 25be e3f7 71be b393 17be
00000010: 6f24 c5bc 031c 22be 26ea 4f3e a030 6a3d
00000020: 1689 1f3e 2981 5c3e 47a9 ed3e f0c6 d73d
00000030: a7e8 6d3e f5bd 6b3e 0a04 86bf 1dfc fbbd
00000040: e315 97bf a157 b13e eeab 82bf 83fd 85bd
00000050: 3dd6 f3be 67a9 473e 670e d9bc e245 313f
00000060: 9197 943e 3e2f 31bd 1d52 c53c 6de8 f5bc
00000070: d7e6 4bbe fef8 01be e68c 393e 2790 b9be
00000080: 6c92 7e3e 7e4c 1f3e 2a49 49be b9ab 64be
00000090: 6e2b 1fbe 0b7a 0d3e 1f8f 023e ad27 a4bd
000000a0: b51f 0c3e 557d 813d 808a 8b3d 1e10 0340
000000b0: 3c04 84bd f698 adbe 396b b13e d451 ea3f
000000c0: 34f7 9dbe 16fc b8bd f107 1b40 0ff1 1d40
000000d0: be9e fc3b 427d 283f faff d5bd 4c54 a73e
000000e0: dc55 df39 4c1d 8d3e 219e 99be 4413 52be
000000f0: 1050 63be c056 07bf 2a5d 72be b033 8abe
00000100: 432a fabd 5089 553e 0f1b b03d 62cb dc3c
00000110: 87e9 97be e74b b6bd 77e1 d2be 7489 3d3d
00000120: 7abb dbba 3b90 fd3d f211 2bbc a3df ec3e
00000130: faae d03d 3b73 553c f633 0fbe 1e26 a43e
00000140: 5d72 223c 3b4f 8dbd c779 debe cd43 133e
00000150: beb9 04be 9b77 a3bb 9e50 133d 4f5b b33d
00000160: b02c 0fbc c1bb 4b3c f68c df3d 44c6 173e
00000170: 41cf 2cbd a405 b03c 494f cf3a 4590 8bbd
00000180: 3e33 b9bd 1ca5 cd3e e123 1d3d 736b 6fbd
00000190: b7ad 94bd 0e0f e4bc ce1b d2bd fb56 dabc
000001a0: 7051 b53b 58ba 3bbd 17a1 8c3e df0e 1fbd
000001b0: 1a43 303f 04d4 80bd e255 8b3e 0c1a 41be
000001c0: d380 c7be 4dc7 c93d b3a6 b03e 4f2a 8e3d
000001d0: 876d ff3d 23f7 75bc 5f5f 1abe 5e92 423d
000001e0: 8dc3 7ebd 9413 803e 75e1 713e 39c7 553e
000001f0: b626 0cbd dc99 60bc 7406 103e 5d96 bdbd
00000200: 5177 da3e 7133 153d 5261 ae3d 456a 483b
00000210: c3ed 1f3e 07e3 7ebe faad cfbd 3138 a13d
00000220: ac5b 7d3d 1544 993c ce8d c4bd 9caf a5bd
00000230: 09f4 e03d f8c8 3ebe 1bb2 4ebc c9fe f63d
00000240: d19f 803e e8e6 153c b2a5 24be d246 3ebf
00000250: 536c 1fbf ab1d 553e 7975 d2be 83fe 183e
00000260: c25d 003d c208 c93d 0652 2abe 7fb4 99be
00000270: 4944 62be 30a4 2dbe e71c 91be 44e0 ab3d
00000280: 3b78 983e de76 02be f2eb 95bd 625b 963e
00000290: 1777 b8bb 316f 24bd 4822 e6be ee0f a23c
000002a0: 2779 6b3f bdfc 9dbd 535c 11bd 2949 5b3d
000002b0: 0d3d 2f3d 582d 133e ecb0 37be a2db e8be
000002c0: 6a35 0cbd eeb2 6b3e 9c9c 9e3d 0045 d33b
000002d0: ff46 41be e793 22be 4441 69bd 01ed 35be
000002e0: 333d aebe 76fe 3bbd 1b54 ea3b 0155 883f
000002f0: 1db9 073e 8107 303f a32e 0abe 6cae f73e
00000300: 2442 cfbd 480d 2d3f a103 eebd f67e 9abe
00000310: cb76 7cbd 89c4 63be 804f 78bd 34c8 e4bd
00000320: e57a 97be e1c4 3e3e e5b8 bd3e cf1a 583e
00000330: fb9d 093e 0cce 343e 3160 a0be 865b a13e
00000340: 5203 3b3e ecdc c4be c026 22bd 613b 50bf
00000350: 675c 1fbe f777 36be 9b42 9ebd a9c4 0abe
00000360: 97cb 0abf 2ac6 85be b9dc 0c40 1838 e4be
00000370: 6566 b23f 7a6f 86be 0a0a 7ebf e79f 30be
00000380: 49f5 e9bd 6ed6 3b40 828f 4140 6b22 24bf
00000390: 907d e7bd b3df 2abf 23fc 1c3e 85af d6bd
000003a0: 5347 a8be 0aaa 8f3e 9c8c 9bbf 054f bdbd
000003b0: 8f7a ef3e 7eb2 51be baa8 c03e 5a16 dabb
000003c0: 7fbe c73e 527d 273f 0642 0e3d 07ae a83e
000003d0: a4f9 8ebe 28fe 0cbf 3b9a b73d f527 2b3b
000003e0: 257b 50be 39a1 37bd 722c e1be c19d ca3e
000003f0: b34f 133b 1895 d2be 6fc2 d1be 5264 0cbd
0.1120331 -0.16205342 -0.23629718 -0.14802437 -0.024065224 -0.15830998 0.20304164 0.05717528
0.15579638 0.21533646 0.4641821 0.10535991 0.23233281 0.23021682 -1.0469983 -0.12303946
-1.1803554 0.34637168 -1.0208719 -0.06542494 -0.47624388 0.19498216 -0.026496125 0.6924726
0.29021886 -0.043257944 0.024087006 -0.030018056 -0.19912277 -0.12692639 0.18120155 -0.36242792
0.24860543 0.15556523 -0.19656816 -0.22331132 -0.15543911 0.13816087 0.12749909 -0.0801538
0.1368397 0.06322733 0.06813526 2.0478587 -0.0644612 -0.33905762 0.34652117 1.8306222
-0.30852664 -0.090324566 2.4223597 2.467838 0.007709353 0.6581613 -0.10449214 0.326815
0.00042597845 0.27561414 -0.30003455 -0.20515162 -0.2219851 -0.52866745 -0.23668352 -0.2699256
-0.12215092 0.20853162 0.08598911 0.02695245 -0.29670355 -0.08901196 -0.4118764 0.046273664
-0.0016764246 0.123810254 -0.01044129 0.4626437 0.10189624 0.013027961 -0.13984665 0.3206033
0.009914962 -0.06899878 -0.43452284 0.14381333 -0.1296148 -0.0049886233 0.035965554 0.0875765
-0.008738682 0.012434901 0.10915558 0.14821726 -0.04218984 0.021487065 0.0015816475 -0.068146266
-0.09042977 0.4016503 0.038364295 -0.05845208 -0.07259696 -0.02783921 -0.102592096 -0.026652804
0.0055333897 -0.045832008 0.27466652 -0.03883254 0.6885239 -0.06290439 0.2721396 -0.18857592
-0.38965473 0.09852467 0.3450218 0.069416635 0.124720626 -0.015012535 -0.15075444 0.047502868
-0.06219821 0.25014937 0.23621161 0.20876779 -0.034216605 -0.013708558 0.14064962 -0.09257195
0.42669156 0.03642601 0.08514656 0.003058092 0.15618043 -0.24891292 -0.10140605 0.07872046
0.061855003 0.018709222 -0.095973596 -0.080901355 0.10984046 -0.18631351 -0.012615706 0.12060315
0.2512193 0.009149291 -0.16078833 -0.74326813 -0.62274665 0.20812099 -0.4110525 0.14940839
0.031339414 0.098161235 -0.16632852 -0.3002052 -0.22096361 -0.16957164 -0.28342363 0.08392385
0.2977923 -0.12740657 -0.073203936 0.29366595 -0.005629431 -0.040145103 -0.4494803 0.019782986
0.9198174 -0.077142216 -0.035488438 0.053536568 0.042782832 0.14372766 -0.17938584 -0.45480067
-0.034230627 0.23017475 0.077447146 0.0064474344 -0.18874739 -0.15876733 -0.056947008 -0.17766191
-0.34031066 -0.04589697 0.0071511394 1.0650941 0.13254209 0.6876145 -0.13494353 0.4837526
-0.10120037 0.6759839 -0.11621786 -0.30174989 -0.061636727 -0.22242941 -0.060622692 -0.11170998
-0.2958595 0.18629791 0.37055126 0.21103977 0.13439171 0.17656726 -0.31323388 0.3151514
0.18262985 -0.384498 -0.039587736 -0.81340605 -0.15562592 -0.178192 -0.07727548 -0.13551582
-0.54216903 -0.2612775 2.2009718 -0.44574046 1.3937498 -0.26256925 -0.9923407 -0.17248498
-0.114237376 2.9349627 3.024384 -0.6411502 -0.11303246 -0.6674759 0.15330558 -0.104826964
-0.32866916 0.28059417 -1.2152286 -0.092435874 0.46773192 -0.20478246 0.37628728 -0.0066554965
0.39012524 0.654256 0.034730934 0.32945272 -0.27924836 -0.5507531 0.08964964 0.0026116346
-0.20359476 -0.04483149 -0.43979222 0.39573482 0.0022477924 -0.41129375 -0.40968654 -0.03427536

bias f4 [175]
00000000: 0000 0000 0000 0000 0000 0000 0000 0000
00000010: 0000 0000 0000 0000 0000 0000 0000 0000
00000020: 0000 0000 0000 0000 0000 0000 0000 0000
00000030: 0000 0000 0000 0000 0000 0000 0000 0000
00000040: 0000 0000 0000 0000 0000 0000 0000 0000
00000050: 0000 0000 0000 0000 0000 0000 0000 0000
00000060: 0000 0000 0000 0000 0000 0000 0000 0000
00000070: 0000 0000 0000 0000 0000 0000 0000 0000
00000080: 0000 0000 0000 0000 0000 0000 0000 0000
00000090: 0000 0000 0000 0000 0000 0000 0000 0000
000000a0: 0000 0000 0000 0000 0000 0000 0000 0000
000000b0: 0000 0000 0000 0000 0000 0000 0000 0000
000000c0: 0000 0000 0000 0000 0000 0000 0000 0000
000000d0: 0000 0000 0000 0000 0000 0000 0000 0000
000000e0: 0000 0000 0000 0000 0000 0000 0000 0000
000000f0: 0000 0000 0000 0000 0000 0000 0000 0000
00000100: 0000 0000 0000 0000 0000 0000 0000 0000
00000110: 0000 0000 0000 0000 0000 0000 0000 0000
00000120: 0000 0000 0000 0000 0000 0000 0000 0000
00000130: 0000 0000 0000 0000 0000 0000 0000 0000
00000140: 0000 0000 0000 0000 0000 0000 0000 0000
00000150: 0000 0000 0000 0000 0000 0000 0000 0000
00000160: 0000 0000 0000 0000 0000 0000 0000 0000
00000170: 0000 0000 0000 0000 0000 0000 0000 0000
00000180: 0000 0000 0000 0000 0000 0000 0000 0000
00000190: 0000 0000 0000 0000 0000 0000 0000 0000
000001a0: 0000 0000 0000 0000 0000 0000 0000 0000
000001b0: 0000 0000 0000 0000 0000 0000 0000 0000
000001c0: 0000 0000 0000 0000 0000 0000 0000 0000
000001d0: 0000 0000 0000 0000 0000 0000 0000 0000
000001e0: 0000 0000 0000 0000 0000 0000 0000 0000
000001f0: 0000 0000 0000 0000 0000 0000 0000 0000
00000200: 0000 0000 0000 0000 0000 0000 0000 0000
00000210: 0000 0000 0000 0000 0000 0000 0000 0000
00000220: 0000 0000 0000 0000 0000 0000 0000 0000
00000230: 0000 0000 0000 0000 0000 0000 0000 0000
00000240: 0000 0000 0000 0000 0000 0000 0000 0000
00000250: 0000 0000 0000 0000 0000 0000 0000 0000
00000260: 0000 0000 0000 0000 0000 0000 0000 0000
00000270: 0000 0000 0000 0000 0000 0000 0000 0000
00000280: 0000 0000 0000 0000 0000 0000 0000 0000
00000290: 0000 0000 0000 0000 0000 0000 0000 0000
000002a0: 0000 0000 0000 0000 0000 0000 0000 0000
000002b0: 0000 0000 0000 0000 0000 0000
0.0 0.0 0.0 0.0 0.0 0.0 0.0 0.0
0.0 0.0 0.0 0.0 0.0 0.0 0.0 0.0
0.0 0.0 0.0 0.0 0.0 0.0 0.0 0.0
0.0 0.0 0.0 0.0 0.0 0.0 0.0 0.0
0.0 0.0 0.0 0.0 0.0 0.0 0.0 0.0
0.0 0.0 0.0 0.0 0.0 0.0 0.0 0.0
0.0 0.0 0.0 0.0 0.0 0.0 0.0 0.0
0.0 0.0 0.0 0.0 0.0 0.0 0.0 0.0
0.0 0.0 0.0 0.0 0.0 0.0 0.0 0.0
0.0 0.0 0.0 0.0 0.0 0.0 0.0 0.0
0.0 0.0 0.0 0.0 0.0 0.0 0.0 0.0
0.0 0.0 0.0 0.0 0.0 0.0 0.0 0.0
0.0 0.0 0.0 0.0 0.0 0.0 0.0 0.0
0.0 0.0 0.0 0.0 0.0 0.0 0.0 0.0
0.0 0.0 0.0 0.0 0.0 0.0 0.0 0.0
0.0 0.0 0.0 0.0 0.0 0.0 0.0 0.0
0.0 0.0 0.0 0.0 0.0 0.0 0.0 0.0
0.0 0.0 0.0 0.0 0.0 0.0 0.0 0.0
0.0 0.0 0.0 0.0 0.0 0.0 0.0 0.0
0.0 0.0 0.0 0.0 0.0 0.0 0.0 0.0
0.0 0.0 0.0 0.0 0.0 0.0 0.0 0.0
0.0 0.0 0.0 0.0 0.0 0.0 0.0

_ei_mask f4 [175]
00000000: 0000 803f 0000 803f 0000 803f 0000 803f
00000010: 0000 803f 0000 803f 0000 803f 0000 803f
00000020: 0000 803f 0000 803f 0000 803f 0000 803f
00000030: 0000 803f 0000 803f 0000 803f 0000 803f
00000040: 0000 803f 0000 803f 0000 803f 0000 803f
00000050: 0000 803f 0000 803f 0000 803f 0000 803f
00000060: 0000 803f 0000 803f 0000 803f 0000 803f
00000070: 0000 803f 0000 803f 0000 803f 0000 803f
00000080: 0000 803f 0000 803f 0000 803f 0000 803f
00000090: 0000 803f 0000 803f 0000 803f 0000 803f
000000a0: 0000 803f 0000 803f 0000 803f 0000 803f
000000b0: 0000 803f 0000 803f 0000 803f 0000 803f
000000c0: 0000 803f 0000 803f 0000 803f 0000 803f
000000d0: 0000 803f 0000 803f 0000 803f 0000 803f
000000e0: 0000 803f 0000 803f 0000 803f 0000 803f
000000f0: 0000 803f 0000 803f 0000 803f 0000 803f
00000100: 0000 803f 0000 803f 0000 803f 0000 803f
00000110: 0000 803f 0000 803f 0000 803f 0000 803f
00000120: 0000 803f 0000 803f 0000 803f 0000 803f
00000130: 0000 803f 0000 803f 0000 803f 0000 803f
00000140: 0000 803f 0000 803f 0000 803f 0000 803f
00000150: 0000 803f 0000 803f 0000 803f 0000 803f
00000160: 0000 803f 0000 803f 0000 803f 0000 803f
00000170: 0000 803f 0000 803f 0000 803f 0000 803f
00000180: 0000 803f 0000 803f 0000 803f 0000 803f
00000190: 0000 803f 0000 803f 0000 803f 0000 803f
000001a0: 0000 803f 0000 803f 0000 803f 0000 803f
000001b0: 0000 803f 0000 803f 0000 803f 0000 803f
000001c0: 0000 803f 0000 803f 0000 803f 0000 803f
000001d0: 0000 803f 0000 803f 0000 803f 0000 803f
000001e0: 0000 803f 0000 803f 0000 803f 0000 803f
000001f0: 0000 803f 0000 803f 0000 803f 0000 803f
00000200: 0000 803f 0000 803f 0000 803f 0000 803f
00000210: 0000 803f 0000 803f 0000 803f 0000 803f
00000220: 0000 803f 0000 803f 0000 803f 0000 803f
00000230: 0000 803f 0000 803f 0000 803f 0000 803f
00000240: 0000 803f 0000 803f 0000 803f 0000 803f
00000250: 0000 803f 0000 803f 0000 803f 0000 803f
00000260: 0000 803f 0000 803f 0000 803f 0000 803f
00000270: 0000 803f 0000 803f 0000 803f 0000 803f
00000280: 0000 803f 0000 803f 0000 803f 0000 803f
00000290: 0000 803f 0000 803f 0000 803f 0000 803f
000002a0: 0000 803f 0000 803f 0000 803f 0000 803f
000002b0: 0000 803f 0000 803f 0000 803f
1.0 1.0 1.0 1.0 1.0 1.0 1.0 1.0
1.0 1.0 1.0 1.0 1.0 1.0 1.0 1.0
1.0 1.0 1.0 1.0 1.0 1.0 1.0 1.0
1.0 1.0 1.0 1.0 1.0 1.0 1.0 1.0
1.0 1.0 1.0 1.0 1.0 1.0 1.0 1.0
1.0 1.0 1.0 1.0 1.0 1.0 1.0 1.0
1.0 1.0 1.0 1.0 1.0 1.0 1.0 1.0
1.0 1.0 1.0 1.0 1.0 1.0 1.0 1.0
1.0 1.0 1.0 1.0 1.0 1.0 1.0 1.0
1.0 1.0 1.0 1.0 1.0 1.0 1.0 1.0
1.0 1.0 1.0 1.0 1.0 1.0 1.0 1.0
1.0 1.0 1.0 1.0 1.0 1.0 1.0 1.0
1.0 1.0 1.0 1.0 1.0 1.0 1.0 1.0
1.0 1.0 1.0 1.0 1.0 1.0 1.0 1.0
1.0 1.0 1.0 1.0 1.0 1.0 1.0 1.0
1.0 1.0 1.0 1.0 1.0 1.0 1.0 1.0
1.0 1.0 1.0 1.0 1.0 1.0 1.0 1.0
1.0 1.0 1.0 1.0 1.0 1.0 1.0 1.0
1.0 1.0 1.0 1.0 1.0 1.0 1.0 1.0
1.0 1.0 1.0 1.0 1.0 1.0 1.0 1.0
1.0 1.0 1.0 1.0 1.0 1.0 1.0 1.0
1.0 1.0 1.0 1.0 1.0 1.0 1.0
