checkpoints/version137/model.pt (torch, 34217 bytes, 14 tensors)

bias f4 [175]
00000000: ebfa 973f 324f f73f c610 4bbf 62f5 b03f
00000010: 3cb2 8bbe 3427 ea3f bfb7 d33f 2fd9 1c40
00000020: 73dd 8c3f 2f12 3a40 b68d 9b3f e255 963f
00000030: 64d0 54be 5942 83be 3473 c6bd db3f c83f
00000040: 413e 25be d290 7cbb 88cd 0bbe 6e6c 1240
00000050: 96f8 2a3e 6e02 9b3f 0b94 be3f 1e40 fdbe
00000060: 4200 18c0 d59a 4240 6dfe 123f 393b a23f
00000070: 9386 313f 3af9 0c40 9371 ac3e de56 f3be
00000080: 52c2 863f 9b9e f5be 055a d53e 6be6 5540
00000090: 6743 313f 913d 963f a149 c93f 40ba 9a3f
000000a0: b1b5 f93f 2701 b33f d7f3 b93d ed7e bf3e
000000b0: 13da 9c3f f518 a0be 8502 c63e 7580 d03d
000000c0: 2322 083e 3d17 6d3e 9210 f03e 9c7a e23e
000000d0: 7b06 903f e721 b43d 297d 643e 1a84 653f
000000e0: 0a86 02bf 0a65 e53e 70d4 a63d 8c92 62bf
000000f0: 8cfc 60bd 02e5 9abc df05 1a3f 7e7c b73e
00000100: 0af9 b6bd be77 a73e 35bb a8bd ef24 223e
00000110: 57cc 2c3f 57da be3f 0eed cebe 8de4 953f
00000120: dcae aa3f b00a f13e daa9 923f d731 4a3f
00000130: 8313 783f ad23 c23f 4871 933f f2a7 fb3f
00000140: 4dc2 9f3f e65f ec3f acd5 823f e9df 1b40
00000150: 5731 903f 7100 9d3f cab6 2d40 1bcd 4f40
00000160: 33c5 913f 5de8 3e3f c914 8d3f 9f58 afbe
00000170: 67c4 4440 f57d 293d 5c1f 603f d9b0 973e
00000180: b761 4340 2732 a83e d768 55bf 6fa1 08be
00000190: 7e93 0540 a1c5 043f 6143 853f 3af1 db3f
000001a0: 583b 6c3f 2b59 ef3f af80 903f 9f26 b93f
000001b0: 4405 c13f 5d6a ee3f d8b6 3f3f 2955 e7be
000001c0: 0eb8 6abd 365d 0140 c89d 823f f1d0 0240
000001d0: 67a6 1ebe 721a 0940 76d3 d73f 1c46 f53f
000001e0: f3c7 1d40 c2cc b83f 4156 ff3f 8586 0940
000001f0: 736d 2040 70fc a53f 9161 ec3d 6fd3 10be
00000200: 8dc2 0b3f 9fa7 923f 09cc 193e 5efa 403d
00000210: c412 86be 231c dd3f a88c a63f d424 7e3c
00000220: 5979 b3bd 5d31 ab3f 708f b63e 6c56 6e3f
00000230: a437 073f 9df6 823e 4105 783f 8c55 923e
00000240: c374 e3bd 3a70 ad3f d9e2 6b3f bdc3 923f
00000250: 3b26 86be 1762 54bd 0e01 553e 329f f1bd
00000260: ff2e cf3f 0049 5b3f 4560 4040 d0a1 e23f
00000270: d250 653f 49f4 4b40 279e 86bd 5916 3dbe
00000280: 5f8e 483f bd15 9cbf 3d6b 7f3d 875d 663f
00000290: a3e1 c83f 2cb9 2440 dfe9 1b3f b716 ab3f
000002a0: 9a85 4f3f 2863 de3f 5ea1 ef3f f48d c73f
000002b0: 7a73 983f 178f 943e 0a2c 983e
1.1873449 1.9321043 -0.7932247 1.3824885 -0.2728442 1.8293214 1.654045 2.4507558
1.1005081 2.9073598 1.2152622 1.1744959 -0.2078262 -0.25636557 -0.09689942 1.5644487
-0.16137029 -0.0038538468 -0.13652623 2.287868 0.1669639 1.2110116 1.4888929 -0.4946298
-2.3750157 3.0407002 0.5741947 1.2674323 0.6934597 2.2027116 0.336804 -0.47527212
1.0528052 -0.4797257 0.41670242 3.3421886 0.6924347 1.1737539 1.5725595 1.2088089
1.9508573 1.3984727 0.09079712 0.37401524 1.2254051 -0.3126904 0.38673797 0.10180751
0.13294272 0.23153396 0.46887642 0.4423417 1.1251978 0.08795529 0.2231337 0.89654696
-0.5098578 0.4480365 0.08145988 -0.8850486 -0.054928347 -0.018908028 0.6016521 0.35837168
-0.08934219 0.32708544 -0.08238832 0.15834402 0.674993 1.4910382 -0.40415233 1.1710373
1.3334613 0.47078466 1.1458085 0.789823 0.9690477 1.5167137 1.1518946 1.9660628
1.2481171 1.8466766 1.0221457 2.4355414 1.1265057 1.226576 2.7142816 3.2468936
1.1388305 0.7457331 1.1021968 -0.342473 3.0744874 0.041379888 0.8754785 0.29627112
3.052839 0.32850763 -0.833631 -0.13342832 2.0871272 0.5186406 1.0411187 1.7182992
0.9227805 1.8699087 1.1289271 1.4464911 1.5079732 1.862621 0.7488837 -0.4518216
-0.057304434 2.0213141 1.0204401 2.0440028 -0.15493165 2.142239 1.6861408 1.9162021
2.465329 1.4437487 1.9948198 2.1488354 2.5066803 1.2967663 0.11542047 -0.14143156
0.54593736 1.1457404 0.1501924 0.04711377 -0.26186192 1.7274212 1.3011675 0.01551171
-0.087633796 1.337444 0.3565631 0.9310062 0.52819276 0.25578776 0.96883017 0.28580892
-0.11106255 1.3549874 0.9214302 1.1465985 -0.26201043 -0.05185136 0.20801184 -0.11797942
1.6186217 0.85658264 3.0058758 1.7705631 0.89576447 3.186785 -0.06573134 -0.18465556
0.7834224 -1.2194134 0.06235813 0.8998646 1.5693859 2.573802 0.60903734 1.3366307
0.81063235 1.737401 1.872112 1.5590196 1.1910241 0.2901542 0.297211

weight f4 [9, 175]
00000000: a4d2 873e d3a6 8a3e 67b7 8c30 ba7f e53e
00000010: 58e9 a432 e0f9 0b3f 1116 ad3e b446 e23e
00000020: af93 773f ddee 063f 2166 2b3f cca3 3e3f
00000030: 11bc 602e 69a2 ee3e f02a 9d3e 7231 2233
00000040: 8355 b33e 20c0 d63e ea42 de3e d9bc 1b3f
00000050: 9fad 18b0 8b93 3f3f 94e6 d23e b86d cfb4
00000060: 5215 803f 8280 1e3f 16b4 9d3f 3f10 963e
00000070: 97f3 2fbe 9d27 11af c185 8a3f 5b73 ea3e
00000080: 32ba 223f 043d a43f c1d0 88b0 e06c 4730
00000090: 7690 123f ed34 b73e 3500 153f 2b32 473f
000000a0: 025b a5b2 30a7 3cb2 e847 463f f476 1e3f
000000b0: a1f1 2a39 732d d03e 9829 002e a5f4 9b31
000000c0: f3d3 27b2 f6fb 6632 4543 d73e c30d ec3e
000000d0: 496b 863e 9421 243f 7d6b 003f f584 57b3
000000e0: 81cd 0a2e 8a43 2e3f a693 fc3e 802e 153f
000000f0: 0c9a 0e3f 0469 f63e 362b 412c 080e 0530
00000100: 6c79 342f af0b 163f daeb 9c3e 2ee7 2e3f
00000110: 91b5 79b9 62b2 bf3e 3b87 ba3e cfcf ec3d
00000120: 9ce7 4d3e fe9a d33e 9815 813e 302a e23e
00000130: e8f1 ad3e dc53 8d3e 2436 c93e 4e91 b63e
00000140: cab3 d131 5359 1c3e d34d fd3e 32e8 ba30
00000150: 6080 de3e a592 8c3e 8625 3037 80bd 9db0
00000160: aabc 372f 5e03 133f 6d40 c53e fe3d 003f
00000170: 8955 9732 2ec3 1a3f 4135 2c3f 9edd 2e3f
00000180: f42c f53e 6899 043f c718 0c3f ed35 693f
00000190: 3955 5a3f 0561 943f 3ff5 1a31 3230 b830
000001a0: 8435 9031 00c0 d930 541d 8e3f efe1 d33e
000001b0: 1af1 ce3e 671e 003f 3346 58b3 5940 9b31
000001c0: 6e16 423f 09a2 2f3f a53f 413f a652 1e3f
000001d0: fb14 583f b200 503e ac42 153f 2e10 f13e
000001e0: 8e76 0b3f d598 c73e 86dc cb3e e1da 7db3
000001f0: 427b af3e 0f43 dc31 963d 0d3f a635 a036
00000200: 3532 cb3e e526 133f 4997 3a3f 229d 8fae
00000210: a313 633f 4023 913e a689 67b2 8e78 1f3f
00000220: 1565 a13e 6c28 113a 6017 d337 051a 07b6
00000230: bbf5 0f3f 024f 2a3f 0584 8d3e 0e95 8233
00000240: f26f b43e ea14 683f 0089 413e fbab 5b3e
00000250: b325 e03e 5e7b f83e 8846 9e3e 7e62 c43e
00000260: 181f 2932 576d a13e 693a 8c31 4c71 5f3e
00000270: 5e9b 123f 0fbc 40b4 2387 bc3e a1f7 6e3f
00000280: c55d ea3e 8b3a 0c3f 5e43 833f e23a 4b3f
00000290: 855d 47b6 b67e 7733 8353 733b e9c9 65b8
000002a0: 2289 103f 1622 1db2 2708 8bb2 fe0a 923d
000002b0: 9f0a 5f3e 9802 473f 7e4d af3e 4822 d03e
000002c0: f8de ef3e 55f6 2d3f 2ea6 1a3f 296e af3f
000002d0: d0b9 c3b1 6704 d43e da49 5d30 2f8a 5a2f
000002e0: 20b1 84b1 f48b 47b3 aa0f 4eb0 056d 5d3f
000002f0: 8a94 d9af 2821 0d3f a75b 413f a28b 06bf
00000300: 04e6 733e 7905 00bf bc2f 5d31 2de3 3d3f
00000310: 2318 7132 27dd dcaf e332 9b3e 5aa5 a331
00000320: 5474 01b0 78c1 87af 905b 4e3e b108 2b3e
00000330: 1ab6 983f 0b3c 992e a520 cfbe a053 a4ae
00000340: 2d6b 5bae 0eb9 913f 0124 5c3f b10b 1c3e
00000350: 4032 c63e 11b2 f630 b8ec 43b2 7517 f43e
00000360: 4982 fa3e 38d7 7d30 accd a03a 2d16 283f
00000370: 447e 9331 aa55 0c3f 3e8b 063f 5300 de3e
00000380: 9feb f83e 5475 e73e fad4 d73e eef9 a13e
00000390: 2a5f 90b0 c89e 812d 20c1 0c3f 9e5f 1d3f
000003a0: 2310 92be f1ce 3d3d 4c45 e4be b635 3a2f
000003b0: 084d 1131 5f53 1c3f 0759 733f f1b4 373f
000003c0: 5ead ecae 0497 e8b8 d248 18af dd5f d23e
000003d0: ce82 75b6 d4e2 0dbe c7c0 f73d 527a 953a
000003e0: 3f7a 123f ac2f 4cb0 35ec 003f ad97 2e3f
000003f0: c0c3 22b0 60c3 1a3f 8c01 c73e b862 0a3f
0.26527894 0.27080402 1.0238467e-09 0.4482401 1.9198225e-08 0.54678154 0.33805898 0.44194567
0.9670972 0.52708226 0.6695271 0.74468684 5.109874e-11 0.46608284 0.3069682 3.7763535e-08
0.35026178 0.41943455 0.43410426 0.60835034 -5.554401e-10 0.7483451 0.41191542 -3.8636585e-07
1.0006506 0.6191484 1.2320583 0.2930927 -0.17182766 -1.3201747e-10 1.0822068 0.45791134
0.6356536 1.283112 -9.954634e-10 7.25505e-10 0.5725168 0.35782567 0.5820344 0.77810925
-1.9249914e-08 -1.0981054e-08 0.7745347 0.6190026 0.00016302477 0.40659675 2.9140773e-11 4.5389066e-09
-9.768871e-09 1.3445051e-08 0.4204351 0.4610425 0.26253727 0.64113736 0.50164014 -5.0179512e-08
3.156009e-11 0.68071806 0.49331397 0.5827408 0.55703807 0.48126996 2.7450936e-12 4.840506e-10
1.6414042e-10 0.5861158 0.3064869 0.683215 -0.00023814129 0.37440783 0.36431298 0.11563074
0.20107883 0.41329187 0.25211787 0.44172812 0.33973622 0.27603042 0.3929912 0.35657734
6.10314e-09 0.1526845 0.49473438 1.3599275e-09 0.43457317 0.2745563 1.0499154e-05 -1.1477113e-09
1.671078e-10 0.5742701 0.38525715 0.5009459 1.761761e-08 0.6045407 0.6726876 0.6830691
0.4788586 0.5179658 0.5472531 0.9109791 0.8528629 1.1592108 2.2549356e-09 1.340146e-09
4.1970356e-09 1.5843398e-09 1.11027 0.4138331 0.4041832 0.5004639 -5.0355265e-08 4.518409e-09
0.75815475 0.6860662 0.7548774 0.6184486 0.84407014 0.20312765 0.5830486 0.47082657
0.54477775 0.3898379 0.39816684 -5.9105222e-08 0.34273726 6.4104664e-09 0.551721 4.774617e-06
0.39686742 0.57481223 0.7288709 -6.5307995e-11 0.8870184 0.28347206 -1.3477267e-08 0.62293327
0.31522432 0.00055373344 2.5164045e-05 -2.0131713e-06 0.5623433 0.66526806 0.27639785 6.0807096e-08
0.35241657 0.9065691 0.18899918 0.21452324 0.43778762 0.48531622 0.30913186 0.38356394
9.844165e-09 0.31528732 4.0811767e-09 0.21820563 0.5726832 -1.7949809e-07 0.3682185 0.933466
0.45774665 0.5477683 1.0254934 0.79386723 -2.9707746e-06 5.7624412e-08 0.0037128634 -5.4785898e-05
0.5645925 -9.146353e-09 -1.6185437e-08 0.07131003 0.21781395 0.7773833 0.3423881 0.40651155
0.468498 0.67954 0.6040982 1.3705493 -5.6963714e-09 0.4140961 8.050428e-10 1.9876077e-10
-3.8618424e-09 -4.6460585e-08 -7.4964623e-10 0.86494476 -3.9577613e-10 0.5512872 0.75530475 -0.5255681
0.23818213 -0.5000835 3.2186867e-09 0.7417477 1.4033534e-08 -4.0174905e-10 0.3031226 4.7627227e-09
-4.709524e-10 -2.4693825e-10 0.20152116 0.16702534 1.1930573 6.9683e-11 -0.40454593 -7.472711e-11
-4.9890026e-11 1.1384599 0.8599244 0.15238835 0.38710213 1.7949465e-09 -1.14043175e-08 0.47674146
0.48927525 9.234671e-10 0.0012268326 0.6565884 4.292618e-09 0.54818213 0.52556217 0.43359622
0.48617265 0.45206702 0.42154676 0.31635994 -1.0504426e-09 1.4736115e-11 0.54982185 0.61474025
-0.28527936 0.046339933 -0.4458412 1.6935683e-10 2.1144064e-09 0.61064714 0.9505772 0.7176047
-1.0762834e-10 -0.00011090751 -1.385019e-10 0.41088763 -3.6583983e-06 -0.1385606 0.12097316 0.0011404252
0.5721778 -7.4282513e-10 0.50360423 0.6820019 -5.9213434e-10 0.6045437 0.38868368 0.5405688

bias f4 [175]
00000000: 0000 0000 0000 0000 0000 0000 0000 0000
00000010: 0000 0000 0000 0000 0000 0000 0000 0000
00000020: 0000 0000 0000 0000 0000 0000 0000 0000
00000030: 0000 0000 0000 0000 0000 0000 0000 0000
00000040: 0000 0000 0000 0000 0000 0000 0000 0000
00000050: 0000 0000 0000 0000 0000 0000 0000 0000
00000060: 0000 0000 0000 0000 0000 0000 0000 0000
00000070: 0000 0000 0000 0000 0000 0000 0000 0000
00000080: 0000 0000 0000 0000 0000 0000 0000 0000
00000090: 0000 0000 0000 0000 0000 0000 0000 0000
000000a0: 0000 0000 0000 0000 0000 0000 0000 0000
000000b0: 0000 0000 0000 0000 0000 0000 0000 0000
000000c0: 0000 0000 0000 0000 0000 0000 0000 0000
000000d0: 0000 0000 0000 0000 0000 0000 0000 0000
000000e0: 0000 0000 0000 0000 0000 0000 0000 0000
000000f0: 0000 0000 0000 0000 0000 0000 0000 0000
00000100: 0000 0000 0000 0000 0000 0000 0000 0000
00000110: 0000 0000 0000 0000 0000 0000 0000 0000
00000120: 0000 0000 0000 0000 0000 0000 0000 0000
00000130: 0000 0000 0000 0000 0000 0000 0000 0000
00000140: 0000 0000 0000 0000 0000 0000 0000 0000
00000150: 0000 0000 0000 0000 0000 0000 0000 0000
00000160: 0000 0000 0000 0000 0000 0000 0000 0000
00000170: 0000 0000 0000 0000 0000 0000 0000 0000
00000180: 0000 0000 0000 0000 0000 0000 0000 0000
00000190: 0000 0000 0000 0000 0000 0000 0000 0000
000001a0: 0000 0000 0000 0000 0000 0000 0000 0000
000001b0: 0000 0000 0000 0000 0000 0000 0000 0000
000001c0: 0000 0000 0000 0000 0000 0000 0000 0000
000001d0: 0000 0000 0000 0000 0000 0000 0000 0000
000001e0: 0000 0000 0000 0000 0000 0000 0000 0000
000001f0: 0000 0000 0000 0000 0000 0000 0000 0000
00000200: 0000 0000 0000 0000 0000 0000 0000 0000
00000210: 0000 0000 0000 0000 0000 0000 0000 0000
00000220: 0000 0000 0000 0000 0000 0000 0000 0000
00000230: 0000 0000 0000 0000 0000 0000 0000 0000
00000240: 0000 0000 0000 0000 0000 0000 0000 0000
00000250: 0000 0000 0000 0000 0000 0000 0000 0000
00000260: 0000 0000 0000 0000 0000 0000 0000 0000
00000270: 0000 0000 0000 0000 0000 0000 0000 0000
00000280: 0000 0000 0000 0000 0000 0000 0000 0000
00000290: 0000 0000 0000 0000 0000 0000 0000 0000
000002a0: 0000 0000 0000 0000 0000 0000 0000 0000
000002b0: 0000 0000 0000 0000 0000 0000
0.0 0.0 0.0 0.0 0.0 0.0 0.0 0.0
0.0 0.0 0.0 0.0 0.0 0.0 0.0 0.0
0.0 0.0 0.0 0.0 0.0 0.0 0.0 0.0
0.0 0.0 0.0 0.0 0.0 0.0 0.0 0.0
0.0 0.0 0.0 0.0 0.0 0.0 0.0 0.0
0.0 0.0 0.0 0.0 0.0 0.0 0.0 0.0
0.0 0.0 0.0 0.0 0.0 0.0 0.0 0.0
0.0 0.0 0.0 0.0 0.0 0.0 0.0 0.0
0.0 0.0 0.0 0.0 0.0 0.0 0.0 0.0
0.0 0.0 0.0 0.0 0.0 0.0 0.0 0.0
0.0 0.0 0.0 0.0 0.0 0.0 0.0 0.0
0.0 0.0 0.0 0.0 0.0 0.0 0.0 0.0
0.0 0.0 0.0 0.0 0.0 0.0 0.0 0.0
0.0 0.0 0.0 0.0 0.0 0.0 0.0 0.0
0.0 0.0 0.0 0.0 0.0 0.0 0.0 0.0
0.0 0.0 0.0 0.0 0.0 0.0 0.0 0.0
0.0 0.0 0.0 0.0 0.0 0.0 0.0 0.0
0.0 0.0 0.0 0.0 0.0 0.0 0.0 0.0
0.0 0.0 0.0 0.0 0.0 0.0 0.0 0.0
0.0 0.0 0.0 0.0 0.0 0.0 0.0 0.0
0.0 0.0 0.0 0.0 0.0 0.0 0.0 0.0
0.0 0.0 0.0 0.0 0.0 0.0 0.0

_ei_mask f4 [175]
00000000: 0000 803f 0000 803f 0000 803f 0000 803f
00000010: 0000 803f 0000 803f 0000 803f 0000 803f
00000020: 0000 803f 0000 803f 0000 803f 0000 803f
00000030: 0000 803f 0000 803f 0000 803f 0000 803f
00000040: 0000 803f 0000 803f 0000 803f 0000 803f
00000050: 0000 803f 0000 803f 0000 803f 0000 803f
00000060: 0000 803f 0000 803f 0000 803f 0000 803f
00000070: 0000 803f 0000 803f 0000 803f 0000 803f
00000080: 0000 803f 0000 803f 0000 803f 0000 803f
00000090: 0000 803f 0000 803f 0000 803f 0000 803f
000000a0: 0000 803f 0000 803f 0000 803f 0000 803f
000000b0: 0000 803f 0000 803f 0000 803f 0000 803f
000000c0: 0000 803f 0000 803f 0000 803f 0000 803f
000000d0: 0000 803f 0000 803f 0000 803f 0000 803f
000000e0: 0000 803f 0000 803f 0000 803f 0000 803f
000000f0: 0000 803f 0000 803f 0000 803f 0000 803f
00000100: 0000 803f 0000 803f 0000 803f 0000 803f
00000110: 0000 803f 0000 803f 0000 803f 0000 803f
00000120: 0000 803f 0000 803f 0000 803f 0000 803f
00000130: 0000 803f 0000 803f 0000 803f 0000 803f
00000140: 0000 803f 0000 803f 0000 803f 0000 803f
00000150: 0000 803f 0000 803f 0000 803f 0000 803f
00000160: 0000 803f 0000 803f 0000 803f 0000 803f
00000170: 0000 803f 0000 803f 0000 803f 0000 803f
00000180: 0000 803f 0000 803f 0000 803f 0000 803f
00000190: 0000 803f 0000 803f 0000 803f 0000 803f
000001a0: 0000 803f 0000 803f 0000 803f 0000 803f
000001b0: 0000 803f 0000 803f 0000 803f 0000 803f
000001c0: 0000 803f 0000 803f 0000 803f 0000 803f
000001d0: 0000 803f 0000 803f 0000 803f 0000 803f
000001e0: 0000 803f 0000 803f 0000 803f 0000 803f
000001f0: 0000 803f 0000 803f 0000 803f 0000 803f
00000200: 0000 803f 0000 803f 0000 803f 0000 803f
00000210: 0000 803f 0000 803f 0000 803f 0000 803f
00000220: 0000 803f 0000 803f 0000 803f 0000 803f
00000230: 0000 803f 0000 803f 0000 803f 0000 803f
00000240: 0000 803f 0000 803f 0000 803f 0000 803f
00000250: 0000 803f 0000 803f 0000 803f 0000 803f
00000260: 0000 803f 0000 803f 0000 803f 0000 803f
00000270: 0000 803f 0000 803f 0000 803f 0000 803f
00000280: 0000 803f 0000 803f 0000 803f 0000 803f
00000290: 0000 803f 0000 803f 0000 803f 0000 803f
000002a0: 0000 803f 0000 803f 0000 803f 0000 803f
000002b0: 0000 803f 0000 803f 0000 803f
1.0 1.0 1.0 1.0 1.0 1.0 1.0 1.0
1.0 1.0 1.0 1.0 1.0 1.0 1.0 1.0
1.0 1.0 1.0 1.0 1.0 1.0 1.0 1.0
1.0 1.0 1.0 1.0 1.0 1.0 1.0 1.0
1.0 1.0 1.0 1.0 1.0 1.0 1.0 1.0
1.0 1.0 1.0 1.0 1.0 1.0 1.0 1.0
1.0 1.0 1.0 1.0 1.0 1.0 1.0 1.0
1.0 1.0 1.0 1.0 1.0 1.0 1.0 1.0
1.0 1.0 1.0 1.0 1.0 1.0 1.0 1.0
1.0 1.0 1.0 1.0 1.0 1.0 1.0 1.0
1.0 1.0 1.0 1.0 1.0 1.0 1.0 1.0
1.0 1.0 1.0 1.0 1.0 1.0 1.0 1.0
1.0 1.0 1.0 1.0 1.0 1.0 1.0 1.0
1.0 1.0 1.0 1.0 1.0 1.0 1.0 1.0
1.0 1.0 1.0 1.0 1.0 1.0 1.0 1.0
1.0 1.0 1.0 1.0 1.0 1.0 1.0 1.0
1.0 1.0 1.0 1.0 1.0 1.0 1.0 1.0
1.0 1.0 1.0 1.0 1.0 1.0 1.0 1.0
1.0 1.0 1.0 1.0 1.0 1.0 1.0 1.0
1.0 1.0 1.0 1.0 1.0 1.0 1.0 1.0
1.0 1.0 1.0 1.0 1.0 1.0 1.0 1.0
1.0 1.0 1.0 1.0 1.0 1.0 1.0

weight f4 [2, 175]
00000000: 8bda bd3f b064 0840 f40b 2d3f 17b0 ae3f
00000010: b29b a13f 8210 0540 2192 1040 d730 7c40
00000020: 9a40 473f e016 6c40 ae52 7f3f 9fd2 cb3f
00000030: 5898 ddbe 9ae4 313f f36a a73e 221f d33f
00000040: c494 023f f135 863e f8db f73e 1aff 3440
00000050: b235 9f3e 9cab 453f dc71 c43f 05f8 3c3f
00000060: b2d1 8b40 0d77 8640 a51d 053f 4d63 543f
00000070: 9df9 123f d37d 0140 3ded b53f ebe3 113e
00000080: 8e2f 403f 4b98 e03f f239 d73e ec92 3c40
00000090: ab45 673e 3a89 3b3f 7d5a bf3f 9cfd 793f
000000a0: 98d4 0240 f379 dd3f 9b2a 1f3f ae08 99be
000000b0: fdea 813f f598 973e d43e 283e 8529 2f3f
000000c0: f4fd b63e e6e8 9c3f 11ba 063e eb4f 0d3e
000000d0: 4c4f 6b3f 6bb7 393f 8331 a63e 0972 b8bd
000000e0: c08b 1e3f 80a8 553f 8212 1f3f 4da6 b13f
000000f0: 6eff b63e 8c21 b83e c1f9 533f 346b c33e
00000100: cdcb d53e c227 1f3f 75a7 1d3f 75e9 c33d
00000110: d040 3d3e 6f7d cf3f 1946 db3e 4df4 b23f
00000120: cb57 ce3f ba62 5e3e f833 863f 02af 053f
00000130: bc7e 313f 7cb8 a13f b6ff ab3e 0899 d63f
00000140: f28b b23f 57a9 f83f 2407 1d3f 266e 0d40
00000150: 67c7 c73e aafd 9f3f 5533 3e40 3170 7740
00000160: f7b9 7d3d 9a19 9d3f 8e4a d23f d0b9 8d3f
00000170: b7fa e43f f412 383f ed5e 863f 602f a73e
00000180: 3e92 1740 deac cf3e c341 a13f 01ef 243f
00000190: cfbc 8e3f d42f e43e 7061 2b3f f290 973f
000001a0: 47e7 e13e 3856 3a3f 5b7d 833f 5a2f eb3f
000001b0: c632 ab3e f8d6 1440 89a5 d43e 0ae4 933f
000001c0: 2db9 d83e 6f39 0540 efa1 243f 2e9a 0740
000001d0: a922 403f 9f3e a13f 03cd 0040 6dc0 ce3f
000001e0: c70e 3940 7038 d53f c7d8 9d3f 3ce7 0640
000001f0: 667e 4b40 bbc3 a33f 78c0 a53e 6dc4 d33e
00000200: 7a2e 7e3d 8f3a 303f ede4 ce3e 4144 ce3e
00000210: c306 223f 90df c33f d245 1f3f db7f 0c3f
00000220: c3bb 803f 242a 9c3f 6cce 333f 7c7d 743f
00000230: 74e2 5b3f 8c1f 0e3f ca7c 0240 3050 b33f
00000240: 9975 af3e 6974 373f 0617 383f 4650 0abd
00000250: b010 de3e f850 ed3e 4a21 fa3d 6b17 ab3e
00000260: efae e53f c6dc ef3e 0a5f 3540 2076 fb3f
00000270: a267 5b3f 4e9b 2d40 d3b0 583f f3f7 65be
00000280: 68c2 b53f 99b7 323f 557a a63f 2212 613f
00000290: ee70 bf3f 94d0 0f40 fc55 d8be 7540 c83f
000002a0: ee7e 93be 5149 ff3f d3a1 763f e7a4 c83f
000002b0: 988b d23f 5b54 59be 18de d33e 994e 03bf
000002c0: 9c38 1c40 5728 073f b836 343f 849d 94bd
000002d0: e179 0640 69aa db3f 2510 2b40 75d7 d9bc
000002e0: f784 0c40 14cb b93f a97b 923f 0c49 503f
000002f0: ca14 0d3e 48db cd3d c9a1 ac3f 1bfd cb3d
00000300: e434 873e 9ccf d43d fb7b 0f40 69da 1bbc
00000310: f58c 8c3f 2c41 b03f 3124 163f f539 983f
00000320: d0f3 2440 ee32 cf3e 4070 e73f ee41 c63f
00000330: 4660 1d40 248b 243f 7cef b13d d319 4b3f
00000340: 8381 0a3f 5e48 eabd d576 1d40 54d5 8a3e
00000350: 525a 713f a2ce 273f fc7a 843f 3dca 0e3f
00000360: e68a 933f ee45 03be 9188 243f 5af4 a43e
00000370: 1bab ab3f 9ead 6d3e 81b5 f53e 14bf 013c
00000380: 9b84 b3bd aef8 2dbf 5d56 22bf 003c 613e
00000390: 9d0c 7d3e 5ae6 6a3d e929 903f a603 103f
000003a0: 4aa5 253f ba9b 833d da48 edbe ff68 f63d
000003b0: 84f4 a03e 94ea 1b3e 7c07 a43f 2880 3c3f
000003c0: 8d33 083f fd54 753f a4ff 0c3f 071c bd3d
000003d0: 6b95 993f b1ff 123f c501 a13f 6b3f ba3f
000003e0: 5616 053f 6df0 763f a2a5 193f f944 513f
000003f0: fb19 983f be47 313e 0d83 643f 391c 973f
1.4832319 2.1311455 0.67596364 1.3647488 1.262564 2.0791326 2.258919 3.940481
0.7783295 3.6888962 0.99735534 1.5923651 -0.43280292 0.69489443 0.32698783 1.6493876
0.5100825 0.2621303 0.4841001 2.8280702 0.31095654 0.7721498 1.5347247 0.7381595
4.3693476 4.2020326 0.5199836 0.8296402 0.5741213 2.0233047 1.4213024 0.142471
0.7507256 1.7546476 0.42036396 2.9464674 0.2258517 0.73256266 1.494949 0.976526
2.0442257 1.7302841 0.62174386 -0.29889435 1.0149838 0.29608884 0.16430217 0.6842273
0.35740626 1.2258575 0.13156916 0.13800018 0.9191787 0.725455 0.3245965 -0.090061255
0.6193199 0.83460236 0.62137616 1.3878876 0.35741752 0.35963094 0.8280297 0.38167727
0.4175705 0.6217004 0.61583644 0.09566013 0.18481755 1.6210154 0.42826918 1.3980805
1.6120542 0.21717349 1.048461 0.52220166 0.69334006 1.2634425 0.3359353 1.6765451
1.3948958 1.9426678 0.6133902 2.209848 0.3901932 1.2499287 2.971883 3.8662226
0.061944928 1.2273438 1.6429002 1.107233 1.7889012 0.7190392 1.0497719 0.32653332
2.368301 0.40561575 1.2598194 0.6442719 1.115137 0.4456774 0.6694555 1.1841109
0.44121763 0.7278781 1.027263 1.8373826 0.33437175 2.3256207 0.41532543 1.1553967
0.42328778 2.0816305 0.6430959 2.1187854 0.7505289 1.2597235 2.012513 1.6152474
2.891527 1.6657848 1.233178 2.1078634 3.1795897 1.2794107 0.32373405 0.41360798
0.062056042 0.68839353 0.40409032 0.4028645 0.6329157 1.5302601 0.6221591 0.5488259
1.00573 1.220036 0.7023685 0.95503974 0.85892415 0.55516887 2.0388665 1.4008846
0.34269407 0.71662 0.7191013 -0.03376796 0.43372107 0.46350837 0.12213381 0.33416304
1.794401 0.46848124 2.8339257 1.9645424 0.85705006 2.712604 0.8464481 -0.22457866
1.4199953 0.698114 1.3006083 0.87918293 1.4956338 2.2471056 -0.422531 1.5644671
-0.28807777 1.9944249 0.96340674 1.5675324 1.6448851 -0.21223585 0.41380382 -0.51291806
2.4409552 0.5279593 0.70395994 -0.07256606 2.101189 1.716138 2.6728604 -0.026591996
2.1956155 1.45151 1.1443988 0.8136146 0.13777462 0.1005159 1.3486873 0.099603854
0.2640754 0.10391161 2.2419422 -0.009512522 1.0980517 1.3769889 0.58648974 1.1892687
2.5773811 0.40468544 1.8081131 1.548887 2.459001 0.6427481 0.08688256 0.7933628
0.5410387 -0.11439584 2.460378 0.2711588 0.9427844 0.6554967 1.0350032 0.5577734
1.1526763 -0.12819645 0.64270884 0.32217675 1.3411592 0.23210761 0.4799004 0.007919092
-0.08765527 -0.6795758 -0.6341303 0.21995544 0.24711843 0.057348587 1.126279 0.5625557
0.64705336 0.06426187 -0.46344644 0.12031745 0.3143655 0.15226203 1.2814784 0.7363305
0.5320366 0.95832807 0.55077577 0.092338614 1.1998724 0.57421404 1.2578665 1.4550604
0.51987207 0.9646061 0.6001836 0.8174587 1.1882929 0.17312524 0.8926247 1.1805488

bias f4 [175]
00000000: 0000 0000 0000 0000 0000 0000 0000 0000
00000010: 0000 0000 0000 0000 0000 0000 0000 0000
00000020: 0000 0000 0000 0000 0000 0000 0000 0000
00000030: 0000 0000 0000 0000 0000 0000 0000 0000
00000040: 0000 0000 0000 0000 0000 0000 0000 0000
00000050: 0000 0000 0000 0000 0000 0000 0000 0000
00000060: 0000 0000 0000 0000 0000 0000 0000 0000
00000070: 0000 0000 0000 0000 0000 0000 0000 0000
00000080: 0000 0000 0000 0000 0000 0000 0000 0000
00000090: 0000 0000 0000 0000 0000 0000 0000 0000
000000a0: 0000 0000 0000 0000 0000 0000 0000 0000
000000b0: 0000 0000 0000 0000 0000 0000 0000 0000
000000c0: 0000 0000 0000 0000 0000 0000 0000 0000
000000d0: 0000 0000 0000 0000 0000 0000 0000 0000
000000e0: 0000 0000 0000 0000 0000 0000 0000 0000
000000f0: 0000 0000 0000 0000 0000 0000 0000 0000
00000100: 0000 0000 0000 0000 0000 0000 0000 0000
00000110: 0000 0000 0000 0000 0000 0000 0000 0000
00000120: 0000 0000 0000 0000 0000 0000 0000 0000
00000130: 0000 0000 0000 0000 0000 0000 0000 0000
00000140: 0000 0000 0000 0000 0000 0000 0000 0000
00000150: 0000 0000 0000 0000 0000 0000 0000 0000
00000160: 0000 0000 0000 0000 0000 0000 0000 0000
00000170: 0000 0000 0000 0000 0000 0000 0000 0000
00000180: 0000 0000 0000 0000 0000 0000 0000 0000
00000190: 0000 0000 0000 0000 0000 0000 0000 0000
000001a0: 0000 0000 0000 0000 0000 0000 0000 0000
000001b0: 0000 0000 0000 0000 0000 0000 0000 0000
000001c0: 0000 0000 0000 0000 0000 0000 0000 0000
000001d0: 0000 0000 0000 0000 0000 0000 0000 0000
000001e0: 0000 0000 0000 0000 0000 0000 0000 0000
000001f0: 0000 0000 0000 0000 0000 0000 0000 0000
00000200: 0000 0000 0000 0000 0000 0000 0000 0000
00000210: 0000 0000 0000 0000 0000 0000 0000 0000
00000220: 0000 0000 0000 0000 0000 0000 0000 0000
00000230: 0000 0000 0000 0000 0000 0000 0000 0000
00000240: 0000 0000 0000 0000 0000 0000 0000 0000
00000250: 0000 0000 0000 0000 0000 0000 0000 0000
00000260: 0000 0000 0000 0000 0000 0000 0000 0000
00000270: 0000 0000 0000 0000 0000 0000 0000 0000
00000280: 0000 0000 0000 0000 0000 0000 0000 0000
00000290: 0000 0000 0000 0000 0000 0000 0000 0000
000002a0: 0000 0000 0000 0000 0000 0000 0000 0000
000002b0: 0000 0000 0000 0000 0000 0000
0.0 0.0 0.0 0.0 0.0 0.0 0.0 0.0
0.0 0.0 0.0 0.0 0.0 0.0 0.0 0.0
0.0 0.0 0.0 0.0 0.0 0.0 0.0 0.0
0.0 0.0 0.0 0.0 0.0 0.0 0.0 0.0
0.0 0.0 0.0 0.0 0.0 0.0 0.0 0.0
0.0 0.0 0.0 0.0 0.0 0.0 0.0 0.0
0.0 0.0 0.0 0.0 0.0 0.0 0.0 0.0
0.0 0.0 0.0 0.0 0.0 0.0 0.0 0.0
0.0 0.0 0.0 0.0 0.0 0.0 0.0 0.0
0.0 0.0 0.0 0.0 0.0 0.0 0.0 0.0
0.0 0.0 0.0 0.0 0.0 0.0 0.0 0.0
0.0 0.0 0.0 0.0 0.0 0.0 0.0 0.0
0.0 0.0 0.0 0.0 0.0 0.0 0.0 0.0
0.0 0.0 0.0 0.0 0.0 0.0 0.0 0.0
0.0 0.0 0.0 0.0 0.0 0.0 0.0 0.0
0.0 0.0 0.0 0.0 0.0 0.0 0.0 0.0
0.0 0.0 0.0 0.0 0.0 0.0 0.0 0.0
0.0 0.0 0.0 0.0 0.0 0.0 0.0 0.0
0.0 0.0 0.0 0.0 0.0 0.0 0.0 0.0
0.0 0.0 0.0 0.0 0.0 0.0 0.0 0.0
0.0 0.0 0.0 0.0 0.0 0.0 0.0 0.0
0.0 0.0 0.0 0.0 0.0 0.0 0.0

_ei_mask f4 [175]
00000000: 0000 803f 0000 803f 0000 803f 0000 803f
00000010: 0000 803f 0000 803f 0000 803f 0000 803f
00000020: 0000 803f 0000 803f 0000 803f 0000 803f
00000030: 0000 803f 0000 803f 0000 803f 0000 803f
00000040: 0000 803f 0000 803f 0000 803f 0000 803f
00000050: 0000 803f 0000 803f 0000 803f 0000 803f
00000060: 0000 803f 0000 803f 0000 803f 0000 803f
00000070: 0000 803f 0000 803f 0000 803f 0000 803f
00000080: 0000 803f 0000 803f 0000 803f 0000 803f
00000090: 0000 803f 0000 803f 0000 803f 0000 803f
000000a0: 0000 803f 0000 803f 0000 803f 0000 803f
000000b0: 0000 803f 0000 803f 0000 803f 0000 803f
000000c0: 0000 803f 0000 803f 0000 803f 0000 803f
000000d0: 0000 803f 0000 803f 0000 803f 0000 803f
000000e0: 0000 803f 0000 803f 0000 803f 0000 803f
000000f0: 0000 803f 0000 803f 0000 803f 0000 803f
00000100: 0000 803f 0000 803f 0000 803f 0000 803f
00000110: 0000 803f 0000 803f 0000 803f 0000 803f
00000120: 0000 803f 0000 803f 0000 803f 0000 803f
00000130: 0000 803f 0000 803f 0000 803f 0000 803f
00000140: 0000 803f 0000 803f 0000 803f 0000 803f
00000150: 0000 803f 0000 803f 0000 803f 0000 803f
00000160: 0000 803f 0000 803f 0000 803f 0000 803f
00000170: 0000 803f 0000 803f 0000 803f 0000 803f
00000180: 0000 803f 0000 803f 0000 803f 0000 803f
00000190: 0000 803f 0000 803f 0000 803f 0000 803f
000001a0: 0000 803f 0000 803f 0000 803f 0000 803f
000001b0: 0000 803f 0000 803f 0000 803f 0000 803f
000001c0: 0000 803f 0000 803f 0000 803f 0000 803f
000001d0: 0000 803f 0000 803f 0000 803f 0000 803f
000001e0: 0000 803f 0000 803f 0000 803f 0000 803f
000001f0: 0000 803f 0000 803f 0000 803f 0000 803f
00000200: 0000 803f 0000 803f 0000 803f 0000 803f
00000210: 0000 803f 0000 803f 0000 803f 0000 803f
00000220: 0000 803f 0000 803f 0000 803f 0000 803f
00000230: 0000 803f 0000 803f 0000 803f 0000 803f
00000240: 0000 803f 0000 803f 0000 803f 0000 803f
00000250: 0000 803f 0000 803f 0000 803f 0000 803f
00000260: 0000 803f 0000 803f 0000 803f 0000 803f
00000270: 0000 803f 0000 803f 0000 803f 0000 803f
00000280: 0000 803f 0000 803f 0000 803f 0000 803f
00000290: 0000 803f 0000 803f 0000 803f 0000 803f
000002a0: 0000 803f 0000 803f 0000 803f 0000 803f
000002b0: 0000 803f 0000 803f 0000 803f
1.0 1.0 1.0 1.0 1.0 1.0 1.0 1.0
1.0 1.0 1.0 1.0 1.0 1.0 1.0 1.0
1.0 1.0 1.0 1.0 1.0 1.0 1.0 1.0
1.0 1.0 1.0 1.0 1.0 1.0 1.0 1.0
1.0 1.0 1.0 1.0 1.0 1.0 1.0 1.0
1.0 1.0 1.0 1.0 1.0 1.0 1.0 1.0
1.0 1.0 1.0 1.0 1.0 1.0 1.0 1.0
1.0 1.0 1.0 1.0 1.0 1.0 1.0 1.0
1.0 1.0 1.0 1.0 1.0 1.0 1.0 1.0
1.0 1.0 1.0 1.0 1.0 1.0 1.0 1.0
1.0 1.0 1.0 1.0 1.0 1.0 1.0 1.0
1.0 1.0 1.0 1.0 1.0 1.0 1.0 1.0
1.0 1.0 1.0 1.0 1.0 1.0 1.0 1.0
1.0 1.0 1.0 1.0 1.0 1.0 1.0 1.0
1.0 1.0 1.0 1.0 1.0 1.0 1.0 1.0
1.0 1.0 1.0 1.0 1.0 1.0 1.0 1.0
1.0 1.0 1.0 1.0 1.0 1.0 1.0 1.0
1.0 1.0 1.0 1.0 1.0 1.0 1.0 1.0
1.0 1.0 1.0 1.0 1.0 1.0 1.0 1.0
1.0 1.0 1.0 1.0 1.0 1.0 1.0 1.0
1.0 1.0 1.0 1.0 1.0 1.0 1.0 1.0
1.0 1.0 1.0 1.0 1.0 1.0 1.0

weight f4 [403, 3]
00000000: 0cb7 68bf e91e ab3f 7f2e 3040 c51d a4bf
00000010: 5a31 d53f 2445 7640 8d0d adbf c439 a03f
00000020: 68c2 8f40 9252 b7bf 3330 a43f 0a21 8c40
00000030: 299b 9ebf 6119 9f3f d885 8b40 7b64 a1bf
00000040: dffb a43f 2b1e 8f40 304c d7bf 8709 9f3f
00000050: ff6f 9440 6090 dfbf 9504 6e3f 9cc0 9340
00000060: 9332 3bbf e30f 9f3f 1eaa 3840 ad42 4f3f
00000070: f76d 853f 5da5 ebbe 8589 cb3f ccff 703f
00000080: 2f82 a7bf 2aec 8f3f beec cc3f 5709 7cbf
00000090: 5b50 a33e 1c4a 573f 6994 74be 162a e53e
000000a0: 5d7b 5c3f dbd5 e8bd 4894 adbd 9715 853f
000000b0: e3f4 2d3e 55e3 9fbe 84c3 c33f 11b5 933f
000000c0: 26c6 d03e d855 9c3f cf8c 22bd bc42 e83e
000000d0: 337a 2e3f 87f8 383e 7bbc 063f e74e ef3f
000000e0: 20bc a73e a9e8 123e 7037 0240 9780 093e
000000f0: 8ed2 543e c3cd d73f 757c 8a3c bd72 443f
00000100: c66e af3f e409 e03e db10 acbd 4287 8f3f
00000110: 086f 0840 bebe 1cbf ffbc 7a3f abe0 5340
00000120: 948e 29bf 528b 613f 73eb 5740 0ed3 64be
00000130: a9ad 4c3f 9e6d 3740 bd35 d33d d445 8b3e
00000140: 9e20 0040 7eac d63e 71aa 113f 8ba2 a83f
00000150: e862 663f ebc0 083f 8534 373f 6430 0cbd
00000160: 154f 2f3f 53a2 dd3f 3635 48be 1e5e fa3e
00000170: f5db 1240 c49e 763e b852 cc3e 419f da3f
00000180: 38a8 993f c401 e53f adfb b23e b0eb 783f
00000190: 1cb9 253f 8105 563e ab5c 973f 80e5 023e
000001a0: b2ea 7d3f 6b9c b33f 09b3 203f 7b27 083f
000001b0: c7ee 813f 4688 113f 1e24 803e e547 893f
000001c0: 479b 5b3e 3045 313f 76ba 8d3f a5d1 2f3e
000001d0: 78fb 783f 62be a33f d232 6b3e 3286 6fbe
000001e0: b91d 9b3f 366c 103e 7d61 883e 019d b63f
000001f0: 881f 0a3e f7e3 173e 4ec6 8c3f a21b 313e
00000200: 9a63 c13e 8f88 cb3f 76f6 873e 3a0c e43e
00000210: f07d bb3f afe1 56bc 3114 66be 0298 963f
00000220: 7120 5b3e 8f74 e33e dc41 8d3f 6029 de3d
00000230: 1176 103f f6be 6b3f 415a 773e 4819 573f
00000240: befb 823f 9f1d 6abc d5e7 483f 2d5b dd3e
00000250: f96e 5dbd ea9e f63f 6eae b0be 3c1b 693f
00000260: d11d 3840 7bd1 53be a9f9 673f a97d 3840
00000270: 4c00 70be 7efc 663e ae6f 1940 5b2e 10be
00000280: b807 423f 49c5 0140 b001 81be c445 d63f
00000290: 7e49 ca3f a627 c03d 9e25 2b3f fc31 e53f
000002a0: 7a12 74be d739 643f 8659 0e40 e4f8 6ebf
000002b0: ad1e 0640 1f5b d13f da1e 48bf 6591 f63f
000002c0: f51a 713f ff21 cabe b6bb 0c40 69d8 b23f
000002d0: 56f2 9fbf 7a6c d23f be95 1d40 1f5c 85bf
000002e0: cddf 9b3f 681f 5640 b6be a6bf 5833 e53f
000002f0: 890b 6c40 8c99 bcbf 928f c53f f27f 7940
00000300: 9a9c bdbf db0e b03f f648 7e40 0ce2 bebf
00000310: 633a ca3f 8f86 7940 4de7 a9bf ccbf d63f
00000320: e0c7 6f40 7afd 95bf b71f 853f a8b8 7540
00000330: 7157 72bf 56f7 813f 1af9 5440 6b60 1dbf
00000340: 37d8 7a3f 5b3f 1a40 69bf aa3e 6fc8 d83f
00000350: 28de 853f adcf 9a3d ad4c 7d3f 8f74 413f
00000360: c8d4 d6bd cb2b 323f 4960 893f b08e bd3e
00000370: 22cb 513f 8926 cf3f fd9b 5e3c 3d09 213f
00000380: a21c 1440 1478 2ebe 1092 bb3e f28a 1540
00000390: 60c0 71be 9764 bd3e b925 2240 f73d 7bbe
000003a0: 17f6 103f 6dbd 0940 81a8 d73e 7b04 a23f
000003b0: 07e3 af3f 9fb3 163f 6241 803f 92f5 733f
000003c0: 27fd 09bd fb0a 4e3f 70eb 7d3f 1123 183f
000003d0: afcd 823f 8918 ac3f cd8d 173f 5eac 3d3f
000003e0: bc8e 703f bef0 623f 3203 743f 342e 353f
000003f0: 6725 b93f 7e0d 4b3f ca2d ee3e 5692 373f
-0.9090431 1.3368808 2.752838 -1.2821585 1.6655686 3.84797 -1.351976 1.2517629
4.492481 -1.4322073 1.2827209 4.379033 -1.2391101 1.242962 4.3600883 -1.2608789
1.2889365 4.4724326 -1.6820126 1.2424783 4.6386714 -1.7465935 0.9297574 4.617262
-0.73124045 1.2426723 2.8853831 0.80961114 1.0424184 -0.460246 1.5901343 0.94140315
-1.3086604 1.1243947 1.6009748 -0.9845175 0.31897244 0.84097457 -0.23884739 0.44758672
0.8612574 -0.11368915 -0.08475548 1.0397214 0.16987948 -0.31228128 1.5294042 1.1539632
0.40776175 1.2213697 -0.039685067 0.45363414 0.6815521 0.18063556 0.5263135 1.8695954
0.32760715 0.14346565 2.0346336 0.1342796 0.20783445 1.6859668 0.016905049 0.76737577
1.370568 0.43757546 -0.084016524 1.1213152 2.1317768 -0.6122855 0.97944635 3.3105876
-0.6623318 0.8810321 3.3737457 -0.22346136 0.79952484 2.8660655 0.10312984 0.27201712
2.0019908 0.41928476 0.569007 1.3174604 0.8999467 0.5341937 0.71564513 -0.034225836
0.68480045 1.7315162 -0.19551548 0.4889993 2.294675 0.24084002 0.3990686 1.707985
1.2004461 1.7891164 0.34957638 0.9723463 0.6473558 0.20900537 1.1825155 0.1278286
0.9918624 1.403211 0.62773186 0.5318524 1.0150994 0.5684856 0.25027555 1.0725065
0.21445952 0.69246197 1.1072528 0.17169817 0.9725871 1.2792475 0.22968605 -0.23391035
1.2118446 0.14103779 0.26636878 1.4266664 0.1348859 0.14833055 1.0998018 0.17295697
0.37771302 1.5901049 0.26555222 0.44540578 1.4647808 -0.013115331 -0.2246864 1.1765139
0.21399094 0.44424865 1.1035724 0.108477354 0.56430155 0.9208826 0.24155523 0.8402295
1.0233076 -0.014289289 0.7847875 0.43233624 -0.05406091 1.9267247 -0.3450808 0.9105718
2.8768198 -0.20685379 0.90615326 2.8826697 -0.23437613 0.22557256 2.3974414 -0.14080183
0.7579303 2.0276663 -0.251966 1.6740041 1.5803678 0.09382562 0.66854274 1.7905879
-0.23835173 0.89150757 2.224214 -0.93348527 2.0956223 1.6355933 -0.78172076 1.9263121
0.9418176 -0.39479062 2.198957 1.3972293 -1.249583 1.6439354 2.4622645 -1.0418738
1.2177674 3.345667 -1.302695 1.7906294 3.688204 -1.4734359 1.5434439 3.8984342
-1.4813416 1.3754534 3.9732032 -1.4912734 1.5799068 3.8988378 -1.3273712 1.6777282
3.7465744 -1.171798 1.0400304 3.8393955 -0.94664675 1.0153606 3.327704 -0.6147525
0.9798617 2.410117 0.3334916 1.6936167 1.0458422 0.07559142 0.9894512 0.7556848
-0.104898036 0.6959807 1.0732509 0.37022924 0.8195058 1.6183635 0.013586995 0.6290472
2.3142476 -0.17037994 0.36634874 2.3366055 -0.23608541 0.36990806 2.5335524 -0.24535356
0.56625503 2.1521866 0.42120746 1.2657617 1.3741158 0.5886783 1.0019953 0.95296586
-0.03368869 0.80485505 0.99187374 0.5942851 1.021902 1.3444988 0.59200746 0.74091136
0.93967795 0.88648593 0.95317376 0.70773625 1.4464539 0.7931746 0.4651931 0.71707666

bias f4 [3]
00000000: 0000 0000 0000 0000 0000 0000
0.0 0.0 0.0

_ei_mask f4 [3]
00000000: 0000 803f 0000 803f 0000 803f
1.0 1.0 1.0

rmat f4 [1, 1, 3]
00000000: 0000 80bf 0000 0040 0000 80bf
-1.0 2.0 -1.0

weight f4 [3, 175]
00000000: 5ee2 483e 0a6a 593e d9be 723f a97d ccbe
00000010: edab d73e d21d bb3e 7d74 623e 8eb6 1d3f
00000020: 4138 3c3f 4bcc ba3e 4cc4 963e a559 fdbc
00000030: 0eb7 8a3f e4a1 0d3f 6551 62bf 70af dc3e
00000040: 2157 68bf 645a ee3c fe26 59bf 3e26 383f
00000050: ba56 b53e c8e9 8e3e 15a9 103f a86c e53e
00000060: 2266 213f 1536 133f 5b28 103f a616 0e3f
00000070: 1a85 183f 4761 153f 4097 e93e ceb2 193f
00000080: 22fc 023f 68e5 193f 5ba3 f53e 78bd ed3e
00000090: 4636 113e 9e23 53bf dbca 243f 86ba 273f
000000a0: 8871 3a3f a843 613f fab6 dc3e d441 1fbe
000000b0: 5441 363f 849f bd3e 48b8 ec3e 90ae 30be
000000c0: 3d01 1c3f 04e8 cb3e 57d0 643f 3e9b 603f
000000d0: 18e5 bebe 3f18 ec3e d1e1 023d c38f 0a3f
000000e0: 06e6 033f cf24 f3bd 484d 8cbe 46fe 623e
000000f0: dd21 373e 2544 103f a9b1 8e3e 012a 1e3f
00000100: 9c9a d93e 7f3f b43e ea74 a4bb 831b 143f
00000110: 9b67 243f 0387 ea3e b2d5 1bbe 788a 45bd
00000120: ef70 fc3d 7c5e 66be d386 d3bc f1f9 b6be
00000130: 83ca c0be e0f3 303e f4b3 84be 4d58 b83b
00000140: dbd4 74be 8892 42be 1371 88bf 105a 0a3f
00000150: 6451 42be 88d1 f73d c812 f23e b91f 033f
00000160: d604 e53e 27d3 ce3e a4e9 e0be b935 0dbf
00000170: a06d d13e 8b4c 08bf cbd6 a73e dbb7 003f
00000180: 296b 383f 2793 073f f55f 843d 2716 123f
00000190: 8d66 123f 4d11 133f 2894 e53e b3a2 ef3e
000001a0: 046b b03e e181 093f 5bc1 103f 2e5a 833e
000001b0: 1f46 b73e 908c 363f a16c 073e 3d21 043f
000001c0: 3d48 023f f7c9 013f ea57 bd3e d0a5 223f
000001d0: 3b6f 173f 707f 3c3f 9c59 183f de86 6b3f
000001e0: 6d11 193f a834 8e3f 6eda fc3e 7ca9 9c3e
000001f0: 9e48 253f f334 063f 4f0b 2a3e 2414 813e
00000200: 7144 893f bf63 0a3f 2245 f63e 0e08 253f
00000210: d65d 323f eb4a 543f 8f32 1e3f ec4b 1d3e
00000220: 3d92 49be 8a94 f13e c283 ab3e 9149 05bd
00000230: 6745 d73e d65d 073f 82ef 1e3f 6fbc 133f
00000240: 5d60 793d 2988 f83e ce2e 7b3f 98df 0c3f
00000250: dff5 993f d30f 5d3e 7fe5 043f 77cc debe
00000260: 5eb2 cb3e a926 0c3f b765 b4be 9b91 df3e
00000270: ceec 883e 8fb3 413d 2518 d53e 35fd 383f
00000280: acee f13e 4d3c e43e eb50 233f 7c67 f83e
00000290: 5638 c2ba 6504 f43e 59fe a73f 1d0f abbd
000002a0: ef19 333f fa8c e23e a560 d53e cda9 573e
000002b0: 6431 aa3e 32ee 0b3f a3b5 40be 738d 25bf
000002c0: 0d9d 8b3f 5e2d 0abd 4c14 d5be 264b 7e3e
000002d0: 7880 0a3e a756 a43f b745 ee3e 8f32 a23e
000002e0: 640a 803f a7ea e43e 2fbc 483f 8097 d33e
000002f0: 17fa a63e 4d58 803f aeef 703f 97f6 6d3f
00000300: 472a 8abf d9fb 423f 8006 263f 73be f3be
00000310: 8239 553d ed6d 86be 686b 373e a8dc 053e
00000320: 8f17 2a3f 0207 c03e d05d 2c3c 3d92 1c3e
00000330: 9ff9 aa3e af8f 5abd 739a ba3f c5ed 1e3f
00000340: 3688 ca3e d78e 07be d3e0 193f af71 58bf
00000350: 3833 ec3e 3395 503f fc27 833e c112 173f
00000360: 5e17 bbbe c6bf c5bd 8063 0c3f 81ea 363f
00000370: 733f 4d3f 7120 8fbe f78f c13e 0e6a 813f
00000380: d306 5b3f 1acd c63e e92d 0a3f c003 4e3f
00000390: a27f 48be 9633 bebe 0e62 2d3f 1f95 7abe
000003a0: 3ad8 713f fb11 c4be 3302 a73f 4e88 c9bf
000003b0: 8659 bebe daf9 6fbd 0cd6 5fbe a6d0 963e
000003c0: 0b82 663e 77ee 553e 9ea6 a53e 7ff6 10bf
000003d0: 6977 343e 29cc f6bd 64d8 4a3e 11cc 88bd
000003e0: d1ba 923f 692f 683e 2a3e 713f 1358 743f
000003f0: 4e31 c9bd 383a 883f 21d0 913f b56f 013f
0.19617602 0.21231857 0.9482246 -0.3993962 0.42123356 0.3654619 0.22114749 0.6160668
0.73523337 0.36483988 0.29446638 -0.030926535 1.0837114 0.5532515 -0.8840545 0.43102598
-0.9075795 0.029095836 -0.8482512 0.7193335 0.3541773 0.27912736 0.56508 0.4480946
0.6304647 0.575044 0.5631158 0.5550331 0.59578097 0.5835156 0.45623207 0.6003846
0.51165974 0.6011567 0.47976193 0.46433616 0.1418086 -0.8247622 0.6437203 0.6551899
0.72829485 0.8799386 0.4310835 -0.15552455 0.7119343 0.37035763 0.46234345 -0.1725409
0.6093939 0.3982545 0.893804 0.8773688 -0.3728416 0.46112248 0.031953637 0.5412561
0.5152286 -0.11872255 -0.2740271 0.2216731 0.17884012 0.5635398 0.2786992 0.6178284
0.4250077 0.35204694 -0.00501882 0.5785448 0.6422059 0.4580613 -0.15218237 -0.048227757
0.12326228 -0.2249698 -0.025821125 -0.35737565 -0.37654504 0.17280531 -0.25918543 0.0056257606
-0.23909323 -0.1900121 -1.0659508 0.54043674 -0.1897636 0.12100512 0.47279954 0.5122028
0.44730252 0.4039547 -0.43928254 -0.551601 0.4090395 -0.53241795 0.32781062 0.5028054
0.72038513 0.5295891 0.06463615 0.5706505 0.5718773 0.57448274 0.44839597 0.46803817
0.34456646 0.53713804 0.5654504 0.2565474 0.35795686 0.7130823 0.13225032 0.5161322
0.50891477 0.506988 0.36981136 0.6353426 0.591541 0.73631954 0.59511733 0.92002666
0.59792215 1.110982 0.493854 0.30598056 0.6456393 0.52424544 0.16605876 0.2521068
1.0724012 0.5405845 0.4809962 0.64465415 0.6967443 0.82926816 0.61795896 0.15360993
-0.19684692 0.4718364 0.3349896 -0.03254086 0.42045137 0.5287756 0.6208421 0.577094
0.060882915 0.48541382 0.98118293 0.55028677 1.2028159 0.21588068 0.51912683 -0.4351537
0.3978452 0.5474649 -0.35233852 0.43665776 0.26743168 0.04729038 0.41619983 0.72261363
0.47252405 0.44577256 0.63795346 0.48516452 -0.0014817815 0.47659603 1.3124496 -0.08352492
0.69961447 0.44248182 0.41675296 0.21060868 0.33240807 0.5466033 -0.18819289 -0.6466896
1.0907303 -0.03373467 -0.41617048 0.24833354 0.1352557 1.2838944 0.46537563 0.31679198
1.0003171 0.44710276 0.78412145 0.41326523 0.32612678 1.0026947 0.9411572 0.9295439
-1.0794152 0.7616554 0.6485367 -0.4760624 0.052056797 -0.26255742 0.17912066 0.13072455
0.664422 0.37505347 0.0105204135 0.1529016 0.3339357 -0.053359684 1.4578384 0.6208156
0.39557046 -0.13238083 0.6010868 -0.8454847 0.46132827 0.8147766 0.25616443 0.5901299
-0.36541265 -0.096557185 0.54839325 0.71451575 0.8017494 -0.27954438 0.3780515 1.011049
0.8555729 0.38828355 0.53976303 0.8047447 -0.19579938 -0.37148732 0.67727745 -0.24470948
0.9447056 -0.38294968 1.3047546 -1.5744722 -0.37177676 -0.058587886 -0.21858996 0.2945606
0.22510545 0.20891748 0.3235368 -0.56626123 0.17623676 -0.12050659 0.19809109 -0.066795476
1.1463262 0.22674336 0.9423548 0.9544689 -0.09823857 1.0642767 1.1391641 0.50561076

bias f4 [175]
00000000: 0000 0000 0000 0000 0000 0000 0000 0000
00000010: 0000 0000 0000 0000 0000 0000 0000 0000
00000020: 0000 0000 0000 0000 0000 0000 0000 0000
00000030: 0000 0000 0000 0000 0000 0000 0000 0000
00000040: 0000 0000 0000 0000 0000 0000 0000 0000
00000050: 0000 0000 0000 0000 0000 0000 0000 0000
00000060: 0000 0000 0000 0000 0000 0000 0000 0000
00000070: 0000 0000 0000 0000 0000 0000 0000 0000
00000080: 0000 0000 0000 0000 0000 0000 0000 0000
00000090: 0000 0000 0000 0000 0000 0000 0000 0000
000000a0: 0000 0000 0000 0000 0000 0000 0000 0000
000000b0: 0000 0000 0000 0000 0000 0000 0000 0000
000000c0: 0000 0000 0000 0000 0000 0000 0000 0000
000000d0: 0000 0000 0000 0000 0000 0000 0000 0000
000000e0: 0000 0000 0000 0000 0000 0000 0000 0000
000000f0: 0000 0000 0000 0000 0000 0000 0000 0000
00000100: 0000 0000 0000 0000 0000 0000 0000 0000
00000110: 0000 0000 0000 0000 0000 0000 0000 0000
00000120: 0000 0000 0000 0000 0000 0000 0000 0000
00000130: 0000 0000 0000 0000 0000 0000 0000 0000
00000140: 0000 0000 0000 0000 0000 0000 0000 0000
00000150: 0000 0000 0000 0000 0000 0000 0000 0000
00000160: 0000 0000 0000 0000 0000 0000 0000 0000
00000170: 0000 0000 0000 0000 0000 0000 0000 0000
00000180: 0000 0000 0000 0000 0000 0000 0000 0000
00000190: 0000 0000 0000 0000 0000 0000 0000 0000
000001a0: 0000 0000 0000 0000 0000 0000 0000 0000
000001b0: 0000 0000 0000 0000 0000 0000 0000 0000
000001c0: 0000 0000 0000 0000 0000 0000 0000 0000
000001d0: 0000 0000 0000 0000 0000 0000 0000 0000
000001e0: 0000 0000 0000 0000 0000 0000 0000 0000
000001f0: 0000 0000 0000 0000 0000 0000 0000 0000
00000200: 0000 0000 0000 0000 0000 0000 0000 0000
00000210: 0000 0000 0000 0000 0000 0000 0000 0000
00000220: 0000 0000 0000 0000 0000 0000 0000 0000
00000230: 0000 0000 0000 0000 0000 0000 0000 0000
00000240: 0000 0000 0000 0000 0000 0000 0000 0000
00000250: 0000 0000 0000 0000 0000 0000 0000 0000
00000260: 0000 0000 0000 0000 0000 0000 0000 0000
00000270: 0000 0000 0000 0000 0000 0000 0000 0000
00000280: 0000 0000 0000 0000 0000 0000 0000 0000
00000290: 0000 0000 0000 0000 0000 0000 0000 0000
000002a0: 0000 0000 0000 0000 0000 0000 0000 0000
000002b0: 0000 0000 0000 0000 0000 0000
0.0 0.0 0.0 0.0 0.0 0.0 0.0 0.0
0.0 0.0 0.0 0.0 0.0 0.0 0.0 0.0
0.0 0.0 0.0 0.0 0.0 0.0 0.0 0.0
0.0 0.0 0.0 0.0 0.0 0.0 0.0 0.0
0.0 0.0 0.0 0.0 0.0 0.0 0.0 0.0
0.0 0.0 0.0 0.0 0.0 0.0 0.0 0.0
0.0 0.0 0.0 0.0 0.0 0.0 0.0 0.0
0.0 0.0 0.0 0.0 0.0 0.0 0.0 0.0
0.0 0.0 0.0 0.0 0.0 0.0 0.0 0.0
0.0 0.0 0.0 0.0 0.0 0.0 0.0 0.0
0.0 0.0 0.0 0.0 0.0 0.0 0.0 0.0
0.0 0.0 0.0 0.0 0.0 0.0 0.0 0.0
0.0 0.0 0.0 0.0 0.0 0.0 0.0 0.0
0.0 0.0 0.0 0.0 0.0 0.0 0.0 0.0
0.0 0.0 0.0 0.0 0.0 0.0 0.0 0.0
0.0 0.0 0.0 0.0 0.0 0.0 0.0 0.0
0.0 0.0 0.0 0.0 0.0 0.0 0.0 0.0
0.0 0.0 0.0 0.0 0.0 0.0 0.0 0.0
0.0 0.0 0.0 0.0 0.0 0.0 0.0 0.0
0.0 0.0 0.0 0.0 0.0 0.0 0.0 0.0
0.0 0.0 0.0 0.0 0.0 0.0 0.0 0.0
0.0 0.0 0.0 0.0 0.0 0.0 0.0

_ei_mask f4 [175]
00000000: 0000 803f 0000 803f 0000 803f 0000 803f
00000010: 0000 803f 0000 803f 0000 803f 0000 803f
00000020: 0000 803f 0000 803f 0000 803f 0000 803f
00000030: 0000 803f 0000 803f 0000 803f 0000 803f
00000040: 0000 803f 0000 803f 0000 803f 0000 803f
00000050: 0000 803f 0000 803f 0000 803f 0000 803f
00000060: 0000 803f 0000 803f 0000 803f 0000 803f
00000070: 0000 803f 0000 803f 0000 803f 0000 803f
00000080: 0000 803f 0000 803f 0000 803f 0000 803f
00000090: 0000 803f 0000 803f 0000 803f 0000 803f
000000a0: 0000 803f 0000 803f 0000 803f 0000 803f
000000b0: 0000 803f 0000 803f 0000 803f 0000 803f
000000c0: 0000 803f 0000 803f 0000 803f 0000 803f
000000d0: 0000 803f 0000 803f 0000 803f 0000 803f
000000e0: 0000 803f 0000 803f 0000 803f 0000 803f
000000f0: 0000 803f 0000 803f 0000 803f 0000 803f
00000100: 0000 803f 0000 803f 0000 803f 0000 803f
00000110: 0000 803f 0000 803f 0000 803f 0000 803f
00000120: 0000 803f 0000 803f 0000 803f 0000 803f
00000130: 0000 803f 0000 803f 0000 803f 0000 803f
00000140: 0000 803f 0000 803f 0000 803f 0000 803f
00000150: 0000 803f 0000 803f 0000 803f 0000 803f
00000160: 0000 803f 0000 803f 0000 803f 0000 803f
00000170: 0000 803f 0000 803f 0000 803f 0000 803f
00000180: 0000 803f 0000 803f 0000 803f 0000 803f
00000190: 0000 803f 0000 803f 0000 803f 0000 803f
000001a0: 0000 803f 0000 803f 0000 803f 0000 803f
000001b0: 0000 803f 0000 803f 0000 803f 0000 803f
000001c0: 0000 803f 0000 803f 0000 803f 0000 803f
000001d0: 0000 803f 0000 803f 0000 803f 0000 803f
000001e0: 0000 803f 0000 803f 0000 803f 0000 803f
000001f0: 0000 803f 0000 803f 0000 803f 0000 803f
00000200: 0000 803f 0000 803f 0000 803f 0000 803f
00000210: 0000 803f 0000 803f 0000 803f 0000 803f
00000220: 0000 803f 0000 803f 0000 803f 0000 803f
00000230: 0000 803f 0000 803f 0000 803f 0000 803f
00000240: 0000 803f 0000 803f 0000 803f 0000 803f
00000250: 0000 803f 0000 803f 0000 803f 0000 803f
00000260: 0000 803f 0000 803f 0000 803f 0000 803f
00000270: 0000 803f 0000 803f 0000 803f 0000 803f
00000280: 0000 803f 0000 803f 0000 803f 0000 803f
00000290: 0000 803f 0000 803f 0000 803f 0000 803f
000002a0: 0000 803f 0000 803f 0000 803f 0000 803f
000002b0: 0000 803f 0000 803f 0000 803f
1.0 1.0 1.0 1.0 1.0 1.0 1.0 1.0
1.0 1.0 1.0 1.0 1.0 1.0 1.0 1.0
1.0 1.0 1.0 1.0 1.0 1.0 1.0 1.0
1.0 1.0 1.0 1.0 1.0 1.0 1.0 1.0
1.0 1.0 1.0 1.0 1.0 1.0 1.0 1.0
1.0 1.0 1.0 1.0 1.0 1.0 1.0 1.0
1.0 1.0 1.0 1.0 1.0 1.0 1.0 1.0
1.0 1.0 1.0 1.0 1.0 1.0 1.0 1.0
1.0 1.0 1.0 1.0 1.0 1.0 1.0 1.0
1.0 1.0 1.0 1.0 1.0 1.0 1.0 1.0
1.0 1.0 1.0 1.0 1.0 1.0 1.0 1.0
1.0 1.0 1.0 1.0 1.0 1.0 1.0 1.0
1.0 1.0 1.0 1.0 1.0 1.0 1.0 1.0
1.0 1.0 1.0 1.0 1.0 1.0 1.0 1.0
1.0 1.0 1.0 1.0 1.0 1.0 1.0 1.0
1.0 1.0 1.0 1.0 1.0 1.0 1.0 1.0
1.0 1.0 1.0 1.0 1.0 1.0 1.0 1.0
1.0 1.0 1.0 1.0 1.0 1.0 1.0 1.0
1.0 1.0 1.0 1.0 1.0 1.0 1.0 1.0
1.0 1.0 1.0 1.0 1.0 1.0 1.0 1.0
1.0 1.0 1.0 1.0 1.0 1.0 1.0 1.0
1.0 1.0 1.0 1.0 1.0 1.0 1.0
