checkpoints/version120/model.pt (torch, 31278 bytes, 13 tensors)

bias f4 [175]
000000 ce 8c 96 3f 52 25 12 40 4e d4 1f bf ea 67 a7 3f
       1.176172 2.2835279 -0.62433326 1.3078587
000010 a2 c7 09 3d 8a b0 f4 3f e9 20 fb 3f b2 b7 26 40
       0.03363765 1.9116375 1.9619418 2.6049619
000020 87 b2 ce 3f 4b 84 40 40 c9 41 ac 3f 8a 2f c5 3f
       1.6148232 3.0080745 1.3457576 1.5405133
000030 93 b3 1e 3e 6e 9e e5 bd bf ec b4 3c de 3c 0c 40
       0.1549819 -0.11211859 0.022085546 2.191215
000040 35 3a 4f bd dd 82 81 bd 73 60 08 bd db 25 32 40
       -0.05059262 -0.06323788 -0.033295106 2.7835605
000050 d4 d8 96 3e 8d 53 b9 3f b6 60 c8 3f bb a7 cd be
       0.29462302 1.4478623 1.5654514 -0.4016703
000060 e2 12 e6 bf 88 72 5b 40 28 c8 7a 3f ce 24 b5 3f
       -1.7974513 3.4288654 0.97961664 1.4151857
000070 59 33 83 3f 46 18 26 40 75 30 03 3f ad de 22 3d
       1.0250045 2.5952315 0.51245815 0.03976314
000080 35 9e 9a 3f 41 83 90 3d 14 fa 1f 3f 67 06 6f 40
       1.2079531 0.07056285 0.62490964 3.7347658
000090 19 ec 33 3f cc cf 8b 3f 7a 6d e7 3f ce 6f b7 3f
       0.7028213 1.092279 1.8080285 1.4330995
0000a0 c5 97 0b 40 88 e4 c3 3f 5b 4b 4a 3e 69 03 c6 3e
       2.1811383 1.5304117 0.19755308 0.38674477
0000b0 35 69 cc 3f 42 77 48 be 65 0f f5 3e fc 0a 37 3e
       1.5969607 -0.19576743 0.47863308 0.17875284
0000c0 69 e1 a3 3e df c7 98 3e da 73 0d 3f 5a 49 02 3f
       0.32007912 0.2983999 0.552549 0.50893176
0000d0 80 db 85 3f b3 a4 60 3e 8b cd 72 3e d3 b1 a5 3f
       1.0457611 0.21937828 0.23711221 1.2944893
0000e0 5d 5f c0 be 94 89 31 3f de 05 29 3e 45 7f bb be
       -0.37572756 0.6935055 0.16506144 -0.36620536
0000f0 fd a0 a8 bd 09 d5 5e 3d 40 72 38 3f 39 ba 34 3f
       -0.08233831 0.054402385 0.7204933 0.70596653
000100 c7 f4 95 3d 56 d9 a9 3e 79 5d ad bb 36 51 b5 3e
       0.07322078 0.33173627 -0.005290684 0.35413522
000110 f0 56 27 3f 3c bb d1 3f 82 33 ae be 7f 4c 98 3f
       0.6536703 1.6385264 -0.34023672 1.1898345
000120 01 49 ab 3f 0c bc 60 3f 7d de 92 3f d8 c0 7d 3f
       1.3381654 0.87786937 1.1474148 0.9912238
000130 3a fd ab 3f 18 b1 c2 3f 6c d7 c2 3f 43 0e 0a 40
       1.3436654 1.5210295 1.5221992 2.1571205
000140 65 1e aa 3f d3 f8 f9 3f 72 7f 7c 3f 28 71 29 40
       1.3290526 1.952906 0.98631966 2.6475315
000150 c5 cd ae 3f 5b e6 9e 3f 8f 61 3d 40 7e 8a 5b 40
       1.3656546 1.2414049 2.9590795 3.430328
000160 ae cf be 3f 35 7a 85 3f fb 0f 87 3f f7 be d3 be
       1.4907129 1.042792 1.0551752 -0.41356632
000170 75 ba 5c 40 01 b2 45 bd 35 cd 75 3f f9 03 bf 3e
       3.4488804 -0.04826546 0.96016246 0.37307718
000180 b8 63 61 40 e9 47 d2 3e e1 38 39 bf 05 cc 02 3e
       3.5217113 0.41070488 -0.72352415 0.1277314
000190 c9 36 14 40 72 ea 6d 3f 5b ad bd 3f 62 51 eb 3f
       2.3158438 0.9293586 1.4818529 1.8384211
0001a0 84 b7 7a 3f 5d d5 0a 40 b1 39 c0 3f 5c eb c0 3f
       0.9793627 2.1692727 1.5017606 1.5071826
0001b0 b4 0a c9 3f 27 7d 00 40 a8 d5 82 3f 05 08 9b be
       1.5706391 2.0076387 1.0221453 -0.30279556
0001c0 13 1e b0 3d cb 54 10 40 aa 2c 98 3f 50 4d 12 40
       0.08599486 2.2551754 1.188863 2.2859688
0001d0 8d 99 1e 3e 9a 37 11 40 ea 8e ec 3f a5 0a 06 40
       0.15488262 2.2690187 1.8481114 2.0943997
0001e0 02 b8 25 40 37 5d dd 3f 38 36 05 40 a9 31 12 40
       2.589356 1.7294072 2.0814342 2.284281
0001f0 58 e5 29 40 69 4c ae 3f c5 4a 22 3e 82 46 8e bd
       2.654623 1.3617069 0.15848835 -0.06947042
000200 ef 00 5b 3f 64 d5 b4 3f ac eb 90 3e 73 3a 46 3e
       0.855483 1.4127622 0.28304803 0.19358234
000210 9c 1b 7b bd d3 1e 00 40 a0 53 b5 3f dc 19 89 3d
       -0.061305627 2.0018814 1.4166145 0.066943854
000220 f4 ad 5b bd dc 88 b4 3f 8b 26 0b 3f 7e 73 7a 3f
       -0.05363269 1.4104266 0.54355687 0.9783248
000230 e4 e0 23 3f 66 e0 cd 3e 23 91 92 3f 8e d2 af 3e
       0.6401503 0.40210265 1.1450542 0.34340328
000240 45 46 cf bd df 1a cb 3f 29 ea a9 3f 70 35 a1 3f
       -0.10120825 1.5867575 1.3274585 1.2594433
000250 a6 a6 25 3f 78 b9 de bd ae ef 84 3e 05 11 c1 bd
       0.6470741 -0.10875219 0.2596411 -0.09427074
000260 46 40 d7 3f 58 e9 75 3f a8 bd 45 40 f2 62 03 40
       1.681649 0.9605918 3.0897007 2.0529141
000270 c3 90 90 3f 0b 9a 5a 40 2b 20 98 3e d8 75 a7 3e
       1.1294178 3.415652 0.29712042 0.32707095
000280 9b 65 60 3f 56 06 78 bf 07 15 10 3f af b3 95 3f
       0.8765504 -0.9688467 0.56282085 1.169546
000290 27 77 c7 3f d0 4c 32 40 64 31 5a 3f b6 d3 ab 3f
       1.5583237 2.7859383 0.85231614 1.3423984
0002a0 7a e8 6a 3f b9 e8 ee 3f b9 b5 01 40 52 0a c7 3f
       0.9176098 1.8664771 2.0267165 1.5550025
0002b0 46 b6 96 3f eb 47 df 3e 0c 54 a1 3e
       1.1774375 0.43609557 0.31509435

weight f4 [9, 175]
000000 56 33 9f 3e ba 75 d9 3d 2c 53 39 b4 69 41 dc 3e
       0.31093854 0.10618158 -1.7259725e-07 0.43018654
000010 c6 aa 96 b6 e9 75 12 3f 7a cb a8 3e fb 37 f3 3e
       -4.490229e-06 0.57211167 0.3296774 0.47503647
000020 89 74 83 3f ce 47 0c 3f 87 c3 39 3f 18 a5 46 3f
       1.0269939 0.54797065 0.72563976 0.77595663
000030 b2 38 85 b2 b5 cc 00 3f 58 5f 93 3e c4 44 cb b4
       -1.550902e-08 0.5031236 0.2878368 -3.786173e-07
000040 60 1d a8 3e ea 5a c2 3e 50 fc d7 3e 78 fe 21 3f
       0.3283491 0.37959987 0.42184687 0.63278913
000050 0e ff 68 33 fc cd 4f 3f d5 a4 da 3e d8 d2 45 b8
       5.424868e-08 0.8117368 0.42703882 -4.7164824e-05
000060 4d 05 88 3f b7 09 2b 3f 0d 16 a7 3f 55 65 a5 3e
       1.0626618 0.668117 1.3053604 0.32303873
000070 e5 60 63 be a1 b9 6f b3 89 fd 91 3f b5 98 f3 3e
       -0.22204931 -5.5815352e-08 1.1405498 0.47577444
000080 a8 22 2b 3f 34 64 af 3f dd e7 5e b5 56 32 86 34
       0.66849756 1.3702455 -8.303885e-07 2.499607e-07
000090 88 f6 14 3f 6e d5 ba 3e 42 c6 1f 3f e9 06 54 3f
       0.58188677 0.3649096 0.6241189 0.82823044
0000a0 49 30 f2 b5 75 72 c1 b4 c3 fa 4e 3f 9c 7f 18 3f
       -1.8044458e-06 -3.603233e-07 0.8085138 0.59569716
0000b0 d5 b1 03 38 3b b2 d4 3e c7 31 b5 31 35 52 62 35
       3.1398453e-05 0.4154223 5.2734523e-09 8.431119e-07
0000c0 5a 3d dd b3 a4 53 b6 b5 70 d2 e6 3e 41 0c f4 3e
       -1.0302274e-07 -1.3584399e-06 0.45082426 0.476656
0000d0 7b 82 96 3e 8a 40 37 3f e3 4e fb 3e 7e 41 41 36
       0.29396424 0.71582854 0.49083623 2.8797363e-06
0000e0 24 de 90 b1 20 7e 36 3f de 6a fd 3e 20 11 1b 3f
       -4.216206e-09 0.712862 0.49495596 0.60573006
0000f0 4d 93 0d 3f fb f8 06 3f fd a2 5f af da e3 16 33
       0.5530289 0.52723664 -2.0339637e-10 3.5131826e-08
000100 7f 43 54 b2 35 63 1c 3f 19 8b af 3e 55 d7 3b 3f
       -1.2355371e-08 0.6108888 0.3428581 0.73375446
000110 d9 8d f6 3b 6f 47 c4 3e c9 be aa 3e 4c 56 32 3e
       0.007524234 0.3833575 0.33348683 0.17415732
000120 b3 f7 52 3e 55 06 db 3e 55 f7 78 3e 2b 6d ed 3e
       0.20602302 0.42778268 0.243131 0.4637235
000130 b5 54 bb 3e f0 70 8f 3e 78 61 ca 3e 96 07 c2 3e
       0.36588064 0.28015852 0.39527488 0.37896413
000140 45 6e bc b5 5f 99 04 3e 86 7b 05 3f f7 dc 03 b4
       -1.4039184e-06 0.12949131 0.52141607 -1.2280712e-07
000150 c6 97 e7 3e 08 74 91 3e 18 55 8c 38 b9 26 57 34
       0.4523298 0.28408837 6.69157e-05 2.0037523e-07
000160 10 41 24 34 f0 08 19 3f 97 7f db 3e 47 2d fd 3e
       1.529736e-07 0.5977926 0.4287078 0.49448606
000170 a3 4f de 35 39 92 15 3f 06 c0 32 3f 5f 0d 3e 3f
       1.6563466e-06 0.58426243 0.69824255 0.7423915
000180 1c 17 04 3f 21 c7 0d 3f 10 e6 16 3f 50 3a 77 3f
       0.5159776 0.5538197 0.589448 0.9657335
000190 34 12 69 3f 8c 4c 9e 3f f5 27 d0 b4 92 77 35 35
       0.910434 1.236711 -3.8772092e-07 6.760175e-07
0001a0 16 64 0b 35 59 ad 87 b4 3b 70 96 3f 05 70 e0 3e
       5.192718e-07 -2.5271837e-07 1.1753 0.43835464
0001b0 2e 95 02 3f 68 de 05 3f 2b db 17 36 2a f1 38 35
       0.5100888 0.5229249 2.2628326e-06 6.889628e-07
0001c0 e0 80 4b 3f cf bc 39 3f b0 1d 4b 3f c0 80 29 3f
       0.7949352 0.72553724 0.79342175 0.6621208
0001d0 5c 11 65 3f df d3 37 3e 95 b3 1d 3f 81 5a 01 3f
       0.89479613 0.17951916 0.61602145 0.50528723
0001e0 5a 77 12 3f 34 7e d4 3e 93 f9 df 3e d6 5b 53 36
       0.57213366 0.41502535 0.43745098 3.1494906e-06
0001f0 db d1 b3 3e 2f 29 a3 35 28 bd 11 3f 84 db 88 b9
       0.35121045 1.2156432e-06 0.56929255 -0.00026103493
000200 89 dd d5 3e df 3c 1f 3f 34 1c 45 3f ac 1d 24 32
       0.4177058 0.62202257 0.7699616 9.552803e-09
000210 cd b3 70 3f 20 68 92 3e 68 4d af 35 17 b4 24 3f
       0.94024354 0.28595066 1.3061044e-06 0.64337295
000220 35 88 ac 3e e3 b7 8a 39 10 4f 32 bb ff ca 02 b9
       0.33697668 0.00026458417 -0.002720777 -0.00012473388
000230 84 d3 18 3f d5 5b 34 3f 8c 44 8e 3e e8 8e 88 b6
       0.5969775 0.70452625 0.27786672 -4.0697523e-06
000240 87 cb bf 3e 28 41 76 3f 7b 7b 2a 3e e4 a9 2d 3e
       0.37459967 0.9619317 0.16648667 0.1695934
000250 7f fa e1 3e 4e 8b fc 3e 6a 90 b0 3e e7 09 c3 3e
       0.44136426 0.4932503 0.3448518 0.38093492
000260 8a c3 b2 b4 16 d1 ad 3e d5 52 a8 b5 53 83 3d 3e
       -3.3297357e-07 0.33948582 -1.2541083e-06 0.18507127
000270 a9 09 19 3f 80 43 a9 b4 4f ee af 3e b9 08 7c 3f
       0.59780365 -3.1527816e-07 0.34361503 0.9845081
000280 dc 6a ff 3e fd 81 12 3f b8 ee 8c 3f 92 27 58 3f
       0.49886215 0.57229596 1.1010351 0.8443538
000290 7e 24 bb 38 e2 3c 7f 36 3f 8a cc 3a c7 0c 3f b9
       8.923652e-05 3.80334e-06 0.0015605165 -0.0001821994
0002a0 cf 73 17 3f 66 b2 fa 34 13 ff aa b5 70 cf a0 3d
       0.59161085 4.669593e-07 -1.2740223e-06 0.078520656
0002b0 f3 08 6f 3e 04 8a 52 3f c0 ee b6 3e c8 e9 dd 3e
       0.23343258 0.82241845 0.35729027 0.43342423
0002c0 49 22 f6 3e cb c7 37 3f 87 41 2c 3f a6 7e b7 3f
       0.48073032 0.71789235 0.67287487 1.4335525
0002d0 a6 af 95 b5 ff 77 df 3e 37 99 ab 34 d2 ef b5 32
       -1.1152486e-06 0.43646237 3.196271e-07 2.1180231e-08
0002e0 02 9c 44 b5 35 c9 a9 b6 cc 10 e6 b3 5c af 64 3f
       -7.324271e-07 -5.060016e-06 -1.0713265e-07 0.8933008
0002f0 22 67 f4 32 22 55 14 3f c8 81 4e 3f 5d 8a 0f bf
       2.8452238e-08 0.579424 0.8066678 -0.560705
000300 ee 83 59 3e 11 90 07 bf 24 67 0f 34 94 3d 49 3f
       0.21241733 -0.529542 1.3355435e-07 0.78609586
000310 8f 23 a1 b5 8c 95 16 34 2d cb 9a 3e 83 79 b2 35
       -1.2005784e-06 1.4024243e-07 0.30233136 1.3297398e-06
000320 34 07 57 b3 30 aa 6a b4 02 48 1e 3e 7b 71 5e 3e
       -5.006514e-08 -2.1854862e-07 0.15457156 0.21722977
000330 22 b6 9f 3f e8 bd 39 b3 e9 ec e2 be 1a ef ff 34
       1.2477458 -4.3246388e-08 -0.44321373 4.767142e-07
000340 9c a3 1a 32 f4 8e 97 3f bd 24 69 3f 1c d7 35 3e
       9.00118e-09 1.1840501 0.91071683 0.17757839
000350 d3 23 de 3e 86 01 b9 33 87 ce a2 b5 8e 07 f3 3e
       0.43386707 8.615011e-08 -1.2130048e-06 0.474667
000360 8f 73 04 3f f6 b1 86 b3 29 6f 95 3c b9 62 39 3f
       0.5173883 -6.272232e-08 0.018241482 0.72416264
000370 0d 83 86 34 19 82 13 3f 24 be 10 3f 8b d2 ed 3e
       2.5054797e-07 0.5762039 0.5654013 0.46449694
000380 fb 30 fc 3e 66 20 d3 3e 97 d6 c8 3e 48 34 a7 3e
       0.4925612 0.41235656 0.3922622 0.32657075
000390 43 a9 ff b3 d4 6e 05 b4 f6 43 14 3f 63 40 1f 3f
       -1.1905151e-07 -1.2426909e-07 0.579162 0.6220762
0003a0 0f 5d a2 be 56 d7 e7 3c f4 e6 00 bf c0 80 a6 b2
       -0.31711623 0.028300922 -0.50352407 -1.9383492e-08
0003b0 be 32 09 b4 0f 00 26 3f f2 46 80 3f f7 ec 40 3f
       -1.2777579e-07 0.6484384 1.0021651 0.7536158
0003c0 f4 ad 03 32 32 e8 f7 bb 4c 69 55 32 48 43 d3 3e
       7.664756e-09 -0.0075655216 1.24221735e-08 0.4126227
0003d0 73 b2 43 b7 cc 2f 32 be 50 46 3e 3e 21 ba 8f 3b
       -1.1664454e-05 -0.17401046 0.1858151 0.004386202
0003e0 60 5d 1a 3f 9c 27 c3 34 79 b5 09 3f c8 8c 36 3f
       0.6029873 3.63504e-07 0.5379253 0.71308565
0003f0 b2 8a e0 b3 3a bd 22 3f 02 86 cb 3e 5e 9d 0f 3f
       -1.04560414e-07 0.63569987 0.39750677 0.560995

bias f4 [175]
000000 00 00 00 00 00 00 00 00 00 00 00 00 00 00 00 00
       0.0 0.0 0.0 0.0
000010 00 00 00 00 00 00 00 00 00 00 00 00 00 00 00 00
       0.0 0.0 0.0 0.0
000020 00 00 00 00 00 00 00 00 00 00 00 00 00 00 00 00
       0.0 0.0 0.0 0.0
000030 00 00 00 00 00 00 00 00 00 00 00 00 00 00 00 00
       0.0 0.0 0.0 0.0
000040 00 00 00 00 00 00 00 00 00 00 00 00 00 00 00 00
       0.0 0.0 0.0 0.0
000050 00 00 00 00 00 00 00 00 00 00 00 00 00 00 00 00
       0.0 0.0 0.0 0.0
000060 00 00 00 00 00 00 00 00 00 00 00 00 00 00 00 00
       0.0 0.0 0.0 0.0
000070 00 00 00 00 00 00 00 00 00 00 00 00 00 00 00 00
       0.0 0.0 0.0 0.0
000080 00 00 00 00 00 00 00 00 00 00 00 00 00 00 00 00
       0.0 0.0 0.0 0.0
000090 00 00 00 00 00 00 00 00 00 00 00 00 00 00 00 00
       0.0 0.0 0.0 0.0
0000a0 00 00 00 00 00 00 00 00 00 00 00 00 00 00 00 00
       0.0 0.0 0.0 0.0
0000b0 00 00 00 00 00 00 00 00 00 00 00 00 00 00 00 00
       0.0 0.0 0.0 0.0
0000c0 00 00 00 00 00 00 00 00 00 00 00 00 00 00 00 00
       0.0 0.0 0.0 0.0
0000d0 00 00 00 00 00 00 00 00 00 00 00 00 00 00 00 00
       0.0 0.0 0.0 0.0
0000e0 00 00 00 00 00 00 00 00 00 00 00 00 00 00 00 00
       0.0 0.0 0.0 0.0
0000f0 00 00 00 00 00 00 00 00 00 00 00 00 00 00 00 00
       0.0 0.0 0.0 0.0
000100 00 00 00 00 00 00 00 00 00 00 00 00 00 00 00 00
       0.0 0.0 0.0 0.0
000110 00 00 00 00 00 00 00 00 00 00 00 00 00 00 00 00
       0.0 0.0 0.0 0.0
000120 00 00 00 00 00 00 00 00 00 00 00 00 00 00 00 00
       0.0 0.0 0.0 0.0
000130 00 00 00 00 00 00 00 00 00 00 00 00 00 00 00 00
       0.0 0.0 0.0 0.0
000140 00 00 00 00 00 00 00 00 00 00 00 00 00 00 00 00
       0.0 0.0 0.0 0.0
000150 00 00 00 00 00 00 00 00 00 00 00 00 00 00 00 00
       0.0 0.0 0.0 0.0
000160 00 00 00 00 00 00 00 00 00 00 00 00 00 00 00 00
       0.0 0.0 0.0 0.0
000170 00 00 00 00 00 00 00 00 00 00 00 00 00 00 00 00
       0.0 0.0 0.0 0.0
000180 00 00 00 00 00 00 00 00 00 00 00 00 00 00 00 00
       0.0 0.0 0.0 0.0
000190 00 00 00 00 00 00 00 00 00 00 00 00 00 00 00 00
       0.0 0.0 0.0 0.0
0001a0 00 00 00 00 00 00 00 00 00 00 00 00 00 00 00 00
       0.0 0.0 0.0 0.0
0001b0 00 00 00 00 00 00 00 00 00 00 00 00 00 00 00 00
       0.0 0.0 0.0 0.0
0001c0 00 00 00 00 00 00 00 00 00 00 00 00 00 00 00 00
       0.0 0.0 0.0 0.0
0001d0 00 00 00 00 00 00 00 00 00 00 00 00 00 00 00 00
       0.0 0.0 0.0 0.0
0001e0 00 00 00 00 00 00 00 00 00 00 00 00 00 00 00 00
       0.0 0.0 0.0 0.0
0001f0 00 00 00 00 00 00 00 00 00 00 00 00 00 00 00 00
       0.0 0.0 0.0 0.0
000200 00 00 00 00 00 00 00 00 00 00 00 00 00 00 00 00
       0.0 0.0 0.0 0.0
000210 00 00 00 00 00 00 00 00 00 00 00 00 00 00 00 00
       0.0 0.0 0.0 0.0
000220 00 00 00 00 00 00 00 00 00 00 00 00 00 00 00 00
       0.0 0.0 0.0 0.0
000230 00 00 00 00 00 00 00 00 00 00 00 00 00 00 00 00
       0.0 0.0 0.0 0.0
000240 00 00 00 00 00 00 00 00 00 00 00 00 00 00 00 00
       0.0 0.0 0.0 0.0
000250 00 00 00 00 00 00 00 00 00 00 00 00 00 00 00 00
       0.0 0.0 0.0 0.0
000260 00 00 00 00 00 00 00 00 00 00 00 00 00 00 00 00
       0.0 0.0 0.0 0.0
000270 00 00 00 00 00 00 00 00 00 00 00 00 00 00 00 00
       0.0 0.0 0.0 0.0
000280 00 00 00 00 00 00 00 00 00 00 00 00 00 00 00 00
       0.0 0.0 0.0 0.0
000290 00 00 00 00 00 00 00 00 00 00 00 00 00 00 00 00
       0.0 0.0 0.0 0.0
0002a0 00 00 00 00 00 00 00 00 00 00 00 00 00 00 00 00
       0.0 0.0 0.0 0.0
0002b0 00 00 00 00 00 00 00 00 00 00 00 00
       0.0 0.0 0.0

_ei_mask f4 [175]
000000 00 00 80 3f 00 00 80 3f 00 00 80 3f 00 00 80 3f
       1.0 1.0 1.0 1.0
000010 00 00 80 3f 00 00 80 3f 00 00 80 3f 00 00 80 3f
       1.0 1.0 1.0 1.0
000020 00 00 80 3f 00 00 80 3f 00 00 80 3f 00 00 80 3f
       1.0 1.0 1.0 1.0
000030 00 00 80 3f 00 00 80 3f 00 00 80 3f 00 00 80 3f
       1.0 1.0 1.0 1.0
000040 00 00 80 3f 00 00 80 3f 00 00 80 3f 00 00 80 3f
       1.0 1.0 1.0 1.0
000050 00 00 80 3f 00 00 80 3f 00 00 80 3f 00 00 80 3f
       1.0 1.0 1.0 1.0
000060 00 00 80 3f 00 00 80 3f 00 00 80 3f 00 00 80 3f
       1.0 1.0 1.0 1.0
000070 00 00 80 3f 00 00 80 3f 00 00 80 3f 00 00 80 3f
       1.0 1.0 1.0 1.0
000080 00 00 80 3f 00 00 80 3f 00 00 80 3f 00 00 80 3f
       1.0 1.0 1.0 1.0
000090 00 00 80 3f 00 00 80 3f 00 00 80 3f 00 00 80 3f
       1.0 1.0 1.0 1.0
0000a0 00 00 80 3f 00 00 80 3f 00 00 80 3f 00 00 80 3f
       1.0 1.0 1.0 1.0
0000b0 00 00 80 3f 00 00 80 3f 00 00 80 3f 00 00 80 3f
       1.0 1.0 1.0 1.0
0000c0 00 00 80 3f 00 00 80 3f 00 00 80 3f 00 00 80 3f
       1.0 1.0 1.0 1.0
0000d0 00 00 80 3f 00 00 80 3f 00 00 80 3f 00 00 80 3f
       1.0 1.0 1.0 1.0
0000e0 00 00 80 3f 00 00 80 3f 00 00 80 3f 00 00 80 3f
       1.0 1.0 1.0 1.0
0000f0 00 00 80 3f 00 00 80 3f 00 00 80 3f 00 00 80 3f
       1.0 1.0 1.0 1.0
000100 00 00 80 3f 00 00 80 3f 00 00 80 3f 00 00 80 3f
       1.0 1.0 1.0 1.0
000110 00 00 80 3f 00 00 80 3f 00 00 80 3f 00 00 80 3f
       1.0 1.0 1.0 1.0
000120 00 00 80 3f 00 00 80 3f 00 00 80 3f 00 00 80 3f
       1.0 1.0 1.0 1.0
000130 00 00 80 3f 00 00 80 3f 00 00 80 3f 00 00 80 3f
       1.0 1.0 1.0 1.0
000140 00 00 80 3f 00 00 80 3f 00 00 80 3f 00 00 80 3f
       1.0 1.0 1.0 1.0
000150 00 00 80 3f 00 00 80 3f 00 00 80 3f 00 00 80 3f
       1.0 1.0 1.0 1.0
000160 00 00 80 3f 00 00 80 3f 00 00 80 3f 00 00 80 3f
       1.0 1.0 1.0 1.0
000170 00 00 80 3f 00 00 80 3f 00 00 80 3f 00 00 80 3f
       1.0 1.0 1.0 1.0
000180 00 00 80 3f 00 00 80 3f 00 00 80 3f 00 00 80 3f
       1.0 1.0 1.0 1.0
000190 00 00 80 3f 00 00 80 3f 00 00 80 3f 00 00 80 3f
       1.0 1.0 1.0 1.0
0001a0 00 00 80 3f 00 00 80 3f 00 00 80 3f 00 00 80 3f
       1.0 1.0 1.0 1.0
0001b0 00 00 80 3f 00 00 80 3f 00 00 80 3f 00 00 80 3f
       1.0 1.0 1.0 1.0
0001c0 00 00 80 3f 00 00 80 3f 00 00 80 3f 00 00 80 3f
       1.0 1.0 1.0 1.0
0001d0 00 00 80 3f 00 00 80 3f 00 00 80 3f 00 00 80 3f
       1.0 1.0 1.0 1.0
0001e0 00 00 80 3f 00 00 80 3f 00 00 80 3f 00 00 80 3f
       1.0 1.0 1.0 1.0
0001f0 00 00 80 3f 00 00 80 3f 00 00 80 3f 00 00 80 3f
       1.0 1.0 1.0 1.0
000200 00 00 80 3f 00 00 80 3f 00 00 80 3f 00 00 80 3f
       1.0 1.0 1.0 1.0
000210 00 00 80 3f 00 00 80 3f 00 00 80 3f 00 00 80 3f
       1.0 1.0 1.0 1.0
000220 00 00 80 3f 00 00 80 3f 00 00 80 3f 00 00 80 3f
       1.0 1.0 1.0 1.0
000230 00 00 80 3f 00 00 80 3f 00 00 80 3f 00 00 80 3f
       1.0 1.0 1.0 1.0
000240 00 00 80 3f 00 00 80 3f 00 00 80 3f 00 00 80 3f
       1.0 1.0 1.0 1.0
000250 00 00 80 3f 00 00 80 3f 00 00 80 3f 00 00 80 3f
       1.0 1.0 1.0 1.0
000260 00 00 80 3f 00 00 80 3f 00 00 80 3f 00 00 80 3f
       1.0 1.0 1.0 1.0
000270 00 00 80 3f 00 00 80 3f 00 00 80 3f 00 00 80 3f
       1.0 1.0 1.0 1.0
000280 00 00 80 3f 00 00 80 3f 00 00 80 3f 00 00 80 3f
       1.0 1.0 1.0 1.0
000290 00 00 80 3f 00 00 80 3f 00 00 80 3f 00 00 80 3f
       1.0 1.0 1.0 1.0
0002a0 00 00 80 3f 00 00 80 3f 00 00 80 3f 00 00 80 3f
       1.0 1.0 1.0 1.0
0002b0 00 00 80 3f 00 00 80 3f 00 00 80 3f
       1.0 1.0 1.0

weight f4 [2, 175]
000000 8b da bd 3f b0 64 08 40 f4 0b 2d 3f 17 b0 ae 3f
       1.4832319 2.1311455 0.67596364 1.3647488
000010 b2 9b a1 3f 82 10 05 40 21 92 10 40 d7 30 7c 40
       1.262564 2.0791326 2.258919 3.940481
000020 9a 40 47 3f e0 16 6c 40 ae 52 7f 3f 9f d2 cb 3f
       0.7783295 3.6888962 0.99735534 1.5923651
000030 58 98 dd be 9a e4 31 3f f3 6a a7 3e 22 1f d3 3f
       -0.43280292 0.69489443 0.32698783 1.6493876
000040 c4 94 02 3f f1 35 86 3e f8 db f7 3e 1a ff 34 40
       0.5100825 0.2621303 0.4841001 2.8280702
000050 b2 35 9f 3e 9c ab 45 3f dc 71 c4 3f 05 f8 3c 3f
       0.31095654 0.7721498 1.5347247 0.7381595
000060 b2 d1 8b 40 0d 77 86 40 a5 1d 05 3f 4d 63 54 3f
       4.3693476 4.2020326 0.5199836 0.8296402
000070 9d f9 12 3f d3 7d 01 40 3d ed b5 3f eb e3 11 3e
       0.5741213 2.0233047 1.4213024 0.142471
000080 8e 2f 40 3f 4b 98 e0 3f f2 39 d7 3e ec 92 3c 40
       0.7507256 1.7546476 0.42036396 2.9464674
000090 ab 45 67 3e 3a 89 3b 3f 7d 5a bf 3f 9c fd 79 3f
       0.2258517 0.73256266 1.494949 0.976526
0000a0 98 d4 02 40 f3 79 dd 3f 9b 2a 1f 3f ae 08 99 be
       2.0442257 1.7302841 0.62174386 -0.29889435
0000b0 fd ea 81 3f f5 98 97 3e d4 3e 28 3e 85 29 2f 3f
       1.0149838 0.29608884 0.16430217 0.6842273
0000c0 f4 fd b6 3e e6 e8 9c 3f 11 ba 06 3e eb 4f 0d 3e
       0.35740626 1.2258575 0.13156916 0.13800018
0000d0 4c 4f 6b 3f 6b b7 39 3f 83 31 a6 3e 09 72 b8 bd
       0.9191787 0.725455 0.3245965 -0.090061255
0000e0 c0 8b 1e 3f 80 a8 55 3f 82 12 1f 3f 4d a6 b1 3f
       0.6193199 0.83460236 0.62137616 1.3878876
0000f0 6e ff b6 3e 8c 21 b8 3e c1 f9 53 3f 34 6b c3 3e
       0.35741752 0.35963094 0.8280297 0.38167727
000100 cd cb d5 3e c2 27 1f 3f 75 a7 1d 3f 75 e9 c3 3d
       0.4175705 0.6217004 0.61583644 0.09566013
000110 d0 40 3d 3e 6f 7d cf 3f 19 46 db 3e 4d f4 b2 3f
       0.18481755 1.6210154 0.42826918 1.3980805
000120 cb 57 ce 3f ba 62 5e 3e f8 33 86 3f 02 af 05 3f
       1.6120542 0.21717349 1.048461 0.52220166
000130 bc 7e 31 3f 7c b8 a1 3f b6 ff ab 3e 08 99 d6 3f
       0.69334006 1.2634425 0.3359353 1.6765451
000140 f2 8b b2 3f 57 a9 f8 3f 24 07 1d 3f 26 6e 0d 40
       1.3948958 1.9426678 0.6133902 2.209848
000150 67 c7 c7 3e aa fd 9f 3f 55 33 3e 40 31 70 77 40
       0.3901932 1.2499287 2.971883 3.8662226
000160 f7 b9 7d 3d 9a 19 9d 3f 8e 4a d2 3f d0 b9 8d 3f
       0.061944928 1.2273438 1.6429002 1.107233
000170 b7 fa e4 3f f4 12 38 3f ed 5e 86 3f 60 2f a7 3e
       1.7889012 0.7190392 1.0497719 0.32653332
000180 3e 92 17 40 de ac cf 3e c3 41 a1 3f 01 ef 24 3f
       2.368301 0.40561575 1.2598194 0.6442719
000190 cf bc 8e 3f d4 2f e4 3e 70 61 2b 3f f2 90 97 3f
       1.115137 0.4456774 0.6694555 1.1841109
0001a0 47 e7 e1 3e 38 56 3a 3f 5b 7d 83 3f 5a 2f eb 3f
       0.44121763 0.7278781 1.027263 1.8373826
0001b0 c6 32 ab 3e f8 d6 14 40 89 a5 d4 3e 0a e4 93 3f
       0.33437175 2.3256207 0.41532543 1.1553967
0001c0 2d b9 d8 3e 6f 39 05 40 ef a1 24 3f 2e 9a 07 40
       0.42328778 2.0816305 0.6430959 2.1187854
0001d0 a9 22 40 3f 9f 3e a1 3f 03 cd 00 40 6d c0 ce 3f
       0.7505289 1.2597235 2.012513 1.6152474
0001e0 c7 0e 39 40 70 38 d5 3f c7 d8 9d 3f 3c e7 06 40
       2.891527 1.6657848 1.233178 2.1078634
0001f0 66 7e 4b 40 bb c3 a3 3f 78 c0 a5 3e 6d c4 d3 3e
       3.1795897 1.2794107 0.32373405 0.41360798
000200 7a 2e 7e 3d 8f 3a 30 3f ed e4 ce 3e 41 44 ce 3e
       0.062056042 0.68839353 0.40409032 0.4028645
000210 c3 06 22 3f 90 df c3 3f d2 45 1f 3f db 7f 0c 3f
       0.6329157 1.5302601 0.6221591 0.5488259
000220 c3 bb 80 3f 24 2a 9c 3f 6c ce 33 3f 7c 7d 74 3f
       1.00573 1.220036 0.7023685 0.95503974
000230 74 e2 5b 3f 8c 1f 0e 3f ca 7c 02 40 30 50 b3 3f
       0.85892415 0.55516887 2.0388665 1.4008846
000240 99 75 af 3e 69 74 37 3f 06 17 38 3f 46 50 0a bd
       0.34269407 0.71662 0.7191013 -0.03376796
000250 b0 10 de 3e f8 50 ed 3e 4a 21 fa 3d 6b 17 ab 3e
       0.43372107 0.46350837 0.12213381 0.33416304
000260 ef ae e5 3f c6 dc ef 3e 0a 5f 35 40 20 76 fb 3f
       1.794401 0.46848124 2.8339257 1.9645424
000270 a2 67 5b 3f 4e 9b 2d 40 d3 b0 58 3f f3 f7 65 be
       0.85705006 2.712604 0.8464481 -0.22457866
000280 68 c2 b5 3f 99 b7 32 3f 55 7a a6 3f 22 12 61 3f
       1.4199953 0.698114 1.3006083 0.87918293
000290 ee 70 bf 3f 94 d0 0f 40 fc 55 d8 be 75 40 c8 3f
       1.4956338 2.2471056 -0.422531 1.5644671
0002a0 ee 7e 93 be 51 49 ff 3f d3 a1 76 3f e7 a4 c8 3f
       -0.28807777 1.9944249 0.96340674 1.5675324
0002b0 98 8b d2 3f 5b 54 59 be 18 de d3 3e 99 4e 03 bf
       1.6448851 -0.21223585 0.41380382 -0.51291806
0002c0 9c 38 1c 40 57 28 07 3f b8 36 34 3f 84 9d 94 bd
       2.4409552 0.5279593 0.70395994 -0.07256606
0002d0 e1 79 06 40 69 aa db 3f 25 10 2b 40 75 d7 d9 bc
       2.101189 1.716138 2.6728604 -0.026591996
0002e0 f7 84 0c 40 14 cb b9 3f a9 7b 92 3f 0c 49 50 3f
       2.1956155 1.45151 1.1443988 0.8136146
0002f0 ca 14 0d 3e 48 db cd 3d c9 a1 ac 3f 1b fd cb 3d
       0.13777462 0.1005159 1.3486873 0.099603854
000300 e4 34 87 3e 9c cf d4 3d fb 7b 0f 40 69 da 1b bc
       0.2640754 0.10391161 2.2419422 -0.009512522
000310 f5 8c 8c 3f 2c 41 b0 3f 31 24 16 3f f5 39 98 3f
       1.0980517 1.3769889 0.58648974 1.1892687
000320 d0 f3 24 40 ee 32 cf 3e 40 70 e7 3f ee 41 c6 3f
       2.5773811 0.40468544 1.8081131 1.548887
000330 46 60 1d 40 24 8b 24 3f 7c ef b1 3d d3 19 4b 3f
       2.459001 0.6427481 0.08688256 0.7933628
000340 83 81 0a 3f 5e 48 ea bd d5 76 1d 40 54 d5 8a 3e
       0.5410387 -0.11439584 2.460378 0.2711588
000350 52 5a 71 3f a2 ce 27 3f fc 7a 84 3f 3d ca 0e 3f
       0.9427844 0.6554967 1.0350032 0.5577734
000360 e6 8a 93 3f ee 45 03 be 91 88 24 3f 5a f4 a4 3e
       1.1526763 -0.12819645 0.64270884 0.32217675
000370 1b ab ab 3f 9e ad 6d 3e 81 b5 f5 3e 14 bf 01 3c
       1.3411592 0.23210761 0.4799004 0.007919092
000380 9b 84 b3 bd ae f8 2d bf 5d 56 22 bf 00 3c 61 3e
       -0.08765527 -0.6795758 -0.6341303 0.21995544
000390 9d 0c 7d 3e 5a e6 6a 3d e9 29 90 3f a6 03 10 3f
       0.24711843 0.057348587 1.126279 0.5625557
0003a0 4a a5 25 3f ba 9b 83 3d da 48 ed be ff 68 f6 3d
       0.64705336 0.06426187 -0.46344644 0.12031745
0003b0 84 f4 a0 3e 94 ea 1b 3e 7c 07 a4 3f 28 80 3c 3f
       0.3143655 0.15226203 1.2814784 0.7363305
0003c0 8d 33 08 3f fd 54 75 3f a4 ff 0c 3f 07 1c bd 3d
       0.5320366 0.95832807 0.55077577 0.092338614
0003d0 6b 95 99 3f b1 ff 12 3f c5 01 a1 3f 6b 3f ba 3f
       1.1998724 0.57421404 1.2578665 1.4550604
0003e0 56 16 05 3f 6d f0 76 3f a2 a5 19 3f f9 44 51 3f
       0.51987207 0.9646061 0.6001836 0.8174587
0003f0 fb 19 98 3f be 47 31 3e 0d 83 64 3f 39 1c 97 3f
       1.1882929 0.17312524 0.8926247 1.1805488

bias f4 [175]
000000 00 00 00 00 00 00 00 00 00 00 00 00 00 00 00 00
       0.0 0.0 0.0 0.0
000010 00 00 00 00 00 00 00 00 00 00 00 00 00 00 00 00
       0.0 0.0 0.0 0.0
000020 00 00 00 00 00 00 00 00 00 00 00 00 00 00 00 00
       0.0 0.0 0.0 0.0
000030 00 00 00 00 00 00 00 00 00 00 00 00 00 00 00 00
       0.0 0.0 0.0 0.0
000040 00 00 00 00 00 00 00 00 00 00 00 00 00 00 00 00
       0.0 0.0 0.0 0.0
000050 00 00 00 00 00 00 00 00 00 00 00 00 00 00 00 00
       0.0 0.0 0.0 0.0
000060 00 00 00 00 00 00 00 00 00 00 00 00 00 00 00 00
       0.0 0.0 0.0 0.0
000070 00 00 00 00 00 00 00 00 00 00 00 00 00 00 00 00
       0.0 0.0 0.0 0.0
000080 00 00 00 00 00 00 00 00 00 00 00 00 00 00 00 00
       0.0 0.0 0.0 0.0
000090 00 00 00 00 00 00 00 00 00 00 00 00 00 00 00 00
       0.0 0.0 0.0 0.0
0000a0 00 00 00 00 00 00 00 00 00 00 00 00 00 00 00 00
       0.0 0.0 0.0 0.0
0000b0 00 00 00 00 00 00 00 00 00 00 00 00 00 00 00 00
       0.0 0.0 0.0 0.0
0000c0 00 00 00 00 00 00 00 00 00 00 00 00 00 00 00 00
       0.0 0.0 0.0 0.0
0000d0 00 00 00 00 00 00 00 00 00 00 00 00 00 00 00 00
       0.0 0.0 0.0 0.0
0000e0 00 00 00 00 00 00 00 00 00 00 00 00 00 00 00 00
       0.0 0.0 0.0 0.0
0000f0 00 00 00 00 00 00 00 00 00 00 00 00 00 00 00 00
       0.0 0.0 0.0 0.0
000100 00 00 00 00 00 00 00 00 00 00 00 00 00 00 00 00
       0.0 0.0 0.0 0.0
000110 00 00 00 00 00 00 00 00 00 00 00 00 00 00 00 00
       0.0 0.0 0.0 0.0
000120 00 00 00 00 00 00 00 00 00 00 00 00 00 00 00 00
       0.0 0.0 0.0 0.0
000130 00 00 00 00 00 00 00 00 00 00 00 00 00 00 00 00
       0.0 0.0 0.0 0.0
000140 00 00 00 00 00 00 00 00 00 00 00 00 00 00 00 00
       0.0 0.0 0.0 0.0
000150 00 00 00 00 00 00 00 00 00 00 00 00 00 00 00 00
       0.0 0.0 0.0 0.0
000160 00 00 00 00 00 00 00 00 00 00 00 00 00 00 00 00
       0.0 0.0 0.0 0.0
000170 00 00 00 00 00 00 00 00 00 00 00 00 00 00 00 00
       0.0 0.0 0.0 0.0
000180 00 00 00 00 00 00 00 00 00 00 00 00 00 00 00 00
       0.0 0.0 0.0 0.0
000190 00 00 00 00 00 00 00 00 00 00 00 00 00 00 00 00
       0.0 0.0 0.0 0.0
0001a0 00 00 00 00 00 00 00 00 00 00 00 00 00 00 00 00
       0.0 0.0 0.0 0.0
0001b0 00 00 00 00 00 00 00 00 00 00 00 00 00 00 00 00
       0.0 0.0 0.0 0.0
0001c0 00 00 00 00 00 00 00 00 00 00 00 00 00 00 00 00
       0.0 0.0 0.0 0.0
0001d0 00 00 00 00 00 00 00 00 00 00 00 00 00 00 00 00
       0.0 0.0 0.0 0.0
0001e0 00 00 00 00 00 00 00 00 00 00 00 00 00 00 00 00
       0.0 0.0 0.0 0.0
0001f0 00 00 00 00 00 00 00 00 00 00 00 00 00 00 00 00
       0.0 0.0 0.0 0.0
000200 00 00 00 00 00 00 00 00 00 00 00 00 00 00 00 00
       0.0 0.0 0.0 0.0
000210 00 00 00 00 00 00 00 00 00 00 00 00 00 00 00 00
       0.0 0.0 0.0 0.0
000220 00 00 00 00 00 00 00 00 00 00 00 00 00 00 00 00
       0.0 0.0 0.0 0.0
000230 00 00 00 00 00 00 00 00 00 00 00 00 00 00 00 00
       0.0 0.0 0.0 0.0
000240 00 00 00 00 00 00 00 00 00 00 00 00 00 00 00 00
       0.0 0.0 0.0 0.0
000250 00 00 00 00 00 00 00 00 00 00 00 00 00 00 00 00
       0.0 0.0 0.0 0.0
000260 00 00 00 00 00 00 00 00 00 00 00 00 00 00 00 00
       0.0 0.0 0.0 0.0
000270 00 00 00 00 00 00 00 00 00 00 00 00 00 00 00 00
       0.0 0.0 0.0 0.0
000280 00 00 00 00 00 00 00 00 00 00 00 00 00 00 00 00
       0.0 0.0 0.0 0.0
000290 00 00 00 00 00 00 00 00 00 00 00 00 00 00 00 00
       0.0 0.0 0.0 0.0
0002a0 00 00 00 00 00 00 00 00 00 00 00 00 00 00 00 00
       0.0 0.0 0.0 0.0
0002b0 00 00 00 00 00 00 00 00 00 00 00 00
       0.0 0.0 0.0

_ei_mask f4 [175]
000000 00 00 80 3f 00 00 80 3f 00 00 80 3f 00 00 80 3f
       1.0 1.0 1.0 1.0
000010 00 00 80 3f 00 00 80 3f 00 00 80 3f 00 00 80 3f
       1.0 1.0 1.0 1.0
000020 00 00 80 3f 00 00 80 3f 00 00 80 3f 00 00 80 3f
       1.0 1.0 1.0 1.0
000030 00 00 80 3f 00 00 80 3f 00 00 80 3f 00 00 80 3f
       1.0 1.0 1.0 1.0
000040 00 00 80 3f 00 00 80 3f 00 00 80 3f 00 00 80 3f
       1.0 1.0 1.0 1.0
000050 00 00 80 3f 00 00 80 3f 00 00 80 3f 00 00 80 3f
       1.0 1.0 1.0 1.0
000060 00 00 80 3f 00 00 80 3f 00 00 80 3f 00 00 80 3f
       1.0 1.0 1.0 1.0
000070 00 00 80 3f 00 00 80 3f 00 00 80 3f 00 00 80 3f
       1.0 1.0 1.0 1.0
000080 00 00 80 3f 00 00 80 3f 00 00 80 3f 00 00 80 3f
       1.0 1.0 1.0 1.0
000090 00 00 80 3f 00 00 80 3f 00 00 80 3f 00 00 80 3f
       1.0 1.0 1.0 1.0
0000a0 00 00 80 3f 00 00 80 3f 00 00 80 3f 00 00 80 3f
       1.0 1.0 1.0 1.0
0000b0 00 00 80 3f 00 00 80 3f 00 00 80 3f 00 00 80 3f
       1.0 1.0 1.0 1.0
0000c0 00 00 80 3f 00 00 80 3f 00 00 80 3f 00 00 80 3f
       1.0 1.0 1.0 1.0
0000d0 00 00 80 3f 00 00 80 3f 00 00 80 3f 00 00 80 3f
       1.0 1.0 1.0 1.0
0000e0 00 00 80 3f 00 00 80 3f 00 00 80 3f 00 00 80 3f
       1.0 1.0 1.0 1.0
0000f0 00 00 80 3f 00 00 80 3f 00 00 80 3f 00 00 80 3f
       1.0 1.0 1.0 1.0
000100 00 00 80 3f 00 00 80 3f 00 00 80 3f 00 00 80 3f
       1.0 1.0 1.0 1.0
000110 00 00 80 3f 00 00 80 3f 00 00 80 3f 00 00 80 3f
       1.0 1.0 1.0 1.0
000120 00 00 80 3f 00 00 80 3f 00 00 80 3f 00 00 80 3f
       1.0 1.0 1.0 1.0
000130 00 00 80 3f 00 00 80 3f 00 00 80 3f 00 00 80 3f
       1.0 1.0 1.0 1.0
000140 00 00 80 3f 00 00 80 3f 00 00 80 3f 00 00 80 3f
       1.0 1.0 1.0 1.0
000150 00 00 80 3f 00 00 80 3f 00 00 80 3f 00 00 80 3f
       1.0 1.0 1.0 1.0
000160 00 00 80 3f 00 00 80 3f 00 00 80 3f 00 00 80 3f
       1.0 1.0 1.0 1.0
000170 00 00 80 3f 00 00 80 3f 00 00 80 3f 00 00 80 3f
       1.0 1.0 1.0 1.0
000180 00 00 80 3f 00 00 80 3f 00 00 80 3f 00 00 80 3f
       1.0 1.0 1.0 1.0
000190 00 00 80 3f 00 00 80 3f 00 00 80 3f 00 00 80 3f
       1.0 1.0 1.0 1.0
0001a0 00 00 80 3f 00 00 80 3f 00 00 80 3f 00 00 80 3f
       1.0 1.0 1.0 1.0
0001b0 00 00 80 3f 00 00 80 3f 00 00 80 3f 00 00 80 3f
       1.0 1.0 1.0 1.0
0001c0 00 00 80 3f 00 00 80 3f 00 00 80 3f 00 00 80 3f
       1.0 1.0 1.0 1.0
0001d0 00 00 80 3f 00 00 80 3f 00 00 80 3f 00 00 80 3f
       1.0 1.0 1.0 1.0
0001e0 00 00 80 3f 00 00 80 3f 00 00 80 3f 00 00 80 3f
       1.0 1.0 1.0 1.0
0001f0 00 00 80 3f 00 00 80 3f 00 00 80 3f 00 00 80 3f
       1.0 1.0 1.0 1.0
000200 00 00 80 3f 00 00 80 3f 00 00 80 3f 00 00 80 3f
       1.0 1.0 1.0 1.0
000210 00 00 80 3f 00 00 80 3f 00 00 80 3f 00 00 80 3f
       1.0 1.0 1.0 1.0
000220 00 00 80 3f 00 00 80 3f 00 00 80 3f 00 00 80 3f
       1.0 1.0 1.0 1.0
000230 00 00 80 3f 00 00 80 3f 00 00 80 3f 00 00 80 3f
       1.0 1.0 1.0 1.0
000240 00 00 80 3f 00 00 80 3f 00 00 80 3f 00 00 80 3f
       1.0 1.0 1.0 1.0
000250 00 00 80 3f 00 00 80 3f 00 00 80 3f 00 00 80 3f
       1.0 1.0 1.0 1.0
000260 00 00 80 3f 00 00 80 3f 00 00 80 3f 00 00 80 3f
       1.0 1.0 1.0 1.0
000270 00 00 80 3f 00 00 80 3f 00 00 80 3f 00 00 80 3f
       1.0 1.0 1.0 1.0
000280 00 00 80 3f 00 00 80 3f 00 00 80 3f 00 00 80 3f
       1.0 1.0 1.0 1.0
000290 00 00 80 3f 00 00 80 3f 00 00 80 3f 00 00 80 3f
       1.0 1.0 1.0 1.0
0002a0 00 00 80 3f 00 00 80 3f 00 00 80 3f 00 00 80 3f
       1.0 1.0 1.0 1.0
0002b0 00 00 80 3f 00 00 80 3f 00 00 80 3f
       1.0 1.0 1.0

weight f4 [175, 3]
000000 75 92 6a 3f d4 cb 41 c0 df fe d8 3e 4d cc 53 bf
       0.91629726 -3.0280657 0.4238195 -0.82733613
000010 a1 b7 8a be 4c 73 9c 40 27 06 00 bf 19 9a 2f 3e
       -0.27093223 4.8890743 -0.5000939 0.17148627
000020 2d 13 79 3e f6 ce db be 21 9c a1 c0 40 10 0f c0
       0.24323721 -0.42931336 -5.0503087 -2.2353668
000030 26 58 c8 3f 30 33 08 40 ab 1c 35 c0 00 5e 91 bf
       1.5651901 2.1281242 -2.8298748 -1.1356812
000040 2e c1 06 c0 b4 76 7e 40 06 7a 91 c0 43 0f a7 3e
       -2.1055408 3.975995 -4.5461454 0.3262883
000050 ba c8 82 c0 40 a2 79 bf 0b 0e 9e 3e bd c0 63 3f
       -4.0870028 -0.975132 0.3087009 0.8896597
000060 cc 80 8b 40 04 21 1b 40 f3 dd 2b c0 5c cf ca 3e
       4.3594723 2.42389 -2.6854217 0.39611328
000070 26 c3 08 c0 84 e9 a1 3f 2d 39 56 40 09 6a df 3e
       -2.136911 1.2649388 3.3472397 0.43635586
000080 e4 15 36 bf fb 4c 64 c0 63 32 0f 40 87 88 92 be
       -0.7112715 -3.5671985 2.2374504 -0.28619787
000090 b3 a9 ab 40 39 87 27 bf 80 0d 6a c0 82 c2 05 40
       5.364465 -0.6544071 -3.657074 2.0899968
0000a0 d2 76 52 3f bc 07 e2 bf 7e b4 18 c0 64 de e5 3f
       0.82212555 -1.765861 -2.3860164 1.7958493
0000b0 2c ee 16 bf d3 72 99 3f e8 28 11 40 ed 25 90 3f
       -0.5895717 1.1988167 2.2681217 1.1261574
0000c0 39 70 82 c0 44 a6 5a 3f 08 81 7b 3e 5e 7a 86 40
       -4.076199 0.8540995 0.2456094 4.2024374
0000d0 99 a6 4c bf 28 13 ed bf 1a bb 75 c0 83 b4 c4 bf
       -0.7994171 -1.8521471 -3.8395448 -1.5367588
0000e0 d7 d4 b5 3f 14 97 22 bf 4f 97 66 bf f8 46 9e 3f
       1.4205579 -0.63511777 -0.9007463 1.2365408
0000f0 3c c2 1d 40 3c d1 a3 bc 65 30 e7 3f c8 48 3f 40
       2.4649801 -0.019997232 1.8061644 2.9888172
000100 85 34 12 c0 c2 1c d2 bf 1d 98 c9 3f c6 20 88 c0
       -2.2844555 -1.6415026 1.5749546 -4.2540007
000110 f2 58 10 40 09 cd a2 c0 b5 7b 67 3d 79 d0 ef 3f
       2.2554288 -5.0875287 0.05651446 1.8735496
000120 bb 70 86 40 55 41 7d bf f8 39 db be 61 a7 db be
       4.201261 -0.98927814 -0.42817664 -0.42901137
000130 e8 42 44 40 e0 74 00 41 8b 99 5a bf f2 96 7a 3f
       3.0665836 8.028534 -0.8539054 0.97886574
000140 2a 6c 89 3f 15 9d 23 40 8c a6 22 3e 26 e8 fd 3f
       1.0736134 2.5564625 0.15883845 1.9836471
000150 95 5f b1 bf 1e a3 d8 3f 5f d4 83 40 ab b8 8e 3f
       -1.3857294 1.692478 4.119674 1.1150106
000160 5e f9 9c bf 18 e4 5e c0 44 e0 ab bf ca d6 01 c0
       -1.2263601 -3.4826717 -1.3427815 -2.0287347
000170 ea 50 a9 bf ed d2 08 3e 0e 14 98 40 4c 3e 20 3e
       -1.3227818 0.13361712 4.752448 0.15648764
000180 43 d0 1f 3f 79 39 e4 3f 51 96 60 c0 89 a7 36 40
       0.6242716 1.7830039 -3.5091746 2.8539755
000190 7d 71 b2 bf b2 d4 80 c0 28 d2 52 3f 3d cf 1f bf
       -1.3940884 -4.025964 0.82351923 -0.62425596
0001a0 0c d7 fd 3f c5 8b 3b c0 e8 5c 8f 40 47 8f d0 3f
       1.9831252 -2.9304059 4.480091 1.6293725
0001b0 c9 23 43 bf 8f d4 9d c0 15 3a 15 40 bb 9f 80 c0
       -0.7622648 -4.932197 2.33167 -4.0194983
0001c0 94 06 52 c0 3d c0 37 3f 72 32 b3 bf c4 8a a9 3f
       -3.2816515 0.7177771 -1.399977 1.3245473
0001d0 94 6a 49 40 cb c6 6d 3e 24 e3 31 bf a2 ac 67 c0
       3.14713 0.23220365 -0.69487214 -3.6199117
0001e0 35 31 8b be a1 40 a3 3f 4a b4 5d 3e 54 79 a4 3f
       -0.2718598 1.2754098 0.21650806 1.2849526
0001f0 e2 6c 0a 3e 8f 10 f4 3f 86 57 07 bf 4d 75 f5 bf
       0.13518098 1.9067553 -0.52867925 -1.9176422
000200 a0 68 a9 be 49 70 1f c0 b3 96 9d bf 68 38 7b c0
       -0.33087635 -2.4912283 -1.2311615 -3.9253178
000210 8e b1 85 40 8a 2e b1 40 31 d8 41 3f 3d ba 6b bd
       4.177924 5.536931 0.75720507 -0.057550658
000220 12 12 67 3e 70 44 91 3d 98 7a 6c 3f 30 59 e0 bf
       0.22565487 0.070931315 0.92374563 -1.7527218
000230 ab de 80 bf 95 5f 30 c0 7d 44 93 3f 4f 00 cd bf
       -1.0067953 -2.7558339 1.1505276 -1.6015719
000240 98 28 4d bf 65 7d 00 40 11 2d bf bd a2 d0 4e bf
       -0.80140066 2.0076535 -0.093347676 -0.807871
000250 5a d4 45 3f 9c 76 b9 3f 66 c0 56 40 02 e5 1e 3e
       0.7727715 1.4489322 3.355493 0.15517047
000260 b0 fe 04 c1 f2 1c 27 3f b0 b3 ad bf 64 05 df c0
       -8.31218 0.6527854 -1.3570461 -6.969408
000270 13 b5 12 c0 08 ce 61 3f 65 61 12 c0 6e 66 21 3f
       -2.292302 0.88205004 -2.2871945 0.6304692
000280 b7 53 80 be c5 de d0 bd 64 a0 c2 3f 43 10 32 c0
       -0.2506387 -0.1019874 1.5205197 -2.7822425
000290 98 a9 df 3f bd 6e 25 c0 d7 29 33 40 0e 45 d3 c0
       1.7473631 -2.584884 2.7994287 -6.6021795
0002a0 e8 ff c8 bf 48 03 23 bf 4b 85 25 40 6c 2a 30 c0
       -1.5703096 -0.6367688 2.5862606 -2.7525892
0002b0 cb 43 dd 3f d3 1e 0a bf 08 39 79 c0 5f 7d 6d c0
       1.7286314 -0.53953284 -3.894106 -3.710777
0002c0 03 26 e3 3f 88 50 33 c0 ce d1 33 40 25 8a 71 bf
       1.7745975 -2.8017902 2.8096805 -0.94351417
0002d0 18 ed 95 40 30 a8 8a c0 01 ee 4f bf e5 81 82 bf
       4.685192 -4.3330307 -0.8122254 -1.0195891
0002e0 26 57 e0 bf 14 cc 2d 40 c2 a4 e9 bf b0 a5 1c bf
       -1.7526596 2.715581 -1.8253405 -0.6119032
0002f0 1c 24 03 40 2f 82 0b 40 05 91 6a bf 55 e5 93 40
       2.049079 2.1798208 -0.9162753 4.6217446
000300 6c 1f 91 3f 79 80 bd 3f e5 f9 8d 3f f8 82 01 c0
       1.1337714 1.4804832 1.1091887 -2.0236187
000310 65 5e 66 bf fa b1 01 bf 5f dd 68 c0 b2 09 05 3f
       -0.89987785 -0.50662196 -3.6385114 0.5196792
000320 08 5f 62 c0 85 ce 78 3d 30 50 97 3f b3 9a 44 40
       -3.5370502 0.060743827 1.1821346 3.071942
000330 c0 53 71 40 f0 56 0a c0 b3 4b 0f 40 b0 40 b8 bd
       3.7707367 -2.1615562 2.2389953 -0.08996713
000340 ab ee 01 3f d7 35 3d 40 75 91 9e 3e 1c 33 ba bf
       0.50754803 2.9564111 0.3097035 -1.4546847
000350 f5 b6 c4 be a1 40 6c c0 1c 08 e5 bf 84 0a 33 bf
       -0.38420835 -3.6914446 -1.78931 -0.6993792
000360 f7 36 14 bf 5a ba d6 c0 91 9b f4 bf de e4 8d c0
       -0.5789637 -6.710248 -1.9109975 -4.434188
000370 6f bd 6d 40 98 17 03 bf 28 8b aa bf 86 e5 8f c0
       3.714687 -0.51207876 -1.3323717 -4.496768
000380 cf 88 a9 bf ee 55 26 c0 ba d6 a8 3f d1 b5 38 bf
       -1.3244876 -2.5989947 1.3190529 -0.7215243
000390 8f 15 6e c0 91 30 26 40 de 8d 26 be dc de a0 bf
       -3.7200658 2.5967143 -0.16265056 -1.2568011
0003a0 e9 47 ec c0 02 c5 ef bf e6 fe 6b c0 63 bc 09 40
       -7.383778 -1.8731997 -3.6874328 2.1521232
0003b0 65 cc 11 3f 28 a4 2b 3f 63 08 f7 3f d7 fe 63 3f
       0.56952506 0.6704736 1.9299434 0.8906073
0003c0 a1 50 3f c0 97 50 65 bf a1 c9 31 bf cd e6 f0 be
       -2.9892962 -0.89576095 -0.69448286 -0.47051087
0003d0 44 8a 5e 40 86 ad f5 3e a1 2b a9 c0 40 aa 04 40
       3.477189 0.4798395 -5.286576 2.0728912
0003e0 53 6a 10 3f 7a 2d 39 40 d4 a0 b0 3f d7 95 7d bf
       0.5641224 2.8934007 1.3799081 -0.9905676
0003f0 8c 11 ba bf 3c 9e 18 40 da 84 98 bf f4 b7 83 c0
       -1.4536605 2.3846579 -1.1915543 -4.116205

bias f4 [3]
000000 00 00 00 00 00 00 00 00 00 00 00 00
       0.0 0.0 0.0

_ei_mask f4 [3]
000000 00 00 80 3f 00 00 80 3f 00 00 80 3f
       1.0 1.0 1.0

weight f4 [3, 175]
000000 3c f6 8a 3d 1d b1 be bd ca 04 46 3e c2 78 12 be
       0.06785247 -0.093111254 0.19337764 -0.14303878
000010 b2 f2 8e 3d 38 ad 7a 3d 4c 15 bb bd ee 57 cf 3d
       0.06979884 0.06120035 -0.091349214 0.10124193
000020 d0 39 13 3e a0 b6 76 3c 27 ac a8 ba bf aa 11 be
       0.14377522 0.01505819 -0.0012868688 -0.1422529
000030 05 cf 6e 3e d5 c9 c7 3d 63 bd d1 be 75 32 3e 3c
       0.23321159 0.09755293 -0.40964803 0.01160871
000040 05 9a df be 12 ec 38 3e 45 ee c9 be 1c 21 cd 3d
       -0.43672195 0.18058804 -0.39439598 0.10016081
000050 15 71 82 3d 3e d5 99 3c e9 81 17 3e ab 2f 5e 3d
       0.06369225 0.01877844 0.1479565 0.05424468
000060 27 33 f6 3d 55 9a 1c 3d ef 67 cd 3d d8 25 fa 3d
       0.12021475 0.03823312 0.100295894 0.12214249
000070 ff 45 eb 3d c5 94 ca 3d bd 19 c3 3d ef d1 6e 38
       0.1148796 0.09891657 0.095263936 5.6939138e-05
000080 f7 5b 90 3d 52 e4 dd 3d 2d cc b4 3d cf a3 22 3d
       0.07048791 0.10834564 0.08828006 0.039707
000090 56 72 aa 3d cd eb 87 be 7e a5 af 3d ba eb 03 3e
       0.08322589 -0.2654709 0.08576487 0.12882891
0000a0 73 2e f4 3d f2 28 5c 3e aa e2 cc 3d 28 1d c6 bd
       0.11922922 0.21499994 0.1000417 -0.0967353
0000b0 2f e0 e4 3d 93 09 a0 3c 75 8f db 3d 42 6a e7 bd
       0.11175572 0.019535815 0.10720722 -0.11299564
0000c0 8f b2 3a 3c 65 16 21 3d 5b c8 b9 3e bd 02 b0 3e
       0.011395111 0.039327998 0.36285672 0.3437709
0000d0 27 73 0c be b7 06 a2 3d ca de 8a ba 9f 8c 64 3d
       -0.13715802 0.07911437 -0.0010594961 0.05579817
0000e0 0e 8c 03 3e d7 ab 19 be a7 16 12 be 66 ed a7 bd
       0.12846395 -0.15006958 -0.14266454 -0.08199577
0000f0 ae 01 3f 3e 93 88 10 3e 9a 79 57 3b 5a 01 f3 3d
       0.18652984 0.14114599 0.0032878877 0.11865492
000100 06 63 59 3d 7c 1b a1 3d 95 0c 96 bd da 33 d9 3d
       0.05307295 0.0786657 -0.073266186 0.10605593
000110 8d 86 74 3e 14 af 95 3d c4 3e 84 bd 9f f0 32 be
       0.23879452 0.07308784 -0.06457284 -0.17474602
000120 02 53 01 3d 3e ca 68 be e3 02 37 bd 9e 1b 69 be
       0.031573303 -0.227334 -0.044680487 -0.22764441
000130 ee 06 83 be 93 87 9b 3d 06 09 72 be 33 7f fb bd
       -0.25591224 0.07594218 -0.23636255 -0.12280121
000140 27 2e 21 be 86 0b 32 be 99 2b bb be f8 5a 98 3d
       -0.15740262 -0.17387208 -0.365567 0.07439226
000150 de c8 4f be 18 b5 a1 3c 38 54 58 3d 28 33 97 3d
       -0.20291469 0.019739673 0.052814692 0.07382804
000160 da 52 96 3d d3 48 89 3d 8d cc 26 be 8f 91 51 be
       0.073400214 0.06703343 -0.16288967 -0.20465682
000170 d5 d6 81 3d d3 93 27 be e6 f9 78 3d b2 ad ed 3d
       0.06339804 -0.16364984 0.060785197 0.116053954
000180 7c 68 d7 3d 07 88 f0 3d 27 60 46 bd 82 29 d8 3d
       0.10517976 0.11744695 -0.04843154 0.10554792
000190 2e 62 c2 3d ee ca d6 3d 51 f6 4e 3d c8 73 b6 3d
       0.094913825 0.104879245 0.050527874 0.08908802
0001a0 13 05 9d 3d d8 e4 c1 3d ae 76 a5 3d 60 14 fc 3c
       0.076669835 0.094674766 0.08079277 0.030771434
0001b0 55 fa ec 3b 9d 82 1f 3e ea 1a 4d bd 57 2f bb 3d
       0.0072319903 0.15577169 -0.050074495 0.09139889
0001c0 1c 65 bb 3d cf e0 5b 3d 6f 6b 17 3d 76 77 df 3d
       0.091501445 0.05368119 0.03696769 0.10911457
0001d0 ea e5 a3 3d 84 7e 36 3e 42 df e8 3d 52 aa 41 3e
       0.08002837 0.178217 0.11370708 0.18912628
0001e0 2c 22 02 3e ba 9e 5e 3e 57 7d 98 3d 78 d3 96 bc
       0.12708348 0.21740237 0.07445782 -0.018411383
0001f0 6e 8a 01 3e 7d e3 e4 3d 17 22 76 3b 35 45 59 bc
       0.12650463 0.111762024 0.003755694 -0.013261129
000200 0e 19 54 3e d3 99 89 3d 75 4b a7 3d 24 bd 13 3e
       0.20712683 0.06718793 0.08168689 0.1442762
000210 1a 6b 0a 3e 04 4e dc 3d d5 41 11 3e db c3 2c bc
       0.13517419 0.10757068 0.14185269 -0.010544742
000220 23 30 e6 bd 39 50 bd 3d eb bf a9 3b 48 dd b9 bd
       -0.1123965 0.09243817 0.005180349 -0.09075409
000230 6a c4 a0 3d 28 06 d3 3d cb 20 f0 3d 0f 74 07 3e
       0.07849963 0.103039086 0.11725005 0.13227867
000240 46 7a 6a 3c 66 cb a7 3d cf ba 31 3e af b2 23 3e
       0.014311379 0.08193092 0.17356418 0.15986131
000250 1d de 68 3e 35 5d 8f 3d 59 d1 fb 3d 82 c9 60 be
       0.2274098 0.070002 0.12295789 -0.21951869
000260 6f 8d 88 3d 5d 51 f8 3d 11 25 5f be c1 e7 7a bc
       0.06667601 0.12124894 -0.21791483 -0.0153140435
000270 e6 41 b3 bc bc 09 f3 bd 0d a8 69 bd a4 20 27 3e
       -0.021882009 -0.11867091 -0.05704503 0.16321045
000280 e8 4e e8 3d 3c 0a ab 3d 3b 42 08 3e 82 ed 82 3d
       0.11343175 0.083515614 0.13306515 0.06392957
000290 c1 1c 35 3b 97 1f b6 3d a4 3a b2 3e 5c 96 e6 bd
       0.0027635547 0.08892744 0.34810364 -0.112591475
0002a0 d1 96 63 3e d6 3b 5c 3d af 28 8f 3d 0f 6e f5 3d
       0.222255 0.053768 0.06990182 0.11983883
0002b0 52 fe 15 3e ea b4 db 3d 93 ed 98 bd 63 e6 36 be
       0.14647797 0.10727866 -0.07467189 -0.17861323
0002c0 89 5f 96 3e 2e 4e 97 3d 63 fa 75 be 75 4a 9d 3d
       0.29369763 0.073879585 -0.24021296 0.07680217
0002d0 e0 19 a5 3d 28 49 a3 3e f6 d7 14 3e 40 1f ff 3d
       0.08061576 0.3189175 0.14535508 0.12457132
0002e0 15 67 9b 3e df 38 a4 3d eb 63 ec 3d 64 71 f6 3d
       0.30352083 0.0801866 0.11542495 0.12033346
0002f0 76 c0 a9 3d 61 a2 09 3e 5e 12 77 3e 4c 27 d9 3d
       0.08288662 0.13440849 0.241281 0.106031984
000300 ec d8 1e bf d3 d9 8f 3d 5f 21 59 3e 74 72 af bd
       -0.62049747 0.070239685 0.21204136 -0.08566752
000310 50 fb 15 bd b5 1b a6 bc f3 9d a8 bc 89 e8 25 3d
       -0.036616623 -0.020276884 -0.020583129 0.040504966
000320 13 10 6e 3e fe 90 f0 3d fe ae 9d 3c 05 18 a5 3d
       0.2324832 0.11746405 0.019248482 0.08061222
000330 7c 22 df 3d 8b 93 9f bc 4b 86 c5 3e 02 78 11 3e
       0.10895249 -0.019479534 0.3857902 0.14205936
000340 44 b4 f0 3d 9d 15 36 3c 90 17 3b 3e 86 62 8f be
       0.11753133 0.011113551 0.18270707 -0.28004855
000350 e1 a2 9d bb ff bd 86 3e 90 97 e4 3d 81 b7 2a 3e
       -0.0048106764 0.2631683 0.11161721 0.16671564
000360 62 aa 73 bc d8 e4 32 bc 94 42 ba bd 0d aa 7c 3e
       -0.014872165 -0.010918818 -0.0909473 0.24674244
000370 7d 3a 75 3e 1a 43 00 be 93 32 8e bd 8a b0 c5 3e
       0.23948093 -0.12525597 -0.0694324 0.3861125
000380 35 25 4a 3e b4 ff 09 be d7 91 95 bd f1 c8 4f 3e
       0.19740756 -0.13476449 -0.07303207 0.20291497
000390 13 88 e2 bd 88 f8 10 be e6 ec 1e 3e 16 39 4d bd
       -0.1106111 -0.14157307 0.15520057 -0.05010327
0003a0 ba d1 35 3e df 52 37 bf cf f9 a1 3e 7a 8d 21 bf
       0.17755786 -0.71610826 0.316359 -0.631065
0003b0 10 49 a5 bd 33 e2 46 bc 35 41 53 bd 19 6e ac 3d
       -0.08070576 -0.012138891 -0.05157586 0.08419437
0003c0 b4 d4 7a 3d f2 74 e7 bc 0b 2b d5 3d 88 68 b3 bd
       0.061238006 -0.028254006 0.104086004 -0.08760172
0003d0 ea 7d d3 3d d7 df c0 bd 0f 40 d9 bd 78 e2 42 bd
       0.103267506 -0.09417694 -0.10607921 -0.04757926
0003e0 77 0e 3c 3e 75 60 13 3e 03 12 0c 3e 0b 87 be 3d
       0.18364893 0.14392264 0.13678746 0.09303101
0003f0 24 55 c9 bd 31 58 3d 3e 65 f4 85 3e 86 92 74 3d
       -0.098306924 0.18490674 0.2616302 0.05971005

bias f4 [175]
000000 00 00 00 00 00 00 00 00 00 00 00 00 00 00 00 00
       0.0 0.0 0.0 0.0
000010 00 00 00 00 00 00 00 00 00 00 00 00 00 00 00 00
       0.0 0.0 0.0 0.0
000020 00 00 00 00 00 00 00 00 00 00 00 00 00 00 00 00
       0.0 0.0 0.0 0.0
000030 00 00 00 00 00 00 00 00 00 00 00 00 00 00 00 00
       0.0 0.0 0.0 0.0
000040 00 00 00 00 00 00 00 00 00 00 00 00 00 00 00 00
       0.0 0.0 0.0 0.0
000050 00 00 00 00 00 00 00 00 00 00 00 00 00 00 00 00
       0.0 0.0 0.0 0.0
000060 00 00 00 00 00 00 00 00 00 00 00 00 00 00 00 00
       0.0 0.0 0.0 0.0
000070 00 00 00 00 00 00 00 00 00 00 00 00 00 00 00 00
       0.0 0.0 0.0 0.0
000080 00 00 00 00 00 00 00 00 00 00 00 00 00 00 00 00
       0.0 0.0 0.0 0.0
000090 00 00 00 00 00 00 00 00 00 00 00 00 00 00 00 00
       0.0 0.0 0.0 0.0
0000a0 00 00 00 00 00 00 00 00 00 00 00 00 00 00 00 00
       0.0 0.0 0.0 0.0
0000b0 00 00 00 00 00 00 00 00 00 00 00 00 00 00 00 00
       0.0 0.0 0.0 0.0
0000c0 00 00 00 00 00 00 00 00 00 00 00 00 00 00 00 00
       0.0 0.0 0.0 0.0
0000d0 00 00 00 00 00 00 00 00 00 00 00 00 00 00 00 00
       0.0 0.0 0.0 0.0
0000e0 00 00 00 00 00 00 00 00 00 00 00 00 00 00 00 00
       0.0 0.0 0.0 0.0
0000f0 00 00 00 00 00 00 00 00 00 00 00 00 00 00 00 00
       0.0 0.0 0.0 0.0
000100 00 00 00 00 00 00 00 00 00 00 00 00 00 00 00 00
       0.0 0.0 0.0 0.0
000110 00 00 00 00 00 00 00 00 00 00 00 00 00 00 00 00
       0.0 0.0 0.0 0.0
000120 00 00 00 00 00 00 00 00 00 00 00 00 00 00 00 00
       0.0 0.0 0.0 0.0
000130 00 00 00 00 00 00 00 00 00 00 00 00 00 00 00 00
       0.0 0.0 0.0 0.0
000140 00 00 00 00 00 00 00 00 00 00 00 00 00 00 00 00
       0.0 0.0 0.0 0.0
000150 00 00 00 00 00 00 00 00 00 00 00 00 00 00 00 00
       0.0 0.0 0.0 0.0
000160 00 00 00 00 00 00 00 00 00 00 00 00 00 00 00 00
       0.0 0.0 0.0 0.0
000170 00 00 00 00 00 00 00 00 00 00 00 00 00 00 00 00
       0.0 0.0 0.0 0.0
000180 00 00 00 00 00 00 00 00 00 00 00 00 00 00 00 00
       0.0 0.0 0.0 0.0
000190 00 00 00 00 00 00 00 00 00 00 00 00 00 00 00 00
       0.0 0.0 0.0 0.0
0001a0 00 00 00 00 00 00 00 00 00 00 00 00 00 00 00 00
       0.0 0.0 0.0 0.0
0001b0 00 00 00 00 00 00 00 00 00 00 00 00 00 00 00 00
       0.0 0.0 0.0 0.0
0001c0 00 00 00 00 00 00 00 00 00 00 00 00 00 00 00 00
       0.0 0.0 0.0 0.0
0001d0 00 00 00 00 00 00 00 00 00 00 00 00 00 00 00 00
       0.0 0.0 0.0 0.0
0001e0 00 00 00 00 00 00 00 00 00 00 00 00 00 00 00 00
       0.0 0.0 0.0 0.0
0001f0 00 00 00 00 00 00 00 00 00 00 00 00 00 00 00 00
       0.0 0.0 0.0 0.0
000200 00 00 00 00 00 00 00 00 00 00 00 00 00 00 00 00
       0.0 0.0 0.0 0.0
000210 00 00 00 00 00 00 00 00 00 00 00 00 00 00 00 00
       0.0 0.0 0.0 0.0
000220 00 00 00 00 00 00 00 00 00 00 00 00 00 00 00 00
       0.0 0.0 0.0 0.0
000230 00 00 00 00 00 00 00 00 00 00 00 00 00 00 00 00
       0.0 0.0 0.0 0.0
000240 00 00 00 00 00 00 00 00 00 00 00 00 00 00 00 00
       0.0 0.0 0.0 0.0
000250 00 00 00 00 00 00 00 00 00 00 00 00 00 00 00 00
       0.0 0.0 0.0 0.0
000260 00 00 00 00 00 00 00 00 00 00 00 00 00 00 00 00
       0.0 0.0 0.0 0.0
000270 00 00 00 00 00 00 00 00 00 00 00 00 00 00 00 00
       0.0 0.0 0.0 0.0
000280 00 00 00 00 00 00 00 00 00 00 00 00 00 00 00 00
       0.0 0.0 0.0 0.0
000290 00 00 00 00 00 00 00 00 00 00 00 00 00 00 00 00
       0.0 0.0 0.0 0.0
0002a0 00 00 00 00 00 00 00 00 00 00 00 00 00 00 00 00
       0.0 0.0 0.0 0.0
0002b0 00 00 00 00 00 00 00 00 00 00 00 00
       0.0 0.0 0.0
