checkpoints/version97/model.pt (torch, 47789 bytes, 21 tensors)

bias f4 [175]
00000000: ce3f 433f 49e6 6940 b43e e8be 8743 2b40
00000010: ec83 0b3e dfc1 6640 3d12 2040 712b 8b40
00000020: a845 d93f b3e7 5140 975c e23f 34ea 0340
00000030: 8a2d 9dbe 7394 213b 226a e33e fa97 3540
00000040: 1ccc ce3e 6f26 0f3f 8b43 ce3e c486 8240
00000050: 7162 233f 469a 0b40 0d64 1140 742c aabd
00000060: c6d1 82bf 5742 8440 f539 2d3f 1fdc 3640
00000070: 1509 b83f eeea 7740 4927 933f afa8 1a3e
00000080: 5f97 e33f 17b6 afbd e353 533f 74c0 9840
00000090: f172 913f ff2d e33f 9a64 de3f b972 0340
000000a0: a9c1 2040 9213 ac3f b27d 8a3e e70b e43e
000000b0: cb89 af3f 4d39 e2be 681f 203f 9f3a 073f
000000c0: 9693 db3e 7838 bfbd ab3e a1bc e8bd fa3c
000000d0: afac c63f 455a 043f 2063 f83e a45f a13f
000000e0: b131 3d3d bc12 633f 6e40 173f 0801 fb3a
000000f0: 1649 853e 461c 5a3e 9718 8f3f c34b b33f
00000100: 507b f83e d6d7 443f cfd7 1a3f b7c0 6a3e
00000110: cf3b 313f 95fc f33f 364f 773d 08f6 1440
00000120: 073a 2040 2074 8f3f 64ef 0140 6c70 9e3f
00000130: 3c63 0a40 a194 1e40 c10f e33f c7b6 1640
00000140: b2ef 1d40 dc7f 5140 daf2 a33f f245 5740
00000150: def8 fc3f 3194 0d40 0dbf 6c40 45a1 8e40
00000160: 4c63 943f a08b a43f 25d0 0e40 d56b de3e
00000170: 0bb5 8040 7369 8f3f ca6b ce3f 438d f23e
00000180: cd8a aa40 28aa 433f 5aa8 a63d d2a3 873e
00000190: a07b 4f40 4c9c 493f 21c1 d83f cca8 3340
000001a0: f41c b03f 9615 1940 8cc7 bf3f d4d2 1940
000001b0: 7a57 f93f 2002 8240 c89f bb3f ab78 913e
000001c0: 01fa d23c 4da6 6340 d571 a23f 50b9 6240
000001d0: 9bd8 223e e884 8140 5e7a 4c40 e4e9 5240
000001e0: 6d31 af40 f44b d83f cf20 2b40 07fd 5e40
000001f0: 4f8a bb40 1471 0a40 e45c b53e 6614 103e
00000200: b20b 7c3f 2b40 913f bafe cf3e 6189 a43e
00000210: 4540 2dbd a1f5 3e40 e8f7 eb3f 1b73 673e
00000220: 2208 ba3e b6fe 0c40 8b17 a63f 3991 e73f
00000230: b7f7 543f fdfc 193f a622 753f 4784 963f
00000240: b79d 473e 05dd c83f 73e3 e13f 8861 933f
00000250: 7a95 39c0 389f 40bd d031 663e ef78 8a3e
00000260: 4ec0 5840 ea53 603f 0b17 a640 45b7 2a40
00000270: 2de9 b73f df6c ad40 e45a 413f d0b5 4d3f
00000280: 5ad1 433f 01b5 69bf 9c65 213f f857 973f
00000290: 6c83 2c40 4398 7a40 2c1a aa3e 132a 2640
000002a0: f8c7 983d 19b7 3d40 335c 2140 909a 3840
000002b0: e19e 1a40 fe60 dc3e d78f 953f
0.76269233 3.6546805 -0.4536034 2.6759965 0.13624543 3.605583 2.5011132 4.349053
1.6974382 3.2797668 1.7684506 2.0611696 -0.30698806 0.0024655133 0.4441691 2.837401
0.40390098 0.5591802 0.40285906 4.078951 0.63822085 2.181291 2.2717316 -0.0830926
-1.0220268 4.133098 0.6766656 2.8571851 1.4377772 3.873714 1.1496364 0.1510341
1.778057 -0.08579653 0.82549876 4.773493 1.1363202 1.7748412 1.7374451 2.053877
2.51182 1.3443472 0.27049023 0.4454033 1.3713926 -0.44184342 0.6254792 0.52823824
0.42886037 -0.093369424 -0.019683203 0.030608132 1.5521449 0.5170024 0.48513126 1.2607312
0.046189968 0.8870046 0.59082687 0.0019150088 0.26032323 0.21299848 1.1179379 1.4007496
0.4853158 0.7689184 0.6048555 0.22925077 0.69231886 1.9061457 0.060378276 2.3275166
2.5035417 1.1207314 2.0302362 1.2378058 2.1623068 2.4778216 1.7739183 2.3549058
2.4677548 3.273429 1.2808487 3.3636441 1.9763448 2.21217 3.6991608 4.457186
1.1592803 1.285511 2.2314541 0.43441644 4.0221 1.1204056 1.6126645 0.473734
5.3294435 0.7643151 0.08137579 0.26492172 3.2419205 0.78754115 1.6933938 2.8071775
1.3758836 2.3919425 1.4982772 2.403493 1.9479821 4.0627594 1.4658136 0.28412375
0.025753977 3.5570252 1.2690989 3.5425606 0.15902941 4.047474 3.1949687 3.2955256
5.4747834 1.6898179 2.6738775 3.4841936 5.8606334 2.1631517 0.35422432 0.14070281
0.98455346 1.1347708 0.40624028 0.32136062 -0.04229762 2.983742 1.843503 0.22602503
0.3633433 2.2030463 1.2975935 1.8091193 0.8319048 0.60151654 0.95755994 1.1759118
0.19493757 1.569245 1.7647537 1.1514139 -2.8997483 -0.047026843 0.2247994 0.2704539
3.3867373 0.8762804 5.190313 2.667436 1.4368035 5.41954 0.75529313 0.8035555
0.7649132 -0.91291815 0.6304567 1.1823721 2.6955214 3.9155433 0.33223093 2.596318
0.07460016 2.9643004 2.5212524 2.8844337 2.4159472 0.4304275 1.1684521

weight f4 [9, 175]
00000000: bfaa b83e 98fd 913e 3e3e 9e2d 3a3e aa3e
00000010: 065d 0ab0 ead0 103f 0e05 cc3e 00e8 0c3f
00000020: 7c26 5d3f bffd 1d3f b167 313f e325 2a3f
00000030: 81c0 0d2e 7411 e63e 72a9 363e 616a ee35
00000040: c260 4a3e 0084 c03e f81e 933e 838a 0f3f
00000050: 82a4 15aa 829d 3a3f 2e7a 003f 1985 85be
00000060: c441 803f 9276 343f d7f3 903f bbc1 a83e
00000070: ad4b 983e 4f3c df28 cee4 813f 7719 c73d
00000080: ac5c 103f 5ebb 953f 1e97 9a2d 369c 9036
00000090: bc1e 083f f48d 583e 4ef2 0e3f 81a4 2e3f
000000a0: 2d83 873e ef85 c4be 6e82 413f 14cf 203f
000000b0: 63b6 fb38 e7a9 ff3e 5641 d03d 146b 4bbe
000000c0: 0361 62ac 2edd a93b 16d8 ed3e 617a 013f
000000d0: 8078 993e 3b6b 223f dd25 e23e 848d 5b33
000000e0: b2c3 12b6 bd11 053f b55d cf3e 7555 a53e
000000f0: 37b0 033f a83f 0f3f 792f 32ac eb89 9baf
00000100: 4c92 362a 1259 063f 4f94 c23e e3bc 153f
00000110: 6799 423e 8abe ee3e 96ac 933e 81bc 593e
00000120: 5742 a13e 7d09 b332 ee33 883e ca9d 8d3e
00000130: 6bdc 12b9 92e7 973e 9081 afb3 68cd c93e
00000140: 30d9 fcbb c8dd 2e3d d814 e53e b849 983d
00000150: 8dac 433e d2ea 8c3e 06d3 bd3e d432 d43e
00000160: bd85 7d2f 51bd 123f e3bc b93e 1665 ad3e
00000170: 791a a0ac 8033 ce3e 7eaa 1f3f bc63 233f
00000180: 43fc 493e 2e3c f73e ca78 073f 3534 643f
00000190: 5d1c 4e3f 2328 8e3f 4f1d 93ab a097 8a2f
000001a0: 6bb8 afb8 23e8 902d c461 813f 5645 eb3e
000001b0: 99b0 023f aebe d93e 76ea ab31 dd22 babd
000001c0: 69a4 353f 816d 203f 9fdd 343f 7d6d 183f
000001d0: 226c 4a3f 4467 fb38 743e 0e3f ca5b dd3e
000001e0: aced 013f 4313 f03e 6cc3 df3e 8eca a13e
000001f0: e873 7b3e a80d 373a 4618 053f 157a 303e
00000200: 6f28 f93d bfd3 123f ebd2 313f ccbb 062c
00000210: dcfa 583f c78a 9c3e 7619 01b0 4e90 1b3f
00000220: cc6a 8c3e bfc3 963b e096 8e3d 679a dc3c
00000230: 470e 133f 3452 163f a896 b13e 17ed 90bb
00000240: a39e 8e3e e012 6b3f 3542 19bb 402d a43e
00000250: d119 e53e e603 f73e c054 9c3e f521 8d3e
00000260: a14f 1dbc ee7d db3e 78b5 843d f693 8e3e
00000270: dbeb 0d3f 6318 d73d c11e bd3d c619 4c3f
00000280: b5bb 0c3f f584 093f 903c 673f 52a0 2e3f
00000290: 89fc 9e3d b822 9a35 311c 5c3e cba0 ca3d
000002a0: 7220 fb3e 4290 89bb 5ed3 29ab e5dd 2e3e
000002b0: 9485 8b3e c7ee 383f 64f3 c03e 2649 d43e
000002c0: cbe1 003f f83e 2d3f 7f96 dc3e b0a5 9e3f
000002d0: 7597 4f3b 669b f53e 7347 b73e d668 6f2c
000002e0: 8065 ea3e e69d 9a30 15d3 d432 bcbf 473f
000002f0: fb7c 8a31 1813 f83e 988b 403f 4928 e4be
00000300: 666e 563c 636d c4be 5191 963e 00ca 2a3f
00000310: f047 8a2f ffd1 b73d a7d8 a43e 7d33 b132
00000320: 562d d43e 22e5 8aad 1418 a63e b354 cc3e
00000330: 05a4 8c3f 06d9 00ad abed 9bbe 31f1 c8b2
00000340: 7943 be2b f380 813f 447c 633f 10dc 2f3e
00000350: 8e32 2c3e 4218 5cb7 f294 942e 070b 063f
00000360: f749 123f 44a7 5c2b e2aa 803d 189b 323f
00000370: 3f55 a63e 4aa9 f53e e7ae 123f cd5d e53e
00000380: 4e3a cc3e 5fc5 c03e 3628 b33e b8f5 633e
00000390: cd49 48be 1a85 a3b8 f20b f13e 261c 0e3f
000003a0: 60f7 25b9 4043 fa39 ff53 e8be 6c62 acaf
000003b0: 7d7f 95af cd16 033f a20a 533f 1295 2f3f
000003c0: 5b8e 1d2f 869c 07be 06ea 04a9 8f70 d73e
000003d0: 011f 6b3e 4259 2dbe 73ec b43d 3bbf 433e
000003e0: bef6 c93e 1dda c7bb 3f44 8f3e fd79 dc3e
000003f0: 864e e53d c25d f63e 960b d93e a668 e83e
0.3606777 0.2851379 1.7990161e-11 0.332506 -5.03363e-10 0.5656878 0.39847606 0.55041504
0.8638685 0.6171531 0.69298846 0.6646406 3.2230666e-11 0.4493519 0.17838076 1.7763342e-06
0.19763473 0.37600708 0.28734565 0.5607073 -1.3290934e-13 0.7289659 0.5018643 -0.26078108
1.002007 0.70493424 1.1324414 0.32960305 0.29745236 2.4784128e-14 1.0147951 0.09721654
0.56391406 1.1697805 1.7574883e-11 4.3097198e-06 0.53171897 0.21147901 0.5583848 0.68219763
0.26467267 -0.38383433 0.75589645 0.62815976 0.00012002585 0.49934313 0.10168712 -0.19865066
-3.2170384e-12 0.0051838374 0.46453923 0.5057736 0.29974747 0.6344487 0.44169512 5.111862e-08
-2.1869605e-06 0.5198019 0.4050118 0.3229176 0.5144076 0.55956507 -2.5321674e-12 -2.8292332e-10
1.6215604e-13 0.5247966 0.38003775 0.58491343 0.19003831 0.46629745 0.2884261 0.21263315
0.31495926 2.0842657e-08 0.2660212 0.27659446 -0.00014005757 0.29668862 -8.17264e-08 0.39414525
-0.0077163205 0.042691976 0.44742465 0.07435936 0.19108792 0.27522904 0.3707506 0.4144503
2.305773e-10 0.57320124 0.36276922 0.33866185 -4.5504126e-12 0.40273666 0.62369525 0.6382406
0.19725136 0.482881 0.52918684 0.8914216 0.8051203 1.1105999 -1.0453113e-12 2.520979e-10
-8.379001e-05 1.6473994e-11 1.0107961 0.45951337 0.51050717 0.4252829 5.00341e-09 -0.09088681
0.70953995 0.6266709 0.70650667 0.59542066 0.7907125 0.000119878474 0.55564046 0.43234092
0.50753284 0.46889696 0.43703783 0.3159985 0.24555933 0.0006982931 0.51990163 0.1723407
0.12165915 0.5735435 0.6946246 1.9146794e-12 0.8475778 0.3057463 -4.696611e-10 0.60767066
0.2742523 0.0046009715 0.06962371 0.026929094 0.5744366 0.5871918 0.34685254 -0.0044227946
0.27855405 0.91825676 -0.002338541 0.32065773 0.4474626 0.48245162 0.3053341 0.2756497
-0.009601505 0.42869514 0.06479925 0.2784726 0.5543801 0.10502698 0.092343815 0.7972683
0.5497392 0.537185 0.90326786 0.6821338 0.07763011 1.1483999e-06 0.21495129 0.0989395
0.4904819 -0.004198105 -6.033419e-13 0.17076834 0.2725035 0.72239345 0.37685692 0.41462058
0.5034453 0.6767421 0.4308357 1.2394314 0.0031675969 0.47970122 0.357967 3.4022138e-12
0.45780563 1.1249852e-09 2.4776037e-08 0.7802694 4.0305372e-09 0.48452067 0.75213003 -0.44561985
0.0130878445 -0.38364705 0.29407743 0.6671448 2.5153168e-10 0.089756005 0.32196543 2.0628926e-08
0.4144084 -1.5790539e-11 0.32440245 0.3990837 1.0987555 -7.3241465e-12 -0.30454764 -2.3392746e-08
1.3519039e-12 1.0117477 0.8886149 0.17173791 0.1681616 -1.311867e-05 6.756719e-11 0.52360576
0.5714411 7.839183e-13 0.06282593 0.69767904 0.32486913 0.4798072 0.5729813 0.44798127
0.39888233 0.37650582 0.34991616 0.22261703 -0.19559403 -7.797238e-05 0.47079426 0.555117
-0.0001582778 0.0004773382 -0.45376584 -3.135655e-10 -2.7193528e-10 0.51206666 0.824381 0.6858684
1.4329642e-10 -0.13243303 -2.951287e-14 0.42078063 0.22961046 -0.1692858 0.088341616 0.19115917
0.39446062 -0.006098999 0.27981755 0.4306182 0.11196618 0.48118407 0.42391652 0.4539234

bias f4 [175]
00000000: 0000 0000 0000 0000 0000 0000 0000 0000
00000010: 0000 0000 0000 0000 0000 0000 0000 0000
00000020: 0000 0000 0000 0000 0000 0000 0000 0000
00000030: 0000 0000 0000 0000 0000 0000 0000 0000
00000040: 0000 0000 0000 0000 0000 0000 0000 0000
00000050: 0000 0000 0000 0000 0000 0000 0000 0000
00000060: 0000 0000 0000 0000 0000 0000 0000 0000
00000070: 0000 0000 0000 0000 0000 0000 0000 0000
00000080: 0000 0000 0000 0000 0000 0000 0000 0000
00000090: 0000 0000 0000 0000 0000 0000 0000 0000
000000a0: 0000 0000 0000 0000 0000 0000 0000 0000
000000b0: 0000 0000 0000 0000 0000 0000 0000 0000
000000c0: 0000 0000 0000 0000 0000 0000 0000 0000
000000d0: 0000 0000 0000 0000 0000 0000 0000 0000
000000e0: 0000 0000 0000 0000 0000 0000 0000 0000
000000f0: 0000 0000 0000 0000 0000 0000 0000 0000
00000100: 0000 0000 0000 0000 0000 0000 0000 0000
00000110: 0000 0000 0000 0000 0000 0000 0000 0000
00000120: 0000 0000 0000 0000 0000 0000 0000 0000
00000130: 0000 0000 0000 0000 0000 0000 0000 0000
00000140: 0000 0000 0000 0000 0000 0000 0000 0000
00000150: 0000 0000 0000 0000 0000 0000 0000 0000
00000160: 0000 0000 0000 0000 0000 0000 0000 0000
00000170: 0000 0000 0000 0000 0000 0000 0000 0000
00000180: 0000 0000 0000 0000 0000 0000 0000 0000
00000190: 0000 0000 0000 0000 0000 0000 0000 0000
000001a0: 0000 0000 0000 0000 0000 0000 0000 0000
000001b0: 0000 0000 0000 0000 0000 0000 0000 0000
000001c0: 0000 0000 0000 0000 0000 0000 0000 0000
000001d0: 0000 0000 0000 0000 0000 0000 0000 0000
000001e0: 0000 0000 0000 0000 0000 0000 0000 0000
000001f0: 0000 0000 0000 0000 0000 0000 0000 0000
00000200: 0000 0000 0000 0000 0000 0000 0000 0000
00000210: 0000 0000 0000 0000 0000 0000 0000 0000
00000220: 0000 0000 0000 0000 0000 0000 0000 0000
00000230: 0000 0000 0000 0000 0000 0000 0000 0000
00000240: 0000 0000 0000 0000 0000 0000 0000 0000
00000250: 0000 0000 0000 0000 0000 0000 0000 0000
00000260: 0000 0000 0000 0000 0000 0000 0000 0000
00000270: 0000 0000 0000 0000 0000 0000 0000 0000
00000280: 0000 0000 0000 0000 0000 0000 0000 0000
00000290: 0000 0000 0000 0000 0000 0000 0000 0000
000002a0: 0000 0000 0000 0000 0000 0000 0000 0000
000002b0: 0000 0000 0000 0000 0000 0000
0.0 0.0 0.0 0.0 0.0 0.0 0.0 0.0
0.0 0.0 0.0 0.0 0.0 0.0 0.0 0.0
0.0 0.0 0.0 0.0 0.0 0.0 0.0 0.0
0.0 0.0 0.0 0.0 0.0 0.0 0.0 0.0
0.0 0.0 0.0 0.0 0.0 0.0 0.0 0.0
0.0 0.0 0.0 0.0 0.0 0.0 0.0 0.0
0.0 0.0 0.0 0.0 0.0 0.0 0.0 0.0
0.0 0.0 0.0 0.0 0.0 0.0 0.0 0.0
0.0 0.0 0.0 0.0 0.0 0.0 0.0 0.0
0.0 0.0 0.0 0.0 0.0 0.0 0.0 0.0
0.0 0.0 0.0 0.0 0.0 0.0 0.0 0.0
0.0 0.0 0.0 0.0 0.0 0.0 0.0 0.0
0.0 0.0 0.0 0.0 0.0 0.0 0.0 0.0
0.0 0.0 0.0 0.0 0.0 0.0 0.0 0.0
0.0 0.0 0.0 0.0 0.0 0.0 0.0 0.0
0.0 0.0 0.0 0.0 0.0 0.0 0.0 0.0
0.0 0.0 0.0 0.0 0.0 0.0 0.0 0.0
0.0 0.0 0.0 0.0 0.0 0.0 0.0 0.0
0.0 0.0 0.0 0.0 0.0 0.0 0.0 0.0
0.0 0.0 0.0 0.0 0.0 0.0 0.0 0.0
0.0 0.0 0.0 0.0 0.0 0.0 0.0 0.0
0.0 0.0 0.0 0.0 0.0 0.0 0.0

_ei_mask f4 [175]
00000000: 0000 803f 0000 803f 0000 803f 0000 803f
00000010: 0000 803f 0000 803f 0000 803f 0000 803f
00000020: 0000 803f 0000 803f 0000 803f 0000 803f
00000030: 0000 803f 0000 803f 0000 803f 0000 803f
00000040: 0000 803f 0000 803f 0000 803f 0000 803f
00000050: 0000 803f 0000 803f 0000 803f 0000 803f
00000060: 0000 803f 0000 803f 0000 803f 0000 803f
00000070: 0000 803f 0000 803f 0000 803f 0000 803f
00000080: 0000 803f 0000 803f 0000 803f 0000 803f
00000090: 0000 803f 0000 803f 0000 803f 0000 803f
000000a0: 0000 803f 0000 803f 0000 803f 0000 803f
000000b0: 0000 803f 0000 803f 0000 803f 0000 803f
000000c0: 0000 803f 0000 803f 0000 803f 0000 803f
000000d0: 0000 803f 0000 803f 0000 803f 0000 803f
000000e0: 0000 803f 0000 803f 0000 803f 0000 803f
000000f0: 0000 803f 0000 803f 0000 803f 0000 803f
00000100: 0000 803f 0000 803f 0000 803f 0000 803f
00000110: 0000 803f 0000 803f 0000 803f 0000 803f
00000120: 0000 803f 0000 803f 0000 803f 0000 803f
00000130: 0000 803f 0000 803f 0000 803f 0000 803f
00000140: 0000 803f 0000 803f 0000 803f 0000 803f
00000150: 0000 803f 0000 803f 0000 803f 0000 803f
00000160: 0000 803f 0000 803f 0000 803f 0000 803f
00000170: 0000 803f 0000 803f 0000 803f 0000 803f
00000180: 0000 803f 0000 803f 0000 803f 0000 803f
00000190: 0000 803f 0000 803f 0000 803f 0000 803f
000001a0: 0000 803f 0000 803f 0000 803f 0000 803f
000001b0: 0000 803f 0000 803f 0000 803f 0000 803f
000001c0: 0000 803f 0000 803f 0000 803f 0000 803f
000001d0: 0000 803f 0000 803f 0000 803f 0000 803f
000001e0: 0000 803f 0000 803f 0000 803f 0000 803f
000001f0: 0000 803f 0000 803f 0000 803f 0000 803f
00000200: 0000 803f 0000 803f 0000 803f 0000 803f
00000210: 0000 803f 0000 803f 0000 803f 0000 803f
00000220: 0000 803f 0000 803f 0000 803f 0000 803f
00000230: 0000 803f 0000 803f 0000 803f 0000 803f
00000240: 0000 803f 0000 803f 0000 803f 0000 803f
00000250: 0000 803f 0000 803f 0000 803f 0000 803f
00000260: 0000 803f 0000 803f 0000 803f 0000 803f
00000270: 0000 803f 0000 803f 0000 803f 0000 803f
00000280: 0000 803f 0000 803f 0000 803f 0000 803f
00000290: 0000 803f 0000 803f 0000 803f 0000 803f
000002a0: 0000 803f 0000 803f 0000 803f 0000 803f
000002b0: 0000 803f 0000 803f 0000 803f
1.0 1.0 1.0 1.0 1.0 1.0 1.0 1.0
1.0 1.0 1.0 1.0 1.0 1.0 1.0 1.0
1.0 1.0 1.0 1.0 1.0 1.0 1.0 1.0
1.0 1.0 1.0 1.0 1.0 1.0 1.0 1.0
1.0 1.0 1.0 1.0 1.0 1.0 1.0 1.0
1.0 1.0 1.0 1.0 1.0 1.0 1.0 1.0
1.0 1.0 1.0 1.0 1.0 1.0 1.0 1.0
1.0 1.0 1.0 1.0 1.0 1.0 1.0 1.0
1.0 1.0 1.0 1.0 1.0 1.0 1.0 1.0
1.0 1.0 1.0 1.0 1.0 1.0 1.0 1.0
1.0 1.0 1.0 1.0 1.0 1.0 1.0 1.0
1.0 1.0 1.0 1.0 1.0 1.0 1.0 1.0
1.0 1.0 1.0 1.0 1.0 1.0 1.0 1.0
1.0 1.0 1.0 1.0 1.0 1.0 1.0 1.0
1.0 1.0 1.0 1.0 1.0 1.0 1.0 1.0
1.0 1.0 1.0 1.0 1.0 1.0 1.0 1.0
1.0 1.0 1.0 1.0 1.0 1.0 1.0 1.0
1.0 1.0 1.0 1.0 1.0 1.0 1.0 1.0
1.0 1.0 1.0 1.0 1.0 1.0 1.0 1.0
1.0 1.0 1.0 1.0 1.0 1.0 1.0 1.0
1.0 1.0 1.0 1.0 1.0 1.0 1.0 1.0
1.0 1.0 1.0 1.0 1.0 1.0 1.0

weight f4 [2, 175]
00000000: e551 da3e 9214 00be cf63 653d 2da6 f43c
00000010: f035 b83e 28e8 293d 40e8 88bc bdc9 923e
00000020: 0007 2d3e 87fa 153e cd0e bfbe 8f9e 2ebe
00000030: bd7c e1bd 3266 953d 5791 b23d bd5a f43d
00000040: 3c2b 363e 4d9f bbbc 84ff 2a3e 5aba 923d
00000050: 0efd ed3d 8e35 bcbe 68dc a8bd 8b75 59bb
00000060: 3899 633f 673d 3c3d 358b 97be 51b8 02be
00000070: 6574 f4bd 173e 123e 70e3 af3e a352 5f3d
00000080: 9d59 b83d fc29 4f3d a6ba 06bb a056 223e
00000090: 0deb 27be 46ee 42bd e774 cf3d 9368 9e3d
000000a0: 2b4c f93e 3794 8fbd 844c 1b3e b904 b7be
000000b0: ba3c 06bb 867b 0d3c 8ec1 9dbd 0ea9 5ebe
000000c0: 72d5 983d f3a2 d63e 4524 b13e 973b a53e
000000d0: 120d 573e 976e 70be 7505 813b 330c 4cbf
000000e0: 4957 2c3d de6f f4bd 45ae 993e 77fe f73e
000000f0: ff56 ee3d c12f 3f3e 0d9a 703e 3636 dfbd
00000100: d119 43be fb6d 123e 1649 c13d 424d 7abe
00000110: b41b 0abe 0c1f a9bc 3e6d 69bd 158b 3e3d
00000120: 6044 133d 407a 87be 6bb2 6e3d bf43 34be
00000130: 2613 2dbe 08c8 9f3c 980b 0bbe 93d5 cf3c
00000140: 1669 903d 756a 183e 4f0f 23be 2d66 58bc
00000150: e503 e5bd 5328 803d 5105 1bbe 3af4 6cbe
00000160: 7dcb a9be 01ba b43c ddf5 513e 2911 3a3e
00000170: 8ea8 8f3d ee2d d93c 5b25 533e 1474 d03c
00000180: afb4 fabd 2a05 823d dcf0 093e 6381 20bc
00000190: 038c abbd 1151 9cbe 7427 4a3e cf81 0c3d
000001a0: 4f70 823d e581 a63d 71dc b9be ddba 653d
000001b0: 1ee2 7dbe 0944 ca3d d234 74be 50ca 08bd
000001c0: 8d31 43bd c154 a23d 7318 bcbe 26fb 6a3e
000001d0: 4c56 e4bd d261 d3be 9014 cf3e fbc3 6b3d
000001e0: 4906 c1bc b028 fe3d e534 1ebd 2798 95bd
000001f0: 8d0f 1cbe 6080 063e 45cc f4bc 338d cabd
00000200: b28b d43c 0813 cdbe bf4c 88bd 5021 53be
00000210: a734 f6bd 03b8 d3ba 0db8 153c b94a f5bc
00000220: 168c a33e ba00 813e fbf8 f13d cdee 34bc
00000230: 3760 6a3e da06 293e d4a4 473f bb22 643e
00000240: 6edb f63c a7fe 09be a84c 4d3e 9665 02bf
00000250: 642c b73e 3184 2bbd 5b2f 723d 5738 d8bc
00000260: 753f b13c e589 14be 1058 513e a1ed 8d3e
00000270: 82c6 b9bd f49e 2f3e 71ee e6bc 6c22 19bf
00000280: ec73 92bc a0fc fbbd eb20 863e 17a5 2fbd
00000290: 8d37 b03d defb bebd 305a d4bd 4d09 d73d
000002a0: ec67 e8be 8826 f63d 2176 ffbd 18ba 523d
000002b0: b0ea 803d e257 aabe c454 28bb 39dd e9be
000002c0: 6db9 073e 0bf0 34be ebb3 aabd 64c5 1bbf
000002d0: e271 6e3e 264d 5bbd 10a8 46be 0f78 b2bd
000002e0: 338e 29be f217 ef3e ba76 233d c267 913e
000002f0: ca69 4ebe 25fd b7be a78b 04be 7958 afbe
00000300: de3b e23d 4599 c2be 52de b23c d9d6 06bd
00000310: 852c 063f b102 ea3c 93e1 0d3e ec67 50bf
00000320: 4727 0fbe 53fd 12bf 605b ce3e 64a5 3e3e
00000330: e555 883e 514c 22bb fd7c 3cbd 229c 743d
00000340: d1d6 cabe fe8c a2bd 9e4d 7cbe ddb8 923e
00000350: 385d 843e 5bed 0bbe f836 2d3e 2c83 f8be
00000360: d9a3 4e3c e180 1dbe eb0f cf3e ffb3 b2be
00000370: 04f5 0cbd acad 473e 0a18 a63e acbe 54be
00000380: 9af0 05bf 3723 2abf 277f 20bf 122b 01be
00000390: 59bb 4a3e ba7f df3d c409 523e 1666 3e3e
000003a0: a34e 963b 393f 00be 4bf1 10bf e0a7 b9bd
000003b0: 4b52 34be 1474 48be d0d5 f23e 4f82 243e
000003c0: defb 963d 78e4 ae3d f559 e1bb e53c 2fbe
000003d0: 776e 5ebd b24e 773e 86f5 693c c2e3 2a3d
000003e0: a51b d03d 7b89 873d 8a65 243e 6e62 fa3d
000003f0: 25c9 783d e3e9 1ebe c007 cdbd 43ff 6d3d
0.42640606 -0.12507847 0.056003388 0.029864395 0.3597865 0.041481167 -0.016712308 0.2866954
0.16897202 0.1464635 -0.3731598 -0.17052673 -0.1101012 0.07294883 0.087191276 0.119313695
0.1778993 -0.022903109 0.16699034 0.0716445 0.11620532 -0.3675961 -0.08245164 -0.0033181633
0.8890567 0.045956995 -0.29598394 -0.12765624 -0.11936263 0.14281498 0.3435321 0.054522168
0.090014674 0.05057715 -0.0020558028 0.15853357 -0.16398259 -0.047590517 0.10129719 0.0773479
0.48690924 -0.070106916 0.15165907 -0.3574579 -0.0020482973 0.008635407 -0.07702933 -0.21744177
0.074625865 0.41921195 0.34597984 0.32272026 0.2100108 -0.23479687 0.003937418 -0.79706115
0.04207543 -0.119353995 0.3001577 0.4843633 0.11637687 0.1867056 0.23496266 -0.10899012
-0.19052817 0.14299767 0.09437768 -0.24443534 -0.1348713 -0.020644687 -0.056988947 0.046519358
0.03595388 -0.26460457 0.05827562 -0.17603968 -0.16901836 0.019504562 -0.13578641 0.025370395
0.070512936 0.1488436 -0.15923809 -0.013207954 -0.111823834 0.06257691 -0.15138747 -0.2314004
-0.33163062 0.02206135 0.20503946 0.18170609 0.07014571 0.026511159 0.20619719 0.025445975
-0.12241494 0.06348641 0.13470787 -0.009796473 -0.083763145 -0.305306 0.19741613 0.034303483
0.063690774 0.08130244 -0.36300996 0.05608641 -0.24793288 0.09876258 -0.23848274 -0.033396065
-0.047654677 0.07926322 -0.36737403 0.22947368 -0.11149272 -0.41285568 0.40445375 0.05755995
-0.023562567 0.12410104 -0.038624663 -0.073044114 -0.15240307 0.13134909 -0.02988256 -0.09890213
0.025945518 -0.40053582 -0.06655263 -0.20618176 -0.120217614 -0.0016152862 0.009138119 -0.029942857
0.31942815 0.25195867 0.118150674 -0.011043263 0.22888266 0.1650652 0.7798588 0.22278874
0.03013393 -0.13476048 0.20048773 -0.5093626 0.35776055 -0.041874114 0.059127193 -0.026394052
0.021636704 -0.14505728 0.2044375 0.2772036 -0.090710655 0.1715048 -0.02818987 -0.5981815
-0.017877541 -0.12304044 0.2619699 -0.04288205 0.086043455 -0.093253836 -0.103687644 0.10499821
-0.45391786 0.12019068 -0.12473703 0.051447004 0.06294763 -0.33270174 -0.002568529 -0.45676592
0.13254328 -0.17669694 -0.08335098 -0.6084807 0.2328563 -0.05354037 -0.19400048 -0.087143056
-0.16558151 0.46697956 0.03990815 0.28399473 -0.20157543 -0.3593532 -0.12943898 -0.34247187
0.11046575 -0.3800756 0.021834526 -0.03291974 0.5241168 0.028565736 0.13855581 -0.8140857
-0.13979827 -0.5741779 0.4030409 0.18617779 0.26628032 -0.0024764726 -0.046017636 0.059719212
-0.39617017 -0.079370484 -0.24638984 0.28656664 0.2585237 -0.13664763 0.169155 -0.48537576
0.0126123065 -0.15381195 0.40441832 -0.3490295 -0.034413353 0.19499844 0.32440215 -0.2077586
-0.52320254 -0.66459984 -0.6269402 -0.12614086 0.1979803 0.10913034 0.20511538 0.1859363
0.004587011 -0.12524118 -0.56618184 -0.09065223 -0.17609517 -0.1957553 0.4742875 0.16065334
0.073722586 0.08539671 -0.006877179 -0.17113073 -0.054304566 0.24151114 0.014279729 0.041721113
0.10161523 0.06618019 0.16054359 0.12225805 0.0607387 -0.15518908 -0.10011244 0.058104765

bias f4 [175]
00000000: 0000 0000 0000 0000 0000 0000 0000 0000
00000010: 0000 0000 0000 0000 0000 0000 0000 0000
00000020: 0000 0000 0000 0000 0000 0000 0000 0000
00000030: 0000 0000 0000 0000 0000 0000 0000 0000
00000040: 0000 0000 0000 0000 0000 0000 0000 0000
00000050: 0000 0000 0000 0000 0000 0000 0000 0000
00000060: 0000 0000 0000 0000 0000 0000 0000 0000
00000070: 0000 0000 0000 0000 0000 0000 0000 0000
00000080: 0000 0000 0000 0000 0000 0000 0000 0000
00000090: 0000 0000 0000 0000 0000 0000 0000 0000
000000a0: 0000 0000 0000 0000 0000 0000 0000 0000
000000b0: 0000 0000 0000 0000 0000 0000 0000 0000
000000c0: 0000 0000 0000 0000 0000 0000 0000 0000
000000d0: 0000 0000 0000 0000 0000 0000 0000 0000
000000e0: 0000 0000 0000 0000 0000 0000 0000 0000
000000f0: 0000 0000 0000 0000 0000 0000 0000 0000
00000100: 0000 0000 0000 0000 0000 0000 0000 0000
00000110: 0000 0000 0000 0000 0000 0000 0000 0000
00000120: 0000 0000 0000 0000 0000 0000 0000 0000
00000130: 0000 0000 0000 0000 0000 0000 0000 0000
00000140: 0000 0000 0000 0000 0000 0000 0000 0000
00000150: 0000 0000 0000 0000 0000 0000 0000 0000
00000160: 0000 0000 0000 0000 0000 0000 0000 0000
00000170: 0000 0000 0000 0000 0000 0000 0000 0000
00000180: 0000 0000 0000 0000 0000 0000 0000 0000
00000190: 0000 0000 0000 0000 0000 0000 0000 0000
000001a0: 0000 0000 0000 0000 0000 0000 0000 0000
000001b0: 0000 0000 0000 0000 0000 0000 0000 0000
000001c0: 0000 0000 0000 0000 0000 0000 0000 0000
000001d0: 0000 0000 0000 0000 0000 0000 0000 0000
000001e0: 0000 0000 0000 0000 0000 0000 0000 0000
000001f0: 0000 0000 0000 0000 0000 0000 0000 0000
00000200: 0000 0000 0000 0000 0000 0000 0000 0000
00000210: 0000 0000 0000 0000 0000 0000 0000 0000
00000220: 0000 0000 0000 0000 0000 0000 0000 0000
00000230: 0000 0000 0000 0000 0000 0000 0000 0000
00000240: 0000 0000 0000 0000 0000 0000 0000 0000
00000250: 0000 0000 0000 0000 0000 0000 0000 0000
00000260: 0000 0000 0000 0000 0000 0000 0000 0000
00000270: 0000 0000 0000 0000 0000 0000 0000 0000
00000280: 0000 0000 0000 0000 0000 0000 0000 0000
00000290: 0000 0000 0000 0000 0000 0000 0000 0000
000002a0: 0000 0000 0000 0000 0000 0000 0000 0000
000002b0: 0000 0000 0000 0000 0000 0000
0.0 0.0 0.0 0.0 0.0 0.0 0.0 0.0
0.0 0.0 0.0 0.0 0.0 0.0 0.0 0.0
0.0 0.0 0.0 0.0 0.0 0.0 0.0 0.0
0.0 0.0 0.0 0.0 0.0 0.0 0.0 0.0
0.0 0.0 0.0 0.0 0.0 0.0 0.0 0.0
0.0 0.0 0.0 0.0 0.0 0.0 0.0 0.0
0.0 0.0 0.0 0.0 0.0 0.0 0.0 0.0
0.0 0.0 0.0 0.0 0.0 0.0 0.0 0.0
0.0 0.0 0.0 0.0 0.0 0.0 0.0 0.0
0.0 0.0 0.0 0.0 0.0 0.0 0.0 0.0
0.0 0.0 0.0 0.0 0.0 0.0 0.0 0.0
0.0 0.0 0.0 0.0 0.0 0.0 0.0 0.0
0.0 0.0 0.0 0.0 0.0 0.0 0.0 0.0
0.0 0.0 0.0 0.0 0.0 0.0 0.0 0.0
0.0 0.0 0.0 0.0 0.0 0.0 0.0 0.0
0.0 0.0 0.0 0.0 0.0 0.0 0.0 0.0
0.0 0.0 0.0 0.0 0.0 0.0 0.0 0.0
0.0 0.0 0.0 0.0 0.0 0.0 0.0 0.0
0.0 0.0 0.0 0.0 0.0 0.0 0.0 0.0
0.0 0.0 0.0 0.0 0.0 0.0 0.0 0.0
0.0 0.0 0.0 0.0 0.0 0.0 0.0 0.0
0.0 0.0 0.0 0.0 0.0 0.0 0.0

_ei_mask f4 [175]
00000000: 0000 803f 0000 803f 0000 803f 0000 803f
00000010: 0000 803f 0000 803f 0000 803f 0000 803f
00000020: 0000 803f 0000 803f 0000 803f 0000 803f
00000030: 0000 803f 0000 803f 0000 803f 0000 803f
00000040: 0000 803f 0000 803f 0000 803f 0000 803f
00000050: 0000 803f 0000 803f 0000 803f 0000 803f
00000060: 0000 803f 0000 803f 0000 803f 0000 803f
00000070: 0000 803f 0000 803f 0000 803f 0000 803f
00000080: 0000 803f 0000 803f 0000 803f 0000 803f
00000090: 0000 803f 0000 803f 0000 803f 0000 803f
000000a0: 0000 803f 0000 803f 0000 803f 0000 803f
000000b0: 0000 803f 0000 803f 0000 803f 0000 803f
000000c0: 0000 803f 0000 803f 0000 803f 0000 803f
000000d0: 0000 803f 0000 803f 0000 803f 0000 803f
000000e0: 0000 803f 0000 803f 0000 803f 0000 803f
000000f0: 0000 803f 0000 803f 0000 803f 0000 803f
00000100: 0000 803f 0000 803f 0000 803f 0000 803f
00000110: 0000 803f 0000 803f 0000 803f 0000 803f
00000120: 0000 803f 0000 803f 0000 803f 0000 803f
00000130: 0000 803f 0000 803f 0000 803f 0000 803f
00000140: 0000 803f 0000 803f 0000 803f 0000 803f
00000150: 0000 803f 0000 803f 0000 803f 0000 803f
00000160: 0000 803f 0000 803f 0000 803f 0000 803f
00000170: 0000 803f 0000 803f 0000 803f 0000 803f
00000180: 0000 803f 0000 803f 0000 803f 0000 803f
00000190: 0000 803f 0000 803f 0000 803f 0000 803f
000001a0: 0000 803f 0000 803f 0000 803f 0000 803f
000001b0: 0000 803f 0000 803f 0000 803f 0000 803f
000001c0: 0000 803f 0000 803f 0000 803f 0000 803f
000001d0: 0000 803f 0000 803f 0000 803f 0000 803f
000001e0: 0000 803f 0000 803f 0000 803f 0000 803f
000001f0: 0000 803f 0000 803f 0000 803f 0000 803f
00000200: 0000 803f 0000 803f 0000 803f 0000 803f
00000210: 0000 803f 0000 803f 0000 803f 0000 803f
00000220: 0000 803f 0000 803f 0000 803f 0000 803f
00000230: 0000 803f 0000 803f 0000 803f 0000 803f
00000240: 0000 803f 0000 803f 0000 803f 0000 803f
00000250: 0000 803f 0000 803f 0000 803f 0000 803f
00000260: 0000 803f 0000 803f 0000 803f 0000 803f
00000270: 0000 803f 0000 803f 0000 803f 0000 803f
00000280: 0000 803f 0000 803f 0000 803f 0000 803f
00000290: 0000 803f 0000 803f 0000 803f 0000 803f
000002a0: 0000 803f 0000 803f 0000 803f 0000 803f
000002b0: 0000 803f 0000 803f 0000 803f
1.0 1.0 1.0 1.0 1.0 1.0 1.0 1.0
1.0 1.0 1.0 1.0 1.0 1.0 1.0 1.0
1.0 1.0 1.0 1.0 1.0 1.0 1.0 1.0
1.0 1.0 1.0 1.0 1.0 1.0 1.0 1.0
1.0 1.0 1.0 1.0 1.0 1.0 1.0 1.0
1.0 1.0 1.0 1.0 1.0 1.0 1.0 1.0
1.0 1.0 1.0 1.0 1.0 1.0 1.0 1.0
1.0 1.0 1.0 1.0 1.0 1.0 1.0 1.0
1.0 1.0 1.0 1.0 1.0 1.0 1.0 1.0
1.0 1.0 1.0 1.0 1.0 1.0 1.0 1.0
1.0 1.0 1.0 1.0 1.0 1.0 1.0 1.0
1.0 1.0 1.0 1.0 1.0 1.0 1.0 1.0
1.0 1.0 1.0 1.0 1.0 1.0 1.0 1.0
1.0 1.0 1.0 1.0 1.0 1.0 1.0 1.0
1.0 1.0 1.0 1.0 1.0 1.0 1.0 1.0
1.0 1.0 1.0 1.0 1.0 1.0 1.0 1.0
1.0 1.0 1.0 1.0 1.0 1.0 1.0 1.0
1.0 1.0 1.0 1.0 1.0 1.0 1.0 1.0
1.0 1.0 1.0 1.0 1.0 1.0 1.0 1.0
1.0 1.0 1.0 1.0 1.0 1.0 1.0 1.0
1.0 1.0 1.0 1.0 1.0 1.0 1.0 1.0
1.0 1.0 1.0 1.0 1.0 1.0 1.0

weight f4 [403, 3]
00000000: e69e 00c0 2837 233f 83e2 313f 8d84 e4bf
00000010: cd0f babe 119f ae3f 4ebd bdbf 3b5e 6dbf
00000020: 7dd6 c53f d0ba 9fbf 15ae 8dbf bbb9 cc3f
00000030: ddd7 13bf c731 85bf 9237 e63f 0b73 1c3f
00000040: d2df f5be 3378 fe3f 85a3 cb3e 2a98 04bf
00000050: 6909 ca3f e537 b9be 9ed0 6fbf 609f d33f
00000060: 3c85 05be e8b4 97bf fc6e ea3f c25e ef3f
00000070: d769 f0be 1de2 be3f 358d f13f 3315 013e
00000080: 5020 e53f 4924 2b3f 5599 4dbd ae0f 4d3f
00000090: 1a80 c43e 5786 efbd 052c 883f cffa 0f3f
000000a0: e4ce 91be 52bf 813f ce28 863d 7957 b93b
000000b0: 7b20 af3f 44bd 03bf 0605 60bf c1d6 da3f
000000c0: cd47 733f 395a 74be 5de5 b53f ef6e 453f
000000d0: 8da2 e8be 7bac cf3f 6e90 303f 944a dfbe
000000e0: 0426 cd3f 345d 773f 043a 0abf 9ced 673f
000000f0: 378b 8b3f 3088 d4be 56b3 af3f e39f 443f
00000100: 9bfc 93be 7bf0 0240 b415 d8be 0aef 8cbf
00000110: 1e6c ff3f 7a44 8ebe 8344 8ebf 627a 0440
00000120: c877 3cbe cbe4 94bf 6653 fe3f 77ec db3e
00000130: f63d 9cbf 46b7 0d40 8482 a03f 9700 8fbf
00000140: 7e19 0140 56c4 8b3f 8a72 c3bf 8f1a 1740
00000150: 583c ec3f d3bd babf e28a 0b40 c92d e53f
00000160: 581f abbf 1c2e f33f 5125 b63f 48c1 a8bf
00000170: 1921 ed3f 0252 9d3f c036 8abf 04c0 f53f
00000180: 87f9 b03f 90fc 81bf cdbc 893f 2a96 603f
00000190: ea66 febe cbc6 963f 2db7 e23e 261f 85bf
000001a0: 0292 f03f 67c5 6a3f 5ff7 25bf e4b3 e03f
000001b0: d4ec ef3f ce43 92bf e7ec 0340 d4e5 fc3f
000001c0: 8534 debf 2ef5 1b40 4414 f43f ea63 e8bf
000001d0: 191a 3740 f0cb 0b40 1306 89bf 23a2 2240
000001e0: 957d d73f 7b76 acbf b47d 2040 a305 1140
000001f0: 082a b2bf 083c 1f40 3f1b 2240 9618 e8bf
00000200: ada4 3640 9129 1540 b8ba d8bf a628 4340
00000210: 23cd 1340 1a53 b9bf 3874 2740 e606 d53f
00000220: 5537 babf 2c24 1640 9dac c23f 028c a4bf
00000230: e8b2 fb3f 2ed3 5f3f 213e 80bf d7ad d03f
00000240: 4959 2e3f 9310 92bf ddfe 0140 1f04 923f
00000250: 6abb ecbf af29 3140 8532 733f a97a 01c0
00000260: 9cb6 4940 5cc8 2e3f b447 ddbf 7d10 5040
00000270: afd3 ac3f 25c7 bdbf 1000 2d40 3bcb 663f
00000280: 515d edbf 5d85 0d40 bd06 7a3f b3fb e8bf
00000290: 727b c73f 8229 743f 6fcd a4bf a430 d93f
000002a0: f60d 553f e145 b4bf 6b42 de3f 4c40 0e3f
000002b0: bd67 41bf 940c ab3f 3899 143f 298c 1cbf
000002c0: 4f2c 303f c609 293f 3de6 4bbf 41c5 783f
000002d0: 9d56 c83e e8d9 fdbe 8251 783f 966d 513f
000002e0: a5db 9bbf 843f b33f 6bbd 253f 1b9f 71bf
000002f0: c2a9 c63f 27a5 b03e 677f 7bbf 104f b03f
00000300: fbd5 e03e 2388 6bbf 65f1 b83f bbb5 393f
00000310: f944 b0bf ce59 b73f 8bde 373f e1b3 bebf
00000320: 91d3 b83f 7590 df3e d76d ccbf c15c d83f
00000330: 0754 433f 8ec3 96bf aa58 ea3f 8461 ad3f
00000340: b538 99bf d1ba df3f 961b c73f d897 afbf
00000350: d442 cf3f fc75 a43f c0cc afbf 2e7b ac3f
00000360: 1f4f b13f 0819 c4bf 9d71 a73f 8536 05bd
00000370: 35e7 cebf e0aa 0440 7ca4 4e3f 4949 c8bf
00000380: 449f 2240 39bd df3f 91e2 c8bf 7dc8 0d40
00000390: afa1 b63f 0a79 c0bf 8ca1 2140 5a6c ab3f
000003a0: 7dae d4bf f07e 2040 cda7 b33f c694 adbf
000003b0: 3f9c 2140 7b66 0c40 7ec1 d0bf 2f01 2540
000003c0: e96e 1840 87cc 08c0 9b7e 1f40 31a2 0240
000003d0: d525 febf b20a 3640 2103 0540 e229 f1bf
000003e0: 7f64 2140 0558 f23f 0194 babf 14c0 2340
000003f0: 0828 f43f 3f94 93bf 9633 4c40 4503 0c40
-2.0096984 0.63756037 0.69486254 -1.7852951 -0.3634018 1.3642293 -1.4823396 -0.9272191
1.5456082 -1.2478886 -1.1068751 1.599418 -0.57751256 -1.0405816 1.7985709 0.6111304
-0.48022324 1.9880432 0.39773193 -0.51794684 1.5784122 -0.36175457 -0.936777 1.6533012
-0.13039106 -1.1852083 1.831512 1.8700793 -0.4695575 1.4912754 1.8871218 0.12605743
1.7900486 0.6685224 -0.050195057 0.8010205 0.38378984 -0.11695545 1.0638434 0.5624208
-0.28478158 1.0136511 0.065507516 0.0056561795 1.3681787 -0.5146067 -0.87507665 1.7096788
0.95031434 -0.23862542 1.4210621 0.77122396 -0.45436516 1.6224512 0.6897038 -0.43611586
1.6027226 0.9662659 -0.53994775 0.9059694 1.090186 -0.41510153 1.3726604 0.7680647
-0.2890366 2.0459278 -0.42204058 -1.1010449 1.995487 -0.27786618 -1.1114658 2.0699697
-0.18405068 -1.1632322 1.9869201 0.42953846 -1.2206409 2.2143111 1.253983 -1.1172055
2.017181 1.0919292 -1.526933 2.360996 1.8455915 -1.458918 2.1803517 1.7904598
-1.336894 1.8998446 1.4230138 -1.3183985 1.8525726 1.2290652 -1.0797958 1.9199224
1.382615 -1.0155201 1.0760742 0.8772913 -0.49687892 1.1779417 0.44280377 -1.0400131
1.8794558 0.9170746 -0.64830583 1.7554898 1.8744149 -1.1426942 2.0613344 1.9757638
-1.7359778 2.4368396 1.9068685 -1.8155491 2.8609679 2.1843224 -1.0704979 2.541146
1.68352 -1.3473657 2.5076723 2.265969 -1.3919077 2.488039 2.532913 -1.8132503
2.853801 2.330662 -1.6931982 3.049356 2.3093956 -1.4478486 2.6164684 1.664273
-1.4548136 2.3459578 1.5208927 -1.2855227 1.9663973 0.8743161 -1.001896 1.6303052
0.6810499 -1.1411308 2.0311806 1.1407508 -1.8494694 2.7681692 0.9499896 -2.0231116
3.1517706 0.68274474 -1.7287507 3.2510064 1.3502101 -1.4826399 2.7031288 0.90153855
-1.8544103 2.2112648 0.9766653 -1.8201813 1.5584548 0.95375836 -1.2875193 1.6967969
0.8322443 -1.4083825 1.7364019 0.5556686 -0.7554892 1.3363214 0.58046293 -0.6115137
0.6881761 0.6603054 -0.7964819 0.97175986 0.3912858 -0.49580312 0.9699937 0.8180784
-1.2176405 1.4003758 0.64742154 -0.943834 1.5520556 0.34501 -0.98241276 1.3774128
0.43913254 -0.92004603 1.4448668 0.72542924 -1.3771049 1.4324281 0.7182395 -1.4898645
1.4439565 0.436649 -1.597102 1.6903306 0.7630009 -1.1778429 1.8308308 1.3545384
-1.1970431 1.7478887 1.5555294 -1.3718214 1.6192269 1.2848506 -1.373436 1.3475091
1.3852271 -1.5320139 1.3081547 -0.032522697 -1.6164309 2.0729294 0.80719733 -1.5647365
2.5409708 1.7479621 -1.5694143 2.2153618 1.4268092 -1.5036938 2.525485 1.3392441
-1.661575 2.5077477 1.4035584 -1.3561027 2.5251615 2.193755 -1.6309049 2.5781972
2.3817694 -2.1374834 2.4921024 2.0411494 -1.9855295 2.8444028 2.078316 -1.8840907
2.5217588 1.8933111 -1.4576417 2.5585985 1.9074717 -1.1529616 3.1906486 2.1876996

bias f4 [3]
00000000: 0000 0000 0000 0000 0000 0000
0.0 0.0 0.0

_ei_mask f4 [3]
00000000: 0000 803f 0000 803f 0000 803f
1.0 1.0 1.0

rmat f4 [1, 1, 3]
00000000: 0000 80bf 0000 0040 0000 80bf
-1.0 2.0 -1.0

weight f4 [3, 175]
00000000: b7b1 8d3d bd0b 81be ea9b 83be 024a 62be
00000010: 8e83 00bc 4fea 98be 4c13 7d3e 94e4 b23d
00000020: fdb6 1c3e 213f 5f3e e7c0 043f 9627 e83d
00000030: 97c2 963e f2a7 8b3e 8e72 99bf cfed d1bd
00000040: 2db6 a8bf 86e2 ce3e 7f63 97bf 12eb dfbd
00000050: 8fc2 f6be acf1 7b3e 28cd dcbc 65c0 5e3f
00000060: 29b7 b03e da86 55bd 66c1 093d 90af 2ebd
00000070: 8885 63be e030 adbd 4e83 593e 384c e3be
00000080: 74b9 b83e 6913 1e3e a78f 3ebe fda7 82be
00000090: a307 51be 3705 023e ae19 ef3d 1709 cdbd
000000a0: e034 453e c927 d53d 7ef1 813d 989f 0340
000000b0: c454 79bd 5784 90be 4ce0 b03e a04d ef3f
000000c0: c552 97be 4da7 bcbd aac2 1340 b090 1740
000000d0: c14e 92bb 2921 2b3f ab55 ebbd 69c7 c13e
000000e0: 9666 79bb 86ca 983e f014 b3be f5ee 89be
000000f0: 02be 6fbe 5045 04bf feb1 58be 80f1 84be
00000100: 5b02 05be 75a0 823e f4ef 083e b022 423d
00000110: db47 88be 58e8 cabd c144 0dbf 4898 1a3e
00000120: b073 5e3d 76e8 2b3e 6bb8 a43c 8149 083f
00000130: 59db 833e 70e9 823d c2de d1bd 521f a03e
00000140: 9404 0d3c 0358 0bbe f684 f9be 93c3 4c3e
00000150: add4 04be 1a6f 313d 324f 7d3d 0390 fc3d
00000160: 2c60 853c ec4b 733c 16f7 3a3e afd7 aa3e
00000170: aa7c 0dbd 0d4e 9c3d 94c8 2d3c e14f 9dbd
00000180: 2575 05be 6323 063f 2d49 0e3e a381 6ebd
00000190: 0859 a1bd 8722 fbbc 2bec 98bd 2985 9dbc
000001a0: 8b94 41bd 5e22 fcbc 6980 8f3e ba32 29bd
000001b0: eeef 533f d1c9 2ebe 502d 913e bbdb 6bbe
000001c0: 159c e3be ef54 5a3e 6834 b23e 69be e53d
000001d0: 94fc eb3d 357b 24bc 3037 6ebe 79f7 b03d
000001e0: 4573 e9bd fd02 923e 8bdd a73e 9b7c a23e
000001f0: 63a5 2bbe 536f c6bd 5b7f 1c3e 072e d4bd
00000200: fe45 a63e df4c ef3c d518 203e badb 0c3d
00000210: 3579 273e 9f19 aebe c96c adbd d13b 693d
00000220: be81 623d 11d8 193d 5f32 ffbd e953 f4bd
00000230: d522 393e c27a 6abe 6f40 a4bc 1d41 583e
00000240: 6038 a73e bba9 a03c cea7 3bbe 0390 44bf
00000250: 0bf7 0ebf 9988 603e 11a6 cfbe c9ed 903e
00000260: e838 fa3d 0cbf c33d a790 9ebe 36cb c2be
00000270: e67d 85be cede 8abe dbb5 c2be 4f85 b63d
00000280: 5aa0 8b3e ef27 18be 3af4 b9bd e31b 8a3e
00000290: fd76 573d b2d1 0abd a113 abbe be7b 013e
000002a0: e737 663f 5398 2dbd 14bb 2abc 41d3 503e
000002b0: ef22 de3d 96f2 233e 9b61 49be 5fdd cebe
000002c0: 7caa 45bd 8463 653e bc25 9f3d 9813 3eb9
000002d0: 4729 babe 1d55 2bbe 6018 acbd 2170 29be
000002e0: 8ee4 afbe d220 48bd 957d 803d fcf1 8f3f
000002f0: 2863 f63d f317 433f 341b 54be b99d 0c3f
00000300: 623a 02be 8d6c 483f 4ecb 33be 730e acbe
00000310: f282 9abd 033a 89be be54 c1bd 3af4 04be
00000320: bd49 b4be 0b64 453e a6ee 013f 1f03 693e
00000330: 1fbe b33d 7124 3d3e e251 9dbe e4b5 cb3e
00000340: 085f 513e 5f52 c9be 5746 8bbd a113 50bf
00000350: c5e5 39be 89d1 32be 1249 b6bd 0d22 36be
00000360: ff52 16bf 64cb 72be bee8 0a40 3d79 debe
00000370: 295b a73f b247 88be 5300 89bf b136 37be
00000380: 01f0 9bbd ddf0 2c40 28c9 3140 dfb9 37bf
00000390: d09b c1bd e6b0 31bf 7a80 1f3e c87a ddbd
000003a0: f184 a6be 55da b13e 500d 91bf 0f9f d4bd
000003b0: 6703 ff3e 08af 90be 664d da3e 30d5 373b
000003c0: 2625 ed3e 88ea 383f 9885 cf3c d508 a23e
000003d0: e9ea 99be bf8c 06bf 6b93 0c3e ed5b 0abd
000003e0: e65f 33be 9679 8fbd a333 babe e0c0 f03e
000003f0: df04 b6bc 1a1e d1be 9921 cdbe c17c 18be
0.06918662 -0.25204268 -0.2570489 -0.22098544 -0.007843865 -0.29866263 0.24714392 0.08735004
0.1530418 0.21801426 0.51856846 0.113356754 0.29445335 0.2727657 -1.1988084 -0.102504365
-1.3180596 0.404072 -1.1827239 -0.10933508 -0.4819531 0.24603909 -0.026953295 0.8701232
0.3451474 -0.052130558 0.033631705 -0.0426479 -0.22218907 -0.08456588 0.21241495 -0.44394088
0.3607899 0.15437092 -0.18609487 -0.2551879 -0.2041307 0.12697302 0.1167482 -0.100114994
0.19258451 0.10407979 0.06344889 2.0566158 -0.060871854 -0.28225967 0.34546125 1.8695564
-0.29555336 -0.092115976 2.3087564 2.368206 -0.0044649546 0.66847473 -0.11490949 0.3784745
-0.003805553 0.29842013 -0.34976912 -0.26940122 -0.23412326 -0.5166826 -0.21161649 -0.259655
-0.1298918 0.25513044 0.13372785 0.04739636 -0.2661732 -0.09907597 -0.55183035 0.15097153
0.054309547 0.16787896 0.020107469 0.5323716 0.25753286 0.06392181 -0.10247566 0.31273896
0.008607049 -0.13607793 -0.48734254 0.1999648 -0.12971754 0.043318845 0.061843105 0.123321556
0.01628121 0.014849644 0.18258318 0.3336768 -0.034542717 0.076320745 0.010606904 -0.07681251
-0.13032968 0.52397746 0.13895102 -0.0582291 -0.078783095 -0.030656112 -0.074669205 -0.019228535
-0.047260802 -0.030778106 0.28027657 -0.041308142 0.8278798 -0.17069174 0.28354883 -0.2303304
-0.4445502 0.21321462 0.34805608 0.112179585 0.11522785 -0.0100391405 -0.2326324 0.08640952
-0.11398939 0.28517905 0.3278621 0.3173569 -0.16762309 -0.09689202 0.15282957 -0.103603415
0.32475275 0.02921146 0.15634473 0.034389235 0.1635483 -0.34003922 -0.08468015 0.05694181
0.055299513 0.037559573 -0.124607794 -0.11930067 0.18079694 -0.22898391 -0.020050256 0.21118589
0.32660198 0.019612184 -0.18325731 -0.76782244 -0.5584571 0.21927108 -0.40556386 0.28306416
0.12217885 0.09557924 -0.30969736 -0.38045663 -0.26072615 -0.2712311 -0.3802937 0.08912145
0.27270776 -0.14858983 -0.09079786 0.269744 0.05260371 -0.033891387 -0.33413413 0.1264486
0.8992905 -0.042381596 -0.010420579 0.20393087 0.10846507 0.16010508 -0.1966614 -0.40403268
-0.04825829 0.22401243 0.07770869 -0.00018127111 -0.36359617 -0.16731687 -0.08403087 -0.1654668
-0.3435406 -0.048859425 0.06273953 1.1245723 0.12030631 0.7620842 -0.20713502 0.54928166
-0.12717584 0.78290635 -0.17558023 -0.33604774 -0.07544507 -0.26802072 -0.094399914 -0.1298379
-0.35212508 0.19276445 0.50754774 0.22755097 0.08776497 0.18470933 -0.30726534 0.3978721
0.20446408 -0.39320657 -0.06800526 -0.8127995 -0.18154056 -0.17462744 -0.08900656 -0.17786427
-0.5872039 -0.237104 2.1704555 -0.43451872 1.3074695 -0.266172 -1.0703224 -0.17891957
-0.076141365 2.7022011 2.7779026 -0.7176799 -0.09453547 -0.6941055 0.15576354 -0.10814434
-0.325233 0.34736887 -1.1332188 -0.103819005 0.49807283 -0.28258538 0.42637175 0.0028050654
0.46317405 0.72232866 0.025332257 0.31647363 -0.30062035 -0.5255851 0.1372811 -0.033779074
-0.17517051 -0.070056126 -0.3636752 0.47022152 -0.02221912 -0.40843278 -0.40064695 -0.1489134

bias f4 [175]
00000000: 0000 0000 0000 0000 0000 0000 0000 0000
00000010: 0000 0000 0000 0000 0000 0000 0000 0000
00000020: 0000 0000 0000 0000 0000 0000 0000 0000
00000030: 0000 0000 0000 0000 0000 0000 0000 0000
00000040: 0000 0000 0000 0000 0000 0000 0000 0000
00000050: 0000 0000 0000 0000 0000 0000 0000 0000
00000060: 0000 0000 0000 0000 0000 0000 0000 0000
00000070: 0000 0000 0000 0000 0000 0000 0000 0000
00000080: 0000 0000 0000 0000 0000 0000 0000 0000
00000090: 0000 0000 0000 0000 0000 0000 0000 0000
000000a0: 0000 0000 0000 0000 0000 0000 0000 0000
000000b0: 0000 0000 0000 0000 0000 0000 0000 0000
000000c0: 0000 0000 0000 0000 0000 0000 0000 0000
000000d0: 0000 0000 0000 0000 0000 0000 0000 0000
000000e0: 0000 0000 0000 0000 0000 0000 0000 0000
000000f0: 0000 0000 0000 0000 0000 0000 0000 0000
00000100: 0000 0000 0000 0000 0000 0000 0000 0000
00000110: 0000 0000 0000 0000 0000 0000 0000 0000
00000120: 0000 0000 0000 0000 0000 0000 0000 0000
00000130: 0000 0000 0000 0000 0000 0000 0000 0000
00000140: 0000 0000 0000 0000 0000 0000 0000 0000
00000150: 0000 0000 0000 0000 0000 0000 0000 0000
00000160: 0000 0000 0000 0000 0000 0000 0000 0000
00000170: 0000 0000 0000 0000 0000 0000 0000 0000
00000180: 0000 0000 0000 0000 0000 0000 0000 0000
00000190: 0000 0000 0000 0000 0000 0000 0000 0000
000001a0: 0000 0000 0000 0000 0000 0000 0000 0000
000001b0: 0000 0000 0000 0000 0000 0000 0000 0000
000001c0: 0000 0000 0000 0000 0000 0000 0000 0000
000001d0: 0000 0000 0000 0000 0000 0000 0000 0000
000001e0: 0000 0000 0000 0000 0000 0000 0000 0000
000001f0: 0000 0000 0000 0000 0000 0000 0000 0000
00000200: 0000 0000 0000 0000 0000 0000 0000 0000
00000210: 0000 0000 0000 0000 0000 0000 0000 0000
00000220: 0000 0000 0000 0000 0000 0000 0000 0000
00000230: 0000 0000 0000 0000 0000 0000 0000 0000
00000240: 0000 0000 0000 0000 0000 0000 0000 0000
00000250: 0000 0000 0000 0000 0000 0000 0000 0000
00000260: 0000 0000 0000 0000 0000 0000 0000 0000
00000270: 0000 0000 0000 0000 0000 0000 0000 0000
00000280: 0000 0000 0000 0000 0000 0000 0000 0000
00000290: 0000 0000 0000 0000 0000 0000 0000 0000
000002a0: 0000 0000 0000 0000 0000 0000 0000 0000
000002b0: 0000 0000 0000 0000 0000 0000
0.0 0.0 0.0 0.0 0.0 0.0 0.0 0.0
0.0 0.0 0.0 0.0 0.0 0.0 0.0 0.0
0.0 0.0 0.0 0.0 0.0 0.0 0.0 0.0
0.0 0.0 0.0 0.0 0.0 0.0 0.0 0.0
0.0 0.0 0.0 0.0 0.0 0.0 0.0 0.0
0.0 0.0 0.0 0.0 0.0 0.0 0.0 0.0
0.0 0.0 0.0 0.0 0.0 0.0 0.0 0.0
0.0 0.0 0.0 0.0 0.0 0.0 0.0 0.0
0.0 0.0 0.0 0.0 0.0 0.0 0.0 0.0
0.0 0.0 0.0 0.0 0.0 0.0 0.0 0.0
0.0 0.0 0.0 0.0 0.0 0.0 0.0 0.0
0.0 0.0 0.0 0.0 0.0 0.0 0.0 0.0
0.0 0.0 0.0 0.0 0.0 0.0 0.0 0.0
0.0 0.0 0.0 0.0 0.0 0.0 0.0 0.0
0.0 0.0 0.0 0.0 0.0 0.0 0.0 0.0
0.0 0.0 0.0 0.0 0.0 0.0 0.0 0.0
0.0 0.0 0.0 0.0 0.0 0.0 0.0 0.0
0.0 0.0 0.0 0.0 0.0 0.0 0.0 0.0
0.0 0.0 0.0 0.0 0.0 0.0 0.0 0.0
0.0 0.0 0.0 0.0 0.0 0.0 0.0 0.0
0.0 0.0 0.0 0.0 0.0 0.0 0.0 0.0
0.0 0.0 0.0 0.0 0.0 0.0 0.0

_ei_mask f4 [175]
00000000: 0000 803f 0000 803f 0000 803f 0000 803f
00000010: 0000 803f 0000 803f 0000 803f 0000 803f
00000020: 0000 803f 0000 803f 0000 803f 0000 803f
00000030: 0000 803f 0000 803f 0000 803f 0000 803f
00000040: 0000 803f 0000 803f 0000 803f 0000 803f
00000050: 0000 803f 0000 803f 0000 803f 0000 803f
00000060: 0000 803f 0000 803f 0000 803f 0000 803f
00000070: 0000 803f 0000 803f 0000 803f 0000 803f
00000080: 0000 803f 0000 803f 0000 803f 0000 803f
00000090: 0000 803f 0000 803f 0000 803f 0000 803f
000000a0: 0000 803f 0000 803f 0000 803f 0000 803f
000000b0: 0000 803f 0000 803f 0000 803f 0000 803f
000000c0: 0000 803f 0000 803f 0000 803f 0000 803f
000000d0: 0000 803f 0000 803f 0000 803f 0000 803f
000000e0: 0000 803f 0000 803f 0000 803f 0000 803f
000000f0: 0000 803f 0000 803f 0000 803f 0000 803f
00000100: 0000 803f 0000 803f 0000 803f 0000 803f
00000110: 0000 803f 0000 803f 0000 803f 0000 803f
00000120: 0000 803f 0000 803f 0000 803f 0000 803f
00000130: 0000 803f 0000 803f 0000 803f 0000 803f
00000140: 0000 803f 0000 803f 0000 803f 0000 803f
00000150: 0000 803f 0000 803f 0000 803f 0000 803f
00000160: 0000 803f 0000 803f 0000 803f 0000 803f
00000170: 0000 803f 0000 803f 0000 803f 0000 803f
00000180: 0000 803f 0000 803f 0000 803f 0000 803f
00000190: 0000 803f 0000 803f 0000 803f 0000 803f
000001a0: 0000 803f 0000 803f 0000 803f 0000 803f
000001b0: 0000 803f 0000 803f 0000 803f 0000 803f
000001c0: 0000 803f 0000 803f 0000 803f 0000 803f
000001d0: 0000 803f 0000 803f 0000 803f 0000 803f
000001e0: 0000 803f 0000 803f 0000 803f 0000 803f
000001f0: 0000 803f 0000 803f 0000 803f 0000 803f
00000200: 0000 803f 0000 803f 0000 803f 0000 803f
00000210: 0000 803f 0000 803f 0000 803f 0000 803f
00000220: 0000 803f 0000 803f 0000 803f 0000 803f
00000230: 0000 803f 0000 803f 0000 803f 0000 803f
00000240: 0000 803f 0000 803f 0000 803f 0000 803f
00000250: 0000 803f 0000 803f 0000 803f 0000 803f
00000260: 0000 803f 0000 803f 0000 803f 0000 803f
00000270: 0000 803f 0000 803f 0000 803f 0000 803f
00000280: 0000 803f 0000 803f 0000 803f 0000 803f
00000290: 0000 803f 0000 803f 0000 803f 0000 803f
000002a0: 0000 803f 0000 803f 0000 803f 0000 803f
000002b0: 0000 803f 0000 803f 0000 803f
1.0 1.0 1.0 1.0 1.0 1.0 1.0 1.0
1.0 1.0 1.0 1.0 1.0 1.0 1.0 1.0
1.0 1.0 1.0 1.0 1.0 1.0 1.0 1.0
1.0 1.0 1.0 1.0 1.0 1.0 1.0 1.0
1.0 1.0 1.0 1.0 1.0 1.0 1.0 1.0
1.0 1.0 1.0 1.0 1.0 1.0 1.0 1.0
1.0 1.0 1.0 1.0 1.0 1.0 1.0 1.0
1.0 1.0 1.0 1.0 1.0 1.0 1.0 1.0
1.0 1.0 1.0 1.0 1.0 1.0 1.0 1.0
1.0 1.0 1.0 1.0 1.0 1.0 1.0 1.0
1.0 1.0 1.0 1.0 1.0 1.0 1.0 1.0
1.0 1.0 1.0 1.0 1.0 1.0 1.0 1.0
1.0 1.0 1.0 1.0 1.0 1.0 1.0 1.0
1.0 1.0 1.0 1.0 1.0 1.0 1.0 1.0
1.0 1.0 1.0 1.0 1.0 1.0 1.0 1.0
1.0 1.0 1.0 1.0 1.0 1.0 1.0 1.0
1.0 1.0 1.0 1.0 1.0 1.0 1.0 1.0
1.0 1.0 1.0 1.0 1.0 1.0 1.0 1.0
1.0 1.0 1.0 1.0 1.0 1.0 1.0 1.0
1.0 1.0 1.0 1.0 1.0 1.0 1.0 1.0
1.0 1.0 1.0 1.0 1.0 1.0 1.0 1.0
1.0 1.0 1.0 1.0 1.0 1.0 1.0
