checkpoints/version104/model.pt (torch, 34217 bytes, 14 tensors)

bias f4 [175]
000000 1d f1 80 3e b3 4f 4d 40 2d 0b 42 bf fe fa 7d be
       0.25183955 3.2079895 -0.757983 -0.24802777
000010 69 97 be bc b4 b7 fd 3f 88 7b 42 40 1b 12 38 40
       -0.023265557 1.9821687 3.0387897 2.876105
000020 a3 aa 2d 40 00 80 78 40 07 91 df 3f e6 d1 20 40
       2.7135398 3.8828125 1.7466134 2.5128112
000030 83 8b 00 3f ed ec 34 3e a2 7c 2e 3f 7c 08 64 40
       0.5021288 0.17668505 0.68158925 3.5630178
000040 10 2e e9 3e 11 e8 44 bf f5 d1 01 3f 6d c2 73 40
       0.45542955 -0.76916605 0.50710994 3.8087418
000050 48 3c 34 bf 75 12 b7 3e 73 26 b9 3f ca 59 f2 be
       -0.7040448 0.3575627 1.4464859 -0.4733413
000060 58 95 96 bf df 5e 7d 40 e1 18 49 40 1f f0 7e 3f
       -1.1764326 3.9589155 3.1421435 0.99585146
000070 74 0c 95 3f af 4d 1c 40 44 f6 7a 3d b2 fb ca 3f
       1.1644425 2.4422414 0.061270013 1.5858061
000080 13 8c 09 40 51 e1 0a 40 c8 33 bd be 4f ef 8c 40
       2.1491745 2.1700022 -0.36953568 4.4042125
000090 86 a4 55 bf 30 8a 9f 3f 4f 73 4c 40 5f 42 0a 40
       -0.8345417 1.2464046 3.1945379 2.160301
0000a0 7a f7 23 40 e9 60 80 3f cc b9 df bc 96 21 99 3f
       2.5619798 1.0029575 -0.027310275 1.1963375
0000b0 90 33 22 40 1a 5e 4c 3e 7a 27 7e bc 7b fb 9c 3e
       2.5343971 0.19957772 -0.015512342 0.30660614
0000c0 df 5c 39 3f e5 16 87 3e a5 86 a3 3f 57 87 c6 3f
       0.72407335 0.26384655 1.2775465 1.5510052
0000d0 0f c6 ba 3f 6c b3 45 bf cf 49 d2 be 9f 0b 1c 40
       1.4591693 -0.772269 -0.41071936 2.4382093
0000e0 be 93 5a bf d4 75 2b 40 89 66 1b bf 56 4e e0 3f
       -0.85381687 2.6790667 -0.6070333 1.7523906
0000f0 d0 ca 81 bf de e4 eb be c0 9a da 3e 57 1c b6 be
       -1.0140018 -0.4607305 0.4269619 -0.35568497
000100 ed 81 88 3e f6 42 33 3f 2a e2 96 bd 0d b2 96 3f
       0.26661626 0.7002405 -0.07367356 1.1773087
000110 f6 93 8b 3e 0d 91 ec 3f d7 b1 45 bf 86 94 96 3f
       0.27261323 1.8481766 -0.7722449 1.1764076
000120 c7 f6 9c 3f 7e c0 0e 40 70 06 9a 3f 16 82 0b 40
       1.226281 2.2304988 1.2033215 2.1798148
000130 cf 41 1b 40 15 bc bc 3f 8b 3e 37 40 e0 67 41 40
       2.4258916 1.4744898 2.8631923 3.021965
000140 d7 52 a4 3f fb 39 29 40 21 66 d8 3f fc 4d 6a 40
       1.2837781 2.6441638 1.6906167 3.6610098
000150 06 fc 11 40 51 fe 99 3f 6e b0 72 40 27 2e 85 40
       2.2810073 1.2030736 3.7920184 4.161884
000160 f2 dd e2 3f 3f 0f a4 3f d6 f0 09 3f 40 8c 69 bf
       1.7723982 1.2817153 0.5388311 -0.9122963
000170 c5 4d 86 40 ea ca bf bf 2b 97 23 3f e8 f8 c7 bd
       4.1969934 -1.49838 0.6390254 -0.09764272
000180 97 db 9c 40 60 9e 40 be df 81 bd bf 4f 63 95 3f
       4.9018054 -0.18810415 -1.4805259 1.1670932
000190 52 f2 6d 40 75 20 31 40 5d ea f3 3f 2e f6 d7 3f
       3.717915 2.767606 1.9055897 1.6872003
0001a0 21 65 58 3f 19 b7 04 40 53 d9 78 40 4c ab ea 3f
       0.8452931 2.0736754 3.8882644 1.8333526
0001b0 19 9b a0 3f 1c 63 0a 40 4f 3d ba 3f be 07 52 bf
       1.2547332 2.1622992 1.454996 -0.82043064
0001c0 33 eb 8d 3e 71 34 5e 40 03 2e fc 3f 79 ab 53 40
       0.27718505 3.4719508 1.9701542 3.3073409
0001d0 a4 f3 b1 3f 55 7e 20 40 bf a7 0f 40 0d 2c 3a 40
       1.3902478 2.5077107 2.2446134 2.9089386
0001e0 0d 45 35 40 44 8a 13 40 86 cc 2d 40 86 00 22 40
       2.8323395 2.305314 2.7156081 2.531282
0001f0 6a 18 3d 40 e5 61 a7 3f 85 d9 ea 3d 92 1f 0b bf
       2.954615 1.307675 0.1146727 -0.5434505
000200 db d0 c3 3f 7b b2 fd 3f 99 e3 89 3f 72 4a 22 3e
       1.5298113 1.9820093 1.0772582 0.15848711
000210 52 6e 6c 3f 90 f2 1b 40 01 32 c5 3f f2 96 85 be
       0.92355835 2.4366798 1.5405885 -0.26091725
000220 d7 12 a6 be a5 1c c9 3f 21 b4 fa be 28 fd 92 3f
       -0.3243625 1.5711867 -0.48965552 1.1483507
000230 96 c2 24 3f 1c 28 4b 3f aa 7c b1 3f 44 e4 36 bd
       0.64359415 0.7935808 1.386617 -0.044651285
000240 5b e1 ff be 6f 7d 33 40 d6 78 a3 3f 62 2e a9 3f
       -0.4997662 2.8045309 1.2771251 1.321728
000250 56 8b 41 3e ed f5 40 3e a8 3c ef 3e 88 3c eb be
       0.18900809 0.18843813 0.46725965 -0.4594462
000260 71 f2 f7 3f 1e f1 60 3f 01 be 67 40 ab 4f 41 40
       1.9370862 0.87867916 3.620972 3.0204875
000270 67 b5 a9 3f 9c 88 87 40 75 45 91 3f 4c 14 a6 3f
       1.3258485 4.235426 1.1349322 1.2974944
000280 47 80 31 3f 66 a0 98 bf 94 6a 8b 3f 3d 55 21 40
       0.6933636 -1.192395 1.08919 2.5208275
000290 69 42 cd 3f cb e0 6a 40 56 c3 28 3f 3e 58 b6 3f
       1.6035892 3.6699703 0.6592306 1.4245679
0002a0 08 ae 70 3f e7 59 02 40 cc 95 08 40 66 3f ca 3f
       0.9401555 2.0367372 2.1341429 1.5800598
0002b0 4b 52 a1 3f e3 8c 71 3f c2 55 09 be
       1.2603239 0.943556 -0.1341162

weight f4 [9, 175]
000000 90 25 88 ab db 4f 0d aa a7 eb 83 26 1c 21 f5 3e
       -9.673807e-13 -1.2551021e-13 9.153825e-16 0.47876823
000010 fe 38 fa ab aa e2 03 3f 52 fe 07 2d df a5 51 3e
       -1.7779387e-12 0.51517737 7.730332e-12 0.20473431
000020 f9 03 16 3f ec 39 93 3e 3e a3 34 3f 83 f8 11 3f
       0.5859981 0.28755128 0.7056159 0.57019824
000030 10 24 06 a6 08 d4 ef 3e 3f 5d 88 be 8a fb ce a8
       -4.6539463e-16 0.46841455 -0.2663364 -2.2979682e-14
000040 1f 28 ce be ba 88 af 3e 91 98 d8 be b8 ed e6 31
       -0.40264985 0.34284002 -0.423039 6.7209065e-09
000050 ac b8 b0 a5 89 fe 71 3f 07 28 c3 3e 56 75 b8 be
       -3.0656272e-16 0.94529015 0.38116476 -0.3602702
000060 38 bc 58 3f e9 f7 64 3e 5f 12 65 3f 27 b1 85 b1
       0.846622 0.22360195 0.8948116 -3.8909493e-09
000070 93 a9 46 a9 1e 69 e7 26 3a ae 6f 3f 40 da 2d ac
       -4.4111914e-14 1.6057337e-15 0.93625224 -2.4705932e-12
000080 ba 30 65 3e 20 8e 45 3f 51 50 89 a9 36 da 21 29
       0.22381869 0.7716999 -6.097955e-14 3.593845e-14
000090 96 ea 07 3f 7f 1f a9 be c6 b5 9d 38 43 6b c6 3e
       0.53092325 -0.33031842 7.520201e-05 0.3875371
0000a0 3e 6d 9d 3e 32 1b b7 bb 42 4b 34 3f ba 67 74 3e
       0.30747408 -0.0055879587 0.70427334 0.23867694
0000b0 ce 22 c3 29 65 00 2b 3e 57 30 27 27 f8 87 fa a8
       8.665777e-14 0.16699369 2.320211e-15 -2.7814543e-14
0000c0 24 7d 4e 25 c7 b9 cd a7 2d 2d 7d b2 c5 8e 91 b5
       1.7910051e-16 -5.710035e-15 -1.473681e-08 -1.0844893e-06
0000d0 ff 31 8f 2d 6f 2e 33 3f 98 df f5 3e 5e cb ba be
       1.627942e-11 0.6999273 0.4802215 -0.36483282
0000e0 da 67 17 a3 2a 7c ca be 01 2c 0b 3f e7 0f 58 ac
       -8.207718e-18 -0.39547855 0.5436402 -3.0704274e-12
0000f0 68 91 ff 3e 77 58 1e 3f 3e 1b 9b 27 dd 1e 15 2a
       0.49915624 0.61853737 4.305068e-15 1.3244566e-13
000100 62 db 43 25 7e f4 84 3e 17 26 d4 3d 6d ec 1d 3f
       1.6987884e-16 0.25967783 0.103588276 0.6168888
000110 5e b0 50 2a 1d 06 76 3e 1f 6c d2 3e 7d 8c 5e 3e
       1.8535301e-13 0.2402577 0.41098115 0.2173328
000120 6f 87 82 3e 7a 2f 65 2a 4c ed 76 3e 00 03 c4 b7
       0.25493953 2.0355758e-13 0.24113959 -2.3366418e-05
000130 0c b3 ad 38 8a 0c 58 3e 45 b6 e0 2a 32 29 c4 39
       8.282633e-05 0.21098533 3.9916868e-13 0.00037414726
000140 4e a2 d8 2a 38 7b e0 2a 30 b4 da 3e aa f2 ae a9
       3.848193e-13 3.9875893e-13 0.42715597 -7.769248e-14
000150 fb 64 6d be 88 f7 8b 3e 8a 80 e3 a7 45 50 54 29
       -0.23183052 0.2733729 -6.314452e-15 4.714308e-14
000160 d0 b1 eb a9 51 75 26 3b cb eb b2 3e e2 81 ff be
       -1.0466942e-13 0.0025399516 0.3494552 -0.4990378
000170 1f cb bf aa 4c 99 19 3f ad d4 0e 3f d8 9b 40 3f
       -3.406936e-13 0.5999954 0.5579327 0.752378
000180 7a a9 c0 aa 62 42 ef 3e 8c 11 29 3f 37 91 26 3f
       -3.422365e-13 0.46730334 0.660424 0.6506533
000190 b5 4c d7 3e 3e d2 48 3f fd 89 29 a9 25 eb ba a9
       0.4205071 0.78445804 -3.7645224e-14 -8.3008504e-14
0001a0 36 7e 11 26 59 d5 8d 26 23 6b 1b 3f 23 15 d1 3e
       5.047803e-16 9.841668e-16 0.6071035 0.4083644
0001b0 cc 6d 10 3f 3a 6c 9c 3a 33 97 c1 b4 62 43 c3 aa
       0.56417537 0.001193411 -3.6059063e-07 -3.4685715e-13
0001c0 a8 80 07 3f 78 2d e2 3e 23 da dc 3e df 7b d9 3e
       0.5293069 0.44175315 0.43135175 0.4247732
0001d0 de 7e c6 3e d5 4a c9 a9 ef c8 43 3e 10 d3 36 b9
       0.38768667 -8.9391744e-14 0.19119619 -0.000174355
0001e0 21 f9 45 3e 13 ca 40 b9 e4 ff b3 3e a7 2b 1e 2b
       0.19333316 -0.00018385825 0.35156167 5.6193456e-13
0001f0 2c 00 b9 2d 6e 01 23 a9 7e 13 df 3e ea 9c 0c b3
       2.1032141e-11 -3.619451e-14 0.4356956 -3.2739003e-08
000200 34 f1 3b ad 1f b1 80 3a be ee 0d 3f d4 05 bc 26
       -1.0683277e-11 0.0009818411 0.55442417 1.30467e-15
000210 29 58 1b 3f ca e8 8a 2e ce 10 b0 a6 80 b9 12 3f
       0.60681397 6.316865e-11 -1.2217008e-15 0.573143
000220 5d 00 4d 3e c6 80 2b 29 bb 77 0c bf 76 60 da 2c
       0.2001967 3.808132e-14 -0.54870194 6.206642e-12
000230 88 c7 15 3f d8 52 47 3e 22 09 29 ab c4 9a fb 2a
       0.58507586 0.19465196 -6.0053535e-13 4.4693947e-13
000240 99 57 b1 3e f5 c4 3b 3f da 38 aa a7 38 87 35 27
       0.34637144 0.7334741 -4.7246117e-15 2.5192098e-15
000250 82 c1 15 a5 d1 ce ac 3e c3 01 ab 3e e6 b1 86 3e
       -1.2989253e-16 0.33751538 0.33399782 0.263076
000260 a3 a3 a6 2a 16 2b 0f 3a e9 19 d6 aa c8 42 0c 29
       2.960107e-13 0.00054614374 -3.8032015e-13 3.1144168e-14
000270 c2 aa fc 3e d4 8d 75 2a e5 50 1a a9 1b 0d 72 b6
       0.49349028 2.1809578e-13 -3.4265034e-14 -3.6068438e-06
000280 37 b1 be 3e 50 f8 2f 3b b1 84 13 3f 23 42 d3 3e
       0.3724458 0.0026850887 0.57624346 0.41261396
000290 ef 72 e3 2d 2a af d5 a7 4e 6e a7 a7 65 95 03 ae
       2.5857953e-11 -5.930929e-15 -4.6471404e-15 -2.991864e-11
0002a0 91 83 80 3e e1 e5 96 a7 e3 13 d4 a7 60 39 8a 3c
       0.25100377 -4.18826e-15 -5.886338e-15 0.016873062
0002b0 51 e1 d1 3d ca e9 09 3f 6d 16 9d 3e 17 1d 81 3e
       0.10248054 0.5387236 0.30681172 0.25217506
0002c0 4b 63 b7 3e 89 d7 10 3f eb b0 8c 32 9b e7 8b 3f
       0.35817942 0.5657888 1.6378598e-08 1.0930055
0002d0 a8 28 6a 29 25 db 64 3e 71 94 82 24 90 84 7b 29
       5.19937e-14 0.22349222 5.662998e-17 5.5848175e-14
0002e0 18 8b bc ab fc 11 9b a9 c6 94 19 a7 dd f5 34 3f
       -1.339681e-12 -6.8865025e-14 -2.1313666e-15 0.7068766
0002f0 f4 94 19 a3 67 50 09 34 d4 a5 17 3f 49 61 86 31
       -8.325689e-18 1.278837e-07 0.5923741 3.9109733e-09
000300 74 03 1b 29 e4 a1 7d 31 30 7a fe be 37 d1 df 3e
       3.441991e-14 3.690837e-09 -0.49702597 0.43714306
000310 e3 bb 99 2a 60 c8 6f 28 0c 75 e6 ae e0 21 ab 28
       2.7308632e-13 1.33106145e-14 -1.0479981e-10 1.8999505e-14
000320 d5 ad c8 a8 4a 1a 26 aa a7 19 a1 3e e6 62 26 3f
       -2.2279848e-14 -1.4752883e-13 0.31464884 0.6499466
000330 fd 65 50 3f 2c fb fc 28 b9 89 b9 be 00 e5 b6 ab
       0.8140562 2.8086549e-14 -0.36237887 -1.2995438e-12
000340 ca 0d 2f 2a 90 36 4b 3f 07 9a 2f 3f 06 30 f0 a7
       1.5547906e-13 0.7938013 0.685944 -6.666545e-15
000350 b6 fb a3 b0 8d b1 9d 3b 87 99 40 a6 e4 17 a3 33
       -1.1931351e-09 0.0048124255 -6.682145e-16 7.594625e-08
000360 66 73 da b8 7b ef 33 26 08 92 a7 29 dc 6f 30 3f
       -0.00010416545 6.2427657e-16 7.441622e-14 0.68920684
000370 85 ae 94 a7 c4 de d3 3e 1c c8 21 3e 32 92 f8 3e
       -4.1267466e-15 0.41380894 0.15798992 0.48549038
000380 75 5f 8f 3e 13 76 f0 be a2 57 bc be 7c 89 48 3e
       0.28002515 -0.46965083 -0.3678561 0.19583696
000390 92 7d 50 25 34 e4 18 a6 25 39 6b b2 ec 40 0f 3f
       1.8083669e-16 -5.3044867e-16 -1.36917935e-08 0.5595844
0003a0 83 c8 80 28 a2 c9 b1 a5 d6 dc d5 be bc 3f 80 28
       1.4297813e-14 -3.0841237e-16 -0.41770047 1.4238495e-14
0003b0 8c ad af 25 5c f0 53 3e d6 fe dd 3e 7f 1c 02 3f
       3.047526e-16 0.20697159 0.43358487 0.5082473
0003c0 7f 24 aa 2a 92 34 a3 ad 44 05 01 25 c4 4f 9a 3e
       3.022339e-13 -1.85543e-11 1.119075e-16 0.3013898
0003d0 7e 15 9a 2c 08 59 6e 24 9e fb f2 2f 94 e3 4e ae
       4.3793294e-12 5.1683436e-17 4.4198328e-10 -4.7041107e-11
0003e0 3d 60 20 3e c3 2c b3 ac 11 3f 88 b9 24 71 a7 b9
       0.15661712 -5.0924555e-12 -0.0002598693 -0.00031937019
0003f0 de 51 04 2f b2 31 97 3e 93 c6 ac 39 c1 be 6a 3e
       1.2034415e-10 0.29530102 0.00032954346 0.2292433

bias f4 [175]
000000 00 00 00 00 00 00 00 00 00 00 00 00 00 00 00 00
       0.0 0.0 0.0 0.0
000010 00 00 00 00 00 00 00 00 00 00 00 00 00 00 00 00
       0.0 0.0 0.0 0.0
000020 00 00 00 00 00 00 00 00 00 00 00 00 00 00 00 00
       0.0 0.0 0.0 0.0
000030 00 00 00 00 00 00 00 00 00 00 00 00 00 00 00 00
       0.0 0.0 0.0 0.0
000040 00 00 00 00 00 00 00 00 00 00 00 00 00 00 00 00
       0.0 0.0 0.0 0.0
000050 00 00 00 00 00 00 00 00 00 00 00 00 00 00 00 00
       0.0 0.0 0.0 0.0
000060 00 00 00 00 00 00 00 00 00 00 00 00 00 00 00 00
       0.0 0.0 0.0 0.0
000070 00 00 00 00 00 00 00 00 00 00 00 00 00 00 00 00
       0.0 0.0 0.0 0.0
000080 00 00 00 00 00 00 00 00 00 00 00 00 00 00 00 00
       0.0 0.0 0.0 0.0
000090 00 00 00 00 00 00 00 00 00 00 00 00 00 00 00 00
       0.0 0.0 0.0 0.0
0000a0 00 00 00 00 00 00 00 00 00 00 00 00 00 00 00 00
       0.0 0.0 0.0 0.0
0000b0 00 00 00 00 00 00 00 00 00 00 00 00 00 00 00 00
       0.0 0.0 0.0 0.0
0000c0 00 00 00 00 00 00 00 00 00 00 00 00 00 00 00 00
       0.0 0.0 0.0 0.0
0000d0 00 00 00 00 00 00 00 00 00 00 00 00 00 00 00 00
       0.0 0.0 0.0 0.0
0000e0 00 00 00 00 00 00 00 00 00 00 00 00 00 00 00 00
       0.0 0.0 0.0 0.0
0000f0 00 00 00 00 00 00 00 00 00 00 00 00 00 00 00 00
       0.0 0.0 0.0 0.0
000100 00 00 00 00 00 00 00 00 00 00 00 00 00 00 00 00
       0.0 0.0 0.0 0.0
000110 00 00 00 00 00 00 00 00 00 00 00 00 00 00 00 00
       0.0 0.0 0.0 0.0
000120 00 00 00 00 00 00 00 00 00 00 00 00 00 00 00 00
       0.0 0.0 0.0 0.0
000130 00 00 00 00 00 00 00 00 00 00 00 00 00 00 00 00
       0.0 0.0 0.0 0.0
000140 00 00 00 00 00 00 00 00 00 00 00 00 00 00 00 00
       0.0 0.0 0.0 0.0
000150 00 00 00 00 00 00 00 00 00 00 00 00 00 00 00 00
       0.0 0.0 0.0 0.0
000160 00 00 00 00 00 00 00 00 00 00 00 00 00 00 00 00
       0.0 0.0 0.0 0.0
000170 00 00 00 00 00 00 00 00 00 00 00 00 00 00 00 00
       0.0 0.0 0.0 0.0
000180 00 00 00 00 00 00 00 00 00 00 00 00 00 00 00 00
       0.0 0.0 0.0 0.0
000190 00 00 00 00 00 00 00 00 00 00 00 00 00 00 00 00
       0.0 0.0 0.0 0.0
0001a0 00 00 00 00 00 00 00 00 00 00 00 00 00 00 00 00
       0.0 0.0 0.0 0.0
0001b0 00 00 00 00 00 00 00 00 00 00 00 00 00 00 00 00
       0.0 0.0 0.0 0.0
0001c0 00 00 00 00 00 00 00 00 00 00 00 00 00 00 00 00
       0.0 0.0 0.0 0.0
0001d0 00 00 00 00 00 00 00 00 00 00 00 00 00 00 00 00
       0.0 0.0 0.0 0.0
0001e0 00 00 00 00 00 00 00 00 00 00 00 00 00 00 00 00
       0.0 0.0 0.0 0.0
0001f0 00 00 00 00 00 00 00 00 00 00 00 00 00 00 00 00
       0.0 0.0 0.0 0.0
000200 00 00 00 00 00 00 00 00 00 00 00 00 00 00 00 00
       0.0 0.0 0.0 0.0
000210 00 00 00 00 00 00 00 00 00 00 00 00 00 00 00 00
       0.0 0.0 0.0 0.0
000220 00 00 00 00 00 00 00 00 00 00 00 00 00 00 00 00
       0.0 0.0 0.0 0.0
000230 00 00 00 00 00 00 00 00 00 00 00 00 00 00 00 00
       0.0 0.0 0.0 0.0
000240 00 00 00 00 00 00 00 00 00 00 00 00 00 00 00 00
       0.0 0.0 0.0 0.0
000250 00 00 00 00 00 00 00 00 00 00 00 00 00 00 00 00
       0.0 0.0 0.0 0.0
000260 00 00 00 00 00 00 00 00 00 00 00 00 00 00 00 00
       0.0 0.0 0.0 0.0
000270 00 00 00 00 00 00 00 00 00 00 00 00 00 00 00 00
       0.0 0.0 0.0 0.0
000280 00 00 00 00 00 00 00 00 00 00 00 00 00 00 00 00
       0.0 0.0 0.0 0.0
000290 00 00 00 00 00 00 00 00 00 00 00 00 00 00 00 00
       0.0 0.0 0.0 0.0
0002a0 00 00 00 00 00 00 00 00 00 00 00 00 00 00 00 00
       0.0 0.0 0.0 0.0
0002b0 00 00 00 00 00 00 00 00 00 00 00 00
       0.0 0.0 0.0

_ei_mask f4 [175]
000000 00 00 80 3f 00 00 80 3f 00 00 80 3f 00 00 80 3f
       1.0 1.0 1.0 1.0
000010 00 00 80 3f 00 00 80 3f 00 00 80 3f 00 00 80 3f
       1.0 1.0 1.0 1.0
000020 00 00 80 3f 00 00 80 3f 00 00 80 3f 00 00 80 3f
       1.0 1.0 1.0 1.0
000030 00 00 80 3f 00 00 80 3f 00 00 80 3f 00 00 80 3f
       1.0 1.0 1.0 1.0
000040 00 00 80 3f 00 00 80 3f 00 00 80 3f 00 00 80 3f
       1.0 1.0 1.0 1.0
000050 00 00 80 3f 00 00 80 3f 00 00 80 3f 00 00 80 3f
       1.0 1.0 1.0 1.0
000060 00 00 80 3f 00 00 80 3f 00 00 80 3f 00 00 80 3f
       1.0 1.0 1.0 1.0
000070 00 00 80 3f 00 00 80 3f 00 00 80 3f 00 00 80 3f
       1.0 1.0 1.0 1.0
000080 00 00 80 3f 00 00 80 3f 00 00 80 3f 00 00 80 3f
       1.0 1.0 1.0 1.0
000090 00 00 80 3f 00 00 80 3f 00 00 80 3f 00 00 80 3f
       1.0 1.0 1.0 1.0
0000a0 00 00 80 3f 00 00 80 3f 00 00 80 3f 00 00 80 3f
       1.0 1.0 1.0 1.0
0000b0 00 00 80 3f 00 00 80 3f 00 00 80 3f 00 00 80 3f
       1.0 1.0 1.0 1.0
0000c0 00 00 80 3f 00 00 80 3f 00 00 80 3f 00 00 80 3f
       1.0 1.0 1.0 1.0
0000d0 00 00 80 3f 00 00 80 3f 00 00 80 3f 00 00 80 3f
       1.0 1.0 1.0 1.0
0000e0 00 00 80 3f 00 00 80 3f 00 00 80 3f 00 00 80 3f
       1.0 1.0 1.0 1.0
0000f0 00 00 80 3f 00 00 80 3f 00 00 80 3f 00 00 80 3f
       1.0 1.0 1.0 1.0
000100 00 00 80 3f 00 00 80 3f 00 00 80 3f 00 00 80 3f
       1.0 1.0 1.0 1.0
000110 00 00 80 3f 00 00 80 3f 00 00 80 3f 00 00 80 3f
       1.0 1.0 1.0 1.0
000120 00 00 80 3f 00 00 80 3f 00 00 80 3f 00 00 80 3f
       1.0 1.0 1.0 1.0
000130 00 00 80 3f 00 00 80 3f 00 00 80 3f 00 00 80 3f
       1.0 1.0 1.0 1.0
000140 00 00 80 3f 00 00 80 3f 00 00 80 3f 00 00 80 3f
       1.0 1.0 1.0 1.0
000150 00 00 80 3f 00 00 80 3f 00 00 80 3f 00 00 80 3f
       1.0 1.0 1.0 1.0
000160 00 00 80 3f 00 00 80 3f 00 00 80 3f 00 00 80 3f
       1.0 1.0 1.0 1.0
000170 00 00 80 3f 00 00 80 3f 00 00 80 3f 00 00 80 3f
       1.0 1.0 1.0 1.0
000180 00 00 80 3f 00 00 80 3f 00 00 80 3f 00 00 80 3f
       1.0 1.0 1.0 1.0
000190 00 00 80 3f 00 00 80 3f 00 00 80 3f 00 00 80 3f
       1.0 1.0 1.0 1.0
0001a0 00 00 80 3f 00 00 80 3f 00 00 80 3f 00 00 80 3f
       1.0 1.0 1.0 1.0
0001b0 00 00 80 3f 00 00 80 3f 00 00 80 3f 00 00 80 3f
       1.0 1.0 1.0 1.0
0001c0 00 00 80 3f 00 00 80 3f 00 00 80 3f 00 00 80 3f
       1.0 1.0 1.0 1.0
0001d0 00 00 80 3f 00 00 80 3f 00 00 80 3f 00 00 80 3f
       1.0 1.0 1.0 1.0
0001e0 00 00 80 3f 00 00 80 3f 00 00 80 3f 00 00 80 3f
       1.0 1.0 1.0 1.0
0001f0 00 00 80 3f 00 00 80 3f 00 00 80 3f 00 00 80 3f
       1.0 1.0 1.0 1.0
000200 00 00 80 3f 00 00 80 3f 00 00 80 3f 00 00 80 3f
       1.0 1.0 1.0 1.0
000210 00 00 80 3f 00 00 80 3f 00 00 80 3f 00 00 80 3f
       1.0 1.0 1.0 1.0
000220 00 00 80 3f 00 00 80 3f 00 00 80 3f 00 00 80 3f
       1.0 1.0 1.0 1.0
000230 00 00 80 3f 00 00 80 3f 00 00 80 3f 00 00 80 3f
       1.0 1.0 1.0 1.0
000240 00 00 80 3f 00 00 80 3f 00 00 80 3f 00 00 80 3f
       1.0 1.0 1.0 1.0
000250 00 00 80 3f 00 00 80 3f 00 00 80 3f 00 00 80 3f
       1.0 1.0 1.0 1.0
000260 00 00 80 3f 00 00 80 3f 00 00 80 3f 00 00 80 3f
       1.0 1.0 1.0 1.0
000270 00 00 80 3f 00 00 80 3f 00 00 80 3f 00 00 80 3f
       1.0 1.0 1.0 1.0
000280 00 00 80 3f 00 00 80 3f 00 00 80 3f 00 00 80 3f
       1.0 1.0 1.0 1.0
000290 00 00 80 3f 00 00 80 3f 00 00 80 3f 00 00 80 3f
       1.0 1.0 1.0 1.0
0002a0 00 00 80 3f 00 00 80 3f 00 00 80 3f 00 00 80 3f
       1.0 1.0 1.0 1.0
0002b0 00 00 80 3f 00 00 80 3f 00 00 80 3f
       1.0 1.0 1.0

weight f4 [2, 175]
000000 04 7c 2f 40 5a 41 d2 3f ed a3 78 3f 2c 13 4e 40
       2.7419443 1.6426194 0.9712513 3.2199202
000010 88 1f d7 3f c4 a8 09 40 e6 72 dc 3f 28 af 7a 40
       1.6806498 2.1509256 1.7222564 3.9169407
000020 37 0a 55 3f 53 74 42 40 37 d4 29 3f 68 c1 65 3f
       0.8321871 3.0383499 0.6633944 0.8974824
000030 1f 09 ab 3e ff 67 fc 3e d8 db fc 3d 06 8f 8a 3f
       0.33405396 0.49298093 0.12346619 1.0824897
000040 ca ab d2 3e 63 88 97 3f 77 44 84 3e 78 05 1c 40
       0.4114669 1.1838497 0.25833485 2.4378338
000050 f4 8c ce 3f 54 66 ed 3f bc e3 dd 3f 1f 6e 5e 3f
       1.6136765 1.8546853 1.7335124 0.8688678
000060 a4 83 92 40 58 d6 84 40 49 5e 3d bf 19 cd d7 3f
       4.5785694 4.151165 -0.7397199 1.6859466
000070 44 44 68 3f 9d a7 4d 40 03 ab 1c 40 0c aa 00 bf
       0.90729165 3.2133553 2.4479377 -0.5025947
000080 fe a8 f3 3e af e4 a7 3f cc e7 fb 3f 44 6c 3b 40
       0.47589868 1.3116664 1.9680114 2.928483
000090 19 0d 12 40 2d 90 39 3f 69 89 43 3f 7c 16 6d 3f
       2.2820494 0.7248562 0.76381546 0.92612433
0000a0 b4 68 fd 3f 29 93 2d 40 d8 d9 84 3f b7 24 1c bf
       1.9797578 2.712107 1.0378981 -0.6099352
0000b0 18 2f 5f 3f 2a b2 c2 3d d5 7f 5d 3f f1 dc 2e 3f
       0.87181234 0.09506638 0.8652318 0.6830588
0000c0 1a 18 2d 3e bd 3f a7 3f 56 d7 2f 3f c6 4b 9a 3e
       0.16903725 1.3066326 0.6868795 0.30135936
0000d0 1a 9b 4d 3f 0d cb ff 3f d9 41 79 3f 63 bd 1e bf
       0.8031479 1.9983841 0.973661 -0.6200773
0000e0 1f 5e b1 3f 39 3f dd be 47 3c 9c 3f 0c 6e cc 3e
       1.3856848 -0.43212298 1.2205895 0.3992771
0000f0 53 4f c1 3f 8c 47 5d 3f cd 81 bd 3f 46 44 0c 40
       1.5102333 0.86437297 1.4805237 2.191667
000100 72 5b 17 3f 64 c0 3c 3f ae 9b 43 3f f4 bc ea be
       0.5912391 0.73731065 0.76409423 -0.45847285
000110 da dd 44 3f 5b 65 c8 3f a1 55 45 3f 95 41 b7 3f
       0.7690102 1.5655931 0.77083784 1.4316889
000120 90 c5 db 3f a4 4d c2 be 99 4d 7f 3f 30 8e cb 3d
       1.7169666 -0.3794986 0.9972778 0.099392295
000130 05 db 84 3e db 82 ac 3f 69 e4 45 be e1 ba a1 3f
       0.2594835 1.3477434 -0.19325413 1.2635156
000140 e4 cd ce 3f e9 6b cc 3f 9d 4a f0 3d 6e 33 d7 3f
       1.6156583 1.5970432 0.11732981 1.681257
000150 31 ec ad 3c dc 12 a5 3f a4 2c 32 40 21 53 66 40
       0.021230789 1.289638 2.7839746 3.5988238
000160 12 f0 d7 3e ac 21 cb 3f 59 36 0e 40 c0 dd ce 3f
       0.42175347 1.5869651 2.222067 1.6161423
000170 f4 e6 aa 3f 86 b9 0e 40 87 76 c3 3f 6e e5 77 3f
       1.3351731 2.2300735 1.5270547 0.96834457
000180 dc 93 d7 3f 10 dd 85 3f 9e 5c f9 3f 51 21 02 3f
       1.6841998 1.0458088 1.948139 0.50832087
000190 c1 7f 3a 3f fb b5 fa bd a1 1a af 3f cd 74 b9 3f
       0.72851187 -0.12241741 1.3680001 1.448877
0001a0 96 91 1b 3f 3e 94 c1 3f 0b 85 d9 bc ee de ca 3f
       0.6076902 1.5123365 -0.026552698 1.5849283
0001b0 9b c1 2e 3f e1 50 2b 40 3e f1 38 3f c4 0e 08 40
       0.6826417 2.6768115 0.72243106 2.1259012
0001c0 4b e9 54 3f 42 ef 9f 3f 7b f1 b6 3e d0 1a d0 3f
       0.83168477 1.2494891 0.3573111 1.6258183
0001d0 f1 e7 9a 3e da c2 99 3f 33 82 0d 40 bd 09 c6 3f
       0.30255082 1.2012589 2.2110717 1.5471722
0001e0 aa 5f 43 40 ef 17 cb 3f bb 7f 3a 3f 2e e2 07 40
       3.0527139 1.5866679 0.7285115 2.12318
0001f0 2e bc 4d 40 c3 08 b3 3f c9 d6 ed 3e 2c 0d 8e 3f
       3.2146106 1.3987049 0.4645293 1.109777
000200 a0 0d b6 3d a4 ae 13 3f 2f 34 36 bd 8a d0 5f 3f
       0.088893175 0.57688355 -0.04448336 0.8742758
000210 49 8c 62 3e 91 45 ba 3f 6f 21 21 3f 81 7f 73 3f
       0.22123827 1.455248 0.6294164 0.9511643
000220 fe f0 a9 3f 7e f8 8c 3f ff da e8 3f b6 4d 43 3f
       1.327667 1.1013334 1.8191832 0.7629045
000230 31 f1 64 3f 3f 7e 6b 3f 3e b8 03 40 ab 05 f5 3f
       0.8943053 0.9198951 2.0581203 1.9142355
000240 61 e7 40 3f 24 a4 36 3d c9 37 a7 3f 08 54 63 3e
       0.75353056 0.04459013 1.3063899 0.22200024
000250 21 95 fe 3f dd c0 9f 3e 22 2b 3f 3b 2c 25 25 3f
       1.988926 0.3120183 0.0029169996 0.64509845
000260 38 e3 ce 3f 82 75 41 3f 30 ef 17 40 81 25 c0 3f
       1.6163092 0.7556993 2.3739738 1.5011445
000270 a6 96 3b 3f f2 94 12 40 a0 8c e8 3d a9 15 17 3f
       0.73276746 2.290341 0.11354947 0.59017426
000280 76 13 fc 3f 87 89 c0 3f 26 0f 17 40 46 0d 76 3e
       1.9693439 1.504197 2.3602996 0.24028501
000290 04 d6 be 3f c2 24 e6 3f 1f 9b ce 3e b2 eb c4 3f
       1.4909062 1.7979968 0.40352723 1.5384429
0002a0 b9 b4 b2 3e 7b d1 fe 3f 78 12 8b 3f 6b c4 c8 3f
       0.34903505 1.9907678 1.0865011 1.5684942
0002b0 df eb d4 3f 53 e0 67 be b8 ef 62 3f 6c 40 3d 3f
       1.6634482 -0.22644167 0.8864703 0.73926425
0002c0 55 fb f8 3f ba f2 4b 3f 99 71 26 40 8e 94 7c 3e
       1.94517 0.79667246 2.6006835 0.24666044
0002d0 a2 ea 0c 40 87 f9 9a 3f 83 e9 2f 40 17 a5 b1 3d
       2.2018209 1.21074 2.7486274 0.086740665
0002e0 70 6d d1 3f 4e 15 92 3f 86 f7 43 3f 04 f1 b5 3f
       1.6361523 1.1412752 0.76549566 1.4214177
0002f0 d9 76 c9 bc 48 e2 73 be 8c 4b 35 3f 39 67 0b be
       -0.024592804 -0.23816788 0.708184 -0.13613595
000300 e6 de 8f 3f 6c d9 09 be 5d 70 0a 40 6d f8 a6 3f
       1.1239898 -0.13461846 2.163108 1.3044564
000310 ef 93 0e 40 83 fd c8 3f cf 73 36 3f 6b 8c 8a 3f
       2.2277792 1.5702366 0.7127046 1.0824102
000320 d6 aa 38 40 ca f6 34 bf 75 74 29 40 e8 ee f8 3f
       2.885427 -0.7068907 2.647733 1.9447908
000330 4f 8f 61 40 5e 97 cd 3f cc 36 f2 be 62 66 10 3f
       3.5243719 1.6061819 -0.47307432 0.56406224
000340 dd 7a e6 3e 74 74 b4 3f c1 80 1a 40 86 1c 0d 40
       0.45015612 1.4098039 2.4141085 2.204866
000350 6f 15 5f 3f 1b e9 8f 3d b1 85 88 3f 94 1b ee 3e
       0.8714208 0.07026883 1.0665799 0.46505415
000360 7d 7c 07 40 99 cf 67 3e c5 7f 63 3e 5d 46 36 3e
       2.1169732 0.22637786 0.22216709 0.17800279
000370 a3 0c 9d 3f 19 f2 68 3f 4b c5 ba 3e f1 a2 20 be
       1.2269481 0.9099441 0.36478648 -0.15687157
000380 ae 44 0b bc 28 27 90 bf 6f b8 a0 bf 43 9d ee 3d
       -0.008500261 -1.126195 -1.2556285 0.11651089
000390 f0 d8 af 3f 9c ba 36 3f 6a 3d 14 3f 33 bd a6 3f
       1.3738079 0.71378493 0.5790621 1.3026489
0003a0 db 67 07 bf bd 46 2a 3f ee 71 a2 bf b7 6d 90 3f
       -0.52892846 0.6651419 -1.2691019 1.1283482
0003b0 3d 3f 4b 3f 2c 91 47 3f 58 3a 49 40 c8 54 74 3f
       0.7939337 0.7795589 3.144186 0.95441866
0003c0 c7 3a 32 3f 2f 90 93 3f 07 97 7f bc 5f 67 43 3f
       0.6962094 1.1528376 -0.015599973 0.76329607
0003d0 e6 55 9a 3f 7d b4 7b 3f ad c4 a2 3f 38 83 c7 3f
       1.2057464 0.9832228 1.2716271 1.558692
0003e0 0e 26 34 bd 4d 81 6c 3f cd ed 66 3e 4f bb c9 3e
       -0.043981604 0.923848 0.22551651 0.39400718
0003f0 d1 f8 a3 3f 2b 7d b2 be 22 ed f6 3e c6 18 ad 3f
       1.2810308 -0.3486112 0.48227793 1.3523185

bias f4 [175]
000000 00 00 00 00 00 00 00 00 00 00 00 00 00 00 00 00
       0.0 0.0 0.0 0.0
000010 00 00 00 00 00 00 00 00 00 00 00 00 00 00 00 00
       0.0 0.0 0.0 0.0
000020 00 00 00 00 00 00 00 00 00 00 00 00 00 00 00 00
       0.0 0.0 0.0 0.0
000030 00 00 00 00 00 00 00 00 00 00 00 00 00 00 00 00
       0.0 0.0 0.0 0.0
000040 00 00 00 00 00 00 00 00 00 00 00 00 00 00 00 00
       0.0 0.0 0.0 0.0
000050 00 00 00 00 00 00 00 00 00 00 00 00 00 00 00 00
       0.0 0.0 0.0 0.0
000060 00 00 00 00 00 00 00 00 00 00 00 00 00 00 00 00
       0.0 0.0 0.0 0.0
000070 00 00 00 00 00 00 00 00 00 00 00 00 00 00 00 00
       0.0 0.0 0.0 0.0
000080 00 00 00 00 00 00 00 00 00 00 00 00 00 00 00 00
       0.0 0.0 0.0 0.0
000090 00 00 00 00 00 00 00 00 00 00 00 00 00 00 00 00
       0.0 0.0 0.0 0.0
0000a0 00 00 00 00 00 00 00 00 00 00 00 00 00 00 00 00
       0.0 0.0 0.0 0.0
0000b0 00 00 00 00 00 00 00 00 00 00 00 00 00 00 00 00
       0.0 0.0 0.0 0.0
0000c0 00 00 00 00 00 00 00 00 00 00 00 00 00 00 00 00
       0.0 0.0 0.0 0.0
0000d0 00 00 00 00 00 00 00 00 00 00 00 00 00 00 00 00
       0.0 0.0 0.0 0.0
0000e0 00 00 00 00 00 00 00 00 00 00 00 00 00 00 00 00
       0.0 0.0 0.0 0.0
0000f0 00 00 00 00 00 00 00 00 00 00 00 00 00 00 00 00
       0.0 0.0 0.0 0.0
000100 00 00 00 00 00 00 00 00 00 00 00 00 00 00 00 00
       0.0 0.0 0.0 0.0
000110 00 00 00 00 00 00 00 00 00 00 00 00 00 00 00 00
       0.0 0.0 0.0 0.0
000120 00 00 00 00 00 00 00 00 00 00 00 00 00 00 00 00
       0.0 0.0 0.0 0.0
000130 00 00 00 00 00 00 00 00 00 00 00 00 00 00 00 00
       0.0 0.0 0.0 0.0
000140 00 00 00 00 00 00 00 00 00 00 00 00 00 00 00 00
       0.0 0.0 0.0 0.0
000150 00 00 00 00 00 00 00 00 00 00 00 00 00 00 00 00
       0.0 0.0 0.0 0.0
000160 00 00 00 00 00 00 00 00 00 00 00 00 00 00 00 00
       0.0 0.0 0.0 0.0
000170 00 00 00 00 00 00 00 00 00 00 00 00 00 00 00 00
       0.0 0.0 0.0 0.0
000180 00 00 00 00 00 00 00 00 00 00 00 00 00 00 00 00
       0.0 0.0 0.0 0.0
000190 00 00 00 00 00 00 00 00 00 00 00 00 00 00 00 00
       0.0 0.0 0.0 0.0
0001a0 00 00 00 00 00 00 00 00 00 00 00 00 00 00 00 00
       0.0 0.0 0.0 0.0
0001b0 00 00 00 00 00 00 00 00 00 00 00 00 00 00 00 00
       0.0 0.0 0.0 0.0
0001c0 00 00 00 00 00 00 00 00 00 00 00 00 00 00 00 00
       0.0 0.0 0.0 0.0
0001d0 00 00 00 00 00 00 00 00 00 00 00 00 00 00 00 00
       0.0 0.0 0.0 0.0
0001e0 00 00 00 00 00 00 00 00 00 00 00 00 00 00 00 00
       0.0 0.0 0.0 0.0
0001f0 00 00 00 00 00 00 00 00 00 00 00 00 00 00 00 00
       0.0 0.0 0.0 0.0
000200 00 00 00 00 00 00 00 00 00 00 00 00 00 00 00 00
       0.0 0.0 0.0 0.0
000210 00 00 00 00 00 00 00 00 00 00 00 00 00 00 00 00
       0.0 0.0 0.0 0.0
000220 00 00 00 00 00 00 00 00 00 00 00 00 00 00 00 00
       0.0 0.0 0.0 0.0
000230 00 00 00 00 00 00 00 00 00 00 00 00 00 00 00 00
       0.0 0.0 0.0 0.0
000240 00 00 00 00 00 00 00 00 00 00 00 00 00 00 00 00
       0.0 0.0 0.0 0.0
000250 00 00 00 00 00 00 00 00 00 00 00 00 00 00 00 00
       0.0 0.0 0.0 0.0
000260 00 00 00 00 00 00 00 00 00 00 00 00 00 00 00 00
       0.0 0.0 0.0 0.0
000270 00 00 00 00 00 00 00 00 00 00 00 00 00 00 00 00
       0.0 0.0 0.0 0.0
000280 00 00 00 00 00 00 00 00 00 00 00 00 00 00 00 00
       0.0 0.0 0.0 0.0
000290 00 00 00 00 00 00 00 00 00 00 00 00 00 00 00 00
       0.0 0.0 0.0 0.0
0002a0 00 00 00 00 00 00 00 00 00 00 00 00 00 00 00 00
       0.0 0.0 0.0 0.0
0002b0 00 00 00 00 00 00 00 00 00 00 00 00
       0.0 0.0 0.0

_ei_mask f4 [175]
000000 00 00 80 3f 00 00 80 3f 00 00 80 3f 00 00 80 3f
       1.0 1.0 1.0 1.0
000010 00 00 80 3f 00 00 80 3f 00 00 80 3f 00 00 80 3f
       1.0 1.0 1.0 1.0
000020 00 00 80 3f 00 00 80 3f 00 00 80 3f 00 00 80 3f
       1.0 1.0 1.0 1.0
000030 00 00 80 3f 00 00 80 3f 00 00 80 3f 00 00 80 3f
       1.0 1.0 1.0 1.0
000040 00 00 80 3f 00 00 80 3f 00 00 80 3f 00 00 80 3f
       1.0 1.0 1.0 1.0
000050 00 00 80 3f 00 00 80 3f 00 00 80 3f 00 00 80 3f
       1.0 1.0 1.0 1.0
000060 00 00 80 3f 00 00 80 3f 00 00 80 3f 00 00 80 3f
       1.0 1.0 1.0 1.0
000070 00 00 80 3f 00 00 80 3f 00 00 80 3f 00 00 80 3f
       1.0 1.0 1.0 1.0
000080 00 00 80 3f 00 00 80 3f 00 00 80 3f 00 00 80 3f
       1.0 1.0 1.0 1.0
000090 00 00 80 3f 00 00 80 3f 00 00 80 3f 00 00 80 3f
       1.0 1.0 1.0 1.0
0000a0 00 00 80 3f 00 00 80 3f 00 00 80 3f 00 00 80 3f
       1.0 1.0 1.0 1.0
0000b0 00 00 80 3f 00 00 80 3f 00 00 80 3f 00 00 80 3f
       1.0 1.0 1.0 1.0
0000c0 00 00 80 3f 00 00 80 3f 00 00 80 3f 00 00 80 3f
       1.0 1.0 1.0 1.0
0000d0 00 00 80 3f 00 00 80 3f 00 00 80 3f 00 00 80 3f
       1.0 1.0 1.0 1.0
0000e0 00 00 80 3f 00 00 80 3f 00 00 80 3f 00 00 80 3f
       1.0 1.0 1.0 1.0
0000f0 00 00 80 3f 00 00 80 3f 00 00 80 3f 00 00 80 3f
       1.0 1.0 1.0 1.0
000100 00 00 80 3f 00 00 80 3f 00 00 80 3f 00 00 80 3f
       1.0 1.0 1.0 1.0
000110 00 00 80 3f 00 00 80 3f 00 00 80 3f 00 00 80 3f
       1.0 1.0 1.0 1.0
000120 00 00 80 3f 00 00 80 3f 00 00 80 3f 00 00 80 3f
       1.0 1.0 1.0 1.0
000130 00 00 80 3f 00 00 80 3f 00 00 80 3f 00 00 80 3f
       1.0 1.0 1.0 1.0
000140 00 00 80 3f 00 00 80 3f 00 00 80 3f 00 00 80 3f
       1.0 1.0 1.0 1.0
000150 00 00 80 3f 00 00 80 3f 00 00 80 3f 00 00 80 3f
       1.0 1.0 1.0 1.0
000160 00 00 80 3f 00 00 80 3f 00 00 80 3f 00 00 80 3f
       1.0 1.0 1.0 1.0
000170 00 00 80 3f 00 00 80 3f 00 00 80 3f 00 00 80 3f
       1.0 1.0 1.0 1.0
000180 00 00 80 3f 00 00 80 3f 00 00 80 3f 00 00 80 3f
       1.0 1.0 1.0 1.0
000190 00 00 80 3f 00 00 80 3f 00 00 80 3f 00 00 80 3f
       1.0 1.0 1.0 1.0
0001a0 00 00 80 3f 00 00 80 3f 00 00 80 3f 00 00 80 3f
       1.0 1.0 1.0 1.0
0001b0 00 00 80 3f 00 00 80 3f 00 00 80 3f 00 00 80 3f
       1.0 1.0 1.0 1.0
0001c0 00 00 80 3f 00 00 80 3f 00 00 80 3f 00 00 80 3f
       1.0 1.0 1.0 1.0
0001d0 00 00 80 3f 00 00 80 3f 00 00 80 3f 00 00 80 3f
       1.0 1.0 1.0 1.0
0001e0 00 00 80 3f 00 00 80 3f 00 00 80 3f 00 00 80 3f
       1.0 1.0 1.0 1.0
0001f0 00 00 80 3f 00 00 80 3f 00 00 80 3f 00 00 80 3f
       1.0 1.0 1.0 1.0
000200 00 00 80 3f 00 00 80 3f 00 00 80 3f 00 00 80 3f
       1.0 1.0 1.0 1.0
000210 00 00 80 3f 00 00 80 3f 00 00 80 3f 00 00 80 3f
       1.0 1.0 1.0 1.0
000220 00 00 80 3f 00 00 80 3f 00 00 80 3f 00 00 80 3f
       1.0 1.0 1.0 1.0
000230 00 00 80 3f 00 00 80 3f 00 00 80 3f 00 00 80 3f
       1.0 1.0 1.0 1.0
000240 00 00 80 3f 00 00 80 3f 00 00 80 3f 00 00 80 3f
       1.0 1.0 1.0 1.0
000250 00 00 80 3f 00 00 80 3f 00 00 80 3f 00 00 80 3f
       1.0 1.0 1.0 1.0
000260 00 00 80 3f 00 00 80 3f 00 00 80 3f 00 00 80 3f
       1.0 1.0 1.0 1.0
000270 00 00 80 3f 00 00 80 3f 00 00 80 3f 00 00 80 3f
       1.0 1.0 1.0 1.0
000280 00 00 80 3f 00 00 80 3f 00 00 80 3f 00 00 80 3f
       1.0 1.0 1.0 1.0
000290 00 00 80 3f 00 00 80 3f 00 00 80 3f 00 00 80 3f
       1.0 1.0 1.0 1.0
0002a0 00 00 80 3f 00 00 80 3f 00 00 80 3f 00 00 80 3f
       1.0 1.0 1.0 1.0
0002b0 00 00 80 3f 00 00 80 3f 00 00 80 3f
       1.0 1.0 1.0

weight f4 [403, 3]
000000 80 0e 88 bf 80 0e 88 bf e9 a6 a4 be 7f d5 a7 bf
       -1.0629425 -1.0629425 -0.32158592 -1.3112029
000010 7f d5 a7 bf 65 f2 1e bf cc 19 72 bf cc 19 72 bf
       -1.3112029 -0.62088615 -0.9457061 -0.9457061
000020 da 15 0e bf 78 de 4f bf 78 de 4f bf 7f 09 08 bf
       -0.5550209 -0.81198835 -0.81198835 -0.5313949
000030 50 dd 26 bf 50 dd 26 bf bd 06 09 bf aa 85 33 bf
       -0.65181446 -0.65181446 -0.53525907 -0.7012583
000040 aa 85 33 bf 8b d3 39 bf 4c f3 65 bf 4c f3 65 bf
       -0.7012583 -0.72588414 -0.89824367 -0.89824367
000050 32 13 54 bf 6c 2f 3e bf 6c 2f 3e bf 22 88 77 bf
       -0.8284179 -0.7429111 -0.7429111 -0.966921
000060 1b 1a a8 bf 1b 1a a8 bf 86 2f 86 bf 50 bf a7 bf
       -1.3132967 -1.3132967 -1.0483253 -1.3105259
000070 50 bf a7 bf 06 7b 6d bf 24 54 36 bf 24 54 36 bf
       -1.3105259 -0.92765844 -0.7122214 -0.7122214
000080 1d 0f 04 bf a9 3b 40 bf a9 3b 40 bf d1 aa 16 3f
       -0.5158556 -0.75091034 -0.75091034 0.58854395
000090 fd 9a d4 be fd 9a d4 be 52 89 d0 3d 81 5c 88 be
       -0.41524497 -0.41524497 0.10182442 -0.26633075
0000a0 81 5c 88 be ca a5 a9 3e bc 59 5d bf bc 59 5d bf
       -0.26633075 0.331343 -0.8646505 -0.8646505
0000b0 43 e9 a6 be c5 1b 95 bf c5 1b 95 bf 76 26 23 be
       -0.3259984 -1.16491 -1.16491 -0.1593264
0000c0 b6 7a 23 bf b6 7a 23 bf ea 53 4f 3e 36 f5 61 be
       -0.6385912 -0.6385912 0.20246854 -0.22066197
0000d0 36 f5 61 be be 98 f8 3d 06 95 9e bf 06 95 9e bf
       -0.22066197 0.12138508 -1.2389228 -1.2389228
0000e0 e9 8f 54 be 87 12 ea bf 87 12 ea bf e3 23 bd bb
       -0.20758022 -1.8286904 -1.8286904 -0.0057721003
0000f0 d1 ff b4 bf d1 ff b4 bf c3 27 ed 3b 08 9c 7f bf
       -1.4140569 -1.4140569 0.007237406 -0.9984746
000100 08 9c 7f bf 94 e1 10 bf 75 dc 59 bf 75 dc 59 bf
       -0.9984746 -0.56594205 -0.85102016 -0.85102016
000110 fe 41 ab be 6a 79 3b bf 6a 79 3b bf 30 16 42 bf
       -0.33448786 -0.7323214 -0.7323214 -0.75815105
000120 68 fe 34 bf 68 fe 34 bf 05 21 42 bf 61 8a 06 bf
       -0.70700693 -0.70700693 -0.75831634 -0.525549
000130 61 8a 06 bf de 29 1a bf 7e db ad bd 7e db ad bd
       -0.525549 -0.60220134 -0.084891304 -0.084891304
000140 50 23 0a bf 87 a9 ef be 87 a9 ef be bf 46 1e bf
       -0.5396013 -0.46809027 -0.46809027 -0.618267
000150 d6 2c e5 be d6 2c e5 be 20 15 d9 be 25 c2 d0 be
       -0.4476077 -0.4476077 -0.4239893 -0.4077312
000160 25 c2 d0 be ef b6 cf be 33 1e 11 be 33 1e 11 be
       -0.4077312 -0.40569255 -0.14171676 -0.14171676
000170 3e 3d 10 bf 84 06 02 be 84 06 02 be 75 51 17 bf
       -0.5634345 -0.12697798 -0.12697798 -0.5910867
000180 c6 bb b7 be c6 bb b7 be d3 aa 9a 3f 4a 0d 5e 3f
       -0.35885447 -0.35885447 1.2083381 0.8673903
000190 4a 0d 5e 3f 52 30 8a 3f 99 ea 9e 3f 99 ea 9e 3f
       0.8673903 1.0795996 1.2415344 1.2415344
0001a0 af 2c 8a 3f ff c3 b4 3f ff c3 b4 3f 9b 87 bd 3f
       1.0794886 1.4122313 1.4122313 1.4807009
0001b0 a9 d2 ad 3f a9 d2 ad 3f e9 77 9d 3f 3a a0 bc 3f
       1.3579913 1.3579913 1.2302219 1.4736397
0001c0 3a a0 bc 3f 4d c7 93 3f c4 22 ac 3f c4 22 ac 3f
       1.4736397 1.1545197 1.344811 1.344811
0001d0 21 44 8f 3f 08 a6 a0 3f 08 a6 a0 3f 7e f2 70 3f
       1.1192666 1.2550669 1.2550669 0.94120014
0001e0 0e c5 a2 3f 0e c5 a2 3f 99 a3 85 3f 46 81 bf 3f
       1.2716386 1.2716386 1.0440551 1.4961326
0001f0 46 81 bf 3f f4 43 9f 3f 84 96 b2 3f 84 96 b2 3f
       1.4961326 1.2442613 1.3952184 1.3952184
000200 a9 e8 83 3f 22 c8 b3 3f 22 c8 b3 3f 7e bd 9c 3f
       1.0305377 1.4045451 1.4045451 1.2245328
000210 60 9b d1 3f 60 9b d1 3f a9 b1 94 3f 6a 58 ad 3f
       1.6375542 1.6375542 1.1616718 1.3542607
000220 6a 58 ad 3f 70 c4 a0 3f 0f bf a2 3f 0f bf a2 3f
       1.3542607 1.2559948 1.2714556 1.2714556
000230 04 6b 84 3f da 5a 88 3f da 5a 88 3f c0 fd 84 3f
       1.0345159 1.0652726 1.0652726 1.0389938
000240 62 95 a1 3f 62 95 a1 3f cc ad 49 3f 1a 56 46 3f
       1.2623713 1.2623713 0.7878082 0.7747513
000250 1a 56 46 3f 42 0b 81 3e 91 38 b9 be 91 38 b9 be
       0.7747513 0.25203902 -0.3617597 -0.3617597
000260 a6 96 ec bd cf 86 ad be cf 86 ad be 5e 18 5a 3b
       -0.115521714 -0.33891913 -0.33891913 0.0033278684
000270 f9 51 36 bd f9 51 36 bd 67 8d 62 be de ae ca be
       -0.04451177 -0.04451177 -0.22124253 -0.39586538
000280 de ae ca be dd d2 8b 3d fb f7 a5 bf fb f7 a5 bf
       -0.39586538 0.06827328 -1.2966303 -1.2966303
000290 b4 21 cc 3d c4 1a 94 be c4 1a 94 be fe b6 fb 3d
       0.09967366 -0.2892667 -0.2892667 0.12290762
0002a0 98 01 0d bf 98 01 0d bf 26 21 6a bd 09 98 fa bf
       -0.55080557 -0.55080557 -0.05716052 -1.9577647
0002b0 09 98 fa bf 3a 43 08 bf da 4e 04 c0 da 4e 04 c0
       -1.9577647 -0.5322758 -2.0673127 -2.0673127
0002c0 7c fb f2 be 7b d8 04 c0 7b d8 04 c0 34 2f 3c bf
       -0.47457492 -2.075713 -2.075713 -0.73509526
0002d0 87 aa ec bf 87 aa ec bf e1 69 71 bf 01 83 b1 bf
       -1.8489541 -1.8489541 -0.94302183 -1.3868104
0002e0 01 83 b1 bf d7 6c 8e bf d9 da e9 bf d9 da e9 bf
       -1.3868104 -1.1126965 -1.8269912 -1.8269912
0002f0 eb ed 89 bf 6a d9 d3 bf 6a d9 d3 bf 33 d0 86 bf
       -1.0775732 -1.6550725 -1.6550725 -1.0532287
000300 e0 f3 bd bf e0 f3 bd bf 70 0c 83 bf d1 58 d8 bf
       -1.484005 -1.484005 -1.0238171 -1.6902105
000310 d1 58 d8 bf fd 11 97 bf b8 43 e8 bf b8 43 e8 bf
       -1.6902105 -1.1802365 -1.8145666 -1.8145666
000320 12 23 90 bf 39 58 97 bf 39 58 97 bf f6 bf 85 bf
       -1.1260703 -1.1823798 -1.1823798 -1.0449207
000330 be 03 68 bf be 03 68 bf 26 fb 44 bf 9f d6 7f bf
       -0.9063071 -0.9063071 -0.7694572 -0.9993686
000340 9f d6 7f bf a7 78 7f bf 3c 43 8d bf 3c 43 8d bf
       -0.9993686 -0.99793476 -1.1036143 -1.1036143
000350 aa 4c 58 3e 36 79 36 bf 36 79 36 bf 16 3f 3a bd
       0.21122995 -0.71278703 -0.71278703 -0.04547032
000360 f5 ca d8 be f5 ca d8 be 57 69 b6 bd d5 b5 70 3d
       -0.42342344 -0.42342344 -0.08906811 0.05876716
000370 d5 b5 70 3d de 73 07 3f 0d 0e 24 bc 0d 0e 24 bc
       0.05876716 0.52911174 -0.010013116 -0.010013116
000380 a8 8e 12 3c c6 9b cd 3c c6 9b cd 3c 92 c1 f7 bd
       0.008945145 0.025098693 0.025098693 -0.120974675
000390 ac 23 a0 3d ac 23 a0 3d fe 70 09 3b 84 d9 b1 be
       0.07819304 0.07819304 0.002097189 -0.34736264
0003a0 84 d9 b1 be 4e 05 88 be d2 27 81 bf d2 27 81 bf
       -0.34736264 -0.26566547 -1.0090277 -1.0090277
0003b0 92 79 34 bf 28 19 39 bf 28 19 39 bf 2e e2 c3 bd
       -0.70498 -0.7230401 -0.7230401 -0.09564625
0003c0 d8 ea 53 bf d8 ea 53 bf 39 42 c5 be eb 3b 83 bf
       -0.8278022 -0.8278022 -0.38527086 -1.025266
0003d0 eb 3b 83 bf ea b3 5d bf 1c e9 5e bf 1c e9 5e bf
       -1.025266 -0.8660265 -0.87074447 -0.87074447
0003e0 6d 2c 7c bf 1a af f7 be 1a af f7 be 91 82 b0 3e
       -0.9850529 -0.4837578 -0.4837578 0.34474614
0003f0 51 65 b7 bd 51 65 b7 bd aa 7b a9 bd 67 37 93 be
       -0.089548714 -0.089548714 -0.0827554 -0.28753206

bias f4 [3]
000000 00 00 00 00 00 00 00 00 00 00 00 00
       0.0 0.0 0.0

_ei_mask f4 [3]
000000 00 00 80 3f 00 00 80 3f 00 00 80 3f
       1.0 1.0 1.0

rmat f4 [1, 1, 3]
000000 00 00 80 bf 00 00 00 40 00 00 80 bf
       -1.0 2.0 -1.0

weight f4 [3, 175]
000000 a2 eb 89 3e 17 1b 8a be 88 5d b5 3d e6 68 1b 3e
       0.26937586 -0.26973793 0.0885573 0.15176734
000010 28 9a cd 3d 53 48 81 3c 2f 98 99 be b9 49 ed bb
       0.100391686 0.015781557 -0.2999892 -0.0072414544
000020 62 30 ba 3c 0b c1 34 be 75 ab 0c be 96 10 f0 be
       0.022728149 -0.17651765 -0.1373728 -0.46887654
000030 54 b3 7d 3e 12 1a b7 bd 15 88 b4 be f1 b0 b2 be
       0.2477544 -0.089405194 -0.35260072 -0.3490062
000040 f7 23 a4 be 3c 25 4b 3e 5d 95 b5 be 2d c1 15 be
       -0.3205869 0.19838423 -0.35465518 -0.14624472
000050 24 23 37 3e b0 b7 ab 3c 32 3b 59 3d fc 4c 36 bc
       0.17884499 0.020961612 0.05303497 -0.011126753
000060 c4 bb ac 3d 21 33 5b be 45 8d a5 be 2d 4e 55 3e
       0.08434251 -0.21406223 -0.32334343 0.20830603
000070 6e 92 22 3e 13 70 ea 3d 4e 7f 3f 3e 6b 29 c8 be
       0.15876171 0.11447158 0.18700907 -0.390941
000080 c2 4d a8 bd 2a d9 0d be 00 e8 4f 3e a0 6e 16 be
       -0.08217956 -0.13852373 0.20303345 -0.14690638
000090 f2 46 ba 3e e2 25 3b be 51 12 46 be f5 ff 50 bc
       0.36382252 -0.1827617 -0.19342925 -0.012756337
0000a0 09 b3 ad bd 79 a6 10 3e eb 0b e2 3d 1c 61 ae bd
       -0.08481414 0.14126004 0.110374294 -0.08514616
0000b0 09 00 26 be 15 a3 cf bd 96 5c 3b 3e 6d 07 b2 3b
       -0.16210951 -0.10138527 0.18297037 0.005433014
0000c0 60 8f af bd 3d 43 9c bc 77 a1 92 3e 10 bc 3d 3e
       -0.085722685 -0.01907503 0.28638813 0.18528771
0000d0 91 c2 0f be ea a9 89 3e 4c b3 e4 3d 35 42 aa be
       -0.14039065 0.26887447 0.11167011 -0.33253637
0000e0 71 b2 80 3e 5b 74 16 bf fc f1 8d 3d 5f 89 23 bf
       0.2513614 -0.58771294 0.069309205 -0.63881487
0000f0 0d 56 82 3e 4d 3b b2 3d 89 95 5b 3d 8c fb 9f 3e
       0.25456277 0.08702717 0.053609405 0.31246603
000100 1d 11 92 bd c8 db 22 3d 42 8f 11 bc 24 d8 1e be
       -0.0713217 0.03976038 -0.008884253 -0.15512139
000110 94 bd 0c 3e e3 bf 5f bd 41 8f a8 bc 18 47 08 bc
       0.13744193 -0.054626357 -0.020576121 -0.008317731
000120 c2 c2 be 3c 4a 19 04 bf 11 4a 8f bc 58 7e e5 be
       0.023286227 -0.5160109 -0.017491372 -0.44822955
000130 29 3d eb be 94 69 48 3c 02 ad fb be a4 7a 7c be
       -0.459451 0.012232203 -0.49155432 -0.24656159
000140 4d f8 b0 bd 99 14 7e be 67 55 02 bf 80 e3 47 be
       -0.086411096 -0.24812545 -0.50911564 -0.19520378
000150 74 12 c5 be 73 15 a2 3b 3c 4c 39 be 4a a5 b1 bd
       -0.3849064 0.0049464046 -0.18095487 -0.086741045
000160 5d 76 f2 3d 43 07 b0 3d 35 a0 44 3d 5d a8 90 bc
       0.11838982 0.08595135 0.048004348 -0.017658407
000170 9f 6d 14 3b 02 75 12 3e 1f d0 88 3d 71 29 8d 3d
       0.0022648347 0.14302447 0.06680321 0.0689267
000180 1d a1 32 be d6 d7 fc 3d 2d 3f 10 3d bd cc 0b bd
       -0.17444272 0.12345855 0.0352165 -0.0341308
000190 05 8c 08 be 29 90 3f be 29 cc fe bc ea 17 a7 3d
       -0.13334663 -0.18707336 -0.03110321 0.08158858
0001a0 bf be 86 3d e1 f4 11 3e f5 70 a1 be 3d 5c d9 bd
       0.06579351 0.1425357 -0.31531492 -0.10613296
0001b0 26 2d 8f 3d da 93 95 3d c5 af 52 be 20 92 dc 3d
       0.06991033 0.07303591 -0.20574863 0.10770059
0001c0 34 b0 12 bc c1 19 82 be 18 59 c7 bd 40 f9 f8 bd
       -0.008953143 -0.25410274 -0.0973379 -0.12156916
0001d0 a0 37 34 be c6 eb 90 bb 05 e8 2e 3d c1 48 94 bd
       -0.17599344 -0.0044226376 0.04270174 -0.07240439
0001e0 54 75 86 3c 63 f8 44 bd 61 b2 f4 bd 58 42 1c bd
       0.016413368 -0.048088443 -0.119480856 -0.038149208
0001f0 05 4a 1a 3d 48 f7 13 3d fe b1 14 3c b1 a8 80 3d
       0.037668247 0.036124498 0.00907564 0.06282175
000200 fb 3f c5 bd b8 db 83 bd 2e 3e c1 bd 32 d1 2f 3d
       -0.09631344 -0.064383924 -0.09435688 0.042924114
000210 48 75 bf bd 15 64 a4 bd 8e bb 74 3d 00 be 71 3d
       -0.093485415 -0.08026902 0.05974918 0.05901909
000220 db 80 ee 3c f4 df cf bb c7 2e bf 3d dc 1b 7e bd
       0.029114177 -0.006343836 0.09335094 -0.062038288
000230 93 91 2b bd 26 59 21 3d 7e ad f9 3c 6b 56 ee 3d
       -0.041886877 0.03939166 0.030478235 0.11637577
000240 cd 1b 8a 3d 6c eb 28 be e7 2a 08 3e 66 18 78 3d
       0.06743584 -0.16496056 0.13297616 0.060570143
000250 5f 31 b8 3e db fa d1 3c 98 af 44 bd bf 54 56 3d
       0.35975167 0.025632313 -0.04801902 0.052326914
000260 2d 84 4a bc 1d 2a d6 3d 3a 83 52 be 67 17 6e be
       -0.012360615 0.10457251 -0.20557871 -0.23251115
000270 55 17 07 be e3 ac 88 be 7e 96 73 be 4e 73 8c 3e
       -0.13192494 -0.26694402 -0.23787877 0.2743172
000280 e6 e4 1f 3e af 24 24 3e 5d e5 6c 3e 12 8d 32 be
       0.15614662 0.16029619 0.2313437 -0.17436627
000290 70 a6 02 bb 24 60 22 be 20 c7 73 3e 11 0c c7 bc
       -0.001993563 -0.15856987 0.23806429 -0.024297746
0002a0 b6 80 5e 3e b9 fb e6 bc 36 4c 18 bd 70 11 3e 3c
       0.21728787 -0.028196203 -0.037182055 0.011600837
0002b0 c0 e5 81 3c 5e 0e 00 bc ff 7c 98 3d a2 eb 89 3e
       0.015856624 -0.007815925 0.07445716 0.26937586
0002c0 17 1b 8a be 88 5d b5 3d e6 68 1b 3e 28 9a cd 3d
       -0.26973793 0.0885573 0.15176734 0.100391686
0002d0 53 48 81 3c 2f 98 99 be b9 49 ed bb 62 30 ba 3c
       0.015781557 -0.2999892 -0.0072414544 0.022728149
0002e0 0b c1 34 be 75 ab 0c be 96 10 f0 be 54 b3 7d 3e
       -0.17651765 -0.1373728 -0.46887654 0.2477544
0002f0 12 1a b7 bd 15 88 b4 be f1 b0 b2 be f7 23 a4 be
       -0.089405194 -0.35260072 -0.3490062 -0.3205869
000300 3c 25 4b 3e 5d 95 b5 be 2d c1 15 be 24 23 37 3e
       0.19838423 -0.35465518 -0.14624472 0.17884499
000310 b0 b7 ab 3c 32 3b 59 3d fc 4c 36 bc c4 bb ac 3d
       0.020961612 0.05303497 -0.011126753 0.08434251
000320 21 33 5b be 45 8d a5 be 2d 4e 55 3e 6e 92 22 3e
       -0.21406223 -0.32334343 0.20830603 0.15876171
000330 13 70 ea 3d 4e 7f 3f 3e 6b 29 c8 be c2 4d a8 bd
       0.11447158 0.18700907 -0.390941 -0.08217956
000340 2a d9 0d be 00 e8 4f 3e a0 6e 16 be f2 46 ba 3e
       -0.13852373 0.20303345 -0.14690638 0.36382252
000350 e2 25 3b be 51 12 46 be f5 ff 50 bc 09 b3 ad bd
       -0.1827617 -0.19342925 -0.012756337 -0.08481414
000360 79 a6 10 3e eb 0b e2 3d 1c 61 ae bd 09 00 26 be
       0.14126004 0.110374294 -0.08514616 -0.16210951
000370 15 a3 cf bd 96 5c 3b 3e 6d 07 b2 3b 60 8f af bd
       -0.10138527 0.18297037 0.005433014 -0.085722685
000380 3d 43 9c bc 77 a1 92 3e 10 bc 3d 3e 91 c2 0f be
       -0.01907503 0.28638813 0.18528771 -0.14039065
000390 ea a9 89 3e 4c b3 e4 3d 35 42 aa be 71 b2 80 3e
       0.26887447 0.11167011 -0.33253637 0.2513614
0003a0 5b 74 16 bf fc f1 8d 3d 5f 89 23 bf 0d 56 82 3e
       -0.58771294 0.069309205 -0.63881487 0.25456277
0003b0 4d 3b b2 3d 89 95 5b 3d 8c fb 9f 3e 1d 11 92 bd
       0.08702717 0.053609405 0.31246603 -0.0713217
0003c0 c8 db 22 3d 42 8f 11 bc 24 d8 1e be 94 bd 0c 3e
       0.03976038 -0.008884253 -0.15512139 0.13744193
0003d0 e3 bf 5f bd 41 8f a8 bc 18 47 08 bc c2 c2 be 3c
       -0.054626357 -0.020576121 -0.008317731 0.023286227
0003e0 4a 19 04 bf 11 4a 8f bc 58 7e e5 be 29 3d eb be
       -0.5160109 -0.017491372 -0.44822955 -0.459451
0003f0 94 69 48 3c 02 ad fb be a4 7a 7c be 4d f8 b0 bd
       0.012232203 -0.49155432 -0.24656159 -0.086411096

bias f4 [175]
000000 00 00 00 00 00 00 00 00 00 00 00 00 00 00 00 00
       0.0 0.0 0.0 0.0
000010 00 00 00 00 00 00 00 00 00 00 00 00 00 00 00 00
       0.0 0.0 0.0 0.0
000020 00 00 00 00 00 00 00 00 00 00 00 00 00 00 00 00
       0.0 0.0 0.0 0.0
000030 00 00 00 00 00 00 00 00 00 00 00 00 00 00 00 00
       0.0 0.0 0.0 0.0
000040 00 00 00 00 00 00 00 00 00 00 00 00 00 00 00 00
       0.0 0.0 0.0 0.0
000050 00 00 00 00 00 00 00 00 00 00 00 00 00 00 00 00
       0.0 0.0 0.0 0.0
000060 00 00 00 00 00 00 00 00 00 00 00 00 00 00 00 00
       0.0 0.0 0.0 0.0
000070 00 00 00 00 00 00 00 00 00 00 00 00 00 00 00 00
       0.0 0.0 0.0 0.0
000080 00 00 00 00 00 00 00 00 00 00 00 00 00 00 00 00
       0.0 0.0 0.0 0.0
000090 00 00 00 00 00 00 00 00 00 00 00 00 00 00 00 00
       0.0 0.0 0.0 0.0
0000a0 00 00 00 00 00 00 00 00 00 00 00 00 00 00 00 00
       0.0 0.0 0.0 0.0
0000b0 00 00 00 00 00 00 00 00 00 00 00 00 00 00 00 00
       0.0 0.0 0.0 0.0
0000c0 00 00 00 00 00 00 00 00 00 00 00 00 00 00 00 00
       0.0 0.0 0.0 0.0
0000d0 00 00 00 00 00 00 00 00 00 00 00 00 00 00 00 00
       0.0 0.0 0.0 0.0
0000e0 00 00 00 00 00 00 00 00 00 00 00 00 00 00 00 00
       0.0 0.0 0.0 0.0
0000f0 00 00 00 00 00 00 00 00 00 00 00 00 00 00 00 00
       0.0 0.0 0.0 0.0
000100 00 00 00 00 00 00 00 00 00 00 00 00 00 00 00 00
       0.0 0.0 0.0 0.0
000110 00 00 00 00 00 00 00 00 00 00 00 00 00 00 00 00
       0.0 0.0 0.0 0.0
000120 00 00 00 00 00 00 00 00 00 00 00 00 00 00 00 00
       0.0 0.0 0.0 0.0
000130 00 00 00 00 00 00 00 00 00 00 00 00 00 00 00 00
       0.0 0.0 0.0 0.0
000140 00 00 00 00 00 00 00 00 00 00 00 00 00 00 00 00
       0.0 0.0 0.0 0.0
000150 00 00 00 00 00 00 00 00 00 00 00 00 00 00 00 00
       0.0 0.0 0.0 0.0
000160 00 00 00 00 00 00 00 00 00 00 00 00 00 00 00 00
       0.0 0.0 0.0 0.0
000170 00 00 00 00 00 00 00 00 00 00 00 00 00 00 00 00
       0.0 0.0 0.0 0.0
000180 00 00 00 00 00 00 00 00 00 00 00 00 00 00 00 00
       0.0 0.0 0.0 0.0
000190 00 00 00 00 00 00 00 00 00 00 00 00 00 00 00 00
       0.0 0.0 0.0 0.0
0001a0 00 00 00 00 00 00 00 00 00 00 00 00 00 00 00 00
       0.0 0.0 0.0 0.0
0001b0 00 00 00 00 00 00 00 00 00 00 00 00 00 00 00 00
       0.0 0.0 0.0 0.0
0001c0 00 00 00 00 00 00 00 00 00 00 00 00 00 00 00 00
       0.0 0.0 0.0 0.0
0001d0 00 00 00 00 00 00 00 00 00 00 00 00 00 00 00 00
       0.0 0.0 0.0 0.0
0001e0 00 00 00 00 00 00 00 00 00 00 00 00 00 00 00 00
       0.0 0.0 0.0 0.0
0001f0 00 00 00 00 00 00 00 00 00 00 00 00 00 00 00 00
       0.0 0.0 0.0 0.0
000200 00 00 00 00 00 00 00 00 00 00 00 00 00 00 00 00
       0.0 0.0 0.0 0.0
000210 00 00 00 00 00 00 00 00 00 00 00 00 00 00 00 00
       0.0 0.0 0.0 0.0
000220 00 00 00 00 00 00 00 00 00 00 00 00 00 00 00 00
       0.0 0.0 0.0 0.0
000230 00 00 00 00 00 00 00 00 00 00 00 00 00 00 00 00
       0.0 0.0 0.0 0.0
000240 00 00 00 00 00 00 00 00 00 00 00 00 00 00 00 00
       0.0 0.0 0.0 0.0
000250 00 00 00 00 00 00 00 00 00 00 00 00 00 00 00 00
       0.0 0.0 0.0 0.0
000260 00 00 00 00 00 00 00 00 00 00 00 00 00 00 00 00
       0.0 0.0 0.0 0.0
000270 00 00 00 00 00 00 00 00 00 00 00 00 00 00 00 00
       0.0 0.0 0.0 0.0
000280 00 00 00 00 00 00 00 00 00 00 00 00 00 00 00 00
       0.0 0.0 0.0 0.0
000290 00 00 00 00 00 00 00 00 00 00 00 00 00 00 00 00
       0.0 0.0 0.0 0.0
0002a0 00 00 00 00 00 00 00 00 00 00 00 00 00 00 00 00
       0.0 0.0 0.0 0.0
0002b0 00 00 00 00 00 00 00 00 00 00 00 00
       0.0 0.0 0.0
