checkpoints/version124/model.pt (torch, 31342 bytes, 13 tensors)

bias f4 [175]
00000000: ce8c 963f 5225 1240 4ed4 1fbf ea67 a73f
00000010: a2c7 093d 8ab0 f43f e920 fb3f b2b7 2640
00000020: 87b2 ce3f 4b84 4040 c941 ac3f 8a2f c53f
00000030: 93b3 1e3e 6e9e e5bd bfec b43c de3c 0c40
00000040: 353a 4fbd dd82 81bd 7360 08bd db25 3240
00000050: d4d8 963e 8d53 b93f b660 c83f bba7 cdbe
00000060: e212 e6bf 8872 5b40 28c8 7a3f ce24 b53f
00000070: 5933 833f 4618 2640 7530 033f adde 223d
00000080: 359e 9a3f 4183 903d 14fa 1f3f 6706 6f40
00000090: 19ec 333f cccf 8b3f 7a6d e73f ce6f b73f
000000a0: c597 0b40 88e4 c33f 5b4b 4a3e 6903 c63e
000000b0: 3569 cc3f 4277 48be 650f f53e fc0a 373e
000000c0: 69e1 a33e dfc7 983e da73 0d3f 5a49 023f
000000d0: 80db 853f b3a4 603e 8bcd 723e d3b1 a53f
000000e0: 5d5f c0be 9489 313f de05 293e 457f bbbe
000000f0: fda0 a8bd 09d5 5e3d 4072 383f 39ba 343f
00000100: c7f4 953d 56d9 a93e 795d adbb 3651 b53e
00000110: f056 273f 3cbb d13f 8233 aebe 7f4c 983f
00000120: 0149 ab3f 0cbc 603f 7dde 923f d8c0 7d3f
00000130: 3afd ab3f 18b1 c23f 6cd7 c23f 430e 0a40
00000140: 651e aa3f d3f8 f93f 727f 7c3f 2871 2940
00000150: c5cd ae3f 5be6 9e3f 8f61 3d40 7e8a 5b40
00000160: aecf be3f 357a 853f fb0f 873f f7be d3be
00000170: 75ba 5c40 01b2 45bd 35cd 753f f903 bf3e
00000180: b863 6140 e947 d23e e138 39bf 05cc 023e
00000190: c936 1440 72ea 6d3f 5bad bd3f 6251 eb3f
000001a0: 84b7 7a3f 5dd5 0a40 b139 c03f 5ceb c03f
000001b0: b40a c93f 277d 0040 a8d5 823f 0508 9bbe
000001c0: 131e b03d cb54 1040 aa2c 983f 504d 1240
000001d0: 8d99 1e3e 9a37 1140 ea8e ec3f a50a 0640
000001e0: 02b8 2540 375d dd3f 3836 0540 a931 1240
000001f0: 58e5 2940 694c ae3f c54a 223e 8246 8ebd
00000200: ef00 5b3f 64d5 b43f aceb 903e 733a 463e
00000210: 9c1b 7bbd d31e 0040 a053 b53f dc19 893d
00000220: f4ad 5bbd dc88 b43f 8b26 0b3f 7e73 7a3f
00000230: e4e0 233f 66e0 cd3e 2391 923f 8ed2 af3e
00000240: 4546 cfbd df1a cb3f 29ea a93f 7035 a13f
00000250: a6a6 253f 78b9 debd aeef 843e 0511 c1bd
00000260: 4640 d73f 58e9 753f a8bd 4540 f262 0340
00000270: c390 903f 0b9a 5a40 2b20 983e d875 a73e
00000280: 9b65 603f 5606 78bf 0715 103f afb3 953f
00000290: 2777 c73f d04c 3240 6431 5a3f b6d3 ab3f
000002a0: 7ae8 6a3f b9e8 ee3f b9b5 0140 520a c73f
000002b0: 46b6 963f eb47 df3e 0c54 a13e
1.176172 2.2835279 -0.62433326 1.3078587 0.03363765 1.9116375 1.9619418 2.6049619
1.6148232 3.0080745 1.3457576 1.5405133 0.1549819 -0.11211859 0.022085546 2.191215
-0.05059262 -0.06323788 -0.033295106 2.7835605 0.29462302 1.4478623 1.5654514 -0.4016703
-1.7974513 3.4288654 0.97961664 1.4151857 1.0250045 2.5952315 0.51245815 0.03976314
1.2079531 0.07056285 0.62490964 3.7347658 0.7028213 1.092279 1.8080285 1.4330995
2.1811383 1.5304117 0.19755308 0.38674477 1.5969607 -0.19576743 0.47863308 0.17875284
0.32007912 0.2983999 0.552549 0.50893176 1.0457611 0.21937828 0.23711221 1.2944893
-0.37572756 0.6935055 0.16506144 -0.36620536 -0.08233831 0.054402385 0.7204933 0.70596653
0.07322078 0.33173627 -0.005290684 0.35413522 0.6536703 1.6385264 -0.34023672 1.1898345
1.3381654 0.87786937 1.1474148 0.9912238 1.3436654 1.5210295 1.5221992 2.1571205
1.3290526 1.952906 0.98631966 2.6475315 1.3656546 1.2414049 2.9590795 3.430328
1.4907129 1.042792 1.0551752 -0.41356632 3.4488804 -0.04826546 0.96016246 0.37307718
3.5217113 0.41070488 -0.72352415 0.1277314 2.3158438 0.9293586 1.4818529 1.8384211
0.9793627 2.1692727 1.5017606 1.5071826 1.5706391 2.0076387 1.0221453 -0.30279556
0.08599486 2.2551754 1.188863 2.2859688 0.15488262 2.2690187 1.8481114 2.0943997
2.589356 1.7294072 2.0814342 2.284281 2.654623 1.3617069 0.15848835 -0.06947042
0.855483 1.4127622 0.28304803 0.19358234 -0.061305627 2.0018814 1.4166145 0.066943854
-0.05363269 1.4104266 0.54355687 0.9783248 0.6401503 0.40210265 1.1450542 0.34340328
-0.10120825 1.5867575 1.3274585 1.2594433 0.6470741 -0.10875219 0.2596411 -0.09427074
1.681649 0.9605918 3.0897007 2.0529141 1.1294178 3.415652 0.29712042 0.32707095
0.8765504 -0.9688467 0.56282085 1.169546 1.5583237 2.7859383 0.85231614 1.3423984
0.9176098 1.8664771 2.0267165 1.5550025 1.1774375 0.43609557 0.31509435

weight f4 [9, 175]
00000000: b897 ab33 4345 0935 79d5 d634 edd2 f931
00000010: 2c85 0f37 5b7e 173f 3fdd 5eb5 eafb ca3e
00000020: 941b 683f 8a61 dd3e 107a 473f a95e 243f
00000030: 6c0c 8d32 4052 fa3e e09b 6db4 5507 3a31
00000040: 4185 c7b7 6328 b33e 1d34 7bb7 6556 2c3e
00000050: 6c8e 9031 7cae 5c3f a5e8 dc3e e407 74be
00000060: 46df 863f 1e1b ca3e 1012 9b3f 2e53 1d3b
00000070: 1828 21b5 8dcf f9b1 5539 8b3f d04a b8b4
00000080: 51a9 0f3f f7c9 993f 0deb 2934 bdf6 be35
00000090: 8c74 f73e 447c 203e ea83 f73e 97d2 2f3f
000000a0: f0bf 67b6 2a5e 5eb3 38b0 4f3f 0187 113f
000000b0: 4198 34b0 39c6 a83e de36 bc33 8d67 8f34
000000c0: b55a e5b1 0be3 7bb3 b56d 033f 15a0 143f
000000d0: a227 4736 5969 393f b32b e53e 38be 5b34
000000e0: c808 4431 3da3 04bf 28fd dc3e a29b 0437
000000f0: c6da 053f 0d6a 183f 2fef 2531 6bcf 6ab4
00000100: c174 56b1 ed92 013f bff7 423e 3774 3a3f
00000110: e0bb a0b3 66e9 9c3e 5c9b 823e 3ce0 323e
00000120: eeb3 6d3e aeef e5b3 9235 893e 29f1 1635
00000130: f989 4d35 bc56 713e 0246 1d35 26b7 d6b6
00000140: bfd0 90b4 c846 94b4 2426 8c3e c921 95b5
00000150: 81f6 86bd 99d1 8b3e a26f 0d36 d294 ef35
00000160: fe61 f735 977c e93e 9699 793e 6083 babe
00000170: f9e8 30b5 e480 b43e 8de8 203f a472 3f3f
00000180: 5388 0c37 444c f03e 1542 123f 218f 6a3f
00000190: a5d6 443f 62c0 913f 70eb 4aac 903d da32
000001a0: f3f2 df32 ce0f b133 79c9 813f d6a5 dd3e
000001b0: f7ec 113f 03b4 a93e 50a0 2db5 283a f735
000001c0: a101 2d3f 1191 223f cd7f 323f 84ba 243f
000001d0: 6503 3c3f 6036 b335 a378 f63e c729 be3e
000001e0: 67f0 d63e 6a88 a53e 996c e63e 6f9c 97b3
000001f0: 6892 43b9 68ea 9830 c159 043f 9aed cb32
00000200: 9d09 cd3a cc2a dd3e fb2e 3f3f 086d 6e31
00000210: c649 5e3f 88a2 c1b8 b404 8fb2 661a 1e3f
00000220: 15f0 993d 12ac 37b2 069e 273e d435 31b6
00000230: e087 193f ad75 053f 122f c836 ff9c bab4
00000240: 13bb 9c3e 234d 763f 33db 1b34 cace 9033
00000250: 3c4e 6fb3 90fe 033f 4153 b73e dffc 463e
00000260: ad15 2334 4be8 983e 7abb 3a34 99c1 3c34
00000270: 25fa 073f 97c4 f8b5 d23b 17b4 616f 263f
00000280: 440b 033f 14c1 bc3e c713 6b3f e078 3c3f
00000290: d357 a9b7 2892 13b3 5d9e 6b34 d8c0 bd36
000002a0: 5195 0c3f 5e09 e734 eda2 6d34 cc8e d33d
000002b0: 66de 5b3e 4013 3f3f 719a 6f3e 662f de3e
000002c0: 8093 fd3e b63a 2e3f 02ba e73e 836c ab3f
000002d0: 4e8f e333 e248 9e3e 78ff 8d34 23ce 0834
000002e0: b349 86b2 7a15 17b4 c14d e834 72ae 333f
000002f0: 36ea bdb1 46b5 a13e c4c4 403f 01c8 1dbe
00000300: 67d9 2fb3 66d8 e9bd 87fe f6b8 7075 3f3f
00000310: bead 35b3 1f6a 1eb4 0edd df38 8440 6a34
00000320: 9453 3c34 e171 cd35 0e08 2fbe b11f f73e
00000330: 0b0b 913f 1ab5 08b2 b773 83be 862d ecb4
00000340: 0aff e135 285b 903f eb08 683f f0a4 45b4
00000350: a002 f53a 6ada dfb3 7a47 0734 7e42 2b3e
00000360: 2456 cb3e d912 8531 d812 1e32 c1a6 4c3f
00000370: 4281 2533 eda2 093f 33b5 653e 197a 053f
00000380: f900 d43e 4370 0cb4 de20 95b3 34d5 573e
00000390: 6267 0b32 1413 88b1 d718 8a3e 14fe 193f
000003a0: 3ff2 a2b0 650e 1fb3 f820 bdbe 6919 2d33
000003b0: 6dfb 5fb3 d234 0b3f 71f0 593f 3cda 363f
000003c0: 98f9 cf33 8040 f035 ac9b 94ae ffb9 e83e
000003d0: 9991 5bb4 0a85 54b5 056e 69ba 1987 bfb7
000003e0: 1e21 c33e b5c9 6235 8362 793e a4cc e33e
000003f0: 8b83 2e37 21fc f53e f4da 633e a73f ef3e
7.9904055e-08 5.1137266e-07 4.0015928e-07 7.2708333e-09 8.554471e-06 0.5917718 -8.30234e-07 0.3964532
0.9066708 0.4323848 0.7792063 0.6420694 1.642021e-08 0.48890877 -2.2129052e-07 2.707073e-09
-2.37847e-05 0.3499175 -1.4972899e-05 0.16829832 4.207143e-09 0.8620374 0.43146244 -0.23831135
1.0536888 0.39473814 1.2114887 0.0024005878 -6.003552e-07 -7.2704496e-09 1.0876871 -3.4327104e-07
0.5611773 1.201476 1.5824862e-07 1.4227913e-06 0.48331106 0.15672404 0.4834283 0.6868071
-3.4533405e-06 -5.1774045e-08 0.81128263 0.56846625 -6.5699984e-10 0.32963732 8.7644125e-08 2.671117e-07
-6.6750894e-09 -5.8646986e-08 0.51339275 0.58056766 2.967638e-06 0.7242637 0.44759902 2.0465166e-07
2.8526745e-09 -0.5181158 0.43161893 7.904049e-06 0.52286947 0.5953682 2.414662e-09 -2.1868406e-07
-3.1207466e-09 0.50614816 0.1903982 0.7283358 -7.484755e-08 0.3064682 0.25509155 0.17468351
0.23213169 -1.0707241e-07 0.26798683 5.623029e-07 7.656923e-07 0.23568243 5.858893e-07 -6.3990183e-06
-2.6973973e-07 -2.7618648e-07 0.2737285 -1.1111198e-06 -0.06589986 0.27308348 2.1075616e-06 1.78502e-06
1.8431454e-06 0.45602867 0.24374995 -0.36428356 -6.590413e-07 0.35254586 0.62854844 0.747843
8.376391e-06 0.46933186 0.57132083 0.9162465 0.7689002 1.1386836 -2.883662e-12 2.5406536e-08
2.6071097e-08 8.2450796e-08 1.013961 0.43290585 0.57002205 0.3314515 -6.468081e-07 1.841986e-06
0.6758061 0.63502604 0.6972626 0.643471 0.7344268 1.3352364e-06 0.48138914 0.3714125
0.41980287 0.32330638 0.45004728 -7.0599405e-08 -0.0001865119 1.1126078e-09 0.51699454 2.3740359e-08
0.0015643124 0.43196714 0.7468106 3.4695535e-09 0.8683132 -9.233231e-05 -1.664953e-08 0.6175903
0.07516495 -1.0691126e-08 0.16368875 -2.6406387e-06 0.59972954 0.52132684 5.965944e-06 -3.475943e-07
0.30611476 0.9621145 1.4515244e-07 6.743137e-08 -5.5717678e-08 0.51560307 0.35805705 0.194324
1.5188444e-07 0.29864725 1.7390803e-07 1.7579295e-07 0.53116065 -1.8534655e-06 -1.4084733e-07 0.650137
0.51189065 0.36866057 0.9182705 0.7362194 -2.0187266e-05 -3.4359033e-08 2.1943693e-07 5.655089e-06
0.5491534 4.3033918e-07 2.2131617e-07 0.10329971 0.21471557 0.7463875 0.23398758 0.43395537
0.49526596 0.68058336 0.452591 1.339249 1.0596578e-07 0.3091498 2.6449175e-07 1.2740979e-07
-1.5633168e-08 -1.4070784e-07 4.326994e-07 0.7018806 -5.5272507e-09 0.31583613 0.7530024 -0.15408327
-4.094309e-08 -0.11418228 -0.000117776035 0.7478857 -4.2300364e-08 -1.4753503e-07 0.00010674643 2.1816419e-07
1.753927e-07 1.5306833e-06 -0.17092916 0.48266366 1.1331495 -7.95742e-09 -0.2567422 -4.3991548e-07
1.6838032e-06 1.1277819 0.9063861 -1.8407059e-07 0.0018692799 -1.0423976e-07 1.2598858e-07 0.16724584
0.39714158 3.872952e-09 9.201095e-09 0.79941946 3.8534615e-08 0.5376423 0.22432403 0.5213943
0.41406992 -1.3079357e-07 -6.944332e-08 0.21077424 8.114371e-09 -3.96029e-09 0.26972076 0.6015332
-1.1855902e-09 -3.7033164e-08 -0.36939216 4.030281e-08 -5.2149904e-08 0.5437747 0.8513251 0.7142675
9.6845895e-08 1.7900165e-06 -6.757914e-11 0.45454404 -2.0448933e-07 -7.916975e-07 -0.0008904639 -2.2831884e-05
0.38111204 8.4485083e-07 0.24353985 0.44492066 1.0401835e-05 0.48043922 0.22251493 0.4672825

bias f4 [175]
00000000: 0000 0000 0000 0000 0000 0000 0000 0000
00000010: 0000 0000 0000 0000 0000 0000 0000 0000
00000020: 0000 0000 0000 0000 0000 0000 0000 0000
00000030: 0000 0000 0000 0000 0000 0000 0000 0000
00000040: 0000 0000 0000 0000 0000 0000 0000 0000
00000050: 0000 0000 0000 0000 0000 0000 0000 0000
00000060: 0000 0000 0000 0000 0000 0000 0000 0000
00000070: 0000 0000 0000 0000 0000 0000 0000 0000
00000080: 0000 0000 0000 0000 0000 0000 0000 0000
00000090: 0000 0000 0000 0000 0000 0000 0000 0000
000000a0: 0000 0000 0000 0000 0000 0000 0000 0000
000000b0: 0000 0000 0000 0000 0000 0000 0000 0000
000000c0: 0000 0000 0000 0000 0000 0000 0000 0000
000000d0: 0000 0000 0000 0000 0000 0000 0000 0000
000000e0: 0000 0000 0000 0000 0000 0000 0000 0000
000000f0: 0000 0000 0000 0000 0000 0000 0000 0000
00000100: 0000 0000 0000 0000 0000 0000 0000 0000
00000110: 0000 0000 0000 0000 0000 0000 0000 0000
00000120: 0000 0000 0000 0000 0000 0000 0000 0000
00000130: 0000 0000 0000 0000 0000 0000 0000 0000
00000140: 0000 0000 0000 0000 0000 0000 0000 0000
00000150: 0000 0000 0000 0000 0000 0000 0000 0000
00000160: 0000 0000 0000 0000 0000 0000 0000 0000
00000170: 0000 0000 0000 0000 0000 0000 0000 0000
00000180: 0000 0000 0000 0000 0000 0000 0000 0000
00000190: 0000 0000 0000 0000 0000 0000 0000 0000
000001a0: 0000 0000 0000 0000 0000 0000 0000 0000
000001b0: 0000 0000 0000 0000 0000 0000 0000 0000
000001c0: 0000 0000 0000 0000 0000 0000 0000 0000
000001d0: 0000 0000 0000 0000 0000 0000 0000 0000
000001e0: 0000 0000 0000 0000 0000 0000 0000 0000
000001f0: 0000 0000 0000 0000 0000 0000 0000 0000
00000200: 0000 0000 0000 0000 0000 0000 0000 0000
00000210: 0000 0000 0000 0000 0000 0000 0000 0000
00000220: 0000 0000 0000 0000 0000 0000 0000 0000
00000230: 0000 0000 0000 0000 0000 0000 0000 0000
00000240: 0000 0000 0000 0000 0000 0000 0000 0000
00000250: 0000 0000 0000 0000 0000 0000 0000 0000
00000260: 0000 0000 0000 0000 0000 0000 0000 0000
00000270: 0000 0000 0000 0000 0000 0000 0000 0000
00000280: 0000 0000 0000 0000 0000 0000 0000 0000
00000290: 0000 0000 0000 0000 0000 0000 0000 0000
000002a0: 0000 0000 0000 0000 0000 0000 0000 0000
000002b0: 0000 0000 0000 0000 0000 0000
0.0 0.0 0.0 0.0 0.0 0.0 0.0 0.0
0.0 0.0 0.0 0.0 0.0 0.0 0.0 0.0
0.0 0.0 0.0 0.0 0.0 0.0 0.0 0.0
0.0 0.0 0.0 0.0 0.0 0.0 0.0 0.0
0.0 0.0 0.0 0.0 0.0 0.0 0.0 0.0
0.0 0.0 0.0 0.0 0.0 0.0 0.0 0.0
0.0 0.0 0.0 0.0 0.0 0.0 0.0 0.0
0.0 0.0 0.0 0.0 0.0 0.0 0.0 0.0
0.0 0.0 0.0 0.0 0.0 0.0 0.0 0.0
0.0 0.0 0.0 0.0 0.0 0.0 0.0 0.0
0.0 0.0 0.0 0.0 0.0 0.0 0.0 0.0
0.0 0.0 0.0 0.0 0.0 0.0 0.0 0.0
0.0 0.0 0.0 0.0 0.0 0.0 0.0 0.0
0.0 0.0 0.0 0.0 0.0 0.0 0.0 0.0
0.0 0.0 0.0 0.0 0.0 0.0 0.0 0.0
0.0 0.0 0.0 0.0 0.0 0.0 0.0 0.0
0.0 0.0 0.0 0.0 0.0 0.0 0.0 0.0
0.0 0.0 0.0 0.0 0.0 0.0 0.0 0.0
0.0 0.0 0.0 0.0 0.0 0.0 0.0 0.0
0.0 0.0 0.0 0.0 0.0 0.0 0.0 0.0
0.0 0.0 0.0 0.0 0.0 0.0 0.0 0.0
0.0 0.0 0.0 0.0 0.0 0.0 0.0

_ei_mask f4 [175]
00000000: 0000 803f 0000 803f 0000 803f 0000 803f
00000010: 0000 803f 0000 803f 0000 803f 0000 803f
00000020: 0000 803f 0000 803f 0000 803f 0000 803f
00000030: 0000 803f 0000 803f 0000 803f 0000 803f
00000040: 0000 803f 0000 803f 0000 803f 0000 803f
00000050: 0000 803f 0000 803f 0000 803f 0000 803f
00000060: 0000 803f 0000 803f 0000 803f 0000 803f
00000070: 0000 803f 0000 803f 0000 803f 0000 803f
00000080: 0000 803f 0000 803f 0000 803f 0000 803f
00000090: 0000 803f 0000 803f 0000 803f 0000 803f
000000a0: 0000 803f 0000 803f 0000 803f 0000 803f
000000b0: 0000 803f 0000 803f 0000 803f 0000 803f
000000c0: 0000 803f 0000 803f 0000 803f 0000 803f
000000d0: 0000 803f 0000 803f 0000 803f 0000 803f
000000e0: 0000 803f 0000 803f 0000 803f 0000 803f
000000f0: 0000 803f 0000 803f 0000 803f 0000 803f
00000100: 0000 803f 0000 803f 0000 803f 0000 803f
00000110: 0000 803f 0000 803f 0000 803f 0000 803f
00000120: 0000 803f 0000 803f 0000 803f 0000 803f
00000130: 0000 803f 0000 803f 0000 803f 0000 803f
00000140: 0000 803f 0000 803f 0000 803f 0000 803f
00000150: 0000 803f 0000 803f 0000 803f 0000 803f
00000160: 0000 803f 0000 803f 0000 803f 0000 803f
00000170: 0000 803f 0000 803f 0000 803f 0000 803f
00000180: 0000 803f 0000 803f 0000 803f 0000 803f
00000190: 0000 803f 0000 803f 0000 803f 0000 803f
000001a0: 0000 803f 0000 803f 0000 803f 0000 803f
000001b0: 0000 803f 0000 803f 0000 803f 0000 803f
000001c0: 0000 803f 0000 803f 0000 803f 0000 803f
000001d0: 0000 803f 0000 803f 0000 803f 0000 803f
000001e0: 0000 803f 0000 803f 0000 803f 0000 803f
000001f0: 0000 803f 0000 803f 0000 803f 0000 803f
00000200: 0000 803f 0000 803f 0000 803f 0000 803f
00000210: 0000 803f 0000 803f 0000 803f 0000 803f
00000220: 0000 803f 0000 803f 0000 803f 0000 803f
00000230: 0000 803f 0000 803f 0000 803f 0000 803f
00000240: 0000 803f 0000 803f 0000 803f 0000 803f
00000250: 0000 803f 0000 803f 0000 803f 0000 803f
00000260: 0000 803f 0000 803f 0000 803f 0000 803f
00000270: 0000 803f 0000 803f 0000 803f 0000 803f
00000280: 0000 803f 0000 803f 0000 803f 0000 803f
00000290: 0000 803f 0000 803f 0000 803f 0000 803f
000002a0: 0000 803f 0000 803f 0000 803f 0000 803f
000002b0: 0000 803f 0000 803f 0000 803f
1.0 1.0 1.0 1.0 1.0 1.0 1.0 1.0
1.0 1.0 1.0 1.0 1.0 1.0 1.0 1.0
1.0 1.0 1.0 1.0 1.0 1.0 1.0 1.0
1.0 1.0 1.0 1.0 1.0 1.0 1.0 1.0
1.0 1.0 1.0 1.0 1.0 1.0 1.0 1.0
1.0 1.0 1.0 1.0 1.0 1.0 1.0 1.0
1.0 1.0 1.0 1.0 1.0 1.0 1.0 1.0
1.0 1.0 1.0 1.0 1.0 1.0 1.0 1.0
1.0 1.0 1.0 1.0 1.0 1.0 1.0 1.0
1.0 1.0 1.0 1.0 1.0 1.0 1.0 1.0
1.0 1.0 1.0 1.0 1.0 1.0 1.0 1.0
1.0 1.0 1.0 1.0 1.0 1.0 1.0 1.0
1.0 1.0 1.0 1.0 1.0 1.0 1.0 1.0
1.0 1.0 1.0 1.0 1.0 1.0 1.0 1.0
1.0 1.0 1.0 1.0 1.0 1.0 1.0 1.0
1.0 1.0 1.0 1.0 1.0 1.0 1.0 1.0
1.0 1.0 1.0 1.0 1.0 1.0 1.0 1.0
1.0 1.0 1.0 1.0 1.0 1.0 1.0 1.0
1.0 1.0 1.0 1.0 1.0 1.0 1.0 1.0
1.0 1.0 1.0 1.0 1.0 1.0 1.0 1.0
1.0 1.0 1.0 1.0 1.0 1.0 1.0 1.0
1.0 1.0 1.0 1.0 1.0 1.0 1.0

weight f4 [2, 175]
00000000: 7b9f 3040 71a3 cc3f 0d89 833f a0fe 4f40
00000010: 138c e73f a923 0940 70d4 d63f 7e1a 7840
00000020: e6cb 3c3f 1c39 3e40 ad8c 243f 4aea 463f
00000030: 04b5 f43e 3c58 f03e 340c b83d 97ef 873f
00000040: 94d8 c03e 6b51 9c3f c265 5b3e 2c2e 1340
00000050: b45b d53f df6d f03f 53f9 db3f 3ec2 653f
00000060: d1d6 9240 a3fd 7f40 0f0e 69bf 1911 d83f
00000070: baf9 5c3f 022f 5740 6f52 1c40 a123 15bf
00000080: cb0c e03e 7408 8b3f b718 0540 613f 3c40
00000090: 0908 1440 1e36 323f b04a 2e3f 67a2 593f
000000a0: a6ed 0040 25f0 3040 a84f 863f 0f55 1ebf
000000b0: 35f5 5a3f 7776 923d 0507 6a3f 67fb 3c3f
000000c0: 1438 183e 5788 a83f 50cf 523f 4700 d43e
000000d0: 182c 483f 3148 0340 3893 793f fc63 17bf
000000e0: 7374 b73f 4404 05bf af0f 9f3f fc49 7a3e
000000f0: aeaf c53f bf13 653f d938 c23f 56ab 1640
00000100: b135 1d3f 9ee3 363f 939a 3f3f eb05 ffbe
00000110: 009d 463f f0c2 c33f d7ad 413f f5e3 b73f
00000120: 4e6e dc3f d573 dbbe 7f50 7e3f 3fe0 223d
00000130: 1f52 6b3e d5c6 ab3f 32b0 82be 7b35 9d3f
00000140: 4a32 cf3f 27fd c73f 22dc 123d c6dd d73f
00000150: e8d4 30bd 59cd a43f 4d76 3140 a631 6640
00000160: bc35 173f 42c2 c53f 7eab 0f40 10ae d03f
00000170: bd8a af3f 741f 1140 860f c03f 5e62 793f
00000180: d2ec c93f 661f 873f 678c fc3f 11a0 df3e
00000190: 10ba 1d3f ca19 9ebe a2db bd3f e233 c03f
000001a0: 2737 1e3f 12f5 d33f 0496 5ebe a3a4 c63f
000001b0: 7ba1 3c3f 68ec 2840 8cc0 483f 4251 0b40
000001c0: 91f6 423f b9b6 953f 3f56 8e3e bfa0 c93f
000001d0: cd88 323e 556d 983f 036d 0b40 bf33 c03f
000001e0: d4fd 4040 b5d6 c83f a4b1 343f 6cd5 0940
000001f0: 90ee 4a40 c779 b73f 5938 e63e fba3 913f
00000200: 4036 b03c ad2c fe3e bd08 9cbd 1037 6c3f
00000210: c23a fb3d 2158 b53f 22c3 283f 8cf7 743f
00000220: 44d4 a83f aeb7 8a3f 80a8 f23f 7af9 3c3f
00000230: 836c 5f3f 50c3 5d3f 1092 0240 f3cd f93f
00000240: 9720 443f 39ae d1bc 5bb2 a73f d6e8 543e
00000250: ed0d 0240 5956 a53e 0fac 98bb d636 253f
00000260: 47ad cd3f bc17 443f f930 1740 ef33 bc3f
00000270: a590 2d3f 586f 1140 3b33 1c3d 02c0 fe3e
00000280: 5839 fd3f 33fa bb3f 2fb8 0f40 29f3 173e
00000290: 6db5 be3f 25d5 e73f 0b5d f43e be25 c53f
000002a0: 0b9f bc3e b98c 0140 0a07 903f 20f4 c83f
000002b0: b2a1 d43f 98b1 91be 87b2 643f 93e6 423f
000002c0: ffdb f23f a157 5c3f 2a40 2840 9339 bb3e
000002d0: 4281 0c40 20a1 943f 0246 2d40 3b5c 113b
000002e0: 55a8 c83f 27b1 8e3f de84 213f ded3 c83f
000002f0: a72c 38bd a766 8fbe 256a 2e3f 7d0f 35be
00000300: c475 953f 7fad 3fbe 918e 0140 bd26 ae3f
00000310: 7ee0 0f40 0f02 c73f 42b4 3d3f e154 8e3f
00000320: 119a 2e40 82e4 5dbf 58f3 2940 e83e f43f
00000330: 8ad5 6a40 5463 cd3f b8d3 0ebf e8e9 063f
00000340: 9a96 6b3e 0d64 c23f 840a 1b40 c2a4 0f40
00000350: 7251 553f 03b3 8dbc 1bcd 7f3f efdf fe3e
00000360: 1817 0b40 3030 783e db66 573e 1082 263e
00000370: ca80 9a3f 6885 763f 40d4 d33e da42 38be
00000380: c358 e13a 1481 7cbf 0aa2 92bf 12db bb3d
00000390: 03ff b63f a91b 383f b3c1 1a3f dc3c ad3f
000003a0: 4c28 20bf c9bb 303f e9ef b7bf 64cb 953f
000003b0: cf24 543f b424 513f f8cc 5340 6275 793f
000003c0: 9e8c 2d3f 4067 913f 25c4 4dbd 2ad5 463f
000003d0: 918f 953f 6431 783f 9058 a33f af53 c83f
000003e0: df62 d7bd 316a 6b3f bd60 1b3e b4c4 b33e
000003f0: 2b41 a33f bcd0 d8be 9b08 e23e 3fb5 ac3f
2.759734 1.5987378 1.02762 3.249916 1.8089622 2.1428015 1.6783581 3.876617
0.73748624 2.9722357 0.64277154 0.77701247 0.47794354 0.46942317 0.089867026 1.0619992
0.37665236 1.2212347 0.21425536 2.299693 1.666861 1.878353 1.7185463 0.89749515
4.5887227 3.9998558 -0.91037077 1.6880218 0.8631855 3.3622441 2.4425313 -0.5825749
0.4375976 1.0861955 2.0796335 2.9413683 2.3129904 0.69613826 0.68082714 0.8501343
2.014505 2.7646573 1.0493059 -0.6184854 0.85530406 0.071515016 0.9141696 0.7382111
0.14865142 1.3166608 0.82347584 0.41406462 0.7819228 2.0512812 0.97490263 -0.5913694
1.4332412 -0.51959634 1.2426661 0.24442285 1.5444238 0.89483255 1.5173599 2.3542075
0.6141005 0.71441066 0.74845237 -0.49809203 0.77583313 1.5293865 0.75655884 1.4366442
1.7221162 -0.4286181 0.9934158 0.03976464 0.22980545 1.3420054 -0.2552505 1.2281946
1.6187222 1.5624131 0.035854466 1.6864555 -0.043171793 1.2875167 2.7728455 3.5967803
0.5906637 1.5449908 2.244842 1.630312 1.3714215 2.2675447 1.5004737 0.9741572
1.5775397 1.0556457 1.9730347 0.43676808 0.61612034 -0.3087905 1.4832652 1.5015833
0.61802906 1.6559165 -0.21736914 1.5518993 0.736839 2.639429 0.78418803 2.1768346
0.7615748 1.1696388 0.27800176 1.5752181 0.17434998 1.1908365 2.1785285 1.5015792
3.0154924 1.5690523 0.7058356 2.1536512 3.1708107 1.4334038 0.44964865 1.1378168
0.021510243 0.4964346 -0.07618854 0.9227152 0.122670665 1.416752 0.6592275 0.95690227
1.3189778 1.0837305 1.8957672 0.7381817 0.8727495 0.8662615 2.040165 1.9515976
0.7661223 -0.025595771 1.3101305 0.20791945 2.0321 0.3229244 -0.004659183 0.645368
1.6068505 0.76598716 2.362364 1.4703349 0.67798835 2.272421 0.038134795 0.49755865
1.9783125 1.468573 2.2456167 0.14838852 1.4899117 1.8111922 0.47727236 1.5402143
0.3684009 2.024214 1.1252148 1.5699501 1.6611845 -0.28455806 0.8933491 0.7613308
1.8973387 0.8607121 2.6289163 0.36567363 2.1953893 1.1611671 2.707398 0.0022180218
1.5676371 1.1147813 0.63093364 1.5689657 -0.04496446 -0.28008005 0.68130714 -0.1768169
1.1676564 -0.18718527 2.0243266 1.3605572 2.248077 1.5547503 0.74103177 1.1119653
2.7281535 -0.866768 2.6554775 1.9081697 3.6692834 1.6045938 -0.5579181 0.5270066
0.23006669 1.5186783 2.4225168 2.244431 0.833274 -0.017297274 0.9992234 0.49780223
2.1732845 0.24237132 0.2103533 0.16260552 1.2070553 0.9629731 0.4137287 -0.17994252
0.0017192591 -0.9863446 -1.14557 0.09172644 1.4296573 0.71917206 0.6045181 1.3534198
-0.6256149 0.6903654 -1.437009 1.1702695 0.82868665 0.8169663 3.3093853 0.97444737
0.6779269 1.1359634 -0.050235886 0.7766901 1.1684438 0.96950364 1.2761402 1.5650538
-0.10516905 0.9195891 0.15173621 0.3511101 1.2754263 -0.42346752 0.4414719 1.3492812

bias f4 [175]
00000000: 0000 0000 0000 0000 0000 0000 0000 0000
00000010: 0000 0000 0000 0000 0000 0000 0000 0000
00000020: 0000 0000 0000 0000 0000 0000 0000 0000
00000030: 0000 0000 0000 0000 0000 0000 0000 0000
00000040: 0000 0000 0000 0000 0000 0000 0000 0000
00000050: 0000 0000 0000 0000 0000 0000 0000 0000
00000060: 0000 0000 0000 0000 0000 0000 0000 0000
00000070: 0000 0000 0000 0000 0000 0000 0000 0000
00000080: 0000 0000 0000 0000 0000 0000 0000 0000
00000090: 0000 0000 0000 0000 0000 0000 0000 0000
000000a0: 0000 0000 0000 0000 0000 0000 0000 0000
000000b0: 0000 0000 0000 0000 0000 0000 0000 0000
000000c0: 0000 0000 0000 0000 0000 0000 0000 0000
000000d0: 0000 0000 0000 0000 0000 0000 0000 0000
000000e0: 0000 0000 0000 0000 0000 0000 0000 0000
000000f0: 0000 0000 0000 0000 0000 0000 0000 0000
00000100: 0000 0000 0000 0000 0000 0000 0000 0000
00000110: 0000 0000 0000 0000 0000 0000 0000 0000
00000120: 0000 0000 0000 0000 0000 0000 0000 0000
00000130: 0000 0000 0000 0000 0000 0000 0000 0000
00000140: 0000 0000 0000 0000 0000 0000 0000 0000
00000150: 0000 0000 0000 0000 0000 0000 0000 0000
00000160: 0000 0000 0000 0000 0000 0000 0000 0000
00000170: 0000 0000 0000 0000 0000 0000 0000 0000
00000180: 0000 0000 0000 0000 0000 0000 0000 0000
00000190: 0000 0000 0000 0000 0000 0000 0000 0000
000001a0: 0000 0000 0000 0000 0000 0000 0000 0000
000001b0: 0000 0000 0000 0000 0000 0000 0000 0000
000001c0: 0000 0000 0000 0000 0000 0000 0000 0000
000001d0: 0000 0000 0000 0000 0000 0000 0000 0000
000001e0: 0000 0000 0000 0000 0000 0000 0000 0000
000001f0: 0000 0000 0000 0000 0000 0000 0000 0000
00000200: 0000 0000 0000 0000 0000 0000 0000 0000
00000210: 0000 0000 0000 0000 0000 0000 0000 0000
00000220: 0000 0000 0000 0000 0000 0000 0000 0000
00000230: 0000 0000 0000 0000 0000 0000 0000 0000
00000240: 0000 0000 0000 0000 0000 0000 0000 0000
00000250: 0000 0000 0000 0000 0000 0000 0000 0000
00000260: 0000 0000 0000 0000 0000 0000 0000 0000
00000270: 0000 0000 0000 0000 0000 0000 0000 0000
00000280: 0000 0000 0000 0000 0000 0000 0000 0000
00000290: 0000 0000 0000 0000 0000 0000 0000 0000
000002a0: 0000 0000 0000 0000 0000 0000 0000 0000
000002b0: 0000 0000 0000 0000 0000 0000
0.0 0.0 0.0 0.0 0.0 0.0 0.0 0.0
0.0 0.0 0.0 0.0 0.0 0.0 0.0 0.0
0.0 0.0 0.0 0.0 0.0 0.0 0.0 0.0
0.0 0.0 0.0 0.0 0.0 0.0 0.0 0.0
0.0 0.0 0.0 0.0 0.0 0.0 0.0 0.0
0.0 0.0 0.0 0.0 0.0 0.0 0.0 0.0
0.0 0.0 0.0 0.0 0.0 0.0 0.0 0.0
0.0 0.0 0.0 0.0 0.0 0.0 0.0 0.0
0.0 0.0 0.0 0.0 0.0 0.0 0.0 0.0
0.0 0.0 0.0 0.0 0.0 0.0 0.0 0.0
0.0 0.0 0.0 0.0 0.0 0.0 0.0 0.0
0.0 0.0 0.0 0.0 0.0 0.0 0.0 0.0
0.0 0.0 0.0 0.0 0.0 0.0 0.0 0.0
0.0 0.0 0.0 0.0 0.0 0.0 0.0 0.0
0.0 0.0 0.0 0.0 0.0 0.0 0.0 0.0
0.0 0.0 0.0 0.0 0.0 0.0 0.0 0.0
0.0 0.0 0.0 0.0 0.0 0.0 0.0 0.0
0.0 0.0 0.0 0.0 0.0 0.0 0.0 0.0
0.0 0.0 0.0 0.0 0.0 0.0 0.0 0.0
0.0 0.0 0.0 0.0 0.0 0.0 0.0 0.0
0.0 0.0 0.0 0.0 0.0 0.0 0.0 0.0
0.0 0.0 0.0 0.0 0.0 0.0 0.0

_ei_mask f4 [175]
00000000: 0000 803f 0000 803f 0000 803f 0000 803f
00000010: 0000 803f 0000 803f 0000 803f 0000 803f
00000020: 0000 803f 0000 803f 0000 803f 0000 803f
00000030: 0000 803f 0000 803f 0000 803f 0000 803f
00000040: 0000 803f 0000 803f 0000 803f 0000 803f
00000050: 0000 803f 0000 803f 0000 803f 0000 803f
00000060: 0000 803f 0000 803f 0000 803f 0000 803f
00000070: 0000 803f 0000 803f 0000 803f 0000 803f
00000080: 0000 803f 0000 803f 0000 803f 0000 803f
00000090: 0000 803f 0000 803f 0000 803f 0000 803f
000000a0: 0000 803f 0000 803f 0000 803f 0000 803f
000000b0: 0000 803f 0000 803f 0000 803f 0000 803f
000000c0: 0000 803f 0000 803f 0000 803f 0000 803f
000000d0: 0000 803f 0000 803f 0000 803f 0000 803f
000000e0: 0000 803f 0000 803f 0000 803f 0000 803f
000000f0: 0000 803f 0000 803f 0000 803f 0000 803f
00000100: 0000 803f 0000 803f 0000 803f 0000 803f
00000110: 0000 803f 0000 803f 0000 803f 0000 803f
00000120: 0000 803f 0000 803f 0000 803f 0000 803f
00000130: 0000 803f 0000 803f 0000 803f 0000 803f
00000140: 0000 803f 0000 803f 0000 803f 0000 803f
00000150: 0000 803f 0000 803f 0000 803f 0000 803f
00000160: 0000 803f 0000 803f 0000 803f 0000 803f
00000170: 0000 803f 0000 803f 0000 803f 0000 803f
00000180: 0000 803f 0000 803f 0000 803f 0000 803f
00000190: 0000 803f 0000 803f 0000 803f 0000 803f
000001a0: 0000 803f 0000 803f 0000 803f 0000 803f
000001b0: 0000 803f 0000 803f 0000 803f 0000 803f
000001c0: 0000 803f 0000 803f 0000 803f 0000 803f
000001d0: 0000 803f 0000 803f 0000 803f 0000 803f
000001e0: 0000 803f 0000 803f 0000 803f 0000 803f
000001f0: 0000 803f 0000 803f 0000 803f 0000 803f
00000200: 0000 803f 0000 803f 0000 803f 0000 803f
00000210: 0000 803f 0000 803f 0000 803f 0000 803f
00000220: 0000 803f 0000 803f 0000 803f 0000 803f
00000230: 0000 803f 0000 803f 0000 803f 0000 803f
00000240: 0000 803f 0000 803f 0000 803f 0000 803f
00000250: 0000 803f 0000 803f 0000 803f 0000 803f
00000260: 0000 803f 0000 803f 0000 803f 0000 803f
00000270: 0000 803f 0000 803f 0000 803f 0000 803f
00000280: 0000 803f 0000 803f 0000 803f 0000 803f
00000290: 0000 803f 0000 803f 0000 803f 0000 803f
000002a0: 0000 803f 0000 803f 0000 803f 0000 803f
000002b0: 0000 803f 0000 803f 0000 803f
1.0 1.0 1.0 1.0 1.0 1.0 1.0 1.0
1.0 1.0 1.0 1.0 1.0 1.0 1.0 1.0
1.0 1.0 1.0 1.0 1.0 1.0 1.0 1.0
1.0 1.0 1.0 1.0 1.0 1.0 1.0 1.0
1.0 1.0 1.0 1.0 1.0 1.0 1.0 1.0
1.0 1.0 1.0 1.0 1.0 1.0 1.0 1.0
1.0 1.0 1.0 1.0 1.0 1.0 1.0 1.0
1.0 1.0 1.0 1.0 1.0 1.0 1.0 1.0
1.0 1.0 1.0 1.0 1.0 1.0 1.0 1.0
1.0 1.0 1.0 1.0 1.0 1.0 1.0 1.0
1.0 1.0 1.0 1.0 1.0 1.0 1.0 1.0
1.0 1.0 1.0 1.0 1.0 1.0 1.0 1.0
1.0 1.0 1.0 1.0 1.0 1.0 1.0 1.0
1.0 1.0 1.0 1.0 1.0 1.0 1.0 1.0
1.0 1.0 1.0 1.0 1.0 1.0 1.0 1.0
1.0 1.0 1.0 1.0 1.0 1.0 1.0 1.0
1.0 1.0 1.0 1.0 1.0 1.0 1.0 1.0
1.0 1.0 1.0 1.0 1.0 1.0 1.0 1.0
1.0 1.0 1.0 1.0 1.0 1.0 1.0 1.0
1.0 1.0 1.0 1.0 1.0 1.0 1.0 1.0
1.0 1.0 1.0 1.0 1.0 1.0 1.0 1.0
1.0 1.0 1.0 1.0 1.0 1.0 1.0

weight f4 [175, 3]
00000000: 24ce a540 fd6e 99c0 d757 b73e e05a 13c0
00000010: 535c 05be 9d06 8540 3e9f 51c0 26e7 5ec0
00000020: 3440 5a3f 6679 2641 c1e2 d2c0 6cbc 0b40
00000030: ee59 0a40 04e0 ac40 b90a 4cc0 f74d 68c0
00000040: b461 21c0 6a4c 11c0 0eb1 9fc0 a735 fb3d
00000050: 69e8 bd40 5973 50be b67b 043f 8257 1e3e
00000060: 4dd0 77be 99a9 8f40 4117 efc0 d2bc fe3f
00000070: 08bb f0be bbd6 8a3f 63db 953f 1a05 ea3f
00000080: 003f e4bf 2c06 4fc0 ceaa 753e f272 f840
00000090: 7cde 92c0 a808 8fbb 199f 36c1 77e4 af3f
000000a0: 2081 1740 0f21 dfbe 7446 7d3e 14f5 223f
000000b0: fc0f 8940 8775 2c40 be20 b140 2cc4 7c3f
000000c0: 97c0 9bbf ae39 adbf 4119 c240 93ae 3040
000000d0: 2817 6e3f 1b17 18c0 52a1 9c3f 2090 dd3f
000000e0: 4e43 9340 f14c a5bf dcd6 753e 6883 c03f
000000f0: 4c45 3d40 3313 63c0 bb94 a63e bbc1 2d40
00000100: ea2c e4c0 5dbc dfbe 2a81 5940 a7f2 0ec0
00000110: 28b6 56bf b1b1 cac0 5518 d7bf 2651 0140
00000120: 432b 9f3f 85ba 3b40 66b6 d5c0 6a49 c43f
00000130: e7e4 8b3f 5697 2941 47a2 d6bf 5c9a 9540
00000140: af70 e0bf dfb1 c840 7944 d2bf b466 efbf
00000150: c86e 7240 0878 8ebf 5a71 1b40 d93c 35c0
00000160: b8e3 2fc0 1791 88bf f9d7 5a40 bc19 a7bf
00000170: e812 33c0 fe31 a3c0 b640 e240 d861 1e40
00000180: 2f06 2ac0 d1be a23f 34fa 54c0 840c e140
00000190: 5880 ee3f 4f53 dc3e ae98 b840 0365 50bf
000001a0: 8628 9bbd 5682 97c0 1dbb 703f 07a9 c540
000001b0: 2e01 5840 f163 13c1 52c6 873f 76bc 23c0
000001c0: b108 f0bf 78b4 763f 2231 81c0 ea11 8c40
000001d0: a018 35bc 61a8 7540 8ce4 3a40 1282 29bf
000001e0: 63b4 8ac0 a364 0cc0 65b9 4d40 0e3d ecbf
000001f0: be9e 7bc0 fce3 a33f cf48 ccbf 7054 44c0
00000200: f70c eabf cedd 94bf 6ec1 a23f a050 d3bf
00000210: 1d18 4540 5bab 0341 26c6 10c0 1e4f a13e
00000220: 200c aabe a2c1 993f 15af 2340 67cb 14c0
00000230: 6ddf 0ac0 c65f a0c0 5327 0640 9eef 46bf
00000240: a391 2dc0 8efb e63f 1a2c 9abe bec7 06c0
00000250: c756 83be b651 4140 39b3 88c0 02f5 ff40
00000260: 92b2 2ac1 cb36 e8c0 9da3 7240 6992 58c1
00000270: a3ef 9ebf 9728 afbe 6c43 24bf 1a6e 2b40
00000280: 8894 62bf 1fed 19c0 da59 8440 3d9e c2c0
00000290: 2cc3 25bf ff8e 0ac1 6929 b340 3ed6 5cbf
000002a0: 373f 18c0 7881 dbbf 3bfb abbe 645f b9c0
000002b0: b348 5040 f7d6 1840 1154 e1bf 5657 adc0
000002c0: 8bfb 3c40 f328 763e 13c6 9a40 7240 be40
000002d0: 39de 5240 e599 48c0 b048 47c0 e8d9 13c0
000002e0: 8fa8 10bf 7555 873f 3025 e2bf cdfd f6bf
000002f0: 985c de3f 2619 5ebf 4341 8fc0 0133 8bc0
00000300: 90bc 4d40 c91b 9140 e31d 0240 703c a9bf
00000310: a557 babf 627f 233e 8460 02bf 7165 a5bf
00000320: 4d37 5d40 6b6e d23f 833a 8140 d586 b8bf
00000330: a80f 3240 098a 66c0 8168 cdbf 5d77 a5bf
00000340: 6974 0f3f 95f4 1640 865c c440 e073 a2bf
00000350: af90 3a40 9e4e 84c0 4580 b2c0 b10e 7d3f
00000360: 5051 8040 49f2 e8c0 8dbf b4bf 7932 afc0
00000370: c5c3 1b40 418d bf40 3e8c 02bf 5dff b9c0
00000380: de80 0bc0 3fe6 89c0 0138 f13f 7e5e a540
00000390: 754a 46c0 d2e7 be3e 1f97 a740 c888 2340
000003a0: f383 a8c0 2d75 a8c0 f4c5 a43f 2f4e 8640
000003b0: f2bb ba40 66be 9abf 28ec 7740 3e46 4abe
000003c0: c4be 22c0 5847 54c0 0f41 f93f e2c4 bf3e
000003d0: f7f8 5a40 ae5e 8240 80d6 a0c0 3d15 0340
000003e0: cc10 c440 3e55 5640 1e6e 6b40 b2d0 81c0
000003f0: 350a 6cc0 5b2e 1740 c4a7 b940 a341 1ac0
5.1814137 -4.7947984 0.35809204 -2.3024216 -0.130235 4.1570573 -3.2753444 -3.4828582
0.85254216 10.404638 -6.59018 2.1833754 2.1617389 5.4023457 -3.1881545 -3.6297586
-2.5215883 -2.270289 -4.990363 0.12266093 5.9346204 -0.20356502 0.5175127 0.15463069
-0.24200554 4.489453 -7.4715886 1.9901373 -0.47017694 1.084678 1.1707577 1.8282807
-1.7831726 -3.2347517 0.23990938 7.7640314 -4.5896587 -0.0043650456 -11.413842 1.3741597
2.3672562 -0.4357991 0.24733907 0.6365521 4.283201 2.6946733 5.535247 0.98736835
-1.2168149 -1.3533227 6.0655828 2.7606552 0.93004084 -2.3764102 1.2236731 1.7309608
4.601966 -1.2914106 0.24007744 1.5040102 2.9573545 -3.5480468 0.32535347 2.7149494
-7.1304827 -0.43698397 3.3985085 -2.2335603 -0.838717 -6.334191 -1.68043 2.020578
1.2435077 2.9332592 -6.6785154 1.5334904 1.092923 10.599447 -1.6768273 4.6750927
-1.7534388 6.271713 -1.6427146 -1.8703218 3.7880116 -1.1130381 2.4287934 -2.8318388
-2.7482738 -1.0669278 3.419432 -1.3054729 -2.798029 -5.0998526 7.0703993 2.474722
-2.6566274 1.2714483 -3.3277712 7.032778 1.8632917 0.4303231 5.7686377 -0.8140413
-0.075760886 -4.73466 0.9403551 6.176883 3.375072 -9.2119 1.0607398 -2.5583777
-1.8752652 0.96369123 -4.0372477 4.377187 -0.011053234 3.838402 2.9201994 -0.66214097
-4.33452 -2.1936424 3.2144406 -1.8456132 -3.9315639 1.280395 -1.595972 -3.0676537
-1.8285207 -1.163019 1.271528 -1.650898 3.0795968 8.229335 -2.262094 0.31505674
-0.33212376 1.2012217 2.5575612 -2.3249147 -2.1698868 -5.011691 2.0961502 -0.77709377
-2.712014 1.8045518 -0.30111772 -2.1059413 -0.25652143 3.0206122 -4.271878 7.998658
-10.668596 -7.2566886 3.7912362 -13.535745 -1.2416881 -0.34210655 -0.6416538 2.678595
-0.8850789 -2.4050977 4.135968 -6.081816 -0.64750934 -8.659911 5.598805 -0.8626441
-2.3788583 -1.7148886 -0.3359011 -5.7928944 3.2544372 2.3881204 -1.760378 -5.416911
2.952853 0.24039058 4.836679 5.945367 3.2948134 -3.134393 -3.1138115 -2.310175
-0.565072 1.0572954 -1.7667599 -1.9296204 1.7372007 -0.86757123 -4.4767165 -4.349976
3.214634 4.5346417 2.0330741 -1.3221569 -1.4557997 0.15966561 -0.5092852 -1.2921582
3.4565003 1.6439947 4.0383925 -1.4416147 2.7822056 -3.602175 -1.6047517 -1.2927052
0.56037 2.358678 6.1362944 -1.2691612 2.9150808 -4.134597 -5.578158 0.9885054
4.009926 -7.279576 -1.4120957 -5.474911 2.4338238 5.985993 -0.5099524 -5.8124223
-2.1797404 -4.309356 1.8845216 5.1677847 -3.0982945 0.3728624 5.2371974 2.5552235
-5.266107 -5.2643037 1.287291 4.197044 5.8354425 -1.2089355 3.8737888 -0.19753358
-2.5428934 -3.3168545 1.9472979 0.37454897 3.4214456 4.0740576 -5.026184 2.0481713
6.1270504 3.3489528 3.678596 -4.0567255 -3.688123 2.3622043 5.801729 -2.4102561

bias f4 [3]
00000000: 0000 0000 0000 0000 0000 0000
0.0 0.0 0.0

_ei_mask f4 [3]
00000000: 0000 803f 0000 803f 0000 803f
1.0 1.0 1.0

weight f4 [3, 175]
00000000: 1840 043e 3390 95bd 1278 afbd a1d3 813d
00000010: aa8b adbe c2e1 8e3c 9d60 c9bd 144f a53d
00000020: 2315 823e 4759 ee3c 180e 30bd bef2 d5ba
00000030: bbc0 8bbe 6a72 a43c 14cd b7bd 6ad0 56be
00000040: 2996 c8bd 4df2 4c3d 5a04 b5bd 205d 4f3e
00000050: 4bd5 5fbb 134c d8bc fa81 e73b f710 c2bd
00000060: 67e1 6a3c 91e7 5e3e 9119 843e 8281 0b3e
00000070: 0283 2b3e 13f3 b4be ee15 533e 20db a8bd
00000080: 521d 003d ed07 f43e 3440 3cbe 9d2c f5bd
00000090: 6b81 0b3e a0ad d7bd 2170 813d 09cb 483e
000000a0: f1bc 2abe 1d32 c7bd fc16 7a3d 6a80 02bd
000000b0: ef02 06be f7fb bc3c 7266 86bc 9433 1cbe
000000c0: 6185 cabc 662a 64bd 1abf 49be 9f1e 48be
000000d0: 4d08 3ebd 9b27 103d bcac 9e3d 1980 96be
000000e0: 8385 1c3d d707 0dbe 1bae f03c 2b3b bbbc
000000f0: 743a cc3d 9a62 193c f341 97bd 9cb3 3dbe
00000100: d3d6 acbd 3e7b 033e b256 673d cf20 933c
00000110: afd7 9d3d f6ea 013d c8bf 0d3d 4d20 cebc
00000120: e846 15bb 4fb8 3fbe 1101 efbb fb30 10be
00000130: 293a 34be fd36 c53c d02d 33be 7cf5 babd
00000140: 0d47 8fbd f4e8 95bd 19be d7bd f0dc 20be
00000150: 455f dfbd 87c0 0f3c a717 40be d59f 07be
00000160: 17c2 dcbe 7fae 1f3e 9272 36bc a623 04bd
00000170: 113d 3ebe 9242 743d 4723 093e 152f 833d
00000180: 2daf ad3d e5cd b73d 61eb 5a3c 11ee 073e
00000190: 7771 513e 9dd8 9d3e 8dfe a5be 641c c4bd
000001a0: f49f 673c 399c 9cbe bb44 893e fe1d 10b9
000001b0: 1a9f 9fbd 6db5 fc3d 1682 79be e929 85bd
000001c0: cf60 3d3e f096 063d 9134 0c3e b924 873c
000001d0: 8841 533e 84e0 f63b 1e85 f63d 7ff6 523d
000001e0: ba71 063e fc9c 82bb d954 edbc 1dbc d3bd
000001f0: 670e f43d 2090 5abd ab82 583d 819b 0abc
00000200: c1b9 f33c 6350 233e 7d8d fc3c 84b4 e2bd
00000210: ca78 143e 0b81 863d df0f 63bd a095 3e3d
00000220: edd5 913d b16d f93c 1899 a7bd 3b64 083d
00000230: 1180 273d fdbb 6d3e 1ec4 923d 2138 1cbc
00000240: 60a2 c13c a351 523d 0662 3e3d a3b6 8f3a
00000250: f667 9c3d 3357 81bc e500 abba 9b6a 1a3d
00000260: 970d 0f3c 9072 083d 793e f3bd d60b b8bd
00000270: c7ba 983d ab55 40be 6a2d 413d 330b d13e
00000280: 0596 4f3d c506 373e 9fe1 da3e d265 163e
00000290: 6015 61bb 4e87 3cbe 6615 f1bd 1f1a e3bc
000002a0: ee3e 4d3d f278 f7bd 443f 1bbe 4845 93bb
000002b0: 09a3 af3b 1420 103e 7dd3 303d 12ba a7bd
000002c0: 4649 5d3d 50e6 82bd 4535 81be bfe6 55be
000002d0: b717 673c ce29 933d afca 843d 0c75 8e3e
000002e0: 6fd1 093e ca35 b83c 80f2 bb3d bd0c ffbc
000002f0: 19e2 4d3d ad26 9cbc e8b6 083d 24d5 00bd
00000300: 3ddd 8ebd 0421 acbc e15a 7a3e d207 40be
00000310: 90fa 41be 94e5 19bc 0b8b 70bd 48da f43d
00000320: 50c3 1b3e 0ed0 ce3e bf26 9bba ebbf c53d
00000330: 467c 8bbe a132 793c 7dbc 3a3e ba4c 183e
00000340: 826d e13e 31be 99be c4b1 11bd 786e 12be
00000350: e19b 30bd ff91 5a3e 636b 403e f772 e0bc
00000360: 45bd 17be 4f89 a5bb 2e53 b73d f8d8 853d
00000370: 4c0b 6c3d b0ca aabd 9e21 62bd 29bf 3a3d
00000380: 5b22 24bd d809 bb3d 3022 f83d d5ed 063d
00000390: f83e d7bd f306 72bd 0b41 5abc afe9 63bd
000003a0: 8c30 313e ab80 cdbd ecf6 843e 2289 a5bd
000003b0: b683 8cbd dadd f5bd f487 a1be b640 83bd
000003c0: 1cdb ad3d 9ab2 d13b 7cdb 043e b572 bfbc
000003d0: 3b92 203d 058f 56bd 2f95 90bc 61ed 8abc
000003e0: 7d39 1e3d 5d74 293b bf67 223d c14b aabb
000003f0: 1475 183b 1f80 233d 6366 3e3d 4a75 8bbd
0.12915075 -0.073028944 -0.085678235 0.06339193 -0.33895618 0.017441634 -0.09832881 0.080717236
0.2540675 0.029095305 -0.04298219 -0.0016322953 -0.2729548 0.020074088 -0.089746624 -0.20977941
-0.09794266 0.050035764 -0.088387206 0.20250368 -0.0034154232 -0.026403463 0.007065055 -0.09475892
0.014335967 0.21768023 0.25800756 0.13623622 0.16749194 -0.353417 0.20613834 -0.0824492
0.031277962 0.47662297 -0.18383867 -0.119714 0.13623588 -0.10531163 0.06320215 0.19608702
-0.16673638 -0.09726355 0.061057076 -0.031860746 -0.13087057 0.023069365 -0.016406272 -0.1525405
-0.024721803 -0.055704497 -0.19701806 -0.19542931 -0.046394635 0.03519402 0.0774779 -0.29394606
0.038213264 -0.13772522 0.029379895 -0.022855362 0.099720865 0.009361887 -0.07385626 -0.18525547
-0.08439412 0.12839982 0.056479163 0.01795998 0.07707154 0.031718217 0.034606725 -0.025161887
-0.002277786 -0.18722652 -0.0072938283 -0.14081185 -0.17600311 0.024074072 -0.17497945 -0.09128854
-0.06995974 -0.07319823 -0.10534305 -0.15709281 -0.10906843 0.008773929 -0.18759023 -0.13244565
-0.4311683 0.15593909 -0.011135714 -0.03226056 -0.18577982 0.0596338 0.13392363 0.064054646
0.08480678 0.08974818 0.013361783 0.13274409 0.2045344 0.30829325 -0.3242077 -0.095757276
0.014137257 -0.30587938 0.2681025 -0.00013744083 -0.07794018 0.12339292 -0.2436603 -0.06502134
0.18493961 0.03285879 0.13691927 0.016497003 0.20630467 0.0075340886 0.12037109 0.05150461
0.1312932 -0.003985999 -0.028971123 -0.10338614 0.119168095 -0.053360105 0.05285899 -0.008459927
0.02975166 0.15948634 0.030829186 -0.11069587 0.14499202 0.06567582 -0.055435058 0.046529412
0.07120881 0.030447813 -0.08183497 0.033298712 0.040893618 0.23216243 0.07166313 -0.009534867
0.023636997 0.051347386 0.0464802 0.0010964464 0.076370165 -0.01578865 -0.0013046531 0.037699323
0.008731267 0.03331238 -0.1187715 -0.089866325 0.074575 -0.1878268 0.04716245 0.40828857
0.05068018 0.17873676 0.4275026 0.14687279 -0.0034345016 -0.1841099 -0.117716596 -0.027722416
0.050108843 -0.12083615 -0.15160853 -0.004494343 0.0053600115 0.14074737 0.04317044 -0.08189787
0.054024957 -0.06391585 -0.25235954 -0.20888804 0.014104775 0.07185708 0.06483971 0.27823675
0.13458799 0.022486586 0.091771126 -0.031134004 0.05026445 -0.01906141 0.033377558 -0.031453267
-0.069757916 -0.021011837 0.2444873 -0.18752983 -0.18943238 -0.009393115 -0.05872635 0.11955696
0.15211225 0.40393108 -0.0011837109 0.09655746 -0.2724325 0.015209825 0.18235965 0.14873019
0.4402886 -0.30027917 -0.03556992 -0.14299953 -0.043117408 0.21344756 0.18790965 -0.02739857
-0.14818294 -0.005051769 0.08951412 0.06535524 0.05762796 -0.08339441 -0.05520784 0.04559246
-0.040071826 0.09132737 0.12115896 0.032941658 -0.10510057 -0.05908866 -0.0133211715 -0.05564278
0.17303675 -0.10034307 0.25969636 -0.08082797 -0.06861059 -0.120052055 -0.31549037 -0.06408827
0.084890574 0.006399465 0.12974352 -0.023370126 0.039201956 -0.052382488 -0.017649261 -0.016958894
0.038629044 0.0025856711 0.03964972 -0.005197019 0.0023263143 0.039917108 0.046484362 -0.068094805

bias f4 [175]
00000000: 0000 0000 0000 0000 0000 0000 0000 0000
00000010: 0000 0000 0000 0000 0000 0000 0000 0000
00000020: 0000 0000 0000 0000 0000 0000 0000 0000
00000030: 0000 0000 0000 0000 0000 0000 0000 0000
00000040: 0000 0000 0000 0000 0000 0000 0000 0000
00000050: 0000 0000 0000 0000 0000 0000 0000 0000
00000060: 0000 0000 0000 0000 0000 0000 0000 0000
00000070: 0000 0000 0000 0000 0000 0000 0000 0000
00000080: 0000 0000 0000 0000 0000 0000 0000 0000
00000090: 0000 0000 0000 0000 0000 0000 0000 0000
000000a0: 0000 0000 0000 0000 0000 0000 0000 0000
000000b0: 0000 0000 0000 0000 0000 0000 0000 0000
000000c0: 0000 0000 0000 0000 0000 0000 0000 0000
000000d0: 0000 0000 0000 0000 0000 0000 0000 0000
000000e0: 0000 0000 0000 0000 0000 0000 0000 0000
000000f0: 0000 0000 0000 0000 0000 0000 0000 0000
00000100: 0000 0000 0000 0000 0000 0000 0000 0000
00000110: 0000 0000 0000 0000 0000 0000 0000 0000
00000120: 0000 0000 0000 0000 0000 0000 0000 0000
00000130: 0000 0000 0000 0000 0000 0000 0000 0000
00000140: 0000 0000 0000 0000 0000 0000 0000 0000
00000150: 0000 0000 0000 0000 0000 0000 0000 0000
00000160: 0000 0000 0000 0000 0000 0000 0000 0000
00000170: 0000 0000 0000 0000 0000 0000 0000 0000
00000180: 0000 0000 0000 0000 0000 0000 0000 0000
00000190: 0000 0000 0000 0000 0000 0000 0000 0000
000001a0: 0000 0000 0000 0000 0000 0000 0000 0000
000001b0: 0000 0000 0000 0000 0000 0000 0000 0000
000001c0: 0000 0000 0000 0000 0000 0000 0000 0000
000001d0: 0000 0000 0000 0000 0000 0000 0000 0000
000001e0: 0000 0000 0000 0000 0000 0000 0000 0000
000001f0: 0000 0000 0000 0000 0000 0000 0000 0000
00000200: 0000 0000 0000 0000 0000 0000 0000 0000
00000210: 0000 0000 0000 0000 0000 0000 0000 0000
00000220: 0000 0000 0000 0000 0000 0000 0000 0000
00000230: 0000 0000 0000 0000 0000 0000 0000 0000
00000240: 0000 0000 0000 0000 0000 0000 0000 0000
00000250: 0000 0000 0000 0000 0000 0000 0000 0000
00000260: 0000 0000 0000 0000 0000 0000 0000 0000
00000270: 0000 0000 0000 0000 0000 0000 0000 0000
00000280: 0000 0000 0000 0000 0000 0000 0000 0000
00000290: 0000 0000 0000 0000 0000 0000 0000 0000
000002a0: 0000 0000 0000 0000 0000 0000 0000 0000
000002b0: 0000 0000 0000 0000 0000 0000
0.0 0.0 0.0 0.0 0.0 0.0 0.0 0.0
0.0 0.0 0.0 0.0 0.0 0.0 0.0 0.0
0.0 0.0 0.0 0.0 0.0 0.0 0.0 0.0
0.0 0.0 0.0 0.0 0.0 0.0 0.0 0.0
0.0 0.0 0.0 0.0 0.0 0.0 0.0 0.0
0.0 0.0 0.0 0.0 0.0 0.0 0.0 0.0
0.0 0.0 0.0 0.0 0.0 0.0 0.0 0.0
0.0 0.0 0.0 0.0 0.0 0.0 0.0 0.0
0.0 0.0 0.0 0.0 0.0 0.0 0.0 0.0
0.0 0.0 0.0 0.0 0.0 0.0 0.0 0.0
0.0 0.0 0.0 0.0 0.0 0.0 0.0 0.0
0.0 0.0 0.0 0.0 0.0 0.0 0.0 0.0
0.0 0.0 0.0 0.0 0.0 0.0 0.0 0.0
0.0 0.0 0.0 0.0 0.0 0.0 0.0 0.0
0.0 0.0 0.0 0.0 0.0 0.0 0.0 0.0
0.0 0.0 0.0 0.0 0.0 0.0 0.0 0.0
0.0 0.0 0.0 0.0 0.0 0.0 0.0 0.0
0.0 0.0 0.0 0.0 0.0 0.0 0.0 0.0
0.0 0.0 0.0 0.0 0.0 0.0 0.0 0.0
0.0 0.0 0.0 0.0 0.0 0.0 0.0 0.0
0.0 0.0 0.0 0.0 0.0 0.0 0.0 0.0
0.0 0.0 0.0 0.0 0.0 0.0 0.0

_ei_mask f4 [175]
00000000: 0000 803f 0000 803f 0000 803f 0000 803f
00000010: 0000 803f 0000 803f 0000 803f 0000 803f
00000020: 0000 803f 0000 803f 0000 803f 0000 803f
00000030: 0000 803f 0000 803f 0000 803f 0000 803f
00000040: 0000 803f 0000 803f 0000 803f 0000 803f
00000050: 0000 803f 0000 803f 0000 803f 0000 803f
00000060: 0000 803f 0000 803f 0000 803f 0000 803f
00000070: 0000 803f 0000 803f 0000 803f 0000 803f
00000080: 0000 803f 0000 803f 0000 803f 0000 803f
00000090: 0000 803f 0000 803f 0000 803f 0000 803f
000000a0: 0000 803f 0000 803f 0000 803f 0000 803f
000000b0: 0000 803f 0000 803f 0000 803f 0000 803f
000000c0: 0000 803f 0000 803f 0000 803f 0000 803f
000000d0: 0000 803f 0000 803f 0000 803f 0000 803f
000000e0: 0000 803f 0000 803f 0000 803f 0000 803f
000000f0: 0000 803f 0000 803f 0000 803f 0000 803f
00000100: 0000 803f 0000 803f 0000 803f 0000 803f
00000110: 0000 803f 0000 803f 0000 803f 0000 803f
00000120: 0000 803f 0000 803f 0000 803f 0000 803f
00000130: 0000 803f 0000 803f 0000 803f 0000 803f
00000140: 0000 803f 0000 803f 0000 803f 0000 803f
00000150: 0000 803f 0000 803f 0000 803f 0000 803f
00000160: 0000 803f 0000 803f 0000 803f 0000 803f
00000170: 0000 803f 0000 803f 0000 803f 0000 803f
00000180: 0000 803f 0000 803f 0000 803f 0000 803f
00000190: 0000 803f 0000 803f 0000 803f 0000 803f
000001a0: 0000 803f 0000 803f 0000 803f 0000 803f
000001b0: 0000 803f 0000 803f 0000 803f 0000 803f
000001c0: 0000 803f 0000 803f 0000 803f 0000 803f
000001d0: 0000 803f 0000 803f 0000 803f 0000 803f
000001e0: 0000 803f 0000 803f 0000 803f 0000 803f
000001f0: 0000 803f 0000 803f 0000 803f 0000 803f
00000200: 0000 803f 0000 803f 0000 803f 0000 803f
00000210: 0000 803f 0000 803f 0000 803f 0000 803f
00000220: 0000 803f 0000 803f 0000 803f 0000 803f
00000230: 0000 803f 0000 803f 0000 803f 0000 803f
00000240: 0000 803f 0000 803f 0000 803f 0000 803f
00000250: 0000 803f 0000 803f 0000 803f 0000 803f
00000260: 0000 803f 0000 803f 0000 803f 0000 803f
00000270: 0000 803f 0000 803f 0000 803f 0000 803f
00000280: 0000 803f 0000 803f 0000 803f 0000 803f
00000290: 0000 803f 0000 803f 0000 803f 0000 803f
000002a0: 0000 803f 0000 803f 0000 803f 0000 803f
000002b0: 0000 803f 0000 803f 0000 803f
1.0 1.0 1.0 1.0 1.0 1.0 1.0 1.0
1.0 1.0 1.0 1.0 1.0 1.0 1.0 1.0
1.0 1.0 1.0 1.0 1.0 1.0 1.0 1.0
1.0 1.0 1.0 1.0 1.0 1.0 1.0 1.0
1.0 1.0 1.0 1.0 1.0 1.0 1.0 1.0
1.0 1.0 1.0 1.0 1.0 1.0 1.0 1.0
1.0 1.0 1.0 1.0 1.0 1.0 1.0 1.0
1.0 1.0 1.0 1.0 1.0 1.0 1.0 1.0
1.0 1.0 1.0 1.0 1.0 1.0 1.0 1.0
1.0 1.0 1.0 1.0 1.0 1.0 1.0 1.0
1.0 1.0 1.0 1.0 1.0 1.0 1.0 1.0
1.0 1.0 1.0 1.0 1.0 1.0 1.0 1.0
1.0 1.0 1.0 1.0 1.0 1.0 1.0 1.0
1.0 1.0 1.0 1.0 1.0 1.0 1.0 1.0
1.0 1.0 1.0 1.0 1.0 1.0 1.0 1.0
1.0 1.0 1.0 1.0 1.0 1.0 1.0 1.0
1.0 1.0 1.0 1.0 1.0 1.0 1.0 1.0
1.0 1.0 1.0 1.0 1.0 1.0 1.0 1.0
1.0 1.0 1.0 1.0 1.0 1.0 1.0 1.0
1.0 1.0 1.0 1.0 1.0 1.0 1.0 1.0
1.0 1.0 1.0 1.0 1.0 1.0 1.0 1.0
1.0 1.0 1.0 1.0 1.0 1.0 1.0
