checkpoints/version47/model.pt (torch, 31278 bytes, 13 tensors)

bias f4 [175]
0	0x3f968cce	1.176172
1	0x40122552	2.2835279
2	0xbf1fd44e	-0.62433326
3	0x3fa767ea	1.3078587
4	0x3d09c7a2	0.03363765
5	0x3ff4b08a	1.9116375
6	0x3ffb20e9	1.9619418
7	0x4026b7b2	2.6049619
8	0x3fceb287	1.6148232
9	0x4040844b	3.0080745
10	0x3fac41c9	1.3457576
11	0x3fc52f8a	1.5405133
12	0x3e1eb393	0.1549819
13	0xbde59e6e	-0.11211859
14	0x3cb4ecbf	0.022085546
15	0x400c3cde	2.191215
16	0xbd4f3a35	-0.05059262
17	0xbd8182dd	-0.06323788
18	0xbd086073	-0.033295106
19	0x403225db	2.7835605
20	0x3e96d8d4	0.29462302
21	0x3fb9538d	1.4478623
22	0x3fc860b6	1.5654514
23	0xbecda7bb	-0.4016703
24	0xbfe612e2	-1.7974513
25	0x405b7288	3.4288654
26	0x3f7ac828	0.97961664
27	0x3fb524ce	1.4151857
28	0x3f833359	1.0250045
29	0x40261846	2.5952315
30	0x3f033075	0.51245815
31	0x3d22dead	0.03976314
32	0x3f9a9e35	1.2079531
33	0x3d908341	0.07056285
34	0x3f1ffa14	0.62490964
35	0x406f0667	3.7347658
36	0x3f33ec19	0.7028213
37	0x3f8bcfcc	1.092279
38	0x3fe76d7a	1.8080285
39	0x3fb76fce	1.4330995
40	0x400b97c5	2.1811383
41	0x3fc3e488	1.5304117
42	0x3e4a4b5b	0.19755308
43	0x3ec60369	0.38674477
44	0x3fcc6935	1.5969607
45	0xbe487742	-0.19576743
46	0x3ef50f65	0.47863308
47	0x3e370afc	0.17875284
48	0x3ea3e169	0.32007912
49	0x3e98c7df	0.2983999
50	0x3f0d73da	0.552549
51	0x3f02495a	0.50893176
52	0x3f85db80	1.0457611
53	0x3e60a4b3	0.21937828
54	0x3e72cd8b	0.23711221
55	0x3fa5b1d3	1.2944893
56	0xbec05f5d	-0.37572756
57	0x3f318994	0.6935055
58	0x3e2905de	0.16506144
59	0xbebb7f45	-0.36620536
60	0xbda8a0fd	-0.08233831
61	0x3d5ed509	0.054402385
62	0x3f387240	0.7204933
63	0x3f34ba39	0.70596653
64	0x3d95f4c7	0.07322078
65	0x3ea9d956	0.33173627
66	0xbbad5d79	-0.005290684
67	0x3eb55136	0.35413522
68	0x3f2756f0	0.6536703
69	0x3fd1bb3c	1.6385264
70	0xbeae3382	-0.34023672
71	0x3f984c7f	1.1898345
72	0x3fab4901	1.3381654
73	0x3f60bc0c	0.87786937
74	0x3f92de7d	1.1474148
75	0x3f7dc0d8	0.9912238
76	0x3fabfd3a	1.3436654
77	0x3fc2b118	1.5210295
78	0x3fc2d76c	1.5221992
79	0x400a0e43	2.1571205
80	0x3faa1e65	1.3290526
81	0x3ff9f8d3	1.952906
82	0x3f7c7f72	0.98631966
83	0x40297128	2.6475315
84	0x3faecdc5	1.3656546
85	0x3f9ee65b	1.2414049
86	0x403d618f	2.9590795
87	0x405b8a7e	3.430328
88	0x3fbecfae	1.4907129
89	0x3f857a35	1.042792
90	0x3f870ffb	1.0551752
91	0xbed3bef7	-0.41356632
92	0x405cba75	3.4488804
93	0xbd45b201	-0.04826546
94	0x3f75cd35	0.96016246
95	0x3ebf03f9	0.37307718
96	0x406163b8	3.5217113
97	0x3ed247e9	0.41070488
98	0xbf3938e1	-0.72352415
99	0x3e02cc05	0.1277314
100	0x401436c9	2.3158438
101	0x3f6dea72	0.9293586
102	0x3fbdad5b	1.4818529
103	0x3feb5162	1.8384211
104	0x3f7ab784	0.9793627
105	0x400ad55d	2.1692727
106	0x3fc039b1	1.5017606
107	0x3fc0eb5c	1.5071826
108	0x3fc90ab4	1.5706391
109	0x40007d27	2.0076387
110	0x3f82d5a8	1.0221453
111	0xbe9b0805	-0.30279556
112	0x3db01e13	0.08599486
113	0x401054cb	2.2551754
114	0x3f982caa	1.188863
115	0x40124d50	2.2859688
116	0x3e1e998d	0.15488262
117	0x4011379a	2.2690187
118	0x3fec8eea	1.8481114
119	0x40060aa5	2.0943997
120	0x4025b802	2.589356
121	0x3fdd5d37	1.7294072
122	0x40053638	2.0814342
123	0x401231a9	2.284281
124	0x4029e558	2.654623
125	0x3fae4c69	1.3617069
126	0x3e224ac5	0.15848835
127	0xbd8e4682	-0.06947042
128	0x3f5b00ef	0.855483
129	0x3fb4d564	1.4127622
130	0x3e90ebac	0.28304803
131	0x3e463a73	0.19358234
132	0xbd7b1b9c	-0.061305627
133	0x40001ed3	2.0018814
134	0x3fb553a0	1.4166145
135	0x3d8919dc	0.066943854
136	0xbd5badf4	-0.05363269
137	0x3fb488dc	1.4104266
138	0x3f0b268b	0.54355687
139	0x3f7a737e	0.9783248
140	0x3f23e0e4	0.6401503
141	0x3ecde066	0.40210265
142	0x3f929123	1.1450542
143	0x3eafd28e	0.34340328
144	0xbdcf4645	-0.10120825
145	0x3fcb1adf	1.5867575
146	0x3fa9ea29	1.3274585
147	0x3fa13570	1.2594433
148	0x3f25a6a6	0.6470741
149	0xbddeb978	-0.10875219
150	0x3e84efae	0.2596411
151	0xbdc11105	-0.09427074
152	0x3fd74046	1.681649
153	0x3f75e958	0.9605918
154	0x4045bda8	3.0897007
155	0x400362f2	2.0529141
156	0x3f9090c3	1.1294178
157	0x405a9a0b	3.415652
158	0x3e98202b	0.29712042
159	0x3ea775d8	0.32707095
160	0x3f60659b	0.8765504
161	0xbf780656	-0.9688467
162	0x3f101507	0.56282085
163	0x3f95b3af	1.169546
164	0x3fc77727	1.5583237
165	0x40324cd0	2.7859383
166	0x3f5a3164	0.85231614
167	0x3fabd3b6	1.3423984
168	0x3f6ae87a	0.9176098
169	0x3feee8b9	1.8664771
170	0x4001b5b9	2.0267165
171	0x3fc70a52	1.5550025
172	0x3f96b646	1.1774375
173	0x3edf47eb	0.43609557
174	0x3ea1540c	0.31509435

weight f4 [9, 175]
0	0x3db1cd76	0.08681767
1	0x3f653b7e	0.895439
2	0x3dfa5304	0.12222865
3	0x3cc5d483	0.024149185
4	0x3e2955a2	0.16536573
5	0x3f7b5049	0.9816938
6	0x3f60d24e	0.878209
7	0x3f8bcd53	1.0922035
8	0x3fbd5615	1.4791895
9	0x3f9d3bc0	1.2283859
10	0x3f633d9e	0.88765895
11	0x3f894ed3	1.072718
12	0xbcdc04ee	-0.02685782
13	0x3f475aec	0.7787311
14	0x3e635b14	0.22202712
15	0x3f0838ad	0.5321148
16	0x3eaeed85	0.34165588
17	0x3ec30175	0.3808705
18	0x3eed7abc	0.463827
19	0x3fa36832	1.2766173
20	0x3c1cf58f	0.00958003
21	0x3f48b17c	0.7839582
22	0x3f5c482e	0.8604764
23	0xbc07d317	-0.008290074
24	0x3fd53f20	1.6659889
25	0x3f90b325	1.130467
26	0x3fead6f4	1.8346848
27	0x3f422e57	0.7585196
28	0x3f078812	0.52942
29	0x3b4e64e3	0.0031493239
30	0x3f99c124	1.2012067
31	0x3f34a731	0.70567614
32	0x3f84ef8b	1.0385603
33	0x3ff113e7	1.8834199
34	0x3ca6821d	0.020325715
35	0x3ecbc877	0.3980138
36	0x3f0e55ec	0.55599856
37	0x3f00e3de	0.503477
38	0x3f70621f	0.9389972
39	0x3f96230c	1.1729445
40	0x3f3b73a8	0.7322335
41	0xbd50d99f	-0.05098879
42	0x3f707f74	0.9394448
43	0x3f4aee41	0.79269797
44	0x3f03e1dc	0.5151651
45	0x3f40aa17	0.75259537
46	0x3e152700	0.14565659
47	0xbccf174c	-0.025279664
48	0x3c59646f	0.013268574
49	0x3e09bf2e	0.13451836
50	0x3eeb24d6	0.4592654
51	0x3f1a0740	0.6016731
52	0x3f172a20	0.5904865
53	0x3efd5b58	0.49483752
54	0x3f08e3aa	0.5347239
55	0x3df7ee95	0.12106053
56	0xbb9912db	-0.004671437
57	0x3f89db7c	1.0770106
58	0x3f08510d	0.53248674
59	0x3f746212	0.95462143
60	0x3f20c9e8	0.62808084
61	0x3f10f073	0.56616896
62	0xba18daef	-0.00058309635
63	0xbc791804	-0.01520348
64	0xbb6cc1f7	-0.0036126354
65	0x3f5258ae	0.82166564
66	0x3ef82783	0.48467645
67	0x3f7b23fa	0.9810177
68	0x3e6450f3	0.22296505
69	0x3f584ae4	0.84489274
70	0x3ee63553	0.44962558
71	0x3e9f3d90	0.31101656
72	0x3f2ee9a0	0.68325233
73	0x3f065fe9	0.524901
74	0x3f27a94a	0.6549269
75	0x3f18ffd1	0.59765345
76	0x3f0b1915	0.5433515
77	0x3f34af37	0.70579857
78	0x3ed27d85	0.4111139
79	0x3f1826f8	0.5943446
80	0x3edc662c	0.430467
81	0x3f428fb5	0.7600053
82	0x3f42b70a	0.76060545
83	0x3f5af803	0.85534686
84	0x3eecd5f9	0.46256998
85	0x3eee846d	0.46585408
86	0x3f6cae39	0.9245334
87	0x3f4e93a1	0.80694014
88	0x3debab16	0.115072414
89	0x3f7536b6	0.9578661
90	0x3f24cf4b	0.64378804
91	0x3efb8cfb	0.49130997
92	0x3df9af7d	0.12191675
93	0x3ef7f465	0.48428646
94	0x3f6f9f48	0.9360242
95	0x3f537ca6	0.82612073
96	0x3fa62afa	1.2981865
97	0x3f469f58	0.7758689
98	0x3f33bf02	0.7021333
99	0x3fa79e02	1.3095095
100	0x3fa0c90d	1.2561356
101	0x3fda373e	1.7048109
102	0x3c258508	0.010102518
103	0x3e377313	0.17914991
104	0x3e66a844	0.22525126
105	0x3d781222	0.060564168
106	0x3fdb0f0d	1.7113968
107	0x3f5140c1	0.8173943
108	0x3f365929	0.712298
109	0x3f851229	1.0396167
110	0x3e857d20	0.26072025
111	0xbd2b6376	-0.0418429
112	0x3f90eb76	1.1321857
113	0x3f9a0aea	1.2034581
114	0x3f8b0bf1	1.0863019
115	0x3f9bfae7	1.2185944
116	0x3faaa12c	1.3330436
117	0x3f56fec9	0.8398252
118	0x3f871fb5	1.0556551
119	0x3f879202	1.0591433
120	0x3f8f59ae	1.1199243
121	0x3f66bc2f	0.90130895
122	0x3f66e051	0.9018603
123	0x3f36ba65	0.71378165
124	0x3f9405b6	1.1564243
125	0x3eec7db8	0.46189666
126	0x3f21e8e9	0.6324602
127	0x3d8d600e	0.069030866
128	0x3f1d3ca5	0.6142066
129	0x3f7aed08	0.9801793
130	0x3f960ff7	1.1723622
131	0x3b46370e	0.0030245217
132	0x3fb20f37	1.3910893
133	0x3f53a69b	0.82676095
134	0x3d5b0520	0.053471684
135	0x3f3dfe0b	0.74215764
136	0x3ede7b05	0.4345323
137	0x3f345365	0.7043975
138	0x3e82ad4b	0.25522837
139	0x3f09fbef	0.53900045
140	0x3f5c1c76	0.8598093
141	0x3f7fb5e2	0.99886906
142	0x3f286510	0.6577921
143	0x3e2c297b	0.16812699
144	0x3eb6e3a2	0.35720545
145	0x3fa4a116	1.286166
146	0x3eee207a	0.46509153
147	0x3f066676	0.52500093
148	0x3e963546	0.2933752
149	0x3ef576d8	0.47942233
150	0x3f01f9aa	0.5077158
151	0x3eee0baa	0.46493274
152	0x3f449ecb	0.768048
153	0x3f0afb8e	0.5429009
154	0x3f5c269b	0.8599641
155	0x3f5a32bb	0.8523366
156	0x3f54f008	0.8317876
157	0x3f84754d	1.0348297
158	0x3f235a62	0.6380979
159	0x3fc3197b	1.5242151
160	0x3f1ec8a5	0.6202491
161	0x3f4bad6b	0.7956149
162	0x3fb564f1	1.417143
163	0x3f9be9d3	1.2180732
164	0x3f26d9e8	0.6517625
165	0x3f174b1b	0.59098977
166	0x3eb0c1e4	0.34522927
167	0x3f265a50	0.64981556
168	0x3f432767	0.76232
169	0x3f12b6ea	0.57310355
170	0x3e0b132a	0.1358153
171	0x3f2c7692	0.67368424
172	0x3f3b085d	0.73059636
173	0x3f8d2d23	1.10294
174	0x3f00ac60	0.50263023
175	0x3f119ffd	0.5688475
176	0x3f7a482c	0.97766376
177	0x3f7ff922	0.9998952
178	0x3f29edd3	0.66378516
179	0x3ff778d5	1.933375
180	0x3f43c690	0.7647486
181	0x3f611f58	0.8793845
182	0x3f683059	0.9069877
183	0x3cb30536	0.02185307
184	0x3f599a78	0.85001326
185	0x3eeb240f	0.45925948
186	0x3e6166b2	0.22011831
187	0x3fac1c07	1.3446053
188	0x3b4098c9	0.0029387942
189	0x3d647a8c	0.055780932
190	0x3f96e890	1.1789722
191	0xbd863c1b	-0.06554433
192	0x3cf38b5b	0.029729536
193	0xbd47fb2f	-0.04882353
194	0x3f4670d1	0.77515894
195	0x3f845ecf	1.0341433
196	0x3ed10f86	0.40832156
197	0x3f2693ee	0.6506947
198	0x3edf7d29	0.43650177
199	0x3bba4eae	0.005685649
200	0x3f2b2264	0.6684935
201	0xbd4528c3	-0.048134577
202	0x3f3bdd5e	0.73384655
203	0x3f18a0bd	0.5962027
204	0x3fef0e3f	1.8676223
205	0x3c92c415	0.017915765
206	0xbbc6fe36	-0.006072785
207	0x3e88fbb7	0.26754543
208	0x3d131066	0.03590431
209	0x3fcc72b7	1.5972508
210	0x3fb23adb	1.3924211
211	0x3ea71087	0.32629797
212	0x3f1b0aa9	0.6056314
213	0xbe01e102	-0.1268349
214	0x3e442579	0.1915492
215	0x3f8d4259	1.1035873
216	0x3f2d4708	0.6768651
217	0x3ca91a37	0.020642383
218	0x3df38a86	0.118916556
219	0x3f76d137	0.96412987
220	0x3c667f1a	0.014068389
221	0x3f3922a1	0.72318465
222	0x3f4a982a	0.79138434
223	0x3f29eb2f	0.66374487
224	0x3f495ce6	0.78657377
225	0x3e8abf65	0.27099147
226	0x3e8e052b	0.27738318
227	0x3f2a7d43	0.66597384
228	0xbc61ff89	-0.0137938345
229	0x3d246995	0.040139753
230	0x3f2acc03	0.6671755
231	0x3f6e0bdf	0.92986864
232	0xbc89a818	-0.016803786
233	0x3d5e738c	0.054309413
234	0xbd34a99f	-0.044107076
235	0x3dc16f85	0.09445099
236	0x3dc9a1bb	0.09845301
237	0x3f5952f8	0.84892225
238	0x3fc23a60	1.5174065
239	0x3f898846	1.0744712
240	0xbcf9719f	-0.030449687
241	0xbc9766e7	-0.018481685
242	0xbb2ff1bf	-0.0026846973
243	0x3f02efe1	0.51147276
244	0x3f2713d8	0.65264654
245	0xbda8b328	-0.08237296
246	0x3d618dc5	0.055066843
247	0x3f28c13b	0.65919846
248	0x3f366ce5	0.7125991
249	0x3f192ed9	0.5983711
250	0x3f19c31f	0.60063356
251	0x3f6e30f9	0.93043476
252	0x3f1d8f48	0.61546755
253	0x3f48094e	0.781392
254	0x3f13654f	0.5757646
255	0x3f5f789b	0.87293404

bias f4 [175]
0	0x00000000	0.0
1	0x00000000	0.0
2	0x00000000	0.0
3	0x00000000	0.0
4	0x00000000	0.0
5	0x00000000	0.0
6	0x00000000	0.0
7	0x00000000	0.0
8	0x00000000	0.0
9	0x00000000	0.0
10	0x00000000	0.0
11	0x00000000	0.0
12	0x00000000	0.0
13	0x00000000	0.0
14	0x00000000	0.0
15	0x00000000	0.0
16	0x00000000	0.0
17	0x00000000	0.0
18	0x00000000	0.0
19	0x00000000	0.0
20	0x00000000	0.0
21	0x00000000	0.0
22	0x00000000	0.0
23	0x00000000	0.0
24	0x00000000	0.0
25	0x00000000	0.0
26	0x00000000	0.0
27	0x00000000	0.0
28	0x00000000	0.0
29	0x00000000	0.0
30	0x00000000	0.0
31	0x00000000	0.0
32	0x00000000	0.0
33	0x00000000	0.0
34	0x00000000	0.0
35	0x00000000	0.0
36	0x00000000	0.0
37	0x00000000	0.0
38	0x00000000	0.0
39	0x00000000	0.0
40	0x00000000	0.0
41	0x00000000	0.0
42	0x00000000	0.0
43	0x00000000	0.0
44	0x00000000	0.0
45	0x00000000	0.0
46	0x00000000	0.0
47	0x00000000	0.0
48	0x00000000	0.0
49	0x00000000	0.0
50	0x00000000	0.0
51	0x00000000	0.0
52	0x00000000	0.0
53	0x00000000	0.0
54	0x00000000	0.0
55	0x00000000	0.0
56	0x00000000	0.0
57	0x00000000	0.0
58	0x00000000	0.0
59	0x00000000	0.0
60	0x00000000	0.0
61	0x00000000	0.0
62	0x00000000	0.0
63	0x00000000	0.0
64	0x00000000	0.0
65	0x00000000	0.0
66	0x00000000	0.0
67	0x00000000	0.0
68	0x00000000	0.0
69	0x00000000	0.0
70	0x00000000	0.0
71	0x00000000	0.0
72	0x00000000	0.0
73	0x00000000	0.0
74	0x00000000	0.0
75	0x00000000	0.0
76	0x00000000	0.0
77	0x00000000	0.0
78	0x00000000	0.0
79	0x00000000	0.0
80	0x00000000	0.0
81	0x00000000	0.0
82	0x00000000	0.0
83	0x00000000	0.0
84	0x00000000	0.0
85	0x00000000	0.0
86	0x00000000	0.0
87	0x00000000	0.0
88	0x00000000	0.0
89	0x00000000	0.0
90	0x00000000	0.0
91	0x00000000	0.0
92	0x00000000	0.0
93	0x00000000	0.0
94	0x00000000	0.0
95	0x00000000	0.0
96	0x00000000	0.0
97	0x00000000	0.0
98	0x00000000	0.0
99	0x00000000	0.0
100	0x00000000	0.0
101	0x00000000	0.0
102	0x00000000	0.0
103	0x00000000	0.0
104	0x00000000	0.0
105	0x00000000	0.0
106	0x00000000	0.0
107	0x00000000	0.0
108	0x00000000	0.0
109	0x00000000	0.0
110	0x00000000	0.0
111	0x00000000	0.0
112	0x00000000	0.0
113	0x00000000	0.0
114	0x00000000	0.0
115	0x00000000	0.0
116	0x00000000	0.0
117	0x00000000	0.0
118	0x00000000	0.0
119	0x00000000	0.0
120	0x00000000	0.0
121	0x00000000	0.0
122	0x00000000	0.0
123	0x00000000	0.0
124	0x00000000	0.0
125	0x00000000	0.0
126	0x00000000	0.0
127	0x00000000	0.0
128	0x00000000	0.0
129	0x00000000	0.0
130	0x00000000	0.0
131	0x00000000	0.0
132	0x00000000	0.0
133	0x00000000	0.0
134	0x00000000	0.0
135	0x00000000	0.0
136	0x00000000	0.0
137	0x00000000	0.0
138	0x00000000	0.0
139	0x00000000	0.0
140	0x00000000	0.0
141	0x00000000	0.0
142	0x00000000	0.0
143	0x00000000	0.0
144	0x00000000	0.0
145	0x00000000	0.0
146	0x00000000	0.0
147	0x00000000	0.0
148	0x00000000	0.0
149	0x00000000	0.0
150	0x00000000	0.0
151	0x00000000	0.0
152	0x00000000	0.0
153	0x00000000	0.0
154	0x00000000	0.0
155	0x00000000	0.0
156	0x00000000	0.0
157	0x00000000	0.0
158	0x00000000	0.0
159	0x00000000	0.0
160	0x00000000	0.0
161	0x00000000	0.0
162	0x00000000	0.0
163	0x00000000	0.0
164	0x00000000	0.0
165	0x00000000	0.0
166	0x00000000	0.0
167	0x00000000	0.0
168	0x00000000	0.0
169	0x00000000	0.0
170	0x00000000	0.0
171	0x00000000	0.0
172	0x00000000	0.0
173	0x00000000	0.0
174	0x00000000	0.0

_ei_mask f4 [175]
0	0x3f800000	1.0
1	0x3f800000	1.0
2	0x3f800000	1.0
3	0x3f800000	1.0
4	0x3f800000	1.0
5	0x3f800000	1.0
6	0x3f800000	1.0
7	0x3f800000	1.0
8	0x3f800000	1.0
9	0x3f800000	1.0
10	0x3f800000	1.0
11	0x3f800000	1.0
12	0x3f800000	1.0
13	0x3f800000	1.0
14	0x3f800000	1.0
15	0x3f800000	1.0
16	0x3f800000	1.0
17	0x3f800000	1.0
18	0x3f800000	1.0
19	0x3f800000	1.0
20	0x3f800000	1.0
21	0x3f800000	1.0
22	0x3f800000	1.0
23	0x3f800000	1.0
24	0x3f800000	1.0
25	0x3f800000	1.0
26	0x3f800000	1.0
27	0x3f800000	1.0
28	0x3f800000	1.0
29	0x3f800000	1.0
30	0x3f800000	1.0
31	0x3f800000	1.0
32	0x3f800000	1.0
33	0x3f800000	1.0
34	0x3f800000	1.0
35	0x3f800000	1.0
36	0x3f800000	1.0
37	0x3f800000	1.0
38	0x3f800000	1.0
39	0x3f800000	1.0
40	0x3f800000	1.0
41	0x3f800000	1.0
42	0x3f800000	1.0
43	0x3f800000	1.0
44	0x3f800000	1.0
45	0x3f800000	1.0
46	0x3f800000	1.0
47	0x3f800000	1.0
48	0x3f800000	1.0
49	0x3f800000	1.0
50	0x3f800000	1.0
51	0x3f800000	1.0
52	0x3f800000	1.0
53	0x3f800000	1.0
54	0x3f800000	1.0
55	0x3f800000	1.0
56	0x3f800000	1.0
57	0x3f800000	1.0
58	0x3f800000	1.0
59	0x3f800000	1.0
60	0x3f800000	1.0
61	0x3f800000	1.0
62	0x3f800000	1.0
63	0x3f800000	1.0
64	0x3f800000	1.0
65	0x3f800000	1.0
66	0x3f800000	1.0
67	0x3f800000	1.0
68	0x3f800000	1.0
69	0x3f800000	1.0
70	0x3f800000	1.0
71	0x3f800000	1.0
72	0x3f800000	1.0
73	0x3f800000	1.0
74	0x3f800000	1.0
75	0x3f800000	1.0
76	0x3f800000	1.0
77	0x3f800000	1.0
78	0x3f800000	1.0
79	0x3f800000	1.0
80	0x3f800000	1.0
81	0x3f800000	1.0
82	0x3f800000	1.0
83	0x3f800000	1.0
84	0x3f800000	1.0
85	0x3f800000	1.0
86	0x3f800000	1.0
87	0x3f800000	1.0
88	0x3f800000	1.0
89	0x3f800000	1.0
90	0x3f800000	1.0
91	0x3f800000	1.0
92	0x3f800000	1.0
93	0x3f800000	1.0
94	0x3f800000	1.0
95	0x3f800000	1.0
96	0x3f800000	1.0
97	0x3f800000	1.0
98	0x3f800000	1.0
99	0x3f800000	1.0
100	0x3f800000	1.0
101	0x3f800000	1.0
102	0x3f800000	1.0
103	0x3f800000	1.0
104	0x3f800000	1.0
105	0x3f800000	1.0
106	0x3f800000	1.0
107	0x3f800000	1.0
108	0x3f800000	1.0
109	0x3f800000	1.0
110	0x3f800000	1.0
111	0x3f800000	1.0
112	0x3f800000	1.0
113	0x3f800000	1.0
114	0x3f800000	1.0
115	0x3f800000	1.0
116	0x3f800000	1.0
117	0x3f800000	1.0
118	0x3f800000	1.0
119	0x3f800000	1.0
120	0x3f800000	1.0
121	0x3f800000	1.0
122	0x3f800000	1.0
123	0x3f800000	1.0
124	0x3f800000	1.0
125	0x3f800000	1.0
126	0x3f800000	1.0
127	0x3f800000	1.0
128	0x3f800000	1.0
129	0x3f800000	1.0
130	0x3f800000	1.0
131	0x3f800000	1.0
132	0x3f800000	1.0
133	0x3f800000	1.0
134	0x3f800000	1.0
135	0x3f800000	1.0
136	0x3f800000	1.0
137	0x3f800000	1.0
138	0x3f800000	1.0
139	0x3f800000	1.0
140	0x3f800000	1.0
141	0x3f800000	1.0
142	0x3f800000	1.0
143	0x3f800000	1.0
144	0x3f800000	1.0
145	0x3f800000	1.0
146	0x3f800000	1.0
147	0x3f800000	1.0
148	0x3f800000	1.0
149	0x3f800000	1.0
150	0x3f800000	1.0
151	0x3f800000	1.0
152	0x3f800000	1.0
153	0x3f800000	1.0
154	0x3f800000	1.0
155	0x3f800000	1.0
156	0x3f800000	1.0
157	0x3f800000	1.0
158	0x3f800000	1.0
159	0x3f800000	1.0
160	0x3f800000	1.0
161	0x3f800000	1.0
162	0x3f800000	1.0
163	0x3f800000	1.0
164	0x3f800000	1.0
165	0x3f800000	1.0
166	0x3f800000	1.0
167	0x3f800000	1.0
168	0x3f800000	1.0
169	0x3f800000	1.0
170	0x3f800000	1.0
171	0x3f800000	1.0
172	0x3f800000	1.0
173	0x3f800000	1.0
174	0x3f800000	1.0

weight f4 [2, 175]
0	0x3f86bf1f	1.0527076
1	0xbe39fda5	-0.18163164
2	0x3c8a57d8	0.01688759
3	0x3e89a4fa	0.2688368
4	0x3efabd81	0.48972705
5	0x3d3f05ff	0.046636578
6	0x3e6790b6	0.22613797
7	0x3f2c7758	0.67369604
8	0x3ebf1065	0.37317196
9	0x3f37223d	0.7153662
10	0xbea01779	-0.31267908
11	0x3d70d864	0.058800116
12	0xbf287636	-0.65805376
13	0x3e834d24	0.2564479
14	0xbb92899b	-0.0044719703
15	0x3dd53d94	0.10412136
16	0x3d9036b6	0.07041685
17	0x3c5e5266	0.01356945
18	0x3c08d5b3	0.008351731
19	0x3ecafb76	0.39644974
20	0x3e2bc35f	0.16773747
21	0xbeafc473	-0.34329566
22	0x3db57047	0.08859306
23	0xbca57b01	-0.020200254
24	0x3fbce3bd	1.4757
25	0x3f492182	0.78566754
26	0xbc162af0	-0.009165511
27	0xbed1118c	-0.408337
28	0xbed0cd62	-0.40781695
29	0xbe891780	-0.26775742
30	0x3ed3dab4	0.41377795
31	0xbd4e328e	-0.05034118
32	0xbcf6bdae	-0.030119743
33	0x3f2229ed	0.63345224
34	0x3e8e83ec	0.27835023
35	0x3e91a1ef	0.28443858
36	0x3d1b11db	0.037858825
37	0xbe267efe	-0.16259381
38	0x3ebf31ca	0.37342674
39	0xbcbdaaf0	-0.023152798
40	0x3f36d58f	0.71419615
41	0x3ea09de5	0.31370464
42	0x3ecaea63	0.39631948
43	0xbee88e84	-0.4542123
44	0x3eaeda85	0.34151092
45	0xbf12f50d	-0.5740517
46	0x3cd38a24	0.025822707
47	0xbb97ee7a	-0.004636583
48	0x3e598657	0.21242653
49	0x3f20f1fe	0.6286925
50	0x3dd34a76	0.10316937
51	0x3e2f0fe2	0.17095903
52	0x3ea7b773	0.32757148
53	0x3e1ce048	0.15319932
54	0x3e1bfb2c	0.15232533
55	0xbf4448cc	-0.7667358
56	0x3da799bf	0.081836216
57	0xbd9a6d28	-0.07540351
58	0x3e812805	0.25225845
59	0x3f47cab7	0.78043693
60	0x3e175373	0.14777927
61	0xbcedd386	-0.029031526
62	0x3ea9721c	0.3309487
63	0xbf09e34d	-0.5386246
64	0xbe7b0d10	-0.24516702
65	0x3cf24da5	0.02957804
66	0xbe5ec7c7	-0.21755897
67	0xbe87fbd0	-0.26559305
68	0x3d794378	0.06085536
69	0x3e3754b5	0.17903407
70	0xbdc7a7fa	-0.09748836
71	0x3d31e57b	0.04343174
72	0x3d933cac	0.071893066
73	0xbe9eafb1	-0.30993417
74	0x3c323309	0.010876426
75	0xbe4c8ee8	-0.1997639
76	0xbe7144b7	-0.23561369
77	0xbaec4b91	-0.0018027892
78	0xbe16826d	-0.14698191
79	0x3e9a0cd7	0.3008792
80	0x3d43ff4d	0.047850896
81	0x3e00c395	0.12574609
82	0xbebefb0c	-0.3730091
83	0x3d167e9a	0.03674183
84	0xbe71ba6d	-0.23606272
85	0x3d72b06c	0.05925028
86	0x3cca002d	0.024658287
87	0x3c81a060	0.015823543
88	0xbe307986	-0.17233858
89	0x3e48327c	0.19550508
90	0x3eca52f1	0.39516404
91	0x3e409243	0.18805794
92	0x3d99e8d9	0.07515115
93	0x3dfcc183	0.12341597
94	0x3e81c8d6	0.25348538
95	0x3e4ff7a9	0.20309319
96	0xbe3ca75e	-0.1842322
97	0x3dde145f	0.10843729
98	0x3e4b9cca	0.19884029
99	0x3ccf0b66	0.02527399
100	0xbee5e615	-0.449021
101	0xbeab9625	-0.3351299
102	0xbd2e295f	-0.042519923
103	0xbe487fa6	-0.19579944
104	0x3d5ebeb7	0.0543811
105	0xbd0b7b2e	-0.03405302
106	0xbe02db8c	-0.12779063
107	0x3e2ff1d2	0.17182091
108	0xbed3bb1d	-0.41353694
109	0x3e2d8b89	0.1694776
110	0xbe859a44	-0.26094258
111	0x3b744ccb	0.0037277217
112	0x3da270f9	0.07931704
113	0xbd06a55d	-0.032872546
114	0xbe8db526	-0.27677268
115	0x3e9a145e	0.30093664
116	0x3d5fd3c4	0.054645315
117	0xbf3b65ee	-0.7320241
118	0x3ef41b2f	0.4767699
119	0x3e05de4d	0.13073082
120	0xbddab305	-0.106786765
121	0x3e8a05c5	0.26957527
122	0xbdfaa91b	-0.122392856
123	0xbcfb145e	-0.03064936
124	0xbe4af43b	-0.19819729
125	0x3ddec069	0.10876543
126	0xb80f4f84	-3.416791e-05
127	0xbd1e0496	-0.038578592
128	0x3e040199	0.12891234
129	0xbed9e420	-0.42556858
130	0xbeba11f7	-0.3634183
131	0x3e14d106	0.14532861
132	0x3d935875	0.07194606
133	0xbe533607	-0.20626079
134	0xbddfc63c	-0.10926482
135	0x3e3d008d	0.18457241
136	0x3f01c940	0.5069771
137	0x3e85d5b7	0.26139614
138	0x3e046f6a	0.12933126
139	0xbe061ef5	-0.13097747
140	0x3ebb237d	0.36550513
141	0x3e00b1db	0.12567846
142	0x3f9247a0	1.1428108
143	0x3ea6fa11	0.3261266
144	0x3da68e10	0.08132565
145	0xbd77a249	-0.0604575
146	0x3e78cf15	0.24297746
147	0xbf70f260	-0.94119835
148	0x3efb70e7	0.49109575
149	0x3d525677	0.05135199
150	0x3be84c6a	0.0070891874
151	0xbceaeb4b	-0.02867665
152	0xbdd290b8	-0.10281509
153	0xbdf24fe4	-0.11831644
154	0xbc83aeb6	-0.01607452
155	0x3e73b1b0	0.23798251
156	0x3d70397f	0.058648583
157	0x3cedf8c5	0.029049287
158	0x3d9344b8	0.071908414
159	0xbf853ccf	-1.0409182
160	0x3f20bf34	0.6279175
161	0x3e147709	0.14498533
162	0x3f009f7e	0.50243366
163	0x3e7767ab	0.2416064
164	0x3d5bc04a	0.053650178
165	0xbe1374eb	-0.1440007
166	0xbef4c60f	-0.47807357
167	0x3de752dd	0.11295102
168	0xbe9694a8	-0.2941029
169	0x3d45bee4	0.04827775
170	0xbe26048f	-0.16212676
171	0x3d64a055	0.055816967
172	0x3dfcac7f	0.123375885
173	0xbf058b09	-0.52165276
174	0xbdfcb464	-0.12339094
175	0xbf821754	-1.0163369
176	0x3e27816d	0.16357966
177	0xbde69db7	-0.112605505
178	0xbe3c76b1	-0.18404652
179	0xbf4315dd	-0.76205236
180	0xbbf95236	-0.0076086773
181	0xbe6033f8	-0.21894825
182	0xbf142d13	-0.5788128
183	0xbf04b935	-0.51845104
184	0xbf3b4685	-0.7315448
185	0x3eb3dc65	0.35129085
186	0xbd23a7ff	-0.039955135
187	0x3f07fdb3	0.5312149
188	0xbe809368	-0.25112462
189	0xbbab1ded	-0.0052220733
190	0xbd4f38fb	-0.05059145
191	0xbd0ed0a7	-0.034866955
192	0xbc4960ce	-0.012291146
193	0x3be393ed	0.0069451244
194	0xbe9e6a73	-0.3094059
195	0xbe084636	-0.13308033
196	0x3eb4955a	0.35270196
197	0xbdf9dac9	-0.12199933
198	0x3c8d184c	0.0172235
199	0xbfbee8c4	-1.4914784
200	0xbf43238a	-0.76226103
201	0xbd455a49	-0.048181806
202	0x3ee75ee6	0.4518959
203	0x3ec1abd5	0.3782641
204	0x3e961f7c	0.29320896
205	0xbec41e22	-0.3830424
206	0xbb4ea191	-0.0031529407
207	0x3a90c66c	0.0011045462
208	0xbf34e8a2	-0.7066747
209	0xbe7f9e43	-0.24962716
210	0xbe117359	-0.14204158
211	0xbd66c3cf	-0.05633908
212	0x3e41dc4c	0.18931693
213	0xbeefd0c3	-0.4683896
214	0xbd44e6a0	-0.048071504
215	0xbf1e7448	-0.6189618
216	0xbe992d12	-0.29917198
217	0xbec25a46	-0.37959498
218	0x3ecde39c	0.40212715
219	0xbed3f38f	-0.41396758
220	0x3f11703b	0.56811875
221	0x3c42ea37	0.0118966615
222	0xbc040e6f	-0.008060082
223	0xbe569bbe	-0.20957848
224	0xbf213e8f	-0.6298608
225	0xbf4d619f	-0.8022708
226	0xbf34eacd	-0.7067078
227	0xbeaeffab	-0.34179434
228	0xbe28d543	-0.16487603
229	0xbdd7a8ba	-0.10530229
230	0x3f47edc3	0.7809717
231	0xbdaa90db	-0.0832841
232	0x3b994e37	0.0046785134
233	0xbe8acda2	-0.2711001
234	0xbf5d93ab	-0.8655345
235	0xbe603a1b	-0.21897165
236	0xbd81f735	-0.06345979
237	0xbe904cf3	-0.28183708
238	0x3f0afa49	0.54288155
239	0x3e8a1b03	0.26973733
240	0xbd3e3f39	-0.046447013
241	0x3e875333	0.26430663
242	0x3e6923af	0.22767518
243	0xbdc35253	-0.095371865
244	0xbe81fbf7	-0.25387546
245	0x3da2474f	0.07923757
246	0xbc8f1232	-0.01746473
247	0xbd8f0e2a	-0.069851235
248	0x3ebd8632	0.37016445
249	0xbd5e6ed7	-0.054304924
250	0x3e57c348	0.21070588
251	0x3e992ef4	0.29918635
252	0xbda120b9	-0.078675695
253	0x3cc527c6	0.024066817
254	0xbeb7e4b9	-0.3591669
255	0xbce662bc	-0.028123252

bias f4 [175]
0	0x00000000	0.0
1	0x00000000	0.0
2	0x00000000	0.0
3	0x00000000	0.0
4	0x00000000	0.0
5	0x00000000	0.0
6	0x00000000	0.0
7	0x00000000	0.0
8	0x00000000	0.0
9	0x00000000	0.0
10	0x00000000	0.0
11	0x00000000	0.0
12	0x00000000	0.0
13	0x00000000	0.0
14	0x00000000	0.0
15	0x00000000	0.0
16	0x00000000	0.0
17	0x00000000	0.0
18	0x00000000	0.0
19	0x00000000	0.0
20	0x00000000	0.0
21	0x00000000	0.0
22	0x00000000	0.0
23	0x00000000	0.0
24	0x00000000	0.0
25	0x00000000	0.0
26	0x00000000	0.0
27	0x00000000	0.0
28	0x00000000	0.0
29	0x00000000	0.0
30	0x00000000	0.0
31	0x00000000	0.0
32	0x00000000	0.0
33	0x00000000	0.0
34	0x00000000	0.0
35	0x00000000	0.0
36	0x00000000	0.0
37	0x00000000	0.0
38	0x00000000	0.0
39	0x00000000	0.0
40	0x00000000	0.0
41	0x00000000	0.0
42	0x00000000	0.0
43	0x00000000	0.0
44	0x00000000	0.0
45	0x00000000	0.0
46	0x00000000	0.0
47	0x00000000	0.0
48	0x00000000	0.0
49	0x00000000	0.0
50	0x00000000	0.0
51	0x00000000	0.0
52	0x00000000	0.0
53	0x00000000	0.0
54	0x00000000	0.0
55	0x00000000	0.0
56	0x00000000	0.0
57	0x00000000	0.0
58	0x00000000	0.0
59	0x00000000	0.0
60	0x00000000	0.0
61	0x00000000	0.0
62	0x00000000	0.0
63	0x00000000	0.0
64	0x00000000	0.0
65	0x00000000	0.0
66	0x00000000	0.0
67	0x00000000	0.0
68	0x00000000	0.0
69	0x00000000	0.0
70	0x00000000	0.0
71	0x00000000	0.0
72	0x00000000	0.0
73	0x00000000	0.0
74	0x00000000	0.0
75	0x00000000	0.0
76	0x00000000	0.0
77	0x00000000	0.0
78	0x00000000	0.0
79	0x00000000	0.0
80	0x00000000	0.0
81	0x00000000	0.0
82	0x00000000	0.0
83	0x00000000	0.0
84	0x00000000	0.0
85	0x00000000	0.0
86	0x00000000	0.0
87	0x00000000	0.0
88	0x00000000	0.0
89	0x00000000	0.0
90	0x00000000	0.0
91	0x00000000	0.0
92	0x00000000	0.0
93	0x00000000	0.0
94	0x00000000	0.0
95	0x00000000	0.0
96	0x00000000	0.0
97	0x00000000	0.0
98	0x00000000	0.0
99	0x00000000	0.0
100	0x00000000	0.0
101	0x00000000	0.0
102	0x00000000	0.0
103	0x00000000	0.0
104	0x00000000	0.0
105	0x00000000	0.0
106	0x00000000	0.0
107	0x00000000	0.0
108	0x00000000	0.0
109	0x00000000	0.0
110	0x00000000	0.0
111	0x00000000	0.0
112	0x00000000	0.0
113	0x00000000	0.0
114	0x00000000	0.0
115	0x00000000	0.0
116	0x00000000	0.0
117	0x00000000	0.0
118	0x00000000	0.0
119	0x00000000	0.0
120	0x00000000	0.0
121	0x00000000	0.0
122	0x00000000	0.0
123	0x00000000	0.0
124	0x00000000	0.0
125	0x00000000	0.0
126	0x00000000	0.0
127	0x00000000	0.0
128	0x00000000	0.0
129	0x00000000	0.0
130	0x00000000	0.0
131	0x00000000	0.0
132	0x00000000	0.0
133	0x00000000	0.0
134	0x00000000	0.0
135	0x00000000	0.0
136	0x00000000	0.0
137	0x00000000	0.0
138	0x00000000	0.0
139	0x00000000	0.0
140	0x00000000	0.0
141	0x00000000	0.0
142	0x00000000	0.0
143	0x00000000	0.0
144	0x00000000	0.0
145	0x00000000	0.0
146	0x00000000	0.0
147	0x00000000	0.0
148	0x00000000	0.0
149	0x00000000	0.0
150	0x00000000	0.0
151	0x00000000	0.0
152	0x00000000	0.0
153	0x00000000	0.0
154	0x00000000	0.0
155	0x00000000	0.0
156	0x00000000	0.0
157	0x00000000	0.0
158	0x00000000	0.0
159	0x00000000	0.0
160	0x00000000	0.0
161	0x00000000	0.0
162	0x00000000	0.0
163	0x00000000	0.0
164	0x00000000	0.0
165	0x00000000	0.0
166	0x00000000	0.0
167	0x00000000	0.0
168	0x00000000	0.0
169	0x00000000	0.0
170	0x00000000	0.0
171	0x00000000	0.0
172	0x00000000	0.0
173	0x00000000	0.0
174	0x00000000	0.0

_ei_mask f4 [175]
0	0x3f800000	1.0
1	0x3f800000	1.0
2	0x3f800000	1.0
3	0x3f800000	1.0
4	0x3f800000	1.0
5	0x3f800000	1.0
6	0x3f800000	1.0
7	0x3f800000	1.0
8	0x3f800000	1.0
9	0x3f800000	1.0
10	0x3f800000	1.0
11	0x3f800000	1.0
12	0x3f800000	1.0
13	0x3f800000	1.0
14	0x3f800000	1.0
15	0x3f800000	1.0
16	0x3f800000	1.0
17	0x3f800000	1.0
18	0x3f800000	1.0
19	0x3f800000	1.0
20	0x3f800000	1.0
21	0x3f800000	1.0
22	0x3f800000	1.0
23	0x3f800000	1.0
24	0x3f800000	1.0
25	0x3f800000	1.0
26	0x3f800000	1.0
27	0x3f800000	1.0
28	0x3f800000	1.0
29	0x3f800000	1.0
30	0x3f800000	1.0
31	0x3f800000	1.0
32	0x3f800000	1.0
33	0x3f800000	1.0
34	0x3f800000	1.0
35	0x3f800000	1.0
36	0x3f800000	1.0
37	0x3f800000	1.0
38	0x3f800000	1.0
39	0x3f800000	1.0
40	0x3f800000	1.0
41	0x3f800000	1.0
42	0x3f800000	1.0
43	0x3f800000	1.0
44	0x3f800000	1.0
45	0x3f800000	1.0
46	0x3f800000	1.0
47	0x3f800000	1.0
48	0x3f800000	1.0
49	0x3f800000	1.0
50	0x3f800000	1.0
51	0x3f800000	1.0
52	0x3f800000	1.0
53	0x3f800000	1.0
54	0x3f800000	1.0
55	0x3f800000	1.0
56	0x3f800000	1.0
57	0x3f800000	1.0
58	0x3f800000	1.0
59	0x3f800000	1.0
60	0x3f800000	1.0
61	0x3f800000	1.0
62	0x3f800000	1.0
63	0x3f800000	1.0
64	0x3f800000	1.0
65	0x3f800000	1.0
66	0x3f800000	1.0
67	0x3f800000	1.0
68	0x3f800000	1.0
69	0x3f800000	1.0
70	0x3f800000	1.0
71	0x3f800000	1.0
72	0x3f800000	1.0
73	0x3f800000	1.0
74	0x3f800000	1.0
75	0x3f800000	1.0
76	0x3f800000	1.0
77	0x3f800000	1.0
78	0x3f800000	1.0
79	0x3f800000	1.0
80	0x3f800000	1.0
81	0x3f800000	1.0
82	0x3f800000	1.0
83	0x3f800000	1.0
84	0x3f800000	1.0
85	0x3f800000	1.0
86	0x3f800000	1.0
87	0x3f800000	1.0
88	0x3f800000	1.0
89	0x3f800000	1.0
90	0x3f800000	1.0
91	0x3f800000	1.0
92	0x3f800000	1.0
93	0x3f800000	1.0
94	0x3f800000	1.0
95	0x3f800000	1.0
96	0x3f800000	1.0
97	0x3f800000	1.0
98	0x3f800000	1.0
99	0x3f800000	1.0
100	0x3f800000	1.0
101	0x3f800000	1.0
102	0x3f800000	1.0
103	0x3f800000	1.0
104	0x3f800000	1.0
105	0x3f800000	1.0
106	0x3f800000	1.0
107	0x3f800000	1.0
108	0x3f800000	1.0
109	0x3f800000	1.0
110	0x3f800000	1.0
111	0x3f800000	1.0
112	0x3f800000	1.0
113	0x3f800000	1.0
114	0x3f800000	1.0
115	0x3f800000	1.0
116	0x3f800000	1.0
117	0x3f800000	1.0
118	0x3f800000	1.0
119	0x3f800000	1.0
120	0x3f800000	1.0
121	0x3f800000	1.0
122	0x3f800000	1.0
123	0x3f800000	1.0
124	0x3f800000	1.0
125	0x3f800000	1.0
126	0x3f800000	1.0
127	0x3f800000	1.0
128	0x3f800000	1.0
129	0x3f800000	1.0
130	0x3f800000	1.0
131	0x3f800000	1.0
132	0x3f800000	1.0
133	0x3f800000	1.0
134	0x3f800000	1.0
135	0x3f800000	1.0
136	0x3f800000	1.0
137	0x3f800000	1.0
138	0x3f800000	1.0
139	0x3f800000	1.0
140	0x3f800000	1.0
141	0x3f800000	1.0
142	0x3f800000	1.0
143	0x3f800000	1.0
144	0x3f800000	1.0
145	0x3f800000	1.0
146	0x3f800000	1.0
147	0x3f800000	1.0
148	0x3f800000	1.0
149	0x3f800000	1.0
150	0x3f800000	1.0
151	0x3f800000	1.0
152	0x3f800000	1.0
153	0x3f800000	1.0
154	0x3f800000	1.0
155	0x3f800000	1.0
156	0x3f800000	1.0
157	0x3f800000	1.0
158	0x3f800000	1.0
159	0x3f800000	1.0
160	0x3f800000	1.0
161	0x3f800000	1.0
162	0x3f800000	1.0
163	0x3f800000	1.0
164	0x3f800000	1.0
165	0x3f800000	1.0
166	0x3f800000	1.0
167	0x3f800000	1.0
168	0x3f800000	1.0
169	0x3f800000	1.0
170	0x3f800000	1.0
171	0x3f800000	1.0
172	0x3f800000	1.0
173	0x3f800000	1.0
174	0x3f800000	1.0

weight f4 [175, 3]
0	0xc03e3f56	-2.9726157
1	0xbe03acc7	-0.12858878
2	0x3fa708b1	1.3049527
3	0xbeb392f2	-0.35073048
4	0x409737a2	4.725541
5	0x400eb247	2.2296312
6	0xbe4c929d	-0.19977804
7	0x3d7af5d2	0.06126959
8	0xc0193ae3	-2.3942192
9	0xc061601f	-3.5214918
10	0xc025bf8a	-2.5898156
11	0x4007109c	2.1103888
12	0x40868df3	4.204828
13	0xc06343de	-3.5510173
14	0xbf08ca2c	-0.5343349
15	0xbfc6d539	-1.553382
16	0x409fce38	4.993923
17	0x3ffbd581	1.9674531
18	0xbfcd840b	-1.6055921
19	0xbfd9dcde	-1.7020528
20	0xc09da494	-4.92634
21	0x3fe359ba	1.7761757
22	0x3f641d30	0.89107037
23	0xbf555051	-0.8332568
24	0x3fd66a08	1.6751108
25	0xc09d71d3	-4.9201446
26	0x3f403ad4	0.75089765
27	0xbf2b66d8	-0.669538
28	0x3fd51fca	1.6650326
29	0x4038b697	2.8861444
30	0x3f2a2ca6	0.6647438
31	0xc01cc6b9	-2.449629
32	0x3fa56c4b	1.2923673
33	0x3deee120	0.11664033
34	0x3f3bdd3c	0.7338445
35	0xc0832e2b	-4.0993857
36	0x3fe45a7c	1.7840114
37	0xc07bde36	-3.9354377
38	0x40035e3d	2.0526268
39	0x3f8fef75	1.1244951
40	0xbfe20d53	-1.7660316
41	0x3ffe414f	1.9863681
42	0xbf45c705	-0.77256805
43	0x3ef2ed8c	0.4744686
44	0xc05f8fa5	-3.4931424
45	0x400c689e	2.1938853
46	0x3f68ab0b	0.9088599
47	0x3fda258d	1.704271
48	0xc024e255	-2.5763142
49	0x3d99ba42	0.07506229
50	0xbfac2916	-1.3450038
51	0x3f0dbe18	0.55368185
52	0xc040632c	-3.006053
53	0x4010ad3c	2.2605734
54	0xc006b058	-2.1045132
55	0x3f9448c6	1.1584709
56	0xc01c530f	-2.4425695
57	0xc019ba96	-2.4020133
58	0x3f7a5c1a	0.97796786
59	0xbf7b5168	-0.9817109
60	0xbf7c620b	-0.985871
61	0x3f6a0b9e	0.91423976
62	0x3fe2e50e	1.7726152
63	0xbfba1783	-1.4538425
64	0xbfb8ca33	-1.4436706
65	0x3fc54a58	1.5413313
66	0xc0907b1b	-4.5150275
67	0x3fadc0c4	1.3574452
68	0x40364fac	2.8486128
69	0xbd3cbc2a	-0.046077885
70	0x404d41d5	3.207143
71	0xc0527c92	-3.2888532
72	0x3e3779ea	0.179176
73	0xbfc656ed	-1.5495278
74	0x402da393	2.7131088
75	0x400fd3cf	2.2473028
76	0x40ef5e3e	7.480254
77	0x3fae93f3	1.36389
78	0x3f991540	1.195961
79	0xbddaab7f	-0.106772415
80	0x3e9e9afc	0.3097762
81	0x3f16a0d3	0.5883915
82	0x3f97caa1	1.1858712
83	0x3fe80704	1.8127141
84	0x3f8fb26c	1.1226325
85	0x409cebba	4.903775
86	0x3dd72518	0.10505122
87	0xbf4e3f7e	-0.8056563
88	0xc08085bb	-4.0163245
89	0xbfc84140	-1.5644913
90	0xbeaa32cf	-0.3324189
91	0xbffe79aa	-1.9880879
92	0xc018a226	-2.3848968
93	0x402bd692	2.6849713
94	0x3e1382d8	0.14405382
95	0x3d9855c5	0.07438234
96	0x3f64bc19	0.89349514
97	0xc02c46f8	-2.6918316
98	0xbf2c2f46	-0.67259634
99	0x3dd10dcd	0.102077104
100	0xc0862b38	-4.1927757
101	0x3f5cd730	0.8626585
102	0xbf85d83a	-1.0456612
103	0x3f6e1b98	0.93010855
104	0x3fc884ac	1.5665488
105	0x40833ee2	4.101426
106	0x40101487	2.251253
107	0xc0443ee6	-3.066339
108	0xc0808493	-4.0161834
109	0x3fb9a849	1.4504482
110	0x3e8ac85c	0.27105987
111	0xc02b8d81	-2.6805117
112	0x402d46b7	2.707441
113	0xbfb37e08	-1.4022837
114	0x403397ef	2.8061483
115	0x40823a68	4.0696297
116	0x3f8348ee	1.0256631
117	0x3f124d4b	0.5714919
118	0xc077d89a	-3.8725953
119	0xbf922196	-1.14165
120	0x3fdc2d53	1.7201332
121	0x3e125fff	0.14294432
122	0xc05125b8	-3.2679272
123	0xbd6fa158	-0.05850348
124	0x3fbc6924	1.4719586
125	0x400fc26b	2.2462413
126	0xc0435387	-3.051973
127	0xbe943091	-0.28943303
128	0xbfff4e0c	-1.9945693
129	0xbfd0a9cc	-1.6301818
130	0xc02ab39b	-2.6672122
131	0xc030bc66	-2.761499
132	0x40135509	2.3020651
133	0xbf230583	-0.63680285
134	0x404eee8a	3.2333093
135	0xbea44905	-0.3208696
136	0x3e1d0302	0.15333179
137	0x3f0f770a	0.56041014
138	0xbf954559	-1.1661788
139	0xbf784acd	-0.96989137
140	0x3fab7fb2	1.3398345
141	0xbeaa8160	-0.3330183
142	0xbf78971a	-0.9710556
143	0xc066a837	-3.604017
144	0x3efc1dc6	0.49241465
145	0x3e83e410	0.25759935
146	0xbeb6c1e9	-0.35694817
147	0x3f98036d	1.1876045
148	0x3ff6a0e3	1.9267849
149	0xbf27bf00	-0.6552582
150	0x3fce28f5	1.6106249
151	0xc0f574d3	-7.670511
152	0xbff11999	-1.8835937
153	0xbec71dcb	-0.38889918
154	0xc100426e	-8.016218
155	0xbfa1b5ad	-1.2633568
156	0xbdb7ca91	-0.08974183
157	0x3e0e4428	0.13893187
158	0xc016c973	-2.3560455
159	0xbedc1e2f	-0.42991778
160	0xbfbc77e3	-1.4724087
161	0xbf38fce9	-0.7226091
162	0xc0421846	-3.0327315
163	0x3f4c76ab	0.7986857
164	0x3fa9923e	1.3247755
165	0x400d2e14	2.2059374
166	0xc08c08e1	-4.376084
167	0xc0a45a31	-5.1360097
168	0xbf25ffb7	-0.64843315
169	0x406e17df	3.720207
170	0xbf252777	-0.64513344
171	0x3fa40990	1.2815418
172	0x3e1fa169	0.15588917
173	0xbfe05775	-1.752669
174	0xbff01568	-1.8756533
175	0x403f55ce	2.989612
176	0xbf8b79c7	-1.0896538
177	0x3fbb3c4b	1.4627775
178	0x3fbf8f41	1.4965593
179	0xbf66814d	-0.9004105
180	0xc03ccad6	-2.9498801
181	0xc017f054	-2.3740435
182	0x402fd259	2.7472136
183	0x3d64ba34	0.05584164
184	0x403649f8	2.8482647
185	0x3c6155ae	0.013753338
186	0xbf99fe8d	-1.2030808
187	0x3ff08581	1.8790742
188	0xbf6e6aa2	-0.9313146
189	0xbfed6b18	-1.8548307
190	0x40017280	2.0226135
191	0x4038fccc	2.8904295
192	0x40479c58	3.1189175
193	0x3ead6607	0.33866903
194	0x3f7ec33d	0.9951666
195	0xbf08eed1	-0.53489405
196	0xbe493352	-0.19648483
197	0xbfe3d2c4	-1.7798696
198	0xbf61201f	-0.8793964
199	0xc015004c	-2.3281431
200	0xc093dbe0	-4.62059
201	0x3e44c3f9	0.19215383
202	0x3fb48d5c	1.410564
203	0x3fbaa63e	1.4581983
204	0xc01d7082	-2.459992
205	0xbe656b21	-0.22404148
206	0x4051e076	3.279325
207	0xbb34db14	-0.00275964
208	0x40024334	2.0353518
209	0xbf1b42d9	-0.60648876
210	0xbfcaef55	-1.5854288
211	0xbe649805	-0.22323616
212	0x3fe583ca	1.7930844
213	0xbfd6669f	-1.6750067
214	0x3d7a60c0	0.061127424
215	0xc04c61fd	-3.1934807
216	0xc0c317ef	-6.0966716
217	0xc00b5d46	-2.177568
218	0x3d926325	0.071478166
219	0x3f8edb44	1.1160665
220	0x3f6e811f	0.93165773
221	0xc06f6261	-3.7403796
222	0xc07c0721	-3.937935
223	0xbd9d6c84	-0.07686713
224	0xbf6e47e1	-0.9307843
225	0xbc904234	-0.017609693
226	0x3de8985f	0.113571875
227	0xc05e54eb	-3.473933
228	0xbf28c5cc	-0.65926814
229	0x3f88337b	1.064071
230	0xc058e902	-3.3892217
231	0xc0d3f3e9	-6.623524
232	0xbf95d7ce	-1.1706483
233	0xbf2a02cc	-0.6641052
234	0x3f796e64	0.9743407
235	0x3f5e55f6	0.86849916
236	0xbf962be4	-1.1732144
237	0x3fc60667	1.5470704
238	0x3fa13eea	1.2597325
239	0x3f6bae44	0.92062783
240	0xbed0572f	-0.40691516
241	0x3d0350c9	0.032059465
242	0xc024fb4f	-2.5778387
243	0x403c9dc8	2.9471302
244	0x3f9f1e30	1.2431087
245	0x3d51fd8b	0.051267188
246	0x3ee3cba2	0.44491297
247	0x40281f6b	2.6269176
248	0xc06c76d0	-3.6947517
249	0x3f81d23a	1.0142281
250	0xc009e982	-2.1548772
251	0x405338df	3.3003461
252	0x3f83b943	1.0290912
253	0x3dea63cc	0.11444816
254	0xbf95c9ab	-1.1702169
255	0xc018570f	-2.3803136

bias f4 [3]
0	0x00000000	0.0
1	0x00000000	0.0
2	0x00000000	0.0

_ei_mask f4 [3]
0	0x3f800000	1.0
1	0x3f800000	1.0
2	0x3f800000	1.0

weight f4 [3, 175]
0	0xbe5a0159	-0.21289577
1	0x3d329d25	0.043606896
2	0xbbd0d554	-0.006373087
3	0xbe929fda	-0.28637582
4	0xbc61db11	-0.01378514
5	0x3ce4f251	0.027947577
6	0x3d7bf054	0.06150849
7	0x3c3eeb48	0.011652775
8	0x3de25026	0.11050443
9	0x3d35af31	0.04435653
10	0xbc8657a8	-0.01639922
11	0x3ca54839	0.02017604
12	0x3df39570	0.11893737
13	0x3bd7b765	0.0065831416
14	0xbe2745e7	-0.1633526
15	0x3dd049ee	0.10170351
16	0xbe2a40fb	-0.1662635
17	0xbee486fd	-0.44634238
18	0xbe512d32	-0.20427397
19	0x3d7ddb9f	0.061977025
20	0xbe62ae6b	-0.22136848
21	0xbdfffe94	-0.12499729
22	0xbc82da9f	-0.015973387
23	0xbd8ada0e	-0.06779872
24	0x3c2b14cb	0.010441969
25	0x3d12558c	0.035726115
26	0x3dc210d7	0.09475868
27	0xbc987991	-0.018612655
28	0x3bee7d28	0.0072781034
29	0x3b91f4cf	0.0044542323
30	0xbd44ae06	-0.048017524
31	0x3e8867b7	0.26641628
32	0x3db8c3d9	0.0902173
33	0x3d811de2	0.06304528
34	0xbd84a330	-0.06476438
35	0x3d474cb9	0.048657153
36	0xbe9bc5c6	-0.30424327
37	0xbd08b782	-0.03337813
38	0x3df99989	0.12187488
39	0x3d9a1072	0.07522668
40	0x3d62d88b	0.055382293
41	0xbb6c18e2	-0.0036025573
42	0xbd40dbc0	-0.04708457
43	0xbe9234f7	-0.28556034
44	0x3e18a2d6	0.14905867
45	0x3d8637a2	0.0655358
46	0xbe63a0ac	-0.2222926
47	0xbe44c94f	-0.19217418
48	0x3e0729f6	0.131996
49	0x3db5c5de	0.08875631
50	0xbe1b9f1a	-0.15197411
51	0xbdcaf453	-0.099098824
52	0x3dd76c2a	0.105186775
53	0xbe4c7481	-0.19966318
54	0xbe6e162b	-0.23250644
55	0x3d271d47	0.040799405
56	0xbd3ce32d	-0.04611509
57	0x3ddf1d3e	0.108942494
58	0xbeb4dbd6	-0.35323972
59	0x3e57ce7d	0.21074863
60	0xbec04e67	-0.37559816
61	0xbd99c0ca	-0.07507475
62	0xbdf3a1f6	-0.11896126
63	0xbe018ed7	-0.12652145
64	0xbc212ba5	-0.009837066
65	0x3bffe81c	0.007809652
66	0xbd981cd3	-0.07427373
67	0x3d9f75ab	0.07786115
68	0xbdc33984	-0.095324546
69	0x3cb6e50e	0.022326019
70	0xbd6f2558	-0.058385223
71	0xbcf49160	-0.029854476
72	0xbcaa5904	-0.0207944
73	0x3ddf61b9	0.10907311
74	0x3bb66dbf	0.005567282
75	0x3d8bbd39	0.06823201
76	0xbd0c080d	-0.034187365
77	0xbca20101	-0.01977587
78	0x3e040058	0.12890756
79	0x3d5cf824	0.053947583
80	0xbd0a2a18	-0.03373155
81	0x3d6de31d	0.05807792
82	0x3d051c3f	0.03249764
83	0x3d99f120	0.07516694
84	0x3dea4a5c	0.11439964
85	0xbbef8e12	-0.0073106373
86	0x3d66b767	0.05632725
87	0x3d186731	0.037207786
88	0x3c1ac76b	0.009446959
89	0xbd13be0c	-0.036069915
90	0xbe0c784e	-0.13717768
91	0xbe3d68cd	-0.1849701
92	0x3d1a38e1	0.0376519
93	0xbed748aa	-0.42047626
94	0xbd7adf1e	-0.061247937
95	0x3d0f6c58	0.035015434
96	0x3db45a93	0.08806338
97	0xbe51dc57	-0.20494209
98	0xbe230765	-0.1592079
99	0x3d7c0c14	0.061534956
100	0x3dafda47	0.08586555
101	0x3dc9fa79	0.09862227
102	0x3c1689cd	0.009188128
103	0xbbdf6f44	-0.006818684
104	0xbda07121	-0.078340776
105	0xbc995025	-0.018714974
106	0x3db5780e	0.08860789
107	0x3d39a12e	0.04531973
108	0xbe0dc081	-0.13842966
109	0x3cd8b4f0	0.026453465
110	0xbdb0e78c	-0.08637914
111	0xbd9b5b3c	-0.07585761
112	0x3d0487ab	0.032355946
113	0x3d96a79f	0.0735619
114	0xbd199d38	-0.03750345
115	0x3dad832f	0.08472287
116	0x3d8c9c9b	0.068658076
117	0x3d167ce0	0.036740184
118	0x3d248102	0.040162094
119	0x3dc130e4	0.09433153
120	0x3be20140	0.0068971217
121	0x3d4e7f0b	0.050414126
122	0x3d8d5aff	0.06902122
123	0xbc3219f0	-0.010870442
124	0x3cb06672	0.021533225
125	0xbd010bcd	-0.031505395
126	0xbdad9c59	-0.084770866
127	0xbe2fab4a	-0.17155185
128	0x3e8c8ffd	0.27453604
129	0xbcbf6318	-0.023362681
130	0x3dbf13ac	0.09329924
131	0xbde5345b	-0.11191627
132	0x3dced986	0.10100083
133	0x3da0cb77	0.07851308
134	0x3d47402e	0.04864519
135	0xbdc05f08	-0.09393126
136	0xbdc1aad3	-0.0945641
137	0x3cdc5e82	0.026900534
138	0xbe485dbc	-0.19567007
139	0x3d320289	0.04345945
140	0xbbca5300	-0.006174445
141	0x3d0f7297	0.03502139
142	0x3d6abbcc	0.057308003
143	0xbd49c8f6	-0.049263917
144	0xbe6617d7	-0.22470032
145	0x3d848b92	0.064719334
146	0x3dfc7a03	0.123279594
147	0x3d9131e6	0.070895955
148	0x3d5a1377	0.05324122
149	0xbb756d4c	-0.003744918
150	0x3e387463	0.18013148
151	0xbeab3cb7	-0.3344476
152	0x3ca5524f	0.02018085
153	0xbd659980	-0.056054592
154	0x3ca849c3	0.020542985
155	0x3d9c1b26	0.07622366
156	0x3c410186	0.011780148
157	0x3d166ad2	0.036722966
158	0x3d7a9d9c	0.061185464
159	0x3d2f2ba5	0.042766232
160	0xbdd9e8f7	-0.10640138
161	0xbd836dd4	-0.064174324
162	0x3d451413	0.048114847
163	0x3d73ca83	0.059519302
164	0x3c27e3f0	0.010247216
165	0x3d6dba59	0.058039043
166	0x3d85f6a0	0.065411806
167	0x3c223aec	0.009901743
168	0xbe044d86	-0.12920198
169	0x3c8f0394	0.01745776
170	0x3c857f98	0.016296193
171	0xbaa424f0	-0.0012523215
172	0x3b6ef74c	0.0036463318
173	0xbc47e0c5	-0.012199585
174	0xbddb4037	-0.107056074
175	0x3c791002	0.0152015705
176	0x3d239209	0.03993419
177	0xbccb7189	-0.024834411
178	0x3d619fe7	0.055084135
179	0xbba78267	-0.0051119807
180	0x3d1a2497	0.03763255
181	0x3c8a71d4	0.01689998
182	0x3aec0ad6	0.00180086
183	0xbd21d695	-0.039511282
184	0x3c726689	0.014794954
185	0xbcd9d59c	-0.026591115
186	0x3d5c4051	0.053772274
187	0xbe3c12ab	-0.18366496
188	0xbd78dd4a	-0.060757913
189	0x3e20b1ca	0.15692821
190	0x3d5ee91d	0.054421533
191	0x3e1b69dc	0.15177101
192	0xbe9180e5	-0.2841865
193	0x3dc53166	0.09628563
194	0x3cc262c1	0.02372873
195	0x3e01a613	0.12661009
196	0x3c8a00df	0.016846118
197	0x3c8e24ec	0.01735159
198	0xbda7c29c	-0.08191416
199	0xbd45c19f	-0.048280355
200	0x3d7b1d8b	0.06130747
201	0xbd45c436	-0.048282824
202	0xbc1d9daa	-0.00962011
203	0x3c64d740	0.013967335
204	0x3c00e914	0.00786807
205	0xbd96cd67	-0.07363396
206	0x3dc851fb	0.097812615
207	0xbdd36db2	-0.10323657
208	0xbd32fce2	-0.0436982
209	0x3dab0d3e	0.08352135
210	0x3d2fc0ef	0.042908605
211	0x3e041485	0.12898453
212	0x3da6408f	0.08117782
213	0x3c34bcfe	0.011031387
214	0x3a5e65b1	0.0008483781
215	0xbafec484	-0.0019437228
216	0x3d35b013	0.04435737
217	0xbbf3a37e	-0.0074352613
218	0xbf281cef	-0.6566915
219	0x3d9c10c3	0.076203845
220	0x3c2aead6	0.010431966
221	0xbe300aa1	-0.17191555
222	0xbe5fd409	-0.21858229
223	0x3d97087b	0.073746644
224	0x3d6984b9	0.05701134
225	0xbfd44008	-1.6582041
226	0xbfd3ffb9	-1.6562415
227	0x3dd54ba3	0.10414817
228	0xbe0861d4	-0.13318568
229	0x3e0a372c	0.13497609
230	0xbd19b27c	-0.03752373
231	0x3b900b27	0.0043958607
232	0x3d2ec398	0.042667
233	0xbc978041	-0.018493773
234	0x3e22aaf8	0.15885532
235	0xbd5f4309	-0.05450729
236	0xbcb29666	-0.021800231
237	0x3d9bc4db	0.076059066
238	0xbc6dc93b	-0.014513309
239	0x3d036357	0.03207716
240	0xbd785629	-0.060629044
241	0xbd694a08	-0.056955367
242	0xbcf16620	-0.029467642
243	0xbcaf84e7	-0.021425677
244	0x3d2236b9	0.03960297
245	0x3e0281be	0.12744805
246	0xbc771f2c	-0.015083116
247	0x393fde49	0.00018297987
248	0x3dbf626a	0.09344943
249	0x3c19c99a	0.009386444
250	0x3da8bfcd	0.08239708
251	0x3ce854e3	0.02836079
252	0xbb58366f	-0.003299143
253	0x3e0fec79	0.14055051
254	0x3d393f7b	0.045226555
255	0x3d414edc	0.047194347

bias f4 [175]
0	0x00000000	0.0
1	0x00000000	0.0
2	0x00000000	0.0
3	0x00000000	0.0
4	0x00000000	0.0
5	0x00000000	0.0
6	0x00000000	0.0
7	0x00000000	0.0
8	0x00000000	0.0
9	0x00000000	0.0
10	0x00000000	0.0
11	0x00000000	0.0
12	0x00000000	0.0
13	0x00000000	0.0
14	0x00000000	0.0
15	0x00000000	0.0
16	0x00000000	0.0
17	0x00000000	0.0
18	0x00000000	0.0
19	0x00000000	0.0
20	0x00000000	0.0
21	0x00000000	0.0
22	0x00000000	0.0
23	0x00000000	0.0
24	0x00000000	0.0
25	0x00000000	0.0
26	0x00000000	0.0
27	0x00000000	0.0
28	0x00000000	0.0
29	0x00000000	0.0
30	0x00000000	0.0
31	0x00000000	0.0
32	0x00000000	0.0
33	0x00000000	0.0
34	0x00000000	0.0
35	0x00000000	0.0
36	0x00000000	0.0
37	0x00000000	0.0
38	0x00000000	0.0
39	0x00000000	0.0
40	0x00000000	0.0
41	0x00000000	0.0
42	0x00000000	0.0
43	0x00000000	0.0
44	0x00000000	0.0
45	0x00000000	0.0
46	0x00000000	0.0
47	0x00000000	0.0
48	0x00000000	0.0
49	0x00000000	0.0
50	0x00000000	0.0
51	0x00000000	0.0
52	0x00000000	0.0
53	0x00000000	0.0
54	0x00000000	0.0
55	0x00000000	0.0
56	0x00000000	0.0
57	0x00000000	0.0
58	0x00000000	0.0
59	0x00000000	0.0
60	0x00000000	0.0
61	0x00000000	0.0
62	0x00000000	0.0
63	0x00000000	0.0
64	0x00000000	0.0
65	0x00000000	0.0
66	0x00000000	0.0
67	0x00000000	0.0
68	0x00000000	0.0
69	0x00000000	0.0
70	0x00000000	0.0
71	0x00000000	0.0
72	0x00000000	0.0
73	0x00000000	0.0
74	0x00000000	0.0
75	0x00000000	0.0
76	0x00000000	0.0
77	0x00000000	0.0
78	0x00000000	0.0
79	0x00000000	0.0
80	0x00000000	0.0
81	0x00000000	0.0
82	0x00000000	0.0
83	0x00000000	0.0
84	0x00000000	0.0
85	0x00000000	0.0
86	0x00000000	0.0
87	0x00000000	0.0
88	0x00000000	0.0
89	0x00000000	0.0
90	0x00000000	0.0
91	0x00000000	0.0
92	0x00000000	0.0
93	0x00000000	0.0
94	0x00000000	0.0
95	0x00000000	0.0
96	0x00000000	0.0
97	0x00000000	0.0
98	0x00000000	0.0
99	0x00000000	0.0
100	0x00000000	0.0
101	0x00000000	0.0
102	0x00000000	0.0
103	0x00000000	0.0
104	0x00000000	0.0
105	0x00000000	0.0
106	0x00000000	0.0
107	0x00000000	0.0
108	0x00000000	0.0
109	0x00000000	0.0
110	0x00000000	0.0
111	0x00000000	0.0
112	0x00000000	0.0
113	0x00000000	0.0
114	0x00000000	0.0
115	0x00000000	0.0
116	0x00000000	0.0
117	0x00000000	0.0
118	0x00000000	0.0
119	0x00000000	0.0
120	0x00000000	0.0
121	0x00000000	0.0
122	0x00000000	0.0
123	0x00000000	0.0
124	0x00000000	0.0
125	0x00000000	0.0
126	0x00000000	0.0
127	0x00000000	0.0
128	0x00000000	0.0
129	0x00000000	0.0
130	0x00000000	0.0
131	0x00000000	0.0
132	0x00000000	0.0
133	0x00000000	0.0
134	0x00000000	0.0
135	0x00000000	0.0
136	0x00000000	0.0
137	0x00000000	0.0
138	0x00000000	0.0
139	0x00000000	0.0
140	0x00000000	0.0
141	0x00000000	0.0
142	0x00000000	0.0
143	0x00000000	0.0
144	0x00000000	0.0
145	0x00000000	0.0
146	0x00000000	0.0
147	0x00000000	0.0
148	0x00000000	0.0
149	0x00000000	0.0
150	0x00000000	0.0
151	0x00000000	0.0
152	0x00000000	0.0
153	0x00000000	0.0
154	0x00000000	0.0
155	0x00000000	0.0
156	0x00000000	0.0
157	0x00000000	0.0
158	0x00000000	0.0
159	0x00000000	0.0
160	0x00000000	0.0
161	0x00000000	0.0
162	0x00000000	0.0
163	0x00000000	0.0
164	0x00000000	0.0
165	0x00000000	0.0
166	0x00000000	0.0
167	0x00000000	0.0
168	0x00000000	0.0
169	0x00000000	0.0
170	0x00000000	0.0
171	0x00000000	0.0
172	0x00000000	0.0
173	0x00000000	0.0
174	0x00000000	0.0
