checkpoints/version139/model.pt (torch, 47789 bytes, 21 tensors)

bias f4 [175]
0.98123527 2.2935584 -0.71925473 1.6119024 -0.40631256 2.2172668 1.7635965 2.917256
1.7537363 2.8035257 1.368424 1.4355893 -0.47307807 -0.063301355 0.07398443 1.9843519
0.053868886 0.28299135 0.026806623 2.7206602 0.33192167 1.5605768 1.5626428 -0.40573952
-2.0167203 3.096068 0.69537675 1.9920756 0.92559946 2.190542 0.6576565 -0.09484118
1.3932676 -0.0947955 0.4148128 3.5868535 0.934514 1.3503828 1.4006134 1.5506991
1.9737389 0.8152299 0.13899994 0.38845506 1.204029 -0.07972864 0.5040559 0.24878357
0.30784574 -0.02898309 0.1933091 0.23931214 1.0009809 0.45015314 0.46277553 0.90234077
-0.33395794 0.5700976 0.32392952 -0.5767632 -0.057037275 -0.044767987 0.68380886 0.5161552
0.07321317 0.6040204 0.35254455 0.15361886 0.601913 1.3904636 -0.18153252 1.4728059
1.5682112 0.6450795 1.3846104 0.834209 1.405941 1.7342594 1.364433 2.091788
1.4610944 2.059285 0.83879095 2.4640803 1.3698539 1.4600756 2.4840176 3.11982
0.7227254 1.0758692 1.413832 -0.1828233 3.0871618 0.38008654 1.1428673 0.4124518
3.679219 0.58904356 -0.57894623 0.07354277 2.5611014 0.6577966 1.1709046 1.8652335
1.0717733 1.8099895 1.4196284 1.617537 1.573927 2.5483875 0.9353161 -0.27564037
-0.014871947 2.4241612 1.1714154 2.4313388 0.15807849 2.7403536 2.3928306 2.2439036
3.3435938 1.503084 2.1162603 2.4471338 3.4890697 1.397246 0.2472661 -0.058559798
0.6846079 1.1897889 0.25932667 0.2115091 -0.115251385 2.1407123 1.3181232 0.18715706
0.14728527 1.5722573 0.63055164 1.2459148 0.6539156 0.5287838 0.83578104 0.6048603
-0.004489569 1.3806887 1.6164066 1.2149032 -1.2450376 -0.07489097 0.20774537 0.04416216
2.2349384 0.6699902 3.5487673 1.9111749 1.1326125 3.666762 0.30957967 0.43959805
0.75426847 -1.0556953 0.50066286 1.3924024 1.7928927 2.6904652 0.23616476 1.678341
0.59031945 1.9864838 1.9594725 1.8730769 1.4751964 0.3989098 1.0206683
00000000: 3c32 7b3f a9c9 1240 1421 38bf d152 ce3f
00000010: 3308 d0be b3e7 0d40 88bd e13f 53b4 3a40
00000020: 6e7a e03f f76c 3340 8528 af3f 64c1 b73f
00000030: 4a37 f2be 24a4 81bd 2685 973d 3eff fd3f
00000040: 9fa5 5c3d 3ee4 903e 9099 db3c 4c1f 2e40
00000050: a3f1 a93e fbc0 c73f ae04 c83f 17bd cfbe
00000060: f211 01c0 fa25 4640 3604 323f 55fc fe3f
00000070: 16f4 6c3f d731 0c40 2d5c 283f 183c c2bd
00000080: 9856 b23f 2524 c2bd 5862 d43e 028f 6540
00000090: 4f3c 6f3f 58d9 ac3f 4d47 b33f 4f7d c63f
000000a0: 7aa3 fc3f e8b2 503f 0056 0e3e 95e3 c63e
000000b0: 9f1d 9a3f c548 a3bd cf09 013f 1fc1 7e3e
000000c0: f59d 9d3e f26d edbc d2f2 453e 3e0e 753e
000000d0: 2420 803f 797a e63e eaf0 ec3e ceff 663f
000000e0: 89fc aabe ebf1 113f 17da a53e c1a6 13bf
000000f0: eb9f 69bd a35e 37bd 190e 2f3f bf22 043f
00000100: c9f0 953d 15a1 1a3f b880 b43e 434e 1d3e
00000110: f816 1a3f b6fa b13f a9e3 39be e784 bc3f
00000120: 25bb c83f ee23 253f ea3a b13f b98e 553f
00000130: e0f5 b33f 36fc dd3f bea5 ae3f dbdf 0540
00000140: 2405 bb3f 53cb 0340 01bb 563f 7eb3 1d40
00000150: 5f57 af3f c2e3 ba3f 25fa 1e40 22ab 4740
00000160: 8804 393f 15b6 893f 72f8 b43f 0836 3bbe
00000170: 0f94 4540 b49a c23e 7a49 923f e22c d33e
00000180: 5378 6b40 8fcb 163f d235 14bf 989d 963d
00000190: 16e9 2340 5c65 283f 34e0 953f f9bf ee3f
000001a0: de2f 893f bcad e73f 62b6 b53f 740b cf3f
000001b0: 7176 c93f c818 2340 e070 6f3f bc20 8dbe
000001c0: 77a9 73bc 7525 1b40 f1f0 953f 0e9b 1b40
000001d0: 54df 213e f461 2f40 2324 1940 1e9c 0f40
000001e0: 71fd 5540 0e65 c03f cf70 0740 d79d 1c40
000001f0: eb4c 5f40 f5d8 b23f 5333 7d3e 66dc 6fbd
00000200: 7742 2f3f 014b 983f 77c6 843e d795 583e
00000210: eb08 ecbd 6e01 0940 43b8 a83f 1aa6 3f3e
00000220: f3d1 163e ba3f c93f d56b 213f 237a 9f3f
00000230: 0367 273f 605e 073f bff5 553f 20d8 1a3f
00000240: 3c1d 93bb 68ba b03f 69e6 ce3f f381 9b3f
00000250: 645d 9fbf 7060 99bd 34bb 543e 62e3 343d
00000260: 3b09 0f40 7a84 2b3f 011f 6340 61a1 f43f
00000270: 72f9 903f 3bac 6a40 3a81 9e3e ff12 e13e
00000280: bd17 413f 0621 87bf 712b 003f 3e3a b23f
00000290: 827d e53f 9530 2c40 2dd5 713e e1d3 d63f
000002a0: 2d1f 173f 1a45 fe3f ffcf fa3f fcc0 ef3f
000002b0: 3cd3 bc3f e83d cc3e 42a5 823f

weight f4 [9, 175]
0.34810987 0.4844271 -1.1070822e-06 0.42126498 4.250051e-06 0.74705637 0.4932728 0.76778316
0.9812695 0.73263985 0.77309054 0.7351318 -1.6098343e-07 0.5008552 0.22197448 -0.0024768126
0.27101496 0.4041892 0.30903828 0.7765473 6.317423e-08 0.8327443 0.6114875 -0.34938708
1.1628395 0.8506797 1.290789 0.57343554 0.50049764 -1.2842396e-08 1.124193 0.33651868
0.6726674 1.336935 -6.361605e-07 0.01948583 0.5664624 0.3502635 0.6475338 0.8057484
0.45373344 -0.4519555 0.8249345 0.60620254 0.040393524 0.54695064 3.5351382e-05 -0.0435637
2.3541938e-07 0.01366513 0.4947184 0.52927166 0.32451776 0.67830664 0.4361143 0.004134878
8.79507e-05 0.597264 0.45437953 0.4156316 0.5758938 0.5955434 -7.210641e-10 -7.694578e-08
-1.2962436e-09 0.6130333 0.49528816 0.7195723 0.22738245 0.5607416 0.3796109 0.43270156
0.4949505 -0.009276893 0.42612678 0.27309984 0.109588884 0.46213138 0.0031668346 0.40883696
0.24650453 0.41191754 0.46844155 0.34540275 0.34520945 0.46219307 0.50990754 0.59157014
7.64116e-07 0.66649145 0.4932064 0.47372025 3.9148965e-08 0.4931962 0.69513476 0.7533884
0.6679129 0.53246546 0.62142223 1.0021526 0.9205539 1.2613662 -1.1508716e-07 -5.9170054e-07
0.012430747 -1.7403778e-07 1.1375403 0.60226697 0.60507447 0.7024673 -3.850893e-08 -0.00061613444
0.78690165 0.8032145 0.7893015 0.7695687 0.88619506 0.48702538 0.73020506 0.643763
0.7991926 0.57987946 0.57429504 0.49158648 0.7387107 0.13154118 0.5556973 0.05167621
0.28193104 0.65547967 0.83676094 2.1362132e-08 0.9366685 0.51679367 -5.883807e-07 0.6344213
0.32963338 0.3593309 0.37181652 0.34128025 0.65155035 0.6985565 0.40482154 0.25819358
0.34245053 1.0094825 0.28958192 0.40573648 0.47047672 0.54906154 0.37164965 0.33147797
0.4832589 0.4782099 0.5277387 0.4235159 0.61225456 0.5029782 0.265858 0.94764197
0.60737157 0.5852452 1.0653772 0.7914728 0.40410757 -0.008293615 0.2290042 0.4213964
0.56978196 0.28217915 7.170455e-08 0.46248016 0.49683678 0.82014966 0.41720766 0.47303867
0.70052683 0.73315465 0.6268651 1.3771584 0.36778992 0.61549157 0.57500273 -4.825874e-07
0.571905 1.943079e-05 -0.0033854358 0.8272325 2.8206136e-06 0.5751861 0.8576003 -0.5510802
0.15662351 -0.51640874 0.53763074 0.7508185 -1.8277697e-06 0.29685295 0.38885665 -0.0041674757
0.55181587 -1.9142017e-07 0.5147802 0.55216336 1.218881 3.179403e-08 -0.4141738 -2.2310157e-06
-1.9101694e-07 1.1368401 0.991026 0.2311103 0.40787935 -0.068368904 -2.746367e-07 0.61012965
0.65566224 -4.3008948e-09 0.07799072 0.8079874 0.34098458 0.536477 0.5857599 0.529925
0.46282396 0.3604089 0.3405003 0.3759531 -2.476647e-05 -0.00125862 0.5483095 0.6324905
-0.18639182 0.11373005 -0.5526192 1.266253e-06 2.3277673e-06 0.6122918 0.91947204 0.77233326
-8.093191e-07 -0.32976475 1.3519788e-10 0.4699434 0.3331851 -0.32710963 0.39435205 0.41419837
0.5126523 0.3115727 0.44414255 0.6190441 0.34391376 0.5883308 0.5429345 0.59912443
00000000: 753b b23e d406 f83e 0e97 94b5 0bb0 d73e
00000010: a99b 8e36 163f 3f3f 418e fc3e 708d 443f
00000020: 7a34 7b3f 498e 3b3f 43e9 453f 9931 3c3f
00000030: cada 2cb4 0c38 003f 474d 633e 0552 22bb
00000040: 79c2 8a3e e3f1 ce3e 443a 9e3e cecb 463f
00000050: 66aa 8733 bb2e 553f 728a 1c3f dde2 b2be
00000060: edd7 943f 25c6 593f 9338 a53f accc 123f
00000070: 9d20 003f 74a1 5cb2 8ee5 8f3f 2d4c ac3e
00000080: ee33 2c3f b020 ab3f 9ec4 2ab5 bfa0 9f3c
00000090: ae03 113f bd55 b33e c6c4 253f 8745 4e3f
000000a0: c04f e83e b666 e7be e82e 533f 1730 1b3f
000000b0: ae73 253d f504 0c3f 4246 1438 da6f 32bd
000000c0: 96c7 7c34 b6e3 5f3c bb4b fd3e 597e 073f
000000d0: 3127 a63e 81a5 2d3f 604a df3e df7d 873b
000000e0: 2c72 b838 4be6 183f 6fa4 e83e aacd d43e
000000f0: c76d 133f 8875 183f 6034 46b0 643d a5b3
00000100: 8427 b2b0 c0ef 1c3f 6996 fd3e e435 383f
00000110: f2d6 683e c38c 0f3f 5c5c c23e 0f8b dd3e
00000120: 276a fd3e 1cfe 17bc 4a2d da3e bed3 8b3e
00000130: 2370 e03d 7c9c ec3e ab8a 4f3b 1453 d13e
00000140: af6b 7c3e dbe6 d23e 92d7 ef3e a1d8 b03e
00000150: 4bbf b03e 92a4 ec3e 4d89 023f 2471 173f
00000160: a71d 4d35 2f9f 2a3f 8d85 fc3e 768b f23e
00000170: be24 2833 3684 fc3e 5af4 313f 10de 403f
00000180: 57fc 2a3f a84f 083f 8715 1f3f 8946 803f
00000190: 6ca9 6b3f 7374 a13f d625 f7b3 5ad5 1eb5
000001a0: 55aa 4b3c 24df 3ab4 ec9a 913f 2b2e 1a3f
000001b0: 29e6 1a3f e6d4 333f 0465 25b3 1584 21ba
000001c0: 6372 493f 779f 4d3f aa0f 4a3f 7402 453f
000001d0: aedd 623f 645b f93e b8ee 3a3f a7cd 243f
000001e0: e397 4c3f fb72 143f 0005 133f 39b1 fb3e
000001f0: 251c 3d3f bbb2 063e 2e42 0e3f 6faa 533d
00000200: 4459 903e 84cd 273f f735 563f d37f b732
00000210: 82c9 6f3f 974c 043f 37f1 1db5 6f69 223f
00000220: b5c5 a83e 38fa b73e bc5e be3e 49bc ae3e
00000230: 01cc 263f 99d4 323f c544 cf3e f331 843e
00000240: ad55 af3e b936 813f 1544 943e b1bc cf3e
00000250: 53e2 f03e 4c8f 0c3f dd48 be3e 7bb7 a93e
00000260: b66d f73e eed7 f43e e219 073f 13d7 d83e
00000270: b7bc 1c3f 2ec3 003f 8a1e 883e aa98 723f
00000280: b47c 1b3f a1d2 153f 485e 883f f69d 4a3f
00000290: 30e7 ce3e f1e1 07bc 1480 6a3e 45c1 d73e
000002a0: 3bdd 113f c979 903e fefb 9933 33ca ec3e
000002b0: 6461 fe3e 54f5 513f 3e9c d53e 2032 f23e
000002c0: ba55 333f 06b0 3b3f 3b7a 203f ba46 b03f
000002d0: f64e bc3e db90 1d3f 6133 133f 278b 01b5
000002e0: 5e68 123f 4eff a237 30de 5dbb 82c5 533f
000002f0: c649 3d36 653f 133f b18b 5b3f 9813 0dbf
00000300: ea61 203e 5d33 04bf 2ba2 093f a435 403f
00000310: b051 f5b5 1cfd 973e 3818 c73e 528f 88bb
00000320: ce43 0d3f 2d89 4db4 a3c8 033f 945a 0d3f
00000330: 4b04 9c3f e88d 0833 970e d4be 8fb8 15b6
00000340: 561a 4db4 fa83 913f e1b3 7d3f 2ea8 6c3e
00000350: 90d5 d03e ff04 8cbd c871 93b4 7531 1c3f
00000360: 7bd9 273f 12c7 93b1 99b9 9f3d 43d8 4e3f
00000370: 8895 ae3e 8f56 093f 5cf4 153f 2aa9 073f
00000380: 43f7 ec3e 8487 b83e 0e56 ae3e ed7c c03e
00000390: 97c1 cfb7 47f8 a4ba 035e 0c3f e6ea 213f
000003a0: 7fdd 3ebe 4deb e83d 7478 0dbf 1ff4 a935
000003b0: bd36 1c36 28bf 1c3f 8562 6b3f a2b7 453f
000003c0: fc3f 59b5 edd6 a8be d2a6 142f 6c9c f03e
000003d0: 3d97 aa3e ea7a a7be 83e8 c93e cf11 d43e
000003e0: 2e3d 033f 7586 9f3e a766 e33e ad79 1e3f
000003f0: 7715 b03e d99c 163f c1fd 0a3f 3860 193f

bias f4 [175]
0.0 0.0 0.0 0.0 0.0 0.0 0.0 0.0
0.0 0.0 0.0 0.0 0.0 0.0 0.0 0.0
0.0 0.0 0.0 0.0 0.0 0.0 0.0 0.0
0.0 0.0 0.0 0.0 0.0 0.0 0.0 0.0
0.0 0.0 0.0 0.0 0.0 0.0 0.0 0.0
0.0 0.0 0.0 0.0 0.0 0.0 0.0 0.0
0.0 0.0 0.0 0.0 0.0 0.0 0.0 0.0
0.0 0.0 0.0 0.0 0.0 0.0 0.0 0.0
0.0 0.0 0.0 0.0 0.0 0.0 0.0 0.0
0.0 0.0 0.0 0.0 0.0 0.0 0.0 0.0
0.0 0.0 0.0 0.0 0.0 0.0 0.0 0.0
0.0 0.0 0.0 0.0 0.0 0.0 0.0 0.0
0.0 0.0 0.0 0.0 0.0 0.0 0.0 0.0
0.0 0.0 0.0 0.0 0.0 0.0 0.0 0.0
0.0 0.0 0.0 0.0 0.0 0.0 0.0 0.0
0.0 0.0 0.0 0.0 0.0 0.0 0.0 0.0
0.0 0.0 0.0 0.0 0.0 0.0 0.0 0.0
0.0 0.0 0.0 0.0 0.0 0.0 0.0 0.0
0.0 0.0 0.0 0.0 0.0 0.0 0.0 0.0
0.0 0.0 0.0 0.0 0.0 0.0 0.0 0.0
0.0 0.0 0.0 0.0 0.0 0.0 0.0 0.0
0.0 0.0 0.0 0.0 0.0 0.0 0.0
00000000: 0000 0000 0000 0000 0000 0000 0000 0000
00000010: 0000 0000 0000 0000 0000 0000 0000 0000
00000020: 0000 0000 0000 0000 0000 0000 0000 0000
00000030: 0000 0000 0000 0000 0000 0000 0000 0000
00000040: 0000 0000 0000 0000 0000 0000 0000 0000
00000050: 0000 0000 0000 0000 0000 0000 0000 0000
00000060: 0000 0000 0000 0000 0000 0000 0000 0000
00000070: 0000 0000 0000 0000 0000 0000 0000 0000
00000080: 0000 0000 0000 0000 0000 0000 0000 0000
00000090: 0000 0000 0000 0000 0000 0000 0000 0000
000000a0: 0000 0000 0000 0000 0000 0000 0000 0000
000000b0: 0000 0000 0000 0000 0000 0000 0000 0000
000000c0: 0000 0000 0000 0000 0000 0000 0000 0000
000000d0: 0000 0000 0000 0000 0000 0000 0000 0000
000000e0: 0000 0000 0000 0000 0000 0000 0000 0000
000000f0: 0000 0000 0000 0000 0000 0000 0000 0000
00000100: 0000 0000 0000 0000 0000 0000 0000 0000
00000110: 0000 0000 0000 0000 0000 0000 0000 0000
00000120: 0000 0000 0000 0000 0000 0000 0000 0000
00000130: 0000 0000 0000 0000 0000 0000 0000 0000
00000140: 0000 0000 0000 0000 0000 0000 0000 0000
00000150: 0000 0000 0000 0000 0000 0000 0000 0000
00000160: 0000 0000 0000 0000 0000 0000 0000 0000
00000170: 0000 0000 0000 0000 0000 0000 0000 0000
00000180: 0000 0000 0000 0000 0000 0000 0000 0000
00000190: 0000 0000 0000 0000 0000 0000 0000 0000
000001a0: 0000 0000 0000 0000 0000 0000 0000 0000
000001b0: 0000 0000 0000 0000 0000 0000 0000 0000
000001c0: 0000 0000 0000 0000 0000 0000 0000 0000
000001d0: 0000 0000 0000 0000 0000 0000 0000 0000
000001e0: 0000 0000 0000 0000 0000 0000 0000 0000
000001f0: 0000 0000 0000 0000 0000 0000 0000 0000
00000200: 0000 0000 0000 0000 0000 0000 0000 0000
00000210: 0000 0000 0000 0000 0000 0000 0000 0000
00000220: 0000 0000 0000 0000 0000 0000 0000 0000
00000230: 0000 0000 0000 0000 0000 0000 0000 0000
00000240: 0000 0000 0000 0000 0000 0000 0000 0000
00000250: 0000 0000 0000 0000 0000 0000 0000 0000
00000260: 0000 0000 0000 0000 0000 0000 0000 0000
00000270: 0000 0000 0000 0000 0000 0000 0000 0000
00000280: 0000 0000 0000 0000 0000 0000 0000 0000
00000290: 0000 0000 0000 0000 0000 0000 0000 0000
000002a0: 0000 0000 0000 0000 0000 0000 0000 0000
000002b0: 0000 0000 0000 0000 0000 0000

_ei_mask f4 [175]
1.0 1.0 1.0 1.0 1.0 1.0 1.0 1.0
1.0 1.0 1.0 1.0 1.0 1.0 1.0 1.0
1.0 1.0 1.0 1.0 1.0 1.0 1.0 1.0
1.0 1.0 1.0 1.0 1.0 1.0 1.0 1.0
1.0 1.0 1.0 1.0 1.0 1.0 1.0 1.0
1.0 1.0 1.0 1.0 1.0 1.0 1.0 1.0
1.0 1.0 1.0 1.0 1.0 1.0 1.0 1.0
1.0 1.0 1.0 1.0 1.0 1.0 1.0 1.0
1.0 1.0 1.0 1.0 1.0 1.0 1.0 1.0
1.0 1.0 1.0 1.0 1.0 1.0 1.0 1.0
1.0 1.0 1.0 1.0 1.0 1.0 1.0 1.0
1.0 1.0 1.0 1.0 1.0 1.0 1.0 1.0
1.0 1.0 1.0 1.0 1.0 1.0 1.0 1.0
1.0 1.0 1.0 1.0 1.0 1.0 1.0 1.0
1.0 1.0 1.0 1.0 1.0 1.0 1.0 1.0
1.0 1.0 1.0 1.0 1.0 1.0 1.0 1.0
1.0 1.0 1.0 1.0 1.0 1.0 1.0 1.0
1.0 1.0 1.0 1.0 1.0 1.0 1.0 1.0
1.0 1.0 1.0 1.0 1.0 1.0 1.0 1.0
1.0 1.0 1.0 1.0 1.0 1.0 1.0 1.0
1.0 1.0 1.0 1.0 1.0 1.0 1.0 1.0
1.0 1.0 1.0 1.0 1.0 1.0 1.0
00000000: 0000 803f 0000 803f 0000 803f 0000 803f
00000010: 0000 803f 0000 803f 0000 803f 0000 803f
00000020: 0000 803f 0000 803f 0000 803f 0000 803f
00000030: 0000 803f 0000 803f 0000 803f 0000 803f
00000040: 0000 803f 0000 803f 0000 803f 0000 803f
00000050: 0000 803f 0000 803f 0000 803f 0000 803f
00000060: 0000 803f 0000 803f 0000 803f 0000 803f
00000070: 0000 803f 0000 803f 0000 803f 0000 803f
00000080: 0000 803f 0000 803f 0000 803f 0000 803f
00000090: 0000 803f 0000 803f 0000 803f 0000 803f
000000a0: 0000 803f 0000 803f 0000 803f 0000 803f
000000b0: 0000 803f 0000 803f 0000 803f 0000 803f
000000c0: 0000 803f 0000 803f 0000 803f 0000 803f
000000d0: 0000 803f 0000 803f 0000 803f 0000 803f
000000e0: 0000 803f 0000 803f 0000 803f 0000 803f
000000f0: 0000 803f 0000 803f 0000 803f 0000 803f
00000100: 0000 803f 0000 803f 0000 803f 0000 803f
00000110: 0000 803f 0000 803f 0000 803f 0000 803f
00000120: 0000 803f 0000 803f 0000 803f 0000 803f
00000130: 0000 803f 0000 803f 0000 803f 0000 803f
00000140: 0000 803f 0000 803f 0000 803f 0000 803f
00000150: 0000 803f 0000 803f 0000 803f 0000 803f
00000160: 0000 803f 0000 803f 0000 803f 0000 803f
00000170: 0000 803f 0000 803f 0000 803f 0000 803f
00000180: 0000 803f 0000 803f 0000 803f 0000 803f
00000190: 0000 803f 0000 803f 0000 803f 0000 803f
000001a0: 0000 803f 0000 803f 0000 803f 0000 803f
000001b0: 0000 803f 0000 803f 0000 803f 0000 803f
000001c0: 0000 803f 0000 803f 0000 803f 0000 803f
000001d0: 0000 803f 0000 803f 0000 803f 0000 803f
000001e0: 0000 803f 0000 803f 0000 803f 0000 803f
000001f0: 0000 803f 0000 803f 0000 803f 0000 803f
00000200: 0000 803f 0000 803f 0000 803f 0000 803f
00000210: 0000 803f 0000 803f 0000 803f 0000 803f
00000220: 0000 803f 0000 803f 0000 803f 0000 803f
00000230: 0000 803f 0000 803f 0000 803f 0000 803f
00000240: 0000 803f 0000 803f 0000 803f 0000 803f
00000250: 0000 803f 0000 803f 0000 803f 0000 803f
00000260: 0000 803f 0000 803f 0000 803f 0000 803f
00000270: 0000 803f 0000 803f 0000 803f 0000 803f
00000280: 0000 803f 0000 803f 0000 803f 0000 803f
00000290: 0000 803f 0000 803f 0000 803f 0000 803f
000002a0: 0000 803f 0000 803f 0000 803f 0000 803f
000002b0: 0000 803f 0000 803f 0000 803f

weight f4 [2, 175]
0.6057482 0.39343566 0.20061219 0.23917948 0.62810373 0.4871677 0.47185686 0.91220915
0.49385723 0.81057525 -0.06763666 0.29898232 0.053952374 0.22923587 0.16230269 0.5729159
0.25020573 0.05649954 0.231319 0.70344305 0.17323318 -0.0543352 0.22503349 0.16246414
1.7382462 0.8250224 0.20158394 0.13860239 0.16061825 0.6794194 0.6807263 0.36443448
0.37231144 0.54465234 0.16526966 0.7202147 -0.019476758 0.13986984 0.4989153 0.3607011
0.8424009 0.2649781 0.29934072 -0.4266273 0.3895114 0.06236359 0.07941401 0.07916471
0.14349528 0.59886986 0.35124543 0.32949075 0.37722242 0.033770677 0.07807732 -0.43668532
0.2140517 0.25460586 0.32972124 0.87958777 0.1833856 0.24016942 0.38378775 0.12828897
0.0007214587 0.29149926 0.25690532 0.010829582 -0.08831684 0.2981505 0.039758425 0.27025846
0.2916781 0.022731522 0.2422147 0.075936235 0.06816704 0.22252889 0.1608096 0.3934829
0.35359293 0.56752783 0.1309513 0.514511 0.13862877 0.2802108 0.5282192 0.52819526
-0.09069781 0.3545913 0.46854106 0.43854615 0.5650726 0.23888622 0.38646898 0.22573724
0.5852489 0.14464109 0.4051977 0.2723572 0.3381025 0.08681195 0.45623752 0.3093475
0.15958208 0.33201897 0.11553424 0.4218378 -0.051337797 0.5578787 -0.0887353 0.23512919
0.1261429 0.6031146 -0.1105568 0.6955428 0.14011449 -0.031630304 0.8016652 0.47007126
0.53322464 0.43875045 0.24835749 0.34242117 0.5020067 0.36516863 0.06951971 0.001942174
0.22503714 -0.1417702 0.2599548 -0.032252744 0.16498773 0.35062864 0.2029984 0.09490636
0.43029293 0.46408436 0.27017465 0.20099445 0.4103964 0.3292676 1.0338011 0.45842004
0.09080188 0.17362939 0.43012592 -0.124363035 0.53858167 0.083099194 0.15889123 0.05566554
0.3671162 -0.03038769 0.7392755 0.6779906 0.101298146 0.7076256 0.25066346 -0.15243287
0.19444774 0.11013052 0.62237626 0.20791486 0.3273417 0.46460956 -0.05571704 0.36448234
-0.36531186 0.46912894 0.14904408 0.30228832 0.3361201 -0.21445477 0.11221286 -0.33268762
0.6606637 0.024348572 0.20907341 -0.34641188 0.62889117 0.37046668 0.41003722 0.15051505
0.32208008 0.6907636 0.48561615 0.4770588 -0.026648402 -0.24858287 0.2809204 -0.2407509
0.1900132 -0.27678904 0.6570702 0.04206813 0.74621487 0.26996273 0.21893762 -0.2946389
0.53881294 -0.11876284 0.7798449 0.5833173 0.783365 0.33833033 0.19566908 0.3251276
0.14038643 0.035727777 0.3560753 0.39004457 0.45003602 0.17555866 0.4404014 -0.22557819
0.1944956 -0.080020115 0.5147556 -0.05353074 0.23742658 0.31068242 0.39794794 -0.051181976
-0.36079833 -0.70454645 -0.6444428 -0.033777285 0.35958138 0.16241346 0.46745518 0.36033037
0.28365538 -0.0599078 -0.2870366 -0.04306465 -0.094459 -0.09391246 0.7465433 0.36609614
0.26893058 0.33729827 0.17393813 -0.09049421 0.20989817 0.34383696 0.24733266 0.2999555
0.32595095 0.24126142 0.3761153 0.44284904 0.2708659 0.07910423 0.17532496 0.31037438
00000000: 5012 1b3f 6670 c93e 486d 4d3e 77eb 743e
00000010: 68cb 203f 0b6e f93e 3997 f13e 8a86 693f
00000020: dbda fc3e dc81 4f3f 1785 8abd 3614 993e
00000030: 2afd 5c3d cfbc 6a3e ad32 263e 9eaa 123f
00000040: f71a 803e 106c 673d e3de 6c3e d814 343f
00000050: 0a64 313e 968e 5ebd 2e6f 663e 005d 263e
00000060: da7e de3f ab34 533f 056c 4e3e c9ed 0d3e
00000070: 1c79 243e 6eee 2d3f 1444 2e3f 2897 ba3e
00000080: 9b9f be3e 566e 0b3f 733c 293e fe5f 383f
00000090: b98d 9fbc 0a3a 0f3e d471 ff3e d1ad b83e
000000a0: 96a7 573f 36ab 873e 3043 993e e56e dabe
000000b0: 0a6e c73e f770 7f3d d0a3 a23d 1c21 a23d
000000c0: 6df0 123e 894f 193f 71d6 b33e 03b3 a83e
000000d0: 4c23 c13e 1f53 0a3d 00e7 9f3d 3895 dfbe
000000e0: 5e30 5b3e b35b 823e 39d1 a83e aa2c 613f
000000f0: 6fc9 3b3e f9ee 753e d47f c43e 2f5e 033e
00000100: 4620 3d3a 643f 953e 1889 833e 8f6e 313c
00000110: 76df b4bd 2fa7 983e bbd9 223d 515f 8a3e
00000120: d556 953e 7537 ba3c 2107 783e 7584 9b3d
00000130: 299b 8b3d 9dde 633e 46ab 243e 9776 c93e
00000140: 220a b53e 8149 113f 1918 063e feb6 033f
00000150: b3f4 0d3e ca77 8f3e 6039 073f ce37 073f
00000160: c6bf b9bd fe8c b53e 9de4 ef3e 1f89 e03e
00000170: 99a8 103f 979e 743e 43df c53e aa27 673e
00000180: dfd2 153f cb1c 143e 1376 cf3e 6772 8b3e
00000190: c51b ad3e 77ca b13d f797 e93e cc62 9e3e
000001a0: 7c69 233e 64fe a93e 379d ec3d 20fb d73e
000001b0: 9547 52bd 23d1 0e3f daba b5bd b5c5 703e
000001c0: 9b2b 013e b865 1a3f 9b6b e2bd 180f 323f
000001d0: 2c7a 0f3e c78e 01bd ee39 4d3f 2ead f03e
000001e0: 6981 083f e6a3 e03e 6d51 7e3e d451 af3e
000001f0: 8383 003f 62f7 ba3e 5a60 8e3d 8c90 fe3a
00000200: 2370 663e 352c 11be cc18 853e 741b 04bd
00000210: 8bf2 283e 9985 b33e d0de 4f3e 445e c23d
00000220: 5b4f dc3e 779c ed3e 5554 8a3e 7dd1 4d3e
00000230: 7a1f d23e c395 a83e 9853 843f 08b6 ea3e
00000240: 56f6 b93d e7cb 313e 7739 dc3e 0cb2 febd
00000250: 7de0 093f e92f aa3d 62b4 223e 8d01 643d
00000260: a8f6 bb3e 9bef f8bc 2941 3d3f cb90 2d3f
00000270: 6775 cf3d f426 353f f656 803e 5d17 1cbe
00000280: 4f1d 473e 1c8c e13d 0d54 1f3f a2e7 543e
00000290: 5599 a73e 4ee1 ed3e 8d37 64bd 6e9d ba3e
000002a0: 280a bbbe ab31 f03e 039f 183e 89c5 9a3e
000002b0: ef17 ac3e 089a 5bbe dbcf e53d 0856 aabe
000002c0: 4221 293f a876 c73c 5717 563e e65c b1be
000002d0: 03ff 203f cfad bd3e 66f0 d13e 9e20 1a3e
000002e0: aee7 a43e e2d5 303f aea2 f83e 0d41 f43e
000002f0: c04d dabc 828c 7ebe ccd4 8f3e 6787 76be
00000300: d292 423e 4bb7 8dbe c135 283f a24f 2c3d
00000310: f007 3f3f 8e38 8a3e 2f31 603e e9da 96be
00000320: a5ef 093f ef39 f3bd eaa3 473f 4854 153f
00000330: 9c8a 483f a239 ad3e 7a5d 483e 2077 a63e
00000340: 76c1 0f3e 4a57 123d 804f b63e ecb3 c73e
00000350: 1f6b e63e a6c5 333e 4b7c e13e f8fd 66be
00000360: db29 473e 96e1 a3bd 06c7 033f 0d43 5bbd
00000370: f41f 733e c411 9f3e d5bf cb3e 31a4 51bd
00000380: 8fba b8be 285d 34bf 34fa 24bf 0d5a 0abd
00000390: 0d1b b83e b74f 263e 4956 ef3e 397d b83e
000003a0: 473b 913e e261 75bd 76f6 92be 8f64 30bd
000003b0: b873 c1bd 2d55 c0bd 761d 3f3f f470 bb3e
000003c0: 45b1 893e 5cb2 ac3e d61c 323e 0755 b9bd
000003d0: 8cef 563e 660b b03e c644 7d3e c493 993e
000003e0: 0be3 a63e 3c0d 773e 2f92 c03e 1cbd e23e
000003f0: efae 8a3e 6601 a23d 6388 333e 64e9 9e3e

bias f4 [175]
0.0 0.0 0.0 0.0 0.0 0.0 0.0 0.0
0.0 0.0 0.0 0.0 0.0 0.0 0.0 0.0
0.0 0.0 0.0 0.0 0.0 0.0 0.0 0.0
0.0 0.0 0.0 0.0 0.0 0.0 0.0 0.0
0.0 0.0 0.0 0.0 0.0 0.0 0.0 0.0
0.0 0.0 0.0 0.0 0.0 0.0 0.0 0.0
0.0 0.0 0.0 0.0 0.0 0.0 0.0 0.0
0.0 0.0 0.0 0.0 0.0 0.0 0.0 0.0
0.0 0.0 0.0 0.0 0.0 0.0 0.0 0.0
0.0 0.0 0.0 0.0 0.0 0.0 0.0 0.0
0.0 0.0 0.0 0.0 0.0 0.0 0.0 0.0
0.0 0.0 0.0 0.0 0.0 0.0 0.0 0.0
0.0 0.0 0.0 0.0 0.0 0.0 0.0 0.0
0.0 0.0 0.0 0.0 0.0 0.0 0.0 0.0
0.0 0.0 0.0 0.0 0.0 0.0 0.0 0.0
0.0 0.0 0.0 0.0 0.0 0.0 0.0 0.0
0.0 0.0 0.0 0.0 0.0 0.0 0.0 0.0
0.0 0.0 0.0 0.0 0.0 0.0 0.0 0.0
0.0 0.0 0.0 0.0 0.0 0.0 0.0 0.0
0.0 0.0 0.0 0.0 0.0 0.0 0.0 0.0
0.0 0.0 0.0 0.0 0.0 0.0 0.0 0.0
0.0 0.0 0.0 0.0 0.0 0.0 0.0
00000000: 0000 0000 0000 0000 0000 0000 0000 0000
00000010: 0000 0000 0000 0000 0000 0000 0000 0000
00000020: 0000 0000 0000 0000 0000 0000 0000 0000
00000030: 0000 0000 0000 0000 0000 0000 0000 0000
00000040: 0000 0000 0000 0000 0000 0000 0000 0000
00000050: 0000 0000 0000 0000 0000 0000 0000 0000
00000060: 0000 0000 0000 0000 0000 0000 0000 0000
00000070: 0000 0000 0000 0000 0000 0000 0000 0000
00000080: 0000 0000 0000 0000 0000 0000 0000 0000
00000090: 0000 0000 0000 0000 0000 0000 0000 0000
000000a0: 0000 0000 0000 0000 0000 0000 0000 0000
000000b0: 0000 0000 0000 0000 0000 0000 0000 0000
000000c0: 0000 0000 0000 0000 0000 0000 0000 0000
000000d0: 0000 0000 0000 0000 0000 0000 0000 0000
000000e0: 0000 0000 0000 0000 0000 0000 0000 0000
000000f0: 0000 0000 0000 0000 0000 0000 0000 0000
00000100: 0000 0000 0000 0000 0000 0000 0000 0000
00000110: 0000 0000 0000 0000 0000 0000 0000 0000
00000120: 0000 0000 0000 0000 0000 0000 0000 0000
00000130: 0000 0000 0000 0000 0000 0000 0000 0000
00000140: 0000 0000 0000 0000 0000 0000 0000 0000
00000150: 0000 0000 0000 0000 0000 0000 0000 0000
00000160: 0000 0000 0000 0000 0000 0000 0000 0000
00000170: 0000 0000 0000 0000 0000 0000 0000 0000
00000180: 0000 0000 0000 0000 0000 0000 0000 0000
00000190: 0000 0000 0000 0000 0000 0000 0000 0000
000001a0: 0000 0000 0000 0000 0000 0000 0000 0000
000001b0: 0000 0000 0000 0000 0000 0000 0000 0000
000001c0: 0000 0000 0000 0000 0000 0000 0000 0000
000001d0: 0000 0000 0000 0000 0000 0000 0000 0000
000001e0: 0000 0000 0000 0000 0000 0000 0000 0000
000001f0: 0000 0000 0000 0000 0000 0000 0000 0000
00000200: 0000 0000 0000 0000 0000 0000 0000 0000
00000210: 0000 0000 0000 0000 0000 0000 0000 0000
00000220: 0000 0000 0000 0000 0000 0000 0000 0000
00000230: 0000 0000 0000 0000 0000 0000 0000 0000
00000240: 0000 0000 0000 0000 0000 0000 0000 0000
00000250: 0000 0000 0000 0000 0000 0000 0000 0000
00000260: 0000 0000 0000 0000 0000 0000 0000 0000
00000270: 0000 0000 0000 0000 0000 0000 0000 0000
00000280: 0000 0000 0000 0000 0000 0000 0000 0000
00000290: 0000 0000 0000 0000 0000 0000 0000 0000
000002a0: 0000 0000 0000 0000 0000 0000 0000 0000
000002b0: 0000 0000 0000 0000 0000 0000

_ei_mask f4 [175]
1.0 1.0 1.0 1.0 1.0 1.0 1.0 1.0
1.0 1.0 1.0 1.0 1.0 1.0 1.0 1.0
1.0 1.0 1.0 1.0 1.0 1.0 1.0 1.0
1.0 1.0 1.0 1.0 1.0 1.0 1.0 1.0
1.0 1.0 1.0 1.0 1.0 1.0 1.0 1.0
1.0 1.0 1.0 1.0 1.0 1.0 1.0 1.0
1.0 1.0 1.0 1.0 1.0 1.0 1.0 1.0
1.0 1.0 1.0 1.0 1.0 1.0 1.0 1.0
1.0 1.0 1.0 1.0 1.0 1.0 1.0 1.0
1.0 1.0 1.0 1.0 1.0 1.0 1.0 1.0
1.0 1.0 1.0 1.0 1.0 1.0 1.0 1.0
1.0 1.0 1.0 1.0 1.0 1.0 1.0 1.0
1.0 1.0 1.0 1.0 1.0 1.0 1.0 1.0
1.0 1.0 1.0 1.0 1.0 1.0 1.0 1.0
1.0 1.0 1.0 1.0 1.0 1.0 1.0 1.0
1.0 1.0 1.0 1.0 1.0 1.0 1.0 1.0
1.0 1.0 1.0 1.0 1.0 1.0 1.0 1.0
1.0 1.0 1.0 1.0 1.0 1.0 1.0 1.0
1.0 1.0 1.0 1.0 1.0 1.0 1.0 1.0
1.0 1.0 1.0 1.0 1.0 1.0 1.0 1.0
1.0 1.0 1.0 1.0 1.0 1.0 1.0 1.0
1.0 1.0 1.0 1.0 1.0 1.0 1.0
00000000: 0000 803f 0000 803f 0000 803f 0000 803f
00000010: 0000 803f 0000 803f 0000 803f 0000 803f
00000020: 0000 803f 0000 803f 0000 803f 0000 803f
00000030: 0000 803f 0000 803f 0000 803f 0000 803f
00000040: 0000 803f 0000 803f 0000 803f 0000 803f
00000050: 0000 803f 0000 803f 0000 803f 0000 803f
00000060: 0000 803f 0000 803f 0000 803f 0000 803f
00000070: 0000 803f 0000 803f 0000 803f 0000 803f
00000080: 0000 803f 0000 803f 0000 803f 0000 803f
00000090: 0000 803f 0000 803f 0000 803f 0000 803f
000000a0: 0000 803f 0000 803f 0000 803f 0000 803f
000000b0: 0000 803f 0000 803f 0000 803f 0000 803f
000000c0: 0000 803f 0000 803f 0000 803f 0000 803f
000000d0: 0000 803f 0000 803f 0000 803f 0000 803f
000000e0: 0000 803f 0000 803f 0000 803f 0000 803f
000000f0: 0000 803f 0000 803f 0000 803f 0000 803f
00000100: 0000 803f 0000 803f 0000 803f 0000 803f
00000110: 0000 803f 0000 803f 0000 803f 0000 803f
00000120: 0000 803f 0000 803f 0000 803f 0000 803f
00000130: 0000 803f 0000 803f 0000 803f 0000 803f
00000140: 0000 803f 0000 803f 0000 803f 0000 803f
00000150: 0000 803f 0000 803f 0000 803f 0000 803f
00000160: 0000 803f 0000 803f 0000 803f 0000 803f
00000170: 0000 803f 0000 803f 0000 803f 0000 803f
00000180: 0000 803f 0000 803f 0000 803f 0000 803f
00000190: 0000 803f 0000 803f 0000 803f 0000 803f
000001a0: 0000 803f 0000 803f 0000 803f 0000 803f
000001b0: 0000 803f 0000 803f 0000 803f 0000 803f
000001c0: 0000 803f 0000 803f 0000 803f 0000 803f
000001d0: 0000 803f 0000 803f 0000 803f 0000 803f
000001e0: 0000 803f 0000 803f 0000 803f 0000 803f
000001f0: 0000 803f 0000 803f 0000 803f 0000 803f
00000200: 0000 803f 0000 803f 0000 803f 0000 803f
00000210: 0000 803f 0000 803f 0000 803f 0000 803f
00000220: 0000 803f 0000 803f 0000 803f 0000 803f
00000230: 0000 803f 0000 803f 0000 803f 0000 803f
00000240: 0000 803f 0000 803f 0000 803f 0000 803f
00000250: 0000 803f 0000 803f 0000 803f 0000 803f
00000260: 0000 803f 0000 803f 0000 803f 0000 803f
00000270: 0000 803f 0000 803f 0000 803f 0000 803f
00000280: 0000 803f 0000 803f 0000 803f 0000 803f
00000290: 0000 803f 0000 803f 0000 803f 0000 803f
000002a0: 0000 803f 0000 803f 0000 803f 0000 803f
000002b0: 0000 803f 0000 803f 0000 803f

weight f4 [403, 3]
-1.1627017 -0.698447 1.2388397 -0.11488322 -1.2916131 0.783341 0.4231509 -1.4645395
0.4681644 0.62634635 -1.4518187 0.21454649 1.0783787 -1.0683215 0.18304314 1.4420333
-0.09635462 0.22636275 0.9806921 -0.20356606 0.14936501 0.8100104 -1.0072025 0.20164655
0.9861031 -1.0435799 0.09630792 1.1045606 0.7174291 0.02297173 1.1968794 0.914131
0.3559391 0.32901475 0.20710135 0.38194937 0.28933394 0.14823216 0.27740228 0.3484559
0.13708149 -0.010764274 0.46003792 -0.07877915 0.67459345 0.7932352 -0.9807953 0.42541754
0.8187875 0.36082023 -0.14500462 1.0389423 0.046993706 0.0728732 0.9214478 8.451461e-05
0.091438375 0.25588346 0.22543642 -0.46905264 0.644373 0.33195513 -0.13721144 1.283262
0.11404052 0.34038353 1.2339298 -1.2047732 0.17233786 1.3922745 -1.0044419 0.0644684
1.4217612 -0.9318633 0.038567565 1.939149 -0.7721096 -0.1260271 2.0027273 -0.59545684
-0.4464514 2.2752912 -0.71945864 -0.47842687 2.1765208 -0.4738519 -0.77005404 1.8026732
-0.21083991 -0.5375173 1.6553714 -0.5130533 -0.42192426 1.7720321 -0.04690886 -0.42914417
1.185669 0.32306346 -1.1248627 1.1201937 0.16346253 -0.38249502 1.8419232 -0.54458934
-0.25319284 1.9506073 0.039518 -0.28476 2.8898544 0.38811126 -1.1968223 3.4028444
-0.40756762 -1.375673 3.6810813 -0.26608914 -1.137001 3.2015924 0.4924162 -0.9520794
3.028499 0.24053103 -0.82268006 3.234663 0.45033085 -1.0432758 3.743135 0.40465215
-1.17441 3.7381518 -0.27193648 -0.96709496 3.2696018 0.14229892 -1.0688955 2.82033
-0.5144673 -0.90181345 2.3031645 -0.3744222 -0.78407204 1.6918709 -0.06426104 -0.48292753
2.1769178 -0.47979558 -0.20779672 3.128536 -0.5649681 -0.705407 3.2818184 -0.7836851
-0.5869582 3.1060154 -0.8226897 -0.25408298 2.743375 -0.107658006 -0.590512 2.2571862
-0.7306838 -0.89136827 1.4720801 -0.67483836 -1.5272015 1.4176161 -0.36931065 -0.7404937
1.3800741 -0.49232918 -0.63645864 0.6166163 -0.23799072 -0.21265881 -0.07086289 -0.060368255
-0.5113372 0.41910934 -0.11474311 -0.3717555 0.22342823 -0.085280225 0.082654566 1.0691898
-0.13802317 -0.35503954 1.1020367 -0.23633674 -0.19040383 0.862074 -0.4586145 -0.18087605
0.8188298 -0.42932433 -0.06595632 1.0777129 -0.5802003 -0.37913865 1.2452573 -0.6747686
-0.6089065 1.4244204 -0.9826141 -0.45814788 1.3985939 -0.5899853 -0.17248224 1.3436158
-0.30838892 -0.27354828 1.2576255 -0.038212225 -0.47607508 1.111205 0.0074850824 -0.77433735
1.4144231 -0.14801832 -0.94684905 1.8588004 -1.1771061 -0.25389224 2.5718193 -0.60204643
-0.35983062 2.5148098 0.13594732 -0.8335914 2.6068304 -0.2182493 -0.48513085 2.6348326
-0.32461408 -0.6990147 2.6917822 -0.036023535 -0.6162223 2.9347148 0.29660392 -0.96509916
2.9780116 0.22162765 -1.3245258 3.3179653 -0.016503088 -0.89226407 3.1933613 0.082065925
-1.0116969 3.0390453 0.1107591 -0.74165756 3.5333104 0.22930369 -0.30764848 3.3594358
00000000: 69d3 94bf 6ccd 32bf 4d92 9e3f e547 ebbd
00000010: 9453 a5bf 0989 483f 3ca7 d83e 0876 bbbf
00000020: 3fb3 ef3e 3c58 203f 32d5 b9bf 13b2 5b3e
00000030: 5008 8a3f c2be 88bf a96f 3b3e 8c94 b83f
00000040: 9255 c5bd a3cb 673e a30e 7b3f 9f73 50be
00000050: 24f3 183e d75c 4f3f 03ec 80bf 6f7c 4e3e
00000060: 4171 7c3f 0794 85bf 163d c53d 3e62 8d3f
00000070: 6fa9 373f 362f bc3c 5833 993f 7d04 6a3f
00000080: a63d b63e 9f74 a83e 6012 543e de8e c33e
00000090: 9423 943e 2cca 173e ac07 8e3e d068 b23e
000000a0: 175f 0c3e a35c 30bc 178a eb3e f756 a1bd
000000b0: 28b2 2c3f 7611 4b3f 6715 7bbf 54d0 d93e
000000c0: 0f9c 513f 6ebd b83e 177c 14be 10fc 843f
000000d0: 797c 403d 8b3e 953d 01e4 6b3f 703d b138
000000e0: 0b44 bb3d 2803 833e ced8 663e ab27 f0be
000000f0: a1f5 243f 06f6 a93e 2881 0cbe ee41 a43f
00000100: 138e e93d c046 ae3e 69f1 9d3f 0236 9abf
00000110: 5679 303e 0d36 b23f 8d91 80bf 0208 843d
00000120: 45fc b53f 988e 6ebf 06f9 1d3d 0936 f83f
00000130: faa8 45bf 400d 01be af2c 0040 dc6f 18bf
00000140: 4795 e4be 5f9e 1140 712e 38bf 5ef4 f4be
00000150: 1e4c 0b40 b79c f2be 4322 45bf ffbd e63f
00000160: 6be6 57be bc9a 09bf 36e3 d33f 7657 03bf
00000170: 7506 d8be f3d1 e23f 8123 40bd c9b8 dbbe
00000180: 00c4 973f 9368 a53e 80fb 8fbf 8262 8f3f
00000190: b962 273e 63d6 c3be 24c4 eb3f 356a 0bbf
000001a0: 7ea2 81be 80ad f93f a0dd 213d 10cc 91be
000001b0: 60f3 3840 85b6 c63e 7931 99bf 34c8 5940
000001c0: b4ac d0be 0e16 b0bf d696 6b40 d63c 88be
000001d0: 4089 91bf e4e6 4c40 fa1d fc3e 7abb 73bf
000001e0: edd2 4140 c44d 763e 299b 52bf b804 4f40
000001f0: c491 e63e 108a 85bf 868f 6f40 912e cf3e
00000200: 1153 96bf e13d 6f40 423b 8bbe 8993 77bf
00000210: 2841 5140 cfb6 113e 91d1 88bf 4980 3440
00000220: 21b4 03bf 3fdd 66bf 0c67 1340 44b4 bfbe
00000230: f2b8 48bf 3a8f d83f 4b9b 83bd 4742 f7be
00000240: 9f52 0b40 c4a7 f5be aac8 54be ef39 4840
00000250: c0a1 10bf 8e95 34bf 5009 5240 969f 48bf
00000260: e542 16bf f5c8 4640 cb9b 52bf 2a17 82be
00000270: 7593 2f40 cd7b dcbd cb2b 17bf bd75 1040
00000280: 180e 3bbf b630 64bf 1f6d bc3f 35c2 2cbf
00000290: 577b c3bf 7274 b53f 4916 bdbe ff90 3dbf
000002a0: 45a6 b03f 9212 fcbe f4ee 22bf 91da 1d3f
000002b0: d7b3 73be 3bc3 59be 9020 91bd b444 77bd
000002c0: ffe6 02bf 8095 d63e 70fe eabd bd56 bebe
000002d0: 5fca 643e 66a7 aebd cc46 a93d 36db 883f
000002e0: f255 0dbe bec7 b5be 8a0f 8d3f 4202 72be
000002f0: 39f9 42be e2b0 5c3f 85cf eabe 9237 39be
00000300: d49e 513f 66d0 dbbe 1b14 87bd 7ff2 893f
00000310: 0288 14bf 761e c2be 9764 9f3f a3bd 2cbf
00000320: 4ce1 1bbf 6853 b63f 998c 7bbf 5c92 eabe
00000330: 2005 b33f 4709 17bf 2f9f 30be 9afb ab3f
00000340: 27e5 9dbe 850e 8cbe dff9 a03f 6c84 1cbd
00000350: 1dc0 f3be f73b 8e3f 6c45 f53b f93a 46bf
00000360: d10b b53f 1d92 17be b364 72bf 2ced ed3f
00000370: 6aab 96bf 2afe 81be b098 2440 b71f 1abf
00000380: b83b b8be a5f2 2040 c635 0b3e 3f66 55bf
00000390: 4fd6 2640 bf7c 5fbe 1263 f8be 19a1 2840
000003a0: d133 a6be a1f2 32bf 2946 2c40 6a8d 13bd
000003b0: bfc0 1dbf 5ed2 3b40 78dc 973e bd10 77bf
000003c0: be97 3e40 5cf2 623e 108a a9bf 8b59 5440
000003d0: 7c31 87bc 6b6b 64bf 0860 4c40 2e12 a83d
000003e0: 497f 81bf b87f 4240 abd5 e23d 45dd 3dbf
000003f0: c221 6240 96ce 6a3e 1a84 9dbe ff00 5740

bias f4 [3]
0.0 0.0 0.0
00000000: 0000 0000 0000 0000 0000 0000

_ei_mask f4 [3]
1.0 1.0 1.0
00000000: 0000 803f 0000 803f 0000 803f

rmat f4 [1, 1, 3]
-1.0 2.0 -1.0
00000000: 0000 80bf 0000 0040 0000 80bf

weight f4 [3, 175]
0.4939769 0.21662262 0.35589048 0.30335104 0.19772223 0.07949038 0.2104392 0.16700047
0.09892718 0.21672861 0.039738078 0.12604758 0.23527786 0.21525092 -0.013872875 0.24119852
-0.034621052 0.0005554916 -0.01628432 0.21965331 0.29460147 0.1520169 0.19866666 0.10101116
0.1528518 0.28578153 0.16580036 0.106116064 0.24263756 0.257832 0.12270902 -0.03484885
-0.030064704 0.19017176 0.23811175 0.2967073 0.18384582 -0.1634887 0.23898043 0.14250842
0.19019304 0.37546223 0.11700531 -0.43669176 0.23035286 0.18211001 0.006858684 -0.24595654
0.31278306 0.3301954 0.008826693 -0.035268646 0.020635016 0.10770755 0.15277983 0.21303827
0.20581812 -0.026031133 0.16404454 0.012748844 0.34091315 0.3125327 0.29396775 0.3258071
0.24093263 0.052090414 -0.01233961 0.1734022 0.5617756 0.2890495 0.12293045 0.06007562
0.1346737 0.13130203 0.010196769 0.049551714 0.03920763 0.12195776 0.11026872 0.15503159
0.12765303 0.08622482 0.0066590332 0.20810848 -0.042804003 0.085143216 0.24565409 0.2573328
0.21031637 0.17484811 0.021465141 -0.008776924 0.17611219 0.05093802 0.13802426 0.13523524
0.16749275 0.19752918 0.17164211 0.14387655 0.09075451 0.15365812 0.18963383 0.13965204
0.18340993 0.22397235 0.123303086 0.101576984 0.030212507 0.08330599 0.19308718 0.27577573
0.2271892 0.07848451 0.17830442 0.07829548 0.14956728 0.06820026 0.04044758 0.09646512
0.09923774 0.2804911 0.10669049 0.10772192 0.085031316 0.19347826 0.04829013 0.2845571
0.29998612 0.3317857 -0.067778006 0.26837775 0.12426018 0.18201855 0.25183317 0.01959753
0.068035364 0.11581868 0.22382128 0.039452646 0.15277117 0.1875641 0.37181816 0.121590346
0.18932396 0.121639766 -0.045748007 0.05035974 1.0405282 -0.005932637 0.10999721 0.07524029
0.03424837 0.4043653 0.05225555 0.25591984 0.23637736 0.09937737 0.17533989 0.1835808
0.27912703 0.26290575 0.262136 0.04148753 0.08251051 0.20427242 0.5983957 0.0051311096
0.37958288 0.17593923 0.18319 0.04918091 0.06822022 0.16876924 -0.5669353 -0.23853882
-0.1791862 -0.12871557 -0.09847533 -0.041523196 -0.20993331 0.04414165 -0.013830534 0.010264687
-0.040983506 0.34362665 0.039616503 0.64471555 0.20707081 -0.53649634 -0.20925182 -0.5577274
0.5466737 -0.5584867 -0.15664206 -0.5437959 0.13517132 -0.12986097 0.575666 0.16303869
-0.2235247 0.055669907 0.13975456 -0.11442394 -0.08789778 0.224967 -0.37308154 0.3132436
0.13513204 -0.35018715 -0.2607042 -0.5203504 0.075871676 -0.074818075 -0.17626384 0.01879088
-0.23427089 -0.09998666 2.4075828 -0.28438 0.33130944 0.15958229 0.7897187 -0.37764904
-0.1804788 4.0888906 4.1435313 -0.34475586 0.53211135 -0.41202155 0.28724152 -0.12559123
0.09396324 -0.11652199 -0.5787631 -0.25268036 -0.34721684 -0.24927989 -0.12023757 -0.15091805
0.24858437 0.2989345 0.0023396017 -0.27410656 -0.23670898 -0.6086547 0.07589786 -0.022185747
0.010708727 -0.059401125 0.13637005 0.17237775 -0.013098594 -0.27264354 0.021371188 0.011508366
00000000: 8aea fc3e 52d2 5d3e 4737 b63e d450 9b3e
00000010: b277 4a3e dacb a23d 607d 573e 2c02 2b3e
00000020: 559a ca3d 1bee 5d3e 65c4 223d 9e12 013e
00000030: aeec 703e bd6a 5c3e 0e4b 63bc bffc 763e
00000040: cece 0dbd 699e 113a b266 85bc ccec 603e
00000050: 01d6 963e 51aa 1b3e 466f 4b3e f0de ce3d
00000060: 2f85 1c3e f551 923e 92c7 293e 6153 d93d
00000070: fb75 783e 8e02 843e de4e fb3d abbd 0ebd
00000080: 414a f6bc 63bc 423e 91d3 733e 05ea 973e
00000090: 1442 3c3e 9569 27be 49b7 743e baed 113e
000000a0: f7c1 423e 963c c03e 7ba0 ef3d 1096 dfbe
000000b0: 9fe1 6b3e 0c7b 3a3e d0be e03b 08dc 7bbe
000000c0: 1a25 a03e 5f0f a93e d59d 103c db75 10bd
000000d0: c40a a93c c795 dc3d 5172 1c3e b426 5a3e
000000e0: fcc1 523e 3e3f d5bc 4bfb 273e 87e0 503c
000000f0: 2b8c ae3e 4904 a03e f182 963e 30d0 a63e
00000100: 0bb7 763e c25c 553d 132c 4abc 5990 313e
00000110: 87d0 0f3f 4cfe 933e f6c2 fb3d da11 763d
00000120: e7e7 093e 0a74 063e 5910 273c bdf6 4a3d
00000130: 2e98 203d fdc4 f93d 91d4 e13d 9ac0 1e3e
00000140: 7ab7 023e a396 b03d 0534 da3b 641a 553e
00000150: 4053 2fbd 915f ae3d bf8c 7b3e 20c1 833e
00000160: 2d5d 573e 620b 333e aad7 af3c 16cd 0fbc
00000170: c156 343e 63a4 503d 3b56 0d3e 1b7b 0a3e
00000180: 3883 2b3e 1745 4a3e f3c2 2f3e 6054 133e
00000190: 80dd b93d 8e58 1d3e 5f2f 423e f200 0f3e
000001a0: d0cf 3b3e 0259 653e 5486 fc3d 9807 d03d
000001b0: 3880 f73c 559c aa3d a5b8 453e 7a32 8d3e
000001c0: 49a4 683e 7dbc a03d 6f95 363e 6159 a03d
000001d0: 2a28 193e 94ac 8b3d 5dac 253d 818f c53d
000001e0: 283d cb3d 889c 8f3e 8b80 da3d 4f9d dc3d
000001f0: e624 ae3d 2a1f 463e dfcb 453d 78b1 913e
00000200: c897 993e d1df a93e 32cf 8abd cf68 893e
00000210: 1f7c fe3d 1263 3a3e 47f0 803e 008b a03c
00000220: 2056 8b3d 5832 ed3d 6831 653e 1999 213d
00000230: 0c70 1c3e ce10 403e f35e be3e 5c04 f93d
00000240: 24de 413e 451e f93d 4362 3bbd 0446 4e3d
00000250: 0730 853f 9166 c2bb 3846 e13d 9517 9a3d
00000260: 0548 0c3d f808 cf3e ea09 563d ed07 833e
00000270: e80c 723e 5d86 cb3d 4d8c 333e 9bfc 3b3e
00000280: bde9 8e3e 959b 863e b136 863e d4ee 293d
00000290: 45fb a83d ca2c 513e 7630 193f de22 a83b
000002a0: b058 c23e 6a29 343e 2996 3b3e ec71 493d
000002b0: 0bb7 8b3d d8d1 2c3e ac22 11bf 8543 74be
000002c0: 967c 37be 04ce 03be 6fad c9bd 3a14 2abd
000002d0: c2f8 56be e0cd 343d 7799 62bc 382d 283c
000002e0: 52de 27bd d5ef af3e ea44 223d 140c 253f
000002f0: 5f0a 543e d357 09bf 1c46 56be 39c7 0ebf
00000300: cff2 0b3f fcf8 0ebf c766 20be 3536 0bbf
00000310: 5a6a 0a3e 46fa 04be d95e 133f 9df3 263e
00000320: a9e3 64be 2106 643d d21b 0f3e 1957 eabd
00000330: c003 b4bd c05d 663e 8b04 bfbe 7761 a03e
00000340: 0e60 0a3e bb4b b3be 057b 85be af35 05bf
00000350: 9c62 9b3d 383a 99bd 827e 34be 55ef 993c
00000360: b5e4 6fbe cec5 ccbd d615 1a40 419a 91be
00000370: 64a1 a93e 8a69 233e 012b 4a3f 375b c1be
00000380: 6fcf 38be 31d8 8240 cf97 8440 d783 b0be
00000390: 7338 083f 7df4 d2be 5211 933e fd9a 00be
000003a0: cd6f c03d 15a3 eebd d229 14bf 525f 81be
000003b0: 68c6 b1be 3a43 7fbe 1d3f f6bd 438a 1abe
000003c0: e78c 7e3e f10d 993e 0154 193b b257 8cbe
000003d0: d763 72be cbd0 1bbf 5670 9b3d e2be b5bc
000003e0: a873 2f3c 984e 73bd 97a4 0b3e cb83 303e
000003f0: 7c9b 56bc ef97 8bbe a112 af3c 968d 3c3c

bias f4 [175]
0.0 0.0 0.0 0.0 0.0 0.0 0.0 0.0
0.0 0.0 0.0 0.0 0.0 0.0 0.0 0.0
0.0 0.0 0.0 0.0 0.0 0.0 0.0 0.0
0.0 0.0 0.0 0.0 0.0 0.0 0.0 0.0
0.0 0.0 0.0 0.0 0.0 0.0 0.0 0.0
0.0 0.0 0.0 0.0 0.0 0.0 0.0 0.0
0.0 0.0 0.0 0.0 0.0 0.0 0.0 0.0
0.0 0.0 0.0 0.0 0.0 0.0 0.0 0.0
0.0 0.0 0.0 0.0 0.0 0.0 0.0 0.0
0.0 0.0 0.0 0.0 0.0 0.0 0.0 0.0
0.0 0.0 0.0 0.0 0.0 0.0 0.0 0.0
0.0 0.0 0.0 0.0 0.0 0.0 0.0 0.0
0.0 0.0 0.0 0.0 0.0 0.0 0.0 0.0
0.0 0.0 0.0 0.0 0.0 0.0 0.0 0.0
0.0 0.0 0.0 0.0 0.0 0.0 0.0 0.0
0.0 0.0 0.0 0.0 0.0 0.0 0.0 0.0
0.0 0.0 0.0 0.0 0.0 0.0 0.0 0.0
0.0 0.0 0.0 0.0 0.0 0.0 0.0 0.0
0.0 0.0 0.0 0.0 0.0 0.0 0.0 0.0
0.0 0.0 0.0 0.0 0.0 0.0 0.0 0.0
0.0 0.0 0.0 0.0 0.0 0.0 0.0 0.0
0.0 0.0 0.0 0.0 0.0 0.0 0.0
00000000: 0000 0000 0000 0000 0000 0000 0000 0000
00000010: 0000 0000 0000 0000 0000 0000 0000 0000
00000020: 0000 0000 0000 0000 0000 0000 0000 0000
00000030: 0000 0000 0000 0000 0000 0000 0000 0000
00000040: 0000 0000 0000 0000 0000 0000 0000 0000
00000050: 0000 0000 0000 0000 0000 0000 0000 0000
00000060: 0000 0000 0000 0000 0000 0000 0000 0000
00000070: 0000 0000 0000 0000 0000 0000 0000 0000
00000080: 0000 0000 0000 0000 0000 0000 0000 0000
00000090: 0000 0000 0000 0000 0000 0000 0000 0000
000000a0: 0000 0000 0000 0000 0000 0000 0000 0000
000000b0: 0000 0000 0000 0000 0000 0000 0000 0000
000000c0: 0000 0000 0000 0000 0000 0000 0000 0000
000000d0: 0000 0000 0000 0000 0000 0000 0000 0000
000000e0: 0000 0000 0000 0000 0000 0000 0000 0000
000000f0: 0000 0000 0000 0000 0000 0000 0000 0000
00000100: 0000 0000 0000 0000 0000 0000 0000 0000
00000110: 0000 0000 0000 0000 0000 0000 0000 0000
00000120: 0000 0000 0000 0000 0000 0000 0000 0000
00000130: 0000 0000 0000 0000 0000 0000 0000 0000
00000140: 0000 0000 0000 0000 0000 0000 0000 0000
00000150: 0000 0000 0000 0000 0000 0000 0000 0000
00000160: 0000 0000 0000 0000 0000 0000 0000 0000
00000170: 0000 0000 0000 0000 0000 0000 0000 0000
00000180: 0000 0000 0000 0000 0000 0000 0000 0000
00000190: 0000 0000 0000 0000 0000 0000 0000 0000
000001a0: 0000 0000 0000 0000 0000 0000 0000 0000
000001b0: 0000 0000 0000 0000 0000 0000 0000 0000
000001c0: 0000 0000 0000 0000 0000 0000 0000 0000
000001d0: 0000 0000 0000 0000 0000 0000 0000 0000
000001e0: 0000 0000 0000 0000 0000 0000 0000 0000
000001f0: 0000 0000 0000 0000 0000 0000 0000 0000
00000200: 0000 0000 0000 0000 0000 0000 0000 0000
00000210: 0000 0000 0000 0000 0000 0000 0000 0000
00000220: 0000 0000 0000 0000 0000 0000 0000 0000
00000230: 0000 0000 0000 0000 0000 0000 0000 0000
00000240: 0000 0000 0000 0000 0000 0000 0000 0000
00000250: 0000 0000 0000 0000 0000 0000 0000 0000
00000260: 0000 0000 0000 0000 0000 0000 0000 0000
00000270: 0000 0000 0000 0000 0000 0000 0000 0000
00000280: 0000 0000 0000 0000 0000 0000 0000 0000
00000290: 0000 0000 0000 0000 0000 0000 0000 0000
000002a0: 0000 0000 0000 0000 0000 0000 0000 0000
000002b0: 0000 0000 0000 0000 0000 0000

_ei_mask f4 [175]
1.0 1.0 1.0 1.0 1.0 1.0 1.0 1.0
1.0 1.0 1.0 1.0 1.0 1.0 1.0 1.0
1.0 1.0 1.0 1.0 1.0 1.0 1.0 1.0
1.0 1.0 1.0 1.0 1.0 1.0 1.0 1.0
1.0 1.0 1.0 1.0 1.0 1.0 1.0 1.0
1.0 1.0 1.0 1.0 1.0 1.0 1.0 1.0
1.0 1.0 1.0 1.0 1.0 1.0 1.0 1.0
1.0 1.0 1.0 1.0 1.0 1.0 1.0 1.0
1.0 1.0 1.0 1.0 1.0 1.0 1.0 1.0
1.0 1.0 1.0 1.0 1.0 1.0 1.0 1.0
1.0 1.0 1.0 1.0 1.0 1.0 1.0 1.0
1.0 1.0 1.0 1.0 1.0 1.0 1.0 1.0
1.0 1.0 1.0 1.0 1.0 1.0 1.0 1.0
1.0 1.0 1.0 1.0 1.0 1.0 1.0 1.0
1.0 1.0 1.0 1.0 1.0 1.0 1.0 1.0
1.0 1.0 1.0 1.0 1.0 1.0 1.0 1.0
1.0 1.0 1.0 1.0 1.0 1.0 1.0 1.0
1.0 1.0 1.0 1.0 1.0 1.0 1.0 1.0
1.0 1.0 1.0 1.0 1.0 1.0 1.0 1.0
1.0 1.0 1.0 1.0 1.0 1.0 1.0 1.0
1.0 1.0 1.0 1.0 1.0 1.0 1.0 1.0
1.0 1.0 1.0 1.0 1.0 1.0 1.0
00000000: 0000 803f 0000 803f 0000 803f 0000 803f
00000010: 0000 803f 0000 803f 0000 803f 0000 803f
00000020: 0000 803f 0000 803f 0000 803f 0000 803f
00000030: 0000 803f 0000 803f 0000 803f 0000 803f
00000040: 0000 803f 0000 803f 0000 803f 0000 803f
00000050: 0000 803f 0000 803f 0000 803f 0000 803f
00000060: 0000 803f 0000 803f 0000 803f 0000 803f
00000070: 0000 803f 0000 803f 0000 803f 0000 803f
00000080: 0000 803f 0000 803f 0000 803f 0000 803f
00000090: 0000 803f 0000 803f 0000 803f 0000 803f
000000a0: 0000 803f 0000 803f 0000 803f 0000 803f
000000b0: 0000 803f 0000 803f 0000 803f 0000 803f
000000c0: 0000 803f 0000 803f 0000 803f 0000 803f
000000d0: 0000 803f 0000 803f 0000 803f 0000 803f
000000e0: 0000 803f 0000 803f 0000 803f 0000 803f
000000f0: 0000 803f 0000 803f 0000 803f 0000 803f
00000100: 0000 803f 0000 803f 0000 803f 0000 803f
00000110: 0000 803f 0000 803f 0000 803f 0000 803f
00000120: 0000 803f 0000 803f 0000 803f 0000 803f
00000130: 0000 803f 0000 803f 0000 803f 0000 803f
00000140: 0000 803f 0000 803f 0000 803f 0000 803f
00000150: 0000 803f 0000 803f 0000 803f 0000 803f
00000160: 0000 803f 0000 803f 0000 803f 0000 803f
00000170: 0000 803f 0000 803f 0000 803f 0000 803f
00000180: 0000 803f 0000 803f 0000 803f 0000 803f
00000190: 0000 803f 0000 803f 0000 803f 0000 803f
000001a0: 0000 803f 0000 803f 0000 803f 0000 803f
000001b0: 0000 803f 0000 803f 0000 803f 0000 803f
000001c0: 0000 803f 0000 803f 0000 803f 0000 803f
000001d0: 0000 803f 0000 803f 0000 803f 0000 803f
000001e0: 0000 803f 0000 803f 0000 803f 0000 803f
000001f0: 0000 803f 0000 803f 0000 803f 0000 803f
00000200: 0000 803f 0000 803f 0000 803f 0000 803f
00000210: 0000 803f 0000 803f 0000 803f 0000 803f
00000220: 0000 803f 0000 803f 0000 803f 0000 803f
00000230: 0000 803f 0000 803f 0000 803f 0000 803f
00000240: 0000 803f 0000 803f 0000 803f 0000 803f
00000250: 0000 803f 0000 803f 0000 803f 0000 803f
00000260: 0000 803f 0000 803f 0000 803f 0000 803f
00000270: 0000 803f 0000 803f 0000 803f 0000 803f
00000280: 0000 803f 0000 803f 0000 803f 0000 803f
00000290: 0000 803f 0000 803f 0000 803f 0000 803f
000002a0: 0000 803f 0000 803f 0000 803f 0000 803f
000002b0: 0000 803f 0000 803f 0000 803f
