checkpoints/version122/model.pt (torch, 31342 bytes, 13 tensors)

bias f4 [175]
1.176172 2.2835279 -0.62433326 1.3078587 0.03363765 1.9116375 1.9619418 2.6049619
1.6148232 3.0080745 1.3457576 1.5405133 0.1549819 -0.11211859 0.022085546 2.191215
-0.05059262 -0.06323788 -0.033295106 2.7835605 0.29462302 1.4478623 1.5654514 -0.4016703
-1.7974513 3.4288654 0.97961664 1.4151857 1.0250045 2.5952315 0.51245815 0.03976314
1.2079531 0.07056285 0.62490964 3.7347658 0.7028213 1.092279 1.8080285 1.4330995
2.1811383 1.5304117 0.19755308 0.38674477 1.5969607 -0.19576743 0.47863308 0.17875284
0.32007912 0.2983999 0.552549 0.50893176 1.0457611 0.21937828 0.23711221 1.2944893
-0.37572756 0.6935055 0.16506144 -0.36620536 -0.08233831 0.054402385 0.7204933 0.70596653
0.07322078 0.33173627 -0.005290684 0.35413522 0.6536703 1.6385264 -0.34023672 1.1898345
1.3381654 0.87786937 1.1474148 0.9912238 1.3436654 1.5210295 1.5221992 2.1571205
1.3290526 1.952906 0.98631966 2.6475315 1.3656546 1.2414049 2.9590795 3.430328
1.4907129 1.042792 1.0551752 -0.41356632 3.4488804 -0.04826546 0.96016246 0.37307718
3.5217113 0.41070488 -0.72352415 0.1277314 2.3158438 0.9293586 1.4818529 1.8384211
0.9793627 2.1692727 1.5017606 1.5071826 1.5706391 2.0076387 1.0221453 -0.30279556
0.08599486 2.2551754 1.188863 2.2859688 0.15488262 2.2690187 1.8481114 2.0943997
2.589356 1.7294072 2.0814342 2.284281 2.654623 1.3617069 0.15848835 -0.06947042
0.855483 1.4127622 0.28304803 0.19358234 -0.061305627 2.0018814 1.4166145 0.066943854
-0.05363269 1.4104266 0.54355687 0.9783248 0.6401503 0.40210265 1.1450542 0.34340328
-0.10120825 1.5867575 1.3274585 1.2594433 0.6470741 -0.10875219 0.2596411 -0.09427074
1.681649 0.9605918 3.0897007 2.0529141 1.1294178 3.415652 0.29712042 0.32707095
0.8765504 -0.9688467 0.56282085 1.169546 1.5583237 2.7859383 0.85231614 1.3423984
0.9176098 1.8664771 2.0267165 1.5550025 1.1774375 0.43609557 0.31509435
00000000: ce8c 963f 5225 1240 4ed4 1fbf ea67 a73f
00000010: a2c7 093d 8ab0 f43f e920 fb3f b2b7 2640
00000020: 87b2 ce3f 4b84 4040 c941 ac3f 8a2f c53f
00000030: 93b3 1e3e 6e9e e5bd bfec b43c de3c 0c40
00000040: 353a 4fbd dd82 81bd 7360 08bd db25 3240
00000050: d4d8 963e 8d53 b93f b660 c83f bba7 cdbe
00000060: e212 e6bf 8872 5b40 28c8 7a3f ce24 b53f
00000070: 5933 833f 4618 2640 7530 033f adde 223d
00000080: 359e 9a3f 4183 903d 14fa 1f3f 6706 6f40
00000090: 19ec 333f cccf 8b3f 7a6d e73f ce6f b73f
000000a0: c597 0b40 88e4 c33f 5b4b 4a3e 6903 c63e
000000b0: 3569 cc3f 4277 48be 650f f53e fc0a 373e
000000c0: 69e1 a33e dfc7 983e da73 0d3f 5a49 023f
000000d0: 80db 853f b3a4 603e 8bcd 723e d3b1 a53f
000000e0: 5d5f c0be 9489 313f de05 293e 457f bbbe
000000f0: fda0 a8bd 09d5 5e3d 4072 383f 39ba 343f
00000100: c7f4 953d 56d9 a93e 795d adbb 3651 b53e
00000110: f056 273f 3cbb d13f 8233 aebe 7f4c 983f
00000120: 0149 ab3f 0cbc 603f 7dde 923f d8c0 7d3f
00000130: 3afd ab3f 18b1 c23f 6cd7 c23f 430e 0a40
00000140: 651e aa3f d3f8 f93f 727f 7c3f 2871 2940
00000150: c5cd ae3f 5be6 9e3f 8f61 3d40 7e8a 5b40
00000160: aecf be3f 357a 853f fb0f 873f f7be d3be
00000170: 75ba 5c40 01b2 45bd 35cd 753f f903 bf3e
00000180: b863 6140 e947 d23e e138 39bf 05cc 023e
00000190: c936 1440 72ea 6d3f 5bad bd3f 6251 eb3f
000001a0: 84b7 7a3f 5dd5 0a40 b139 c03f 5ceb c03f
000001b0: b40a c93f 277d 0040 a8d5 823f 0508 9bbe
000001c0: 131e b03d cb54 1040 aa2c 983f 504d 1240
000001d0: 8d99 1e3e 9a37 1140 ea8e ec3f a50a 0640
000001e0: 02b8 2540 375d dd3f 3836 0540 a931 1240
000001f0: 58e5 2940 694c ae3f c54a 223e 8246 8ebd
00000200: ef00 5b3f 64d5 b43f aceb 903e 733a 463e
00000210: 9c1b 7bbd d31e 0040 a053 b53f dc19 893d
00000220: f4ad 5bbd dc88 b43f 8b26 0b3f 7e73 7a3f
00000230: e4e0 233f 66e0 cd3e 2391 923f 8ed2 af3e
00000240: 4546 cfbd df1a cb3f 29ea a93f 7035 a13f
00000250: a6a6 253f 78b9 debd aeef 843e 0511 c1bd
00000260: 4640 d73f 58e9 753f a8bd 4540 f262 0340
00000270: c390 903f 0b9a 5a40 2b20 983e d875 a73e
00000280: 9b65 603f 5606 78bf 0715 103f afb3 953f
00000290: 2777 c73f d04c 3240 6431 5a3f b6d3 ab3f
000002a0: 7ae8 6a3f b9e8 ee3f b9b5 0140 520a c73f
000002b0: 46b6 963f eb47 df3e 0c54 a13e

weight f4 [9, 175]
-0.00014924086 -0.0002065465 -0.00014809263 -4.267604e-06 -0.0007832147 0.6116588 -0.00086634967 0.5204194
1.101065 0.5504178 0.764848 0.7027162 -2.8434938e-06 0.5359531 -0.00029946122 1.4890975e-06
0.0004644907 0.341986 -0.00037160536 0.60466105 2.814344e-06 0.7865904 0.43194064 -3.9008264e-06
1.092899 0.67456067 1.3977916 0.31986296 -0.002683101 -1.9886736e-06 1.173573 -0.0010493259
0.6629027 1.474376 2.6108644e-05 0.0006877883 0.5136435 0.0009349892 0.6614915 0.8750328
7.921325e-05 6.3613596e-05 0.8405201 0.58606786 -3.0039882e-06 0.40955523 -5.047645e-05 2.9607587e-05
6.4084898e-06 7.325484e-05 0.3236527 0.43685284 0.0004327816 0.70207745 0.48418057 -0.0003228411
7.859114e-06 -0.5282238 0.3884215 -0.07763589 0.5554234 0.5698968 -7.0077886e-07 6.9306356e-05
9.67685e-07 0.6520957 0.29914725 0.78902364 0.00012978066 0.38772348 0.26790458 0.06546384
0.20453079 8.895099e-05 0.25997376 0.0001466598 -0.00014032397 0.2799374 -0.0001254196 -0.0006562326
0.00013965231 0.00064537284 0.13377307 -0.00023034358 -0.0019606457 0.2862313 0.0004979126 0.00037565955
0.00021203721 0.6269238 0.070111685 -0.19719891 6.0397804e-05 0.2737768 0.71916497 0.7750458
0.0063430187 0.5284987 0.51527196 1.0272597 0.9647481 1.3408899 7.0281203e-10 1.1996983e-05
-2.4057523e-05 2.690589e-05 1.2434193 0.46454665 0.44934416 0.5206114 5.2180076e-05 0.00034606011
0.8210355 0.74207336 0.83832115 0.72418505 0.9383891 0.0021452906 0.63117605 0.5194848
0.5956247 0.39728436 0.47687137 -0.00021120529 0.32685986 1.8939386e-06 0.5649761 -5.2590945e-05
0.28310743 0.6504548 0.8172921 2.9677071e-06 1.0069109 0.23544824 1.1559482e-05 0.6362848
0.25823775 7.6594006e-05 1.06027765e-05 -0.0031663806 0.6403347 0.75069535 0.05479455 0.00020679737
0.286147 1.036609 -0.00014673675 7.374742e-05 0.0010102385 0.51220596 0.38868174 0.22860338
-0.0006852195 0.33170894 -0.00018190569 -6.346562e-05 0.61913127 0.0004036503 -0.0004315144 1.0014334
0.54894376 0.55723155 1.1750432 0.9095117 -0.003642526 5.7705012e-05 -0.00010932423 -0.00021779217
0.6139949 -0.00013667303 0.00011810016 0.09056827 0.2358957 0.87057596 0.24939485 0.35071176
0.5155259 0.7678844 0.52075016 1.4949607 -0.00027466464 0.36431992 -0.0006515624 3.1423187e-05
1.9373598e-05 -0.00033238946 0.00039548898 0.8822918 3.984654e-06 0.4229367 0.8564702 -0.34280115
-6.6036926e-05 -0.29233265 -0.00022251335 0.81543034 -2.6987589e-05 0.0001902964 0.27767283 -5.134846e-05
-0.0004336493 -0.00013275165 -0.00026404107 0.1422662 1.3273325 1.2819063e-05 -0.15513663 0.00014814766
-0.00010010316 1.264941 0.97746766 5.358475e-05 0.29634383 2.6993697e-05 -5.5512497e-05 0.45108485
0.58103263 -3.500328e-06 -5.4411932e-05 0.8445707 5.0958526e-05 0.5956599 0.47089267 0.5122459
0.49710447 -0.00015752304 -2.5795991e-05 0.2576548 -8.802743e-06 2.025657e-06 0.57580644 0.60781753
8.0391476e-07 5.759169e-05 -0.076923706 -1.9925938e-05 -4.057553e-05 0.6621815 1.0438476 0.78857553
-2.7829414e-05 -9.676992e-05 -5.3544466e-07 0.39308348 -0.00017992526 -0.00027699958 0.09552783 -0.00495392
0.52123094 0.0005697091 0.37563938 0.580231 0.0014572835 0.59521234 0.32125983 0.5643254
00000000: 8a7d 1cb9 6794 58b9 5049 1bb9 7032 8fb6
00000010: a650 4dba ac95 1c3f be1b 63ba 353a 053f
00000020: b3ef 8c3f 2ee8 0c3f 14cd 433f 35e5 333f
00000030: dad2 3eb6 3934 093f 0101 9db9 00dd c735
00000040: e386 f339 ca18 af3e 07d4 c2b9 11cb 1a3f
00000050: 10de 3c36 fd5d 493f 5327 dd3e d8e3 82b6
00000060: 1de4 8b3f 02b0 2c3f d6ea b23f 14c5 a33e
00000070: f7d6 2fbb 2775 05b6 a437 963f 8989 89ba
00000080: feb3 293f 5ab8 bc3f e303 db37 b14c 343a
00000090: 247e 033f 101a 753a 8257 293f 2602 603f
000000a0: 4a1f a638 4a68 8538 532c 573f 8b08 163f
000000b0: 2098 49b6 39b1 d13e adb6 53b8 cf5d f837
000000c0: 8208 d736 65a0 9938 cfb5 a53e 2dab df3e
000000d0: f7e6 e239 59bb 333f 84e6 f73e 0043 a9b9
000000e0: a3da 0337 ad39 07bf 2fdf c63e 91ff 9ebd
000000f0: 3a30 0e3f c2e4 113f 281d 3cb5 9158 9138
00000100: 67e1 8135 beef 263f d429 993e 74fd 493f
00000110: bb15 0839 b183 c63e ca2a 893e e811 863d
00000120: 8570 513e 338b ba38 481b 853e b1c8 1939
00000130: ee23 13b9 f453 8f3e 1183 03b9 0607 2cba
00000140: a26f 1239 3d2e 293a cffb 083e 6288 71b9
00000150: 2d7e 00bb e98c 923e 5986 023a 2cf4 c439
00000160: 4e56 5e39 147e 203f b796 8f3d 83ee 49be
00000170: a653 7d38 792c 8c3e 321b 383f 6769 463f
00000180: 19d9 cf3b b14b 073f dde8 033f 3f7d 833f
00000190: bbf9 763f 48a2 ab3f 0030 4130 a646 4937
000001a0: 23cf c9b7 f5b3 e137 5d28 9f3f 0fd9 ed3e
000001b0: 7010 e63e ca46 053f eedb 5a38 676f b539
000001c0: 622f 523f 85f8 3d3f 379c 563f 3164 393f
000001d0: 453a 703f 0198 0c3b c194 213f f5fc 043f
000001e0: dc7a 183f db68 cb3e 7c28 f43e fd76 5db9
000001f0: 2d5a a73e 3c33 fe35 46a2 103f 1995 5cb8
00000200: 75f3 903e 3584 263f 0e3a 513f d228 4736
00000210: 75e2 803f 5819 713e 99ef 4137 90e3 223f
00000220: bd37 843e 18a1 a038 94e2 3137 0d83 4fbb
00000230: faec 233f 922d 403f 4070 603d bfd7 5839
00000240: dc81 923e 9baf 843f 59dd 19b9 d8a8 9a38
00000250: fb69 843a ee1f 033f 4b01 c73e 0117 6a3e
00000260: 4da0 33ba c1d5 a93e f0bd 3eb9 d818 85b8
00000270: 637f 1e3f 07a1 d339 e23c e2b9 f82e 803f
00000280: 9487 0c3f baa6 0e3f d167 963f c2d5 683f
00000290: 72b7 6ebb 4908 7238 0045 e5b8 245f 64b9
000002a0: c52e 1d3f e34f 0fb9 8aac f738 db7b b93d
000002b0: a48e 713e 11de 5e3f 5d61 7f3e 7e90 b33e
000002c0: 81f9 033f 1294 443f e24f 053f df5a bf3f
000002d0: dd00 90b9 2488 ba3e 9dcd 2aba 64cc 0338
000002e0: 7c84 a237 8f44 aeb9 a259 cf39 e0dd 613f
000002f0: ebb3 8536 298b d83e a241 5b3f a283 afbe
00000300: 4e7d 8ab8 a0ac 95be 7952 69b9 0bc0 503f
00000310: 6863 e2b7 4d8a 4739 222b 8e3e fd5e 57b8
00000320: 6c5b e3b9 4033 0bb9 fe6e 8ab9 3bae 113e
00000330: 08e6 a93f 7511 5737 23dc 1ebe 1658 1b39
00000340: 7aee d1b8 96e9 a13f 523b 7a3f 30c0 6038
00000350: 61ba 973e 8670 e237 17d6 68b8 98f4 e63e
00000360: 8ebe 143f 2de7 6ab6 5e38 64b8 c935 583f
00000370: 4dbc 5538 2b7d 183f d818 f13e 8c22 033f
00000380: 7a84 fe3e c52c 25b9 7864 d8b7 54eb 833e
00000390: 7eaf 13b7 86f0 0736 0d68 133f ee99 1b3f
000003a0: 9acc 5735 9b8e 7138 2d8a 9dbd a026 a7b7
000003b0: a52f 2ab8 ba84 293f cc9c 853f 16e0 493f
000003c0: 3673 e9b7 f5f0 cab8 7abb 0fb5 3d42 c93e
000003d0: 52aa 3cb9 413a 91b9 18a4 c33d 7e54 a2bb
000003e0: 646f 053f 8858 153a ce53 c03e 058a 143f
000003f0: 5202 bf3a d65f 183f 2b7c a43e a177 103f

bias f4 [175]
0.0 0.0 0.0 0.0 0.0 0.0 0.0 0.0
0.0 0.0 0.0 0.0 0.0 0.0 0.0 0.0
0.0 0.0 0.0 0.0 0.0 0.0 0.0 0.0
0.0 0.0 0.0 0.0 0.0 0.0 0.0 0.0
0.0 0.0 0.0 0.0 0.0 0.0 0.0 0.0
0.0 0.0 0.0 0.0 0.0 0.0 0.0 0.0
0.0 0.0 0.0 0.0 0.0 0.0 0.0 0.0
0.0 0.0 0.0 0.0 0.0 0.0 0.0 0.0
0.0 0.0 0.0 0.0 0.0 0.0 0.0 0.0
0.0 0.0 0.0 0.0 0.0 0.0 0.0 0.0
0.0 0.0 0.0 0.0 0.0 0.0 0.0 0.0
0.0 0.0 0.0 0.0 0.0 0.0 0.0 0.0
0.0 0.0 0.0 0.0 0.0 0.0 0.0 0.0
0.0 0.0 0.0 0.0 0.0 0.0 0.0 0.0
0.0 0.0 0.0 0.0 0.0 0.0 0.0 0.0
0.0 0.0 0.0 0.0 0.0 0.0 0.0 0.0
0.0 0.0 0.0 0.0 0.0 0.0 0.0 0.0
0.0 0.0 0.0 0.0 0.0 0.0 0.0 0.0
0.0 0.0 0.0 0.0 0.0 0.0 0.0 0.0
0.0 0.0 0.0 0.0 0.0 0.0 0.0 0.0
0.0 0.0 0.0 0.0 0.0 0.0 0.0 0.0
0.0 0.0 0.0 0.0 0.0 0.0 0.0
00000000: 0000 0000 0000 0000 0000 0000 0000 0000
00000010: 0000 0000 0000 0000 0000 0000 0000 0000
00000020: 0000 0000 0000 0000 0000 0000 0000 0000
00000030: 0000 0000 0000 0000 0000 0000 0000 0000
00000040: 0000 0000 0000 0000 0000 0000 0000 0000
00000050: 0000 0000 0000 0000 0000 0000 0000 0000
00000060: 0000 0000 0000 0000 0000 0000 0000 0000
00000070: 0000 0000 0000 0000 0000 0000 0000 0000
00000080: 0000 0000 0000 0000 0000 0000 0000 0000
00000090: 0000 0000 0000 0000 0000 0000 0000 0000
000000a0: 0000 0000 0000 0000 0000 0000 0000 0000
000000b0: 0000 0000 0000 0000 0000 0000 0000 0000
000000c0: 0000 0000 0000 0000 0000 0000 0000 0000
000000d0: 0000 0000 0000 0000 0000 0000 0000 0000
000000e0: 0000 0000 0000 0000 0000 0000 0000 0000
000000f0: 0000 0000 0000 0000 0000 0000 0000 0000
00000100: 0000 0000 0000 0000 0000 0000 0000 0000
00000110: 0000 0000 0000 0000 0000 0000 0000 0000
00000120: 0000 0000 0000 0000 0000 0000 0000 0000
00000130: 0000 0000 0000 0000 0000 0000 0000 0000
00000140: 0000 0000 0000 0000 0000 0000 0000 0000
00000150: 0000 0000 0000 0000 0000 0000 0000 0000
00000160: 0000 0000 0000 0000 0000 0000 0000 0000
00000170: 0000 0000 0000 0000 0000 0000 0000 0000
00000180: 0000 0000 0000 0000 0000 0000 0000 0000
00000190: 0000 0000 0000 0000 0000 0000 0000 0000
000001a0: 0000 0000 0000 0000 0000 0000 0000 0000
000001b0: 0000 0000 0000 0000 0000 0000 0000 0000
000001c0: 0000 0000 0000 0000 0000 0000 0000 0000
000001d0: 0000 0000 0000 0000 0000 0000 0000 0000
000001e0: 0000 0000 0000 0000 0000 0000 0000 0000
000001f0: 0000 0000 0000 0000 0000 0000 0000 0000
00000200: 0000 0000 0000 0000 0000 0000 0000 0000
00000210: 0000 0000 0000 0000 0000 0000 0000 0000
00000220: 0000 0000 0000 0000 0000 0000 0000 0000
00000230: 0000 0000 0000 0000 0000 0000 0000 0000
00000240: 0000 0000 0000 0000 0000 0000 0000 0000
00000250: 0000 0000 0000 0000 0000 0000 0000 0000
00000260: 0000 0000 0000 0000 0000 0000 0000 0000
00000270: 0000 0000 0000 0000 0000 0000 0000 0000
00000280: 0000 0000 0000 0000 0000 0000 0000 0000
00000290: 0000 0000 0000 0000 0000 0000 0000 0000
000002a0: 0000 0000 0000 0000 0000 0000 0000 0000
000002b0: 0000 0000 0000 0000 0000 0000

_ei_mask f4 [175]
1.0 1.0 1.0 1.0 1.0 1.0 1.0 1.0
1.0 1.0 1.0 1.0 1.0 1.0 1.0 1.0
1.0 1.0 1.0 1.0 1.0 1.0 1.0 1.0
1.0 1.0 1.0 1.0 1.0 1.0 1.0 1.0
1.0 1.0 1.0 1.0 1.0 1.0 1.0 1.0
1.0 1.0 1.0 1.0 1.0 1.0 1.0 1.0
1.0 1.0 1.0 1.0 1.0 1.0 1.0 1.0
1.0 1.0 1.0 1.0 1.0 1.0 1.0 1.0
1.0 1.0 1.0 1.0 1.0 1.0 1.0 1.0
1.0 1.0 1.0 1.0 1.0 1.0 1.0 1.0
1.0 1.0 1.0 1.0 1.0 1.0 1.0 1.0
1.0 1.0 1.0 1.0 1.0 1.0 1.0 1.0
1.0 1.0 1.0 1.0 1.0 1.0 1.0 1.0
1.0 1.0 1.0 1.0 1.0 1.0 1.0 1.0
1.0 1.0 1.0 1.0 1.0 1.0 1.0 1.0
1.0 1.0 1.0 1.0 1.0 1.0 1.0 1.0
1.0 1.0 1.0 1.0 1.0 1.0 1.0 1.0
1.0 1.0 1.0 1.0 1.0 1.0 1.0 1.0
1.0 1.0 1.0 1.0 1.0 1.0 1.0 1.0
1.0 1.0 1.0 1.0 1.0 1.0 1.0 1.0
1.0 1.0 1.0 1.0 1.0 1.0 1.0 1.0
1.0 1.0 1.0 1.0 1.0 1.0 1.0
00000000: 0000 803f 0000 803f 0000 803f 0000 803f
00000010: 0000 803f 0000 803f 0000 803f 0000 803f
00000020: 0000 803f 0000 803f 0000 803f 0000 803f
00000030: 0000 803f 0000 803f 0000 803f 0000 803f
00000040: 0000 803f 0000 803f 0000 803f 0000 803f
00000050: 0000 803f 0000 803f 0000 803f 0000 803f
00000060: 0000 803f 0000 803f 0000 803f 0000 803f
00000070: 0000 803f 0000 803f 0000 803f 0000 803f
00000080: 0000 803f 0000 803f 0000 803f 0000 803f
00000090: 0000 803f 0000 803f 0000 803f 0000 803f
000000a0: 0000 803f 0000 803f 0000 803f 0000 803f
000000b0: 0000 803f 0000 803f 0000 803f 0000 803f
000000c0: 0000 803f 0000 803f 0000 803f 0000 803f
000000d0: 0000 803f 0000 803f 0000 803f 0000 803f
000000e0: 0000 803f 0000 803f 0000 803f 0000 803f
000000f0: 0000 803f 0000 803f 0000 803f 0000 803f
00000100: 0000 803f 0000 803f 0000 803f 0000 803f
00000110: 0000 803f 0000 803f 0000 803f 0000 803f
00000120: 0000 803f 0000 803f 0000 803f 0000 803f
00000130: 0000 803f 0000 803f 0000 803f 0000 803f
00000140: 0000 803f 0000 803f 0000 803f 0000 803f
00000150: 0000 803f 0000 803f 0000 803f 0000 803f
00000160: 0000 803f 0000 803f 0000 803f 0000 803f
00000170: 0000 803f 0000 803f 0000 803f 0000 803f
00000180: 0000 803f 0000 803f 0000 803f 0000 803f
00000190: 0000 803f 0000 803f 0000 803f 0000 803f
000001a0: 0000 803f 0000 803f 0000 803f 0000 803f
000001b0: 0000 803f 0000 803f 0000 803f 0000 803f
000001c0: 0000 803f 0000 803f 0000 803f 0000 803f
000001d0: 0000 803f 0000 803f 0000 803f 0000 803f
000001e0: 0000 803f 0000 803f 0000 803f 0000 803f
000001f0: 0000 803f 0000 803f 0000 803f 0000 803f
00000200: 0000 803f 0000 803f 0000 803f 0000 803f
00000210: 0000 803f 0000 803f 0000 803f 0000 803f
00000220: 0000 803f 0000 803f 0000 803f 0000 803f
00000230: 0000 803f 0000 803f 0000 803f 0000 803f
00000240: 0000 803f 0000 803f 0000 803f 0000 803f
00000250: 0000 803f 0000 803f 0000 803f 0000 803f
00000260: 0000 803f 0000 803f 0000 803f 0000 803f
00000270: 0000 803f 0000 803f 0000 803f 0000 803f
00000280: 0000 803f 0000 803f 0000 803f 0000 803f
00000290: 0000 803f 0000 803f 0000 803f 0000 803f
000002a0: 0000 803f 0000 803f 0000 803f 0000 803f
000002b0: 0000 803f 0000 803f 0000 803f

weight f4 [2, 175]
1.926365 2.1478784 0.74148625 2.138053 1.2870185 2.0838249 2.4193609 3.8985236
0.948661 3.604527 1.0919114 1.9407091 0.17499565 0.68833184 0.62647134 1.6158733
0.832469 0.66492754 0.7688341 2.702392 0.6515719 1.2152315 1.6435823 0.82830584
4.693515 4.2443943 0.17311327 1.016002 0.6476362 2.166275 1.7048595 0.645353
0.96055984 1.5516788 0.78934723 2.755483 1.0361103 1.0889441 1.4673665 0.9687619
1.990416 1.9351808 0.72637737 0.34910744 1.2816706 0.33167076 0.4581136 0.83467007
0.4751687 1.2018336 1.5005152 1.3897682 1.1569526 1.3914226 0.51315624 -0.06706432
0.7418378 1.142791 0.8048277 2.052208 0.6747796 0.43729416 1.0026048 0.6271377
0.44682282 0.5955717 0.7289595 -0.088987365 0.34684727 1.6469841 0.5188241 1.4661975
1.6434987 0.5693325 1.0413647 0.9987073 1.0340786 1.291117 0.67194057 1.8433092
1.6159208 2.1520808 1.0610522 2.0959768 0.8452167 1.2585258 3.2441924 4.013035
0.020494292 1.3459926 2.0581055 1.4780613 1.6683134 1.4953986 1.14777 0.39615834
2.535805 0.703307 1.5249795 0.59103286 0.9442788 0.26646852 0.88327146 1.2391248
0.49794868 0.8244202 1.0091981 1.7848216 0.7356007 2.3636708 0.7641537 1.4055954
0.52068317 2.0083332 0.6758251 2.1524208 0.6413769 1.351235 1.9537586 1.8284546
2.841216 1.976612 1.1405629 2.201845 3.1086597 1.3343351 0.39402053 0.6560603
0.44219607 0.6686613 0.3074701 0.45656 0.6206605 1.6256326 0.52694637 0.7280946
1.1073083 1.2213529 1.1376446 0.8910554 0.8510198 0.5520888 2.1028485 1.5473891
0.51703286 0.6396006 0.9087993 0.007958945 1.1104469 0.46242544 0.039381083 0.4428169
1.7813296 0.6442631 2.9119098 2.0488522 0.8682238 2.918452 0.8670777 -0.07713654
1.6862245 0.95112604 1.2481017 0.8353524 1.4939142 2.1677349 0.072759375 1.6041565
0.30539423 2.0052786 0.9786823 1.5853473 1.6763593 -0.1519866 0.5601672 -0.18542099
2.5110688 0.6592164 1.1496814 0.027471038 2.1828697 1.9638886 2.7165136 0.40292487
2.2635741 1.4889722 1.646376 1.6077806 0.17287064 0.12815242 1.4695232 0.17063697
0.49642882 0.22194985 2.4772887 0.2898523 1.3847336 1.4726622 0.65674233 1.398712
2.8732488 0.323734 1.9621454 1.758805 2.698119 0.7027915 0.84341514 1.120785
0.6596109 0.2308901 2.4616444 0.80789995 1.1231422 0.8541608 1.1963159 0.6228261
1.3962414 -0.08750032 0.9164349 0.8285874 1.4709013 0.43069583 0.48464534 0.18564096
-0.058486115 -0.20410313 -0.19346544 0.50310415 0.6387614 0.15448737 1.2291119 0.6975489
1.0662352 0.1148773 0.47558644 0.21320634 0.37594828 0.2743155 1.5892153 0.81253284
0.52867407 1.0110633 0.513953 0.3434916 1.2951475 0.6486476 1.2907736 1.480304
0.8868254 0.9699594 1.0435656 1.0683408 1.2047597 0.53355026 1.0730987 1.3160912
00000000: 2193 f63f d776 0940 0bd2 3d3f dcd5 0840
00000010: 06bd a43f 635d 0540 cfd6 1a40 6981 7940
00000020: 73db 723f 92b0 6640 c1c3 8b3f 2869 f83f
00000030: 0f32 333e 8436 303f 6d60 203f f0d4 ce3f
00000040: b01c 553f b138 2a3f 50d2 443f fef3 2c40
00000050: 6bcd 263f b58c 9b3f e860 d23f da0b 543f
00000060: 4631 9640 14d2 8740 9b44 313e 5b0c 823f
00000070: 7ccb 253f 40a4 0a40 d638 da3f db35 253f
00000080: 40e7 753f 699d c63f a912 4a3f d559 3040
00000090: 439f 843f 8562 8b3f aad2 bb3f c800 783f
000000a0: f4c5 fe3f 01b4 f73f def3 393f 36be b23e
000000b0: c80d a43f c0d0 a93e de8d ea3e f0ac 553f
000000c0: 5049 f33e afd5 993f e210 c03f ede3 b13f
000000d0: 0617 943f 231a b23f 355e 033f 0559 89bd
000000e0: 15e9 3d3f fa46 923f 3009 4e3f 6057 0340
000000f0: 5bbe 2c3f 05e5 df3e 5b55 803f 198c 203f
00000100: f6c5 e43e 6377 183f 179d 3a3f 023f b6bd
00000110: f795 b13e 60d0 d23f a8d1 043f 5cac bb3f
00000120: 2a5e d23f c6bf 113f 704b 853f 48ab 7f3f
00000130: b05c 843f 5243 a53f 4c04 2c3f 8ef1 eb3f
00000140: 7ed6 ce3f b1bb 0940 8fd0 873f 7c24 0640
00000150: 1f60 583f 6017 a13f d9a0 4f40 c86a 8040
00000160: a5e3 a73c 7c49 ac3f 00b8 0340 1d31 bd3f
00000170: 4b8b d53f 3969 bf3f 21ea 923f 44d5 ca3e
00000180: a14a 2240 ed0b 343f 8732 c33f ee4d 173f
00000190: 41bc 713f 906e 883e 141e 623f a49b 9e3f
000001a0: 21f3 fe3e 340d 533f 672d 813f 0975 e43f
000001b0: 5450 3c3f 6246 1740 949f 433f 8dea b33f
000001c0: 7e4b 053f 8888 0040 e002 2d3f 43c1 0940
000001d0: 4731 243f 45f5 ac3f c314 fa3f cd0a ea3f
000001e0: 7cd6 3540 9f01 fd3f f7fd 913f 07eb 0c40
000001f0: 48f4 4640 7ecb aa3f 0fbd c93e 91f3 273f
00000200: 8667 e23e 632d 2b3f b96c 9d3e 3bc2 e93e
00000210: 9be3 1e3f bb14 d03f f5e5 063f 6864 3a3f
00000220: 47bc 8d3f 4b55 9c3f 579e 913f 351c 643f
00000230: 6fdc 593f b155 0d3f 1295 0640 d910 c63f
00000240: 445c 043f ddbc 233f 12a7 683f 3c66 023c
00000250: 2023 8e3f 07c3 ec3e 0f4e 213d e6b8 e23e
00000260: 9c02 e43f 6dee 243f bb5c 3a40 6520 0340
00000270: ea43 5e3f ebc7 3a40 cef8 5d3f c3f9 9dbd
00000280: 34d6 d73f ff7c 733f ccc1 9f3f a8d9 553f
00000290: 9538 bf3f 2bbc 0a40 de02 953d 0055 cd3f
000002a0: a25c 9c3e 7c56 0040 ec8a 7a3f a9ec ca3f
000002b0: f192 d63f 60a2 1bbe 1e67 0f3f 00df 3dbe
000002c0: 5ab5 2040 68c2 283f c328 933f f10a e13c
000002d0: 23b4 0b40 b460 fb3f 5cdb 2d40 2b4c ce3e
000002e0: 66de 1040 a496 be3f 73bc d23f c1cb cd3f
000002f0: 0005 313e 633a 033e 5619 bc3f 75bb 2e3e
00000300: eb2b fe3e d246 633e e68b 1e40 8567 943e
00000310: f33e b13f 3280 bc3f 4420 283f ff08 b33f
00000320: 4fe3 3740 76c0 a53e 9527 fb3f 8620 e13f
00000330: fbad 2c40 25ea 333f 0eea 573f e275 8f3f
00000340: 43dc 283f 746e 6c3e 958b 1d40 88d2 4e3f
00000350: 20c3 8f3f 48aa 5a3f e120 993f 8871 1f3f
00000360: 0ab8 b23f 5e33 b3bd 7a9b 6a3f 4e1e 543f
00000370: 7e46 bc3f 2a84 dc3e 6f23 f83e aa18 3e3e
00000380: 238f 6fbd 6900 51be ce1b 46be 6fcb 003f
00000390: de85 233f f031 1e3e 8a53 9d3f 9192 323f
000003a0: 657a 883f ca44 eb3d 1180 f33e c352 5a3e
000003b0: 4b7c c03e 1573 8c3e 686b cb3f 2702 503f
000003c0: 2f57 073f 866a 813f 6c92 033f 22de af3e
000003d0: 65c7 a53f c50d 263f 1238 a53f 9a7a bd3f
000003e0: fd06 633f 424f 783f 8f93 853f 64bf 883f
000003f0: 9135 9a3f c096 083f 4c5b 893f ad75 a83f

bias f4 [175]
0.0 0.0 0.0 0.0 0.0 0.0 0.0 0.0
0.0 0.0 0.0 0.0 0.0 0.0 0.0 0.0
0.0 0.0 0.0 0.0 0.0 0.0 0.0 0.0
0.0 0.0 0.0 0.0 0.0 0.0 0.0 0.0
0.0 0.0 0.0 0.0 0.0 0.0 0.0 0.0
0.0 0.0 0.0 0.0 0.0 0.0 0.0 0.0
0.0 0.0 0.0 0.0 0.0 0.0 0.0 0.0
0.0 0.0 0.0 0.0 0.0 0.0 0.0 0.0
0.0 0.0 0.0 0.0 0.0 0.0 0.0 0.0
0.0 0.0 0.0 0.0 0.0 0.0 0.0 0.0
0.0 0.0 0.0 0.0 0.0 0.0 0.0 0.0
0.0 0.0 0.0 0.0 0.0 0.0 0.0 0.0
0.0 0.0 0.0 0.0 0.0 0.0 0.0 0.0
0.0 0.0 0.0 0.0 0.0 0.0 0.0 0.0
0.0 0.0 0.0 0.0 0.0 0.0 0.0 0.0
0.0 0.0 0.0 0.0 0.0 0.0 0.0 0.0
0.0 0.0 0.0 0.0 0.0 0.0 0.0 0.0
0.0 0.0 0.0 0.0 0.0 0.0 0.0 0.0
0.0 0.0 0.0 0.0 0.0 0.0 0.0 0.0
0.0 0.0 0.0 0.0 0.0 0.0 0.0 0.0
0.0 0.0 0.0 0.0 0.0 0.0 0.0 0.0
0.0 0.0 0.0 0.0 0.0 0.0 0.0
00000000: 0000 0000 0000 0000 0000 0000 0000 0000
00000010: 0000 0000 0000 0000 0000 0000 0000 0000
00000020: 0000 0000 0000 0000 0000 0000 0000 0000
00000030: 0000 0000 0000 0000 0000 0000 0000 0000
00000040: 0000 0000 0000 0000 0000 0000 0000 0000
00000050: 0000 0000 0000 0000 0000 0000 0000 0000
00000060: 0000 0000 0000 0000 0000 0000 0000 0000
00000070: 0000 0000 0000 0000 0000 0000 0000 0000
00000080: 0000 0000 0000 0000 0000 0000 0000 0000
00000090: 0000 0000 0000 0000 0000 0000 0000 0000
000000a0: 0000 0000 0000 0000 0000 0000 0000 0000
000000b0: 0000 0000 0000 0000 0000 0000 0000 0000
000000c0: 0000 0000 0000 0000 0000 0000 0000 0000
000000d0: 0000 0000 0000 0000 0000 0000 0000 0000
000000e0: 0000 0000 0000 0000 0000 0000 0000 0000
000000f0: 0000 0000 0000 0000 0000 0000 0000 0000
00000100: 0000 0000 0000 0000 0000 0000 0000 0000
00000110: 0000 0000 0000 0000 0000 0000 0000 0000
00000120: 0000 0000 0000 0000 0000 0000 0000 0000
00000130: 0000 0000 0000 0000 0000 0000 0000 0000
00000140: 0000 0000 0000 0000 0000 0000 0000 0000
00000150: 0000 0000 0000 0000 0000 0000 0000 0000
00000160: 0000 0000 0000 0000 0000 0000 0000 0000
00000170: 0000 0000 0000 0000 0000 0000 0000 0000
00000180: 0000 0000 0000 0000 0000 0000 0000 0000
00000190: 0000 0000 0000 0000 0000 0000 0000 0000
000001a0: 0000 0000 0000 0000 0000 0000 0000 0000
000001b0: 0000 0000 0000 0000 0000 0000 0000 0000
000001c0: 0000 0000 0000 0000 0000 0000 0000 0000
000001d0: 0000 0000 0000 0000 0000 0000 0000 0000
000001e0: 0000 0000 0000 0000 0000 0000 0000 0000
000001f0: 0000 0000 0000 0000 0000 0000 0000 0000
00000200: 0000 0000 0000 0000 0000 0000 0000 0000
00000210: 0000 0000 0000 0000 0000 0000 0000 0000
00000220: 0000 0000 0000 0000 0000 0000 0000 0000
00000230: 0000 0000 0000 0000 0000 0000 0000 0000
00000240: 0000 0000 0000 0000 0000 0000 0000 0000
00000250: 0000 0000 0000 0000 0000 0000 0000 0000
00000260: 0000 0000 0000 0000 0000 0000 0000 0000
00000270: 0000 0000 0000 0000 0000 0000 0000 0000
00000280: 0000 0000 0000 0000 0000 0000 0000 0000
00000290: 0000 0000 0000 0000 0000 0000 0000 0000
000002a0: 0000 0000 0000 0000 0000 0000 0000 0000
000002b0: 0000 0000 0000 0000 0000 0000

_ei_mask f4 [175]
1.0 1.0 1.0 1.0 1.0 1.0 1.0 1.0
1.0 1.0 1.0 1.0 1.0 1.0 1.0 1.0
1.0 1.0 1.0 1.0 1.0 1.0 1.0 1.0
1.0 1.0 1.0 1.0 1.0 1.0 1.0 1.0
1.0 1.0 1.0 1.0 1.0 1.0 1.0 1.0
1.0 1.0 1.0 1.0 1.0 1.0 1.0 1.0
1.0 1.0 1.0 1.0 1.0 1.0 1.0 1.0
1.0 1.0 1.0 1.0 1.0 1.0 1.0 1.0
1.0 1.0 1.0 1.0 1.0 1.0 1.0 1.0
1.0 1.0 1.0 1.0 1.0 1.0 1.0 1.0
1.0 1.0 1.0 1.0 1.0 1.0 1.0 1.0
1.0 1.0 1.0 1.0 1.0 1.0 1.0 1.0
1.0 1.0 1.0 1.0 1.0 1.0 1.0 1.0
1.0 1.0 1.0 1.0 1.0 1.0 1.0 1.0
1.0 1.0 1.0 1.0 1.0 1.0 1.0 1.0
1.0 1.0 1.0 1.0 1.0 1.0 1.0 1.0
1.0 1.0 1.0 1.0 1.0 1.0 1.0 1.0
1.0 1.0 1.0 1.0 1.0 1.0 1.0 1.0
1.0 1.0 1.0 1.0 1.0 1.0 1.0 1.0
1.0 1.0 1.0 1.0 1.0 1.0 1.0 1.0
1.0 1.0 1.0 1.0 1.0 1.0 1.0 1.0
1.0 1.0 1.0 1.0 1.0 1.0 1.0
00000000: 0000 803f 0000 803f 0000 803f 0000 803f
00000010: 0000 803f 0000 803f 0000 803f 0000 803f
00000020: 0000 803f 0000 803f 0000 803f 0000 803f
00000030: 0000 803f 0000 803f 0000 803f 0000 803f
00000040: 0000 803f 0000 803f 0000 803f 0000 803f
00000050: 0000 803f 0000 803f 0000 803f 0000 803f
00000060: 0000 803f 0000 803f 0000 803f 0000 803f
00000070: 0000 803f 0000 803f 0000 803f 0000 803f
00000080: 0000 803f 0000 803f 0000 803f 0000 803f
00000090: 0000 803f 0000 803f 0000 803f 0000 803f
000000a0: 0000 803f 0000 803f 0000 803f 0000 803f
000000b0: 0000 803f 0000 803f 0000 803f 0000 803f
000000c0: 0000 803f 0000 803f 0000 803f 0000 803f
000000d0: 0000 803f 0000 803f 0000 803f 0000 803f
000000e0: 0000 803f 0000 803f 0000 803f 0000 803f
000000f0: 0000 803f 0000 803f 0000 803f 0000 803f
00000100: 0000 803f 0000 803f 0000 803f 0000 803f
00000110: 0000 803f 0000 803f 0000 803f 0000 803f
00000120: 0000 803f 0000 803f 0000 803f 0000 803f
00000130: 0000 803f 0000 803f 0000 803f 0000 803f
00000140: 0000 803f 0000 803f 0000 803f 0000 803f
00000150: 0000 803f 0000 803f 0000 803f 0000 803f
00000160: 0000 803f 0000 803f 0000 803f 0000 803f
00000170: 0000 803f 0000 803f 0000 803f 0000 803f
00000180: 0000 803f 0000 803f 0000 803f 0000 803f
00000190: 0000 803f 0000 803f 0000 803f 0000 803f
000001a0: 0000 803f 0000 803f 0000 803f 0000 803f
000001b0: 0000 803f 0000 803f 0000 803f 0000 803f
000001c0: 0000 803f 0000 803f 0000 803f 0000 803f
000001d0: 0000 803f 0000 803f 0000 803f 0000 803f
000001e0: 0000 803f 0000 803f 0000 803f 0000 803f
000001f0: 0000 803f 0000 803f 0000 803f 0000 803f
00000200: 0000 803f 0000 803f 0000 803f 0000 803f
00000210: 0000 803f 0000 803f 0000 803f 0000 803f
00000220: 0000 803f 0000 803f 0000 803f 0000 803f
00000230: 0000 803f 0000 803f 0000 803f 0000 803f
00000240: 0000 803f 0000 803f 0000 803f 0000 803f
00000250: 0000 803f 0000 803f 0000 803f 0000 803f
00000260: 0000 803f 0000 803f 0000 803f 0000 803f
00000270: 0000 803f 0000 803f 0000 803f 0000 803f
00000280: 0000 803f 0000 803f 0000 803f 0000 803f
00000290: 0000 803f 0000 803f 0000 803f 0000 803f
000002a0: 0000 803f 0000 803f 0000 803f 0000 803f
000002b0: 0000 803f 0000 803f 0000 803f

weight f4 [175, 3]
3.4754133 -3.6313963 -0.5704329 0.069392346 -1.5213536 3.8913338 -3.2945018 -1.1232878
1.6595911 7.247292 -5.570227 0.068004236 2.1824985 6.6788836 -2.9023566 -0.10393527
-2.537473 0.023922011 -5.0664167 -0.8347686 4.1782427 -0.1786772 1.2652925 1.3573656
1.9212971 3.4151216 -4.7990804 1.7798774 0.10320605 -0.44492194 0.56621987 2.9093356
-2.560736 -6.7737937 -0.9878518 3.05875 -0.08755687 3.294028 -6.205175 2.049528
-0.0070038717 -0.62984985 -0.8559746 -1.1534144 1.0984329 2.500906 2.1212776 -1.0505139
-2.59311 -3.1513274 2.872736 1.9187117 1.6167536 -3.3567116 -0.027309584 -0.23272087
1.4172667 -0.63797957 -2.8526006 0.4324388 2.9177132 -1.8830442 0.8075583 3.3393571
-4.4411407 0.5327869 3.4194539 -4.0373645 -0.9124366 -4.2325506 -0.66376615 2.755589
3.8090467 2.5509775 -4.668223 -0.048913952 -0.32983828 8.454978 -0.9687005 2.6778467
-0.6611201 2.6918585 -0.6137792 -1.8597819 3.9600387 -1.7488325 3.047181 0.6519049
-1.399772 1.8010006 -0.15611961 1.6401746 -1.7116361 -3.249381 3.6202486 1.1090593
0.12522966 0.35238716 -1.162495 2.6213448 1.1651701 -1.4073653 4.39503 -2.3533003
-2.0437477 -3.6341076 0.80036324 6.2690816 3.2605379 -7.622082 1.1584107 -3.853824
-2.2409718 -0.8148109 -2.2898767 3.656157 1.0394585 1.7726469 2.3004165 -1.158975
-1.6867265 0.57964456 6.138525 2.6505935 -4.54683 3.4690976 0.87666595 -4.2026014
0.2537861 -4.06191 2.1251702 -5.7748375 5.3169694 2.8972297 -3.1568403 0.66754925
-1.1648935 -0.2700833 2.6514757 -1.2903633 -3.2706194 -5.134994 2.329517 -0.47188058
-1.639806 0.80471784 0.079187244 -1.893627 -0.42617443 3.8184848 -3.581833 10.007025
-10.878373 -6.5354905 5.624418 -13.489299 -1.0053886 0.2485974 -0.2951094 -0.330406
1.6634176 -3.827678 3.1442604 -4.6103845 -0.25122598 -6.411579 3.9960208 -0.87647355
-1.3564533 -0.28076854 2.8961978 -4.1157036 1.8150913 0.9146587 -0.83945537 -3.6374924
3.122018 -0.42502972 0.35984677 3.5042884 3.8601363 -2.728192 -2.0130875 0.15070783
0.621217 2.8086493 -0.47599024 -2.3133223 1.8465278 2.8731096 -1.8263867 -1.7355466
0.7175735 4.297468 1.1777078 -1.4918087 -0.011223756 0.27713248 -2.6409698 -0.74808323
0.107000254 1.720864 1.6457906 -1.3269993 5.022949 -3.0842788 -1.766701 -1.4157727
0.4467563 3.8032968 3.176038 -2.5230708 -1.6801409 -2.9393363 -4.3267035 0.89237547
4.4348993 -7.159586 -1.4560223 -4.4504547 0.56593 4.1614504 -0.31520087 -5.423804
-2.2031496 -5.8832994 0.61931545 1.505562 -3.8194752 -0.5454178 2.2702494 1.39985
-5.3134313 -5.53513 -0.7354703 0.53824997 2.6996884 0.43188578 3.5833993 -1.764107
-2.2623532 -0.868052 1.0982038 -0.38155332 2.7967815 1.9826659 -6.465963 0.60541105
3.8536332 3.1571333 2.00727 -6.0057483 -3.9376054 0.46884245 3.8975792 -1.4183031
00000000: 2c6d 5e40 cc68 68c0 e407 12bf 931d 8e3d
00000010: b7bb c2bf 9d0b 7940 1ed9 52c0 e5c7 8fbf
00000020: 7b6d d43f d1e9 e740 4d3f b2c0 ce45 8b3d
00000030: 0eae 0b40 6ab9 d540 36c0 39c0 04dc d4bd
00000040: f565 22c0 18f8 c33c 1620 a2c0 65b3 55bf
00000050: 2ab4 8540 28f7 36be 1bf5 a13f 28be ad3f
00000060: 10ed f53f 5a91 5a40 1192 99c0 06d3 e33f
00000070: b25d d33d cfcc e3be c9f3 103f 8e32 3a40
00000080: 19e3 23c0 ebc2 d8c0 dbe3 7cbf 8fc2 4340
00000090: 0451 b3bd 5bd1 5240 cb90 c6c0 772b 0340
000000a0: bc80 e5bb d73d 21bf 2721 5bbf 15a3 93bf
000000b0: 7399 8c3f d80e 2040 03c3 0740 3d77 86bf
000000c0: 84f5 25c0 59af 49c0 e8da 3740 5898 f53f
000000d0: c8f1 ce3f 5dd4 56c0 59b8 dfbc 614e 6ebe
000000e0: ff68 b53f a152 23bf 0291 36c0 9e68 dd3e
000000f0: d0bb 3a40 9807 f1bf 24bc 4e3f 07b8 5540
00000100: d31d 8ec0 b964 083f 55d8 5a40 1732 81c0
00000110: 7295 69bf 0e71 87c0 94ec 29bf 925b 3040
00000120: 6cc7 7340 3743 2340 1562 95c0 ff59 48bd
00000130: 90e0 a8be 9747 0741 c2fc 77bf d761 2b40
00000140: 2b3f 29bf 6947 2c40 a220 1dbf 550d eebf
00000150: 4671 7d40 bed9 dfbf 0305 4340 3de3 263f
00000160: bb2b b3bf 3087 e63f d2dd 1fbe 3ef1 d13f
00000170: e416 dbbf dcf5 4fc0 27b2 6740 a8f5 8d3f
00000180: 343c 003e 176c b43e a3cc 94bf 1dc4 2740
00000190: 4b24 953f 8c24 b4bf 16a4 8c40 799c 16c0
000001a0: c3cc 02c0 3895 68c0 9be4 4c3f 519c c840
000001b0: a7ac 5040 19e8 f3c0 cd46 943f 0da5 76c0
000001c0: 156c 0fc0 7297 50bf 578d 12c0 7afe 6940
000001d0: fa0c 853f 18e6 e23f 063a 1340 4b59 94bf
000001e0: a7e6 d7bf 9663 143f cc6e c440 53a3 2940
000001f0: a27f 91c0 b205 5e40 2e6d 603f b67b 86c0
00000200: 40f0 813e 2bfb 81c0 ca02 0840 78cb b8c0
00000210: 9d24 aa40 366c 3940 ac09 4ac0 82e4 2a3f
00000220: 3b1b 95bf 5c48 8abe c7b1 2940 a02a a5bf
00000230: d451 51c0 df51 a4c0 ce16 1540 559a f1be
00000240: 2ae5 d1bf fd01 4e3f ec2c a23d 5f62 f2bf
00000250: 8933 dabe 0e62 7440 c03c 65c0 c61c 2041
00000260: d10d 2ec1 bd22 d1c0 3bfb b340 2bd4 57c1
00000270: 93b0 80bf 5190 7e3e 9418 97be fa2a a9be
00000280: deea d43f adf8 74c0 903b 4940 4588 93c0
00000290: b1a0 80be a82b cdc0 cebe 7f40 9260 60bf
000002a0: 43a0 adbf e5c0 8fbe 4e5b 3940 d8b3 83c0
000002b0: e954 e83f 1327 6a3f 8ce6 56bf adcc 68c0
000002c0: 25cf 4740 7f9d d9be d63d b83e 4346 6040
000002d0: 790c 7740 b39a 2ec0 6dd6 00c0 2753 1a3e
000002e0: 1408 1f3f e9c0 3340 feb4 f3be 790d 14c0
000002f0: 065b ec3f 07e1 3740 0ac7 e9bf 6426 debf
00000300: e6b2 373f dc84 8940 21bf 963f 96f3 bebf
00000310: d8e3 37bc 4fe4 8d3e a605 29c0 6282 3fbf
00000320: f322 db3d 4645 dc3f 44a9 d23f 1ddb a9bf
00000330: 00bc a040 d364 45c0 4223 e2bf 0a38 b5bf
00000340: 3ebd e43e 3769 7340 3544 4b40 fe79 21c0
00000350: db0e d7bf 161e 3cc0 5b74 8ac0 b872 643f
00000360: b2ea 8d40 541b e5c0 f05e babf 206a 8ec0
00000370: cae0 103f 9a2a 8540 0262 a1be cd8f adc0
00000380: 6700 0dc0 fd43 bcc0 758b 1e3f 41b6 c03f
00000390: 4872 74c0 80a0 0bbf c44b 1140 492e b33f
000003a0: a107 aac0 c91f b1c0 c847 3cbf c0ca 093f
000003b0: b2c7 2c40 2220 dd3e 6a56 6540 42ce e1bf
000003c0: 65ca 10c0 a838 5ebf f191 8c3f f55a c3be
000003d0: 78fe 3240 ffc7 fd3f 2be9 cec0 38fc 1a3f
000003e0: eda1 7640 790e 4a40 1d77 0040 172f c0c0
000003f0: ba01 7cc0 1e0c f03e f071 7940 f58a b5bf

bias f4 [3]
0.0 0.0 0.0
00000000: 0000 0000 0000 0000 0000 0000

_ei_mask f4 [3]
1.0 1.0 1.0
00000000: 0000 803f 0000 803f 0000 803f

weight f4 [3, 175]
0.08702608 -0.005477693 0.036626596 -0.17059301 -0.087932214 0.090066604 -0.093840726 0.06080598
0.4124866 0.055568643 -0.18421644 -0.31328666 0.124312416 0.043999746 -0.250795 -0.024448154
-0.27256504 -0.015929982 -0.2849207 0.22541791 0.0533919 -0.20712717 0.001235483 -0.110275395
0.19719324 0.11331149 0.35468033 0.11483792 0.22131495 0.026006173 0.01677537 0.0075761727
0.06374907 0.2734225 -0.03198269 0.17321655 0.091210194 -0.28460345 0.03610373 0.2772026
0.027892757 0.07192115 0.06965281 -0.42711625 0.17790677 -0.0075089443 -0.031883407 -0.2288244
0.010717648 0.006287387 -0.31540912 -0.31688225 -0.0561303 -0.13346687 0.003119112 -0.1701874
0.11967471 -0.28072724 -0.06519372 -0.004122262 0.066209614 0.065948345 -0.025369547 0.04800455
-0.05866673 0.05114284 -0.09906749 0.17890136 0.21923114 0.030173382 -0.007913284 -0.058283225
-5.5190918e-05 -0.29916525 -0.01130346 -0.33202383 -0.37173653 0.0061222645 -0.25110605 -0.1371067
-0.12110882 -0.092727594 -0.35163245 0.027384266 -0.21409574 0.005920135 -0.020966716 0.010711109
-0.096055984 -0.014573252 -0.15378332 -0.17689478 0.03496396 -0.20956516 0.046622247 0.2358413
0.24324965 -0.034979425 -0.09993535 0.11281204 0.19337836 0.27516282 -0.13031895 -0.03427802
0.0028826015 -0.0719649 0.0979608 0.01763333 -0.24821027 0.21532874 -0.3607525 -0.01901036
0.12836087 0.09773403 -0.16495274 0.10090224 0.051115487 0.07361873 0.18382168 0.17295334
0.15661086 0.047342002 0.013015343 -0.12100708 0.21471323 -0.023400022 -0.06114366 -0.039004225
0.19374242 -0.0010347515 0.14435692 0.0011788742 0.16139694 0.15243544 0.11685104 -0.08567473
0.00219135 0.03951621 -0.1966024 0.02938959 0.06925314 0.14365403 0.11335931 -0.011143059
-0.025561457 -0.020563385 0.28751686 0.22705533 0.4092979 -0.07216414 0.120743155 -0.026834907
0.019588808 -0.051943924 -0.14521924 0.02888936 -0.04467373 -0.1656361 0.046979424 0.47324133
-0.104935676 0.035661757 0.47495845 -0.0043543386 0.013880954 0.020947317 0.111575395 -0.029428637
0.013058261 -0.029275402 -0.015689755 -0.0042709564 -0.0004258025 0.0065400875 -0.0059673814 -0.15060534
0.12635732 0.00663769 -0.5344804 -0.040724766 0.06089503 0.11485182 0.07504975 0.46596095
0.188887 -0.061019566 -0.09064405 0.27813792 0.07111226 -0.15714012 0.22689803 -0.18055204
-0.17513368 -0.19007881 0.32994756 -0.19770944 -0.37804148 -0.046689134 -0.094977096 0.220216
0.16424985 0.5967046 -0.02528138 0.15471523 -0.01152524 -0.13156243 0.32229942 0.19768201
0.43555334 -0.2705149 0.24042359 -0.2791395 -0.17849274 0.27294365 0.30950874 0.13275445
-0.07815372 -0.02704387 -0.23189153 0.3028638 0.061809655 -0.15744543 -0.1250328 0.084593594
0.021765936 -0.028720852 0.0013275701 0.048428804 -0.29453585 -0.1533886 0.077608906 0.0029649604
0.11729814 -0.23188908 0.37845856 -0.16427828 -0.04499188 -0.134973 -0.22212945 -0.026943536
0.05543165 -0.09376159 0.2892885 0.07352654 0.051628288 -0.095459625 -0.056559913 -0.028123336
-0.0049468977 -0.0004094528 -0.06656607 -0.116081275 -0.015909666 0.032389063 0.029368693 -0.1081424
00000000: bb3a b23d 387e b3bb c505 163d efaf 2ebe
00000010: ce15 b4bd d774 b83d 912f c0bd b10f 793d
00000020: 7231 d33e f29b 633d 3ca3 3cbe 1c67 a0be
00000030: 8297 fe3d 1439 343d 3468 80be 7f47 c8bc
00000040: a58d 8bbe 987f 82bc 20e1 91be f4d3 663e
00000050: 77b1 5a3d 2519 54be eeef a13a 11d8 e1bd
00000060: 06ed 493e db0f e83d a998 b53e 2530 eb3d
00000070: 63a0 623e e60a d53c 806c 893c 8b41 f83b
00000080: df8e 823d 09fe 8b3e 4800 03bd ae5f 313e
00000090: 69cc ba3d 8bb7 91be 81e1 133d 80ed 8d3e
000000a0: 5a7f e43c 654b 933d 22a6 8e3d fbae dabe
000000b0: 312d 363e 970d f6bb 2d98 02bd f250 6abe
000000c0: 1399 2f3c 6d06 ce3b 4e7d a1be 643e a2be
000000d0: e3e8 65bd 8aab 08be 046a 4c3b 9b45 2ebe
000000e0: 0418 f53d 7bbb 8fbe 4984 85bd 0a14 87bb
000000f0: e898 873d ed0f 873d ccd3 cfbc 6ba0 443d
00000100: 864c 70bd 287b 513d e5e3 cabd eb31 373e
00000110: 217e 603e 2b2e f73c b8a6 01bc 64ba 6ebd
00000120: cc7c 67b8 302c 99be 2632 39bc 07ff a9be
00000130: 4054 bebe 479d c83b f990 80be b365 0cbe
00000140: e707 f8bd f7e7 bdbd 2b09 b4be f854 e03c
00000150: ea3b 5bbe b1fd c13b 64c2 abbc a67d 2f3c
00000160: 00b9 c4bd a6c4 6ebc 6079 1dbe e823 35be
00000170: 5f36 0f3d 4098 56be f8f6 3e3d 6280 713e
00000180: 7016 793e 9646 0fbd e8aa ccbd 000a e73d
00000190: fa04 463e 24e2 8c3e 5572 05be 1c67 0cbd
000001a0: 07ea 3c3b 5562 93bd ac9f c83d c673 903c
000001b0: d52a 7ebe 237f 5c3e 8db4 b8be 9dbb 9bbc
000001c0: 0871 033e c728 c83d 5fe9 28be d5a5 ce3d
000001d0: 795e 513d 6bc5 963d c03b 3c3e ae1a 313e
000001e0: 995e 203e b0e9 413d 4e3e 553c 8fd2 f7bd
000001f0: c9dd 5b3e 67b1 bfbc c671 7abd e5c2 1fbd
00000200: 6a64 463e 80a0 87ba 4dd2 133e 7484 9a3a
00000210: 3d45 253e 0918 1c3e 994f ef3d 3c76 afbd
00000220: c19c 0f3b c0db 213d 2452 49be 70c2 f03c
00000230: 97d4 8d3d 0b1a 133e ed28 e83d 6091 36bc
00000240: 4366 d1bc 8b74 a8bc 6935 933e 3181 683e
00000250: 7f8f d13e cbca 93bd 3048 f73d e1d4 dbbc
00000260: b578 a03c 27c3 54bd 5ab4 14be 61a9 ec3c
00000270: cdfb 36bd 839c 29be 7f6d 403d b04c f23e
00000280: 84e8 d6bd 1012 123d c12d f33e d7ae 8ebb
00000290: f16c 633c b599 ab3c a481 e43d 5314 f1bc
000002a0: 51f2 553c f8d2 efbc cd87 80bc 61f3 8bbb
000002b0: 3e3e dfb9 3b4e d63b 068a c3bb 4938 1abe
000002c0: d063 013e fb80 d93b b5d3 08bf 03cf 26bd
000002d0: 116d 793d 6e37 eb3d afb3 993d 6f92 ee3e
000002e0: 986b 413e a7ef 79bd 96a3 b9bd 1868 8e3e
000002f0: 4ea3 913d 57e9 20be f557 683e a2e2 38be
00000300: 3e56 33be 05a4 42be e3ee a83e 5874 4abe
00000310: a78e c1be 1b3d 3fbd 5a83 c2bd 4e80 613e
00000320: 1d31 283e a2c1 183f e61a cfbc ab6d 1e3e
00000330: 5cd4 3cbc 4db8 06be 6e04 a53e 276d 4a3e
00000340: d900 df3e ee80 8abe 9a31 763e 5feb 8ebe
00000350: cdc6 36be 45bf 8b3e ee77 9e3e c8f0 073e
00000360: 0f0f a0bd 1b8b ddbc f974 6dbe f710 9b3e
00000370: 1f2c 7d3d 6039 21be 9908 00be 683f ad3d
00000380: 7a4e b23c fe47 ebbc dc01 ae3a 485d 463d
00000390: 67cd 96be e711 1dbe 6bf1 9e3d c84f 423b
000003a0: 023a f03d 5574 6dbe 52c5 c13e 9138 28be
000003b0: 6849 38bd 5d36 0abe e775 63be b1b8 dcbc
000003c0: 4c0c 633d 1406 c0bd 9f1d 943e 1595 963d
000003d0: 2f78 533d 5680 c3bd 5eab 67bd e962 e6bc
000003e0: 9619 a2bb d3ab d6b9 cb53 88bd 05bc edbd
000003f0: fd54 82bc 65aa 043d 9d96 f03c c379 ddbd

bias f4 [175]
0.0 0.0 0.0 0.0 0.0 0.0 0.0 0.0
0.0 0.0 0.0 0.0 0.0 0.0 0.0 0.0
0.0 0.0 0.0 0.0 0.0 0.0 0.0 0.0
0.0 0.0 0.0 0.0 0.0 0.0 0.0 0.0
0.0 0.0 0.0 0.0 0.0 0.0 0.0 0.0
0.0 0.0 0.0 0.0 0.0 0.0 0.0 0.0
0.0 0.0 0.0 0.0 0.0 0.0 0.0 0.0
0.0 0.0 0.0 0.0 0.0 0.0 0.0 0.0
0.0 0.0 0.0 0.0 0.0 0.0 0.0 0.0
0.0 0.0 0.0 0.0 0.0 0.0 0.0 0.0
0.0 0.0 0.0 0.0 0.0 0.0 0.0 0.0
0.0 0.0 0.0 0.0 0.0 0.0 0.0 0.0
0.0 0.0 0.0 0.0 0.0 0.0 0.0 0.0
0.0 0.0 0.0 0.0 0.0 0.0 0.0 0.0
0.0 0.0 0.0 0.0 0.0 0.0 0.0 0.0
0.0 0.0 0.0 0.0 0.0 0.0 0.0 0.0
0.0 0.0 0.0 0.0 0.0 0.0 0.0 0.0
0.0 0.0 0.0 0.0 0.0 0.0 0.0 0.0
0.0 0.0 0.0 0.0 0.0 0.0 0.0 0.0
0.0 0.0 0.0 0.0 0.0 0.0 0.0 0.0
0.0 0.0 0.0 0.0 0.0 0.0 0.0 0.0
0.0 0.0 0.0 0.0 0.0 0.0 0.0
00000000: 0000 0000 0000 0000 0000 0000 0000 0000
00000010: 0000 0000 0000 0000 0000 0000 0000 0000
00000020: 0000 0000 0000 0000 0000 0000 0000 0000
00000030: 0000 0000 0000 0000 0000 0000 0000 0000
00000040: 0000 0000 0000 0000 0000 0000 0000 0000
00000050: 0000 0000 0000 0000 0000 0000 0000 0000
00000060: 0000 0000 0000 0000 0000 0000 0000 0000
00000070: 0000 0000 0000 0000 0000 0000 0000 0000
00000080: 0000 0000 0000 0000 0000 0000 0000 0000
00000090: 0000 0000 0000 0000 0000 0000 0000 0000
000000a0: 0000 0000 0000 0000 0000 0000 0000 0000
000000b0: 0000 0000 0000 0000 0000 0000 0000 0000
000000c0: 0000 0000 0000 0000 0000 0000 0000 0000
000000d0: 0000 0000 0000 0000 0000 0000 0000 0000
000000e0: 0000 0000 0000 0000 0000 0000 0000 0000
000000f0: 0000 0000 0000 0000 0000 0000 0000 0000
00000100: 0000 0000 0000 0000 0000 0000 0000 0000
00000110: 0000 0000 0000 0000 0000 0000 0000 0000
00000120: 0000 0000 0000 0000 0000 0000 0000 0000
00000130: 0000 0000 0000 0000 0000 0000 0000 0000
00000140: 0000 0000 0000 0000 0000 0000 0000 0000
00000150: 0000 0000 0000 0000 0000 0000 0000 0000
00000160: 0000 0000 0000 0000 0000 0000 0000 0000
00000170: 0000 0000 0000 0000 0000 0000 0000 0000
00000180: 0000 0000 0000 0000 0000 0000 0000 0000
00000190: 0000 0000 0000 0000 0000 0000 0000 0000
000001a0: 0000 0000 0000 0000 0000 0000 0000 0000
000001b0: 0000 0000 0000 0000 0000 0000 0000 0000
000001c0: 0000 0000 0000 0000 0000 0000 0000 0000
000001d0: 0000 0000 0000 0000 0000 0000 0000 0000
000001e0: 0000 0000 0000 0000 0000 0000 0000 0000
000001f0: 0000 0000 0000 0000 0000 0000 0000 0000
00000200: 0000 0000 0000 0000 0000 0000 0000 0000
00000210: 0000 0000 0000 0000 0000 0000 0000 0000
00000220: 0000 0000 0000 0000 0000 0000 0000 0000
00000230: 0000 0000 0000 0000 0000 0000 0000 0000
00000240: 0000 0000 0000 0000 0000 0000 0000 0000
00000250: 0000 0000 0000 0000 0000 0000 0000 0000
00000260: 0000 0000 0000 0000 0000 0000 0000 0000
00000270: 0000 0000 0000 0000 0000 0000 0000 0000
00000280: 0000 0000 0000 0000 0000 0000 0000 0000
00000290: 0000 0000 0000 0000 0000 0000 0000 0000
000002a0: 0000 0000 0000 0000 0000 0000 0000 0000
000002b0: 0000 0000 0000 0000 0000 0000

_ei_mask f4 [175]
1.0 1.0 1.0 1.0 1.0 1.0 1.0 1.0
1.0 1.0 1.0 1.0 1.0 1.0 1.0 1.0
1.0 1.0 1.0 1.0 1.0 1.0 1.0 1.0
1.0 1.0 1.0 1.0 1.0 1.0 1.0 1.0
1.0 1.0 1.0 1.0 1.0 1.0 1.0 1.0
1.0 1.0 1.0 1.0 1.0 1.0 1.0 1.0
1.0 1.0 1.0 1.0 1.0 1.0 1.0 1.0
1.0 1.0 1.0 1.0 1.0 1.0 1.0 1.0
1.0 1.0 1.0 1.0 1.0 1.0 1.0 1.0
1.0 1.0 1.0 1.0 1.0 1.0 1.0 1.0
1.0 1.0 1.0 1.0 1.0 1.0 1.0 1.0
1.0 1.0 1.0 1.0 1.0 1.0 1.0 1.0
1.0 1.0 1.0 1.0 1.0 1.0 1.0 1.0
1.0 1.0 1.0 1.0 1.0 1.0 1.0 1.0
1.0 1.0 1.0 1.0 1.0 1.0 1.0 1.0
1.0 1.0 1.0 1.0 1.0 1.0 1.0 1.0
1.0 1.0 1.0 1.0 1.0 1.0 1.0 1.0
1.0 1.0 1.0 1.0 1.0 1.0 1.0 1.0
1.0 1.0 1.0 1.0 1.0 1.0 1.0 1.0
1.0 1.0 1.0 1.0 1.0 1.0 1.0 1.0
1.0 1.0 1.0 1.0 1.0 1.0 1.0 1.0
1.0 1.0 1.0 1.0 1.0 1.0 1.0
00000000: 0000 803f 0000 803f 0000 803f 0000 803f
00000010: 0000 803f 0000 803f 0000 803f 0000 803f
00000020: 0000 803f 0000 803f 0000 803f 0000 803f
00000030: 0000 803f 0000 803f 0000 803f 0000 803f
00000040: 0000 803f 0000 803f 0000 803f 0000 803f
00000050: 0000 803f 0000 803f 0000 803f 0000 803f
00000060: 0000 803f 0000 803f 0000 803f 0000 803f
00000070: 0000 803f 0000 803f 0000 803f 0000 803f
00000080: 0000 803f 0000 803f 0000 803f 0000 803f
00000090: 0000 803f 0000 803f 0000 803f 0000 803f
000000a0: 0000 803f 0000 803f 0000 803f 0000 803f
000000b0: 0000 803f 0000 803f 0000 803f 0000 803f
000000c0: 0000 803f 0000 803f 0000 803f 0000 803f
000000d0: 0000 803f 0000 803f 0000 803f 0000 803f
000000e0: 0000 803f 0000 803f 0000 803f 0000 803f
000000f0: 0000 803f 0000 803f 0000 803f 0000 803f
00000100: 0000 803f 0000 803f 0000 803f 0000 803f
00000110: 0000 803f 0000 803f 0000 803f 0000 803f
00000120: 0000 803f 0000 803f 0000 803f 0000 803f
00000130: 0000 803f 0000 803f 0000 803f 0000 803f
00000140: 0000 803f 0000 803f 0000 803f 0000 803f
00000150: 0000 803f 0000 803f 0000 803f 0000 803f
00000160: 0000 803f 0000 803f 0000 803f 0000 803f
00000170: 0000 803f 0000 803f 0000 803f 0000 803f
00000180: 0000 803f 0000 803f 0000 803f 0000 803f
00000190: 0000 803f 0000 803f 0000 803f 0000 803f
000001a0: 0000 803f 0000 803f 0000 803f 0000 803f
000001b0: 0000 803f 0000 803f 0000 803f 0000 803f
000001c0: 0000 803f 0000 803f 0000 803f 0000 803f
000001d0: 0000 803f 0000 803f 0000 803f 0000 803f
000001e0: 0000 803f 0000 803f 0000 803f 0000 803f
000001f0: 0000 803f 0000 803f 0000 803f 0000 803f
00000200: 0000 803f 0000 803f 0000 803f 0000 803f
00000210: 0000 803f 0000 803f 0000 803f 0000 803f
00000220: 0000 803f 0000 803f 0000 803f 0000 803f
00000230: 0000 803f 0000 803f 0000 803f 0000 803f
00000240: 0000 803f 0000 803f 0000 803f 0000 803f
00000250: 0000 803f 0000 803f 0000 803f 0000 803f
00000260: 0000 803f 0000 803f 0000 803f 0000 803f
00000270: 0000 803f 0000 803f 0000 803f 0000 803f
00000280: 0000 803f 0000 803f 0000 803f 0000 803f
00000290: 0000 803f 0000 803f 0000 803f 0000 803f
000002a0: 0000 803f 0000 803f 0000 803f 0000 803f
000002b0: 0000 803f 0000 803f 0000 803f
