checkpoints/version79/model.pt (torch, 41468 bytes, 19 tensors)

bias f4 [175]
00000000: ce8c 963f 5225 1240 4ed4 1fbf ea67 a73f
00000010: a2c7 093d 8ab0 f43f e920 fb3f b2b7 2640
00000020: 87b2 ce3f 4b84 4040 c941 ac3f 8a2f c53f
00000030: 93b3 1e3e 6e9e e5bd bfec b43c de3c 0c40
00000040: 353a 4fbd dd82 81bd 7360 08bd db25 3240
00000050: d4d8 963e 8d53 b93f b660 c83f bba7 cdbe
00000060: e212 e6bf 8872 5b40 28c8 7a3f ce24 b53f
00000070: 5933 833f 4618 2640 7530 033f adde 223d
00000080: 359e 9a3f 4183 903d 14fa 1f3f 6706 6f40
00000090: 19ec 333f cccf 8b3f 7a6d e73f ce6f b73f
000000a0: c597 0b40 88e4 c33f 5b4b 4a3e 6903 c63e
000000b0: 3569 cc3f 4277 48be 650f f53e fc0a 373e
000000c0: 69e1 a33e dfc7 983e da73 0d3f 5a49 023f
000000d0: 80db 853f b3a4 603e 8bcd 723e d3b1 a53f
000000e0: 5d5f c0be 9489 313f de05 293e 457f bbbe
000000f0: fda0 a8bd 09d5 5e3d 4072 383f 39ba 343f
00000100: c7f4 953d 56d9 a93e 795d adbb 3651 b53e
00000110: f056 273f 3cbb d13f 8233 aebe 7f4c 983f
00000120: 0149 ab3f 0cbc 603f 7dde 923f d8c0 7d3f
00000130: 3afd ab3f 18b1 c23f 6cd7 c23f 430e 0a40
00000140: 651e aa3f d3f8 f93f 727f 7c3f 2871 2940
00000150: c5cd ae3f 5be6 9e3f 8f61 3d40 7e8a 5b40
00000160: aecf be3f 357a 853f fb0f 873f f7be d3be
00000170: 75ba 5c40 01b2 45bd 35cd 753f f903 bf3e
00000180: b863 6140 e947 d23e e138 39bf 05cc 023e
00000190: c936 1440 72ea 6d3f 5bad bd3f 6251 eb3f
000001a0: 84b7 7a3f 5dd5 0a40 b139 c03f 5ceb c03f
000001b0: b40a c93f 277d 0040 a8d5 823f 0508 9bbe
000001c0: 131e b03d cb54 1040 aa2c 983f 504d 1240
000001d0: 8d99 1e3e 9a37 1140 ea8e ec3f a50a 0640
000001e0: 02b8 2540 375d dd3f 3836 0540 a931 1240
000001f0: 58e5 2940 694c ae3f c54a 223e 8246 8ebd
00000200: ef00 5b3f 64d5 b43f aceb 903e 733a 463e
00000210: 9c1b 7bbd d31e 0040 a053 b53f dc19 893d
00000220: f4ad 5bbd dc88 b43f 8b26 0b3f 7e73 7a3f
00000230: e4e0 233f 66e0 cd3e 2391 923f 8ed2 af3e
00000240: 4546 cfbd df1a cb3f 29ea a93f 7035 a13f
00000250: a6a6 253f 78b9 debd aeef 843e 0511 c1bd
00000260: 4640 d73f 58e9 753f a8bd 4540 f262 0340
00000270: c390 903f 0b9a 5a40 2b20 983e d875 a73e
00000280: 9b65 603f 5606 78bf 0715 103f afb3 953f
00000290: 2777 c73f d04c 3240 6431 5a3f b6d3 ab3f
000002a0: 7ae8 6a3f b9e8 ee3f b9b5 0140 520a c73f
000002b0: 46b6 963f eb47 df3e 0c54 a13e
1.176172 2.2835279 -0.62433326 1.3078587 0.03363765 1.9116375 1.9619418 2.6049619
1.6148232 3.0080745 1.3457576 1.5405133 0.1549819 -0.11211859 0.022085546 2.191215
-0.05059262 -0.06323788 -0.033295106 2.7835605 0.29462302 1.4478623 1.5654514 -0.4016703
-1.7974513 3.4288654 0.97961664 1.4151857 1.0250045 2.5952315 0.51245815 0.03976314
1.2079531 0.07056285 0.62490964 3.7347658 0.7028213 1.092279 1.8080285 1.4330995
2.1811383 1.5304117 0.19755308 0.38674477 1.5969607 -0.19576743 0.47863308 0.17875284
0.32007912 0.2983999 0.552549 0.50893176 1.0457611 0.21937828 0.23711221 1.2944893
-0.37572756 0.6935055 0.16506144 -0.36620536 -0.08233831 0.054402385 0.7204933 0.70596653
0.07322078 0.33173627 -0.005290684 0.35413522 0.6536703 1.6385264 -0.34023672 1.1898345
1.3381654 0.87786937 1.1474148 0.9912238 1.3436654 1.5210295 1.5221992 2.1571205
1.3290526 1.952906 0.98631966 2.6475315 1.3656546 1.2414049 2.9590795 3.430328
1.4907129 1.042792 1.0551752 -0.41356632 3.4488804 -0.04826546 0.96016246 0.37307718
3.5217113 0.41070488 -0.72352415 0.1277314 2.3158438 0.9293586 1.4818529 1.8384211
0.9793627 2.1692727 1.5017606 1.5071826 1.5706391 2.0076387 1.0221453 -0.30279556
0.08599486 2.2551754 1.188863 2.2859688 0.15488262 2.2690187 1.8481114 2.0943997
2.589356 1.7294072 2.0814342 2.284281 2.654623 1.3617069 0.15848835 -0.06947042
0.855483 1.4127622 0.28304803 0.19358234 -0.061305627 2.0018814 1.4166145 0.066943854
-0.05363269 1.4104266 0.54355687 0.9783248 0.6401503 0.40210265 1.1450542 0.34340328
-0.10120825 1.5867575 1.3274585 1.2594433 0.6470741 -0.10875219 0.2596411 -0.09427074
1.681649 0.9605918 3.0897007 2.0529141 1.1294178 3.415652 0.29712042 0.32707095
0.8765504 -0.9688467 0.56282085 1.169546 1.5583237 2.7859383 0.85231614 1.3423984
0.9176098 1.8664771 2.0267165 1.5550025 1.1774375 0.43609557 0.31509435

weight f4 [9, 175]
00000000: 1d11 a83e d072 db3e a8e5 88b2 088a ba3e
00000010: 88f1 f5b2 a0ec 333f 608f df3e 4cad 333f
00000020: e349 6b3f 5cf3 273f 54fd 3b3f 2cc9 2b3f
00000030: bf2a 6ab1 9a21 e23e b7c0 d93d 96a1 53b9
00000040: 014f 643e f3e6 c23e 102a a03e 7c32 343f
00000050: 9e46 2c2d 3376 4b3f 4ecd 143f ca5b abbe
00000060: 48af 8a3f 01bc 433f 26c5 9a3f 65a0 073f
00000070: ec16 f33e 6fbe 9c2c c3df 873f 897a 373e
00000080: 775d 1b3f 4330 a03f a696 b730 8dc5 86ba
00000090: 681b 0e3f 6a1f a53e 43c5 173f 6cc5 3e3f
000000a0: 12c4 d83e 0719 e0be 368a 4c3f 7b03 173f
000000b0: 98f4 4c38 2040 063f f836 303e 6546 6bbe
000000c0: bf3a 85b1 66ae 0c3c d68b fb3e b2de 043f
000000d0: 19c4 913e 05a2 2b3f 84b3 d23e 4694 a535
000000e0: d547 03b9 6e3d 003f 2ac7 db3e 8af4 893e
000000f0: 2241 0c3f 5cda 113f 9e49 982e 4cc4 8233
00000100: d55c 562d 0e3c 0e3f 590f ee3e 4115 293f
00000110: ba7d 103e 7d1a 043f 49ea b73e 0b0a d03e
00000120: d3f6 ec3e d27e 60b7 7362 cb3e a619 343e
00000130: 5f8a 4c3c 51a1 da3e d519 0cb8 6f5f bb3e
00000140: af8d 613e a9a9 bd3e e96f d93e 28fe 903e
00000150: b6ed 993e 2645 db3e 375a f13e 598d 0b3f
00000160: fb94 c032 001d 1f3f a9b4 f13e 7cf4 e13e
00000170: ce93 1430 f94f f93e 9bcb 263f 05f5 333f
00000180: f737 193f 9f46 023f 2b5b 173f a874 743f
00000190: 6e13 593f 464a 993f 0804 c3ae fb22 5b33
000001a0: 4b5a 8d3b 9ca2 a430 83e9 873f faff 0c3f
000001b0: 9a4c 153f 5b3b 263f 325d 4e34 4b9f 25be
000001c0: 31d6 3e3f 06e7 3b3f 43b4 3c3f de2d 353f
000001d0: 4f3b 543f a040 e23e 4b25 2e3f 1e72 153f
000001e0: 4795 3c3f 57dd 073f 3041 073f 05a2 ec3e
000001f0: 2370 2c3f fc0f ef3d 6319 083f 206d 293e
00000200: 4783 153e 171b 1a3f 606a 473f ba75 26af
00000210: 9647 633f 28c4 eb3e a1f0 7b33 1a6b 1b3f
00000220: 58d3 903e da66 a93e cbbe c43e e551 953e
00000230: f6d5 1c3f 3eac 223f 1264 b33e f033 6c3e
00000240: 3efb a63e d261 783f 6e2d 883e 6f38 c23e
00000250: e6eb db3e 9b4f 073f 3658 b23e 5a76 a53e
00000260: cfd9 e43e 635a e93e 9f70 fd3e 9039 c63e
00000270: 4f2f 113f abc9 f03e c7e8 523e 046a 623f
00000280: 1e3c 183f 9292 0d3f 8186 7a3f f39a 393f
00000290: 258c be3e 643c 10b9 2083 873e 06da c83e
000002a0: 70e1 0d3f 126f 893e 34df aeae b60c dd3e
000002b0: 4027 ed3e 67e3 443f 67b2 d03e 54ec e83e
000002c0: c33f 263f eb9a 313f f39a 143f 51a2 a63f
000002d0: ed43 ab3e bf21 0f3f aa61 093f 8d41 bb2f
000002e0: 796b 083f dd3f 19b4 b3ec 4ab7 3ed0 433f
000002f0: eb1a edb3 5f72 0e3f 2e18 4e3f 41ec 05bf
00000300: e16f 333e f1e6 ffbe f79d 003f d478 363f
00000310: 09b7 09b3 3fa6 713e b8af af3e 143c 4f36
00000320: 34e8 013f baa1 2e31 80a8 013f 0ed5 093f
00000330: 9b62 923f 83d5 57b0 6a26 c2be 01f9 1eb7
00000340: 4c6b 3daf d3dd 873f 4d0f 713f 8941 643e
00000350: 9984 ad3e 9240 b73a 26a9 d332 c4d3 103f
00000360: 9f1e 193f 8be9 45af e1f7 463e 9177 413f
00000370: 372e b43e 63b3 023f 7e4b 0d3f 3e74 013f
00000380: 0936 d33e 3e86 bd3e bfa8 b93e 633d a63e
00000390: f80b 15be 0d16 12ba af4b f73e 130a 1a3f
000003a0: 9af7 8f3b 66b4 e53d b728 04bf abe1 26b3
000003b0: e344 f6b3 3c96 0f3f 770e 593f 972d 3d3f
000003c0: 9098 8032 5907 acbe 32cf 722c 1515 e83e
000003d0: eb4f 923e 4339 a0be 2ec8 b43e 976a c33e
000003e0: 8c9a f23e 2eb8 913e a46b c53e e312 133f
000003f0: 6810 a53e 19d4 0d3f 0785 fc3e 1ae6 0d3f
0.32825556 0.42861032 -1.593692e-08 0.36433434 -2.863159e-08 0.70282936 0.43664074 0.70186305
0.9190962 0.6560571 0.73433423 0.6710384 -3.407578e-09 0.4416626 0.106324606 -0.00020182724
0.22295763 0.38066825 0.3128209 0.70389533 9.792748e-12 0.7947723 0.5812577 -0.33468467
1.0834742 0.76458746 1.2091415 0.5297912 0.47478426 4.454929e-12 1.0615162 0.17917837
0.6068949 1.2514728 1.3357819e-09 -0.0010282263 0.5551057 0.3225053 0.5928537 0.7451999
0.4233709 -0.43769094 0.79898393 0.58989686 4.8865186e-05 0.52441597 0.17208469 -0.22976072
-3.877488e-09 0.008586502 0.49130124 0.51902306 0.28469923 0.670441 0.41152585 1.2336611e-06
-0.00012519893 0.50093734 0.42925388 0.2694438 0.54786885 0.56973815 6.925237e-11 6.089303e-08
1.21851045e-11 0.55560386 0.46496084 0.66048056 0.14110461 0.5160292 0.35920933 0.40632662
0.46282062 -1.3380968e-05 0.39723548 0.17587909 0.012484162 0.427012 -3.340266e-05 0.36596248
0.22026704 0.37043503 0.42468193 0.28318906 0.30064172 0.42826194 0.4713914 0.54512554
2.241949e-08 0.62153625 0.47208145 0.4413184 5.405213e-10 0.48693827 0.6515443 0.70295745
0.5985102 0.5088901 0.59123486 0.95490503 0.8479527 1.1975791 -8.8682894e-11 5.1021726e-08
0.0043137423 1.1978787e-09 1.0618137 0.5507809 0.5832001 0.6493432 1.921915e-07 -0.16174047
0.7454558 0.7339939 0.7371256 0.7077311 0.82903 0.4418993 0.68025655 0.58377254
0.7366528 0.5307211 0.52833843 0.4621736 0.6735861 0.11672971 0.5316374 0.16545534
0.1460086 0.60197586 0.7789669 -1.5139437e-10 0.88781106 0.46048093 5.8659342e-08 0.607103
0.28286242 0.33086282 0.38426813 0.29164043 0.6126398 0.6354407 0.35037285 0.23066688
0.32613558 0.9702426 0.2659716 0.3793368 0.42953414 0.52855843 0.34832925 0.32316858
0.44697425 0.45576772 0.49499986 0.38715792 0.5671281 0.4702886 0.2059661 0.88443017
0.5946673 0.55301774 0.97861487 0.7250206 0.37216297 -0.00013755407 0.26467228 0.3922884
0.55422115 0.26842552 -7.952253e-11 0.4317376 0.46319008 0.7690949 0.4076111 0.45492804
0.6494104 0.6937701 0.58048934 1.3018285 0.3345026 0.5591087 0.5366465 3.4061678e-10
0.5328899 -1.4272469e-07 -1.2095249e-05 0.7648963 -1.1041069e-07 0.55643266 0.80505645 -0.5231362
0.17523147 -0.49980882 0.50241035 0.7127812 -3.2064268e-08 0.23598574 0.3431375 3.0880374e-06
0.5074494 2.5412263e-09 0.50647736 0.5384072 1.1436342 -7.851996e-10 -0.37919933 -9.47551e-06
-1.722757e-10 1.061457 0.9416397 0.22290625 0.33890226 0.0013981035 2.4640553e-08 0.5657313
0.5981235 -1.8000017e-10 0.19430496 0.7557307 0.3519151 0.5105497 0.55193317 0.50567997
0.41252163 0.3701648 0.36261556 0.3246871 -0.14555347 -0.0005572744 0.4829993 0.6017162
0.00439353 0.11216049 -0.51624626 -3.885513e-08 -1.1467798e-07 0.56088614 0.84787697 0.7389769
1.4970539e-08 -0.33599356 3.4505285e-12 0.45328584 0.28576598 -0.31293687 0.35308975 0.3816726
0.47383535 0.2846083 0.38558686 0.57450694 0.3223908 0.5540176 0.49320242 0.5542923

bias f4 [175]
00000000: 0000 0000 0000 0000 0000 0000 0000 0000
00000010: 0000 0000 0000 0000 0000 0000 0000 0000
00000020: 0000 0000 0000 0000 0000 0000 0000 0000
00000030: 0000 0000 0000 0000 0000 0000 0000 0000
00000040: 0000 0000 0000 0000 0000 0000 0000 0000
00000050: 0000 0000 0000 0000 0000 0000 0000 0000
00000060: 0000 0000 0000 0000 0000 0000 0000 0000
00000070: 0000 0000 0000 0000 0000 0000 0000 0000
00000080: 0000 0000 0000 0000 0000 0000 0000 0000
00000090: 0000 0000 0000 0000 0000 0000 0000 0000
000000a0: 0000 0000 0000 0000 0000 0000 0000 0000
000000b0: 0000 0000 0000 0000 0000 0000 0000 0000
000000c0: 0000 0000 0000 0000 0000 0000 0000 0000
000000d0: 0000 0000 0000 0000 0000 0000 0000 0000
000000e0: 0000 0000 0000 0000 0000 0000 0000 0000
000000f0: 0000 0000 0000 0000 0000 0000 0000 0000
00000100: 0000 0000 0000 0000 0000 0000 0000 0000
00000110: 0000 0000 0000 0000 0000 0000 0000 0000
00000120: 0000 0000 0000 0000 0000 0000 0000 0000
00000130: 0000 0000 0000 0000 0000 0000 0000 0000
00000140: 0000 0000 0000 0000 0000 0000 0000 0000
00000150: 0000 0000 0000 0000 0000 0000 0000 0000
00000160: 0000 0000 0000 0000 0000 0000 0000 0000
00000170: 0000 0000 0000 0000 0000 0000 0000 0000
00000180: 0000 0000 0000 0000 0000 0000 0000 0000
00000190: 0000 0000 0000 0000 0000 0000 0000 0000
000001a0: 0000 0000 0000 0000 0000 0000 0000 0000
000001b0: 0000 0000 0000 0000 0000 0000 0000 0000
000001c0: 0000 0000 0000 0000 0000 0000 0000 0000
000001d0: 0000 0000 0000 0000 0000 0000 0000 0000
000001e0: 0000 0000 0000 0000 0000 0000 0000 0000
000001f0: 0000 0000 0000 0000 0000 0000 0000 0000
00000200: 0000 0000 0000 0000 0000 0000 0000 0000
00000210: 0000 0000 0000 0000 0000 0000 0000 0000
00000220: 0000 0000 0000 0000 0000 0000 0000 0000
00000230: 0000 0000 0000 0000 0000 0000 0000 0000
00000240: 0000 0000 0000 0000 0000 0000 0000 0000
00000250: 0000 0000 0000 0000 0000 0000 0000 0000
00000260: 0000 0000 0000 0000 0000 0000 0000 0000
00000270: 0000 0000 0000 0000 0000 0000 0000 0000
00000280: 0000 0000 0000 0000 0000 0000 0000 0000
00000290: 0000 0000 0000 0000 0000 0000 0000 0000
000002a0: 0000 0000 0000 0000 0000 0000 0000 0000
000002b0: 0000 0000 0000 0000 0000 0000
0.0 0.0 0.0 0.0 0.0 0.0 0.0 0.0
0.0 0.0 0.0 0.0 0.0 0.0 0.0 0.0
0.0 0.0 0.0 0.0 0.0 0.0 0.0 0.0
0.0 0.0 0.0 0.0 0.0 0.0 0.0 0.0
0.0 0.0 0.0 0.0 0.0 0.0 0.0 0.0
0.0 0.0 0.0 0.0 0.0 0.0 0.0 0.0
0.0 0.0 0.0 0.0 0.0 0.0 0.0 0.0
0.0 0.0 0.0 0.0 0.0 0.0 0.0 0.0
0.0 0.0 0.0 0.0 0.0 0.0 0.0 0.0
0.0 0.0 0.0 0.0 0.0 0.0 0.0 0.0
0.0 0.0 0.0 0.0 0.0 0.0 0.0 0.0
0.0 0.0 0.0 0.0 0.0 0.0 0.0 0.0
0.0 0.0 0.0 0.0 0.0 0.0 0.0 0.0
0.0 0.0 0.0 0.0 0.0 0.0 0.0 0.0
0.0 0.0 0.0 0.0 0.0 0.0 0.0 0.0
0.0 0.0 0.0 0.0 0.0 0.0 0.0 0.0
0.0 0.0 0.0 0.0 0.0 0.0 0.0 0.0
0.0 0.0 0.0 0.0 0.0 0.0 0.0 0.0
0.0 0.0 0.0 0.0 0.0 0.0 0.0 0.0
0.0 0.0 0.0 0.0 0.0 0.0 0.0 0.0
0.0 0.0 0.0 0.0 0.0 0.0 0.0 0.0
0.0 0.0 0.0 0.0 0.0 0.0 0.0

_ei_mask f4 [175]
00000000: 0000 803f 0000 803f 0000 803f 0000 803f
00000010: 0000 803f 0000 803f 0000 803f 0000 803f
00000020: 0000 803f 0000 803f 0000 803f 0000 803f
00000030: 0000 803f 0000 803f 0000 803f 0000 803f
00000040: 0000 803f 0000 803f 0000 803f 0000 803f
00000050: 0000 803f 0000 803f 0000 803f 0000 803f
00000060: 0000 803f 0000 803f 0000 803f 0000 803f
00000070: 0000 803f 0000 803f 0000 803f 0000 803f
00000080: 0000 803f 0000 803f 0000 803f 0000 803f
00000090: 0000 803f 0000 803f 0000 803f 0000 803f
000000a0: 0000 803f 0000 803f 0000 803f 0000 803f
000000b0: 0000 803f 0000 803f 0000 803f 0000 803f
000000c0: 0000 803f 0000 803f 0000 803f 0000 803f
000000d0: 0000 803f 0000 803f 0000 803f 0000 803f
000000e0: 0000 803f 0000 803f 0000 803f 0000 803f
000000f0: 0000 803f 0000 803f 0000 803f 0000 803f
00000100: 0000 803f 0000 803f 0000 803f 0000 803f
00000110: 0000 803f 0000 803f 0000 803f 0000 803f
00000120: 0000 803f 0000 803f 0000 803f 0000 803f
00000130: 0000 803f 0000 803f 0000 803f 0000 803f
00000140: 0000 803f 0000 803f 0000 803f 0000 803f
00000150: 0000 803f 0000 803f 0000 803f 0000 803f
00000160: 0000 803f 0000 803f 0000 803f 0000 803f
00000170: 0000 803f 0000 803f 0000 803f 0000 803f
00000180: 0000 803f 0000 803f 0000 803f 0000 803f
00000190: 0000 803f 0000 803f 0000 803f 0000 803f
000001a0: 0000 803f 0000 803f 0000 803f 0000 803f
000001b0: 0000 803f 0000 803f 0000 803f 0000 803f
000001c0: 0000 803f 0000 803f 0000 803f 0000 803f
000001d0: 0000 803f 0000 803f 0000 803f 0000 803f
000001e0: 0000 803f 0000 803f 0000 803f 0000 803f
000001f0: 0000 803f 0000 803f 0000 803f 0000 803f
00000200: 0000 803f 0000 803f 0000 803f 0000 803f
00000210: 0000 803f 0000 803f 0000 803f 0000 803f
00000220: 0000 803f 0000 803f 0000 803f 0000 803f
00000230: 0000 803f 0000 803f 0000 803f 0000 803f
00000240: 0000 803f 0000 803f 0000 803f 0000 803f
00000250: 0000 803f 0000 803f 0000 803f 0000 803f
00000260: 0000 803f 0000 803f 0000 803f 0000 803f
00000270: 0000 803f 0000 803f 0000 803f 0000 803f
00000280: 0000 803f 0000 803f 0000 803f 0000 803f
00000290: 0000 803f 0000 803f 0000 803f 0000 803f
000002a0: 0000 803f 0000 803f 0000 803f 0000 803f
000002b0: 0000 803f 0000 803f 0000 803f
1.0 1.0 1.0 1.0 1.0 1.0 1.0 1.0
1.0 1.0 1.0 1.0 1.0 1.0 1.0 1.0
1.0 1.0 1.0 1.0 1.0 1.0 1.0 1.0
1.0 1.0 1.0 1.0 1.0 1.0 1.0 1.0
1.0 1.0 1.0 1.0 1.0 1.0 1.0 1.0
1.0 1.0 1.0 1.0 1.0 1.0 1.0 1.0
1.0 1.0 1.0 1.0 1.0 1.0 1.0 1.0
1.0 1.0 1.0 1.0 1.0 1.0 1.0 1.0
1.0 1.0 1.0 1.0 1.0 1.0 1.0 1.0
1.0 1.0 1.0 1.0 1.0 1.0 1.0 1.0
1.0 1.0 1.0 1.0 1.0 1.0 1.0 1.0
1.0 1.0 1.0 1.0 1.0 1.0 1.0 1.0
1.0 1.0 1.0 1.0 1.0 1.0 1.0 1.0
1.0 1.0 1.0 1.0 1.0 1.0 1.0 1.0
1.0 1.0 1.0 1.0 1.0 1.0 1.0 1.0
1.0 1.0 1.0 1.0 1.0 1.0 1.0 1.0
1.0 1.0 1.0 1.0 1.0 1.0 1.0 1.0
1.0 1.0 1.0 1.0 1.0 1.0 1.0 1.0
1.0 1.0 1.0 1.0 1.0 1.0 1.0 1.0
1.0 1.0 1.0 1.0 1.0 1.0 1.0 1.0
1.0 1.0 1.0 1.0 1.0 1.0 1.0 1.0
1.0 1.0 1.0 1.0 1.0 1.0 1.0

weight f4 [2, 175]
00000000: 6524 0a3f 7234 573e 7ac3 2e3e 4178 4c3e
00000010: 30b3 133f aaf6 ad3e 73cc 943e 967d 353f
00000020: 3586 b33e e23f 0f3f 0429 34be ccbb bb3d
00000030: bef8 3d3c 85df 373e 266b 1f3e 86db d03e
00000040: 70fb 6a3e 3a58 ce3c a848 703e bc87 fd3e
00000050: 6912 313e 349e 08be ff20 143e 22bb d53d
00000060: 37d7 b13f f94f 0f3f f8d7 56bc ee64 223d
00000070: 578b ba3d 19af f93e a2cb 183f 87d9 643e
00000080: ad96 823e 1179 cd3e 494f 123e 881f 0d3f
00000090: 2237 75bd d471 a23d f0ee ac3e ce5a 873e
000000a0: 2718 353f ee32 163e 994e 893e c272 a6be
000000b0: 06d1 663e d08c 4b3d de6c 59bc eb09 15be
000000c0: 364f 0a3e f89c 073f fd7d a53e 4446 953e
000000d0: fa51 9a3e d948 9bbd 939e 283d e4e2 15bf
000000e0: 1dfc 2d3e 15aa 983d 0896 af3e b2b9 283f
000000f0: fd07 313e 19c2 853e 7b3a a63e d1ff 8d3d
00000100: b60d 80bd 2a30 743e 8ce6 453e a7cc bbbd
00000110: 4b33 a3bd d213 463e c330 0f3c 9355 493e
00000120: 9f21 5a3e 03e8 e0bd 4740 353e 2b96 06bd
00000130: 8efb 7fbc e9cb 213e cb54 24bc 5197 623e
00000140: b268 703e ec67 d33e 1f1c b1bb 6921 a63e
00000150: 86a6 b63c ea99 503e 9005 933e 479a 913e
00000160: 9231 debd 1906 7e3e 549b c03e e800 a73e
00000170: 2d45 d63e 9d27 1a3e 6611 a73e 15a8 163e
00000180: 7489 af3e b02a ec3d c439 9e3e 1184 3d3e
00000190: 8daa 2c3e a88a b4bc 61ef c83e 7da7 5b3e
000001a0: ca69 063e f866 923e fa9d b5bd 6c33 913e
000001b0: 3ecf eabd 0452 d13e b741 dfbd 9196 153e
000001c0: c6ed a43d e0a1 c63e be07 4ebe b706 063f
000001d0: 2315 4b3d c46c 33be 7a82 283f 27a7 aa3e
000001e0: 5599 b13e 8c0b b03e 0b31 0d3e f4f9 593e
000001f0: b37d 8e3e 35d0 933e 4e2a 083d 09a2 eebc
00000200: b1ed 113e e756 67be bb3e be3d 6427 b1bd
00000210: ca8f 733d 6265 713e d66b 0b3e 6f72 2d3d
00000220: 6137 c73e fc33 c73e a611 693e 8070 fc3d
00000230: 7e02 b23e 5a39 8f3e f739 703f 5f1c c33e
00000240: 08a0 943d 2cff 653d cfab b33e 0d42 9abe
00000250: a74a f63e cd57 2d3d 6062 f53d aa73 033d
00000260: ea4e 813e ca01 26bd ef71 0e3f 5884 0c3f
00000270: 41fa 333d eac2 043f c8d3 0a3e c754 a5be
00000280: acfe 233e a6e7 2f3d cbd5 053f 131d c43d
00000290: 5f2c 773e 7611 853e ed8a efbc a343 893e
000002a0: ab5e c6be 1331 b83e 9470 4b3d e2c9 603e
000002b0: ce6c 7b3e 0ccc 7abe 02df 8d3d 72f7 a9be
000002c0: dc7b f03e 06b3 05bb d8ae 233e fc3c cbbe
000002d0: 6a6e f13e b7d5 563e a5cc 503e d925 693d
000002e0: 58dd 1e3e d291 193f d52f 8d3e 4e7d d23e
000002f0: aa21 abbd e8ba 87be c5d4 f93d 8b01 83be
00000300: 5de6 323e 7b44 92be c944 e63e 4575 213d
00000310: f264 2b3f 0c23 483e 8910 4f3e 13a3 dfbe
00000320: 9997 9d3e 0eb9 99be 1109 253f ec27 f63e
00000330: 4cc0 1a3f 4b76 683e 4067 b83d 6a2e 603e
00000340: 3698 8bbc cd40 be3c 2363 1d3e ce95 bd3e
00000350: 8587 ba3e 8a99 4a3d ad39 b23e 66f9 a5be
00000360: 5ef7 183e 8745 c1bd 6d23 ef3e 9fcc 35be
00000370: 94e1 e63d 7eba 813e 6320 c63e 98e8 dcbd
00000380: af44 dbbe 35f7 2ebf e8ae 25bf 6f69 a6bd
00000390: f34e 9d3e 5bab 1b3e 34e1 bd3e 11b7 9f3e
000003a0: 5d4a 123e e20d 7fbd f1b8 f0be 762f e2bc
000003b0: 9037 c5bd 8965 ecbd b30e 243f 1240 963e
000003c0: ed12 573e 0b15 6d3e 7a39 f83d 9e3b 88bd
000003d0: 916d 013e 305a 9b3e 9138 2a3e f377 593e
000003e0: f34d 583e 52b6 2f3e 58fc 853e a20d a63e
000003f0: a6ba 483e 741d 85bd 19c9 473d 239b 693e
0.53961784 0.210161 0.17066756 0.19967748 0.57695293 0.33977252 0.29062232 0.70894754
0.3506333 0.5595685 -0.17593771 0.09166679 0.011594949 0.1795636 0.15568218 0.40792483
0.22947478 0.025188554 0.23465216 0.4951762 0.17292179 -0.133416 0.14465712 0.104360834
1.3893803 0.55981404 -0.013113014 0.039647035 0.09108608 0.487664 0.5968572 0.22348605
0.25505581 0.4013143 0.14288057 0.5512624 -0.059867032 0.07931867 0.33776045 0.26436466
0.7073998 0.14667866 0.26817778 -0.32509428 0.22540674 0.049694836 -0.013270585 -0.14554565
0.13506779 0.5297389 0.32322684 0.2915517 0.30140668 -0.07582254 0.041166853 -0.5854933
0.16990705 0.074543156 0.34294152 0.6590835 0.17288204 0.26124647 0.32466492 0.06933559
-0.06252615 0.23846498 0.19326228 -0.09169894 -0.07968768 0.19343498 0.008739653 0.1966155
0.21301888 -0.10981753 0.17700301 -0.032858055 -0.01562394 0.15800442 -0.010029982 0.22128035
0.23477438 0.41290224 -0.0054049636 0.32447365 0.022296201 0.20371214 0.2871518 0.28438017
-0.108492985 0.24807014 0.37618506 0.3261788 0.41849652 0.15054174 0.3263046 0.14712556
0.34284556 0.115315795 0.30903447 0.1850741 0.16861935 -0.022038773 0.39245132 0.2145061
0.13126293 0.28594184 -0.08868022 0.28359544 -0.114653096 0.40882885 -0.10901206 0.14608218
0.08053164 0.38795376 -0.20120141 0.52353996 0.049580704 -0.1752196 0.6582409 0.33330652
0.34687296 0.3438381 0.1378824 0.21286756 0.27830276 0.28869787 0.03324347 -0.029129999
0.14250828 -0.22591744 0.09289309 -0.08650091 0.0594633 0.2357383 0.13615355 0.04234546
0.38909438 0.38906848 0.22760639 0.12326145 0.34767526 0.27973443 0.9383845 0.38107583
0.07257086 0.056151554 0.35092017 -0.30128518 0.4810383 0.04232006 0.11981654 0.032092728
0.2525552 -0.04052905 0.556426 0.5488944 0.043939833 0.51859915 0.1355735 -0.32291242
0.16015118 0.042945527 0.5227935 0.09575858 0.2413802 0.25989884 -0.02924105 0.26809415
-0.387441 0.3597494 0.04966791 0.21952012 0.24553224 -0.244919 0.06927301 -0.33196598
0.46969497 -0.0020400896 0.15984666 -0.39694965 0.47154552 0.20979963 0.20390566 0.05692086
0.15514123 0.5998813 0.27575555 0.41111225 -0.0835603 -0.26509786 0.12198786 -0.25587115
0.17470689 -0.2856787 0.44974354 0.039418478 0.66950905 0.1954462 0.20221151 -0.43679103
0.30779722 -0.30023998 0.6446696 0.48077333 0.6044967 0.22701375 0.090040684 0.21892706
-0.017040353 0.023224259 0.15369849 0.37028354 0.36431518 0.049462833 0.34809628 -0.32416838
0.14938113 -0.094370894 0.46706715 -0.17753838 0.11273494 0.25337595 0.38696584 -0.10786551
-0.4282584 -0.6834596 -0.6472001 -0.081255786 0.30724296 0.15202086 0.3708588 0.31194356
0.1428618 -0.0622691 -0.470161 -0.027610522 -0.09629738 -0.11542804 0.6408493 0.29345757
0.21003313 0.23152559 0.12120338 -0.06651996 0.12639453 0.30342245 0.16623141 0.21237163
0.21123485 0.17159393 0.26169086 0.32432276 0.1960245 -0.06499758 0.048775766 0.22813086

bias f4 [175]
00000000: 0000 0000 0000 0000 0000 0000 0000 0000
00000010: 0000 0000 0000 0000 0000 0000 0000 0000
00000020: 0000 0000 0000 0000 0000 0000 0000 0000
00000030: 0000 0000 0000 0000 0000 0000 0000 0000
00000040: 0000 0000 0000 0000 0000 0000 0000 0000
00000050: 0000 0000 0000 0000 0000 0000 0000 0000
00000060: 0000 0000 0000 0000 0000 0000 0000 0000
00000070: 0000 0000 0000 0000 0000 0000 0000 0000
00000080: 0000 0000 0000 0000 0000 0000 0000 0000
00000090: 0000 0000 0000 0000 0000 0000 0000 0000
000000a0: 0000 0000 0000 0000 0000 0000 0000 0000
000000b0: 0000 0000 0000 0000 0000 0000 0000 0000
000000c0: 0000 0000 0000 0000 0000 0000 0000 0000
000000d0: 0000 0000 0000 0000 0000 0000 0000 0000
000000e0: 0000 0000 0000 0000 0000 0000 0000 0000
000000f0: 0000 0000 0000 0000 0000 0000 0000 0000
00000100: 0000 0000 0000 0000 0000 0000 0000 0000
00000110: 0000 0000 0000 0000 0000 0000 0000 0000
00000120: 0000 0000 0000 0000 0000 0000 0000 0000
00000130: 0000 0000 0000 0000 0000 0000 0000 0000
00000140: 0000 0000 0000 0000 0000 0000 0000 0000
00000150: 0000 0000 0000 0000 0000 0000 0000 0000
00000160: 0000 0000 0000 0000 0000 0000 0000 0000
00000170: 0000 0000 0000 0000 0000 0000 0000 0000
00000180: 0000 0000 0000 0000 0000 0000 0000 0000
00000190: 0000 0000 0000 0000 0000 0000 0000 0000
000001a0: 0000 0000 0000 0000 0000 0000 0000 0000
000001b0: 0000 0000 0000 0000 0000 0000 0000 0000
000001c0: 0000 0000 0000 0000 0000 0000 0000 0000
000001d0: 0000 0000 0000 0000 0000 0000 0000 0000
000001e0: 0000 0000 0000 0000 0000 0000 0000 0000
000001f0: 0000 0000 0000 0000 0000 0000 0000 0000
00000200: 0000 0000 0000 0000 0000 0000 0000 0000
00000210: 0000 0000 0000 0000 0000 0000 0000 0000
00000220: 0000 0000 0000 0000 0000 0000 0000 0000
00000230: 0000 0000 0000 0000 0000 0000 0000 0000
00000240: 0000 0000 0000 0000 0000 0000 0000 0000
00000250: 0000 0000 0000 0000 0000 0000 0000 0000
00000260: 0000 0000 0000 0000 0000 0000 0000 0000
00000270: 0000 0000 0000 0000 0000 0000 0000 0000
00000280: 0000 0000 0000 0000 0000 0000 0000 0000
00000290: 0000 0000 0000 0000 0000 0000 0000 0000
000002a0: 0000 0000 0000 0000 0000 0000 0000 0000
000002b0: 0000 0000 0000 0000 0000 0000
0.0 0.0 0.0 0.0 0.0 0.0 0.0 0.0
0.0 0.0 0.0 0.0 0.0 0.0 0.0 0.0
0.0 0.0 0.0 0.0 0.0 0.0 0.0 0.0
0.0 0.0 0.0 0.0 0.0 0.0 0.0 0.0
0.0 0.0 0.0 0.0 0.0 0.0 0.0 0.0
0.0 0.0 0.0 0.0 0.0 0.0 0.0 0.0
0.0 0.0 0.0 0.0 0.0 0.0 0.0 0.0
0.0 0.0 0.0 0.0 0.0 0.0 0.0 0.0
0.0 0.0 0.0 0.0 0.0 0.0 0.0 0.0
0.0 0.0 0.0 0.0 0.0 0.0 0.0 0.0
0.0 0.0 0.0 0.0 0.0 0.0 0.0 0.0
0.0 0.0 0.0 0.0 0.0 0.0 0.0 0.0
0.0 0.0 0.0 0.0 0.0 0.0 0.0 0.0
0.0 0.0 0.0 0.0 0.0 0.0 0.0 0.0
0.0 0.0 0.0 0.0 0.0 0.0 0.0 0.0
0.0 0.0 0.0 0.0 0.0 0.0 0.0 0.0
0.0 0.0 0.0 0.0 0.0 0.0 0.0 0.0
0.0 0.0 0.0 0.0 0.0 0.0 0.0 0.0
0.0 0.0 0.0 0.0 0.0 0.0 0.0 0.0
0.0 0.0 0.0 0.0 0.0 0.0 0.0 0.0
0.0 0.0 0.0 0.0 0.0 0.0 0.0 0.0
0.0 0.0 0.0 0.0 0.0 0.0 0.0

_ei_mask f4 [175]
00000000: 0000 803f 0000 803f 0000 803f 0000 803f
00000010: 0000 803f 0000 803f 0000 803f 0000 803f
00000020: 0000 803f 0000 803f 0000 803f 0000 803f
00000030: 0000 803f 0000 803f 0000 803f 0000 803f
00000040: 0000 803f 0000 803f 0000 803f 0000 803f
00000050: 0000 803f 0000 803f 0000 803f 0000 803f
00000060: 0000 803f 0000 803f 0000 803f 0000 803f
00000070: 0000 803f 0000 803f 0000 803f 0000 803f
00000080: 0000 803f 0000 803f 0000 803f 0000 803f
00000090: 0000 803f 0000 803f 0000 803f 0000 803f
000000a0: 0000 803f 0000 803f 0000 803f 0000 803f
000000b0: 0000 803f 0000 803f 0000 803f 0000 803f
000000c0: 0000 803f 0000 803f 0000 803f 0000 803f
000000d0: 0000 803f 0000 803f 0000 803f 0000 803f
000000e0: 0000 803f 0000 803f 0000 803f 0000 803f
000000f0: 0000 803f 0000 803f 0000 803f 0000 803f
00000100: 0000 803f 0000 803f 0000 803f 0000 803f
00000110: 0000 803f 0000 803f 0000 803f 0000 803f
00000120: 0000 803f 0000 803f 0000 803f 0000 803f
00000130: 0000 803f 0000 803f 0000 803f 0000 803f
00000140: 0000 803f 0000 803f 0000 803f 0000 803f
00000150: 0000 803f 0000 803f 0000 803f 0000 803f
00000160: 0000 803f 0000 803f 0000 803f 0000 803f
00000170: 0000 803f 0000 803f 0000 803f 0000 803f
00000180: 0000 803f 0000 803f 0000 803f 0000 803f
00000190: 0000 803f 0000 803f 0000 803f 0000 803f
000001a0: 0000 803f 0000 803f 0000 803f 0000 803f
000001b0: 0000 803f 0000 803f 0000 803f 0000 803f
000001c0: 0000 803f 0000 803f 0000 803f 0000 803f
000001d0: 0000 803f 0000 803f 0000 803f 0000 803f
000001e0: 0000 803f 0000 803f 0000 803f 0000 803f
000001f0: 0000 803f 0000 803f 0000 803f 0000 803f
00000200: 0000 803f 0000 803f 0000 803f 0000 803f
00000210: 0000 803f 0000 803f 0000 803f 0000 803f
00000220: 0000 803f 0000 803f 0000 803f 0000 803f
00000230: 0000 803f 0000 803f 0000 803f 0000 803f
00000240: 0000 803f 0000 803f 0000 803f 0000 803f
00000250: 0000 803f 0000 803f 0000 803f 0000 803f
00000260: 0000 803f 0000 803f 0000 803f 0000 803f
00000270: 0000 803f 0000 803f 0000 803f 0000 803f
00000280: 0000 803f 0000 803f 0000 803f 0000 803f
00000290: 0000 803f 0000 803f 0000 803f 0000 803f
000002a0: 0000 803f 0000 803f 0000 803f 0000 803f
000002b0: 0000 803f 0000 803f 0000 803f
1.0 1.0 1.0 1.0 1.0 1.0 1.0 1.0
1.0 1.0 1.0 1.0 1.0 1.0 1.0 1.0
1.0 1.0 1.0 1.0 1.0 1.0 1.0 1.0
1.0 1.0 1.0 1.0 1.0 1.0 1.0 1.0
1.0 1.0 1.0 1.0 1.0 1.0 1.0 1.0
1.0 1.0 1.0 1.0 1.0 1.0 1.0 1.0
1.0 1.0 1.0 1.0 1.0 1.0 1.0 1.0
1.0 1.0 1.0 1.0 1.0 1.0 1.0 1.0
1.0 1.0 1.0 1.0 1.0 1.0 1.0 1.0
1.0 1.0 1.0 1.0 1.0 1.0 1.0 1.0
1.0 1.0 1.0 1.0 1.0 1.0 1.0 1.0
1.0 1.0 1.0 1.0 1.0 1.0 1.0 1.0
1.0 1.0 1.0 1.0 1.0 1.0 1.0 1.0
1.0 1.0 1.0 1.0 1.0 1.0 1.0 1.0
1.0 1.0 1.0 1.0 1.0 1.0 1.0 1.0
1.0 1.0 1.0 1.0 1.0 1.0 1.0 1.0
1.0 1.0 1.0 1.0 1.0 1.0 1.0 1.0
1.0 1.0 1.0 1.0 1.0 1.0 1.0 1.0
1.0 1.0 1.0 1.0 1.0 1.0 1.0 1.0
1.0 1.0 1.0 1.0 1.0 1.0 1.0 1.0
1.0 1.0 1.0 1.0 1.0 1.0 1.0 1.0
1.0 1.0 1.0 1.0 1.0 1.0 1.0

weight f4 [175, 3]
00000000: 459f a540 7e94 71c0 b431 d740 0178 4bbf
00000010: 37d4 1241 436a 8cbe 2ab3 4641 7e5d 3940
00000020: d2aa 8f3c 2c6e 1841 37d7 a140 59a3 24c1
00000030: 3991 953f 32b9 32c0 8f9a 14c1 1269 ccc0
00000040: f16e 3e40 7790 c440 7d21 d7bf 0b00 8ec0
00000050: 6d55 10c0 8186 be3f d530 1040 c652 3640
00000060: d35b af40 75e7 d5c0 0881 6540 0296 8dc1
00000070: 4b4b a9be 7145 c140 cbfa 21c0 4732 b0c0
00000080: 0bec 3c40 892c 0dc1 c913 54bf 96ff 58c0
00000090: 3690 d840 e562 34c1 5864 e63f a1a7 5e40
000000a0: 6663 fc3f ea6e 78c0 fab3 2240 2048 9740
000000b0: 511c 2bc1 4055 7fc0 e205 a240 e3e2 ed3f
000000c0: b9eb 2e40 edf3 8140 fdf3 0cc1 040e 7640
000000d0: d8ee 8fc0 2d22 89c0 8906 2340 51cc 9540
000000e0: 8b8b 1fc1 e20b c5bf e630 c03f 1d88 b83f
000000f0: 19d3 1e41 bce1 9740 51fe e23e de67 db40
00000100: 2fdc f4bf 3597 8d40 4357 bb3f 4a1d 4440
00000110: 1486 9740 39cc 48c1 9966 aa40 8d7c ec40
00000120: 404d 1d41 3bdd 14c1 c502 5b41 ebd6 de40
00000130: 594d 4940 52c5 1940 8a8a 4f3e 20d8 9d40
00000140: ef59 3bc1 c46a a840 59d9 3940 ec5a 563f
00000150: 1611 dd40 c482 1841 3d61 5840 7bf3 8441
00000160: a064 a7c0 f92a a3bf 3dcf b7bf 111a b8c0
00000170: 374f b9bf deb2 20c1 f2fb 5a40 22e4 aac0
00000180: a893 12bf 9cb2 1fc0 aae8 debf a96c 9840
00000190: 76d4 0ac0 53f7 a5c0 f011 d2bf 8e7f 7440
000001a0: d68f ab40 b202 9940 272c ea40 2e5a 7740
000001b0: 5c64 3b3f ff85 9c40 8d53 0741 d5bb 63c1
000001c0: 4812 d43c ec80 4ec0 a9fb 3cc1 497d 1041
000001d0: 1d44 ce3f b3c0 8a40 d5c3 3ac0 e36a e0bf
000001e0: 512d f040 1c6b 5cc0 fbb1 d740 0901 0b3f
000001f0: 3e9f a33e 0efb 5d41 a917 a240 ca4b 4f3c
00000200: af26 9d40 248a 03c1 81f8 20c1 b6cd cdc0
00000210: db85 5cc0 b791 ef3e a51d c240 aedc 5041
00000220: 8be8 6040 5541 5dc1 f982 dbbf 50fe d7c0
00000230: 4af0 c040 bc1d 92c1 5a3a edc0 46a1 a840
00000240: 73ec 3740 130a 40be b343 3bc0 c89e c6bf
00000250: c9cf 1040 9bac de3f 25c1 1640 1cef a9c1
00000260: 9bdb 0bc1 7add 8e3f 464e a7c1 d7d9 01c1
00000270: 14a0 a3c0 7766 91be dfdf e6bf fd3f 9d40
00000280: 76c3 5ec0 4c1f 8240 e952 8d40 9162 8b40
00000290: 592e ac40 2f21 f23f ed87 e6c0 b991 5ac1
000002a0: 1008 ffbd 8a78 ec3f 48d5 fc40 6e00 47c1
000002b0: dbf0 87bf c1d5 5dc0 758f 0fbf 798a 9640
000002c0: 570d a23f cb78 cec1 e2ea 8640 3c15 f3bf
000002d0: 4df0 4841 6bc8 eebf b59c e23f 1f62 1a41
000002e0: 0de4 dc40 1fed 9ac0 0cdf 1c40 0c3b 3340
000002f0: 8b6e 5240 7c8f ad41 4214 ef3f 2321 d03f
00000300: c229 14bf 4110 9040 a3ee bdc0 ecae 93c0
00000310: f415 b33e d41d a0c0 245b 3f3f 3dea 12c0
00000320: 71e0 0bc1 e1b5 d240 7c22 af40 5073 95c0
00000330: 5946 6841 e4e4 0640 90ab 5c3f 5b33 25bf
00000340: 295b 15bf cf3c eb40 91f5 dbbf 5f58 7a40
00000350: 0926 3d40 51e8 87c0 69dc 4c3f 0c8d 67c0
00000360: 2b03 1040 7735 22c0 4889 a8be f68d e2c0
00000370: 1c5a dfbf 3c34 a2bf ab93 dec0 1f5e b8bf
00000380: 0e58 a7bf 772c a3c0 9324 78c0 08de 483f
00000390: 4c08 623e 11cf 6bc0 4e5c 21c0 4908 e6c0
000003a0: f5eb a9bf 01c2 b73f 70e4 0cc1 7cbe 9440
000003b0: 7197 9dc0 a29b e4c0 a2fa 25c0 7b11 6740
000003c0: 97e0 cabf 553d 38bf d3e2 4f3e f0dc ad3f
000003d0: 8fee 963f fbe8 87be 91fb 9ac0 9e88 1440
000003e0: f17c 68c0 8bc2 8a40 5c41 3cc0 ca38 5cc0
000003f0: a3e2 c8c0 f798 87be 60c3 2d3f 6306 57c0
5.175692 -3.7746882 6.7248173 -0.79479986 9.17681 -0.2742482 12.418741 2.8963313
0.017537508 9.526897 5.0575213 -10.28988 1.1684943 -2.7925534 -9.287734 -6.387826
2.9755213 6.142635 -1.6807095 -4.4375052 -2.255214 1.4884797 2.2529805 2.848802
5.479959 -6.684504 3.5860004 -17.698246 -0.33065256 6.0397267 -2.5309322 -5.5061374
2.951907 -8.823373 -0.8284269 -3.3905997 6.767604 -11.274144 1.7999372 3.4789813
1.9717834 -3.8817697 2.542235 4.7275543 -10.694413 -3.9895782 5.063218 1.8584865
2.7331374 4.061026 -8.809567 3.8446054 -4.4979057 -4.285422 2.5472739 4.681191
-9.971568 -1.5394251 1.5014923 1.4416538 9.9265375 4.7463055 0.44334653 6.856429
-1.9129695 4.424708 1.4636005 3.0642877 4.735117 -12.549859 5.325024 7.390204
9.83136 -9.304011 13.688176 6.963735 3.145346 2.4026685 0.20267692 4.9326324
-11.709456 5.263033 2.9038908 0.83732486 6.9083357 9.531925 3.380935 16.618887
-5.2310333 -1.2747489 -1.4360119 -5.753182 -1.44773 -10.043669 3.4216275 -5.3403482
-0.57256556 -2.4952765 -1.7414753 4.763264 -2.1692176 -5.186441 -1.6411724 3.8202853
5.361308 4.781579 7.3178897 3.8648791 0.7320001 4.891357 8.457898 -14.233357
0.025887623 -3.2266188 -11.81144 9.030587 1.6114537 4.336023 -2.9182026 -1.7532619
7.505532 -3.4440374 6.740476 0.54298455 0.3195743 13.873793 5.065388 0.012652347
4.910972 -8.221226 -10.06067 -6.431361 -3.44567 0.4679086 6.0661187 13.053877
3.5141933 -13.82845 -1.7149345 -6.749794 6.029332 -18.264519 -7.413373 5.2696867
2.8738067 -0.18753843 -2.926007 -1.5517206 2.2626822 1.7396425 2.3555386 -21.241753
-8.741115 1.1161339 -20.91322 -8.115684 -5.113291 -0.28398487 -1.803707 4.914061
-3.48068 4.0663204 4.416371 4.355782 5.3806577 1.8916377 -7.2040925 -13.660577
-0.1245271 1.8474286 7.9010353 -12.437605 -1.0620378 -3.4661715 -0.56078273 4.7044034
1.2660321 -25.80898 4.216172 -1.8990855 12.558667 -1.8654913 1.7704073 9.648955
6.902838 -4.8414454 2.4511137 2.800479 3.287997 21.69506 1.8678057 1.6260113
-0.5787622 4.501984 -5.9353805 -4.615103 0.34977686 -5.003641 0.74748445 -2.2955468
-8.742295 6.584702 5.4729595 -4.670326 14.517175 2.1077204 0.86199284 -0.6453149
-0.58342224 7.351173 -1.7184316 3.9116437 2.9554465 -4.247109 0.8002382 -3.6179838
2.2501934 -2.5345132 -0.32917237 -7.079829 -1.7449374 -1.2672191 -6.955526 -1.4403723
-1.3073747 -5.099178 -3.8772323 0.7846379 0.22073478 -3.6845133 -2.5212588 -7.1885114
-1.3275133 1.435608 -8.805771 4.6482525 -4.9247365 -7.143998 -2.5934224 3.610442
-1.5849789 -0.71968585 0.2030137 1.358305 1.1791552 -0.26544937 -4.843209 2.3208385
-3.6326258 4.336248 -2.9414892 -3.4409661 -6.2776656 -0.2648389 0.67876244 -3.3597648

bias f4 [3]
00000000: 0000 0000 0000 0000 0000 0000
0.0 0.0 0.0

_ei_mask f4 [3]
00000000: 0000 803f 0000 803f 0000 803f
1.0 1.0 1.0

weight f4 [3, 175]
00000000: 4099 7b3d 3a51 e83d 9265 2d3e c0e0 513e
00000010: aca8 7d3d 4158 8c3d bd7b 8a3d a60d bb3d
00000020: d699 2c3c c159 223d bf81 ce3c 3d99 823d
00000030: 89b3 ea3d c296 e93d 76d1 063e f747 b83d
00000040: fccc 013e 2540 1a3e 0de9 fd3d b7b4 9b3d
00000050: 0053 e23d e464 973d e89b ac3d d32b 3a3d
00000060: 658a 833d 5511 933d dae1 973d 5acb 0a3e
00000070: c00c ef3d 1cc3 e13d dc68 943d 7d17 1cbd
00000080: c9dd 563d 6264 863d 1c4a 5e3d f7e1 033e
00000090: 9a45 1b3d ad17 293c 4192 bc3c 5a60 723d
000000a0: 4f61 993d 0c3b a83c 6f50 a43c 5655 bbbd
000000b0: 7e37 a73c 494d 543e 533e e73b 3d06 40be
000000c0: 86b1 2f3e b30d 953d 8174 e73d 15a7 db3d
000000d0: e62e 4dbd e6f6 cf3c 260c 773d 5f03 c73d
000000e0: 5ed0 6b3d c2d8 eebc b045 2c3e d569 d8bd
000000f0: b6c3 243e 58c5 433e 8889 093e 9970 353e
00000100: 9828 eb3d 3c5b 933d 4e36 f23d 9888 a23d
00000110: 3bd5 8a3e ead3 a33d fa6c 013d 0fdd ef3d
00000120: 3cab e73d f09f f73c fccf a53d b917 81bc
00000130: 7a27 cf3d 0eb9 e43d 0dba 323c affe 973c
00000140: 4739 b73d 20fe 9e3d 916a 3e3d 7e73 9c3d
00000150: 1e01 343c 347c ad3d b226 843d 0f56 b83d
00000160: 9dad 883d a065 b93d 7007 bd3d b513 b63d
00000170: ebc6 833d d053 ff3d 8bbf a73d b7bf 073d
00000180: 17e3 bf3d a792 dc3d 69bc fb3d 74e6 993d
00000190: 6714 a43d 42d2 793d 2ff5 c63d a8fa 9c3d
000001a0: 8b32 cb3d ecdd b83d a248 223d f8ed 1c3d
000001b0: 00d4 843d 1e2b ac3d 11f1 0d3e 5c0c e83d
000001c0: 990a 833d 3374 7b3d f65b 9f3d 54be 623d
000001d0: 1ff4 853d e585 fe3d e2ac a73d 5ae5 423d
000001e0: 511b fd3d 49e9 e13d 2799 5c3d 2f3c b33d
000001f0: 962d d73d 0adc d73d f3dc 2b3d 5477 b33d
00000200: 3a82 ddbd 0364 ea3d e058 0dbc e952 823d
00000210: 4c64 d53c f8ff fe3d b685 d33d 766a 21bd
00000220: b458 543d 2866 8e3d 2a36 0d3e 4943 d13d
00000230: 1212 723d f8dd b93d a047 cf3d 794f e63d
00000240: e7ba fe3d 0c5c 773d f64b e5bc 0ddc 8e3d
00000250: c212 523e fa2c 6e3c 6f53 a73c d3e3 cd3d
00000260: 7747 ec3d e3d4 fd3d 1011 f23d fac6 0f3e
00000270: 479f a13d 4893 fd3d e0e2 d63d bfb9 b43d
00000280: e3dc 703d 5c05 b43d 4291 b23d c5a3 2e3c
00000290: e5fa bc3d 5481 a73d 8f67 853e 132c 943d
000002a0: e32b af3d 0116 023e 5461 623d c5f3 b33d
000002b0: a2d1 a33d 4c42 f43d b036 343d 00a5 b2b6
000002c0: ab8d 0a3d bac3 ad3c 6774 003e 46cc 06bd
000002d0: 1ba2 273c dbcb 85bd 3a71 19bd 28b0 56bd
000002e0: 2972 8cbd 13dd 1ebe d711 8bbc b7ab 7cbe
000002f0: cb72 2ebd 319b 893e 00c8 553c 6b49 883e
00000300: d797 09be d491 8b3e 2177 903b 42c0 363e
00000310: a276 7abd bdd4 0fbd 53a2 41be ecb8 fbbd
00000320: 2aa9 d13c 830d bdbc e3d8 953a 60c1 ec3c
00000330: db94 b7bb 42c6 bfbd d531 823d b514 d9bd
00000340: e3ba 76bd 0ada 5c3d 7270 2e3d e8e9 a83d
00000350: 4553 07bc 6c72 9abd a2a7 443c d022 a6bd
00000360: 4c30 14bd d5bc 69bd 3ae5 06bf 1d22 94bc
00000370: 81d9 8a3d 0860 1cbe ec1f b4be 4e4c 0d3d
00000380: 8edf 113c a7f7 6dbf b352 70bf 94d0 b23c
00000390: caf6 46be 1757 133e 58bd f0bd 068f b3bc
000003a0: 6a6c 77bd 135a 243e 984e cf3d 8cb2 3a3d
000003b0: 0516 0d3e 69ed cf3d da0a 2b3d 879d df3c
000003c0: d23b 36bd dca9 e9bc ed43 dbbc dfef 2b3e
000003d0: 9b6b abbb 08bf 343e 49c7 52bd 3425 c5bc
000003e0: 7d7f cb3c 7395 dabc 9208 0ebd 9e3a ccbb
000003f0: 3c64 b3bc 8909 cc3d 4d82 93bd 4755 c23c
0.061425447 0.11343618 0.16933277 0.20495892 0.061928436 0.068527706 0.067618825 0.091334626
0.010534724 0.039636377 0.025208352 0.06376884 0.11460025 0.11405708 0.1316584 0.08998101
0.12675852 0.15063532 0.123979665 0.07602828 0.11050987 0.0739229 0.08428174 0.04545195
0.06422881 0.0718104 0.07416125 0.13554135 0.11672354 0.11023542 0.07246563 -0.038108338
0.052457605 0.06562115 0.054269895 0.12879167 0.037908174 0.010320586 0.023018958 0.05917392
0.07489263 0.020535968 0.020057885 -0.09147136 0.020412203 0.20732607 0.00705699 -0.1875238
0.17157564 0.072780035 0.11301518 0.10725228 -0.050093554 0.025386285 0.06031432 0.0971744
0.05757176 -0.029156093 0.16823459 -0.10567061 0.16090283 0.1911825 0.1343137 0.17718734
0.11482352 0.07195136 0.11826764 0.079362094 0.27115807 0.07999404 0.03159807 0.117120855
0.11311957 0.030227631 0.080963105 -0.015758382 0.101149514 0.11168109 0.010908616 0.01855406
0.08946472 0.07763314 0.04648835 0.07639216 0.0109865945 0.084709555 0.06452693 0.090007894
0.06673739 0.090525866 0.09229934 0.088904776 0.06434425 0.12467158 0.08190831 0.033141818
0.09369486 0.10770159 0.12291796 0.075146586 0.08011704 0.060991533 0.09714734 0.076649964
0.0992175 0.09026703 0.03962005 0.038312882 0.06485748 0.084066615 0.13861491 0.11330482
0.06398506 0.061390113 0.07781212 0.055357292 0.06540703 0.12427882 0.08187272 0.047582008
0.12358726 0.11030824 0.053856995 0.087517135 0.10506742 0.10540016 0.04195876 0.087629944
-0.10815854 0.11444857 -0.0086271465 0.0636347 0.026048802 0.12451166 0.10328238 -0.03940817
0.051842406 0.069530785 0.13790193 0.10217912 0.059099264 0.0907554 0.10121083 0.11245627
0.124379925 0.060390517 -0.027990323 0.06975565 0.20514968 0.01453709 0.020425526 0.1005322
0.11537068 0.123941205 0.11819661 0.14040747 0.07891708 0.12381607 0.10492492 0.08824491
0.058804404 0.08790085 0.08719112 0.010659163 0.09227542 0.08178964 0.2605557 0.07234969
0.085532926 0.12703706 0.0552686 0.0878673 0.07998969 0.119267076 0.043997467 -5.324022e-06
0.03382651 0.021211494 0.12544404 -0.032909654 0.01023152 -0.06533023 -0.037461497 -0.05241409
-0.06857712 -0.1551402 -0.01697628 -0.24674879 -0.042589944 0.26876214 0.013048172 0.26618513
-0.13436829 0.27259696 0.0044087325 0.17846778 -0.061148293 -0.035114992 -0.18909578 -0.122911304
0.025593359 -0.023077732 0.0011432435 0.028900802 -0.0056024618 -0.093639866 0.06357161 -0.10599653
-0.060236823 0.053918876 0.042587705 0.08247739 -0.008259599 -0.075413555 0.012002857 -0.08112109
-0.036178872 -0.05706485 -0.5269352 -0.018082673 0.06779767 -0.15271008 -0.35180604 0.034496598
0.008903397 -0.9295601 -0.9387619 0.021827973 -0.1943008 0.14388691 -0.117548645 -0.021918785
-0.060406126 0.16049986 0.101224124 0.04558043 0.13777931 0.10152704 0.041758396 0.027296795
-0.044490643 -0.028523378 -0.026765788 0.16790722 -0.0052313334 0.17650998 -0.051459584 -0.024065591
0.024841065 -0.026682591 -0.034676142 -0.0062325737 -0.021898381 0.09962756 -0.07202587 0.023722304

bias f4 [175]
00000000: 0000 0000 0000 0000 0000 0000 0000 0000
00000010: 0000 0000 0000 0000 0000 0000 0000 0000
00000020: 0000 0000 0000 0000 0000 0000 0000 0000
00000030: 0000 0000 0000 0000 0000 0000 0000 0000
00000040: 0000 0000 0000 0000 0000 0000 0000 0000
00000050: 0000 0000 0000 0000 0000 0000 0000 0000
00000060: 0000 0000 0000 0000 0000 0000 0000 0000
00000070: 0000 0000 0000 0000 0000 0000 0000 0000
00000080: 0000 0000 0000 0000 0000 0000 0000 0000
00000090: 0000 0000 0000 0000 0000 0000 0000 0000
000000a0: 0000 0000 0000 0000 0000 0000 0000 0000
000000b0: 0000 0000 0000 0000 0000 0000 0000 0000
000000c0: 0000 0000 0000 0000 0000 0000 0000 0000
000000d0: 0000 0000 0000 0000 0000 0000 0000 0000
000000e0: 0000 0000 0000 0000 0000 0000 0000 0000
000000f0: 0000 0000 0000 0000 0000 0000 0000 0000
00000100: 0000 0000 0000 0000 0000 0000 0000 0000
00000110: 0000 0000 0000 0000 0000 0000 0000 0000
00000120: 0000 0000 0000 0000 0000 0000 0000 0000
00000130: 0000 0000 0000 0000 0000 0000 0000 0000
00000140: 0000 0000 0000 0000 0000 0000 0000 0000
00000150: 0000 0000 0000 0000 0000 0000 0000 0000
00000160: 0000 0000 0000 0000 0000 0000 0000 0000
00000170: 0000 0000 0000 0000 0000 0000 0000 0000
00000180: 0000 0000 0000 0000 0000 0000 0000 0000
00000190: 0000 0000 0000 0000 0000 0000 0000 0000
000001a0: 0000 0000 0000 0000 0000 0000 0000 0000
000001b0: 0000 0000 0000 0000 0000 0000 0000 0000
000001c0: 0000 0000 0000 0000 0000 0000 0000 0000
000001d0: 0000 0000 0000 0000 0000 0000 0000 0000
000001e0: 0000 0000 0000 0000 0000 0000 0000 0000
000001f0: 0000 0000 0000 0000 0000 0000 0000 0000
00000200: 0000 0000 0000 0000 0000 0000 0000 0000
00000210: 0000 0000 0000 0000 0000 0000 0000 0000
00000220: 0000 0000 0000 0000 0000 0000 0000 0000
00000230: 0000 0000 0000 0000 0000 0000 0000 0000
00000240: 0000 0000 0000 0000 0000 0000 0000 0000
00000250: 0000 0000 0000 0000 0000 0000 0000 0000
00000260: 0000 0000 0000 0000 0000 0000 0000 0000
00000270: 0000 0000 0000 0000 0000 0000 0000 0000
00000280: 0000 0000 0000 0000 0000 0000 0000 0000
00000290: 0000 0000 0000 0000 0000 0000 0000 0000
000002a0: 0000 0000 0000 0000 0000 0000 0000 0000
000002b0: 0000 0000 0000 0000 0000 0000
0.0 0.0 0.0 0.0 0.0 0.0 0.0 0.0
0.0 0.0 0.0 0.0 0.0 0.0 0.0 0.0
0.0 0.0 0.0 0.0 0.0 0.0 0.0 0.0
0.0 0.0 0.0 0.0 0.0 0.0 0.0 0.0
0.0 0.0 0.0 0.0 0.0 0.0 0.0 0.0
0.0 0.0 0.0 0.0 0.0 0.0 0.0 0.0
0.0 0.0 0.0 0.0 0.0 0.0 0.0 0.0
0.0 0.0 0.0 0.0 0.0 0.0 0.0 0.0
0.0 0.0 0.0 0.0 0.0 0.0 0.0 0.0
0.0 0.0 0.0 0.0 0.0 0.0 0.0 0.0
0.0 0.0 0.0 0.0 0.0 0.0 0.0 0.0
0.0 0.0 0.0 0.0 0.0 0.0 0.0 0.0
0.0 0.0 0.0 0.0 0.0 0.0 0.0 0.0
0.0 0.0 0.0 0.0 0.0 0.0 0.0 0.0
0.0 0.0 0.0 0.0 0.0 0.0 0.0 0.0
0.0 0.0 0.0 0.0 0.0 0.0 0.0 0.0
0.0 0.0 0.0 0.0 0.0 0.0 0.0 0.0
0.0 0.0 0.0 0.0 0.0 0.0 0.0 0.0
0.0 0.0 0.0 0.0 0.0 0.0 0.0 0.0
0.0 0.0 0.0 0.0 0.0 0.0 0.0 0.0
0.0 0.0 0.0 0.0 0.0 0.0 0.0 0.0
0.0 0.0 0.0 0.0 0.0 0.0 0.0

_ei_mask f4 [175]
00000000: 0000 803f 0000 803f 0000 803f 0000 803f
00000010: 0000 803f 0000 803f 0000 803f 0000 803f
00000020: 0000 803f 0000 803f 0000 803f 0000 803f
00000030: 0000 803f 0000 803f 0000 803f 0000 803f
00000040: 0000 803f 0000 803f 0000 803f 0000 803f
00000050: 0000 803f 0000 803f 0000 803f 0000 803f
00000060: 0000 803f 0000 803f 0000 803f 0000 803f
00000070: 0000 803f 0000 803f 0000 803f 0000 803f
00000080: 0000 803f 0000 803f 0000 803f 0000 803f
00000090: 0000 803f 0000 803f 0000 803f 0000 803f
000000a0: 0000 803f 0000 803f 0000 803f 0000 803f
000000b0: 0000 803f 0000 803f 0000 803f 0000 803f
000000c0: 0000 803f 0000 803f 0000 803f 0000 803f
000000d0: 0000 803f 0000 803f 0000 803f 0000 803f
000000e0: 0000 803f 0000 803f 0000 803f 0000 803f
000000f0: 0000 803f 0000 803f 0000 803f 0000 803f
00000100: 0000 803f 0000 803f 0000 803f 0000 803f
00000110: 0000 803f 0000 803f 0000 803f 0000 803f
00000120: 0000 803f 0000 803f 0000 803f 0000 803f
00000130: 0000 803f 0000 803f 0000 803f 0000 803f
00000140: 0000 803f 0000 803f 0000 803f 0000 803f
00000150: 0000 803f 0000 803f 0000 803f 0000 803f
00000160: 0000 803f 0000 803f 0000 803f 0000 803f
00000170: 0000 803f 0000 803f 0000 803f 0000 803f
00000180: 0000 803f 0000 803f 0000 803f 0000 803f
00000190: 0000 803f 0000 803f 0000 803f 0000 803f
000001a0: 0000 803f 0000 803f 0000 803f 0000 803f
000001b0: 0000 803f 0000 803f 0000 803f 0000 803f
000001c0: 0000 803f 0000 803f 0000 803f 0000 803f
000001d0: 0000 803f 0000 803f 0000 803f 0000 803f
000001e0: 0000 803f 0000 803f 0000 803f 0000 803f
000001f0: 0000 803f 0000 803f 0000 803f 0000 803f
00000200: 0000 803f 0000 803f 0000 803f 0000 803f
00000210: 0000 803f 0000 803f 0000 803f 0000 803f
00000220: 0000 803f 0000 803f 0000 803f 0000 803f
00000230: 0000 803f 0000 803f 0000 803f 0000 803f
00000240: 0000 803f 0000 803f 0000 803f 0000 803f
00000250: 0000 803f 0000 803f 0000 803f 0000 803f
00000260: 0000 803f 0000 803f 0000 803f 0000 803f
00000270: 0000 803f 0000 803f 0000 803f 0000 803f
00000280: 0000 803f 0000 803f 0000 803f 0000 803f
00000290: 0000 803f 0000 803f 0000 803f 0000 803f
000002a0: 0000 803f 0000 803f 0000 803f 0000 803f
000002b0: 0000 803f 0000 803f 0000 803f
1.0 1.0 1.0 1.0 1.0 1.0 1.0 1.0
1.0 1.0 1.0 1.0 1.0 1.0 1.0 1.0
1.0 1.0 1.0 1.0 1.0 1.0 1.0 1.0
1.0 1.0 1.0 1.0 1.0 1.0 1.0 1.0
1.0 1.0 1.0 1.0 1.0 1.0 1.0 1.0
1.0 1.0 1.0 1.0 1.0 1.0 1.0 1.0
1.0 1.0 1.0 1.0 1.0 1.0 1.0 1.0
1.0 1.0 1.0 1.0 1.0 1.0 1.0 1.0
1.0 1.0 1.0 1.0 1.0 1.0 1.0 1.0
1.0 1.0 1.0 1.0 1.0 1.0 1.0 1.0
1.0 1.0 1.0 1.0 1.0 1.0 1.0 1.0
1.0 1.0 1.0 1.0 1.0 1.0 1.0 1.0
1.0 1.0 1.0 1.0 1.0 1.0 1.0 1.0
1.0 1.0 1.0 1.0 1.0 1.0 1.0 1.0
1.0 1.0 1.0 1.0 1.0 1.0 1.0 1.0
1.0 1.0 1.0 1.0 1.0 1.0 1.0 1.0
1.0 1.0 1.0 1.0 1.0 1.0 1.0 1.0
1.0 1.0 1.0 1.0 1.0 1.0 1.0 1.0
1.0 1.0 1.0 1.0 1.0 1.0 1.0 1.0
1.0 1.0 1.0 1.0 1.0 1.0 1.0 1.0
1.0 1.0 1.0 1.0 1.0 1.0 1.0 1.0
1.0 1.0 1.0 1.0 1.0 1.0 1.0
