checkpoints/version110/model.pt (torch, 34217 bytes, 14 tensors)

bias f4 [175]
000000 38 a5 9a 3f 07 bc f8 3f 7f a0 49 bf 28 4d aa 3f
       1.2081671 1.9432381 -0.7876052 1.3304796
000010 27 59 3e be 00 0b f4 3f eb 40 b0 3f 24 95 1e 40
       -0.18588696 1.9065857 1.3769811 2.4778528
000020 98 57 80 3f 8d 63 34 40 52 da 87 3f 88 d7 81 3f
       1.0026731 2.818576 1.0613501 1.01439
000030 4c ac d8 bf 1c 20 c9 be d4 23 1d be cf 70 a8 3f
       -1.6927581 -0.3928231 -0.15345699 1.3159426
000040 1f ed 60 be d2 4e f9 bc 99 51 97 be f6 f0 1b 40
       -0.21965455 -0.030433092 -0.29554442 2.436582
000050 75 79 d3 3e 3a 3b a2 3f 0c 3e bf 3f ca c7 11 bf
       0.41303602 1.2674325 1.494081 -0.5694548
000060 07 20 34 c0 de 13 57 40 f9 68 27 3f fb d5 94 3f
       -2.8144548 3.3605876 0.6539455 1.1627802
000070 a0 68 2c 3f a2 e7 09 40 e5 3b e1 3d 71 5f c4 be
       0.67347145 2.1547627 0.10997752 -0.38354066
000080 8f f1 24 3d e0 de 50 bf 65 3a 1a 3f a1 9a 57 40
       0.04026943 -0.8159008 0.60245353 3.3688128
000090 e2 98 54 3f f8 60 50 3f 81 d3 13 3f 47 90 b6 3f
       0.8304578 0.8139796 0.57744604 1.426278
0000a0 db f7 fb 3f 48 0a c3 3f 48 07 76 3d 2b b6 ac 3d
       1.9685014 1.5237513 0.060065538 0.08433183
0000b0 e6 59 dc 3f 57 91 12 bf f4 f5 50 3e ff 1d 76 be
       1.7214935 -0.5725302 0.20406324 -0.2403488
0000c0 53 86 a7 bd 0b 73 7f 3d 6e da 34 c1 e7 b8 33 c1
       -0.08179917 0.062365573 -11.303328 -11.232642
0000d0 34 f5 95 3f 48 63 98 be f1 dd 43 3e f6 fe 55 3f
       1.1715455 -0.29763246 0.19127633 0.83592165
0000e0 3a 1b 19 bf 79 53 3a 3e 00 e0 4d 3d e5 e6 5a bf
       -0.5980717 0.18195905 0.05026245 -0.8550857
0000f0 be ff 25 3d a4 5d 0e bc 8c f8 1b 3f cd 47 a8 3e
       0.040527098 -0.008689318 0.6092613 0.3286728
000100 b3 25 13 be 54 50 64 3d 74 1c ba be 84 d0 31 3e
       -0.1436985 0.05574067 -0.36349833 0.17364699
000110 1b fe 2e 3f 8b f1 d6 3f da 47 c3 be 57 7b 91 3f
       0.68356484 1.6792463 -0.38140756 1.1365765
000120 96 b2 aa 3f b9 34 77 3e dc 80 91 3f 52 28 0a 3f
       1.333575 0.24141206 1.136745 0.53967774
000130 59 53 cc 3e 7b 6c c2 3f 80 55 7f 3f c5 fd c9 3f
       0.3990734 1.5189356 0.9973984 1.5780569
000140 28 bf 9f 3f 50 0b 01 40 ae 0d 92 3f 2e d8 11 40
       1.2480211 2.0163155 1.1410425 2.2788196
000150 69 cc 96 3f a0 d1 9a 3f 31 d6 3b 40 d5 06 51 40
       1.1781131 1.2095222 2.9349482 3.266042
000160 50 e7 96 3f 6d 3e 1d 3f 5a 94 93 3f 15 d5 ff be
       1.1789341 0.6142338 1.1529648 -0.49967256
000170 f6 15 4b 40 5e c7 02 3e 46 6f 60 3f 8e 90 ba 3e
       3.1732154 0.12771365 0.8766979 0.3643841
000180 61 5a 42 40 bf 9c 8a 3e bb 5e 5e bf 3f dc 70 be
       3.0367663 0.27072713 -0.868633 -0.23521517
000190 54 22 f5 3f 97 35 09 3f ba b2 74 3f 7d b3 de 3f
       1.9151101 0.53597397 0.95585215 1.7398525
0001a0 93 f6 68 3f 12 43 fb 3f f9 7b 1b 3f 97 3d b7 3f
       0.9100124 1.9629843 0.6073604 1.4315671
0001b0 3d 0d a0 3f 06 d2 00 40 17 ec 7f 3e 33 72 de be
       1.250404 2.0128188 0.24992405 -0.43446502
0001c0 86 36 ce 3d 3c ad 03 40 25 46 2e 3f bc c7 0f 40
       0.10068993 2.0574484 0.6807578 2.2465658
0001d0 f7 41 b9 be da f7 08 40 fd 7c dc 3f 06 c9 fe 3f
       -0.3618314 2.1401277 1.7225643 1.9905097
0001e0 67 10 1d 40 15 cf 1e 3f 7b a9 fa 3f 9c 7b 06 40
       2.4541261 0.6203473 1.9582971 2.1012945
0001f0 da 22 26 40 5c 7b a7 3f eb 18 5d 3d ca b2 19 bd
       2.5958772 1.3084521 0.05397884 -0.037524022
000200 27 b6 22 bf c0 36 73 3f 94 41 77 3c 84 91 8e bc
       -0.6355919 0.95005417 0.015091319 -0.017403372
000210 28 6c b4 be ae 48 14 40 85 0a b1 3f 1d ac 63 bd
       -0.35238767 2.316936 1.3831335 -0.055584062
000220 ca f2 a7 bd 5d d9 a4 3f 08 bb a2 3e 47 02 69 3f
       -0.08200605 1.2878834 0.3178332 0.910191
000230 ef 4d e7 3e bd 69 21 3e 1a 8f 77 3f 1e 5b 5b 3e
       0.45176646 0.15762992 0.9670273 0.21421477
000240 3d 77 e3 bd 62 61 b0 3f e2 ea c2 3f f6 12 bc 3f
       -0.11106727 1.3779719 1.522793 1.4693286
000250 89 c7 34 3f fc 7b 01 bf bb 6f 7b 3e a9 93 16 be
       0.70616966 -0.5057981 0.2455434 -0.14704765
000260 fd 25 cb 3f 66 26 47 3f 73 70 41 40 c9 3e eb 3f
       1.5870968 0.77792966 3.0224884 1.8378536
000270 39 96 77 3f 14 84 3e 40 0d 84 ad be 86 c9 48 bf
       0.96713597 2.9768114 -0.3388981 -0.784325
000280 50 c0 4c 3f 32 0c 9d bf 5c 58 c0 3b 20 c7 6c 3f
       0.79980946 -1.2269347 0.0058699083 0.9249134
000290 f7 7d c7 3f cd e1 23 40 24 d5 3e 3f d2 41 a8 3f
       1.5585316 2.5606568 0.74543977 1.3145087
0002a0 0f b9 03 c0 56 ce c7 3f 1a 9b f0 3f ef c1 c5 3f
       -2.05817 1.5609844 1.8797333 1.5449809
0002b0 bb 44 96 3f d2 95 44 3e f5 d0 91 3e
       1.1739725 0.19197777 0.28479734

weight f4 [9, 175]
000000 4a 09 ab 3d e0 fc 88 3e 8d 3b 83 25 c1 3d ba b3
       0.08351381 0.26755428 2.276523e-16 -8.672533e-08
000010 77 52 c3 a2 e4 7d fb 3e c7 00 ad 3e 13 d2 c1 3e
       -5.294217e-18 0.49119484 0.33789656 0.37855586
000020 6f 18 57 3f 52 9d ec 3e 3a ae 04 3f 94 83 27 3f
       0.8402166 0.46213776 0.5182835 0.6543515
000030 21 bd d2 27 12 bb d7 3e f4 00 92 3e 12 2a 41 33
       5.8491763e-15 0.4213491 0.28516352 4.4974577e-08
000040 ed ba a1 3e 7d 5c aa 3e c8 3f cb 3e dd cc 09 3f
       0.31587926 0.33273688 0.396971 0.5382822
000050 6b 08 46 a2 bc 2f 06 3f 89 16 af 3e 72 21 10 a8
       -2.683846e-18 0.52416587 0.3419688 -8.000858e-15
000060 e4 54 5f 3f e6 51 08 3f 9a ad 8a 3f 1c a4 8c 3e
       0.8723891 0.5324997 1.0834229 0.27468956
000070 ac a4 3f 38 a5 d8 93 1d fc fb 61 3f e9 25 d1 3e
       4.569131e-05 3.913458e-21 0.8827512 0.40849236
000080 41 00 f4 3e 15 d9 8b 3f 26 8e 0f 9c 75 1a d0 26
       0.47656444 1.0925623 -4.7498454e-22 1.444007e-15
000090 da bc 01 3f 23 10 8b 3e 03 a9 ed 3e 85 50 31 3f
       0.5067879 0.2716075 0.46418008 0.6926349
0000a0 40 c3 5c a6 ab 63 52 a8 03 61 2c 3f f9 2d df 3e
       -7.6592446e-16 -1.1678954e-14 0.6733553 0.43589762
0000b0 10 e7 25 2d 8e 06 c2 3e eb dc 0d a7 53 e2 0e a9
       9.43047e-12 0.37895626 -1.968744e-15 -3.172664e-14
0000c0 d7 73 9c b5 f1 d0 42 a4 bf 8e e8 3e 1b 01 ef 3e
       -1.165662e-06 -4.2244025e-17 0.45421407 0.4668053
0000d0 96 c9 6d 3e 8d 8c c5 3e b6 65 e2 3e be 1f 9d 34
       0.2322143 0.38583794 0.44218224 2.9266624e-07
0000e0 c5 af b6 22 94 f2 19 3f e3 38 b8 3e 9c e0 06 3f
       4.9517302e-18 0.6013577 0.359809 0.52686477
0000f0 6a 7c 05 3f c9 3d c7 3e 58 b1 2f 9d 94 97 6b 9f
       0.52142966 0.38914326 -2.3252742e-21 -4.9888568e-20
000100 ac ff f7 23 24 2b f5 3e c6 11 8c 3e 5f 4f 15 3f
       2.6888075e-17 0.47884476 0.2735731 0.58324236
000110 f3 69 33 af 24 9f a0 3e 28 57 6a 3e a4 3f 8d 3d
       -1.6317596e-10 0.31371415 0.2288481 0.06896904
000120 bf d5 32 3e ea 8a ce 3e 63 ae 6a 3e a4 e5 d4 3e
       0.1746435 0.40340358 0.22918086 0.41581452
000130 6b 52 ab 3e ca 65 82 3e 6c 8f c8 3e b6 e0 a8 3e
       0.33461317 0.25468284 0.39171922 0.3298394
000140 95 ef dd a5 20 d3 22 3e d1 46 d6 3e d9 31 b0 34
       -3.8499736e-16 0.1590085 0.41850904 3.2818824e-07
000150 43 e5 cf 3e 2e be 66 3e 6f 5c 73 b1 74 cc 9b 28
       0.406046 0.22533485 -3.5413696e-09 1.7297124e-14
000160 e9 52 33 25 57 04 02 3f 8d 68 ea 3d 7f ff 79 3e
       1.5553866e-16 0.5078787 0.11445723 0.2441387
000170 75 7d 95 a4 ed b8 ea 3e 7c 81 18 3f bd 74 0a 3f
       -6.483098e-17 0.45844212 0.5957258 0.5408438
000180 15 56 d2 3e 2d 2a d7 3e bf 05 b7 3e ff e8 47 3f
       0.410813 0.42024365 0.3574657 0.780899
000190 40 2b 38 3f 63 9b 81 3f f9 70 65 a2 a8 5c 4e 23
       0.71940994 1.0125545 -3.1095094e-18 1.1186903e-17
0001a0 e2 34 7d a4 db 9c e5 a2 87 1d 72 3f 28 67 ad 3e
       -5.4905423e-17 -6.223665e-18 0.94576305 0.33867764
0001b0 31 23 60 3e 62 12 e0 3e 05 4b dc 36 b8 a7 a4 a1
       0.21888424 0.43764025 6.5652443e-06 -1.1157467e-18
0001c0 83 a1 2c 3f 71 44 1c 3f cd b9 1f 3f 09 0d 0e 3f
       0.6743395 0.61041933 0.62392884 0.5548864
0001d0 af 1b 38 3f e6 5e 39 3e f4 25 03 3f 87 69 cf 3e
       0.7191724 0.18102607 0.51229787 0.40510198
0001e0 26 fb f4 3e 25 c6 b1 3e b1 8c a4 3e 07 b7 a6 21
       0.4784786 0.34721485 0.3213859 1.1297044e-18
0001f0 35 41 8f 3e 0a 97 b6 25 c0 90 eb 3e f5 f0 df a5
       0.27979437 3.1674315e-16 0.46008873 -3.8847612e-16
000200 a2 19 b7 3e dc 20 f1 3e d7 ba 26 3f 50 38 f6 22
       0.35761744 0.47095382 0.65128845 6.6738057e-18
000210 78 81 46 3f 89 06 a6 3d c5 fa 28 23 6f 86 05 3f
       0.77541304 0.08106715 9.160401e-18 0.52158254
000220 fa 4b 7c 3e 27 ee 20 3e 10 bc f3 28 30 06 0d ab
       0.24638358 0.15715848 2.7059979e-14 -5.010185e-13
000230 be cb f9 3e 2b 39 14 3f 9e 09 7c 3e 4c 0e 3d 25
       0.48788255 0.5789973 0.24613044 1.6397981e-16
000240 c2 72 7d 3e ef c8 4a 3f dd 6f 82 2e 01 c3 01 33
       0.24750808 0.7921285 5.9315865e-11 3.0212508e-08
000250 58 1d 62 3e aa 0c a2 3e ec f5 81 3e 2b d9 7d 3e
       0.22081506 0.31650287 0.25382936 0.24789874
000260 35 d6 36 30 c8 24 8e 3e 9a 03 a5 2c e4 88 58 3e
       6.651562e-10 0.27762437 4.689982e-12 0.2114597
000270 14 a9 fd 3e be df 25 be 26 90 b7 3e 19 c1 4e 3f
       0.4954306 -0.16198632 0.35852164 0.80763394
000280 78 e4 bd 3e 11 e8 e6 3e fe 8b 5c 3f 6a d1 31 3f
       0.3708837 0.45098928 0.8615111 0.69460166
000290 6d c3 5d af 00 f1 39 23 00 13 4f ad 2b 32 2d 33
       -2.0169262e-10 1.0079904e-17 -1.17708066e-11 4.032533e-08
0002a0 0d 9b ed 3e 13 ba a1 a8 ee ba 4b a1 04 a5 4d 3d
       0.46407357 -1.7955288e-14 -6.9026475e-19 0.0502062
0002b0 2a 48 4c 3e 4d 6b 27 3f dc 46 59 3e 31 02 c8 3e
       0.19949403 0.65398103 0.21218437 0.39064172
0002c0 c8 ee c0 3e e8 a6 19 3f 66 15 ec 3e a7 eb 9a 3f
       0.37682176 0.60020304 0.46110076 1.2103165
0002d0 5d c6 d0 a3 a2 2c a6 3e de de ac a7 a5 88 ef a2
       -2.2635415e-17 0.32455927 -4.7981223e-15 -6.4925758e-18
0002e0 9e 0d 10 a8 f4 d0 1d 27 e0 34 0b 28 68 03 2c 3f
       -7.9965585e-15 2.19014e-15 7.7275155e-15 0.671927
0002f0 d4 60 63 22 78 92 e8 3e 64 1f 1d 3f fd c6 d4 be
       3.0815497e-18 0.45424247 0.61376023 -0.41558066
000300 f3 75 69 3e 0b e7 b0 be 92 bb 14 a8 5e 96 31 3f
       0.227989 -0.34551272 -8.256323e-15 0.6937007
000310 b8 9c 2b 25 a9 9d ba 25 9b 7e 82 3e c4 88 b3 24
       1.4884984e-16 3.2372691e-16 0.25487217 7.7860566e-17
000320 c9 e6 a5 a7 e9 fa 9a a3 bb 32 81 3e 54 ff 17 3e
       -4.6046918e-15 -1.6802978e-17 0.25234017 0.14843494
000330 eb 28 88 3f 57 99 82 21 0c 86 80 be 35 b2 b4 2b
       1.0637487 8.849731e-19 -0.2510227 1.2839232e-12
000340 b7 dd fc 23 71 b3 85 3f d3 1f 43 3f 9d 4b 8d 3e
       2.7415795e-17 1.0445386 0.76220435 0.2759675
000350 32 aa a9 3e ce d9 9f 34 89 e5 23 a7 8c 17 df 3e
       0.3313766 2.9774532e-07 -2.2745225e-15 0.43572652
000360 7f 2e ef 3e a5 db 8b a1 de ce 15 af ac eb 0d 3f
       0.4671516 -9.477146e-19 -1.3624965e-10 0.5543773
000370 92 05 27 24 5a 42 f0 3e cd 04 df 3e 9f 62 ac 3e
       3.621707e-17 0.46925622 0.4355835 0.33668992
000380 5b f1 d2 3e b6 77 02 3f 27 e1 01 3f 67 5a 6c 3e
       0.41199765 0.50963914 0.5073418 0.23081361
000390 87 62 90 2e 64 15 1f 28 d5 d4 d6 3e 9b 3b 12 3f
       6.565864e-11 8.830911e-15 0.41959253 0.571222
0003a0 cf 50 3f bd 8f 6c 9b 32 14 74 88 be 6b ed 1e 1f
       -0.046707924 1.8093742e-08 -0.2665106 3.365419e-20
0003b0 b1 da df 25 bd 6d 0b 3f 21 88 61 3f 69 9c 20 3f
       3.8832525e-16 0.5446432 0.8809834 0.6273866
0003c0 aa 2d 9d 24 15 67 90 2d 5c dc 37 24 13 d6 b3 3e
       6.8165254e-17 1.6416682e-11 3.986845e-17 0.35124263
0003d0 8a 56 cf a9 fe ff f3 35 b2 86 97 3d fc 12 dc 31
       -9.207659e-14 1.8179414e-06 0.07398738 6.405001e-09
0003e0 2b b2 e5 3e cf b3 8f a8 e3 bb be 3e f8 f6 0c 3f
       0.44862494 -1.5954169e-14 0.3725272 0.55064344
0003f0 e7 e1 06 28 e4 06 fb 3e eb 90 a3 3e 7e 93 fc 3e
       7.487479e-15 0.49028695 0.319465 0.49331278

bias f4 [175]
000000 00 00 00 00 00 00 00 00 00 00 00 00 00 00 00 00
       0.0 0.0 0.0 0.0
000010 00 00 00 00 00 00 00 00 00 00 00 00 00 00 00 00
       0.0 0.0 0.0 0.0
000020 00 00 00 00 00 00 00 00 00 00 00 00 00 00 00 00
       0.0 0.0 0.0 0.0
000030 00 00 00 00 00 00 00 00 00 00 00 00 00 00 00 00
       0.0 0.0 0.0 0.0
000040 00 00 00 00 00 00 00 00 00 00 00 00 00 00 00 00
       0.0 0.0 0.0 0.0
000050 00 00 00 00 00 00 00 00 00 00 00 00 00 00 00 00
       0.0 0.0 0.0 0.0
000060 00 00 00 00 00 00 00 00 00 00 00 00 00 00 00 00
       0.0 0.0 0.0 0.0
000070 00 00 00 00 00 00 00 00 00 00 00 00 00 00 00 00
       0.0 0.0 0.0 0.0
000080 00 00 00 00 00 00 00 00 00 00 00 00 00 00 00 00
       0.0 0.0 0.0 0.0
000090 00 00 00 00 00 00 00 00 00 00 00 00 00 00 00 00
       0.0 0.0 0.0 0.0
0000a0 00 00 00 00 00 00 00 00 00 00 00 00 00 00 00 00
       0.0 0.0 0.0 0.0
0000b0 00 00 00 00 00 00 00 00 00 00 00 00 00 00 00 00
       0.0 0.0 0.0 0.0
0000c0 00 00 00 00 00 00 00 00 00 00 00 00 00 00 00 00
       0.0 0.0 0.0 0.0
0000d0 00 00 00 00 00 00 00 00 00 00 00 00 00 00 00 00
       0.0 0.0 0.0 0.0
0000e0 00 00 00 00 00 00 00 00 00 00 00 00 00 00 00 00
       0.0 0.0 0.0 0.0
0000f0 00 00 00 00 00 00 00 00 00 00 00 00 00 00 00 00
       0.0 0.0 0.0 0.0
000100 00 00 00 00 00 00 00 00 00 00 00 00 00 00 00 00
       0.0 0.0 0.0 0.0
000110 00 00 00 00 00 00 00 00 00 00 00 00 00 00 00 00
       0.0 0.0 0.0 0.0
000120 00 00 00 00 00 00 00 00 00 00 00 00 00 00 00 00
       0.0 0.0 0.0 0.0
000130 00 00 00 00 00 00 00 00 00 00 00 00 00 00 00 00
       0.0 0.0 0.0 0.0
000140 00 00 00 00 00 00 00 00 00 00 00 00 00 00 00 00
       0.0 0.0 0.0 0.0
000150 00 00 00 00 00 00 00 00 00 00 00 00 00 00 00 00
       0.0 0.0 0.0 0.0
000160 00 00 00 00 00 00 00 00 00 00 00 00 00 00 00 00
       0.0 0.0 0.0 0.0
000170 00 00 00 00 00 00 00 00 00 00 00 00 00 00 00 00
       0.0 0.0 0.0 0.0
000180 00 00 00 00 00 00 00 00 00 00 00 00 00 00 00 00
       0.0 0.0 0.0 0.0
000190 00 00 00 00 00 00 00 00 00 00 00 00 00 00 00 00
       0.0 0.0 0.0 0.0
0001a0 00 00 00 00 00 00 00 00 00 00 00 00 00 00 00 00
       0.0 0.0 0.0 0.0
0001b0 00 00 00 00 00 00 00 00 00 00 00 00 00 00 00 00
       0.0 0.0 0.0 0.0
0001c0 00 00 00 00 00 00 00 00 00 00 00 00 00 00 00 00
       0.0 0.0 0.0 0.0
0001d0 00 00 00 00 00 00 00 00 00 00 00 00 00 00 00 00
       0.0 0.0 0.0 0.0
0001e0 00 00 00 00 00 00 00 00 00 00 00 00 00 00 00 00
       0.0 0.0 0.0 0.0
0001f0 00 00 00 00 00 00 00 00 00 00 00 00 00 00 00 00
       0.0 0.0 0.0 0.0
000200 00 00 00 00 00 00 00 00 00 00 00 00 00 00 00 00
       0.0 0.0 0.0 0.0
000210 00 00 00 00 00 00 00 00 00 00 00 00 00 00 00 00
       0.0 0.0 0.0 0.0
000220 00 00 00 00 00 00 00 00 00 00 00 00 00 00 00 00
       0.0 0.0 0.0 0.0
000230 00 00 00 00 00 00 00 00 00 00 00 00 00 00 00 00
       0.0 0.0 0.0 0.0
000240 00 00 00 00 00 00 00 00 00 00 00 00 00 00 00 00
       0.0 0.0 0.0 0.0
000250 00 00 00 00 00 00 00 00 00 00 00 00 00 00 00 00
       0.0 0.0 0.0 0.0
000260 00 00 00 00 00 00 00 00 00 00 00 00 00 00 00 00
       0.0 0.0 0.0 0.0
000270 00 00 00 00 00 00 00 00 00 00 00 00 00 00 00 00
       0.0 0.0 0.0 0.0
000280 00 00 00 00 00 00 00 00 00 00 00 00 00 00 00 00
       0.0 0.0 0.0 0.0
000290 00 00 00 00 00 00 00 00 00 00 00 00 00 00 00 00
       0.0 0.0 0.0 0.0
0002a0 00 00 00 00 00 00 00 00 00 00 00 00 00 00 00 00
       0.0 0.0 0.0 0.0
0002b0 00 00 00 00 00 00 00 00 00 00 00 00
       0.0 0.0 0.0

_ei_mask f4 [175]
000000 00 00 80 3f 00 00 80 3f 00 00 80 3f 00 00 80 3f
       1.0 1.0 1.0 1.0
000010 00 00 80 3f 00 00 80 3f 00 00 80 3f 00 00 80 3f
       1.0 1.0 1.0 1.0
000020 00 00 80 3f 00 00 80 3f 00 00 80 3f 00 00 80 3f
       1.0 1.0 1.0 1.0
000030 00 00 80 3f 00 00 80 3f 00 00 80 3f 00 00 80 3f
       1.0 1.0 1.0 1.0
000040 00 00 80 3f 00 00 80 3f 00 00 80 3f 00 00 80 3f
       1.0 1.0 1.0 1.0
000050 00 00 80 3f 00 00 80 3f 00 00 80 3f 00 00 80 3f
       1.0 1.0 1.0 1.0
000060 00 00 80 3f 00 00 80 3f 00 00 80 3f 00 00 80 3f
       1.0 1.0 1.0 1.0
000070 00 00 80 3f 00 00 80 3f 00 00 80 3f 00 00 80 3f
       1.0 1.0 1.0 1.0
000080 00 00 80 3f 00 00 80 3f 00 00 80 3f 00 00 80 3f
       1.0 1.0 1.0 1.0
000090 00 00 80 3f 00 00 80 3f 00 00 80 3f 00 00 80 3f
       1.0 1.0 1.0 1.0
0000a0 00 00 80 3f 00 00 80 3f 00 00 80 3f 00 00 80 3f
       1.0 1.0 1.0 1.0
0000b0 00 00 80 3f 00 00 80 3f 00 00 80 3f 00 00 80 3f
       1.0 1.0 1.0 1.0
0000c0 00 00 80 3f 00 00 80 3f 00 00 80 3f 00 00 80 3f
       1.0 1.0 1.0 1.0
0000d0 00 00 80 3f 00 00 80 3f 00 00 80 3f 00 00 80 3f
       1.0 1.0 1.0 1.0
0000e0 00 00 80 3f 00 00 80 3f 00 00 80 3f 00 00 80 3f
       1.0 1.0 1.0 1.0
0000f0 00 00 80 3f 00 00 80 3f 00 00 80 3f 00 00 80 3f
       1.0 1.0 1.0 1.0
000100 00 00 80 3f 00 00 80 3f 00 00 80 3f 00 00 80 3f
       1.0 1.0 1.0 1.0
000110 00 00 80 3f 00 00 80 3f 00 00 80 3f 00 00 80 3f
       1.0 1.0 1.0 1.0
000120 00 00 80 3f 00 00 80 3f 00 00 80 3f 00 00 80 3f
       1.0 1.0 1.0 1.0
000130 00 00 80 3f 00 00 80 3f 00 00 80 3f 00 00 80 3f
       1.0 1.0 1.0 1.0
000140 00 00 80 3f 00 00 80 3f 00 00 80 3f 00 00 80 3f
       1.0 1.0 1.0 1.0
000150 00 00 80 3f 00 00 80 3f 00 00 80 3f 00 00 80 3f
       1.0 1.0 1.0 1.0
000160 00 00 80 3f 00 00 80 3f 00 00 80 3f 00 00 80 3f
       1.0 1.0 1.0 1.0
000170 00 00 80 3f 00 00 80 3f 00 00 80 3f 00 00 80 3f
       1.0 1.0 1.0 1.0
000180 00 00 80 3f 00 00 80 3f 00 00 80 3f 00 00 80 3f
       1.0 1.0 1.0 1.0
000190 00 00 80 3f 00 00 80 3f 00 00 80 3f 00 00 80 3f
       1.0 1.0 1.0 1.0
0001a0 00 00 80 3f 00 00 80 3f 00 00 80 3f 00 00 80 3f
       1.0 1.0 1.0 1.0
0001b0 00 00 80 3f 00 00 80 3f 00 00 80 3f 00 00 80 3f
       1.0 1.0 1.0 1.0
0001c0 00 00 80 3f 00 00 80 3f 00 00 80 3f 00 00 80 3f
       1.0 1.0 1.0 1.0
0001d0 00 00 80 3f 00 00 80 3f 00 00 80 3f 00 00 80 3f
       1.0 1.0 1.0 1.0
0001e0 00 00 80 3f 00 00 80 3f 00 00 80 3f 00 00 80 3f
       1.0 1.0 1.0 1.0
0001f0 00 00 80 3f 00 00 80 3f 00 00 80 3f 00 00 80 3f
       1.0 1.0 1.0 1.0
000200 00 00 80 3f 00 00 80 3f 00 00 80 3f 00 00 80 3f
       1.0 1.0 1.0 1.0
000210 00 00 80 3f 00 00 80 3f 00 00 80 3f 00 00 80 3f
       1.0 1.0 1.0 1.0
000220 00 00 80 3f 00 00 80 3f 00 00 80 3f 00 00 80 3f
       1.0 1.0 1.0 1.0
000230 00 00 80 3f 00 00 80 3f 00 00 80 3f 00 00 80 3f
       1.0 1.0 1.0 1.0
000240 00 00 80 3f 00 00 80 3f 00 00 80 3f 00 00 80 3f
       1.0 1.0 1.0 1.0
000250 00 00 80 3f 00 00 80 3f 00 00 80 3f 00 00 80 3f
       1.0 1.0 1.0 1.0
000260 00 00 80 3f 00 00 80 3f 00 00 80 3f 00 00 80 3f
       1.0 1.0 1.0 1.0
000270 00 00 80 3f 00 00 80 3f 00 00 80 3f 00 00 80 3f
       1.0 1.0 1.0 1.0
000280 00 00 80 3f 00 00 80 3f 00 00 80 3f 00 00 80 3f
       1.0 1.0 1.0 1.0
000290 00 00 80 3f 00 00 80 3f 00 00 80 3f 00 00 80 3f
       1.0 1.0 1.0 1.0
0002a0 00 00 80 3f 00 00 80 3f 00 00 80 3f 00 00 80 3f
       1.0 1.0 1.0 1.0
0002b0 00 00 80 3f 00 00 80 3f 00 00 80 3f
       1.0 1.0 1.0

weight f4 [2, 175]
000000 73 77 bd 3f 39 74 07 40 5b 39 2d 3f 82 d2 ad 3f
       1.4802078 2.1164687 0.6766564 1.3579867
000010 1c 5d a1 3f e4 34 05 40 dd 8e 10 40 ff 3b 7c 40
       1.260654 2.0813532 2.2587197 3.9411619
000020 0d 0e 47 3f 79 0d 6c 40 62 47 7f 3f ef 2d cc 3f
       0.77755815 3.6883223 0.99718297 1.5951518
000030 03 d1 dc be b4 09 32 3f 9d 13 a7 3e 9c 15 d3 3f
       -0.43128213 0.69546056 0.3263215 1.649097
000040 4b 30 02 3f 5a 28 86 3e 1b 42 f8 3e 83 22 35 40
       0.5085494 0.2620266 0.48487934 2.8302314
000050 51 28 9e 3e b3 e8 45 3f f7 60 c4 3f 2f 24 3d 3f
       0.30890134 0.77308196 1.5342091 0.73883337
000060 3b a2 8b 40 6b 74 86 40 a3 f2 04 3f 52 92 54 3f
       4.3635535 4.201711 0.51932734 0.8303577
000070 66 83 12 3f 28 61 01 40 07 16 b6 3f db 60 16 3e
       0.5723175 2.021555 1.4225472 0.14685385
000080 2b 75 40 3f 08 7f e0 3f cf 16 d7 3e 27 70 3c 40
       0.75178784 1.7538767 0.4200959 2.9443452
000090 e4 45 6a 3e a8 e0 3b 3f 29 ca c1 3f 57 92 79 3f
       0.22878224 0.73389673 1.5139819 0.9748892
0000a0 00 d7 02 40 44 29 dd 3f e8 0a 1f 3f f1 57 99 be
       2.0443726 1.7278218 0.62126017 -0.29949906
0000b0 1a 72 85 3f 17 6f 97 3e 1f 73 29 3e 0d d4 2e 3f
       1.0425446 0.29576942 0.16547821 0.68292314
0000c0 28 ce b8 3e 0c 5e 9d 3f 7f 2a 0d 3e f5 8d 10 3e
       0.36094785 1.2294326 0.13785742 0.14116652
0000d0 2c 46 69 3f 33 97 39 3f 05 37 a7 3e ca 2e b7 bd
       0.911227 0.72496337 0.32659164 -0.08944471
0000e0 de 7d 1e 3f 08 d7 56 3f 4c a4 1e 3f 39 d3 b2 3f
       0.6191081 0.8392186 0.6196945 1.397071
0000f0 58 a5 b6 3e c6 0d b8 3e b4 fa 53 3f e7 8c c3 3e
       0.35673022 0.35948008 0.8280442 0.38193437
000100 6c c5 d5 3e d8 3f 1f 3f 91 a8 1d 3f 15 c7 c0 3d
       0.41752183 0.6220679 0.61585337 0.09412972
000110 62 59 3d 3e 66 8e d0 3f 9f cd db 3e e4 84 b3 3f
       0.18491128 1.6293457 0.42930314 1.402493
000120 c7 7e ce 3f 79 12 63 3e b1 68 86 3f ae 4a 07 3f
       1.6132439 0.22175016 1.0500699 0.5284833
000130 d3 cd 31 3f 02 8f a1 3f 5f 4b ae 3e 7e e2 d6 3f
       0.6945469 1.2621768 0.3404188 1.678787
000140 e8 6b b2 3f 9c a8 f8 3f 29 84 1d 3f 44 71 0d 40
       1.393918 1.9426455 0.61529785 2.2100382
000150 00 f7 cd 3e 17 ef 9f 3f b8 dd 3d 40 84 5d 76 40
       0.4022751 1.249484 2.9666576 3.8494577
000160 32 69 81 3d ec 3f 9d 3f e4 90 d2 3f a4 b4 8d 3f
       0.063188925 1.2285132 1.6450467 1.1070752
000170 5f d5 e4 3f 77 0d 38 3f a8 5a 86 3f 12 96 a8 3e
       1.7877616 0.71895546 1.0496416 0.32926995
000180 62 d4 17 40 6a f3 d0 3e b1 53 a1 3f 60 64 25 3f
       2.3723378 0.4081071 1.2603666 0.64606285
000190 a6 e6 8e 3f d1 af e6 3e 17 88 2b 3f 9b 9d 97 3f
       1.1164138 0.45056012 0.6700453 1.1844972
0001a0 20 f7 e0 3e 17 78 3a 3f 8d 91 84 3f ab 5e eb 3f
       0.4393854 0.7283949 1.0356919 1.8388265
0001b0 dd 42 ab 3e 41 e1 14 40 de af d4 3e 93 db 93 3f
       0.3344945 2.3262484 0.41540426 1.1551384
0001c0 30 10 da 3e 76 4a 05 40 7b 61 24 3f 37 93 08 40
       0.42590475 2.0826697 0.64211243 2.1339853
0001d0 eb 55 40 3f d3 e2 9f 3f e3 e8 00 40 6e ac ce 3f
       0.751311 1.2491096 2.0142143 1.6146371
0001e0 9b 10 39 40 8c da d4 3f af 12 9f 3f d4 f1 06 40
       2.8916385 1.6629195 1.2427577 2.10851
0001f0 a2 4c 4b 40 ff ba a3 3f 9b e6 a5 3e b6 fc d0 3e
       3.1765523 1.2791442 0.324025 0.40817803
000200 fc 98 90 3d bf 79 30 3f 94 23 cf 3e 0b fb cd 3e
       0.070604295 0.6893577 0.4045683 0.40230593
000210 38 5b 20 3f 07 25 c4 3f 0d 15 1f 3f bc e6 0c 3f
       0.6263919 1.53238 0.62141496 0.5503957
000220 11 a2 80 3f 36 38 9c 3f 68 07 34 3f 85 f1 74 3f
       1.0049459 1.2204654 0.703238 0.9568103
000230 26 d5 5b 3f 56 eb 0e 3f e1 4b 02 40 ed 95 b3 3f
       0.85872114 0.55827844 2.0358813 1.4030129
000240 bf 96 af 3e 2a ac 37 3f 7c 95 38 3f 8a d1 15 bd
       0.34294698 0.71747077 0.72103095 -0.036576785
000250 c4 be d9 3e d6 fa eb 3e a5 32 fa 3d 08 da ad 3e
       0.42528355 0.4608981 0.12216691 0.33955407
000260 aa 5d e5 3f 30 c2 ef 3e eb 7d 35 40 ee 54 fb 3f
       1.7919209 0.4682784 2.8358104 1.9635293
000270 ad 79 5b 3f 4a 88 2d 40 e5 a9 59 3f 23 73 63 be
       0.8573254 2.7114434 0.85024863 -0.2221189
000280 f9 04 b6 3f f4 3c 33 3f 53 27 a7 3f 71 77 60 3f
       1.4220268 0.7001488 1.3058876 0.87682253
000290 9e 28 c0 3f 6d d8 0e 40 5f 11 d5 be b8 66 c9 3f
       1.5012395 2.2319596 -0.41614816 1.5734472
0002a0 74 13 92 be c1 45 00 40 8f 71 76 3f 86 3d c9 3f
       -0.28530467 2.0042574 0.96267027 1.57219
0002b0 5b 91 d2 3f 9a 20 59 be 29 6c fc 3e f4 1b 04 bf
       1.6450609 -0.21203843 0.4930127 -0.51605153
0002c0 52 49 1b 40 08 93 07 3f d1 fb 32 3f 99 f8 92 bd
       2.42635 0.52958727 0.6991549 -0.071763225
0002d0 31 a9 06 40 5f 97 db 3f c8 16 2b 40 f1 fd d4 bc
       2.1040766 1.715557 2.6732655 -0.025999995
0002e0 ce 7f 0c 40 36 da b9 3f 38 ea 92 3f 5e 02 50 3f
       2.1953006 1.4519718 1.1477728 0.8125361
0002f0 a0 8c 0e 3e 1e 70 c9 3d 71 09 ad 3f 54 95 d0 3d
       0.13920832 0.09835838 1.3518506 0.10184732
000300 86 d0 86 3e 1d 1b d3 3d 3d d7 0f 40 64 6a 02 bc
       0.26330966 0.10307906 2.247512 -0.007959936
000310 88 94 8c 3f 01 32 b0 3f 9d df 15 3f fe af 97 3f
       1.0982828 1.376526 0.5854433 1.1850584
000320 f8 31 25 40 23 de ce 3e e9 b4 e7 3f b9 71 c6 3f
       2.5811749 0.40403852 1.8102084 1.5503455
000330 1a 74 1d 40 f7 03 25 3f a0 cb bd 3d 68 b3 4a 3f
       2.4602113 0.64459175 0.09267354 0.7918
000340 dc 1b 0b 3f 5b d3 e2 bd 76 a2 1d 40 6d a6 8e 3e
       0.54339385 -0.11075469 2.4630408 0.27861348
000350 ae b8 71 3f 62 82 2c 3f 0c 5f 84 3f ed 2b 0f 3f
       0.94422424 0.6738645 1.0341506 0.559264
000360 53 53 93 3f 95 c5 03 be 44 85 22 3f 5c 10 b7 3e
       1.1509804 -0.1286834 0.634846 0.3575467
000370 88 83 ab 3f 5c 73 6a 3e 6c 08 f0 3e 42 3c 72 3c
       1.3399515 0.22895569 0.46881425 0.014784874
000380 d4 12 ab bd 9d 92 30 bf c5 18 27 bf fc 7d 58 3e
       -0.083532006 -0.68973714 -0.6527217 0.21141809
000390 76 c6 7c 3e 20 23 74 3d 7d 4b 90 3f 92 3c 10 3f
       0.24685082 0.05960381 1.1273037 0.5634242
0003a0 5a 56 26 3f 56 49 80 3d 53 c6 e4 be a5 0d f8 3d
       0.6497551 0.06263988 -0.4468256 0.121119775
0003b0 b0 8d a1 3e b1 b4 1c 3e 58 25 a4 3f cc bb 3c 3f
       0.3155341 0.15303303 1.2823896 0.73724055
0003c0 b9 1c 08 3f bc e7 74 3f b9 0c 0d 3f f9 e9 c3 3d
       0.5316883 0.956661 0.5509754 0.09566111
0003d0 38 ca 9a 3f 96 68 13 3f 41 5f a1 3f de 2c ba 3f
       1.2092962 0.5758146 1.2607194 1.4544942
0003e0 fa 5a 06 3f c8 2d 77 3f eb 5c 1b 3f 62 8c 51 3f
       0.5248257 0.9655423 0.60688657 0.8185483
0003f0 3f d3 97 3f ca ee 36 3e 8d 2e 65 3f eb f0 96 3f
       1.1861342 0.17864528 0.89524156 1.1792272

bias f4 [175]
000000 00 00 00 00 00 00 00 00 00 00 00 00 00 00 00 00
       0.0 0.0 0.0 0.0
000010 00 00 00 00 00 00 00 00 00 00 00 00 00 00 00 00
       0.0 0.0 0.0 0.0
000020 00 00 00 00 00 00 00 00 00 00 00 00 00 00 00 00
       0.0 0.0 0.0 0.0
000030 00 00 00 00 00 00 00 00 00 00 00 00 00 00 00 00
       0.0 0.0 0.0 0.0
000040 00 00 00 00 00 00 00 00 00 00 00 00 00 00 00 00
       0.0 0.0 0.0 0.0
000050 00 00 00 00 00 00 00 00 00 00 00 00 00 00 00 00
       0.0 0.0 0.0 0.0
000060 00 00 00 00 00 00 00 00 00 00 00 00 00 00 00 00
       0.0 0.0 0.0 0.0
000070 00 00 00 00 00 00 00 00 00 00 00 00 00 00 00 00
       0.0 0.0 0.0 0.0
000080 00 00 00 00 00 00 00 00 00 00 00 00 00 00 00 00
       0.0 0.0 0.0 0.0
000090 00 00 00 00 00 00 00 00 00 00 00 00 00 00 00 00
       0.0 0.0 0.0 0.0
0000a0 00 00 00 00 00 00 00 00 00 00 00 00 00 00 00 00
       0.0 0.0 0.0 0.0
0000b0 00 00 00 00 00 00 00 00 00 00 00 00 00 00 00 00
       0.0 0.0 0.0 0.0
0000c0 00 00 00 00 00 00 00 00 00 00 00 00 00 00 00 00
       0.0 0.0 0.0 0.0
0000d0 00 00 00 00 00 00 00 00 00 00 00 00 00 00 00 00
       0.0 0.0 0.0 0.0
0000e0 00 00 00 00 00 00 00 00 00 00 00 00 00 00 00 00
       0.0 0.0 0.0 0.0
0000f0 00 00 00 00 00 00 00 00 00 00 00 00 00 00 00 00
       0.0 0.0 0.0 0.0
000100 00 00 00 00 00 00 00 00 00 00 00 00 00 00 00 00
       0.0 0.0 0.0 0.0
000110 00 00 00 00 00 00 00 00 00 00 00 00 00 00 00 00
       0.0 0.0 0.0 0.0
000120 00 00 00 00 00 00 00 00 00 00 00 00 00 00 00 00
       0.0 0.0 0.0 0.0
000130 00 00 00 00 00 00 00 00 00 00 00 00 00 00 00 00
       0.0 0.0 0.0 0.0
000140 00 00 00 00 00 00 00 00 00 00 00 00 00 00 00 00
       0.0 0.0 0.0 0.0
000150 00 00 00 00 00 00 00 00 00 00 00 00 00 00 00 00
       0.0 0.0 0.0 0.0
000160 00 00 00 00 00 00 00 00 00 00 00 00 00 00 00 00
       0.0 0.0 0.0 0.0
000170 00 00 00 00 00 00 00 00 00 00 00 00 00 00 00 00
       0.0 0.0 0.0 0.0
000180 00 00 00 00 00 00 00 00 00 00 00 00 00 00 00 00
       0.0 0.0 0.0 0.0
000190 00 00 00 00 00 00 00 00 00 00 00 00 00 00 00 00
       0.0 0.0 0.0 0.0
0001a0 00 00 00 00 00 00 00 00 00 00 00 00 00 00 00 00
       0.0 0.0 0.0 0.0
0001b0 00 00 00 00 00 00 00 00 00 00 00 00 00 00 00 00
       0.0 0.0 0.0 0.0
0001c0 00 00 00 00 00 00 00 00 00 00 00 00 00 00 00 00
       0.0 0.0 0.0 0.0
0001d0 00 00 00 00 00 00 00 00 00 00 00 00 00 00 00 00
       0.0 0.0 0.0 0.0
0001e0 00 00 00 00 00 00 00 00 00 00 00 00 00 00 00 00
       0.0 0.0 0.0 0.0
0001f0 00 00 00 00 00 00 00 00 00 00 00 00 00 00 00 00
       0.0 0.0 0.0 0.0
000200 00 00 00 00 00 00 00 00 00 00 00 00 00 00 00 00
       0.0 0.0 0.0 0.0
000210 00 00 00 00 00 00 00 00 00 00 00 00 00 00 00 00
       0.0 0.0 0.0 0.0
000220 00 00 00 00 00 00 00 00 00 00 00 00 00 00 00 00
       0.0 0.0 0.0 0.0
000230 00 00 00 00 00 00 00 00 00 00 00 00 00 00 00 00
       0.0 0.0 0.0 0.0
000240 00 00 00 00 00 00 00 00 00 00 00 00 00 00 00 00
       0.0 0.0 0.0 0.0
000250 00 00 00 00 00 00 00 00 00 00 00 00 00 00 00 00
       0.0 0.0 0.0 0.0
000260 00 00 00 00 00 00 00 00 00 00 00 00 00 00 00 00
       0.0 0.0 0.0 0.0
000270 00 00 00 00 00 00 00 00 00 00 00 00 00 00 00 00
       0.0 0.0 0.0 0.0
000280 00 00 00 00 00 00 00 00 00 00 00 00 00 00 00 00
       0.0 0.0 0.0 0.0
000290 00 00 00 00 00 00 00 00 00 00 00 00 00 00 00 00
       0.0 0.0 0.0 0.0
0002a0 00 00 00 00 00 00 00 00 00 00 00 00 00 00 00 00
       0.0 0.0 0.0 0.0
0002b0 00 00 00 00 00 00 00 00 00 00 00 00
       0.0 0.0 0.0

_ei_mask f4 [175]
000000 00 00 80 3f 00 00 80 3f 00 00 80 3f 00 00 80 3f
       1.0 1.0 1.0 1.0
000010 00 00 80 3f 00 00 80 3f 00 00 80 3f 00 00 80 3f
       1.0 1.0 1.0 1.0
000020 00 00 80 3f 00 00 80 3f 00 00 80 3f 00 00 80 3f
       1.0 1.0 1.0 1.0
000030 00 00 80 3f 00 00 80 3f 00 00 80 3f 00 00 80 3f
       1.0 1.0 1.0 1.0
000040 00 00 80 3f 00 00 80 3f 00 00 80 3f 00 00 80 3f
       1.0 1.0 1.0 1.0
000050 00 00 80 3f 00 00 80 3f 00 00 80 3f 00 00 80 3f
       1.0 1.0 1.0 1.0
000060 00 00 80 3f 00 00 80 3f 00 00 80 3f 00 00 80 3f
       1.0 1.0 1.0 1.0
000070 00 00 80 3f 00 00 80 3f 00 00 80 3f 00 00 80 3f
       1.0 1.0 1.0 1.0
000080 00 00 80 3f 00 00 80 3f 00 00 80 3f 00 00 80 3f
       1.0 1.0 1.0 1.0
000090 00 00 80 3f 00 00 80 3f 00 00 80 3f 00 00 80 3f
       1.0 1.0 1.0 1.0
0000a0 00 00 80 3f 00 00 80 3f 00 00 80 3f 00 00 80 3f
       1.0 1.0 1.0 1.0
0000b0 00 00 80 3f 00 00 80 3f 00 00 80 3f 00 00 80 3f
       1.0 1.0 1.0 1.0
0000c0 00 00 80 3f 00 00 80 3f 00 00 80 3f 00 00 80 3f
       1.0 1.0 1.0 1.0
0000d0 00 00 80 3f 00 00 80 3f 00 00 80 3f 00 00 80 3f
       1.0 1.0 1.0 1.0
0000e0 00 00 80 3f 00 00 80 3f 00 00 80 3f 00 00 80 3f
       1.0 1.0 1.0 1.0
0000f0 00 00 80 3f 00 00 80 3f 00 00 80 3f 00 00 80 3f
       1.0 1.0 1.0 1.0
000100 00 00 80 3f 00 00 80 3f 00 00 80 3f 00 00 80 3f
       1.0 1.0 1.0 1.0
000110 00 00 80 3f 00 00 80 3f 00 00 80 3f 00 00 80 3f
       1.0 1.0 1.0 1.0
000120 00 00 80 3f 00 00 80 3f 00 00 80 3f 00 00 80 3f
       1.0 1.0 1.0 1.0
000130 00 00 80 3f 00 00 80 3f 00 00 80 3f 00 00 80 3f
       1.0 1.0 1.0 1.0
000140 00 00 80 3f 00 00 80 3f 00 00 80 3f 00 00 80 3f
       1.0 1.0 1.0 1.0
000150 00 00 80 3f 00 00 80 3f 00 00 80 3f 00 00 80 3f
       1.0 1.0 1.0 1.0
000160 00 00 80 3f 00 00 80 3f 00 00 80 3f 00 00 80 3f
       1.0 1.0 1.0 1.0
000170 00 00 80 3f 00 00 80 3f 00 00 80 3f 00 00 80 3f
       1.0 1.0 1.0 1.0
000180 00 00 80 3f 00 00 80 3f 00 00 80 3f 00 00 80 3f
       1.0 1.0 1.0 1.0
000190 00 00 80 3f 00 00 80 3f 00 00 80 3f 00 00 80 3f
       1.0 1.0 1.0 1.0
0001a0 00 00 80 3f 00 00 80 3f 00 00 80 3f 00 00 80 3f
       1.0 1.0 1.0 1.0
0001b0 00 00 80 3f 00 00 80 3f 00 00 80 3f 00 00 80 3f
       1.0 1.0 1.0 1.0
0001c0 00 00 80 3f 00 00 80 3f 00 00 80 3f 00 00 80 3f
       1.0 1.0 1.0 1.0
0001d0 00 00 80 3f 00 00 80 3f 00 00 80 3f 00 00 80 3f
       1.0 1.0 1.0 1.0
0001e0 00 00 80 3f 00 00 80 3f 00 00 80 3f 00 00 80 3f
       1.0 1.0 1.0 1.0
0001f0 00 00 80 3f 00 00 80 3f 00 00 80 3f 00 00 80 3f
       1.0 1.0 1.0 1.0
000200 00 00 80 3f 00 00 80 3f 00 00 80 3f 00 00 80 3f
       1.0 1.0 1.0 1.0
000210 00 00 80 3f 00 00 80 3f 00 00 80 3f 00 00 80 3f
       1.0 1.0 1.0 1.0
000220 00 00 80 3f 00 00 80 3f 00 00 80 3f 00 00 80 3f
       1.0 1.0 1.0 1.0
000230 00 00 80 3f 00 00 80 3f 00 00 80 3f 00 00 80 3f
       1.0 1.0 1.0 1.0
000240 00 00 80 3f 00 00 80 3f 00 00 80 3f 00 00 80 3f
       1.0 1.0 1.0 1.0
000250 00 00 80 3f 00 00 80 3f 00 00 80 3f 00 00 80 3f
       1.0 1.0 1.0 1.0
000260 00 00 80 3f 00 00 80 3f 00 00 80 3f 00 00 80 3f
       1.0 1.0 1.0 1.0
000270 00 00 80 3f 00 00 80 3f 00 00 80 3f 00 00 80 3f
       1.0 1.0 1.0 1.0
000280 00 00 80 3f 00 00 80 3f 00 00 80 3f 00 00 80 3f
       1.0 1.0 1.0 1.0
000290 00 00 80 3f 00 00 80 3f 00 00 80 3f 00 00 80 3f
       1.0 1.0 1.0 1.0
0002a0 00 00 80 3f 00 00 80 3f 00 00 80 3f 00 00 80 3f
       1.0 1.0 1.0 1.0
0002b0 00 00 80 3f 00 00 80 3f 00 00 80 3f
       1.0 1.0 1.0

weight f4 [403, 3]
000000 c0 22 63 3f c0 22 63 3f 80 81 60 40 3a 51 5a 3f
       0.887249 0.887249 3.507904 0.8528019
000010 3a 51 5a 3f 13 2a 75 40 ee e2 92 3f ee e2 92 3f
       0.8528019 3.830693 1.1475503 1.1475503
000020 61 10 4d 40 db 6f a1 3f db 6f a1 3f a8 3a 41 40
       3.2041247 1.261226 1.261226 3.019205
000030 ac 6e b9 3f ac 6e b9 3f 9f 7b 3f 40 4e bb d4 3f
       1.4486899 1.4486899 2.9919202 1.6619661
000040 4e bb d4 3f 1c 08 4d 40 b5 53 c3 3f b5 53 c3 3f
       1.6619661 3.20362 1.525992 1.525992
000050 59 b5 47 40 86 d0 b5 3f 86 d0 b5 3f 38 a6 3d 40
       3.1204436 1.4204261 1.4204261 2.9632702
000060 e1 7f 96 3f e1 7f 96 3f 43 72 52 40 68 01 ed 3f
       1.1757776 1.1757776 3.288224 1.8516054
000070 68 01 ed 3f 40 e2 69 40 70 17 10 40 70 17 10 40
       1.8516054 3.6544342 2.2514305 2.2514305
000080 8d eb 60 40 48 08 c9 3f 48 08 c9 3f c8 9c 60 40
       3.5143769 1.5705652 1.5705652 3.5095692
000090 71 68 a2 3f 71 68 a2 3f 35 36 3e 40 f7 68 b2 3f
       1.2688123 1.2688123 2.9720585 1.3938283
0000a0 f7 68 b2 3f 92 0d 35 40 56 93 6f 3f 56 93 6f 3f
       1.3938283 2.8289533 0.9358419 0.9358419
0000b0 8e e5 51 40 fd d1 23 3f fd d1 23 3f cc f4 66 40
       3.279636 0.6399229 0.6399229 3.6086912
0000c0 cf 73 9b 3f cf 73 9b 3f d0 d4 4e 40 0a 00 b5 3f
       1.2144717 1.2144717 3.231739 1.4140637
0000d0 0a 00 b5 3f 4f df 21 40 06 0c 8c 3f 06 0c 8c 3f
       1.4140637 2.5292547 1.0941169 1.0941169
0000e0 f0 d2 81 40 87 94 09 3f 87 94 09 3f 70 26 8b 40
       4.056999 0.5374226 0.5374226 4.348442
0000f0 71 d3 44 3f 71 d3 44 3f 9f 9b 81 40 ed 43 c7 3f
       0.76885134 0.76885134 4.0502467 1.5567604
000100 ed 43 c7 3f 19 52 6a 40 d2 f7 cf 3f d2 f7 cf 3f
       1.5567604 3.6612608 1.6247504 1.6247504
000110 46 b4 42 40 94 16 db 3f 94 16 db 3f 82 b3 2d 40
       3.042253 1.7116265 1.7116265 2.7140813
000120 6c 0b d3 3f 6c 0b d3 3f 15 fc 0f 40 a6 ee f1 3f
       1.6487861 1.6487861 2.2497609 1.8900955
000130 a6 ee f1 3f 30 b8 fe 3f 99 13 17 40 99 13 17 40
       1.8900955 1.989996 2.3605711 2.3605711
000140 df 72 c1 3f a5 5b 00 40 a5 5b 00 40 55 1f df 3f
       1.5113181 2.0055935 2.0055935 1.7431437
000150 94 bb 0f 40 94 bb 0f 40 77 9c 02 40 de 94 00 40
       2.2458239 2.2458239 2.0407999 2.0090861
000160 de 94 00 40 d8 f4 10 40 5a 1f 06 40 5a 1f 06 40
       2.0090861 2.264944 2.0956635 2.0956635
000170 4a df f9 3f 96 4a 06 40 96 4a 06 40 8b 46 fb 3f
       1.9521267 2.0983024 2.0983024 1.9630903
000180 1e 40 0e 40 1e 40 0e 40 68 8b 58 40 a1 fc 0d 40
       2.2226634 2.2226634 3.3835087 2.2185442
000190 a1 fc 0d 40 11 cb f2 3f 0d 3c 26 40 0d 3c 26 40
       2.2185442 1.8968221 2.5974152 2.5974152
0001a0 b5 df 29 3f e4 ee 35 40 e4 ee 35 40 6a 40 91 3f
       0.66356975 2.8427057 2.8427057 1.1347783
0001b0 73 dc 1f 40 73 dc 1f 40 53 16 95 3f e4 e4 25 40
       2.4978302 2.4978302 1.1647438 2.5920954
0001c0 e4 e4 25 40 3f f2 4a 3f a3 f0 23 40 a3 f0 23 40
       2.5920954 0.7927589 2.5615623 2.5615623
0001d0 6b d0 1f 3f 85 c8 20 40 85 c8 20 40 18 eb 63 3f
       0.62427396 2.5122387 2.5122387 0.890306
0001e0 a8 57 2b 40 a8 57 2b 40 01 e4 3b 3f 54 2e 37 40
       2.677225 2.677225 0.7339478 2.8622026
0001f0 54 2e 37 40 69 11 21 3f 21 c0 2b 40 21 c0 2b 40
       2.8622026 0.6291719 2.6836016 2.6836016
000200 5f e5 44 3f 96 62 37 40 96 62 37 40 29 d8 4c 3f
       0.7691249 2.8653922 2.8653922 0.80017334
000210 89 a6 32 40 89 a6 32 40 85 d7 0b 3f 56 b3 2b 40
       2.7914145 2.7914145 0.5462573 2.6828208
000220 56 b3 2b 40 ac ce 2a 3f a0 92 30 40 a0 92 30 40
       2.6828208 0.66721606 2.7589493 2.7589493
000230 26 37 1b 3f 70 cb 21 40 70 cb 21 40 6a 34 11 3f
       0.60631025 2.5280418 2.5280418 0.567206
000240 c7 be 1b 40 c7 be 1b 40 36 a4 88 3e f0 42 0f 40
       2.4335191 2.4335191 0.26687783 2.2384605
000250 f0 42 0f 40 eb 0c f0 3e 12 cb bd 3f 12 cb bd 3f
       2.2384605 0.46884856 1.4827597 1.4827597
000260 eb fb e2 3f 1d 6c ba 3f 1d 6c ba 3f 6a 81 e8 3f
       1.7733129 1.4564244 1.4564244 1.8164494
000270 d2 87 ce 3f d2 87 ce 3f d1 5a 9d 3f d2 28 ac 3f
       1.6135199 1.6135199 1.229334 1.3449957
000280 d2 28 ac 3f 2b 73 ee 3f 00 b5 6f 3f 00 b5 6f 3f
       1.3449957 1.8628896 0.9363556 0.9363556
000290 b4 d0 3c 40 32 ac ba 3f 32 ac ba 3f 87 57 e0 3f
       2.9502382 1.45838 1.45838 1.7526711
0002a0 a6 4c 9a 3f a6 4c 9a 3f 82 76 11 40 43 b0 13 3e
       1.2054641 1.2054641 2.2728581 0.14422707
0002b0 43 b0 13 3e f6 2f 87 40 fc de 4a bd fc de 4a bd
       0.14422707 4.2246046 -0.04952906 -0.04952906
0002c0 3a d8 8d 40 0b b1 73 3e 0b b1 73 3e 06 59 96 40
       4.432645 0.23798005 0.23798005 4.698367
0002d0 59 67 01 3e 59 67 01 3e 96 c3 81 40 f8 eb 5e 3f
       0.1263708 0.1263708 4.055125 0.8707881
0002e0 f8 eb 5e 3f 84 e6 65 40 cc a3 55 3f cc a3 55 3f
       0.8707881 3.5921946 0.8345306 0.8345306
0002f0 3c 45 84 40 37 ad 54 3f 37 ad 54 3f a9 68 7d 40
       4.1334515 0.83076805 0.83076805 3.959513
000300 51 c7 53 3f 51 c7 53 3f b7 3c 6a 40 c6 02 31 3f
       0.8272601 0.8272601 3.6599557 0.69144857
000310 c6 02 31 3f 4f 4f 7c 40 fe 18 49 3f fe 18 49 3f
       0.69144857 3.9423406 0.7855376 0.7855376
000320 02 f6 79 40 01 69 9e 3f 01 69 9e 3f b0 d4 44 40
       3.9056401 1.2375795 1.2375795 3.0754814
000330 fe be ac 3f fe be ac 3f 5e da 34 40 43 c3 ac 3f
       1.3495786 1.3495786 2.825828 1.3497089
000340 43 c3 ac 3f 5b 54 42 40 16 cf 88 3f 16 cf 88 3f
       1.3497089 3.0363986 1.0688198 1.0688198
000350 75 dc 48 40 7d 70 80 3f 7d 70 80 3f b3 ba 27 40
       3.1384556 1.0034329 1.0034329 2.6207702
000360 a4 38 96 3f a4 38 96 3f db 15 0c 40 23 f6 c1 3f
       1.1736035 1.1736035 2.188834 1.515324
000370 23 f6 c1 3f 16 46 e9 3f c5 70 d5 3f c5 70 d5 3f
       1.515324 1.8224514 1.667504 1.667504
000380 1d 2a d2 3f 65 08 d8 3f 65 08 d8 3f 69 55 a1 3f
       1.6419102 1.6877562 1.6877562 1.260419
000390 ff 49 da 3f ff 49 da 3f da c0 97 3f e0 77 b5 3f
       1.7053832 1.7053832 1.1855729 1.4177208
0003a0 e0 77 b5 3f 53 af dc 3f 7f c8 bf 3f 7f c8 bf 3f
       1.4177208 1.7241005 1.4983062 1.4983062
0003b0 4d f2 2d 40 2b 8f c0 3f 2b 8f c0 3f 09 8f 15 40
       2.7179139 1.5043691 1.5043691 2.3368552
0003c0 ce 99 98 3f ce 99 98 3f 49 5a 10 40 31 f6 cc 3f
       1.1921937 1.1921937 2.2555106 1.6012632
0003d0 31 f6 cc 3f a3 4a 20 40 25 b1 e1 3f 25 b1 e1 3f
       1.6012632 2.5045555 1.7632185 1.7632185
0003e0 6c 20 16 40 20 d1 e8 3f 20 d1 e8 3f 04 cd 04 40
       2.3457289 1.818882 1.818882 2.0750132
0003f0 9a 8b 22 40 9a 8b 22 40 e6 2b 06 40 65 39 e4 3f
       2.5397706 2.5397706 2.0964293 1.7830015

bias f4 [3]
000000 00 00 00 00 00 00 00 00 00 00 00 00
       0.0 0.0 0.0

_ei_mask f4 [3]
000000 00 00 80 3f 00 00 80 3f 00 00 80 3f
       1.0 1.0 1.0

rmat f4 [1, 1, 3]
000000 00 00 80 bf 00 00 00 40 00 00 80 bf
       -1.0 2.0 -1.0

weight f4 [3, 175]
000000 ac 9e 36 3e ce ab f7 3c 21 aa d5 3e 9c 53 a3 3d
       0.17833966 0.03023329 0.4173136 0.079749316
000010 93 d0 33 3e 5b 4e 23 3e 61 74 e9 3d 6c 9b 80 3e
       0.17560034 0.15947859 0.11399151 0.25118577
000020 c1 70 a3 3e 84 c9 39 3e 08 4f 37 3e 5e 45 f6 3c
       0.31921962 0.18143278 0.17901242 0.030062374
000030 0d b2 29 3f bc 9f 89 3e df 66 a8 be 36 71 12 3e
       0.6628731 0.2687968 -0.32890984 0.14300999
000040 3d 5a ad be f9 4e 44 3e fd 56 82 be 63 83 94 3e
       -0.3385791 0.1917075 -0.25456992 0.2900649
000050 cc 10 0c 3e 39 dd 68 3e 9f 79 96 3e 40 45 94 3e
       0.13678282 0.2274064 0.29389665 0.28959084
000060 44 27 96 3e c5 18 48 3e 49 e8 6c 3e 3b ef 8c 3e
       0.29326832 0.19540699 0.23135485 0.27526268
000070 f5 b4 84 3e 56 7b 6e 3e 11 7e 85 3e d4 ef 61 3e
       0.2591931 0.23289236 0.26072744 0.22064143
000080 de dc f5 3e 07 b6 8c 3e 03 b1 3d 3e a0 23 0b 3e
       0.4802007 0.27482626 0.18524556 0.13587809
000090 06 42 93 3d 83 ba 95 bd f7 50 d1 3e 2d 61 89 3e
       0.07190327 -0.07310965 0.40882084 0.26831952
0000a0 31 b9 97 3e 0c 20 9a 3e 56 84 65 3e 0b c3 8c 3e
       0.29633477 0.30102575 0.22413763 0.27492556
0000b0 cc 4a 43 3e 44 e9 61 3e fb 6a a3 3e 2f 5b 7d 3e
       0.19071501 0.2206164 0.31917557 0.24741815
0000c0 a2 b0 b0 3e cc d8 4b 3e 0e 63 0e 40 27 66 0a 40
       0.3450976 0.1990692 2.2247958 2.162485
0000d0 c7 91 31 be b4 b4 b8 3e 3d e5 e1 3d 21 68 74 3e
       -0.17340766 0.36075366 0.11030052 0.23867847
0000e0 64 7f 88 3e 6c 2a 7a 3c ff 06 ca 3d 4c 41 9d 3d
       0.2665969 0.015268903 0.09864616 0.0767847
0000f0 9d a2 3e 3e a7 10 9f 3e ed a5 f0 3d e7 89 8d 3e
       0.1861672 0.31067392 0.11750398 0.27644274
000100 fb 6e 39 3e a7 e6 84 3e 9d fd 0b 3e a0 27 80 3e
       0.18108742 0.25957224 0.13670965 0.2503023
000110 f4 a6 cc 3e 65 b9 31 3e 04 02 82 3d e9 ce 41 3d
       0.39971125 0.17355879 0.06348041 0.047316466
000120 4d 72 07 3e 6a 8d 8c bd 1a df 84 3c c7 b6 b7 bd
       0.13227196 -0.0686291 0.016219664 -0.08970409
000130 89 53 ec bc 85 64 0d 3e dc 0a b8 bd 4a 23 dc 3d
       -0.028848426 0.13807876 -0.08986446 0.10748918
000140 8e 22 f8 bd 85 4a 4b be 53 d0 09 bf 30 c6 61 3e
       -0.12115966 -0.19852646 -0.538335 0.22048259
000150 93 fa e9 bd e1 d6 ed 3d f8 2e 0f 3e 03 7a 45 3e
       -0.11424746 0.116132505 0.13982761 0.19284825
000160 d7 87 3f 3e 61 af 5b 3e fe ee e1 bc 3f 69 82 3c
       0.18704163 0.2145362 -0.02757978 0.015919326
000170 f2 73 28 3e 69 61 a7 bd 2b 96 46 3e b4 6a 7d 3e
       0.1645048 -0.081728764 0.19393222 0.24747735
000180 08 8a 98 3e cf d1 d1 3e 01 d4 50 3e e4 9f 82 3e
       0.2979281 0.40980384 0.20393373 0.25512612
000190 e0 3e 85 3e bb d9 77 3e 33 12 3c 3e 77 cc 4f 3e
       0.26024532 0.24204151 0.18366317 0.20292841
0001a0 6d 89 27 3e 0d e7 66 3e 4e 2c 90 3e e9 0d f0 3d
       0.16361018 0.22549076 0.28158802 0.11721403
0001b0 67 eb c1 3e 8c b4 8a 3e 52 c7 d7 3d 0e e1 67 3e
       0.3787491 0.2709087 0.10536064 0.22644445
0001c0 1f 20 75 3e e9 a1 45 3e 36 4c 85 3e 15 87 73 3e
       0.23938034 0.19300045 0.26034707 0.23781998
0001d0 71 35 97 3e 5c 3d ab 3e fd 4a 79 3e 19 79 cb 3e
       0.2953296 0.3344525 0.24345012 0.39740828
0001e0 20 c8 90 3e 45 ad 2a 3f f9 69 6d 3e 4e c1 35 3e
       0.28277683 0.6667064 0.23184957 0.17749521
0001f0 fd bd 87 3e c0 0b 63 3e 05 5d 2c 3e 12 c6 1e 3e
       0.26512137 0.22172451 0.16832359 0.15505245
000200 9c cc 40 3f 9a 62 99 3e a9 89 5d 3e 73 43 8f 3e
       0.7531221 0.2995804 0.21634544 0.27981147
000210 f7 9a 9e 3e cd a8 73 3e 0c 84 74 3e 9e 54 11 3e
       0.30977604 0.23794861 0.23878497 0.14192435
000220 eb d6 28 3d 40 f3 4d 3e b7 0d 8a 3e 32 2b 24 bb
       0.041220587 0.20112324 0.2696359 -0.002505016
000230 26 57 62 3e e1 b8 8a 3e 42 bf 83 3e f9 b9 bc 3e
       0.22103557 0.27094176 0.25731856 0.36860636
000240 fc ad 4d 3e ce 17 52 3e 6b 32 9d 3e b6 10 2c 3e
       0.20085901 0.20516893 0.30702528 0.1680325
000250 1f 95 b6 3e eb 8e 9a 3e 77 60 30 3e 4c 9f 36 3e
       0.35660645 0.30187163 0.17224298 0.17834204
000260 cd 8c 49 3e ba 3d 8f 3e 81 28 38 be 08 20 cc 3d
       0.19682617 0.2797678 -0.17984201 0.09967047
000270 d4 55 e3 3d 72 6b 22 3d f6 53 77 3e ae c7 bb 3e
       0.11100355 0.03965325 0.24153122 0.3667578
000280 9d a4 81 3e ed 7b 69 3e 5b 86 8e 3e 55 1f 73 3e
       0.25320902 0.2280118 0.2783688 0.23742421
000290 f3 cb 3e 3d 17 11 3f 3e fb 0b 09 3f f5 a4 71 bc
       0.04658122 0.18658863 0.53533906 -0.0147488015
0002a0 67 53 60 3f 60 6c 35 3e 0b 28 23 3e dc 22 10 3e
       0.8762726 0.17717123 0.15933244 0.14075798
0002b0 c0 bd 49 3e 2b f2 8e 3e 3d 51 8c 3d ac 9e 36 3e
       0.1970129 0.27919134 0.068514325 0.17833966
0002c0 ce ab f7 3c 21 aa d5 3e 9c 53 a3 3d 93 d0 33 3e
       0.03023329 0.4173136 0.079749316 0.17560034
0002d0 5b 4e 23 3e 61 74 e9 3d 6c 9b 80 3e c1 70 a3 3e
       0.15947859 0.11399151 0.25118577 0.31921962
0002e0 84 c9 39 3e 08 4f 37 3e 5e 45 f6 3c 0d b2 29 3f
       0.18143278 0.17901242 0.030062374 0.6628731
0002f0 bc 9f 89 3e df 66 a8 be 36 71 12 3e 3d 5a ad be
       0.2687968 -0.32890984 0.14300999 -0.3385791
000300 f9 4e 44 3e fd 56 82 be 63 83 94 3e cc 10 0c 3e
       0.1917075 -0.25456992 0.2900649 0.13678282
000310 39 dd 68 3e 9f 79 96 3e 40 45 94 3e 44 27 96 3e
       0.2274064 0.29389665 0.28959084 0.29326832
000320 c5 18 48 3e 49 e8 6c 3e 3b ef 8c 3e f5 b4 84 3e
       0.19540699 0.23135485 0.27526268 0.2591931
000330 56 7b 6e 3e 11 7e 85 3e d4 ef 61 3e de dc f5 3e
       0.23289236 0.26072744 0.22064143 0.4802007
000340 07 b6 8c 3e 03 b1 3d 3e a0 23 0b 3e 06 42 93 3d
       0.27482626 0.18524556 0.13587809 0.07190327
000350 83 ba 95 bd f7 50 d1 3e 2d 61 89 3e 31 b9 97 3e
       -0.07310965 0.40882084 0.26831952 0.29633477
000360 0c 20 9a 3e 56 84 65 3e 0b c3 8c 3e cc 4a 43 3e
       0.30102575 0.22413763 0.27492556 0.19071501
000370 44 e9 61 3e fb 6a a3 3e 2f 5b 7d 3e a2 b0 b0 3e
       0.2206164 0.31917557 0.24741815 0.3450976
000380 cc d8 4b 3e 0e 63 0e 40 27 66 0a 40 c7 91 31 be
       0.1990692 2.2247958 2.162485 -0.17340766
000390 b4 b4 b8 3e 3d e5 e1 3d 21 68 74 3e 64 7f 88 3e
       0.36075366 0.11030052 0.23867847 0.2665969
0003a0 6c 2a 7a 3c ff 06 ca 3d 4c 41 9d 3d 9d a2 3e 3e
       0.015268903 0.09864616 0.0767847 0.1861672
0003b0 a7 10 9f 3e ed a5 f0 3d e7 89 8d 3e fb 6e 39 3e
       0.31067392 0.11750398 0.27644274 0.18108742
0003c0 a7 e6 84 3e 9d fd 0b 3e a0 27 80 3e f4 a6 cc 3e
       0.25957224 0.13670965 0.2503023 0.39971125
0003d0 65 b9 31 3e 04 02 82 3d e9 ce 41 3d 4d 72 07 3e
       0.17355879 0.06348041 0.047316466 0.13227196
0003e0 6a 8d 8c bd 1a df 84 3c c7 b6 b7 bd 89 53 ec bc
       -0.0686291 0.016219664 -0.08970409 -0.028848426
0003f0 85 64 0d 3e dc 0a b8 bd 4a 23 dc 3d 8e 22 f8 bd
       0.13807876 -0.08986446 0.10748918 -0.12115966

bias f4 [175]
000000 00 00 00 00 00 00 00 00 00 00 00 00 00 00 00 00
       0.0 0.0 0.0 0.0
000010 00 00 00 00 00 00 00 00 00 00 00 00 00 00 00 00
       0.0 0.0 0.0 0.0
000020 00 00 00 00 00 00 00 00 00 00 00 00 00 00 00 00
       0.0 0.0 0.0 0.0
000030 00 00 00 00 00 00 00 00 00 00 00 00 00 00 00 00
       0.0 0.0 0.0 0.0
000040 00 00 00 00 00 00 00 00 00 00 00 00 00 00 00 00
       0.0 0.0 0.0 0.0
000050 00 00 00 00 00 00 00 00 00 00 00 00 00 00 00 00
       0.0 0.0 0.0 0.0
000060 00 00 00 00 00 00 00 00 00 00 00 00 00 00 00 00
       0.0 0.0 0.0 0.0
000070 00 00 00 00 00 00 00 00 00 00 00 00 00 00 00 00
       0.0 0.0 0.0 0.0
000080 00 00 00 00 00 00 00 00 00 00 00 00 00 00 00 00
       0.0 0.0 0.0 0.0
000090 00 00 00 00 00 00 00 00 00 00 00 00 00 00 00 00
       0.0 0.0 0.0 0.0
0000a0 00 00 00 00 00 00 00 00 00 00 00 00 00 00 00 00
       0.0 0.0 0.0 0.0
0000b0 00 00 00 00 00 00 00 00 00 00 00 00 00 00 00 00
       0.0 0.0 0.0 0.0
0000c0 00 00 00 00 00 00 00 00 00 00 00 00 00 00 00 00
       0.0 0.0 0.0 0.0
0000d0 00 00 00 00 00 00 00 00 00 00 00 00 00 00 00 00
       0.0 0.0 0.0 0.0
0000e0 00 00 00 00 00 00 00 00 00 00 00 00 00 00 00 00
       0.0 0.0 0.0 0.0
0000f0 00 00 00 00 00 00 00 00 00 00 00 00 00 00 00 00
       0.0 0.0 0.0 0.0
000100 00 00 00 00 00 00 00 00 00 00 00 00 00 00 00 00
       0.0 0.0 0.0 0.0
000110 00 00 00 00 00 00 00 00 00 00 00 00 00 00 00 00
       0.0 0.0 0.0 0.0
000120 00 00 00 00 00 00 00 00 00 00 00 00 00 00 00 00
       0.0 0.0 0.0 0.0
000130 00 00 00 00 00 00 00 00 00 00 00 00 00 00 00 00
       0.0 0.0 0.0 0.0
000140 00 00 00 00 00 00 00 00 00 00 00 00 00 00 00 00
       0.0 0.0 0.0 0.0
000150 00 00 00 00 00 00 00 00 00 00 00 00 00 00 00 00
       0.0 0.0 0.0 0.0
000160 00 00 00 00 00 00 00 00 00 00 00 00 00 00 00 00
       0.0 0.0 0.0 0.0
000170 00 00 00 00 00 00 00 00 00 00 00 00 00 00 00 00
       0.0 0.0 0.0 0.0
000180 00 00 00 00 00 00 00 00 00 00 00 00 00 00 00 00
       0.0 0.0 0.0 0.0
000190 00 00 00 00 00 00 00 00 00 00 00 00 00 00 00 00
       0.0 0.0 0.0 0.0
0001a0 00 00 00 00 00 00 00 00 00 00 00 00 00 00 00 00
       0.0 0.0 0.0 0.0
0001b0 00 00 00 00 00 00 00 00 00 00 00 00 00 00 00 00
       0.0 0.0 0.0 0.0
0001c0 00 00 00 00 00 00 00 00 00 00 00 00 00 00 00 00
       0.0 0.0 0.0 0.0
0001d0 00 00 00 00 00 00 00 00 00 00 00 00 00 00 00 00
       0.0 0.0 0.0 0.0
0001e0 00 00 00 00 00 00 00 00 00 00 00 00 00 00 00 00
       0.0 0.0 0.0 0.0
0001f0 00 00 00 00 00 00 00 00 00 00 00 00 00 00 00 00
       0.0 0.0 0.0 0.0
000200 00 00 00 00 00 00 00 00 00 00 00 00 00 00 00 00
       0.0 0.0 0.0 0.0
000210 00 00 00 00 00 00 00 00 00 00 00 00 00 00 00 00
       0.0 0.0 0.0 0.0
000220 00 00 00 00 00 00 00 00 00 00 00 00 00 00 00 00
       0.0 0.0 0.0 0.0
000230 00 00 00 00 00 00 00 00 00 00 00 00 00 00 00 00
       0.0 0.0 0.0 0.0
000240 00 00 00 00 00 00 00 00 00 00 00 00 00 00 00 00
       0.0 0.0 0.0 0.0
000250 00 00 00 00 00 00 00 00 00 00 00 00 00 00 00 00
       0.0 0.0 0.0 0.0
000260 00 00 00 00 00 00 00 00 00 00 00 00 00 00 00 00
       0.0 0.0 0.0 0.0
000270 00 00 00 00 00 00 00 00 00 00 00 00 00 00 00 00
       0.0 0.0 0.0 0.0
000280 00 00 00 00 00 00 00 00 00 00 00 00 00 00 00 00
       0.0 0.0 0.0 0.0
000290 00 00 00 00 00 00 00 00 00 00 00 00 00 00 00 00
       0.0 0.0 0.0 0.0
0002a0 00 00 00 00 00 00 00 00 00 00 00 00 00 00 00 00
       0.0 0.0 0.0 0.0
0002b0 00 00 00 00 00 00 00 00 00 00 00 00
       0.0 0.0 0.0
