checkpoints/version62/model.pt (torch, 10301 bytes, 4 tensors)

bias f4 [186]
0	0x40113200	2.2686768
1	0x40a75e38	5.2302513
2	0x3f36d599	0.71419674
3	0x403eb29f	2.9796522
4	0x401ee827	2.4829195
5	0x408fe0ce	4.496192
6	0x4093afbc	4.615202
7	0x40cdc66e	6.4304724
8	0x4067448c	3.6135588
9	0x40d008b0	6.5010605
10	0x404c4d45	3.1922162
11	0x40798289	3.8985922
12	0x3fd90dae	1.69573
13	0x3f605752	0.8763324
14	0x3f8bf9d3	1.0935615
15	0x3f3cd304	0.73759484
16	0x40999555	4.799479
17	0x3f312f20	0.6921253
18	0x3ef7c035	0.4838883
19	0x3f3cdaf1	0.7377158
20	0x40d962c6	6.7933073
21	0x3f95b8af	1.1696986
22	0x4057e972	3.3736234
23	0x4057790c	3.366763
24	0x3f12913a	0.5725285
25	0x4038bacd	2.8864014
26	0x40fe7cea	7.9527483
27	0x4065f845	3.5932782
28	0x4066ecf1	3.6082118
29	0x4070ea21	3.76429
30	0x40ca6082	6.3242807
31	0x40410c99	3.016394
32	0x3fa8a6f6	1.3175952
33	0x403127b7	2.768049
34	0x4076a513	3.8538253
35	0x400cdd35	2.2010014
36	0x40ec3041	7.3808904
37	0x3fd4931f	1.6607398
38	0x4013c63d	2.3089745
39	0x4078a53e	3.8850856
40	0x405e8ac4	3.4772196
41	0x400327b4	2.0492983
42	0x408577c0	4.170868
43	0x4062e5c3	3.5452735
44	0x3f94cc5a	1.1624863
45	0x3f8ae55f	1.0851249
46	0x40690543	3.6409461
47	0x3f769498	0.96320486
48	0x3f8c2dc1	1.0951463
49	0x3f8cb065	1.0991331
50	0x3f7163cb	0.94292897
51	0x3f92437c	1.1426845
52	0x3fab7e99	1.339801
53	0x3fa385d0	1.2775211
54	0x3fffc5f3	1.9982284
55	0x4003b367	2.0578249
56	0x3fc1c82b	1.5139211
57	0x3f38f072	0.7224189
58	0x4043094a	3.047442
59	0x3f81901c	1.0122104
60	0x4021976a	2.5248666
61	0x3f2fc255	0.686559
62	0x3fcb37c3	1.5876392
63	0x3f0f48b9	0.5597034
64	0x3f4bcdcd	0.796109
65	0x3fd22f93	1.6420768
66	0x402925ea	2.642939
67	0x3fa113e5	1.2584196
68	0x3fd30878	1.648696
69	0x3fad68d1	1.3547612
70	0x3fda7dad	1.7069603
71	0x3f9a81b6	1.2070835
72	0x3fe32495	1.7745539
73	0x405cdf8b	3.451144
74	0x3efec5d3	0.49760303
75	0x4025eac6	2.5924544
76	0x403cd730	2.950634
77	0x4009643f	2.1467435
78	0x3fb2f628	1.3981371
79	0x400fb301	2.2453005
80	0x4016c422	2.355721
81	0x4039b130	2.9014397
82	0x40354e7d	2.8329155
83	0x402e51da	2.7237458
84	0x407f3aab	3.9879558
85	0x4043124b	3.0479915
86	0x4086db95	4.2143044
87	0x401b0e91	2.422764
88	0x40b3d168	5.6193123
89	0x40277bc9	2.6169302
90	0x402414dd	2.5637734
91	0x40df2385	6.973086
92	0x4101acde	8.104704
93	0x4077f8a2	3.8745503
94	0x40654ba4	3.5827417
95	0x4021081c	2.51612
96	0x3f3e6f4d	0.7438858
97	0x40ed5178	7.416195
98	0x3f7609de	0.96108806
99	0x40102263	2.2520988
100	0x3faee35f	1.3663138
101	0x40fc2bb6	7.880336
102	0x3f8accf4	1.0843797
103	0x3f3ea072	0.7446357
104	0x40093752	2.1440015
105	0x40a7ec9e	5.247634
106	0x407a3e6c	3.91006
107	0x40688c51	3.6335642
108	0x4079f6a0	3.9056778
109	0x3fe3e8fe	1.7805479
110	0x4091b1e6	4.552966
111	0x408cf53b	4.4049354
112	0x40643f09	3.5663474
113	0x4030576e	2.7553363
114	0x409ac95a	4.837079
115	0x402096b9	2.5091994
116	0x3fb1cd93	1.3890861
117	0x3fb1eade	1.3899801
118	0x40a551cc	5.166235
119	0x404a2b38	3.1588879
120	0x409f72f8	4.9827843
121	0x4004a510	2.0725746
122	0x40932092	4.597726
123	0x408a5bbf	4.3236995
124	0x408df7a5	4.43648
125	0x40c80121	6.250138
126	0x406cdefd	3.7011101
127	0x40746163	3.818444
128	0x4097f0e9	4.748158
129	0x40d9fd33	6.812158
130	0x403be266	2.9356933
131	0x3f57240e	0.8403939
132	0x40631722	3.548287
133	0x3f2988b6	0.6622423
134	0x3fa0360f	1.2516497
135	0x3fdd9b6d	1.7313057
136	0x405c0bb2	3.4382138
137	0x3fea5e4c	1.8310027
138	0x402933bc	2.6437826
139	0x3f96ec21	1.1790811
140	0x3fc70d9b	1.5551027
141	0x408a7863	4.3271956
142	0x40334383	2.8009956
143	0x3f51be70	0.8193121
144	0x3f17e7a4	0.5933783
145	0x4036fc20	2.8591385
146	0x3fd08aa8	1.6292315
147	0x400ef9dd	2.2340004
148	0x3fd99b48	1.7000513
149	0x3ff679ba	1.9255898
150	0x4030c85e	2.7622294
151	0x3fe524d9	1.790187
152	0x3ea95f9f	0.33080766
153	0x40617f04	3.5233774
154	0x402c5fe8	2.6933537
155	0x3f194e82	0.5988542
156	0x402867de	2.6313396
157	0x4002163b	2.0326068
158	0x3f2f9615	0.6858838
159	0x3f55e6da	0.83555377
160	0x3eacd364	0.33755028
161	0x4081976f	4.0497355
162	0x40099d05	2.1502087
163	0x40c86e65	6.263476
164	0x408e27e7	4.442371
165	0x401c2052	2.4394727
166	0x40db307a	6.8496675
167	0x3fded906	1.740998
168	0x406a6dd1	3.6629527
169	0x401fdec5	2.4979718
170	0x3f676334	0.90385747
171	0x40316ce8	2.772272
172	0x406059ce	3.5054812
173	0x40312940	2.7681427
174	0x404149df	3.0201337
175	0x40c47248	6.1389503
176	0x3fe4dd69	1.7880069
177	0x4038c541	2.8870394
178	0x3fdbc5c3	1.7169727
179	0x4085ab87	4.1771884
180	0x40852144	4.1603107
181	0x40485c99	3.1306517
182	0x40377bed	2.8669388
183	0x3fc8c66f	1.5685557
184	0x3ed36e8c	0.41295278
185	0x3f86351d	1.0484959

weight f4 [2, 186]
0	0x3f6efeb8	0.9335742
1	0xbdaf3b87	-0.08556276
2	0x3c522ed6	0.012828549
3	0x3f0683f1	0.52545077
4	0x3eeb4c50	0.4595666
5	0x3ca97d12	0.020689521
6	0x3e9397c0	0.28826714
7	0x3f191d67	0.5981049
8	0x3ed8717f	0.4227409
9	0x3f4726b9	0.7779346
10	0xbe105ca9	-0.14097847
11	0x3e5056d8	0.20345628
12	0xbf4ef0c9	-0.8083616
13	0x3ea2e74b	0.31817088
14	0x3e290143	0.16504388
15	0x3ea98e06	0.33116168
16	0x3e6a7d86	0.22899446
17	0x3eb938fc	0.36176288
18	0x3b5c26ec	0.0033592535
19	0x3e9827dd	0.29717913
20	0x3e059205	0.13043983
21	0x3e048d5d	0.12944551
22	0x3dcb7574	0.09934512
23	0x3d8864bb	0.06659838
24	0x3dc0b53e	0.09409569
25	0x3fdcb22c	1.7241874
26	0x3f42bd86	0.7607044
27	0x3eae51d2	0.340468
28	0xbf0e72b1	-0.55643755
29	0xbf23895b	-0.6388146
30	0xbe8475c6	-0.25871104
31	0x3efda2df	0.49538323
32	0x391109c8	0.00013831921
33	0xbd490021	-0.04907239
34	0x3f2460e1	0.64210325
35	0x3e85a49f	0.26102158
36	0x3e9044ff	0.2817764
37	0x3c7ad25c	0.015308943
38	0xbd0af412	-0.03392417
39	0x3eac476a	0.33648235
40	0x3c900999	0.017582702
41	0xbebad582	-0.3649102
42	0x3f551c1c	0.83246017
43	0x3e8052c2	0.2506314
44	0x3ee0e6f3	0.439262
45	0xbee6e9a2	-0.45100123
46	0x3e9b3f67	0.3032181
47	0xbf0ad93d	-0.5423773
48	0xbdc1f186	-0.09469895
49	0x3dd5f291	0.104466565
50	0x3df63bb6	0.12023108
51	0x3f27a892	0.6549159
52	0x3f1c8016	0.61132944
53	0x3f0daaaa	0.5533854
54	0x3eb6b7ec	0.35687196
55	0xbec0ada2	-0.3763247
56	0x3eb78168	0.35840917
57	0x3e42b5ec	0.1901471
58	0xbef16a79	-0.47151545
59	0xbd5bde9c	-0.053679094
60	0x3e0e6fce	0.13909838
61	0x3ebae137	0.3649995
62	0x3f798950	0.9747515
63	0x3e38ee94	0.1805976
64	0x3de6107c	0.11233613
65	0x3ec12bc7	0.37728712
66	0xbeee5b20	-0.46553898
67	0xbe138478	-0.14406002
68	0x3bc7779c	0.0060872566
69	0xbe4d6021	-0.20056202
70	0xbe3c9adc	-0.18418449
71	0x3b9bb56b	0.0047518513
72	0x3e807d2e	0.25095505
73	0x3e3d52a3	0.18488555
74	0xbb84f46d	-0.004057458
75	0x3dafe9bf	0.085895054
76	0x3db5c2d2	0.0887505
77	0xbcc8d081	-0.024513485
78	0xbeedbd77	-0.46433613
79	0x3d40fac1	0.047114138
80	0x3d60abf5	0.05485149
81	0x3d61b1c6	0.05510118
82	0x3d4ee9d1	0.050515953
83	0x3e744819	0.23855628
84	0x3eed22bc	0.46315563
85	0x3e1db0b9	0.15399446
86	0x3e7f1eaf	0.24914049
87	0xbd07f758	-0.03319487
88	0x3dfbc69e	0.122937426
89	0xbd6e7595	-0.058217604
90	0x3db6310d	0.088960744
91	0x3c9a63ec	0.018846475
92	0xbd73f409	-0.059558902
93	0xbe8bdeb8	-0.27318358
94	0x3de63061	0.11239696
95	0x3edbff08	0.4296801
96	0x3ea5c135	0.32373968
97	0xbe99eb85	-0.300625
98	0x3e7f4c90	0.2493155
99	0x3eb30850	0.3496728
100	0x3eb29028	0.34875607
101	0xbee50357	-0.4472911
102	0x3e0dc6a9	0.13845314
103	0x3eb0d14e	0.34534687
104	0xbd36423f	-0.04449677
105	0xbeefe4ec	-0.4685434
106	0xbe7707fd	-0.24124141
107	0x3dda7ff1	0.10668934
108	0xbe930a29	-0.2871869
109	0x3ce3bb6c	0.02779933
110	0xbdd7d0b3	-0.10537853
111	0xbde6acc9	-0.11263425
112	0x3e6d9c24	0.23204094
113	0xbea4348c	-0.3207134
114	0x3de68fa9	0.1125787
115	0xbe2f00ef	-0.170902
116	0x3e0b47e7	0.13601647
117	0x3dd467e4	0.10371378
118	0x3c762c29	0.015025177
119	0xbea230a2	-0.3167773
120	0x3e8bc144	0.27295887
121	0xbd1816d8	-0.03713116
122	0xbf3aa0ee	-0.7290181
123	0x3ebbae50	0.36656427
124	0x3d3583dd	0.044315208
125	0xbe25747a	-0.16157714
126	0x3e946575	0.28983656
127	0xbd858600	-0.06519699
128	0x3d8382f4	0.06421462
129	0xbeaace91	-0.33360723
130	0x3d67f46a	0.056629576
131	0x3c8fe03e	0.017562982
132	0xbe252e4e	-0.16130945
133	0x3cc1d8b0	0.023662895
134	0x3db1ede9	0.08687956
135	0x3d9a7466	0.075417325
136	0xbf07884a	-0.52942336
137	0xbe9908f0	-0.2988963
138	0xbd39b8fe	-0.045342438
139	0x3d80bacb	0.06285628
140	0x3e5946f6	0.21218476
141	0xbe5f598d	-0.21811505
142	0xbe56686b	-0.2093827
143	0x3e83b33a	0.25722677
144	0x3f00867b	0.502052
145	0x3e650607	0.2236558
146	0x3e3893eb	0.18025176
147	0xbdbeeb2e	-0.09322201
148	0x3ee4909e	0.44641584
149	0x3bf5266d	0.0074813874
150	0x3f881d71	1.0633985
151	0x3ea735c7	0.32658216
152	0x3da5d3fc	0.080970734
153	0xbd8fd14a	-0.070223406
154	0x3e1c3d96	0.15257868
155	0x3e150cc8	0.14555657
156	0xbf77acf9	-0.9674831
157	0x3edc7fbc	0.43066204
158	0x3c9810a7	0.018562628
159	0x3cce6586	0.025194895
160	0xbbe32ccf	-0.006932832
161	0xbe666c7e	-0.22502324
162	0xbe26e9ad	-0.16300078
163	0x3de70a93	0.11281314
164	0x3e963bda	0.29342538
165	0x3d98d9c9	0.07463414
166	0xbbe9df5b	-0.0071372217
167	0x3d6e00b3	0.058106136
168	0xbfa1e888	-1.2649088
169	0x3f0cb718	0.5496688
170	0x3d56bba3	0.052425038
171	0x3dd8a9c1	0.10579253
172	0x3ee5a312	0.44850975
173	0x3e94917d	0.2901725
174	0x3ddf33e2	0.10898568
175	0xbe144b08	-0.14481747
176	0xbf23eb46	-0.64030874
177	0x3e0076f3	0.12545376
178	0xbeafc783	-0.34331903
179	0x3d3500aa	0.044190086
180	0xbe896f0f	-0.26842543
181	0x3d933f86	0.071898505
182	0x3decfbcc	0.11571464
183	0xbf0a01a5	-0.5390876
184	0x3dfcb34a	0.12338884
185	0xbe09a9a3	-0.13443618
186	0xbf6f1b64	-0.9340117
187	0x3dacd154	0.08438364
188	0xbc5498a4	-0.0129758455
189	0xbf06ab32	-0.52604973
190	0xbeeb9743	-0.4601384
191	0xbcb0cc3a	-0.021581758
192	0xbe941d2e	-0.28928512
193	0xbf197641	-0.59946066
194	0xbed8d62b	-0.42350897
195	0xbf4782c1	-0.7793389
196	0x3e0fab1f	0.14030121
197	0xbe513592	-0.20430592
198	0x3f4ed716	0.80796945
199	0xbea3005b	-0.3183621
200	0xbe294d32	-0.16533354
201	0xbea9a43e	-0.3313312
202	0xbe6b99fd	-0.2300796
203	0xbeb94980	-0.3618889
204	0xbb638798	-0.0034718271
205	0xbe983b05	-0.29732528
206	0xbe070195	-0.13184197
207	0xbe04d7d6	-0.1297296
208	0xbdcd2407	-0.10016637
209	0xbd89e62e	-0.067333564
210	0xbdc0f87e	-0.09422396
211	0xbfdcc623	-1.7247967
212	0xbf432f68	-0.7624421
213	0xbeaeabc7	-0.3411543
214	0x3f0e42ea	0.5557085
215	0x3f235386	0.6379932
216	0x3e83cb18	0.25740886
217	0xbefdfaa8	-0.49605298
218	0xb9d9806e	-0.00041485153
219	0x3d466830	0.048439205
220	0xbf2494fa	-0.6428982
221	0xbe85e6c7	-0.26152632
222	0xbe91137c	-0.28335178
223	0xbc80b822	-0.015712801
224	0x3d0918ea	0.033471026
225	0xbeacbda9	-0.3373845
226	0xbc95b178	-0.0182731
227	0x3eba9850	0.3644433
228	0xbf555436	-0.8333162
229	0xbe80bbd6	-0.25143307
230	0xbee10304	-0.43947613
231	0x3ee6d21b	0.45082173
232	0xbe9ba316	-0.30397862
233	0x3f0acaf5	0.5421594
234	0x3dc18dd6	0.09450881
235	0xbdd6696c	-0.104693264
236	0xbdf69e1f	-0.12041878
237	0xbf27b68a	-0.6551291
238	0xbf1c9c29	-0.6117578
239	0xbf0db98a	-0.55361235
240	0xbeb6f0b6	-0.35730523
241	0x3ec07650	0.37590265
242	0xbeb7ad50	-0.35874414
243	0xbe42caed	-0.19022723
244	0x3ef1101b	0.470826
245	0x3d5ae077	0.053436723
246	0xbe0ef4b7	-0.13960539
247	0xbebafa83	-0.3651925
248	0xbf79a08e	-0.9751061
249	0xbe39182f	-0.18075632
250	0xbde67769	-0.112532444
251	0xbec15bc5	-0.37765327
252	0x3eee1569	0.4650071
253	0x3e133a73	0.14377765
254	0xbbd59bac	-0.0065188017
255	0x3e4d1326	0.20026836

bias f4 [186]
0	0x00000000	0.0
1	0x00000000	0.0
2	0x00000000	0.0
3	0x00000000	0.0
4	0x00000000	0.0
5	0x00000000	0.0
6	0x00000000	0.0
7	0x00000000	0.0
8	0x00000000	0.0
9	0x00000000	0.0
10	0x00000000	0.0
11	0x00000000	0.0
12	0x00000000	0.0
13	0x00000000	0.0
14	0x00000000	0.0
15	0x00000000	0.0
16	0x00000000	0.0
17	0x00000000	0.0
18	0x00000000	0.0
19	0x00000000	0.0
20	0x00000000	0.0
21	0x00000000	0.0
22	0x00000000	0.0
23	0x00000000	0.0
24	0x00000000	0.0
25	0x00000000	0.0
26	0x00000000	0.0
27	0x00000000	0.0
28	0x00000000	0.0
29	0x00000000	0.0
30	0x00000000	0.0
31	0x00000000	0.0
32	0x00000000	0.0
33	0x00000000	0.0
34	0x00000000	0.0
35	0x00000000	0.0
36	0x00000000	0.0
37	0x00000000	0.0
38	0x00000000	0.0
39	0x00000000	0.0
40	0x00000000	0.0
41	0x00000000	0.0
42	0x00000000	0.0
43	0x00000000	0.0
44	0x00000000	0.0
45	0x00000000	0.0
46	0x00000000	0.0
47	0x00000000	0.0
48	0x00000000	0.0
49	0x00000000	0.0
50	0x00000000	0.0
51	0x00000000	0.0
52	0x00000000	0.0
53	0x00000000	0.0
54	0x00000000	0.0
55	0x00000000	0.0
56	0x00000000	0.0
57	0x00000000	0.0
58	0x00000000	0.0
59	0x00000000	0.0
60	0x00000000	0.0
61	0x00000000	0.0
62	0x00000000	0.0
63	0x00000000	0.0
64	0x00000000	0.0
65	0x00000000	0.0
66	0x00000000	0.0
67	0x00000000	0.0
68	0x00000000	0.0
69	0x00000000	0.0
70	0x00000000	0.0
71	0x00000000	0.0
72	0x00000000	0.0
73	0x00000000	0.0
74	0x00000000	0.0
75	0x00000000	0.0
76	0x00000000	0.0
77	0x00000000	0.0
78	0x00000000	0.0
79	0x00000000	0.0
80	0x00000000	0.0
81	0x00000000	0.0
82	0x00000000	0.0
83	0x00000000	0.0
84	0x00000000	0.0
85	0x00000000	0.0
86	0x00000000	0.0
87	0x00000000	0.0
88	0x00000000	0.0
89	0x00000000	0.0
90	0x00000000	0.0
91	0x00000000	0.0
92	0x00000000	0.0
93	0x00000000	0.0
94	0x00000000	0.0
95	0x00000000	0.0
96	0x00000000	0.0
97	0x00000000	0.0
98	0x00000000	0.0
99	0x00000000	0.0
100	0x00000000	0.0
101	0x00000000	0.0
102	0x00000000	0.0
103	0x00000000	0.0
104	0x00000000	0.0
105	0x00000000	0.0
106	0x00000000	0.0
107	0x00000000	0.0
108	0x00000000	0.0
109	0x00000000	0.0
110	0x00000000	0.0
111	0x00000000	0.0
112	0x00000000	0.0
113	0x00000000	0.0
114	0x00000000	0.0
115	0x00000000	0.0
116	0x00000000	0.0
117	0x00000000	0.0
118	0x00000000	0.0
119	0x00000000	0.0
120	0x00000000	0.0
121	0x00000000	0.0
122	0x00000000	0.0
123	0x00000000	0.0
124	0x00000000	0.0
125	0x00000000	0.0
126	0x00000000	0.0
127	0x00000000	0.0
128	0x00000000	0.0
129	0x00000000	0.0
130	0x00000000	0.0
131	0x00000000	0.0
132	0x00000000	0.0
133	0x00000000	0.0
134	0x00000000	0.0
135	0x00000000	0.0
136	0x00000000	0.0
137	0x00000000	0.0
138	0x00000000	0.0
139	0x00000000	0.0
140	0x00000000	0.0
141	0x00000000	0.0
142	0x00000000	0.0
143	0x00000000	0.0
144	0x00000000	0.0
145	0x00000000	0.0
146	0x00000000	0.0
147	0x00000000	0.0
148	0x00000000	0.0
149	0x00000000	0.0
150	0x00000000	0.0
151	0x00000000	0.0
152	0x00000000	0.0
153	0x00000000	0.0
154	0x00000000	0.0
155	0x00000000	0.0
156	0x00000000	0.0
157	0x00000000	0.0
158	0x00000000	0.0
159	0x00000000	0.0
160	0x00000000	0.0
161	0x00000000	0.0
162	0x00000000	0.0
163	0x00000000	0.0
164	0x00000000	0.0
165	0x00000000	0.0
166	0x00000000	0.0
167	0x00000000	0.0
168	0x00000000	0.0
169	0x00000000	0.0
170	0x00000000	0.0
171	0x00000000	0.0
172	0x00000000	0.0
173	0x00000000	0.0
174	0x00000000	0.0
175	0x00000000	0.0
176	0x00000000	0.0
177	0x00000000	0.0
178	0x00000000	0.0
179	0x00000000	0.0
180	0x00000000	0.0
181	0x00000000	0.0
182	0x00000000	0.0
183	0x00000000	0.0
184	0x00000000	0.0
185	0x00000000	0.0

_ei_mask f4 [186]
0	0x3f800000	1.0
1	0x3f800000	1.0
2	0x3f800000	1.0
3	0x3f800000	1.0
4	0x3f800000	1.0
5	0x3f800000	1.0
6	0x3f800000	1.0
7	0x3f800000	1.0
8	0x3f800000	1.0
9	0x3f800000	1.0
10	0x3f800000	1.0
11	0x3f800000	1.0
12	0x3f800000	1.0
13	0x3f800000	1.0
14	0x3f800000	1.0
15	0x3f800000	1.0
16	0x3f800000	1.0
17	0x3f800000	1.0
18	0x3f800000	1.0
19	0x3f800000	1.0
20	0x3f800000	1.0
21	0x3f800000	1.0
22	0x3f800000	1.0
23	0x3f800000	1.0
24	0x3f800000	1.0
25	0x3f800000	1.0
26	0x3f800000	1.0
27	0x3f800000	1.0
28	0x3f800000	1.0
29	0x3f800000	1.0
30	0x3f800000	1.0
31	0x3f800000	1.0
32	0x3f800000	1.0
33	0x3f800000	1.0
34	0x3f800000	1.0
35	0x3f800000	1.0
36	0x3f800000	1.0
37	0x3f800000	1.0
38	0x3f800000	1.0
39	0x3f800000	1.0
40	0x3f800000	1.0
41	0x3f800000	1.0
42	0x3f800000	1.0
43	0x3f800000	1.0
44	0x3f800000	1.0
45	0x3f800000	1.0
46	0x3f800000	1.0
47	0x3f800000	1.0
48	0x3f800000	1.0
49	0x3f800000	1.0
50	0x3f800000	1.0
51	0x3f800000	1.0
52	0x3f800000	1.0
53	0x3f800000	1.0
54	0x3f800000	1.0
55	0x3f800000	1.0
56	0x3f800000	1.0
57	0x3f800000	1.0
58	0x3f800000	1.0
59	0x3f800000	1.0
60	0x3f800000	1.0
61	0x3f800000	1.0
62	0x3f800000	1.0
63	0x3f800000	1.0
64	0x3f800000	1.0
65	0x3f800000	1.0
66	0x3f800000	1.0
67	0x3f800000	1.0
68	0x3f800000	1.0
69	0x3f800000	1.0
70	0x3f800000	1.0
71	0x3f800000	1.0
72	0x3f800000	1.0
73	0x3f800000	1.0
74	0x3f800000	1.0
75	0x3f800000	1.0
76	0x3f800000	1.0
77	0x3f800000	1.0
78	0x3f800000	1.0
79	0x3f800000	1.0
80	0x3f800000	1.0
81	0x3f800000	1.0
82	0x3f800000	1.0
83	0x3f800000	1.0
84	0x3f800000	1.0
85	0x3f800000	1.0
86	0x3f800000	1.0
87	0x3f800000	1.0
88	0x3f800000	1.0
89	0x3f800000	1.0
90	0x3f800000	1.0
91	0x3f800000	1.0
92	0x3f800000	1.0
93	0x3f800000	1.0
94	0x3f800000	1.0
95	0x3f800000	1.0
96	0x3f800000	1.0
97	0x3f800000	1.0
98	0x3f800000	1.0
99	0x3f800000	1.0
100	0x3f800000	1.0
101	0x3f800000	1.0
102	0x3f800000	1.0
103	0x3f800000	1.0
104	0x3f800000	1.0
105	0x3f800000	1.0
106	0x3f800000	1.0
107	0x3f800000	1.0
108	0x3f800000	1.0
109	0x3f800000	1.0
110	0x3f800000	1.0
111	0x3f800000	1.0
112	0x3f800000	1.0
113	0x3f800000	1.0
114	0x3f800000	1.0
115	0x3f800000	1.0
116	0x3f800000	1.0
117	0x3f800000	1.0
118	0x3f800000	1.0
119	0x3f800000	1.0
120	0x3f800000	1.0
121	0x3f800000	1.0
122	0x3f800000	1.0
123	0x3f800000	1.0
124	0x3f800000	1.0
125	0x3f800000	1.0
126	0x3f800000	1.0
127	0x3f800000	1.0
128	0x3f800000	1.0
129	0x3f800000	1.0
130	0x3f800000	1.0
131	0x3f800000	1.0
132	0x3f800000	1.0
133	0x3f800000	1.0
134	0x3f800000	1.0
135	0x3f800000	1.0
136	0x3f800000	1.0
137	0x3f800000	1.0
138	0x3f800000	1.0
139	0x3f800000	1.0
140	0x3f800000	1.0
141	0x3f800000	1.0
142	0x3f800000	1.0
143	0x3f800000	1.0
144	0x3f800000	1.0
145	0x3f800000	1.0
146	0x3f800000	1.0
147	0x3f800000	1.0
148	0x3f800000	1.0
149	0x3f800000	1.0
150	0x3f800000	1.0
151	0x3f800000	1.0
152	0x3f800000	1.0
153	0x3f800000	1.0
154	0x3f800000	1.0
155	0x3f800000	1.0
156	0x3f800000	1.0
157	0x3f800000	1.0
158	0x3f800000	1.0
159	0x3f800000	1.0
160	0x3f800000	1.0
161	0x3f800000	1.0
162	0x3f800000	1.0
163	0x3f800000	1.0
164	0x3f800000	1.0
165	0x3f800000	1.0
166	0x3f800000	1.0
167	0x3f800000	1.0
168	0x3f800000	1.0
169	0x3f800000	1.0
170	0x3f800000	1.0
171	0x3f800000	1.0
172	0x3f800000	1.0
173	0x3f800000	1.0
174	0x3f800000	1.0
175	0x3f800000	1.0
176	0x3f800000	1.0
177	0x3f800000	1.0
178	0x3f800000	1.0
179	0x3f800000	1.0
180	0x3f800000	1.0
181	0x3f800000	1.0
182	0x3f800000	1.0
183	0x3f800000	1.0
184	0x3f800000	1.0
185	0x3f800000	1.0
