checkpoints/version62/model_checkpoint.ckpt (torch, 84231 bytes, 32 tensors)

bias f4 [186]
000000 00 32 11 40 38 5e a7 40 99 d5 36 3f 9f b2 3e 40
       2.2686768 5.2302513 0.71419674 2.9796522
000010 27 e8 1e 40 ce e0 8f 40 bc af 93 40 6e c6 cd 40
       2.4829195 4.496192 4.615202 6.4304724
000020 8c 44 67 40 b0 08 d0 40 45 4d 4c 40 89 82 79 40
       3.6135588 6.5010605 3.1922162 3.8985922
000030 ae 0d d9 3f 52 57 60 3f d3 f9 8b 3f 04 d3 3c 3f
       1.69573 0.8763324 1.0935615 0.73759484
000040 55 95 99 40 20 2f 31 3f 35 c0 f7 3e f1 da 3c 3f
       4.799479 0.6921253 0.4838883 0.7377158
000050 c6 62 d9 40 af b8 95 3f 72 e9 57 40 0c 79 57 40
       6.7933073 1.1696986 3.3736234 3.366763
000060 3a 91 12 3f cd ba 38 40 ea 7c fe 40 45 f8 65 40
       0.5725285 2.8864014 7.9527483 3.5932782
000070 f1 ec 66 40 21 ea 70 40 82 60 ca 40 99 0c 41 40
       3.6082118 3.76429 6.3242807 3.016394
000080 f6 a6 a8 3f b7 27 31 40 13 a5 76 40 35 dd 0c 40
       1.3175952 2.768049 3.8538253 2.2010014
000090 41 30 ec 40 1f 93 d4 3f 3d c6 13 40 3e a5 78 40
       7.3808904 1.6607398 2.3089745 3.8850856
0000a0 c4 8a 5e 40 b4 27 03 40 c0 77 85 40 c3 e5 62 40
       3.4772196 2.0492983 4.170868 3.5452735
0000b0 5a cc 94 3f 5f e5 8a 3f 43 05 69 40 98 94 76 3f
       1.1624863 1.0851249 3.6409461 0.96320486
0000c0 c1 2d 8c 3f 65 b0 8c 3f cb 63 71 3f 7c 43 92 3f
       1.0951463 1.0991331 0.94292897 1.1426845
0000d0 99 7e ab 3f d0 85 a3 3f f3 c5 ff 3f 67 b3 03 40
       1.339801 1.2775211 1.9982284 2.0578249
0000e0 2b c8 c1 3f 72 f0 38 3f 4a 09 43 40 1c 90 81 3f
       1.5139211 0.7224189 3.047442 1.0122104
0000f0 6a 97 21 40 55 c2 2f 3f c3 37 cb 3f b9 48 0f 3f
       2.5248666 0.686559 1.5876392 0.5597034
000100 cd cd 4b 3f 93 2f d2 3f ea 25 29 40 e5 13 a1 3f
       0.796109 1.6420768 2.642939 1.2584196
000110 78 08 d3 3f d1 68 ad 3f ad 7d da 3f b6 81 9a 3f
       1.648696 1.3547612 1.7069603 1.2070835
000120 95 24 e3 3f 8b df 5c 40 d3 c5 fe 3e c6 ea 25 40
       1.7745539 3.451144 0.49760303 2.5924544
000130 30 d7 3c 40 3f 64 09 40 28 f6 b2 3f 01 b3 0f 40
       2.950634 2.1467435 1.3981371 2.2453005
000140 22 c4 16 40 30 b1 39 40 7d 4e 35 40 da 51 2e 40
       2.355721 2.9014397 2.8329155 2.7237458
000150 ab 3a 7f 40 4b 12 43 40 95 db 86 40 91 0e 1b 40
       3.9879558 3.0479915 4.2143044 2.422764
000160 68 d1 b3 40 c9 7b 27 40 dd 14 24 40 85 23 df 40
       5.6193123 2.6169302 2.5637734 6.973086
000170 de ac 01 41 a2 f8 77 40 a4 4b 65 40 1c 08 21 40
       8.104704 3.8745503 3.5827417 2.51612
000180 4d 6f 3e 3f 78 51 ed 40 de 09 76 3f 63 22 10 40
       0.7438858 7.416195 0.96108806 2.2520988
000190 5f e3 ae 3f b6 2b fc 40 f4 cc 8a 3f 72 a0 3e 3f
       1.3663138 7.880336 1.0843797 0.7446357
0001a0 52 37 09 40 9e ec a7 40 6c 3e 7a 40 51 8c 68 40
       2.1440015 5.247634 3.91006 3.6335642
0001b0 a0 f6 79 40 fe e8 e3 3f e6 b1 91 40 3b f5 8c 40
       3.9056778 1.7805479 4.552966 4.4049354
0001c0 09 3f 64 40 6e 57 30 40 5a c9 9a 40 b9 96 20 40
       3.5663474 2.7553363 4.837079 2.5091994
0001d0 93 cd b1 3f de ea b1 3f cc 51 a5 40 38 2b 4a 40
       1.3890861 1.3899801 5.166235 3.1588879
0001e0 f8 72 9f 40 10 a5 04 40 92 20 93 40 bf 5b 8a 40
       4.9827843 2.0725746 4.597726 4.3236995
0001f0 a5 f7 8d 40 21 01 c8 40 fd de 6c 40 63 61 74 40
       4.43648 6.250138 3.7011101 3.818444
000200 e9 f0 97 40 33 fd d9 40 66 e2 3b 40 0e 24 57 3f
       4.748158 6.812158 2.9356933 0.8403939
000210 22 17 63 40 b6 88 29 3f 0f 36 a0 3f 6d 9b dd 3f
       3.548287 0.6622423 1.2516497 1.7313057
000220 b2 0b 5c 40 4c 5e ea 3f bc 33 29 40 21 ec 96 3f
       3.4382138 1.8310027 2.6437826 1.1790811
000230 9b 0d c7 3f 63 78 8a 40 83 43 33 40 70 be 51 3f
       1.5551027 4.3271956 2.8009956 0.8193121
000240 a4 e7 17 3f 20 fc 36 40 a8 8a d0 3f dd f9 0e 40
       0.5933783 2.8591385 1.6292315 2.2340004
000250 48 9b d9 3f ba 79 f6 3f 5e c8 30 40 d9 24 e5 3f
       1.7000513 1.9255898 2.7622294 1.790187
000260 9f 5f a9 3e 04 7f 61 40 e8 5f 2c 40 82 4e 19 3f
       0.33080766 3.5233774 2.6933537 0.5988542
000270 de 67 28 40 3b 16 02 40 15 96 2f 3f da e6 55 3f
       2.6313396 2.0326068 0.6858838 0.83555377
000280 64 d3 ac 3e 6f 97 81 40 05 9d 09 40 65 6e c8 40
       0.33755028 4.0497355 2.1502087 6.263476
000290 e7 27 8e 40 52 20 1c 40 7a 30 db 40 06 d9 de 3f
       4.442371 2.4394727 6.8496675 1.740998
0002a0 d1 6d 6a 40 c5 de 1f 40 34 63 67 3f e8 6c 31 40
       3.6629527 2.4979718 0.90385747 2.772272
0002b0 ce 59 60 40 40 29 31 40 df 49 41 40 48 72 c4 40
       3.5054812 2.7681427 3.0201337 6.1389503
0002c0 69 dd e4 3f 41 c5 38 40 c3 c5 db 3f 87 ab 85 40
       1.7880069 2.8870394 1.7169727 4.1771884
0002d0 44 21 85 40 99 5c 48 40 ed 7b 37 40 6f c6 c8 3f
       4.1603107 3.1306517 2.8669388 1.5685557
0002e0 8c 6e d3 3e 1d 35 86 3f
       0.41295278 1.0484959

drift.weight f4 [2, 186]
000000 b8 fe 6e 3f 87 3b af bd d6 2e 52 3c f1 83 06 3f
       0.9335742 -0.08556276 0.012828549 0.52545077
000010 50 4c eb 3e 12 7d a9 3c c0 97 93 3e 67 1d 19 3f
       0.4595666 0.020689521 0.28826714 0.5981049
000020 7f 71 d8 3e b9 26 47 3f a9 5c 10 be d8 56 50 3e
       0.4227409 0.7779346 -0.14097847 0.20345628
000030 c9 f0 4e bf 4b e7 a2 3e 43 01 29 3e 06 8e a9 3e
       -0.8083616 0.31817088 0.16504388 0.33116168
000040 86 7d 6a 3e fc 38 b9 3e ec 26 5c 3b dd 27 98 3e
       0.22899446 0.36176288 0.0033592535 0.29717913
000050 05 92 05 3e 5d 8d 04 3e 74 75 cb 3d bb 64 88 3d
       0.13043983 0.12944551 0.09934512 0.06659838
000060 3e b5 c0 3d 2c b2 dc 3f 86 bd 42 3f d2 51 ae 3e
       0.09409569 1.7241874 0.7607044 0.340468
000070 b1 72 0e bf 5b 89 23 bf c6 75 84 be df a2 fd 3e
       -0.55643755 -0.6388146 -0.25871104 0.49538323
000080 c8 09 11 39 21 00 49 bd e1 60 24 3f 9f a4 85 3e
       0.00013831921 -0.04907239 0.64210325 0.26102158
000090 ff 44 90 3e 5c d2 7a 3c 12 f4 0a bd 6a 47 ac 3e
       0.2817764 0.015308943 -0.03392417 0.33648235
0000a0 99 09 90 3c 82 d5 ba be 1c 1c 55 3f c2 52 80 3e
       0.017582702 -0.3649102 0.83246017 0.2506314
0000b0 f3 e6 e0 3e a2 e9 e6 be 67 3f 9b 3e 3d d9 0a bf
       0.439262 -0.45100123 0.3032181 -0.5423773
0000c0 86 f1 c1 bd 91 f2 d5 3d b6 3b f6 3d 92 a8 27 3f
       -0.09469895 0.104466565 0.12023108 0.6549159
0000d0 16 80 1c 3f aa aa 0d 3f ec b7 b6 3e a2 ad c0 be
       0.61132944 0.5533854 0.35687196 -0.3763247
0000e0 68 81 b7 3e ec b5 42 3e 79 6a f1 be 9c de 5b bd
       0.35840917 0.1901471 -0.47151545 -0.053679094
0000f0 ce 6f 0e 3e 37 e1 ba 3e 50 89 79 3f 94 ee 38 3e
       0.13909838 0.3649995 0.9747515 0.1805976
000100 7c 10 e6 3d c7 2b c1 3e 20 5b ee be 78 84 13 be
       0.11233613 0.37728712 -0.46553898 -0.14406002
000110 9c 77 c7 3b 21 60 4d be dc 9a 3c be 6b b5 9b 3b
       0.0060872566 -0.20056202 -0.18418449 0.0047518513
000120 2e 7d 80 3e a3 52 3d 3e 6d f4 84 bb bf e9 af 3d
       0.25095505 0.18488555 -0.004057458 0.085895054
000130 d2 c2 b5 3d 81 d0 c8 bc 77 bd ed be c1 fa 40 3d
       0.0887505 -0.024513485 -0.46433613 0.047114138
000140 f5 ab 60 3d c6 b1 61 3d d1 e9 4e 3d 19 48 74 3e
       0.05485149 0.05510118 0.050515953 0.23855628
000150 bc 22 ed 3e b9 b0 1d 3e af 1e 7f 3e 58 f7 07 bd
       0.46315563 0.15399446 0.24914049 -0.03319487
000160 9e c6 fb 3d 95 75 6e bd 0d 31 b6 3d ec 63 9a 3c
       0.122937426 -0.058217604 0.088960744 0.018846475
000170 09 f4 73 bd b8 de 8b be 61 30 e6 3d 08 ff db 3e
       -0.059558902 -0.27318358 0.11239696 0.4296801
000180 35 c1 a5 3e 85 eb 99 be 90 4c 7f 3e 50 08 b3 3e
       0.32373968 -0.300625 0.2493155 0.3496728
000190 28 90 b2 3e 57 03 e5 be a9 c6 0d 3e 4e d1 b0 3e
       0.34875607 -0.4472911 0.13845314 0.34534687
0001a0 3f 42 36 bd ec e4 ef be fd 07 77 be f1 7f da 3d
       -0.04449677 -0.4685434 -0.24124141 0.10668934
0001b0 29 0a 93 be 6c bb e3 3c b3 d0 d7 bd c9 ac e6 bd
       -0.2871869 0.02779933 -0.10537853 -0.11263425
0001c0 24 9c 6d 3e 8c 34 a4 be a9 8f e6 3d ef 00 2f be
       0.23204094 -0.3207134 0.1125787 -0.170902
0001d0 e7 47 0b 3e e4 67 d4 3d 29 2c 76 3c a2 30 a2 be
       0.13601647 0.10371378 0.015025177 -0.3167773
0001e0 44 c1 8b 3e d8 16 18 bd ee a0 3a bf 50 ae bb 3e
       0.27295887 -0.03713116 -0.7290181 0.36656427
0001f0 dd 83 35 3d 7a 74 25 be 75 65 94 3e 00 86 85 bd
       0.044315208 -0.16157714 0.28983656 -0.06519699
000200 f4 82 83 3d 91 ce aa be 6a f4 67 3d 3e e0 8f 3c
       0.06421462 -0.33360723 0.056629576 0.017562982
000210 4e 2e 25 be b0 d8 c1 3c e9 ed b1 3d 66 74 9a 3d
       -0.16130945 0.023662895 0.08687956 0.075417325
000220 4a 88 07 bf f0 08 99 be fe b8 39 bd cb ba 80 3d
       -0.52942336 -0.2988963 -0.045342438 0.06285628
000230 f6 46 59 3e 8d 59 5f be 6b 68 56 be 3a b3 83 3e
       0.21218476 -0.21811505 -0.2093827 0.25722677
000240 7b 86 00 3f 07 06 65 3e eb 93 38 3e 2e eb be bd
       0.502052 0.2236558 0.18025176 -0.09322201
000250 9e 90 e4 3e 6d 26 f5 3b 71 1d 88 3f c7 35 a7 3e
       0.44641584 0.0074813874 1.0633985 0.32658216
000260 fc d3 a5 3d 4a d1 8f bd 96 3d 1c 3e c8 0c 15 3e
       0.080970734 -0.070223406 0.15257868 0.14555657
000270 f9 ac 77 bf bc 7f dc 3e a7 10 98 3c 86 65 ce 3c
       -0.9674831 0.43066204 0.018562628 0.025194895
000280 cf 2c e3 bb 7e 6c 66 be ad e9 26 be 93 0a e7 3d
       -0.006932832 -0.22502324 -0.16300078 0.11281314
000290 da 3b 96 3e c9 d9 98 3d 5b df e9 bb b3 00 6e 3d
       0.29342538 0.07463414 -0.0071372217 0.058106136
0002a0 88 e8 a1 bf 18 b7 0c 3f a3 bb 56 3d c1 a9 d8 3d
       -1.2649088 0.5496688 0.052425038 0.10579253
0002b0 12 a3 e5 3e 7d 91 94 3e e2 33 df 3d 08 4b 14 be
       0.44850975 0.2901725 0.10898568 -0.14481747
0002c0 46 eb 23 bf f3 76 00 3e 83 c7 af be aa 00 35 3d
       -0.64030874 0.12545376 -0.34331903 0.044190086
0002d0 0f 6f 89 be 86 3f 93 3d cc fb ec 3d a5 01 0a bf
       -0.26842543 0.071898505 0.11571464 -0.5390876
0002e0 4a b3 fc 3d a3 a9 09 be 64 1b 6f bf 54 d1 ac 3d
       0.12338884 -0.13443618 -0.9340117 0.08438364
0002f0 a4 98 54 bc 32 ab 06 bf 43 97 eb be 3a cc b0 bc
       -0.0129758455 -0.52604973 -0.4601384 -0.021581758
000300 2e 1d 94 be 41 76 19 bf 2b d6 d8 be c1 82 47 bf
       -0.28928512 -0.59946066 -0.42350897 -0.7793389
000310 1f ab 0f 3e 92 35 51 be 16 d7 4e 3f 5b 00 a3 be
       0.14030121 -0.20430592 0.80796945 -0.3183621
000320 32 4d 29 be 3e a4 a9 be fd 99 6b be 80 49 b9 be
       -0.16533354 -0.3313312 -0.2300796 -0.3618889
000330 98 87 63 bb 05 3b 98 be 95 01 07 be d6 d7 04 be
       -0.0034718271 -0.29732528 -0.13184197 -0.1297296
000340 07 24 cd bd 2e e6 89 bd 7e f8 c0 bd 23 c6 dc bf
       -0.10016637 -0.067333564 -0.09422396 -1.7247967
000350 68 2f 43 bf c7 ab ae be ea 42 0e 3f 86 53 23 3f
       -0.7624421 -0.3411543 0.5557085 0.6379932
000360 18 cb 83 3e a8 fa fd be 6e 80 d9 b9 30 68 46 3d
       0.25740886 -0.49605298 -0.00041485153 0.048439205
000370 fa 94 24 bf c7 e6 85 be 7c 13 91 be 22 b8 80 bc
       -0.6428982 -0.26152632 -0.28335178 -0.015712801
000380 ea 18 09 3d a9 bd ac be 78 b1 95 bc 50 98 ba 3e
       0.033471026 -0.3373845 -0.0182731 0.3644433
000390 36 54 55 bf d6 bb 80 be 04 03 e1 be 1b d2 e6 3e
       -0.8333162 -0.25143307 -0.43947613 0.45082173
0003a0 16 a3 9b be f5 ca 0a 3f d6 8d c1 3d 6c 69 d6 bd
       -0.30397862 0.5421594 0.09450881 -0.104693264
0003b0 1f 9e f6 bd 8a b6 27 bf 29 9c 1c bf 8a b9 0d bf
       -0.12041878 -0.6551291 -0.6117578 -0.55361235
0003c0 b6 f0 b6 be 50 76 c0 3e 50 ad b7 be ed ca 42 be
       -0.35730523 0.37590265 -0.35874414 -0.19022723
0003d0 1b 10 f1 3e 77 e0 5a 3d b7 f4 0e be 83 fa ba be
       0.470826 0.053436723 -0.13960539 -0.3651925
0003e0 8e a0 79 bf 2f 18 39 be 69 77 e6 bd c5 5b c1 be
       -0.9751061 -0.18075632 -0.112532444 -0.37765327
0003f0 69 15 ee 3e 73 3a 13 3e ac 9b d5 bb 26 13 4d 3e
       0.4650071 0.14377765 -0.0065188017 0.20026836

drift.bias f4 [186]
000000 00 00 00 00 00 00 00 00 00 00 00 00 00 00 00 00
       0.0 0.0 0.0 0.0
000010 00 00 00 00 00 00 00 00 00 00 00 00 00 00 00 00
       0.0 0.0 0.0 0.0
000020 00 00 00 00 00 00 00 00 00 00 00 00 00 00 00 00
       0.0 0.0 0.0 0.0
000030 00 00 00 00 00 00 00 00 00 00 00 00 00 00 00 00
       0.0 0.0 0.0 0.0
000040 00 00 00 00 00 00 00 00 00 00 00 00 00 00 00 00
       0.0 0.0 0.0 0.0
000050 00 00 00 00 00 00 00 00 00 00 00 00 00 00 00 00
       0.0 0.0 0.0 0.0
000060 00 00 00 00 00 00 00 00 00 00 00 00 00 00 00 00
       0.0 0.0 0.0 0.0
000070 00 00 00 00 00 00 00 00 00 00 00 00 00 00 00 00
       0.0 0.0 0.0 0.0
000080 00 00 00 00 00 00 00 00 00 00 00 00 00 00 00 00
       0.0 0.0 0.0 0.0
000090 00 00 00 00 00 00 00 00 00 00 00 00 00 00 00 00
       0.0 0.0 0.0 0.0
0000a0 00 00 00 00 00 00 00 00 00 00 00 00 00 00 00 00
       0.0 0.0 0.0 0.0
0000b0 00 00 00 00 00 00 00 00 00 00 00 00 00 00 00 00
       0.0 0.0 0.0 0.0
0000c0 00 00 00 00 00 00 00 00 00 00 00 00 00 00 00 00
       0.0 0.0 0.0 0.0
0000d0 00 00 00 00 00 00 00 00 00 00 00 00 00 00 00 00
       0.0 0.0 0.0 0.0
0000e0 00 00 00 00 00 00 00 00 00 00 00 00 00 00 00 00
       0.0 0.0 0.0 0.0
0000f0 00 00 00 00 00 00 00 00 00 00 00 00 00 00 00 00
       0.0 0.0 0.0 0.0
000100 00 00 00 00 00 00 00 00 00 00 00 00 00 00 00 00
       0.0 0.0 0.0 0.0
000110 00 00 00 00 00 00 00 00 00 00 00 00 00 00 00 00
       0.0 0.0 0.0 0.0
000120 00 00 00 00 00 00 00 00 00 00 00 00 00 00 00 00
       0.0 0.0 0.0 0.0
000130 00 00 00 00 00 00 00 00 00 00 00 00 00 00 00 00
       0.0 0.0 0.0 0.0
000140 00 00 00 00 00 00 00 00 00 00 00 00 00 00 00 00
       0.0 0.0 0.0 0.0
000150 00 00 00 00 00 00 00 00 00 00 00 00 00 00 00 00
       0.0 0.0 0.0 0.0
000160 00 00 00 00 00 00 00 00 00 00 00 00 00 00 00 00
       0.0 0.0 0.0 0.0
000170 00 00 00 00 00 00 00 00 00 00 00 00 00 00 00 00
       0.0 0.0 0.0 0.0
000180 00 00 00 00 00 00 00 00 00 00 00 00 00 00 00 00
       0.0 0.0 0.0 0.0
000190 00 00 00 00 00 00 00 00 00 00 00 00 00 00 00 00
       0.0 0.0 0.0 0.0
0001a0 00 00 00 00 00 00 00 00 00 00 00 00 00 00 00 00
       0.0 0.0 0.0 0.0
0001b0 00 00 00 00 00 00 00 00 00 00 00 00 00 00 00 00
       0.0 0.0 0.0 0.0
0001c0 00 00 00 00 00 00 00 00 00 00 00 00 00 00 00 00
       0.0 0.0 0.0 0.0
0001d0 00 00 00 00 00 00 00 00 00 00 00 00 00 00 00 00
       0.0 0.0 0.0 0.0
0001e0 00 00 00 00 00 00 00 00 00 00 00 00 00 00 00 00
       0.0 0.0 0.0 0.0
0001f0 00 00 00 00 00 00 00 00 00 00 00 00 00 00 00 00
       0.0 0.0 0.0 0.0
000200 00 00 00 00 00 00 00 00 00 00 00 00 00 00 00 00
       0.0 0.0 0.0 0.0
000210 00 00 00 00 00 00 00 00 00 00 00 00 00 00 00 00
       0.0 0.0 0.0 0.0
000220 00 00 00 00 00 00 00 00 00 00 00 00 00 00 00 00
       0.0 0.0 0.0 0.0
000230 00 00 00 00 00 00 00 00 00 00 00 00 00 00 00 00
       0.0 0.0 0.0 0.0
000240 00 00 00 00 00 00 00 00 00 00 00 00 00 00 00 00
       0.0 0.0 0.0 0.0
000250 00 00 00 00 00 00 00 00 00 00 00 00 00 00 00 00
       0.0 0.0 0.0 0.0
000260 00 00 00 00 00 00 00 00 00 00 00 00 00 00 00 00
       0.0 0.0 0.0 0.0
000270 00 00 00 00 00 00 00 00 00 00 00 00 00 00 00 00
       0.0 0.0 0.0 0.0
000280 00 00 00 00 00 00 00 00 00 00 00 00 00 00 00 00
       0.0 0.0 0.0 0.0
000290 00 00 00 00 00 00 00 00 00 00 00 00 00 00 00 00
       0.0 0.0 0.0 0.0
0002a0 00 00 00 00 00 00 00 00 00 00 00 00 00 00 00 00
       0.0 0.0 0.0 0.0
0002b0 00 00 00 00 00 00 00 00 00 00 00 00 00 00 00 00
       0.0 0.0 0.0 0.0
0002c0 00 00 00 00 00 00 00 00 00 00 00 00 00 00 00 00
       0.0 0.0 0.0 0.0
0002d0 00 00 00 00 00 00 00 00 00 00 00 00 00 00 00 00
       0.0 0.0 0.0 0.0
0002e0 00 00 00 00 00 00 00 00
       0.0 0.0

drift._ei_mask f4 [186]
000000 00 00 80 3f 00 00 80 3f 00 00 80 3f 00 00 80 3f
       1.0 1.0 1.0 1.0
000010 00 00 80 3f 00 00 80 3f 00 00 80 3f 00 00 80 3f
       1.0 1.0 1.0 1.0
000020 00 00 80 3f 00 00 80 3f 00 00 80 3f 00 00 80 3f
       1.0 1.0 1.0 1.0
000030 00 00 80 3f 00 00 80 3f 00 00 80 3f 00 00 80 3f
       1.0 1.0 1.0 1.0
000040 00 00 80 3f 00 00 80 3f 00 00 80 3f 00 00 80 3f
       1.0 1.0 1.0 1.0
000050 00 00 80 3f 00 00 80 3f 00 00 80 3f 00 00 80 3f
       1.0 1.0 1.0 1.0
000060 00 00 80 3f 00 00 80 3f 00 00 80 3f 00 00 80 3f
       1.0 1.0 1.0 1.0
000070 00 00 80 3f 00 00 80 3f 00 00 80 3f 00 00 80 3f
       1.0 1.0 1.0 1.0
000080 00 00 80 3f 00 00 80 3f 00 00 80 3f 00 00 80 3f
       1.0 1.0 1.0 1.0
000090 00 00 80 3f 00 00 80 3f 00 00 80 3f 00 00 80 3f
       1.0 1.0 1.0 1.0
0000a0 00 00 80 3f 00 00 80 3f 00 00 80 3f 00 00 80 3f
       1.0 1.0 1.0 1.0
0000b0 00 00 80 3f 00 00 80 3f 00 00 80 3f 00 00 80 3f
       1.0 1.0 1.0 1.0
0000c0 00 00 80 3f 00 00 80 3f 00 00 80 3f 00 00 80 3f
       1.0 1.0 1.0 1.0
0000d0 00 00 80 3f 00 00 80 3f 00 00 80 3f 00 00 80 3f
       1.0 1.0 1.0 1.0
0000e0 00 00 80 3f 00 00 80 3f 00 00 80 3f 00 00 80 3f
       1.0 1.0 1.0 1.0
0000f0 00 00 80 3f 00 00 80 3f 00 00 80 3f 00 00 80 3f
       1.0 1.0 1.0 1.0
000100 00 00 80 3f 00 00 80 3f 00 00 80 3f 00 00 80 3f
       1.0 1.0 1.0 1.0
000110 00 00 80 3f 00 00 80 3f 00 00 80 3f 00 00 80 3f
       1.0 1.0 1.0 1.0
000120 00 00 80 3f 00 00 80 3f 00 00 80 3f 00 00 80 3f
       1.0 1.0 1.0 1.0
000130 00 00 80 3f 00 00 80 3f 00 00 80 3f 00 00 80 3f
       1.0 1.0 1.0 1.0
000140 00 00 80 3f 00 00 80 3f 00 00 80 3f 00 00 80 3f
       1.0 1.0 1.0 1.0
000150 00 00 80 3f 00 00 80 3f 00 00 80 3f 00 00 80 3f
       1.0 1.0 1.0 1.0
000160 00 00 80 3f 00 00 80 3f 00 00 80 3f 00 00 80 3f
       1.0 1.0 1.0 1.0
000170 00 00 80 3f 00 00 80 3f 00 00 80 3f 00 00 80 3f
       1.0 1.0 1.0 1.0
000180 00 00 80 3f 00 00 80 3f 00 00 80 3f 00 00 80 3f
       1.0 1.0 1.0 1.0
000190 00 00 80 3f 00 00 80 3f 00 00 80 3f 00 00 80 3f
       1.0 1.0 1.0 1.0
0001a0 00 00 80 3f 00 00 80 3f 00 00 80 3f 00 00 80 3f
       1.0 1.0 1.0 1.0
0001b0 00 00 80 3f 00 00 80 3f 00 00 80 3f 00 00 80 3f
       1.0 1.0 1.0 1.0
0001c0 00 00 80 3f 00 00 80 3f 00 00 80 3f 00 00 80 3f
       1.0 1.0 1.0 1.0
0001d0 00 00 80 3f 00 00 80 3f 00 00 80 3f 00 00 80 3f
       1.0 1.0 1.0 1.0
0001e0 00 00 80 3f 00 00 80 3f 00 00 80 3f 00 00 80 3f
       1.0 1.0 1.0 1.0
0001f0 00 00 80 3f 00 00 80 3f 00 00 80 3f 00 00 80 3f
       1.0 1.0 1.0 1.0
000200 00 00 80 3f 00 00 80 3f 00 00 80 3f 00 00 80 3f
       1.0 1.0 1.0 1.0
000210 00 00 80 3f 00 00 80 3f 00 00 80 3f 00 00 80 3f
       1.0 1.0 1.0 1.0
000220 00 00 80 3f 00 00 80 3f 00 00 80 3f 00 00 80 3f
       1.0 1.0 1.0 1.0
000230 00 00 80 3f 00 00 80 3f 00 00 80 3f 00 00 80 3f
       1.0 1.0 1.0 1.0
000240 00 00 80 3f 00 00 80 3f 00 00 80 3f 00 00 80 3f
       1.0 1.0 1.0 1.0
000250 00 00 80 3f 00 00 80 3f 00 00 80 3f 00 00 80 3f
       1.0 1.0 1.0 1.0
000260 00 00 80 3f 00 00 80 3f 00 00 80 3f 00 00 80 3f
       1.0 1.0 1.0 1.0
000270 00 00 80 3f 00 00 80 3f 00 00 80 3f 00 00 80 3f
       1.0 1.0 1.0 1.0
000280 00 00 80 3f 00 00 80 3f 00 00 80 3f 00 00 80 3f
       1.0 1.0 1.0 1.0
000290 00 00 80 3f 00 00 80 3f 00 00 80 3f 00 00 80 3f
       1.0 1.0 1.0 1.0
0002a0 00 00 80 3f 00 00 80 3f 00 00 80 3f 00 00 80 3f
       1.0 1.0 1.0 1.0
0002b0 00 00 80 3f 00 00 80 3f 00 00 80 3f 00 00 80 3f
       1.0 1.0 1.0 1.0
0002c0 00 00 80 3f 00 00 80 3f 00 00 80 3f 00 00 80 3f
       1.0 1.0 1.0 1.0
0002d0 00 00 80 3f 00 00 80 3f 00 00 80 3f 00 00 80 3f
       1.0 1.0 1.0 1.0
0002e0 00 00 80 3f 00 00 80 3f
       1.0 1.0

d f4 [558]
000000 b2 26 93 3a 3e 46 43 3b 01 c5 dc 39 74 8a de 3a
       0.0011226742 0.0029796506 0.0004210845 0.0016978518
000010 90 0f b1 3a 44 72 21 3b 25 c8 19 3b c1 2c 59 3b
       0.0013508666 0.0024634758 0.0023465243 0.0033138248
000020 45 07 08 3b f6 b1 5c 3b 1a b7 d5 3a 13 f8 05 3b
       0.0020756286 0.003367541 0.0016305179 0.0020442053
000030 91 ea 94 3a 71 9a f9 39 1a 80 31 3a fd 7c f8 39
       0.001136141 0.0004760805 0.0006771103 0.0004739537
000040 e6 cd 31 3b a5 29 d2 39 f2 8a 98 39 cc ca bc 39
       0.0027130782 0.0004008535 0.00029095222 0.0003600925
000050 c2 a6 80 3b 4b 9c 33 3a 24 cc f9 3a 00 c0 f5 3a
       0.003926129 0.00068515976 0.0019058031 0.0018749237
000060 61 a4 9b 39 db 01 e2 3a 0b 78 8a 3b 01 0b f9 3a
       0.00029686376 0.0017242985 0.004225736 0.0019000472
000070 a4 34 03 3b 9d 63 fc 3a f2 f9 65 3b 6f 23 d1 3a
       0.002002039 0.0019255761 0.0035091606 0.0015955995
000080 c3 83 47 3a f0 4c c5 3a e1 a6 14 3b 23 ac 99 3a
       0.00076108816 0.0015052836 0.0022682475 0.0011724274
000090 5c 6b 81 3b df 26 8c 3a 10 73 a3 3a 6d 4e 10 3b
       0.003949566 0.0010692737 0.0012470204 0.0022019402
0000a0 23 8b dc 3a ab 72 9c 3a 1e 22 00 3b ff 26 e8 3a
       0.0016826134 0.0011936029 0.0019551585 0.0017711817
0000b0 de 30 0f 3a f2 86 e9 39 fc d7 f0 3a a6 98 1d 3a
       0.0005462299 0.00044541765 0.0018374915 0.0006011821
0000c0 4a d1 0c 3a 1f d9 20 3a e8 23 02 3a 7b c6 18 3a
       0.00053717627 0.0006135869 0.0004964457 0.0005827916
0000d0 55 0c 5c 3a 29 d5 38 3a 80 13 9b 3a 0d 21 90 3a
       0.00083941716 0.00070508063 0.0011831373 0.0010996178
0000e0 30 df 7d 3a dd 61 84 39 56 8f de 3a 2f 17 32 3a
       0.00096844416 0.00025249916 0.0016979973 0.0006793616
0000f0 a5 bf ac 3a 81 15 f2 39 17 a5 76 3a 5e cd c8 39
       0.0013179673 0.0004617386 0.00094087556 0.00038299983
000100 7d 49 10 3a e1 38 5c 3a e0 e5 be 3a 28 97 23 3a
       0.00055041147 0.00084008096 0.0014564358 0.00062404806
000110 6d 13 82 3a 00 40 3d 3a a3 f7 80 3a 21 fd 4b 3a
       0.0009924002 0.00072193146 0.0009839426 0.00077815546
000120 f3 83 71 3a 65 49 f5 3a ef 42 78 39 93 bb b9 3a
       0.00092130824 0.001871389 0.00023676058 0.0014170281
000130 e4 de d2 3a 4d 34 a3 3a f4 b6 53 3a 4d 16 8a 3a
       0.0016088155 0.00124515 0.00080762734 0.0010535211
000140 0c af a1 3a 54 5b e2 3a 81 43 d0 3a 19 47 c8 3a
       0.0012335493 0.001726965 0.0015889258 0.0015279978
000150 09 22 0e 3b bf 29 ce 3a b8 f1 19 3b 10 17 b7 3a
       0.0021687767 0.0015728994 0.0023490023 0.0013968665
000160 b8 73 40 3b b4 cf c0 3a a3 82 b3 3a 58 49 89 3b
       0.0029365849 0.0014710338 0.0013695549 0.0041896515
000170 3d c6 91 3b 88 56 04 3b 73 bd fc 3a 94 45 c7 3a
       0.0044486807 0.0020193178 0.0019282534 0.0015203231
000180 4f 54 a6 39 e3 12 88 3b cd 29 08 3a ea 54 ae 3a
       0.00031724802 0.004152642 0.0005194217 0.0013300453
000190 90 46 56 3a 9d 1e 80 3b d9 20 fd 39 02 cf f2 39
       0.0008173967 0.0039098994 0.00048280394 0.0004631207
0001a0 25 ca 89 3a 37 d3 48 3b 5e e6 13 3b 24 75 f1 3a
       0.0010512514 0.0030643472 0.002256773 0.0018421751
0001b0 92 34 13 3b c6 d3 74 3a c1 aa 21 3b e4 7a 12 3b
       0.0022461754 0.0009339418 0.0024668428 0.002235108
0001c0 f2 7e 08 3b d3 9e b9 3a dc 71 1f 3b 0b 98 c7 3a
       0.0020827618 0.0014161713 0.002432934 0.0015227807
0001d0 a2 66 3e 3a 2d 9b 5b 3a 1b b9 3f 3b b9 c1 be 3a
       0.0007263218 0.000837731 0.0029254619 0.0014553583
0001e0 13 5f 32 3b e9 18 90 3a 3d 7f 21 3b 23 7c 19 3b
       0.0027217313 0.0010993752 0.002464249 0.0023419939
0001f0 38 de 19 3b 75 ac 7e 3b be aa f2 3a ec da 01 3b
       0.00234784 0.0038860117 0.001851402 0.0019814325
000200 b8 21 18 3b db 57 6c 3b 48 79 d6 3a b1 23 2d 3a
       0.0023213457 0.0036063108 0.0016363049 0.00066047447
000210 82 82 e5 3a 2c 59 de 39 df cc 28 3a 1d 7b 5c 3a
       0.0017510208 0.00042409578 0.00064392196 0.00084106793
000220 1a 1d ee 3a 4f 48 82 3a 16 2f aa 3a 75 aa 0c 3a
       0.0018166632 0.0009939763 0.0012984003 0.0005365976
000230 72 4e 3f 3a 8b 43 19 3b cb be bc 3a d2 be 0c 3a
       0.0007297761 0.0023386206 0.0014400122 0.00053690106
000240 96 a0 1f 39 0b cf d6 3a 25 78 61 3a 51 46 88 3a
       0.00015223245 0.0016388608 0.0008600972 0.0010396932
000250 7b 9c 69 3a 56 e7 85 3a 6d 28 c2 3a b2 65 7f 3a
       0.0008911562 0.0010216038 0.0014813073 0.0009742632
000260 84 81 8f 39 5f 7b d9 3a 00 1d a7 3a 36 49 ab 39
       0.00027371582 0.0016592554 0.0012749732 0.00032670208
000270 a1 79 bc 3a eb 80 8c 3a be 7a e6 39 f6 65 ee 39
       0.001437951 0.0010719573 0.0004396047 0.00045470864
000280 83 a6 7f 39 69 49 0d 3b a9 37 8e 3a e2 ee 55 3b
       0.00024380726 0.0021558648 0.0010850328 0.0032643606
000290 d0 d8 15 3b f3 8d a0 3a 92 1d 5a 3b 8e 31 58 3a
       0.0022864826 0.0012249335 0.0033281785 0.00082471303
0002a0 49 78 f9 3a f4 82 a9 3a 46 70 1b 3a d6 50 ca 3a
       0.001903304 0.0012932704 0.0005929511 0.0015435468
0002b0 a0 ce 04 3b eb 6b ca 3a 1b 01 c1 3a 22 95 5d 3b
       0.002026476 0.0015443539 0.0014725061 0.0033810814
0002c0 dd c2 79 3a 7b 15 cf 3a f4 7b 4b 3a fa 6a 23 3b
       0.0009527633 0.0015799248 0.0007762306 0.002493559
0002d0 ab 34 17 3b e4 13 f2 3a 60 e3 c2 3a c0 ed 64 3a
       0.0023072164 0.0018469063 0.0014868788 0.0008732937
0002e0 6c ed 7f 39 62 5d 31 3a e5 89 82 bb d9 aa 3e bb
       0.00024407142 0.0006765929 -0.0039837235 -0.0029093532
0002f0 f9 ad be b9 ef 81 0b bb 8d bb 8c ba 18 7f 08 bb
       -0.00036369244 -0.0021287163 -0.0010737047 -0.0020827707
000300 64 7a 20 bb 99 82 3d bb 03 ef b6 ba 89 be 6e bb
       -0.0024487013 -0.0028916954 -0.0013956729 -0.0036429486
000310 2d cb fc ba e8 1f 07 bb c7 9a 9f ba 0d 60 aa 38
       -0.0019286625 -0.0020618383 -0.0012176865 8.1241225e-05
000320 86 1b 26 ba 4c d3 3a b9 e0 0e 24 bb da 7f 94 b9
       -0.0006336499 -0.00017817057 -0.002503328 -0.00028324017
000330 1e 33 f1 39 17 b1 a0 b9 5c fe 60 bb 3d 46 80 ba
       0.00046005187 -0.0003064952 -0.0034331298 -0.0009786558
000340 c1 7b f6 ba c1 94 d3 ba e4 35 de b9 af d7 b0 39
       -0.0018805192 -0.0016142355 -0.0004238329 0.00033730033
000350 e4 33 84 bb 9e b8 cd ba 38 3d d9 ba 3e 5b 25 bb
       -0.004034506 -0.0015695279 -0.0016574031 -0.0025231387
000360 3b 91 36 bb f3 17 0d bb 7e dc 52 ba 83 01 e9 ba
       -0.002785756 -0.0021529167 -0.000804372 -0.001777694
000370 e0 ee b8 ba aa 4f 77 ba 9d d1 84 bb f8 57 72 ba
       -0.0014109276 -0.0009434173 -0.004053308 -0.0009244676
000380 3e ab 8d ba 9f 68 3c bb 74 e1 e2 ba 78 ae d2 ba
       -0.001080848 -0.0028748882 -0.0017309622 -0.0016073724
000390 77 96 1c bb c3 46 19 bb e8 e3 2e b9 a2 b8 32 ba
       -0.0023893395 -0.0023388125 -0.00016678835 -0.00068176736
0003a0 0a 5e fc ba 76 b9 49 ba 03 23 05 ba 9b 6b 8c ba
       -0.00192541 -0.00076951773 -0.00050787645 -0.0010713221
0003b0 4f c9 73 ba fb b9 8d b9 a3 c9 62 ba c9 bc b3 b9
       -0.00092997117 -0.00027032182 -0.0008651262 -0.00034282196
0003c0 ad 50 08 bb d3 15 2e ba 76 26 91 ba c0 4f b9 b9
       -0.002080004 -0.00066408253 -0.0011074084 -0.00035345368
0003d0 17 fc 12 bb 2a 47 25 ba af 05 b5 ba eb 3a a0 b8
       -0.002242809 -0.0006304855 -0.0013810898 -7.640369e-05
0003e0 35 04 8b b8 57 03 8c b9 8f 1b 0b ba f7 1c 37 ba
       -6.62882e-05 -0.0002670537 -0.0005306536 -0.0006985212
0003f0 20 9e e0 ba f5 39 37 ba b9 ba 8a ba 96 78 46 ba
       -0.0017136969 -0.0006989532 -0.0010584212 -0.0007571069

old_dirs f4 [558]
000000 08 81 73 3b 98 d2 03 3c b8 8d 86 3a ec 2e 99 3b
       0.0037155766 0.008045815 0.0010265624 0.004674783
000010 10 a9 75 3b 08 d6 ed 3b 88 1e e5 3b 68 8a 25 3c
       0.0037484802 0.0072581805 0.006992165 0.010103799
000020 88 cd b8 3b 78 e8 23 3c 20 e3 a1 3b 98 3e c1 3b
       0.0056397356 0.010004155 0.0049404055 0.0058973543
000030 48 05 22 3b 18 89 b1 3a 08 40 ca 3a 24 86 89 3a
       0.0024722386 0.0013544885 0.001543046 0.0010492248
000040 00 91 ee 3b 00 c6 93 3a 08 78 3e 3a 58 80 96 3a
       0.007280469 0.0011274219 0.0007265811 0.0011482341
000050 50 52 2d 3c 00 23 ea 3a 88 b2 a6 3b a0 a2 ad 3b
       0.010578707 0.0017863214 0.0050872006 0.0052989274
000060 90 0b 6b 3a 38 e8 91 3b c0 97 49 3c 30 79 ba 3b
       0.00089662615 0.0044527315 0.012304246 0.005690716
000070 20 34 bd 3b c0 c0 bd 3b 70 e9 20 3c b8 50 97 3b
       0.005774036 0.0057908 0.009821281 0.0046177767
000080 3c 78 03 3b 68 6f 89 3b d0 28 c3 3b d8 59 5d 3b
       0.002006068 0.004194189 0.005955793 0.0033775475
000090 90 0e 3b 3c a0 f6 1f 3b f0 8a 72 3b 30 2d c0 3b
       0.011417046 0.0024408475 0.0037009083 0.005864762
0000a0 40 e1 b7 3b 28 84 47 3b a8 ec d9 3b e0 ea b0 3b
       0.0056115687 0.0030443761 0.006650526 0.005399093
0000b0 00 d9 f9 3a 98 c2 f2 3a 58 be bb 3b e0 0c ba 3a
       0.0019061863 0.0018521128 0.005729478 0.0014194511
0000c0 e8 49 ed 3a a0 31 dd 3a e8 4a c6 3a 80 45 ed 3a
       0.0018103691 0.0016875751 0.0015128525 0.0018102378
0000d0 98 e6 f7 3a b4 fb 03 3b a0 d6 4b 3b 48 a3 4e 3b
       0.0018913327 0.002013904 0.0031103268 0.0031530429
0000e0 e0 5d 11 3b 00 63 b2 3a 20 ba 9b 3b 98 f5 bb 3a
       0.0022181198 0.0013609827 0.0047524124 0.001434016
0000f0 a4 f5 81 3b b0 32 6b 3a 64 34 1d 3b b8 fd 4f 3a
       0.00396605 0.00089720916 0.0023987526 0.00079342304
000100 50 4b 8f 3a cc 6f 25 3b 3c 71 89 3b 90 d9 03 3b
       0.0010932479 0.0025243638 0.004194407 0.002011869
000110 60 90 19 3b a0 2e 09 3b 50 a3 2e 3b e8 a5 dc 3a
       0.0023432001 0.0020932332 0.0026647635 0.0016834112
000120 b0 79 32 3b 28 07 b1 3b f8 fe 5b 3a f0 ce 85 3b
       0.0027233176 0.0054024644 0.00083921803 0.0040835068
000130 78 62 96 3b 40 04 52 3b 34 bd 09 3b 70 61 6d 3b
       0.004589375 0.003204599 0.0021017315 0.0036221407
000140 c0 40 74 3b 98 dd 8d 3b 68 22 90 3b 58 fc 87 3b
       0.003727004 0.0043293945 0.004398633 0.0041499548
000150 30 a9 cb 3b b8 d7 99 3b 98 30 d5 3b 90 9f 77 3b
       0.006215237 0.004694905 0.006506037 0.0037784316
000160 dc 1a 0f 3c d8 df 81 3b 24 0b 85 3b 28 63 31 3c
       0.008734431 0.003963452 0.004060166 0.010826863
000170 68 d6 4c 3c 20 1b cb 3b 70 f7 b7 3b e0 8e 78 3b
       0.01250229 0.006198302 0.0056142136 0.0037926957
000180 b0 02 a9 3a e0 35 3d 3c 00 62 c3 3a 10 04 61 3b
       0.0012894478 0.011548489 0.0014906526 0.0034334697
000190 70 67 fe 3a 60 28 45 3c 88 b6 ed 3a 04 8c 8b 3a
       0.0019409489 0.012033552 0.0018136064 0.0010646586
0001a0 00 47 61 3b c4 de 04 3c 50 ff c4 3b d0 49 bf 3b
       0.0034374595 0.008109752 0.006011881 0.0058376566
0001b0 40 d6 c1 3b d0 2a 39 3b 00 a4 e6 3b 90 4a e2 3b
       0.005915433 0.0028254278 0.0070385933 0.006905861
0001c0 90 0c b1 3b 60 0a 8d 3b 30 cd fa 3b b8 a0 73 3b
       0.005403109 0.0043042153 0.007653855 0.0037174653
0001d0 20 85 13 3b 44 9b 06 3b e8 67 03 3c 00 ad a3 3b
       0.0022509769 0.0020539323 0.008020379 0.0049949884
0001e0 20 20 fb 3b a8 d4 54 3b 98 f1 e9 3b e0 8a da 3b
       0.0076637417 0.0032475386 0.007139396 0.006669387
0001f0 50 76 e3 3b c0 16 1e 3c f8 69 bd 3b c0 5c c4 3b
       0.006941594 0.009648979 0.0057804547 0.005992502
000200 48 c7 f3 3b 78 ca 2b 3c 38 ea 95 3b 68 70 92 3a
       0.0074395277 0.010485284 0.00457504 0.0011172416
000210 18 61 b3 3b f8 23 80 3a 08 e9 02 3b 48 2a 2f 3b
       0.005474221 0.0009776345 0.0019975323 0.0026728082
000220 e8 4a ad 3b 38 73 3b 3b 4c cc 88 3b e4 5d 02 3b
       0.0052884705 0.0028602611 0.0041747447 0.001989239
000230 74 e8 22 3b a8 90 dd 3b a8 e2 91 3b 94 ed 94 3a
       0.002485779 0.006761629 0.0044520684 0.0011362308
000240 10 87 92 3a 94 62 91 3b 90 56 27 3b 68 39 75 3b
       0.0011179168 0.0044368003 0.0025533773 0.003741825
000250 20 3e 33 3b c8 a9 49 3b 48 0a 8a 3b c0 6d 31 3b
       0.0027350262 0.0030771364 0.0042126514 0.0027073473
000260 68 56 bd 39 28 fe b7 3b d8 d6 8f 3b b8 48 71 3a
       0.00036113267 0.0056150146 0.004389625 0.00092042563
000270 88 de 85 3b c8 10 4a 3b b8 df 73 3a 88 74 a1 3a
       0.0040853657 0.0030832756 0.0009303051 0.0012318054
000280 70 7b df 39 38 90 d0 3b 58 32 61 3b 64 ee 1e 3c
       0.00042625843 0.0063648485 0.0034362283 0.009700391
000290 50 53 e7 3b b0 e2 83 3b 10 6d 2f 3c 00 a4 39 3b
       0.007059492 0.004024826 0.010707155 0.0028326511
0002a0 b8 6a bf 3b 04 8b 80 3b f0 26 af 3a ec b5 8a 3b
       0.0058415793 0.003922822 0.0013363045 0.0042331126
0002b0 40 2e b2 3b e8 e3 8d 3b b8 be 9a 3b 58 f5 18 3c
       0.0054376423 0.004330147 0.0047224425 0.009335838
0002c0 f0 af 2e 3b d0 3b 95 3b 10 3b 37 3b 60 79 ce 3b
       0.002665516 0.0045542493 0.0027958788 0.00630109
0002d0 80 7e d0 3b c4 4d 9e 3b 0c 70 95 3b 38 70 21 3b
       0.006362736 0.0048310477 0.004560476 0.0024633538
0002e0 f8 08 28 3a 10 de c1 3a d8 8c f8 3a 4c a0 82 3b
       0.0006410028 0.0014790911 0.0018962873 0.003986394
0002f0 cc 29 07 3a 60 9c 18 3b 00 8f f1 3a e8 52 68 3b
       0.00051560695 0.0023286566 0.0018429458 0.0035449807
000300 68 cd 5c 3b 80 c0 a8 3b e8 9e 3b 3b f4 5c a6 3b
       0.0033691768 0.005149901 0.002862865 0.005076999
000310 28 e1 23 3b 58 4a 3f 3b 58 ea 9e 3a 70 0c 34 3a
       0.002500603 0.00291886 0.0012124283 0.00068683084
000320 38 b1 49 3a 84 6d 0a 3a b8 07 71 3b 34 0a 17 3a
       0.0007693949 0.00052806013 0.0036778282 0.0005761713
000330 f8 a0 bc 39 00 00 17 3a b0 97 b0 3b 80 72 72 3a
       0.00035978085 0.0005760193 0.0053891763 0.0009248629
000340 1c dc 25 3b 28 7d 31 3b 68 58 f8 39 a8 7a 18 3b
       0.0025308197 0.0027082656 0.00047368114 0.0023266468
000350 58 f1 ca 3b 28 41 3a 3b e8 77 3a 3b 28 ad 39 3b
       0.006193321 0.0028420184 0.0028452817 0.002833197
000360 b0 fa a1 3b 7c ec 17 3b f4 f2 81 3a e8 2c 0b 3b
       0.0049432144 0.0023181727 0.0009914325 0.0021236483
000370 20 0c 45 3b 60 e1 db 3a a8 c9 ba 3b 30 a6 a2 3a
       0.0030067042 0.0016775541 0.005700309 0.0012409147
000380 00 a9 f3 3a 60 43 45 3b c0 93 38 3b 30 61 c3 3a
       0.0018589795 0.0030099973 0.0028164238 0.0014906283
000390 28 ca 59 3b 68 03 30 3b 88 dc 7e 3a 10 c5 72 3a
       0.0033232067 0.00268575 0.0009722193 0.0009260932
0003a0 d0 ed 3a 3b 10 83 31 3a f0 a4 6c 3a 58 c4 5a 3a
       0.0028523095 0.0006771544 0.0009027263 0.00083452975
0003b0 38 f7 47 3a 10 1e 6e 3a 90 16 7c 3a 6c 19 89 3a
       0.0007628086 0.0009083459 0.0009616399 0.0010459847
0003c0 40 f4 d5 3a 70 c9 ce 3a e8 b7 8d 3a d0 2d 31 3a
       0.0016323403 0.0015776586 0.0010812255 0.0006758841
0003d0 20 8c 19 3b 10 6b 3a 3a 88 89 02 3b 30 57 eb 39
       0.0023429468 0.00071112905 0.00199184 0.00044887653
0003e0 20 2b 9f 3a 28 61 d4 39 20 2d 11 3a 98 1f a7 3a
       0.001214359 0.00040508178 0.0005538035 0.0012750505
0003f0 5c 2b 07 3b d0 0d 81 3a 1c cf 98 3a b8 2a 8a 3a
       0.002062521 0.0009846035 0.0011658403 0.0010541296

old_dirs f4 [558]
000000 38 00 b4 3c d7 e4 42 3d 1a f0 c6 3b 6c 7a e2 3c
       0.02197276 0.04758152 0.006071103 0.027646266
000010 70 94 b5 3c 30 c9 2f 3d cc 4a 29 3d b7 b9 74 3d
       0.022165507 0.042916477 0.041331097 0.059747424
000020 b7 9b 08 3d 54 53 72 3d be 55 ef 3c 86 d9 0e 3d
       0.033351626 0.0591615 0.02921569 0.034875415
000030 db 8b 6f 3c 8b 3f 03 3c 1a 83 15 3c 26 55 cb 3b
       0.0146207465 0.008010755 0.009125495 0.006205219
000040 fd 5a 30 3d d9 76 da 3b 59 cd 8c 3b 42 85 de 3b
       0.043055523 0.006667 0.0042969403 0.006790788
000050 e0 1c 80 3d d5 04 2d 3c 89 75 f6 3c 20 57 00 3d
       0.062555075 0.010560234 0.030085342 0.03133309
000060 aa 99 ad 3b 25 a6 d7 3c bd 06 95 3d a1 d9 09 3d
       0.005297859 0.026324341 0.07276676 0.033654813
000070 7e dc 0b 3d d3 41 0c 3d 71 e7 6d 3d 73 b8 df 3c
       0.034145825 0.034242462 0.058082048 0.027309632
000080 8f 5d 42 3c 68 2f cb 3c 34 45 10 3d 13 a1 a3 3c
       0.011863126 0.024802878 0.035222247 0.019974267
000090 0f 48 8a 3d 6f 7c 6c 3c 44 4c b3 3c 85 09 0e 3d
       0.06752025 0.014433964 0.021886952 0.034677047
0000a0 c1 ee 07 3d 6f 7a 93 3c b5 19 21 3d bf c8 02 3d
       0.033186678 0.018002717 0.039331157 0.031929728
0000b0 7a b0 38 3c e6 75 33 3c ab c9 0a 3d 27 7b 09 3c
       0.011272544 0.010953402 0.03388373 0.008391178
0000c0 3e 6a 2f 3c 4a 82 23 3c d1 96 12 3c e4 67 2f 3c
       0.010706482 0.009979794 0.00894709 0.010705922
0000d0 95 43 37 3c 82 14 43 3c ec 93 96 3c be c1 98 3c
       0.011185546 0.011906745 0.018381082 0.018647071
0000e0 25 dc 56 3c 10 de 03 3c ed 3b e6 3c 19 f2 0a 3c
       0.01311401 0.008048549 0.028104747 0.008480572
0000f0 f4 24 c0 3c eb de ad 3b 48 70 68 3c b3 bd 99 3b
       0.02345512 0.005306115 0.014186926 0.0046918034
000100 f8 da d3 3b 22 98 74 3c ca 31 cb 3c ac e9 42 3c
       0.006465312 0.014928849 0.024804015 0.011896532
000110 b4 0a 63 3c a4 d1 4a 3c cd 18 81 3c 1f 15 23 3c
       0.013857532 0.012379084 0.015758896 0.009953766
000120 c8 e9 83 3c 39 d8 02 3d 74 9e a2 3b 73 d4 c5 3c
       0.016102687 0.031944487 0.0049627367 0.024149155
000130 e5 57 de 3c 76 3c 9b 3c a2 a0 4b 3c 9b 7b af 3c
       0.02714152 0.018949728 0.012428435 0.021421244
000140 31 8f b4 3c f3 bc d1 3c 0b 0c d5 3c f9 0d c9 3c
       0.022040935 0.025602793 0.02600672 0.024542795
000150 21 85 16 3d ab 6d e3 3c 12 99 1d 3d 53 0c b7 3c
       0.036748055 0.027762255 0.038476057 0.022344744
000160 46 94 53 3d 76 fd bf 3c 66 b3 c4 3c 43 19 83 3d
       0.051655076 0.02343629 0.024011325 0.06401303
000170 60 64 97 3d ea 24 16 3d 25 ff 07 3d ec be b7 3c
       0.07392192 0.036656298 0.03320231 0.022429906
000180 b1 e2 f9 3b 83 d5 8b 3d 79 6f 10 3c ca 57 a6 3c
       0.0076259007 0.068278335 0.00881564 0.020305533
000190 63 0d 3c 3c 51 bf 91 3d c2 b2 2f 3c d1 52 ce 3b
       0.011477801 0.07116569 0.0107237715 0.0062964936
0001a0 9c 84 a6 3c 9b 6c 44 3d 29 a1 11 3d 08 65 0d 3d
       0.020326905 0.047955137 0.035554085 0.03452018
0001b0 bb 4a 0f 3d 66 e2 88 3c ce 7a 2a 3d 8d 48 27 3d
       0.034983378 0.016709518 0.041621022 0.040840674
0001c0 b3 dd 02 3d 4a 84 d0 3c a5 67 39 3d 14 00 b4 3c
       0.03194971 0.025453705 0.04526486 0.021972694
0001d0 58 12 5a 3c 9f 00 47 3c 90 48 42 3d 0e f9 f1 3c
       0.013310038 0.012146144 0.047432482 0.029537704
0001e0 0b a5 39 3d 86 53 9d 3c d5 e6 2c 3d 49 87 21 3d
       0.045323413 0.019204866 0.042212326 0.03943566
0001f0 50 24 28 3d 10 aa 69 3d ab 03 0c 3d 99 28 11 3d
       0.041050255 0.05704695 0.034183186 0.035439108
000200 6b 2a 34 3d 8e fb 7d 3d 21 a3 dd 3c 4b 4e d8 3b
       0.043985765 0.06200748 0.027055325 0.00660113
000210 be 99 04 3d fe 6f bd 3b 02 8d 41 3c 29 7d 81 3c
       0.032373182 0.005781173 0.011813404 0.015806751
000220 4b 1b 00 3d f7 8b 8a 3c 97 39 ca 3c 8e ab 40 3c
       0.03127603 0.016912444 0.024685664 0.011759652
000230 3b cf 70 3c 6c b7 23 3d 23 b0 d7 3c ff 31 dc 3b
       0.014697845 0.039969847 0.026329106 0.006719827
000240 4b 9d d8 3b c0 f3 d6 3c 13 69 77 3c 05 44 b5 3c
       0.0066105477 0.026239276 0.015100735 0.02212716
000250 5a 7f 84 3c 25 0e 95 3c 98 17 cc 3c b6 27 83 3c
       0.016174007 0.018195221 0.024913594 0.016010147
000260 9b f4 0b 3b e8 03 08 3d fa 9e d4 3c 7c 5d b2 3b
       0.0021355513 0.03320685 0.025954712 0.005443273
000270 41 c5 c5 3c 7b 52 95 3c 95 48 b4 3b 8a a9 ee 3b
       0.02414191 0.018227806 0.0055018165 0.007283394
000280 fa 29 25 3b df 22 1a 3d 9d 79 a6 3c c5 f5 6a 3d
       0.0025202022 0.037630912 0.020321662 0.05736329
000290 d1 f3 2a 3d 0f e0 c2 3c cc a6 81 3d 65 38 89 3c
       0.041736428 0.02378848 0.06330642 0.016750524
0002a0 b2 68 0d 3d cc 0b be 3c 32 77 01 3c 5e 15 cd 3c
       0.034523673 0.023198985 0.0079019535 0.025034603
0002b0 00 b3 03 3d 87 bc d1 3c fa bc e4 3c 9b 18 62 3d
       0.03215313 0.025602592 0.027922142 0.055199247
0002c0 62 23 81 3c b3 9b dc 3c 2d 6c 87 3c 03 a0 18 3d
       0.015763942 0.026929712 0.016531074 0.037261974
0002d0 c8 15 1a 3d 6c 08 ea 3c 83 f0 dc 3c ce ae 6e 3c
       0.03761843 0.028568469 0.026970154 0.014568044
0002e0 81 71 78 3b f7 4f 0f 3c cb 2d 3a 3c 3e 05 c1 3c
       0.003790945 0.008747092 0.011363457 0.02356207
0002f0 1e f3 48 3b f4 c8 62 3c 89 b7 33 3c c3 c8 ab 3c
       0.0030662487 0.013841856 0.010969051 0.020969754
000300 bd 9c a3 3c d6 36 fa 3c eb 55 8b 3c 34 00 f7 3c
       0.0199722 0.030543726 0.017008742 0.030151464
000310 13 6d 71 3c 51 b8 8d 3c be 2a e6 3b 16 1c 88 3b
       0.014735478 0.017299803 0.0070241382 0.0041537387
000320 54 c8 95 3b 56 d3 4f 3b 9e 94 b2 3c 2f bc 61 3b
       0.004571 0.003171166 0.021799382 0.0034444442
000330 66 91 0a 3b fb 1b 64 3b 7d 95 02 3d fe d5 b3 3b
       0.0021143793 0.0034806717 0.031880844 0.0054881563
000340 52 97 75 3c 7a 6a 83 3c 3f 3c 39 3b dc 60 66 3c
       0.014989691 0.016041983 0.002826467 0.014061179
000350 6b 8d 16 3d 40 1e 8a 3c 09 27 89 3c 03 85 88 3c
       0.03675596 0.016860127 0.016742246 0.016664987
000360 34 35 ef 3c 16 47 62 3c 94 d2 c0 3b 7c 41 4d 3c
       0.029200174 0.0138108935 0.005884478 0.01252782
000370 99 bc 92 3c 24 4f 23 3c 9a 5c 0a 3d c4 e1 f0 3b
       0.017912196 0.009967599 0.033779718 0.007351132
000380 33 f9 33 3c 8d 41 92 3c 8b 7b 88 3c 3c 2e 0f 3c
       0.010984707 0.017853523 0.016660472 0.0087390505
000390 a2 18 a2 3c 18 9a 82 3c 48 91 be 3b 35 1e b1 3b
       0.019787136 0.015942618 0.0058156587 0.0054052123
0003a0 13 81 8a 3c b2 43 80 3b a6 eb ae 3b 24 1b a2 3b
       0.01690725 0.00391432 0.00533815 0.004947083
0003b0 76 93 95 3b ca 78 b3 3b a7 21 be 3b 2c f6 cd 3b
       0.004564698 0.0054770457 0.0058023515 0.0062854495
0003c0 83 22 1f 3c 1b 65 17 3c b7 61 d3 3b 6e 09 84 3b
       0.009712818 0.009240414 0.0064508575 0.0040294444
0003d0 c9 56 61 3c 42 aa 89 3b 80 64 41 3c eb 49 32 3b
       0.013753601 0.0042012045 0.011803746 0.0027204703
0003e0 81 29 f1 3b 8f f2 1d 3b 77 5f 58 3b f6 6c f8 3b
       0.007359684 0.0024100875 0.0033015886 0.0075813485
0003f0 97 b0 46 3c 4b 3a be 3b 89 f5 e1 3b 7c 95 cb 3b
       0.012127063 0.005805289 0.006895725 0.0062128883

old_dirs f4 [558]
000000 00 9d e3 36 90 ac 86 37 c0 a1 0a 36 80 85 23 37
       6.7834044e-06 1.60544e-05 2.0657753e-06 9.74664e-06
000010 a0 2c 0e 37 00 1f 76 37 e0 5e 80 37 40 a9 a2 37
       8.47425e-06 1.466996e-05 1.5302969e-05 1.9390718e-05
000020 c0 43 35 37 c0 05 a1 37 e0 e0 2d 37 40 77 4a 37
       1.0804215e-05 1.9195373e-05 1.0363961e-05 1.2067903e-05
000030 00 dd a5 36 00 16 54 36 80 95 55 36 a0 ed 1d 36
       4.943111e-06 3.1603267e-06 3.1826494e-06 2.353314e-06
000040 20 d7 70 37 c8 92 07 36 10 29 bf 35 00 0b 4f 36
       1.4355202e-05 2.0202006e-06 1.424256e-06 3.0851807e-06
000050 fa da b0 37 30 3a 56 36 80 39 2c 37 c0 44 2c 37
       2.1082804e-05 3.1922355e-06 1.0265387e-05 1.0268006e-05
000060 00 08 8b 35 00 68 a4 36 80 19 cd 37 80 64 41 37
       1.0358635e-06 4.899688e-06 2.4449779e-05 1.1527096e-05
000070 c0 e6 39 37 80 71 33 37 80 50 a6 37 00 9d 1e 37
       1.1080585e-05 1.0695658e-05 1.9826228e-05 9.454088e-06
000080 e0 70 8d 36 f0 4d 11 37 00 92 45 37 00 69 ed 36
       4.215268e-06 8.66082e-06 1.1776108e-05 7.075374e-06
000090 78 f3 c0 37 c0 30 a0 36 00 49 fa 36 c0 2f 38 37
       2.3001558e-05 4.774047e-06 7.459079e-06 1.0978372e-05
0000a0 80 64 3c 37 00 69 b9 36 80 f5 68 37 80 74 3a 37
       1.1229073e-05 5.5256533e-06 1.38854375e-05 1.1113589e-05
0000b0 00 d6 69 36 80 01 8e 36 50 0d 43 37 00 0c c9 35
       3.484427e-06 4.2321044e-06 1.1626005e-05 1.497916e-06
0000c0 80 58 73 36 80 06 69 36 80 be 52 36 00 69 9a 36
       3.6261335e-06 3.472349e-06 3.1403324e-06 4.6017813e-06
0000d0 00 64 86 36 00 dc 36 36 80 0a 99 36 00 1f e5 36
       4.0051527e-06 2.724817e-06 4.5609777e-06 6.8283407e-06
0000e0 00 ba bc 36 80 29 4a 36 c0 31 18 37 70 92 3f 36
       5.62449e-06 3.0124502e-06 9.071489e-06 2.8546456e-06
0000f0 f0 e0 04 37 00 01 36 36 00 9b cb 36 00 66 c4 35
       7.920185e-06 2.7120695e-06 6.067916e-06 1.4632824e-06
000100 00 04 0e 36 00 ee a5 36 80 5c 05 37 00 a3 80 36
       2.1161977e-06 4.94509e-06 7.948955e-06 3.833673e-06
000110 00 ac 9d 36 80 ca 90 36 60 80 ae 36 80 9a 5b 36
       4.698988e-06 4.3151085e-06 5.200549e-06 3.2723474e-06
000120 40 65 a0 36 00 ad 44 37 80 15 d7 35 00 76 07 37
       4.7801586e-06 1.172279e-05 1.6025006e-06 8.074101e-06
000130 8c 28 1a 37 30 53 db 36 00 dc 74 36 e8 8d f3 36
       9.188556e-06 6.536393e-06 3.648689e-06 7.2584844e-06
000140 70 c4 f9 36 80 eb 11 37 a0 ae 20 37 cc 8c 0d 37
       7.4436466e-06 8.697505e-06 9.577401e-06 8.437037e-06
000150 40 a0 68 37 10 5f 27 37 20 ed 5d 37 60 36 00 37
       1.3865589e-05 9.976109e-06 1.32278365e-05 7.642055e-06
000160 5c 7f 92 37 88 c6 08 37 00 41 09 37 e8 85 b7 37
       1.7463863e-05 8.152456e-06 8.18097e-06 2.1877655e-05
000170 a0 5e d3 37 80 ce 4d 37 80 4d 3c 37 80 c1 07 37
       2.5197223e-05 1.2267032e-05 1.1223718e-05 8.09168e-06
000180 00 06 37 36 80 5a bb 37 40 a9 45 36 80 fc e8 36
       2.7272617e-06 2.233428e-05 2.9453804e-06 6.9435337e-06
000190 00 3a 69 36 c0 c3 cc 37 00 ba 59 36 80 85 20 36
       3.4753466e-06 2.4409848e-05 3.2443786e-06 2.3919565e-06
0001a0 80 15 e2 36 80 1c 80 37 a8 a7 49 37 40 99 41 37
       6.737828e-06 1.527206e-05 1.2019569e-05 1.1539378e-05
0001b0 c0 d3 49 37 40 3d bd 36 40 a4 6b 37 40 48 6a 37
       1.20298355e-05 5.6397694e-06 1.4045334e-05 1.3964309e-05
0001c0 e0 ce 2c 37 40 f4 18 37 90 b3 80 37 80 79 e2 36
       1.0300166e-05 9.116775e-06 1.5342404e-05 6.7494693e-06
0001d0 c0 71 96 36 40 a1 91 36 d0 e2 86 37 40 40 33 37
       4.4835906e-06 4.3401087e-06 1.6079663e-05 1.0684191e-05
0001e0 80 a1 80 37 20 e1 d4 36 c0 e9 88 37 00 bd 4e 37
       1.5333993e-05 6.3443003e-06 1.6321312e-05 1.2322562e-05
0001f0 50 da 67 37 80 e6 9f 37 c0 d7 47 37 24 31 48 37
       1.3819503e-05 1.9061612e-05 1.19115575e-05 1.193237e-05
000200 40 a1 79 37 60 34 ad 37 40 e6 1a 37 c0 ca 26 36
       1.48791005e-05 2.0647596e-05 9.232725e-06 2.4853944e-06
000210 a0 60 35 37 00 fa f0 35 00 3f 86 36 00 40 b4 36
       1.0810938e-05 1.7954153e-06 4.0008454e-06 5.3718686e-06
000220 00 ad 31 37 00 06 a4 36 00 5b 09 37 00 f5 86 36
       1.0590302e-05 4.8882794e-06 8.187024e-06 4.022033e-06
000230 80 78 9e 36 80 88 4e 37 c0 2e 13 37 00 71 38 36
       4.722795e-06 1.2310338e-05 8.772768e-06 2.7483911e-06
000240 00 f2 e5 35 80 0f 18 37 80 d0 ae 36 c0 cf f6 36
       1.7132261e-06 9.063515e-06 5.2098767e-06 7.3555566e-06
000250 80 29 d8 36 18 07 ce 36 00 ce 2a 37 00 f2 a6 36
       6.442133e-06 6.1401042e-06 1.0180753e-05 4.975358e-06
000260 00 ca 20 35 c0 c0 3c 37 20 bc 0d 37 00 84 f0 35
       5.9898593e-07 1.1250551e-05 8.448056e-06 1.791981e-06
000270 00 14 54 37 80 31 02 37 60 2e fa 35 e0 02 21 36
       1.2640841e-05 7.760129e-06 1.8639948e-06 2.3992543e-06
000280 80 8d 8d 35 5c 33 5f 37 c0 e5 ea 36 58 12 a2 37
       1.05465e-06 1.3303794e-05 7.00049e-06 1.9320447e-05
000290 50 3d 5f 37 f8 3c 05 37 94 85 b4 37 c0 61 be 36
       1.3306111e-05 7.941613e-06 2.1519874e-05 5.673821e-06
0002a0 c0 07 f3 36 80 5d fb 36 00 a2 3d 36 00 a2 0e 37
       7.2428666e-06 7.4912678e-06 2.825749e-06 8.501578e-06
0002b0 90 3e 44 37 d0 47 21 37 e0 6a 24 37 40 bc a1 37
       1.1697077e-05 9.613068e-06 9.8000455e-06 1.9280356e-05
0002c0 40 5e ce 36 dc 30 20 37 f0 ff de 36 50 19 55 37
       6.1502506e-06 9.548119e-06 6.6459106e-06 1.2701683e-05
0002d0 a0 60 47 37 b8 bf 24 37 b6 ba 18 37 40 3d a0 36
       1.1883822e-05 9.8198e-06 9.103378e-06 4.775502e-06
0002e0 00 15 dd 35 20 c9 58 36 18 cc 0f 39 e0 55 63 b6
       1.6471895e-06 3.2303578e-06 0.00013713574 -3.3875622e-06
0002f0 b4 16 87 37 60 f9 8d 38 38 62 8d 38 3c f3 7b 37
       1.6103826e-05 6.769854e-05 6.7416986e-05 1.5017398e-05
000300 d0 a3 72 38 38 0d bd 38 30 d7 9d 38 0c 88 01 39
       5.784986e-05 9.0146845e-05 7.526425e-05 0.0001235308
000310 f8 b0 2c b8 c0 33 28 38 f8 f3 05 b9 18 e9 ad 38
       -4.117281e-05 4.0102517e-05 -0.00012774754 8.2927e-05
000320 00 e2 a8 37 60 7c 38 38 b0 97 55 38 88 94 0f 38
       2.01324e-05 4.398485e-05 5.0924427e-05 3.4232187e-05
000330 78 b7 38 b7 70 8c 8d 38 4a c5 ba 37 08 7d a8 37
       -1.1009972e-05 6.7495625e-05 2.2264798e-05 2.0085383e-05
000340 90 ca d3 37 b0 27 fb 37 10 59 d3 37 58 dd 8f 39
       2.5247486e-05 2.9940013e-05 2.5194633e-05 0.0002744
000350 3c 53 05 39 e0 2b 5b 38 20 52 91 b8 b8 04 9a b8
       0.00012714876 5.225453e-05 -6.929436e-05 -7.344171e-05
000360 f0 c4 a7 b7 88 3d c7 38 a8 03 b1 37 e0 b2 bf b7
       -1.9999658e-05 9.5005205e-05 2.1101747e-05 -2.285227e-05
000370 dc 1f 00 39 30 08 3d 38 3c 86 97 38 30 70 69 37
       0.000122189 4.5068737e-05 7.225244e-05 1.3914003e-05
000380 70 8b 95 b6 28 2b 67 38 6a 32 1d 37 58 02 87 b8
       -4.4567787e-06 5.5114884e-05 9.369667e-06 -6.437738e-05
000390 64 4e 04 39 b0 65 75 38 f8 6a 7e 38 18 71 81 b8
       0.00012617704 5.8507256e-05 6.065794e-05 -6.172265e-05
0003a0 30 83 29 38 50 2c a3 b8 70 7e b0 35 f8 f0 4c 37
       4.0414918e-05 -7.7806995e-05 1.314982e-06 1.2215452e-05
0003b0 b8 6c 4c 38 60 ca c7 38 e0 6c db 38 e8 12 bf 38
       4.8738642e-05 9.526755e-05 0.00010463013 9.111111e-05
0003c0 dc 0a 81 38 f0 fd a0 b8 e8 0b 66 38 c0 2b ff 37
       6.153222e-05 -7.676694e-05 5.484736e-05 3.0418742e-05
0003d0 c0 a6 b4 b8 10 61 21 b6 d8 40 d5 37 50 ad 7a 38
       -8.6141285e-05 -2.4047367e-06 2.5421774e-05 5.9766055e-05
0003e0 58 3a 28 39 b8 fa 66 37 d8 e8 ce 37 20 a4 22 38
       0.00016043463 1.3767443e-05 2.466554e-05 3.8776663e-05
0003f0 c0 57 73 b8 40 04 5c b7 12 4b 59 36 48 62 8b b7
       -5.801744e-05 -1.3114011e-05 3.2379216e-06 -1.6615857e-05
