checkpoints/version129/model.pt (torch, 34217 bytes, 14 tensors)

bias f4 [175]
000000 5e 8d f1 3f 8d 41 00 40 0f 6a 5c bf 29 0a 21 40
       1.8871267 2.004001 -0.8609933 2.5162451
000010 4c 69 e7 be 59 ad ff 3f 3f 00 c8 3f 03 40 34 40
       -0.45197523 1.9974777 1.5625075 2.816407
000020 7f 27 c5 3f 93 de 31 40 88 77 99 3f 1a f7 d2 3f
       1.5402678 2.7792099 1.1989603 1.648166
000030 27 04 97 bf f2 45 83 be 09 c0 de bc 78 6d be 3f
       -1.1798142 -0.25639302 -0.027191179 1.4877157
000040 d4 1a 7c bd fb 9d 54 3e 0c 06 58 bd b1 17 3f 40
       -0.061549023 0.2076339 -0.05274014 2.985821
000050 d4 bf 85 3f 79 3a 03 40 f8 27 d9 3f fd cf 14 bf
       1.0449166 2.050444 1.6965322 -0.58129865
000060 3a 54 29 c0 7b ae 85 40 dd 41 06 3f ea 4b f0 3f
       -2.6457658 4.177549 0.5244425 1.8773167
000070 d1 7e ad 3f 54 8b 0c 40 13 73 90 3f b9 fb 2e bf
       1.3554326 2.196004 1.1285118 -0.6835285
000080 64 b8 4b 3f 30 16 eb 3e cd ed 7a 3f 05 e4 68 40
       0.7957823 0.45915365 0.98019105 3.6389172
000090 d9 61 ce 3f 26 b9 8d 3f 35 5f be 3f a2 85 be 3f
       1.6123611 1.1072128 1.4872805 1.4884531
0000a0 ce a0 d6 3f 45 48 cf 3f 87 72 b1 3e a9 ab 11 be
       1.6767824 1.619393 0.3465769 -0.1422564
0000b0 e3 f7 7d 3f f7 04 83 be 75 07 09 3f 8a fe 7f be
       0.9920637 -0.25589725 0.53527004 -0.24999443
0000c0 0c 98 47 3e c5 10 5c 3e a9 cc 8a bf ae be 98 bf
       0.19491595 0.21490772 -1.0843707 -1.1933191
0000d0 99 2b 67 3f e9 e6 07 3f 4b b3 39 3f 35 65 80 3e
       0.903009 0.53086716 0.72539204 0.25077215
0000e0 01 4f ca bd 4f 7d 35 be c6 19 05 3f 92 3a 5e bf
       -0.0987835 -0.17723583 0.5199245 -0.8680812
0000f0 3e 68 d2 3e 92 6e 77 3e 62 d6 6a 3f 5a 14 69 3f
       0.41095155 0.24163273 0.9173337 0.9104668
000100 47 7a 4d 3d 36 f1 00 3f 0a 78 8c 3e 33 ce 1c be
       0.05016544 0.5036806 0.27435333 -0.15313034
000110 0b 20 7a 3f d3 1b e2 3f 24 e1 cc 3c f5 86 97 3f
       0.97705144 1.7664741 0.0250097 1.1838061
000120 58 f8 b1 3f 43 f4 b4 3e 7f e1 91 3f 88 d9 34 3f
       1.3903913 0.35342607 1.1396941 0.70644426
000130 81 30 81 3f 74 0f d0 3f b7 54 8f 3f f7 30 ea 3f
       1.0092927 1.6254716 1.1197728 1.8296193
000140 c6 7b be 3f 6f b4 d7 3f da 07 6a 3f 71 c1 fd 3f
       1.4881523 1.6851939 0.9141823 1.9824659
000150 2e aa 95 3f b1 dc a1 3f 9c 58 15 40 9b 20 3a 40
       1.169256 1.2645475 2.3335333 2.90824
000160 53 f4 f4 3e 53 b0 bf 3f e8 ac a4 3f c2 03 4e be
       0.47842655 1.4975685 1.2865267 -0.20118621
000170 70 62 37 40 0f 14 53 3f 48 c9 b0 3f 29 3c 17 3f
       2.8653831 0.8245248 1.3811426 0.5907617
000180 74 75 49 40 cf 4d 4e 3f f0 bb 9e be a5 83 a5 3d
       3.1477938 0.80587476 -0.3100276 0.0808175
000190 b1 dd 13 40 56 e2 83 3f f5 ea 76 3f c5 2e e3 3f
       2.310406 1.0303447 0.96452266 1.7748648
0001a0 65 88 86 3f d4 e9 dc 3f 46 4f a1 3f 27 45 bf 3f
       1.0510374 1.7258859 1.2602317 1.4942979
0001b0 43 10 ac 3f 45 de 0e 40 44 09 17 3f 7d c9 dc bc
       1.3442463 2.2323163 0.58998513 -0.026951546
0001c0 39 e5 ff 3e ae 69 e9 3f 71 a4 b4 3f d0 88 ed 3f
       0.4997957 1.8235376 1.4112684 1.8557377
0001d0 65 9a 6c 3e e4 5c 0b 40 90 2f ff 3f f2 d0 eb 3f
       0.23105772 2.1775446 1.993639 1.842314
0001e0 d7 6a 33 40 a1 67 ab 3f 00 84 df 3f b5 db 01 40
       2.803396 1.3391 1.7462158 2.0290349
0001f0 32 d3 32 40 5f bc a0 3f 1b e6 c7 3e 5f 67 82 3e
       2.7941403 1.2557486 0.39042744 0.2546949
000200 53 09 0d 3f f0 54 de 3f 24 a8 22 be f6 68 41 3e
       0.5509235 1.7369671 -0.15884453 0.18887696
000210 b9 d0 6a be 0f ab 00 40 5e a4 9e 3f 48 e2 aa 3e
       -0.22931184 2.0104406 1.2393911 0.33375764
000220 5b 1d 9b 3e 0e a7 b8 3f 30 62 4f 3f f1 8a 8a 3f
       0.30295834 1.4425981 0.810092 1.0823652
000230 1d d6 3f 3f 9b 24 52 3f 04 1a 96 3f 86 fa ed 3e
       0.74936086 0.82087106 1.1726689 0.46480197
000240 fa a1 b0 3d ee b5 9f 3f 70 4e b1 3f d1 13 9d 3f
       0.086246446 1.2477396 1.3852062 1.2271672
000250 ad 3f 3d 3f 50 64 50 be 25 15 0a 3e aa d6 2c 3e
       0.73925287 -0.20350766 0.13484628 0.16878763
000260 9a f5 cc 3f 53 61 84 3f cc 0e 31 40 2a 8f cd 3f
       1.6012452 1.0342201 2.7665281 1.6059315
000270 e1 df bd 3f d5 13 33 40 38 09 e7 3d cf 9d d8 3e
       1.4833947 2.7980855 0.11281055 0.42307898
000280 58 f7 9a 3f cc 1c b5 be 87 54 bf 3f 67 d1 7e 3f
       1.2106733 -0.35373533 1.4947671 0.9953827
000290 21 19 c8 3f d9 9d 08 40 35 4f cf 3e f9 b1 a4 3f
       1.5632669 2.1346343 0.40490118 1.2866813
0002a0 b5 70 2e 3f fd 27 cc 3f f8 9e ee 3f 97 39 c5 3f
       0.6814073 1.5949703 1.8642263 1.54082
0002b0 ab f1 97 3f 5f a6 0f 3f 1c 8f 2a 3f
       1.1870626 0.5611324 0.6662462

weight f4 [9, 175]
000000 b8 97 ab 33 43 45 09 35 79 d5 d6 34 ed d2 f9 31
       7.9904055e-08 5.1137266e-07 4.0015928e-07 7.2708333e-09
000010 2c 85 0f 37 5b 7e 17 3f 3f dd 5e b5 ea fb ca 3e
       8.554471e-06 0.5917718 -8.30234e-07 0.3964532
000020 94 1b 68 3f 8a 61 dd 3e 10 7a 47 3f a9 5e 24 3f
       0.9066708 0.4323848 0.7792063 0.6420694
000030 6c 0c 8d 32 40 52 fa 3e e0 9b 6d b4 55 07 3a 31
       1.642021e-08 0.48890877 -2.2129052e-07 2.707073e-09
000040 41 85 c7 b7 63 28 b3 3e 1d 34 7b b7 65 56 2c 3e
       -2.37847e-05 0.3499175 -1.4972899e-05 0.16829832
000050 6c 8e 90 31 7c ae 5c 3f a5 e8 dc 3e e4 07 74 be
       4.207143e-09 0.8620374 0.43146244 -0.23831135
000060 46 df 86 3f 1e 1b ca 3e 10 12 9b 3f 2e 53 1d 3b
       1.0536888 0.39473814 1.2114887 0.0024005878
000070 18 28 21 b5 8d cf f9 b1 55 39 8b 3f d0 4a b8 b4
       -6.003552e-07 -7.2704496e-09 1.0876871 -3.4327104e-07
000080 51 a9 0f 3f f7 c9 99 3f 0d eb 29 34 bd f6 be 35
       0.5611773 1.201476 1.5824862e-07 1.4227913e-06
000090 8c 74 f7 3e 44 7c 20 3e ea 83 f7 3e 97 d2 2f 3f
       0.48331106 0.15672404 0.4834283 0.6868071
0000a0 f0 bf 67 b6 2a 5e 5e b3 38 b0 4f 3f 01 87 11 3f
       -3.4533405e-06 -5.1774045e-08 0.81128263 0.56846625
0000b0 41 98 34 b0 39 c6 a8 3e de 36 bc 33 8d 67 8f 34
       -6.5699984e-10 0.32963732 8.7644125e-08 2.671117e-07
0000c0 b5 5a e5 b1 0b e3 7b b3 b5 6d 03 3f 15 a0 14 3f
       -6.6750894e-09 -5.8646986e-08 0.51339275 0.58056766
0000d0 a2 27 47 36 59 69 39 3f b3 2b e5 3e 38 be 5b 34
       2.967638e-06 0.7242637 0.44759902 2.0465166e-07
0000e0 c8 08 44 31 3d a3 04 bf 28 fd dc 3e a2 9b 04 37
       2.8526745e-09 -0.5181158 0.43161893 7.904049e-06
0000f0 c6 da 05 3f 0d 6a 18 3f 2f ef 25 31 6b cf 6a b4
       0.52286947 0.5953682 2.414662e-09 -2.1868406e-07
000100 c1 74 56 b1 ed 92 01 3f bf f7 42 3e 37 74 3a 3f
       -3.1207466e-09 0.50614816 0.1903982 0.7283358
000110 e0 bb a0 b3 66 e9 9c 3e 5c 9b 82 3e 3c e0 32 3e
       -7.484755e-08 0.3064682 0.25509155 0.17468351
000120 ee b3 6d 3e ae ef e5 b3 92 35 89 3e 29 f1 16 35
       0.23213169 -1.0707241e-07 0.26798683 5.623029e-07
000130 f9 89 4d 35 bc 56 71 3e 02 46 1d 35 26 b7 d6 b6
       7.656923e-07 0.23568243 5.858893e-07 -6.3990183e-06
000140 bf d0 90 b4 c8 46 94 b4 24 26 8c 3e c9 21 95 b5
       -2.6973973e-07 -2.7618648e-07 0.2737285 -1.1111198e-06
000150 81 f6 86 bd 99 d1 8b 3e a2 6f 0d 36 d2 94 ef 35
       -0.06589986 0.27308348 2.1075616e-06 1.78502e-06
000160 fe 61 f7 35 97 7c e9 3e 96 99 79 3e 60 83 ba be
       1.8431454e-06 0.45602867 0.24374995 -0.36428356
000170 f9 e8 30 b5 e4 80 b4 3e 8d e8 20 3f a4 72 3f 3f
       -6.590413e-07 0.35254586 0.62854844 0.747843
000180 53 88 0c 37 44 4c f0 3e 15 42 12 3f 21 8f 6a 3f
       8.376391e-06 0.46933186 0.57132083 0.9162465
000190 a5 d6 44 3f 62 c0 91 3f 70 eb 4a ac 90 3d da 32
       0.7689002 1.1386836 -2.883662e-12 2.5406536e-08
0001a0 f3 f2 df 32 ce 0f b1 33 79 c9 81 3f d6 a5 dd 3e
       2.6071097e-08 8.2450796e-08 1.013961 0.43290585
0001b0 f7 ec 11 3f 03 b4 a9 3e 50 a0 2d b5 28 3a f7 35
       0.57002205 0.3314515 -6.468081e-07 1.841986e-06
0001c0 a1 01 2d 3f 11 91 22 3f cd 7f 32 3f 84 ba 24 3f
       0.6758061 0.63502604 0.6972626 0.643471
0001d0 65 03 3c 3f 60 36 b3 35 a3 78 f6 3e c7 29 be 3e
       0.7344268 1.3352364e-06 0.48138914 0.3714125
0001e0 67 f0 d6 3e 6a 88 a5 3e 99 6c e6 3e 6f 9c 97 b3
       0.41980287 0.32330638 0.45004728 -7.0599405e-08
0001f0 68 92 43 b9 68 ea 98 30 c1 59 04 3f 9a ed cb 32
       -0.0001865119 1.1126078e-09 0.51699454 2.3740359e-08
000200 9d 09 cd 3a cc 2a dd 3e fb 2e 3f 3f 08 6d 6e 31
       0.0015643124 0.43196714 0.7468106 3.4695535e-09
000210 c6 49 5e 3f 88 a2 c1 b8 b4 04 8f b2 66 1a 1e 3f
       0.8683132 -9.233231e-05 -1.664953e-08 0.6175903
000220 15 f0 99 3d 12 ac 37 b2 06 9e 27 3e d4 35 31 b6
       0.07516495 -1.0691126e-08 0.16368875 -2.6406387e-06
000230 e0 87 19 3f ad 75 05 3f 12 2f c8 36 ff 9c ba b4
       0.59972954 0.52132684 5.965944e-06 -3.475943e-07
000240 13 bb 9c 3e 23 4d 76 3f 33 db 1b 34 ca ce 90 33
       0.30611476 0.9621145 1.4515244e-07 6.743137e-08
000250 3c 4e 6f b3 90 fe 03 3f 41 53 b7 3e df fc 46 3e
       -5.5717678e-08 0.51560307 0.35805705 0.194324
000260 ad 15 23 34 4b e8 98 3e 7a bb 3a 34 99 c1 3c 34
       1.5188444e-07 0.29864725 1.7390803e-07 1.7579295e-07
000270 25 fa 07 3f 97 c4 f8 b5 d2 3b 17 b4 61 6f 26 3f
       0.53116065 -1.8534655e-06 -1.4084733e-07 0.650137
000280 44 0b 03 3f 14 c1 bc 3e c7 13 6b 3f e0 78 3c 3f
       0.51189065 0.36866057 0.9182705 0.7362194
000290 d3 57 a9 b7 28 92 13 b3 5d 9e 6b 34 d8 c0 bd 36
       -2.0187266e-05 -3.4359033e-08 2.1943693e-07 5.655089e-06
0002a0 51 95 0c 3f 5e 09 e7 34 ed a2 6d 34 cc 8e d3 3d
       0.5491534 4.3033918e-07 2.2131617e-07 0.10329971
0002b0 66 de 5b 3e 40 13 3f 3f 71 9a 6f 3e 66 2f de 3e
       0.21471557 0.7463875 0.23398758 0.43395537
0002c0 80 93 fd 3e b6 3a 2e 3f 02 ba e7 3e 83 6c ab 3f
       0.49526596 0.68058336 0.452591 1.339249
0002d0 4e 8f e3 33 e2 48 9e 3e 78 ff 8d 34 23 ce 08 34
       1.0596578e-07 0.3091498 2.6449175e-07 1.2740979e-07
0002e0 b3 49 86 b2 7a 15 17 b4 c1 4d e8 34 72 ae 33 3f
       -1.5633168e-08 -1.4070784e-07 4.326994e-07 0.7018806
0002f0 36 ea bd b1 46 b5 a1 3e c4 c4 40 3f 01 c8 1d be
       -5.5272507e-09 0.31583613 0.7530024 -0.15408327
000300 67 d9 2f b3 66 d8 e9 bd 87 fe f6 b8 70 75 3f 3f
       -4.094309e-08 -0.11418228 -0.000117776035 0.7478857
000310 be ad 35 b3 1f 6a 1e b4 0e dd df 38 84 40 6a 34
       -4.2300364e-08 -1.4753503e-07 0.00010674643 2.1816419e-07
000320 94 53 3c 34 e1 71 cd 35 0e 08 2f be b1 1f f7 3e
       1.753927e-07 1.5306833e-06 -0.17092916 0.48266366
000330 0b 0b 91 3f 1a b5 08 b2 b7 73 83 be 86 2d ec b4
       1.1331495 -7.95742e-09 -0.2567422 -4.3991548e-07
000340 0a ff e1 35 28 5b 90 3f eb 08 68 3f f0 a4 45 b4
       1.6838032e-06 1.1277819 0.9063861 -1.8407059e-07
000350 a0 02 f5 3a 6a da df b3 7a 47 07 34 7e 42 2b 3e
       0.0018692799 -1.0423976e-07 1.2598858e-07 0.16724584
000360 24 56 cb 3e d9 12 85 31 d8 12 1e 32 c1 a6 4c 3f
       0.39714158 3.872952e-09 9.201095e-09 0.79941946
000370 42 81 25 33 ed a2 09 3f 33 b5 65 3e 19 7a 05 3f
       3.8534615e-08 0.5376423 0.22432403 0.5213943
000380 f9 00 d4 3e 43 70 0c b4 de 20 95 b3 34 d5 57 3e
       0.41406992 -1.3079357e-07 -6.944332e-08 0.21077424
000390 62 67 0b 32 14 13 88 b1 d7 18 8a 3e 14 fe 19 3f
       8.114371e-09 -3.96029e-09 0.26972076 0.6015332
0003a0 3f f2 a2 b0 65 0e 1f b3 f8 20 bd be 69 19 2d 33
       -1.1855902e-09 -3.7033164e-08 -0.36939216 4.030281e-08
0003b0 6d fb 5f b3 d2 34 0b 3f 71 f0 59 3f 3c da 36 3f
       -5.2149904e-08 0.5437747 0.8513251 0.7142675
0003c0 98 f9 cf 33 80 40 f0 35 ac 9b 94 ae ff b9 e8 3e
       9.6845895e-08 1.7900165e-06 -6.757914e-11 0.45454404
0003d0 99 91 5b b4 0a 85 54 b5 05 6e 69 ba 19 87 bf b7
       -2.0448933e-07 -7.916975e-07 -0.0008904639 -2.2831884e-05
0003e0 1e 21 c3 3e b5 c9 62 35 83 62 79 3e a4 cc e3 3e
       0.38111204 8.4485083e-07 0.24353985 0.44492066
0003f0 8b 83 2e 37 21 fc f5 3e f4 da 63 3e a7 3f ef 3e
       1.0401835e-05 0.48043922 0.22251493 0.4672825

bias f4 [175]
000000 00 00 00 00 00 00 00 00 00 00 00 00 00 00 00 00
       0.0 0.0 0.0 0.0
000010 00 00 00 00 00 00 00 00 00 00 00 00 00 00 00 00
       0.0 0.0 0.0 0.0
000020 00 00 00 00 00 00 00 00 00 00 00 00 00 00 00 00
       0.0 0.0 0.0 0.0
000030 00 00 00 00 00 00 00 00 00 00 00 00 00 00 00 00
       0.0 0.0 0.0 0.0
000040 00 00 00 00 00 00 00 00 00 00 00 00 00 00 00 00
       0.0 0.0 0.0 0.0
000050 00 00 00 00 00 00 00 00 00 00 00 00 00 00 00 00
       0.0 0.0 0.0 0.0
000060 00 00 00 00 00 00 00 00 00 00 00 00 00 00 00 00
       0.0 0.0 0.0 0.0
000070 00 00 00 00 00 00 00 00 00 00 00 00 00 00 00 00
       0.0 0.0 0.0 0.0
000080 00 00 00 00 00 00 00 00 00 00 00 00 00 00 00 00
       0.0 0.0 0.0 0.0
000090 00 00 00 00 00 00 00 00 00 00 00 00 00 00 00 00
       0.0 0.0 0.0 0.0
0000a0 00 00 00 00 00 00 00 00 00 00 00 00 00 00 00 00
       0.0 0.0 0.0 0.0
0000b0 00 00 00 00 00 00 00 00 00 00 00 00 00 00 00 00
       0.0 0.0 0.0 0.0
0000c0 00 00 00 00 00 00 00 00 00 00 00 00 00 00 00 00
       0.0 0.0 0.0 0.0
0000d0 00 00 00 00 00 00 00 00 00 00 00 00 00 00 00 00
       0.0 0.0 0.0 0.0
0000e0 00 00 00 00 00 00 00 00 00 00 00 00 00 00 00 00
       0.0 0.0 0.0 0.0
0000f0 00 00 00 00 00 00 00 00 00 00 00 00 00 00 00 00
       0.0 0.0 0.0 0.0
000100 00 00 00 00 00 00 00 00 00 00 00 00 00 00 00 00
       0.0 0.0 0.0 0.0
000110 00 00 00 00 00 00 00 00 00 00 00 00 00 00 00 00
       0.0 0.0 0.0 0.0
000120 00 00 00 00 00 00 00 00 00 00 00 00 00 00 00 00
       0.0 0.0 0.0 0.0
000130 00 00 00 00 00 00 00 00 00 00 00 00 00 00 00 00
       0.0 0.0 0.0 0.0
000140 00 00 00 00 00 00 00 00 00 00 00 00 00 00 00 00
       0.0 0.0 0.0 0.0
000150 00 00 00 00 00 00 00 00 00 00 00 00 00 00 00 00
       0.0 0.0 0.0 0.0
000160 00 00 00 00 00 00 00 00 00 00 00 00 00 00 00 00
       0.0 0.0 0.0 0.0
000170 00 00 00 00 00 00 00 00 00 00 00 00 00 00 00 00
       0.0 0.0 0.0 0.0
000180 00 00 00 00 00 00 00 00 00 00 00 00 00 00 00 00
       0.0 0.0 0.0 0.0
000190 00 00 00 00 00 00 00 00 00 00 00 00 00 00 00 00
       0.0 0.0 0.0 0.0
0001a0 00 00 00 00 00 00 00 00 00 00 00 00 00 00 00 00
       0.0 0.0 0.0 0.0
0001b0 00 00 00 00 00 00 00 00 00 00 00 00 00 00 00 00
       0.0 0.0 0.0 0.0
0001c0 00 00 00 00 00 00 00 00 00 00 00 00 00 00 00 00
       0.0 0.0 0.0 0.0
0001d0 00 00 00 00 00 00 00 00 00 00 00 00 00 00 00 00
       0.0 0.0 0.0 0.0
0001e0 00 00 00 00 00 00 00 00 00 00 00 00 00 00 00 00
       0.0 0.0 0.0 0.0
0001f0 00 00 00 00 00 00 00 00 00 00 00 00 00 00 00 00
       0.0 0.0 0.0 0.0
000200 00 00 00 00 00 00 00 00 00 00 00 00 00 00 00 00
       0.0 0.0 0.0 0.0
000210 00 00 00 00 00 00 00 00 00 00 00 00 00 00 00 00
       0.0 0.0 0.0 0.0
000220 00 00 00 00 00 00 00 00 00 00 00 00 00 00 00 00
       0.0 0.0 0.0 0.0
000230 00 00 00 00 00 00 00 00 00 00 00 00 00 00 00 00
       0.0 0.0 0.0 0.0
000240 00 00 00 00 00 00 00 00 00 00 00 00 00 00 00 00
       0.0 0.0 0.0 0.0
000250 00 00 00 00 00 00 00 00 00 00 00 00 00 00 00 00
       0.0 0.0 0.0 0.0
000260 00 00 00 00 00 00 00 00 00 00 00 00 00 00 00 00
       0.0 0.0 0.0 0.0
000270 00 00 00 00 00 00 00 00 00 00 00 00 00 00 00 00
       0.0 0.0 0.0 0.0
000280 00 00 00 00 00 00 00 00 00 00 00 00 00 00 00 00
       0.0 0.0 0.0 0.0
000290 00 00 00 00 00 00 00 00 00 00 00 00 00 00 00 00
       0.0 0.0 0.0 0.0
0002a0 00 00 00 00 00 00 00 00 00 00 00 00 00 00 00 00
       0.0 0.0 0.0 0.0
0002b0 00 00 00 00 00 00 00 00 00 00 00 00
       0.0 0.0 0.0

_ei_mask f4 [175]
000000 00 00 80 3f 00 00 80 3f 00 00 80 3f 00 00 80 3f
       1.0 1.0 1.0 1.0
000010 00 00 80 3f 00 00 80 3f 00 00 80 3f 00 00 80 3f
       1.0 1.0 1.0 1.0
000020 00 00 80 3f 00 00 80 3f 00 00 80 3f 00 00 80 3f
       1.0 1.0 1.0 1.0
000030 00 00 80 3f 00 00 80 3f 00 00 80 3f 00 00 80 3f
       1.0 1.0 1.0 1.0
000040 00 00 80 3f 00 00 80 3f 00 00 80 3f 00 00 80 3f
       1.0 1.0 1.0 1.0
000050 00 00 80 3f 00 00 80 3f 00 00 80 3f 00 00 80 3f
       1.0 1.0 1.0 1.0
000060 00 00 80 3f 00 00 80 3f 00 00 80 3f 00 00 80 3f
       1.0 1.0 1.0 1.0
000070 00 00 80 3f 00 00 80 3f 00 00 80 3f 00 00 80 3f
       1.0 1.0 1.0 1.0
000080 00 00 80 3f 00 00 80 3f 00 00 80 3f 00 00 80 3f
       1.0 1.0 1.0 1.0
000090 00 00 80 3f 00 00 80 3f 00 00 80 3f 00 00 80 3f
       1.0 1.0 1.0 1.0
0000a0 00 00 80 3f 00 00 80 3f 00 00 80 3f 00 00 80 3f
       1.0 1.0 1.0 1.0
0000b0 00 00 80 3f 00 00 80 3f 00 00 80 3f 00 00 80 3f
       1.0 1.0 1.0 1.0
0000c0 00 00 80 3f 00 00 80 3f 00 00 80 3f 00 00 80 3f
       1.0 1.0 1.0 1.0
0000d0 00 00 80 3f 00 00 80 3f 00 00 80 3f 00 00 80 3f
       1.0 1.0 1.0 1.0
0000e0 00 00 80 3f 00 00 80 3f 00 00 80 3f 00 00 80 3f
       1.0 1.0 1.0 1.0
0000f0 00 00 80 3f 00 00 80 3f 00 00 80 3f 00 00 80 3f
       1.0 1.0 1.0 1.0
000100 00 00 80 3f 00 00 80 3f 00 00 80 3f 00 00 80 3f
       1.0 1.0 1.0 1.0
000110 00 00 80 3f 00 00 80 3f 00 00 80 3f 00 00 80 3f
       1.0 1.0 1.0 1.0
000120 00 00 80 3f 00 00 80 3f 00 00 80 3f 00 00 80 3f
       1.0 1.0 1.0 1.0
000130 00 00 80 3f 00 00 80 3f 00 00 80 3f 00 00 80 3f
       1.0 1.0 1.0 1.0
000140 00 00 80 3f 00 00 80 3f 00 00 80 3f 00 00 80 3f
       1.0 1.0 1.0 1.0
000150 00 00 80 3f 00 00 80 3f 00 00 80 3f 00 00 80 3f
       1.0 1.0 1.0 1.0
000160 00 00 80 3f 00 00 80 3f 00 00 80 3f 00 00 80 3f
       1.0 1.0 1.0 1.0
000170 00 00 80 3f 00 00 80 3f 00 00 80 3f 00 00 80 3f
       1.0 1.0 1.0 1.0
000180 00 00 80 3f 00 00 80 3f 00 00 80 3f 00 00 80 3f
       1.0 1.0 1.0 1.0
000190 00 00 80 3f 00 00 80 3f 00 00 80 3f 00 00 80 3f
       1.0 1.0 1.0 1.0
0001a0 00 00 80 3f 00 00 80 3f 00 00 80 3f 00 00 80 3f
       1.0 1.0 1.0 1.0
0001b0 00 00 80 3f 00 00 80 3f 00 00 80 3f 00 00 80 3f
       1.0 1.0 1.0 1.0
0001c0 00 00 80 3f 00 00 80 3f 00 00 80 3f 00 00 80 3f
       1.0 1.0 1.0 1.0
0001d0 00 00 80 3f 00 00 80 3f 00 00 80 3f 00 00 80 3f
       1.0 1.0 1.0 1.0
0001e0 00 00 80 3f 00 00 80 3f 00 00 80 3f 00 00 80 3f
       1.0 1.0 1.0 1.0
0001f0 00 00 80 3f 00 00 80 3f 00 00 80 3f 00 00 80 3f
       1.0 1.0 1.0 1.0
000200 00 00 80 3f 00 00 80 3f 00 00 80 3f 00 00 80 3f
       1.0 1.0 1.0 1.0
000210 00 00 80 3f 00 00 80 3f 00 00 80 3f 00 00 80 3f
       1.0 1.0 1.0 1.0
000220 00 00 80 3f 00 00 80 3f 00 00 80 3f 00 00 80 3f
       1.0 1.0 1.0 1.0
000230 00 00 80 3f 00 00 80 3f 00 00 80 3f 00 00 80 3f
       1.0 1.0 1.0 1.0
000240 00 00 80 3f 00 00 80 3f 00 00 80 3f 00 00 80 3f
       1.0 1.0 1.0 1.0
000250 00 00 80 3f 00 00 80 3f 00 00 80 3f 00 00 80 3f
       1.0 1.0 1.0 1.0
000260 00 00 80 3f 00 00 80 3f 00 00 80 3f 00 00 80 3f
       1.0 1.0 1.0 1.0
000270 00 00 80 3f 00 00 80 3f 00 00 80 3f 00 00 80 3f
       1.0 1.0 1.0 1.0
000280 00 00 80 3f 00 00 80 3f 00 00 80 3f 00 00 80 3f
       1.0 1.0 1.0 1.0
000290 00 00 80 3f 00 00 80 3f 00 00 80 3f 00 00 80 3f
       1.0 1.0 1.0 1.0
0002a0 00 00 80 3f 00 00 80 3f 00 00 80 3f 00 00 80 3f
       1.0 1.0 1.0 1.0
0002b0 00 00 80 3f 00 00 80 3f 00 00 80 3f
       1.0 1.0 1.0

weight f4 [2, 175]
000000 7b 9f 30 40 71 a3 cc 3f 0d 89 83 3f a0 fe 4f 40
       2.759734 1.5987378 1.02762 3.249916
000010 13 8c e7 3f a9 23 09 40 70 d4 d6 3f 7e 1a 78 40
       1.8089622 2.1428015 1.6783581 3.876617
000020 e6 cb 3c 3f 1c 39 3e 40 ad 8c 24 3f 4a ea 46 3f
       0.73748624 2.9722357 0.64277154 0.77701247
000030 04 b5 f4 3e 3c 58 f0 3e 34 0c b8 3d 97 ef 87 3f
       0.47794354 0.46942317 0.089867026 1.0619992
000040 94 d8 c0 3e 6b 51 9c 3f c2 65 5b 3e 2c 2e 13 40
       0.37665236 1.2212347 0.21425536 2.299693
000050 b4 5b d5 3f df 6d f0 3f 53 f9 db 3f 3e c2 65 3f
       1.666861 1.878353 1.7185463 0.89749515
000060 d1 d6 92 40 a3 fd 7f 40 0f 0e 69 bf 19 11 d8 3f
       4.5887227 3.9998558 -0.91037077 1.6880218
000070 ba f9 5c 3f 02 2f 57 40 6f 52 1c 40 a1 23 15 bf
       0.8631855 3.3622441 2.4425313 -0.5825749
000080 cb 0c e0 3e 74 08 8b 3f b7 18 05 40 61 3f 3c 40
       0.4375976 1.0861955 2.0796335 2.9413683
000090 09 08 14 40 1e 36 32 3f b0 4a 2e 3f 67 a2 59 3f
       2.3129904 0.69613826 0.68082714 0.8501343
0000a0 a6 ed 00 40 25 f0 30 40 a8 4f 86 3f 0f 55 1e bf
       2.014505 2.7646573 1.0493059 -0.6184854
0000b0 35 f5 5a 3f 77 76 92 3d 05 07 6a 3f 67 fb 3c 3f
       0.85530406 0.071515016 0.9141696 0.7382111
0000c0 14 38 18 3e 57 88 a8 3f 50 cf 52 3f 47 00 d4 3e
       0.14865142 1.3166608 0.82347584 0.41406462
0000d0 18 2c 48 3f 31 48 03 40 38 93 79 3f fc 63 17 bf
       0.7819228 2.0512812 0.97490263 -0.5913694
0000e0 73 74 b7 3f 44 04 05 bf af 0f 9f 3f fc 49 7a 3e
       1.4332412 -0.51959634 1.2426661 0.24442285
0000f0 ae af c5 3f bf 13 65 3f d9 38 c2 3f 56 ab 16 40
       1.5444238 0.89483255 1.5173599 2.3542075
000100 b1 35 1d 3f 9e e3 36 3f 93 9a 3f 3f eb 05 ff be
       0.6141005 0.71441066 0.74845237 -0.49809203
000110 00 9d 46 3f f0 c2 c3 3f d7 ad 41 3f f5 e3 b7 3f
       0.77583313 1.5293865 0.75655884 1.4366442
000120 4e 6e dc 3f d5 73 db be 7f 50 7e 3f 3f e0 22 3d
       1.7221162 -0.4286181 0.9934158 0.03976464
000130 1f 52 6b 3e d5 c6 ab 3f 32 b0 82 be 7b 35 9d 3f
       0.22980545 1.3420054 -0.2552505 1.2281946
000140 4a 32 cf 3f 27 fd c7 3f 22 dc 12 3d c6 dd d7 3f
       1.6187222 1.5624131 0.035854466 1.6864555
000150 e8 d4 30 bd 59 cd a4 3f 4d 76 31 40 a6 31 66 40
       -0.043171793 1.2875167 2.7728455 3.5967803
000160 bc 35 17 3f 42 c2 c5 3f 7e ab 0f 40 10 ae d0 3f
       0.5906637 1.5449908 2.244842 1.630312
000170 bd 8a af 3f 74 1f 11 40 86 0f c0 3f 5e 62 79 3f
       1.3714215 2.2675447 1.5004737 0.9741572
000180 d2 ec c9 3f 66 1f 87 3f 67 8c fc 3f 11 a0 df 3e
       1.5775397 1.0556457 1.9730347 0.43676808
000190 10 ba 1d 3f ca 19 9e be a2 db bd 3f e2 33 c0 3f
       0.61612034 -0.3087905 1.4832652 1.5015833
0001a0 27 37 1e 3f 12 f5 d3 3f 04 96 5e be a3 a4 c6 3f
       0.61802906 1.6559165 -0.21736914 1.5518993
0001b0 7b a1 3c 3f 68 ec 28 40 8c c0 48 3f 42 51 0b 40
       0.736839 2.639429 0.78418803 2.1768346
0001c0 91 f6 42 3f b9 b6 95 3f 3f 56 8e 3e bf a0 c9 3f
       0.7615748 1.1696388 0.27800176 1.5752181
0001d0 cd 88 32 3e 55 6d 98 3f 03 6d 0b 40 bf 33 c0 3f
       0.17434998 1.1908365 2.1785285 1.5015792
0001e0 d4 fd 40 40 b5 d6 c8 3f a4 b1 34 3f 6c d5 09 40
       3.0154924 1.5690523 0.7058356 2.1536512
0001f0 90 ee 4a 40 c7 79 b7 3f 59 38 e6 3e fb a3 91 3f
       3.1708107 1.4334038 0.44964865 1.1378168
000200 40 36 b0 3c ad 2c fe 3e bd 08 9c bd 10 37 6c 3f
       0.021510243 0.4964346 -0.07618854 0.9227152
000210 c2 3a fb 3d 21 58 b5 3f 22 c3 28 3f 8c f7 74 3f
       0.122670665 1.416752 0.6592275 0.95690227
000220 44 d4 a8 3f ae b7 8a 3f 80 a8 f2 3f 7a f9 3c 3f
       1.3189778 1.0837305 1.8957672 0.7381817
000230 83 6c 5f 3f 50 c3 5d 3f 10 92 02 40 f3 cd f9 3f
       0.8727495 0.8662615 2.040165 1.9515976
000240 97 20 44 3f 39 ae d1 bc 5b b2 a7 3f d6 e8 54 3e
       0.7661223 -0.025595771 1.3101305 0.20791945
000250 ed 0d 02 40 59 56 a5 3e 0f ac 98 bb d6 36 25 3f
       2.0321 0.3229244 -0.004659183 0.645368
000260 47 ad cd 3f bc 17 44 3f f9 30 17 40 ef 33 bc 3f
       1.6068505 0.76598716 2.362364 1.4703349
000270 a5 90 2d 3f 58 6f 11 40 3b 33 1c 3d 02 c0 fe 3e
       0.67798835 2.272421 0.038134795 0.49755865
000280 58 39 fd 3f 33 fa bb 3f 2f b8 0f 40 29 f3 17 3e
       1.9783125 1.468573 2.2456167 0.14838852
000290 6d b5 be 3f 25 d5 e7 3f 0b 5d f4 3e be 25 c5 3f
       1.4899117 1.8111922 0.47727236 1.5402143
0002a0 0b 9f bc 3e b9 8c 01 40 0a 07 90 3f 20 f4 c8 3f
       0.3684009 2.024214 1.1252148 1.5699501
0002b0 b2 a1 d4 3f 98 b1 91 be 87 b2 64 3f 93 e6 42 3f
       1.6611845 -0.28455806 0.8933491 0.7613308
0002c0 ff db f2 3f a1 57 5c 3f 2a 40 28 40 93 39 bb 3e
       1.8973387 0.8607121 2.6289163 0.36567363
0002d0 42 81 0c 40 20 a1 94 3f 02 46 2d 40 3b 5c 11 3b
       2.1953893 1.1611671 2.707398 0.0022180218
0002e0 55 a8 c8 3f 27 b1 8e 3f de 84 21 3f de d3 c8 3f
       1.5676371 1.1147813 0.63093364 1.5689657
0002f0 a7 2c 38 bd a7 66 8f be 25 6a 2e 3f 7d 0f 35 be
       -0.04496446 -0.28008005 0.68130714 -0.1768169
000300 c4 75 95 3f 7f ad 3f be 91 8e 01 40 bd 26 ae 3f
       1.1676564 -0.18718527 2.0243266 1.3605572
000310 7e e0 0f 40 0f 02 c7 3f 42 b4 3d 3f e1 54 8e 3f
       2.248077 1.5547503 0.74103177 1.1119653
000320 11 9a 2e 40 82 e4 5d bf 58 f3 29 40 e8 3e f4 3f
       2.7281535 -0.866768 2.6554775 1.9081697
000330 8a d5 6a 40 54 63 cd 3f b8 d3 0e bf e8 e9 06 3f
       3.6692834 1.6045938 -0.5579181 0.5270066
000340 9a 96 6b 3e 0d 64 c2 3f 84 0a 1b 40 c2 a4 0f 40
       0.23006669 1.5186783 2.4225168 2.244431
000350 72 51 55 3f 03 b3 8d bc 1b cd 7f 3f ef df fe 3e
       0.833274 -0.017297274 0.9992234 0.49780223
000360 18 17 0b 40 30 30 78 3e db 66 57 3e 10 82 26 3e
       2.1732845 0.24237132 0.2103533 0.16260552
000370 ca 80 9a 3f 68 85 76 3f 40 d4 d3 3e da 42 38 be
       1.2070553 0.9629731 0.4137287 -0.17994252
000380 c3 58 e1 3a 14 81 7c bf 0a a2 92 bf 12 db bb 3d
       0.0017192591 -0.9863446 -1.14557 0.09172644
000390 03 ff b6 3f a9 1b 38 3f b3 c1 1a 3f dc 3c ad 3f
       1.4296573 0.71917206 0.6045181 1.3534198
0003a0 4c 28 20 bf c9 bb 30 3f e9 ef b7 bf 64 cb 95 3f
       -0.6256149 0.6903654 -1.437009 1.1702695
0003b0 cf 24 54 3f b4 24 51 3f f8 cc 53 40 62 75 79 3f
       0.82868665 0.8169663 3.3093853 0.97444737
0003c0 9e 8c 2d 3f 40 67 91 3f 25 c4 4d bd 2a d5 46 3f
       0.6779269 1.1359634 -0.050235886 0.7766901
0003d0 91 8f 95 3f 64 31 78 3f 90 58 a3 3f af 53 c8 3f
       1.1684438 0.96950364 1.2761402 1.5650538
0003e0 df 62 d7 bd 31 6a 6b 3f bd 60 1b 3e b4 c4 b3 3e
       -0.10516905 0.9195891 0.15173621 0.3511101
0003f0 2b 41 a3 3f bc d0 d8 be 9b 08 e2 3e 3f b5 ac 3f
       1.2754263 -0.42346752 0.4414719 1.3492812

bias f4 [175]
000000 00 00 00 00 00 00 00 00 00 00 00 00 00 00 00 00
       0.0 0.0 0.0 0.0
000010 00 00 00 00 00 00 00 00 00 00 00 00 00 00 00 00
       0.0 0.0 0.0 0.0
000020 00 00 00 00 00 00 00 00 00 00 00 00 00 00 00 00
       0.0 0.0 0.0 0.0
000030 00 00 00 00 00 00 00 00 00 00 00 00 00 00 00 00
       0.0 0.0 0.0 0.0
000040 00 00 00 00 00 00 00 00 00 00 00 00 00 00 00 00
       0.0 0.0 0.0 0.0
000050 00 00 00 00 00 00 00 00 00 00 00 00 00 00 00 00
       0.0 0.0 0.0 0.0
000060 00 00 00 00 00 00 00 00 00 00 00 00 00 00 00 00
       0.0 0.0 0.0 0.0
000070 00 00 00 00 00 00 00 00 00 00 00 00 00 00 00 00
       0.0 0.0 0.0 0.0
000080 00 00 00 00 00 00 00 00 00 00 00 00 00 00 00 00
       0.0 0.0 0.0 0.0
000090 00 00 00 00 00 00 00 00 00 00 00 00 00 00 00 00
       0.0 0.0 0.0 0.0
0000a0 00 00 00 00 00 00 00 00 00 00 00 00 00 00 00 00
       0.0 0.0 0.0 0.0
0000b0 00 00 00 00 00 00 00 00 00 00 00 00 00 00 00 00
       0.0 0.0 0.0 0.0
0000c0 00 00 00 00 00 00 00 00 00 00 00 00 00 00 00 00
       0.0 0.0 0.0 0.0
0000d0 00 00 00 00 00 00 00 00 00 00 00 00 00 00 00 00
       0.0 0.0 0.0 0.0
0000e0 00 00 00 00 00 00 00 00 00 00 00 00 00 00 00 00
       0.0 0.0 0.0 0.0
0000f0 00 00 00 00 00 00 00 00 00 00 00 00 00 00 00 00
       0.0 0.0 0.0 0.0
000100 00 00 00 00 00 00 00 00 00 00 00 00 00 00 00 00
       0.0 0.0 0.0 0.0
000110 00 00 00 00 00 00 00 00 00 00 00 00 00 00 00 00
       0.0 0.0 0.0 0.0
000120 00 00 00 00 00 00 00 00 00 00 00 00 00 00 00 00
       0.0 0.0 0.0 0.0
000130 00 00 00 00 00 00 00 00 00 00 00 00 00 00 00 00
       0.0 0.0 0.0 0.0
000140 00 00 00 00 00 00 00 00 00 00 00 00 00 00 00 00
       0.0 0.0 0.0 0.0
000150 00 00 00 00 00 00 00 00 00 00 00 00 00 00 00 00
       0.0 0.0 0.0 0.0
000160 00 00 00 00 00 00 00 00 00 00 00 00 00 00 00 00
       0.0 0.0 0.0 0.0
000170 00 00 00 00 00 00 00 00 00 00 00 00 00 00 00 00
       0.0 0.0 0.0 0.0
000180 00 00 00 00 00 00 00 00 00 00 00 00 00 00 00 00
       0.0 0.0 0.0 0.0
000190 00 00 00 00 00 00 00 00 00 00 00 00 00 00 00 00
       0.0 0.0 0.0 0.0
0001a0 00 00 00 00 00 00 00 00 00 00 00 00 00 00 00 00
       0.0 0.0 0.0 0.0
0001b0 00 00 00 00 00 00 00 00 00 00 00 00 00 00 00 00
       0.0 0.0 0.0 0.0
0001c0 00 00 00 00 00 00 00 00 00 00 00 00 00 00 00 00
       0.0 0.0 0.0 0.0
0001d0 00 00 00 00 00 00 00 00 00 00 00 00 00 00 00 00
       0.0 0.0 0.0 0.0
0001e0 00 00 00 00 00 00 00 00 00 00 00 00 00 00 00 00
       0.0 0.0 0.0 0.0
0001f0 00 00 00 00 00 00 00 00 00 00 00 00 00 00 00 00
       0.0 0.0 0.0 0.0
000200 00 00 00 00 00 00 00 00 00 00 00 00 00 00 00 00
       0.0 0.0 0.0 0.0
000210 00 00 00 00 00 00 00 00 00 00 00 00 00 00 00 00
       0.0 0.0 0.0 0.0
000220 00 00 00 00 00 00 00 00 00 00 00 00 00 00 00 00
       0.0 0.0 0.0 0.0
000230 00 00 00 00 00 00 00 00 00 00 00 00 00 00 00 00
       0.0 0.0 0.0 0.0
000240 00 00 00 00 00 00 00 00 00 00 00 00 00 00 00 00
       0.0 0.0 0.0 0.0
000250 00 00 00 00 00 00 00 00 00 00 00 00 00 00 00 00
       0.0 0.0 0.0 0.0
000260 00 00 00 00 00 00 00 00 00 00 00 00 00 00 00 00
       0.0 0.0 0.0 0.0
000270 00 00 00 00 00 00 00 00 00 00 00 00 00 00 00 00
       0.0 0.0 0.0 0.0
000280 00 00 00 00 00 00 00 00 00 00 00 00 00 00 00 00
       0.0 0.0 0.0 0.0
000290 00 00 00 00 00 00 00 00 00 00 00 00 00 00 00 00
       0.0 0.0 0.0 0.0
0002a0 00 00 00 00 00 00 00 00 00 00 00 00 00 00 00 00
       0.0 0.0 0.0 0.0
0002b0 00 00 00 00 00 00 00 00 00 00 00 00
       0.0 0.0 0.0

_ei_mask f4 [175]
000000 00 00 80 3f 00 00 80 3f 00 00 80 3f 00 00 80 3f
       1.0 1.0 1.0 1.0
000010 00 00 80 3f 00 00 80 3f 00 00 80 3f 00 00 80 3f
       1.0 1.0 1.0 1.0
000020 00 00 80 3f 00 00 80 3f 00 00 80 3f 00 00 80 3f
       1.0 1.0 1.0 1.0
000030 00 00 80 3f 00 00 80 3f 00 00 80 3f 00 00 80 3f
       1.0 1.0 1.0 1.0
000040 00 00 80 3f 00 00 80 3f 00 00 80 3f 00 00 80 3f
       1.0 1.0 1.0 1.0
000050 00 00 80 3f 00 00 80 3f 00 00 80 3f 00 00 80 3f
       1.0 1.0 1.0 1.0
000060 00 00 80 3f 00 00 80 3f 00 00 80 3f 00 00 80 3f
       1.0 1.0 1.0 1.0
000070 00 00 80 3f 00 00 80 3f 00 00 80 3f 00 00 80 3f
       1.0 1.0 1.0 1.0
000080 00 00 80 3f 00 00 80 3f 00 00 80 3f 00 00 80 3f
       1.0 1.0 1.0 1.0
000090 00 00 80 3f 00 00 80 3f 00 00 80 3f 00 00 80 3f
       1.0 1.0 1.0 1.0
0000a0 00 00 80 3f 00 00 80 3f 00 00 80 3f 00 00 80 3f
       1.0 1.0 1.0 1.0
0000b0 00 00 80 3f 00 00 80 3f 00 00 80 3f 00 00 80 3f
       1.0 1.0 1.0 1.0
0000c0 00 00 80 3f 00 00 80 3f 00 00 80 3f 00 00 80 3f
       1.0 1.0 1.0 1.0
0000d0 00 00 80 3f 00 00 80 3f 00 00 80 3f 00 00 80 3f
       1.0 1.0 1.0 1.0
0000e0 00 00 80 3f 00 00 80 3f 00 00 80 3f 00 00 80 3f
       1.0 1.0 1.0 1.0
0000f0 00 00 80 3f 00 00 80 3f 00 00 80 3f 00 00 80 3f
       1.0 1.0 1.0 1.0
000100 00 00 80 3f 00 00 80 3f 00 00 80 3f 00 00 80 3f
       1.0 1.0 1.0 1.0
000110 00 00 80 3f 00 00 80 3f 00 00 80 3f 00 00 80 3f
       1.0 1.0 1.0 1.0
000120 00 00 80 3f 00 00 80 3f 00 00 80 3f 00 00 80 3f
       1.0 1.0 1.0 1.0
000130 00 00 80 3f 00 00 80 3f 00 00 80 3f 00 00 80 3f
       1.0 1.0 1.0 1.0
000140 00 00 80 3f 00 00 80 3f 00 00 80 3f 00 00 80 3f
       1.0 1.0 1.0 1.0
000150 00 00 80 3f 00 00 80 3f 00 00 80 3f 00 00 80 3f
       1.0 1.0 1.0 1.0
000160 00 00 80 3f 00 00 80 3f 00 00 80 3f 00 00 80 3f
       1.0 1.0 1.0 1.0
000170 00 00 80 3f 00 00 80 3f 00 00 80 3f 00 00 80 3f
       1.0 1.0 1.0 1.0
000180 00 00 80 3f 00 00 80 3f 00 00 80 3f 00 00 80 3f
       1.0 1.0 1.0 1.0
000190 00 00 80 3f 00 00 80 3f 00 00 80 3f 00 00 80 3f
       1.0 1.0 1.0 1.0
0001a0 00 00 80 3f 00 00 80 3f 00 00 80 3f 00 00 80 3f
       1.0 1.0 1.0 1.0
0001b0 00 00 80 3f 00 00 80 3f 00 00 80 3f 00 00 80 3f
       1.0 1.0 1.0 1.0
0001c0 00 00 80 3f 00 00 80 3f 00 00 80 3f 00 00 80 3f
       1.0 1.0 1.0 1.0
0001d0 00 00 80 3f 00 00 80 3f 00 00 80 3f 00 00 80 3f
       1.0 1.0 1.0 1.0
0001e0 00 00 80 3f 00 00 80 3f 00 00 80 3f 00 00 80 3f
       1.0 1.0 1.0 1.0
0001f0 00 00 80 3f 00 00 80 3f 00 00 80 3f 00 00 80 3f
       1.0 1.0 1.0 1.0
000200 00 00 80 3f 00 00 80 3f 00 00 80 3f 00 00 80 3f
       1.0 1.0 1.0 1.0
000210 00 00 80 3f 00 00 80 3f 00 00 80 3f 00 00 80 3f
       1.0 1.0 1.0 1.0
000220 00 00 80 3f 00 00 80 3f 00 00 80 3f 00 00 80 3f
       1.0 1.0 1.0 1.0
000230 00 00 80 3f 00 00 80 3f 00 00 80 3f 00 00 80 3f
       1.0 1.0 1.0 1.0
000240 00 00 80 3f 00 00 80 3f 00 00 80 3f 00 00 80 3f
       1.0 1.0 1.0 1.0
000250 00 00 80 3f 00 00 80 3f 00 00 80 3f 00 00 80 3f
       1.0 1.0 1.0 1.0
000260 00 00 80 3f 00 00 80 3f 00 00 80 3f 00 00 80 3f
       1.0 1.0 1.0 1.0
000270 00 00 80 3f 00 00 80 3f 00 00 80 3f 00 00 80 3f
       1.0 1.0 1.0 1.0
000280 00 00 80 3f 00 00 80 3f 00 00 80 3f 00 00 80 3f
       1.0 1.0 1.0 1.0
000290 00 00 80 3f 00 00 80 3f 00 00 80 3f 00 00 80 3f
       1.0 1.0 1.0 1.0
0002a0 00 00 80 3f 00 00 80 3f 00 00 80 3f 00 00 80 3f
       1.0 1.0 1.0 1.0
0002b0 00 00 80 3f 00 00 80 3f 00 00 80 3f
       1.0 1.0 1.0

weight f4 [403, 3]
000000 a9 52 21 c0 b5 ae 9d 3f 81 d1 0b 40 83 de 37 c0
       -2.5206702 1.2318941 2.184662 -2.872956
000010 5b b2 81 3f fb 51 25 40 23 53 1f c0 6c 00 6c 3f
       1.0132555 2.5831287 -2.4894493 0.92188144
000020 12 08 18 40 d2 d3 1a c0 e1 59 68 3f d8 4b 0e 40
       2.3754926 -2.4191785 0.90762144 2.2233791
000030 f6 ec 10 c0 6c d5 6f 3f 17 8a f2 3f bc 4f 11 c0
       -2.264463 0.9368503 1.8948392 -2.2704916
000040 2c 46 6c 3f c6 93 a5 3f 2c 05 1a c0 ff 27 59 3f
       0.92294574 1.2935722 -2.4065657 0.84826654
000050 59 34 be 3f 8c 42 19 c0 2f f1 0f 3f b0 4d fa 3f
       1.4859725 -2.3946867 0.5622739 1.9554958
000060 af a9 31 c0 1e 19 34 3f fb d5 10 40 ad 75 37 c0
       -2.7759817 0.70350826 2.2630603 -2.8665574
000070 74 d9 93 3f 8a 3f 4b 3f d9 ab f8 bf 2e a0 b3 3f
       1.1550736 0.7939383 -1.9427444 1.4033258
000080 8b a6 d7 3c 03 60 ef bf 60 65 15 40 cd 28 8c 3e
       0.026324531 -1.8701175 2.3343124 0.2737488
000090 90 44 e4 bf 40 d3 aa 3f e2 cb 85 3f dd 19 e3 bf
       -1.7833424 1.3345718 1.0452845 -1.7742268
0000a0 0c ad c5 3f c3 ba 9b 3f b7 10 26 c0 3d e2 8e 3f
       1.5443435 1.216637 -2.5947702 1.1162792
0000b0 c1 32 d4 3f 66 bc 31 c0 b2 eb a7 3f 04 ef 06 40
       1.6577989 -2.777124 1.3118804 2.1083384
0000c0 e9 fa 05 c0 6e 16 be 3f 38 94 b0 3f 2d e9 cf bf
       -2.0934393 1.4850595 1.3795233 -1.6243035
0000d0 19 1a a7 3f de 18 7f 3f 72 ef 2e c0 a1 04 e1 3f
       1.3054839 0.9964732 -2.7333646 1.7579538
0000e0 18 8a a9 3f e8 01 4f c0 dc e5 ea 3f 1b 49 04 40
       1.3245268 -3.2344913 1.8351398 2.066962
0000f0 14 b9 37 c0 28 4b d9 3f 09 83 d6 3f 99 0a 22 c0
       -2.8706713 1.6976061 1.6758739 -2.5318968
000100 8a 63 b2 3f 72 8e 41 3f 5a bc 08 c0 c4 55 b3 3f
       1.3936627 0.7560798 -2.136496 1.4010549
000110 fa 05 9b 3f 8b c5 0e c0 a6 32 54 3f 06 7a d4 3f
       1.2111199 -2.230807 0.82889783 1.6599739
000120 68 94 13 c0 9c 4d 56 3f 93 cc c7 3f e3 f1 f8 bf
       -2.305933 0.8371217 1.5609306 -1.9448818
000130 df 5d 68 3f ca 33 ab 3f 20 cd bd bf bb 24 69 3f
       0.90768236 1.337518 -1.4828224 0.9107167
000140 6a b0 35 3f 83 b4 ed bf d1 ed 73 3f b1 e0 83 3f
       0.7097231 -1.8570713 0.95284754 1.0302945
000150 e4 a4 eb bf cc df 99 3f 9a 11 58 3f df 14 e8 bf
       -1.8409696 1.2021422 0.8440186 -1.8131369
000160 81 73 8a 3f 83 3b 90 3f d4 3c cd bf 5f bb 4d 3f
       1.0816499 1.1268162 -1.6034188 0.8036403
000170 af 54 97 3f 4b e3 c2 bf 32 2b 4c 3f b8 c2 6a 3f
       1.1822718 -1.5225614 0.7975341 0.9170337
000180 f3 35 cc bf d1 0f 28 40 b9 e2 18 3f 23 d1 37 bf
       -1.5953964 2.6259654 0.5972095 -0.7180349
000190 89 bd e6 3f f4 36 95 3e 3c 13 92 be c3 0e cc 3f
       1.8026592 0.29143488 -0.285303 1.5942005
0001a0 58 67 34 3e ab 8c 04 be 1b f7 09 40 e5 19 07 bf
       0.17617548 -0.12944286 2.1557071 -0.52773887
0001b0 9b 82 40 be 70 e2 ea 3f f1 2c bd be c1 81 0d be
       -0.18799822 1.8350353 -0.3694835 -0.13819028
0001c0 cb f4 e0 3f fe 4c bc be a7 a7 58 be f2 ea d8 3f
       1.7574705 -0.3677749 -0.21157704 1.69467
0001d0 c2 85 10 bd 29 71 e6 be 13 0a de 3f e6 42 39 bf
       -0.03528381 -0.4500821 1.7346824 -0.72367704
0001e0 1e 1f 5f be 26 d6 db 3f 7a 8b 02 bf 3f f7 85 bd
       -0.21789214 1.7174728 -0.50994074 -0.06541299
0001f0 47 0d fe 3f 27 9a 80 bf e5 23 d5 bd 2b 4a cf 3f
       1.9847802 -1.0047044 -0.10407237 1.6194509
000200 b1 3e 18 bf 75 03 c9 bd 6c 7e ff 3f 6d 35 6f bf
       -0.5947066 -0.098151125 1.9960456 -0.93440896
000210 94 7a b4 3d cd 56 ee 3f 77 f2 a3 bf 50 27 1f be
       0.088124424 1.862024 -1.2808369 -0.1554234
000220 f3 f7 fb 3f ca 30 26 bf 4d 10 99 be 51 c1 d8 3f
       1.9685043 -0.64918196 -0.2989525 1.6933995
000230 63 c5 a1 be 09 98 00 bf 8d d1 e3 3f c8 fc 5a be
       -0.31595907 -0.5023199 1.7798325 -0.21385491
000240 b4 2d 87 be 69 35 c3 3f bb a9 06 bf 86 12 29 bf
       -0.26402056 1.5250674 -0.5260274 -0.6604389
000250 c9 91 91 3f 03 e6 f7 bc 7c 6f ef bf be da 8b 3f
       1.1372615 -0.030261045 -1.8705897 1.092613
000260 97 35 95 3f c9 aa f1 bf 12 0c 9c 3f 9e 5f a1 3f
       1.1656979 -1.8880244 1.2191184 1.2607305
000270 b0 5e c5 bf e8 37 2f 3f 05 b8 a0 3f 64 0a fb bf
       -1.5419521 0.6844468 1.2556158 -1.9612546
000280 5e 47 9a 3f 0a bd bb 3f 3d e2 36 c0 85 07 d7 3f
       1.205303 1.4667065 -2.8575585 1.679917
000290 57 e1 e6 3f f7 7e e8 bf 7d c8 9e 3f 13 a0 b5 3f
       1.8037518 -1.8163747 1.2404934 1.4189476
0002a0 60 f7 0a c0 01 65 8a 3f bb fc f8 3f 63 c7 72 c0
       -2.1713486 1.0812074 1.9452127 -3.7934196
0002b0 97 a0 96 3f 41 a9 3a 40 c6 23 75 c0 7d 86 9c 3f
       1.1767758 2.9165804 -3.8303084 1.2228543
0002c0 79 c3 49 40 a3 fc 75 c0 5e b2 aa 3f 24 94 2e 40
       3.1525557 -3.8435447 1.3335683 2.7277918
0002d0 48 ec 60 c0 d2 47 5c 3f cd 00 3c 40 cb 76 44 c0
       -3.5144215 0.8604709 2.9375489 -3.0697505
0002e0 bd db 1c 3f d8 0b 1b 40 e7 bd 62 c0 57 c9 4a 3f
       0.61272794 2.422598 -3.5428407 0.7921347
0002f0 2c b4 2a 40 94 4e 55 c0 bf ec 2f 3f 33 29 2e 40
       2.6672468 -3.332921 0.6872062 2.7212646
000300 8b bc 4d c0 45 4f 28 3f 0c f4 28 40 9c 19 5e c0
       -3.2146327 0.65745956 2.6398954 -3.470313
000310 ef 48 0c 3f 69 82 3c 40 e0 e0 61 c0 11 c5 3d 3f
       0.5479879 2.9454596 -3.5293503 0.74128824
000320 dd e6 2f 40 47 af 33 c0 b6 92 16 3f e5 bb 0c 40
       2.7484658 -2.807573 0.58817613 2.1989682
000330 c6 8a 18 c0 99 5a 41 3f 1f f5 f4 3f 39 23 23 c0
       -2.38347 0.75528866 1.9137305 -2.5490248
000340 7a b1 2a 3f 08 5f cc 3f d6 0a 22 c0 29 05 da 3f
       0.6667706 1.5966501 -2.5319114 1.7032825
000350 a2 24 ee 3f 83 ff 13 c0 69 de 8f 3f c3 f7 05 40
       1.860493 -2.3124702 1.1239749 2.0932472
000360 0c 0d fa bf 08 1b 6c 3f 93 04 db 3f 92 72 ab bf
       -1.9535232 0.92228746 1.7110771 -1.3394339
000370 6e 35 d0 3f 1e 8e 6c 3f 1c 86 c8 bf e7 44 96 3f
       1.6266305 0.92404354 -1.5665927 1.1739777
000380 cb 2a 2b 3f 0c 88 c0 bf 9e 91 6e 3f d1 98 55 3f
       0.6686217 -1.5041518 0.93190944 0.83436304
000390 08 70 b2 bf 2c 2f 66 3f 95 a7 a1 3f e7 e2 eb bf
       -1.3940439 0.8991573 1.2629267 -1.842862
0003a0 ee 8c 50 3f f1 58 b8 3f 47 e0 27 c0 ae a6 92 3f
       0.8146504 1.4402143 -2.6230638 1.1457117
0003b0 84 0d 8f 3f 2d a2 08 c0 04 d2 a9 3f 84 bd 87 3f
       1.1176 -2.1348984 1.3267217 1.060471
0003c0 c2 cb 13 c0 ea fa 67 3f 32 66 c9 3f 30 10 2a c0
       -2.3093114 0.9061724 1.5734313 -2.657238
0003d0 46 43 84 3f 13 20 89 3f 99 17 18 c0 f6 36 5e 3f
       1.033303 1.0712913 -2.3764403 0.86802614
0003e0 47 39 3c 3f 21 87 c1 bf e6 47 e4 3f fc 64 d8 3e
       0.735249 -1.5119363 1.7834442 0.42264545
0003f0 7c 15 a0 bf 52 06 dc 3f 30 67 12 bf fe 89 bc bf
       -1.2506557 1.7189429 -0.571887 -1.4729612

bias f4 [3]
000000 00 00 00 00 00 00 00 00 00 00 00 00
       0.0 0.0 0.0

_ei_mask f4 [3]
000000 00 00 80 3f 00 00 80 3f 00 00 80 3f
       1.0 1.0 1.0

rmat f4 [1, 1, 3]
000000 00 00 80 bf 00 00 00 40 00 00 80 bf
       -1.0 2.0 -1.0

weight f4 [3, 175]
000000 f6 86 11 3f a0 48 bb be 09 8c 8c be 30 0b 27 3f
       0.5684656 -0.36578846 -0.27450588 0.65251446
000010 5b 8a 78 bf ef 65 b2 3d e1 d9 ed be 06 15 68 3e
       -0.97086114 0.087108485 -0.4645529 0.2266427
000020 47 70 d6 3e f8 c9 0d be 9a 37 09 be f2 83 72 bb
       0.41882536 -0.13846576 -0.13400117 -0.0037004915
000030 b1 90 85 bf ba 05 44 bd 0d d7 86 be 9e 7b 5b bf
       -1.0434781 -0.047857024 -0.26335946 -0.857355
000040 c4 37 83 be 1f 05 8c 3e bc fd 7f be 7f ed b2 3e
       -0.25628483 0.27347657 -0.24999136 0.3494682
000050 d9 c2 99 3e e3 9c a2 3e 8d f8 a7 3d d9 4b 80 be
       0.3003147 0.3176032 0.08201704 -0.25057867
000060 8c 8a 87 be 3e 7a 1c 3f eb d6 71 3e 80 82 fe 3e
       -0.2647289 0.61124027 0.23617141 0.4970894
000070 a2 d0 eb 3e 5a 58 65 bf e6 15 4b 3f 51 2f 1e bf
       0.46057612 -0.8958794 0.7933029 -0.6179095
000080 1c fe 09 be 31 af 8b 3f 7d 4a 73 be 5c 15 d5 be
       -0.13475841 1.0912839 -0.23758884 -0.41617858
000090 a9 a9 40 3f 64 8d 5b be a8 3f c1 bd d3 ca c3 3e
       0.7525888 -0.21440655 -0.094359696 0.3824068
0000a0 ee d5 13 bf aa 06 0a be 24 3c 86 3e 9a 1f 8b be
       -0.57748306 -0.13479105 0.2621776 -0.27172548
0000b0 1c c8 29 bf 0c a3 17 3c bd 17 65 3b 88 98 eb be
       -0.6632097 0.009255182 0.0034956776 -0.4601481
0000c0 99 07 2f be ae 50 13 be ec 01 78 bf a4 92 77 bf
       -0.17092742 -0.14386246 -0.9687793 -0.9670813
0000d0 1f 59 47 be c8 ba 96 3e 8d 78 c9 3e b0 b8 8e bf
       -0.19467591 0.29439378 0.39349785 -1.1150112
0000e0 97 f3 5a 3e 67 6c 42 bf a8 89 86 3e 38 46 fa be
       0.21381985 -0.7594666 0.26276898 -0.48881698
0000f0 7e ff fa 3e 11 7c 19 3e 42 b4 97 bd e6 06 6a be
       0.4902305 0.14988734 -0.07407428 -0.22854194
000100 a9 52 6c be 7e 6f a6 3e 98 c5 6e 3e 12 b4 61 be
       -0.23078407 0.32506937 0.23317564 -0.22041348
000110 79 5d 7d 3e 56 7b 95 3d 55 20 61 3e 20 f5 54 bd
       0.24742688 0.07298915 0.2198499 -0.051991582
000120 8d d0 ac 3c e4 50 30 bf 9b 89 70 bc 85 0e fa be
       0.021095539 -0.6887343 -0.014681245 -0.48839203
000130 ec 94 17 bf 2c 2a b7 3d ce ef 24 bf 21 a8 d1 be
       -0.5921161 0.089435905 -0.6442841 -0.40948585
000140 67 24 b8 bd 78 3c a8 be 5a f8 a9 be 42 fb 32 bf
       -0.08991318 -0.32858634 -0.3319729 -0.6991464
000150 a7 d2 c5 be 80 4a ca 3c ff 10 3a bf ee 07 15 bf
       -0.38637277 0.024693727 -0.72682184 -0.58215225
000160 fd 48 b2 bf 23 ba 06 3f 3f 63 fa 3d 2a 89 42 3d
       -1.3928524 0.5262777 0.12225961 0.04749409
000170 8e c0 3d bf e9 d3 0e 3f 33 0f f3 3e 6d af 80 3e
       -0.7412194 0.557921 0.47472534 0.2513384
000180 83 32 03 be a3 b6 bd 3e 53 52 82 3e e1 2d 94 3e
       -0.12812237 0.37053403 0.25453433 0.28941253
000190 ad 3e b5 3e 5a 17 24 3f 1d fe 6e bf 0e 36 6e be
       0.3539938 0.6409813 -0.93356496 -0.23262808
0001a0 c3 fd 44 3d 3e 56 5d bf b1 56 b0 3e a8 f8 42 bd
       0.04809357 -0.8645972 0.3444114 -0.04760042
0001b0 2a c8 29 be b4 61 9f 3e 7c 30 2f bf a6 e6 ef bc
       -0.16580263 0.3112923 -0.68433356 -0.029284786
0001c0 a4 db 07 3f 47 49 4a be 92 38 b4 3e ce e3 41 be
       0.5306952 -0.19754516 0.3519941 -0.18934557
0001d0 ae a9 cc 3e ce b0 83 bd 36 0e 9a 3e 47 d3 8c bd
       0.39973205 -0.06430207 0.30088967 -0.068762355
0001e0 30 6e a8 3e 18 74 50 be ad 5c 73 be 27 a3 a6 be
       0.32896566 -0.20356786 -0.23765822 -0.3254635
0001f0 34 71 7d 3e 9d ff 39 be 67 54 67 3e cb bd 01 3e
       0.24750215 -0.18163915 0.2259079 0.12670057
000200 64 2e 15 be 75 b5 d5 3e 29 0e 03 be ff 21 8c be
       -0.14568478 0.41740003 -0.1279837 -0.27369687
000210 c1 36 4f 3e bb 5c a5 3d eb 3b 67 be ae 46 82 3e
       0.2023573 0.080743276 -0.2258145 0.2544455
000220 95 81 92 3e 28 74 56 3d a2 ec c4 3c 90 cb 8e 3d
       0.28614488 0.05235687 0.024038617 0.0697242
000230 e2 e7 fc 3d 48 2f 1e 3f 8f fe f2 3d d8 c3 31 3d
       0.12348916 0.61790895 0.118649594 0.04339966
000240 07 0c 1e 3e e1 6b ba bc 2b 68 a9 3d 8a 34 10 bd
       0.15434276 -0.022756519 0.082718216 -0.035206355
000250 d5 b1 5a 3e 9e c3 c3 bc 92 90 86 bd 69 be 4c 3e
       0.213569 -0.023896988 -0.06570543 0.1999451
000260 56 f8 05 bd 84 dd 0c 3e c8 98 cf be 16 2b ee be
       -0.032707535 0.13756377 -0.4054625 -0.46517247
000270 64 c1 89 3e c8 13 2f bf 8e ea a3 bd 8c ba 54 3f
       0.26905358 -0.6838956 -0.08003722 0.8309715
000280 b6 24 a1 3e 15 37 27 3f af cb 9f 3f 8c 8f 32 3e
       0.3147332 0.65318424 1.2484034 0.17437571
000290 b7 cb 81 bc 41 61 41 bf 11 37 ca be 73 f8 b1 bd
       -0.01584421 -0.7553902 -0.39495137 -0.08689966
0002a0 53 94 0b 3d 8a 99 bb be bc 37 de be 3f c6 91 bc
       0.034077 -0.36640579 -0.43401897 -0.017794726
0002b0 39 ee 80 3c 31 76 b3 3e cc 78 83 3e d7 6e 34 bf
       0.015738593 0.3505111 0.25678098 -0.7048163
0002c0 c9 a5 d1 3e a7 c2 84 be c0 e3 ba bf d7 4b 5c bf
       0.40946797 -0.25929758 -1.4600754 -0.8605322
0002d0 7f 51 20 3d ce 9b 0c 3f bc 99 59 3e b2 20 8d 3f
       0.03914022 0.5492524 0.21250051 1.1025603
0002e0 9f 00 2c 3f 0e 8d 64 3e 82 6e 2b 3f 40 69 b2 3d
       0.6718845 0.22319433 0.66965497 0.08711481
0002f0 8c 18 85 3e b7 4f 13 3e b9 3f ed 3e 68 1a 92 3d
       0.2599529 0.14385878 0.4633768 0.07133943
000300 e8 34 ed be 7b ac 00 3e e9 32 7e 3f 0b 2f 90 bf
       -0.46329427 0.12565796 0.9929643 -1.1264356
000310 6a 95 6c bf a5 27 d4 bd 66 c7 48 be 58 21 27 3f
       -0.9241549 -0.10359124 -0.19607314 0.65285254
000320 9e 35 01 3f f0 46 f6 3f b3 c8 7f be 5b ba 6e 3e
       0.5047244 1.9240398 -0.24978904 0.23313276
000330 7d 8c 90 bf db 6f 40 be 7a 9a 90 3f 08 6e 42 3f
       -1.1292874 -0.1879267 1.1297143 0.75949144
000340 c9 51 e6 3f 51 65 bf bf dc cc f7 bd 10 11 82 bf
       1.7993709 -1.4952794 -0.12099621 -1.0161457
000350 01 79 3c bd 09 ce 87 3f d6 2d 40 3f c3 e8 13 3d
       -0.046013836 1.0609752 0.7506994 0.03611065
000360 85 22 3a bf 69 33 bc bd a2 97 16 3f f5 32 da 3e
       -0.7270892 -0.09189493 0.58825123 0.42617002
000370 23 44 a7 3e 6e d2 fe be 2a 46 c6 bd 4d 98 71 3e
       0.32669172 -0.4976992 -0.096813515 0.23593254
000380 1a da f6 bd 6a 61 29 3f 45 f0 64 3f 4c 90 84 3e
       -0.12053318 0.6616427 0.8942912 0.2589134
000390 8a 6e 2b bf 33 49 db be cb 0f b7 3e 80 b1 e6 be
       -0.66965544 -0.42829284 0.35754237 -0.45057297
0003a0 e8 ed a5 3f 7b e6 06 bf 6b 4e bf 3f c7 00 16 bf
       1.2963228 -0.52695435 1.4945806 -0.58594936
0003b0 4f 9e bd be e8 92 18 bf 42 b3 c8 bf 95 6a 81 be
       -0.37034842 -0.5959916 -1.5679705 -0.25276628
0003c0 4a 40 92 3e 3d 76 18 bd bb bd 34 3f c3 25 a3 be
       0.28564674 -0.037222136 0.70602006 -0.31864747
0003d0 40 35 12 3e 4f 69 a1 be 8c a0 81 bd 70 40 c7 bd
       0.14278126 -0.31525657 -0.0632945 -0.09729087
0003e0 38 5b 1b 3f 76 8b df 3c 9f 33 04 3f 67 8e a6 3e
       0.60686064 0.02728818 0.5164127 0.3253052
0003f0 95 69 ed bc 03 87 0d 3f 9e 8b ca 3e b9 51 88 be
       -0.02898101 0.55284137 0.39559644 -0.2662485

bias f4 [175]
000000 00 00 00 00 00 00 00 00 00 00 00 00 00 00 00 00
       0.0 0.0 0.0 0.0
000010 00 00 00 00 00 00 00 00 00 00 00 00 00 00 00 00
       0.0 0.0 0.0 0.0
000020 00 00 00 00 00 00 00 00 00 00 00 00 00 00 00 00
       0.0 0.0 0.0 0.0
000030 00 00 00 00 00 00 00 00 00 00 00 00 00 00 00 00
       0.0 0.0 0.0 0.0
000040 00 00 00 00 00 00 00 00 00 00 00 00 00 00 00 00
       0.0 0.0 0.0 0.0
000050 00 00 00 00 00 00 00 00 00 00 00 00 00 00 00 00
       0.0 0.0 0.0 0.0
000060 00 00 00 00 00 00 00 00 00 00 00 00 00 00 00 00
       0.0 0.0 0.0 0.0
000070 00 00 00 00 00 00 00 00 00 00 00 00 00 00 00 00
       0.0 0.0 0.0 0.0
000080 00 00 00 00 00 00 00 00 00 00 00 00 00 00 00 00
       0.0 0.0 0.0 0.0
000090 00 00 00 00 00 00 00 00 00 00 00 00 00 00 00 00
       0.0 0.0 0.0 0.0
0000a0 00 00 00 00 00 00 00 00 00 00 00 00 00 00 00 00
       0.0 0.0 0.0 0.0
0000b0 00 00 00 00 00 00 00 00 00 00 00 00 00 00 00 00
       0.0 0.0 0.0 0.0
0000c0 00 00 00 00 00 00 00 00 00 00 00 00 00 00 00 00
       0.0 0.0 0.0 0.0
0000d0 00 00 00 00 00 00 00 00 00 00 00 00 00 00 00 00
       0.0 0.0 0.0 0.0
0000e0 00 00 00 00 00 00 00 00 00 00 00 00 00 00 00 00
       0.0 0.0 0.0 0.0
0000f0 00 00 00 00 00 00 00 00 00 00 00 00 00 00 00 00
       0.0 0.0 0.0 0.0
000100 00 00 00 00 00 00 00 00 00 00 00 00 00 00 00 00
       0.0 0.0 0.0 0.0
000110 00 00 00 00 00 00 00 00 00 00 00 00 00 00 00 00
       0.0 0.0 0.0 0.0
000120 00 00 00 00 00 00 00 00 00 00 00 00 00 00 00 00
       0.0 0.0 0.0 0.0
000130 00 00 00 00 00 00 00 00 00 00 00 00 00 00 00 00
       0.0 0.0 0.0 0.0
000140 00 00 00 00 00 00 00 00 00 00 00 00 00 00 00 00
       0.0 0.0 0.0 0.0
000150 00 00 00 00 00 00 00 00 00 00 00 00 00 00 00 00
       0.0 0.0 0.0 0.0
000160 00 00 00 00 00 00 00 00 00 00 00 00 00 00 00 00
       0.0 0.0 0.0 0.0
000170 00 00 00 00 00 00 00 00 00 00 00 00 00 00 00 00
       0.0 0.0 0.0 0.0
000180 00 00 00 00 00 00 00 00 00 00 00 00 00 00 00 00
       0.0 0.0 0.0 0.0
000190 00 00 00 00 00 00 00 00 00 00 00 00 00 00 00 00
       0.0 0.0 0.0 0.0
0001a0 00 00 00 00 00 00 00 00 00 00 00 00 00 00 00 00
       0.0 0.0 0.0 0.0
0001b0 00 00 00 00 00 00 00 00 00 00 00 00 00 00 00 00
       0.0 0.0 0.0 0.0
0001c0 00 00 00 00 00 00 00 00 00 00 00 00 00 00 00 00
       0.0 0.0 0.0 0.0
0001d0 00 00 00 00 00 00 00 00 00 00 00 00 00 00 00 00
       0.0 0.0 0.0 0.0
0001e0 00 00 00 00 00 00 00 00 00 00 00 00 00 00 00 00
       0.0 0.0 0.0 0.0
0001f0 00 00 00 00 00 00 00 00 00 00 00 00 00 00 00 00
       0.0 0.0 0.0 0.0
000200 00 00 00 00 00 00 00 00 00 00 00 00 00 00 00 00
       0.0 0.0 0.0 0.0
000210 00 00 00 00 00 00 00 00 00 00 00 00 00 00 00 00
       0.0 0.0 0.0 0.0
000220 00 00 00 00 00 00 00 00 00 00 00 00 00 00 00 00
       0.0 0.0 0.0 0.0
000230 00 00 00 00 00 00 00 00 00 00 00 00 00 00 00 00
       0.0 0.0 0.0 0.0
000240 00 00 00 00 00 00 00 00 00 00 00 00 00 00 00 00
       0.0 0.0 0.0 0.0
000250 00 00 00 00 00 00 00 00 00 00 00 00 00 00 00 00
       0.0 0.0 0.0 0.0
000260 00 00 00 00 00 00 00 00 00 00 00 00 00 00 00 00
       0.0 0.0 0.0 0.0
000270 00 00 00 00 00 00 00 00 00 00 00 00 00 00 00 00
       0.0 0.0 0.0 0.0
000280 00 00 00 00 00 00 00 00 00 00 00 00 00 00 00 00
       0.0 0.0 0.0 0.0
000290 00 00 00 00 00 00 00 00 00 00 00 00 00 00 00 00
       0.0 0.0 0.0 0.0
0002a0 00 00 00 00 00 00 00 00 00 00 00 00 00 00 00 00
       0.0 0.0 0.0 0.0
0002b0 00 00 00 00 00 00 00 00 00 00 00 00
       0.0 0.0 0.0
