checkpoints/version142/model.pt (torch, 47789 bytes, 21 tensors)

bias f4 [175]
0	0x3f25ba72	0.6473762
1	0x404973a0	3.1476822
2	0xbf0ece6a	-0.5578371
3	0x4002ef17	2.045843
4	0xbed36894	-0.41290724
5	0x4052623a	3.2872453
6	0x3ff7150d	1.9303299
7	0x407da466	3.963159
8	0x3ff2e0b0	1.8974819
9	0x402fbfc0	2.7460785
10	0x3fc1657b	1.5109094
11	0x3fcf4884	1.6194005
12	0xbe941bab	-0.2892736
13	0xbdabacc2	-0.0838256
14	0x3dcca714	0.09992805
15	0x401bff75	2.4374669
16	0x3d9cd51d	0.07657836
17	0x3ed64eb7	0.4185693
18	0x3d8196fd	0.06327627
19	0x4066b89f	3.6050184
20	0x3ec6fc3c	0.38864315
21	0x3fe3ed12	1.7806723
22	0x40026643	2.0374916
23	0xbe95e7f4	-0.2927853
24	0xbfa554b9	-1.291648
25	0x4057a67c	3.3695364
26	0x3f3320b9	0.69971806
27	0x40272ca2	2.6120992
28	0x3f9e255e	1.2355154
29	0x404fa757	3.2445886
30	0x3f67fca6	0.90619886
31	0x3db22c41	0.08699847
32	0x3feaf18b	1.8354963
33	0xbdb4e1e4	-0.08832148
34	0x3ee696c6	0.45036906
35	0x4086c129	4.211079
36	0x3f76243b	0.96149033
37	0x3fb755a2	1.4323008
38	0x3fbe53c8	1.4869318
39	0x40042b04	2.0651255
40	0x40152558	2.3304043
41	0x3f5bab7e	0.8580855
42	0x3e4eca41	0.20194341
43	0x3ed1b47d	0.40958014
44	0x3f958477	1.168105
45	0xbcdb3b75	-0.02676175
46	0x3f0b5b74	0.5443642
47	0x3d921d0d	0.07134447
48	0x3e4e5465	0.20149381
49	0xbd672d9c	-0.05643998
50	0x3e50b937	0.20383154
51	0x3e83d553	0.2574869
52	0x3f95f2c4	1.1714711
53	0x3ec15c34	0.37765658
54	0x3efee2c0	0.49782372
55	0x3f72ade8	0.9479661
56	0xbe2105e4	-0.15724903
57	0x3f1275f2	0.5721122
58	0x3ee01cd2	0.43771988
59	0xbf32740d	-0.6970833
60	0x3d87101f	0.06594872
61	0x3d8e47cf	0.0694729
62	0x3f554eea	0.8332354
63	0x3f7cd685	0.9876483
64	0x3e6559c7	0.22397529
65	0x3f4d58bc	0.8021352
66	0x3f0b047d	0.54303724
67	0x3e675775	0.22591956
68	0x3ea53d01	0.32273105
69	0x3fd3243e	1.6495435
70	0xbd01064d	-0.03150015
71	0x400759bb	2.1148517
72	0x4012a5bd	2.2913659
73	0x3f385b5c	0.72014403
74	0x3fee3948	1.8611231
75	0x3f3d6d52	0.73994935
76	0x3fd1092b	1.6330923
77	0x4013ea68	2.311182
78	0x3fb4296e	1.4075143
79	0x3ffc076b	1.9689764
80	0x40069435	2.1027958
81	0x403d42bd	2.9571984
82	0x3f8dc055	1.107432
83	0x403bf2b5	2.9366887
84	0x3fd2df33	1.6474365
85	0x400489fc	2.070922
86	0x40412bb3	3.0182922
87	0x406da8dc	3.7134314
88	0x3f2a7fca	0.6660124
89	0x3f97709a	1.1831238
90	0x3ffa0b01	1.9534608
91	0x3e1365e7	0.14394341
92	0x40601887	3.501497
93	0x3f441105	0.7658847
94	0x3fc174fb	1.5113825
95	0x3eee7dbf	0.46580312
96	0x409c1768	4.877857
97	0x3f2b615d	0.6694544
98	0xbe6a2cc7	-0.22868644
99	0x3e7139ef	0.23557256
100	0x404e071d	3.2191842
101	0x3f54b63d	0.83090574
102	0x3f9f0c23	1.2425579
103	0x401e8594	2.476903
104	0x3f9f73ee	1.2457254
105	0x3ff55514	1.9166589
106	0x3fbea309	1.4893504
107	0x400ab715	2.1674244
108	0x3fdc0a7f	1.7190703
109	0x4073f663	3.8119133
110	0x3f81242b	1.0089163
111	0x3d303f63	0.0430292
112	0x3d25135f	0.040301677
113	0x4059f763	3.4057243
114	0x3f9b086a	1.2111943
115	0x4059cd10	3.403141
116	0x3e2f9137	0.17145239
117	0x4072bee0	3.7929
118	0x4040c80b	3.0122097
119	0x4040e7d1	3.014149
120	0x409f572d	4.9793916
121	0x3fd0f7aa	1.6325581
122	0x402351a6	2.5518584
123	0x404868f1	3.131405
124	0x40add065	5.431689
125	0x3feeed6e	1.8666208
126	0x3ea1baf2	0.3158794
127	0xbca91b56	-0.020642918
128	0x3f08ddba	0.5346333
129	0x3fabe696	1.3429744
130	0x3ef4dfc2	0.47826964
131	0x3e061a42	0.13095954
132	0xbd1304f3	-0.03589339
133	0x4037e487	2.8733232
134	0x3fd3ab0b	1.6536573
135	0x3e551462	0.20808557
136	0x3e91a426	0.28445548
137	0x4001cc2a	2.0280862
138	0x3f664e54	0.8996327
139	0x3fe030af	1.7514857
140	0x3f388a4f	0.7208604
141	0x3f24dca0	0.6439915
142	0x3f5d07bf	0.86339945
143	0x3f7e8e00	0.99435425
144	0x3df2fc96	0.11864583
145	0x3fbb79bb	1.4646524
146	0x3fee5812	1.8620627
147	0x3fa8f681	1.3200227
148	0xc0033df8	-2.0506573
149	0xbd20f2ed	-0.039294172
150	0x3e5ffc0e	0.21873495
151	0x3e3cedef	0.1845014
152	0x40460fbc	3.0947104
153	0x3f34a461	0.7056332
154	0x40958c24	4.673357
155	0x4021ec32	2.5300412
156	0x3fa09f84	1.254868
157	0x40a216ef	5.0652995
158	0x3f1bdc2f	0.6088285
159	0x3f562765	0.8365386
160	0x3f289885	0.65857726
161	0xbf865a7c	-1.0496364
162	0x3f1f074d	0.62120515
163	0x3fa466ec	1.2843909
164	0x401cd62e	2.4505725
165	0x405df952	3.4683423
166	0x3e89d58f	0.26920745
167	0x40155a1a	2.3336244
168	0x3e47c4b7	0.19508635
169	0x40351a50	2.829731
170	0x400bdcd9	2.1853545
171	0x4026052a	2.5940652
172	0x400882d9	2.1329863
173	0x3efc3ad5	0.49263635
174	0x3f7fa40e	0.998597

weight f4 [9, 175]
0	0x3ebcb475	0.36856428
1	0x3e98397c	0.29731357
2	0xb1783734	-3.612013e-09
3	0x3eb670e6	0.3563301
4	0xb34b6a78	-4.7361453e-08
5	0x3f18fa15	0.59756595
6	0x3edc39cf	0.43012854
7	0x3f10f8d0	0.5662966
8	0x3f65d151	0.89772516
9	0x3f26fb44	0.6522715
10	0x3f37daf6	0.7181848
11	0x3f335d92	0.7006465
12	0xb0102292	-5.243602e-10
13	0x3ef2a418	0.4739082
14	0x3e7ef5a0	0.24898386
15	0xb6f7fc1c	-7.390523e-06
16	0x3e857162	0.26063067
17	0x3ebd3309	0.36953
18	0x3e97fba1	0.29684165
19	0x3f187813	0.5955822
20	0x2e99250a	6.964214e-11
21	0x3f416c8a	0.7555624
22	0x3f0397cb	0.5140349
23	0xbe898123	-0.26856336
24	0x3f85fe04	1.0468144
25	0x3f401755	0.750356
26	0x3f97f689	1.1872112
27	0x3ea365eb	0.31913695
28	0x3e97b537	0.29630443
29	0x2f3bea1c	1.7090723e-10
30	0x3f87ae25	1.060002
31	0x3e20bf58	0.15697992
32	0x3f18c93a	0.5968205
33	0x3f9d2cc2	1.2279284
34	0x3280312b	1.492352e-08
35	0xb9341b5b	-0.00017176328
36	0x3f07d02e	0.5305203
37	0x3e99f495	0.30069414
38	0x3f1618b2	0.5863143
39	0x3f38033d	0.7187994
40	0x3e93541c	0.28775108
41	0xbecf8223	-0.40528974
42	0x3f466adc	0.77506804
43	0x3f1f4c06	0.6222538
44	0x3d9ca0f8	0.0764789
45	0x3f06dd3c	0.52681327
46	0xb52ce07c	-6.440166e-07
47	0xbdf2ba2e	-0.11851917
48	0xb1b8f0fa	-5.3825007e-09
49	0x3aa0b243	0.0012260157
50	0x3ef5aec9	0.47984913
51	0x3f0635e8	0.52426004
52	0x3e8a72e7	0.2704079
53	0x3f21af18	0.63157797
54	0x3ee3527d	0.4439887
55	0x39550536	0.00020315204
56	0xb4b04166	-3.2830138e-07
57	0x3f1157e8	0.5677476
58	0x3ed93bde	0.42428488
59	0x3edb0056	0.42773694
60	0x3f0b2d7e	0.5436629
61	0x3f175df9	0.59127766
62	0x2dc047fd	2.1859842e-11
63	0x3084fb9d	9.675777e-10
64	0x2d425170	1.1045706e-11
65	0x3f0e8d1e	0.5568408
66	0x3ebef279	0.37294367
67	0x3f20605b	0.62647027
68	0x3e7aba4c	0.24485129
69	0x3efd0413	0.4941717
70	0x3e8d2b06	0.27571887
71	0x3e474986	0.1946164
72	0x3e9f724d	0.31141892
73	0x398cf4f3	0.00026885382
74	0x3e89f4ff	0.2694473
75	0x3ea2571a	0.31707078
76	0xbaae208b	-0.0013284845
77	0x3e988b50	0.29793787
78	0x380823f6	3.2458418e-05
79	0x3ed24dc3	0.41074952
80	0x3a78aafc	0.0009485928
81	0x3aa4da6e	0.0012577304
82	0x3ee6366b	0.44963393
83	0x3e06f02e	0.13177559
84	0x3e53d9f8	0.20688617
85	0x3e8aec99	0.27133635
86	0x3ecd5fbb	0.401121
87	0x3ee2bcb8	0.44284606
88	0x31fd1424	7.365559e-09
89	0x3f17e82b	0.59338635
90	0x3eb262cc	0.34841
91	0x3eb2b496	0.349034
92	0x2f2576c2	1.5048854e-10
93	0x3ec0d39a	0.3766144
94	0x3f26cde2	0.651579
95	0x3f28c75e	0.6592921
96	0x3e3fef6f	0.1874368
97	0x3efe0b92	0.49618202
98	0x3f0b7a7c	0.5448377
99	0x3f6f0792	0.93370926
100	0x3f59c6f7	0.8506922
101	0x3f9440be	1.1582258
102	0x3013592e	5.360502e-10
103	0x301f5a5d	5.7972277e-10
104	0x388d5f21	6.741123e-05
105	0x3100bcc6	1.8733757e-09
106	0x3f86dd92	1.0536368
107	0x3ef329f2	0.4749294
108	0x3f07128b	0.5276267
109	0x3ee10180	0.43946457
110	0xafb4cb86	-3.288642e-10
111	0xb8b143b6	-8.45263e-05
112	0x3f3d746d	0.74005777
113	0x3f2674a7	0.6502175
114	0x3f3c418c	0.73537517
115	0x3f22a50b	0.63533086
116	0x3f51b0c1	0.8191033
117	0xbb285008	-0.0025682468
118	0x3f1388a8	0.57630396
119	0x3eea278c	0.45733297
120	0x3f06fb99	0.5272766
121	0x3eff7a5c	0.4989804
122	0x3ee83172	0.45350224
123	0x3e9f5d20	0.31125736
124	0x3e69c9d6	0.228309
125	0x3ab08a5a	0.0013468966
126	0x3f093df6	0.5361017
127	0x3e1d1134	0.15338594
128	0x3e525cde	0.20543239
129	0x3f16a624	0.5884726
130	0x3f3f96e9	0.74839646
131	0xae8dfece	-6.4572e-11
132	0x3f5ffa4d	0.87491304
133	0x3e974a94	0.29549086
134	0x3027d844	6.106158e-10
135	0x3f1f7184	0.62282586
136	0x3e8159e3	0.2526389
137	0xbbdf4046	-0.006813082
138	0x3bd93531	0.0066286554
139	0xbaf4b5a0	-0.0018669851
140	0x3f19a835	0.6002229
141	0x3f1f6b6c	0.6227329
142	0x3ebf7936	0.37397164
143	0x3b168754	0.0022968845
144	0x3e919212	0.28431755
145	0x3f75e268	0.96048594
146	0xb9acd5ec	-0.0003296578
147	0x3e8e59c3	0.27802858
148	0x3ef3d4a0	0.47623158
149	0x3f025fff	0.5092773
150	0x3eaa0dbc	0.33213603
151	0x3e8a22c0	0.26979637
152	0x3b169afb	0.002298056
153	0x3ee5213e	0.44751924
154	0x3b75322e	0.0037413943
155	0x3e6f3db7	0.23363386
156	0x3f152b0d	0.58268815
157	0x3b0c5ac4	0.0021416405
158	0x3d80c331	0.0628723
159	0x3f54697b	0.8297345
160	0x3f127993	0.5721676
161	0x3f0c8e74	0.54904866
162	0x3f775a34	0.96622014
163	0x3f37cdaf	0.71798223
164	0x3d98f283	0.074681304
165	0xb6bd31e5	-5.6384474e-06
166	0x3e262884	0.16226393
167	0x3da8c28b	0.08240231
168	0x3f00bfcd	0.50292665
169	0xb9371f3b	-0.00017463874
170	0xafc7b6ed	-3.6327866e-10
171	0x3e448add	0.19193597
172	0x3e907041	0.28210643
173	0x3f4427c3	0.7662317
174	0x3ec6813a	0.38770467
175	0x3edbdd08	0.4294207
176	0x3f06acb3	0.5260727
177	0x3f358fd1	0.7092257
178	0x3ef0d1bb	0.47035012
179	0x3fa497c1	1.2858812
180	0xbad3a13f	-0.0016146078
181	0x3f05985e	0.5218562
182	0x3eae14d0	0.34000254
183	0x315cf916	3.2155802e-09
184	0x3efdb62c	0.4955305
185	0xb3e002cc	-1.04313216e-07
186	0xb73e7f40	-1.135451e-05
187	0x3f526c44	0.8219645
188	0xb36e92da	-5.5547254e-08
189	0x3effb7b0	0.4994483
190	0x3f4761f5	0.77883846
191	0xbeebc24d	-0.46046677
192	0x3c1d1aa9	0.009588876
193	0xbed6b22c	-0.4193281
194	0x3ea1b180	0.31580734
195	0x3f3044b5	0.6885484
196	0xb168e3a0	-3.3889833e-09
197	0x3d96b6e4	0.07359102
198	0x3eb32577	0.3498952
199	0x380d057e	3.3622135e-05
200	0x3ee5ee20	0.44908237
201	0x30bd5110	1.3774599e-09
202	0x3e8df70b	0.2772754
203	0x3ed09b36	0.40743417
204	0x3f92ae95	1.1459528
205	0x2ea6c280	7.583356e-11
206	0xbea0767b	-0.31340393
207	0x32308186	1.02739985e-08
208	0x304e47cc	7.5044393e-10
209	0x3f87eef9	1.0619804
210	0x3f6b7f79	0.9199138
211	0x3e33fa28	0.17575896
212	0x3e98003f	0.29687688
213	0x3b0f6ab5	0.002188367
214	0x2f7e56cd	2.3132003e-10
215	0x3f081c34	0.53168035
216	0x3f19fda7	0.6015267
217	0x2d579633	1.2254686e-11
218	0x3c77cd96	0.015124699
219	0x3f3ae7ec	0.73010135
220	0x3e9c7b9c	0.30563056
221	0x3f03e9f4	0.5152886
222	0x3f1512ba	0.582317
223	0x3eea992e	0.45819992
224	0x3ed5e2a9	0.4177449
225	0x3eb4d61a	0.35319597
226	0x3ea69546	0.32535762
227	0x3e9eff5c	0.310542
228	0xb958295e	-0.00020614776
229	0x3810b593	3.450138e-05
230	0x3f01c7f8	0.50695753
231	0x3f1313e9	0.57452255
232	0xbdc5e95d	-0.09663651
233	0xb98d9d2c	-0.00027010718
234	0xbee602bb	-0.44923958
235	0x2f2e4a78	1.5851664e-10
236	0xb208f1da	-7.971233e-09
237	0x3f09e135	0.53859264
238	0x3f6096ba	0.8772999
239	0x3f36eb59	0.7145286
240	0x319de9d0	4.595883e-09
241	0xbdbdb8cc	-0.09263763
242	0x2b38ce05	6.565584e-13
243	0x3eea7c64	0.45798028
244	0x3e7ef430	0.24897838
245	0xbe0e29f4	-0.13883191
246	0x3d8727c2	0.0659938
247	0x3e2bae08	0.16765606
248	0x3edd1e9b	0.43187413
249	0xbc0ba5c6	-0.00852341
250	0x3eb44c33	0.35214385
251	0x3ee4ee4a	0.4471305
252	0x3da647b6	0.081191465
253	0x3efd11f8	0.49427772
254	0x3eef16f9	0.46697214
255	0x3eedc6b0	0.4644065

bias f4 [175]
0	0x00000000	0.0
1	0x00000000	0.0
2	0x00000000	0.0
3	0x00000000	0.0
4	0x00000000	0.0
5	0x00000000	0.0
6	0x00000000	0.0
7	0x00000000	0.0
8	0x00000000	0.0
9	0x00000000	0.0
10	0x00000000	0.0
11	0x00000000	0.0
12	0x00000000	0.0
13	0x00000000	0.0
14	0x00000000	0.0
15	0x00000000	0.0
16	0x00000000	0.0
17	0x00000000	0.0
18	0x00000000	0.0
19	0x00000000	0.0
20	0x00000000	0.0
21	0x00000000	0.0
22	0x00000000	0.0
23	0x00000000	0.0
24	0x00000000	0.0
25	0x00000000	0.0
26	0x00000000	0.0
27	0x00000000	0.0
28	0x00000000	0.0
29	0x00000000	0.0
30	0x00000000	0.0
31	0x00000000	0.0
32	0x00000000	0.0
33	0x00000000	0.0
34	0x00000000	0.0
35	0x00000000	0.0
36	0x00000000	0.0
37	0x00000000	0.0
38	0x00000000	0.0
39	0x00000000	0.0
40	0x00000000	0.0
41	0x00000000	0.0
42	0x00000000	0.0
43	0x00000000	0.0
44	0x00000000	0.0
45	0x00000000	0.0
46	0x00000000	0.0
47	0x00000000	0.0
48	0x00000000	0.0
49	0x00000000	0.0
50	0x00000000	0.0
51	0x00000000	0.0
52	0x00000000	0.0
53	0x00000000	0.0
54	0x00000000	0.0
55	0x00000000	0.0
56	0x00000000	0.0
57	0x00000000	0.0
58	0x00000000	0.0
59	0x00000000	0.0
60	0x00000000	0.0
61	0x00000000	0.0
62	0x00000000	0.0
63	0x00000000	0.0
64	0x00000000	0.0
65	0x00000000	0.0
66	0x00000000	0.0
67	0x00000000	0.0
68	0x00000000	0.0
69	0x00000000	0.0
70	0x00000000	0.0
71	0x00000000	0.0
72	0x00000000	0.0
73	0x00000000	0.0
74	0x00000000	0.0
75	0x00000000	0.0
76	0x00000000	0.0
77	0x00000000	0.0
78	0x00000000	0.0
79	0x00000000	0.0
80	0x00000000	0.0
81	0x00000000	0.0
82	0x00000000	0.0
83	0x00000000	0.0
84	0x00000000	0.0
85	0x00000000	0.0
86	0x00000000	0.0
87	0x00000000	0.0
88	0x00000000	0.0
89	0x00000000	0.0
90	0x00000000	0.0
91	0x00000000	0.0
92	0x00000000	0.0
93	0x00000000	0.0
94	0x00000000	0.0
95	0x00000000	0.0
96	0x00000000	0.0
97	0x00000000	0.0
98	0x00000000	0.0
99	0x00000000	0.0
100	0x00000000	0.0
101	0x00000000	0.0
102	0x00000000	0.0
103	0x00000000	0.0
104	0x00000000	0.0
105	0x00000000	0.0
106	0x00000000	0.0
107	0x00000000	0.0
108	0x00000000	0.0
109	0x00000000	0.0
110	0x00000000	0.0
111	0x00000000	0.0
112	0x00000000	0.0
113	0x00000000	0.0
114	0x00000000	0.0
115	0x00000000	0.0
116	0x00000000	0.0
117	0x00000000	0.0
118	0x00000000	0.0
119	0x00000000	0.0
120	0x00000000	0.0
121	0x00000000	0.0
122	0x00000000	0.0
123	0x00000000	0.0
124	0x00000000	0.0
125	0x00000000	0.0
126	0x00000000	0.0
127	0x00000000	0.0
128	0x00000000	0.0
129	0x00000000	0.0
130	0x00000000	0.0
131	0x00000000	0.0
132	0x00000000	0.0
133	0x00000000	0.0
134	0x00000000	0.0
135	0x00000000	0.0
136	0x00000000	0.0
137	0x00000000	0.0
138	0x00000000	0.0
139	0x00000000	0.0
140	0x00000000	0.0
141	0x00000000	0.0
142	0x00000000	0.0
143	0x00000000	0.0
144	0x00000000	0.0
145	0x00000000	0.0
146	0x00000000	0.0
147	0x00000000	0.0
148	0x00000000	0.0
149	0x00000000	0.0
150	0x00000000	0.0
151	0x00000000	0.0
152	0x00000000	0.0
153	0x00000000	0.0
154	0x00000000	0.0
155	0x00000000	0.0
156	0x00000000	0.0
157	0x00000000	0.0
158	0x00000000	0.0
159	0x00000000	0.0
160	0x00000000	0.0
161	0x00000000	0.0
162	0x00000000	0.0
163	0x00000000	0.0
164	0x00000000	0.0
165	0x00000000	0.0
166	0x00000000	0.0
167	0x00000000	0.0
168	0x00000000	0.0
169	0x00000000	0.0
170	0x00000000	0.0
171	0x00000000	0.0
172	0x00000000	0.0
173	0x00000000	0.0
174	0x00000000	0.0

_ei_mask f4 [175]
0	0x3f800000	1.0
1	0x3f800000	1.0
2	0x3f800000	1.0
3	0x3f800000	1.0
4	0x3f800000	1.0
5	0x3f800000	1.0
6	0x3f800000	1.0
7	0x3f800000	1.0
8	0x3f800000	1.0
9	0x3f800000	1.0
10	0x3f800000	1.0
11	0x3f800000	1.0
12	0x3f800000	1.0
13	0x3f800000	1.0
14	0x3f800000	1.0
15	0x3f800000	1.0
16	0x3f800000	1.0
17	0x3f800000	1.0
18	0x3f800000	1.0
19	0x3f800000	1.0
20	0x3f800000	1.0
21	0x3f800000	1.0
22	0x3f800000	1.0
23	0x3f800000	1.0
24	0x3f800000	1.0
25	0x3f800000	1.0
26	0x3f800000	1.0
27	0x3f800000	1.0
28	0x3f800000	1.0
29	0x3f800000	1.0
30	0x3f800000	1.0
31	0x3f800000	1.0
32	0x3f800000	1.0
33	0x3f800000	1.0
34	0x3f800000	1.0
35	0x3f800000	1.0
36	0x3f800000	1.0
37	0x3f800000	1.0
38	0x3f800000	1.0
39	0x3f800000	1.0
40	0x3f800000	1.0
41	0x3f800000	1.0
42	0x3f800000	1.0
43	0x3f800000	1.0
44	0x3f800000	1.0
45	0x3f800000	1.0
46	0x3f800000	1.0
47	0x3f800000	1.0
48	0x3f800000	1.0
49	0x3f800000	1.0
50	0x3f800000	1.0
51	0x3f800000	1.0
52	0x3f800000	1.0
53	0x3f800000	1.0
54	0x3f800000	1.0
55	0x3f800000	1.0
56	0x3f800000	1.0
57	0x3f800000	1.0
58	0x3f800000	1.0
59	0x3f800000	1.0
60	0x3f800000	1.0
61	0x3f800000	1.0
62	0x3f800000	1.0
63	0x3f800000	1.0
64	0x3f800000	1.0
65	0x3f800000	1.0
66	0x3f800000	1.0
67	0x3f800000	1.0
68	0x3f800000	1.0
69	0x3f800000	1.0
70	0x3f800000	1.0
71	0x3f800000	1.0
72	0x3f800000	1.0
73	0x3f800000	1.0
74	0x3f800000	1.0
75	0x3f800000	1.0
76	0x3f800000	1.0
77	0x3f800000	1.0
78	0x3f800000	1.0
79	0x3f800000	1.0
80	0x3f800000	1.0
81	0x3f800000	1.0
82	0x3f800000	1.0
83	0x3f800000	1.0
84	0x3f800000	1.0
85	0x3f800000	1.0
86	0x3f800000	1.0
87	0x3f800000	1.0
88	0x3f800000	1.0
89	0x3f800000	1.0
90	0x3f800000	1.0
91	0x3f800000	1.0
92	0x3f800000	1.0
93	0x3f800000	1.0
94	0x3f800000	1.0
95	0x3f800000	1.0
96	0x3f800000	1.0
97	0x3f800000	1.0
98	0x3f800000	1.0
99	0x3f800000	1.0
100	0x3f800000	1.0
101	0x3f800000	1.0
102	0x3f800000	1.0
103	0x3f800000	1.0
104	0x3f800000	1.0
105	0x3f800000	1.0
106	0x3f800000	1.0
107	0x3f800000	1.0
108	0x3f800000	1.0
109	0x3f800000	1.0
110	0x3f800000	1.0
111	0x3f800000	1.0
112	0x3f800000	1.0
113	0x3f800000	1.0
114	0x3f800000	1.0
115	0x3f800000	1.0
116	0x3f800000	1.0
117	0x3f800000	1.0
118	0x3f800000	1.0
119	0x3f800000	1.0
120	0x3f800000	1.0
121	0x3f800000	1.0
122	0x3f800000	1.0
123	0x3f800000	1.0
124	0x3f800000	1.0
125	0x3f800000	1.0
126	0x3f800000	1.0
127	0x3f800000	1.0
128	0x3f800000	1.0
129	0x3f800000	1.0
130	0x3f800000	1.0
131	0x3f800000	1.0
132	0x3f800000	1.0
133	0x3f800000	1.0
134	0x3f800000	1.0
135	0x3f800000	1.0
136	0x3f800000	1.0
137	0x3f800000	1.0
138	0x3f800000	1.0
139	0x3f800000	1.0
140	0x3f800000	1.0
141	0x3f800000	1.0
142	0x3f800000	1.0
143	0x3f800000	1.0
144	0x3f800000	1.0
145	0x3f800000	1.0
146	0x3f800000	1.0
147	0x3f800000	1.0
148	0x3f800000	1.0
149	0x3f800000	1.0
150	0x3f800000	1.0
151	0x3f800000	1.0
152	0x3f800000	1.0
153	0x3f800000	1.0
154	0x3f800000	1.0
155	0x3f800000	1.0
156	0x3f800000	1.0
157	0x3f800000	1.0
158	0x3f800000	1.0
159	0x3f800000	1.0
160	0x3f800000	1.0
161	0x3f800000	1.0
162	0x3f800000	1.0
163	0x3f800000	1.0
164	0x3f800000	1.0
165	0x3f800000	1.0
166	0x3f800000	1.0
167	0x3f800000	1.0
168	0x3f800000	1.0
169	0x3f800000	1.0
170	0x3f800000	1.0
171	0x3f800000	1.0
172	0x3f800000	1.0
173	0x3f800000	1.0
174	0x3f800000	1.0

weight f4 [2, 175]
0	0x3f1b1250	0.6057482
1	0x3ec97066	0.39343566
2	0x3e4d6d48	0.20061219
3	0x3e74eb77	0.23917948
4	0x3f20cb68	0.62810373
5	0x3ef96e0b	0.4871677
6	0x3ef19739	0.47185686
7	0x3f69868a	0.91220915
8	0x3efcdadb	0.49385723
9	0x3f4f81dc	0.81057525
10	0xbd8a8517	-0.06763666
11	0x3e991436	0.29898232
12	0x3d5cfd2a	0.053952374
13	0x3e6abccf	0.22923587
14	0x3e2632ad	0.16230269
15	0x3f12aa9e	0.5729159
16	0x3e801af7	0.25020573
17	0x3d676c10	0.05649954
18	0x3e6cdee3	0.231319
19	0x3f3414d8	0.70344305
20	0x3e31640a	0.17323318
21	0xbd5e8e96	-0.0543352
22	0x3e666f2e	0.22503349
23	0x3e265d00	0.16246414
24	0x3fde7eda	1.7382462
25	0x3f5334ab	0.8250224
26	0x3e4e6c05	0.20158394
27	0x3e0dedc9	0.13860239
28	0x3e24791c	0.16061825
29	0x3f2dee6e	0.6794194
30	0x3f2e4414	0.6807263
31	0x3eba9728	0.36443448
32	0x3ebe9f9b	0.37231144
33	0x3f0b6e56	0.54465234
34	0x3e293c73	0.16526966
35	0x3f385ffe	0.7202147
36	0xbc9f8db9	-0.019476758
37	0x3e0f3a0a	0.13986984
38	0x3eff71d4	0.4989153
39	0x3eb8add1	0.3607011
40	0x3f57a796	0.8424009
41	0x3e87ab36	0.2649781
42	0x3e994330	0.29934072
43	0xbeda6ee5	-0.4266273
44	0x3ec76e0a	0.3895114
45	0x3d7f70f7	0.06236359
46	0x3da2a3d0	0.07941401
47	0x3da2211c	0.07916471
48	0x3e12f06d	0.14349528
49	0x3f194f89	0.59886986
50	0x3eb3d671	0.35124543
51	0x3ea8b303	0.32949075
52	0x3ec1234c	0.37722242
53	0x3d0a531f	0.033770677
54	0x3d9fe700	0.07807732
55	0xbedf9538	-0.43668532
56	0x3e5b305e	0.2140517
57	0x3e825bb3	0.25460586
58	0x3ea8d139	0.32972124
59	0x3f612caa	0.87958777
60	0x3e3bc96f	0.1833856
61	0x3e75eef9	0.24016942
62	0x3ec47fd4	0.38378775
63	0x3e035e2f	0.12828897
64	0x3a3d2046	0.0007214587
65	0x3e953f64	0.29149926
66	0x3e838918	0.25690532
67	0x3c316e8f	0.010829582
68	0xbdb4df76	-0.08831684
69	0x3e98a72f	0.2981505
70	0x3d22d9bb	0.039758425
71	0x3e8a5f51	0.27025846
72	0x3e9556d5	0.2916781
73	0x3cba3775	0.022731522
74	0x3e780721	0.2422147
75	0x3d9b8475	0.075936235
76	0x3d8b9b29	0.06816704
77	0x3e63de9d	0.22252889
78	0x3e24ab46	0.1608096
79	0x3ec97697	0.3934829
80	0x3eb50a22	0.35359293
81	0x3f114981	0.56752783
82	0x3e061819	0.1309513
83	0x3f03b6fe	0.514511
84	0x3e0df4b3	0.13862877
85	0x3e8f77ca	0.2802108
86	0x3f073960	0.5282192
87	0x3f0737ce	0.52819526
88	0xbdb9bfc6	-0.09069781
89	0x3eb58cfe	0.3545913
90	0x3eefe49d	0.46854106
91	0x3ee0891f	0.43854615
92	0x3f10a899	0.5650726
93	0x3e749e97	0.23888622
94	0x3ec5df43	0.38646898
95	0x3e6727aa	0.22573724
96	0x3f15d2df	0.5852489
97	0x3e141ccb	0.14464109
98	0x3ecf7613	0.4051977
99	0x3e8b7267	0.2723572
100	0x3ead1bc5	0.3381025
101	0x3db1ca77	0.08681195
102	0x3ee997f7	0.45623752
103	0x3e9e62cc	0.3093475
104	0x3e23697c	0.15958208
105	0x3ea9fe64	0.33201897
106	0x3dec9d37	0.11553424
107	0x3ed7fb20	0.4218378
108	0xbd524795	-0.051337797
109	0x3f0ed123	0.5578787
110	0xbdb5bada	-0.0887353
111	0x3e70c5b5	0.23512919
112	0x3e012b9b	0.1261429
113	0x3f1a65b8	0.6031146
114	0xbde26b9b	-0.1105568
115	0x3f320f18	0.6955428
116	0x3e0f7a2c	0.14011449
117	0xbd018ec7	-0.031630304
118	0x3f4d39ee	0.8016652
119	0x3ef0ad2e	0.47007126
120	0x3f088169	0.53322464
121	0x3ee0a3e6	0.43875045
122	0x3e7e516d	0.24835749
123	0x3eaf51d4	0.34242117
124	0x3f008383	0.5020067
125	0x3ebaf762	0.36516863
126	0x3d8e605a	0.06951971
127	0x3afe908c	0.001942174
128	0x3e667023	0.22503714
129	0xbe112c35	-0.1417702
130	0x3e8518cc	0.2599548
131	0xbd041b74	-0.032252744
132	0x3e28f28b	0.16498773
133	0x3eb38599	0.35062864
134	0x3e4fded0	0.2029984
135	0x3dc25e44	0.09490636
136	0x3edc4f5b	0.43029293
137	0x3eed9c77	0.46408436
138	0x3e8a5455	0.27017465
139	0x3e4dd17d	0.20099445
140	0x3ed21f7a	0.4103964
141	0x3ea895c3	0.3292676
142	0x3f845398	1.0338011
143	0x3eeab608	0.45842004
144	0x3db9f656	0.09080188
145	0x3e31cbe7	0.17362939
146	0x3edc3977	0.43012592
147	0xbdfeb20c	-0.124363035
148	0x3f09e07d	0.53858167
149	0x3daa2fe9	0.083099194
150	0x3e22b462	0.15889123
151	0x3d64018d	0.05566554
152	0x3ebbf6a8	0.3671162
153	0xbcf8ef9b	-0.03038769
154	0x3f3d4129	0.7392755
155	0x3f2d90cb	0.6779906
156	0x3dcf7567	0.101298146
157	0x3f3526f4	0.7076256
158	0x3e8056f6	0.25066346
159	0xbe1c175d	-0.15243287
160	0x3e471d4f	0.19444774
161	0x3de18c1c	0.11013052
162	0x3f1f540d	0.62237626
163	0x3e54e7a2	0.20791486
164	0x3ea79955	0.3273417
165	0x3eede14e	0.46460956
166	0xbd64378d	-0.05571704
167	0x3eba9d6e	0.36448234
168	0xbebb0a28	-0.36531186
169	0x3ef031ab	0.46912894
170	0x3e189f03	0.14904408
171	0x3e9ac589	0.30228832
172	0x3eac17ef	0.3361201
173	0xbe5b9a08	-0.21445477
174	0x3de5cfdb	0.11221286
175	0xbeaa5608	-0.33268762
176	0x3f292142	0.6606637
177	0x3cc776a8	0.024348572
178	0x3e561757	0.20907341
179	0xbeb15ce6	-0.34641188
180	0x3f20ff03	0.62889117
181	0x3ebdadcf	0.37046668
182	0x3ed1f066	0.41003722
183	0x3e1a209e	0.15051505
184	0x3ea4e7ae	0.32208008
185	0x3f30d5e2	0.6907636
186	0x3ef8a2ae	0.48561615
187	0x3ef4410d	0.4770588
188	0xbcda4dc0	-0.026648402
189	0xbe7e8c82	-0.24858287
190	0x3e8fd4cc	0.2809204
191	0xbe768767	-0.2407509
192	0x3e4292d2	0.1900132
193	0xbe8db74b	-0.27678904
194	0x3f2835c1	0.6570702
195	0x3d2c4fa2	0.04206813
196	0x3f3f07f0	0.74621487
197	0x3e8a388e	0.26996273
198	0x3e60312f	0.21893762
199	0xbe96dae9	-0.2946389
200	0x3f09efa5	0.53881294
201	0xbdf339ef	-0.11876284
202	0x3f47a3ea	0.7798449
203	0x3f155448	0.5833173
204	0x3f488a9c	0.783365
205	0x3ead39a2	0.33833033
206	0x3e485d7a	0.19566908
207	0x3ea67720	0.3251276
208	0x3e0fc176	0.14038643
209	0x3d12574a	0.035727777
210	0x3eb64f80	0.3560753
211	0x3ec7b3ec	0.39004457
212	0x3ee66b1f	0.45003602
213	0x3e33c5a6	0.17555866
214	0x3ee17c4b	0.4404014
215	0xbe66fdf8	-0.22557819
216	0x3e4729db	0.1944956
217	0xbda3e196	-0.080020115
218	0x3f03c706	0.5147556
219	0xbd5b430d	-0.05353074
220	0x3e731ff4	0.23742658
221	0x3e9f11c4	0.31068242
222	0x3ecbbfd5	0.39794794
223	0xbd51a431	-0.051181976
224	0xbeb8ba8f	-0.36079833
225	0xbf345d28	-0.70454645
226	0xbf24fa34	-0.6444428
227	0xbd0a5a0d	-0.033777285
228	0x3eb81b0d	0.35958138
229	0x3e264fb7	0.16241346
230	0x3eef5649	0.46745518
231	0x3eb87d39	0.36033037
232	0x3e913b47	0.28365538
233	0xbd7561e2	-0.0599078
234	0xbe92f676	-0.2870366
235	0xbd30648f	-0.04306465
236	0xbdc173b8	-0.094459
237	0xbdc0552d	-0.09391246
238	0x3f3f1d76	0.7465433
239	0x3ebb70f4	0.36609614
240	0x3e89b145	0.26893058
241	0x3eacb25c	0.33729827
242	0x3e321cd6	0.17393813
243	0xbdb95507	-0.09049421
244	0x3e56ef8c	0.20989817
245	0x3eb00b66	0.34383696
246	0x3e7d44c6	0.24733266
247	0x3e9993c4	0.2999555
248	0x3ea6e30b	0.32595095
249	0x3e770d3c	0.24126142
250	0x3ec0922f	0.3761153
251	0x3ee2bd1c	0.44284904
252	0x3e8aaeef	0.2708659
253	0x3da20166	0.07910423
254	0x3e338863	0.17532496
255	0x3e9ee964	0.31037438

bias f4 [175]
0	0x00000000	0.0
1	0x00000000	0.0
2	0x00000000	0.0
3	0x00000000	0.0
4	0x00000000	0.0
5	0x00000000	0.0
6	0x00000000	0.0
7	0x00000000	0.0
8	0x00000000	0.0
9	0x00000000	0.0
10	0x00000000	0.0
11	0x00000000	0.0
12	0x00000000	0.0
13	0x00000000	0.0
14	0x00000000	0.0
15	0x00000000	0.0
16	0x00000000	0.0
17	0x00000000	0.0
18	0x00000000	0.0
19	0x00000000	0.0
20	0x00000000	0.0
21	0x00000000	0.0
22	0x00000000	0.0
23	0x00000000	0.0
24	0x00000000	0.0
25	0x00000000	0.0
26	0x00000000	0.0
27	0x00000000	0.0
28	0x00000000	0.0
29	0x00000000	0.0
30	0x00000000	0.0
31	0x00000000	0.0
32	0x00000000	0.0
33	0x00000000	0.0
34	0x00000000	0.0
35	0x00000000	0.0
36	0x00000000	0.0
37	0x00000000	0.0
38	0x00000000	0.0
39	0x00000000	0.0
40	0x00000000	0.0
41	0x00000000	0.0
42	0x00000000	0.0
43	0x00000000	0.0
44	0x00000000	0.0
45	0x00000000	0.0
46	0x00000000	0.0
47	0x00000000	0.0
48	0x00000000	0.0
49	0x00000000	0.0
50	0x00000000	0.0
51	0x00000000	0.0
52	0x00000000	0.0
53	0x00000000	0.0
54	0x00000000	0.0
55	0x00000000	0.0
56	0x00000000	0.0
57	0x00000000	0.0
58	0x00000000	0.0
59	0x00000000	0.0
60	0x00000000	0.0
61	0x00000000	0.0
62	0x00000000	0.0
63	0x00000000	0.0
64	0x00000000	0.0
65	0x00000000	0.0
66	0x00000000	0.0
67	0x00000000	0.0
68	0x00000000	0.0
69	0x00000000	0.0
70	0x00000000	0.0
71	0x00000000	0.0
72	0x00000000	0.0
73	0x00000000	0.0
74	0x00000000	0.0
75	0x00000000	0.0
76	0x00000000	0.0
77	0x00000000	0.0
78	0x00000000	0.0
79	0x00000000	0.0
80	0x00000000	0.0
81	0x00000000	0.0
82	0x00000000	0.0
83	0x00000000	0.0
84	0x00000000	0.0
85	0x00000000	0.0
86	0x00000000	0.0
87	0x00000000	0.0
88	0x00000000	0.0
89	0x00000000	0.0
90	0x00000000	0.0
91	0x00000000	0.0
92	0x00000000	0.0
93	0x00000000	0.0
94	0x00000000	0.0
95	0x00000000	0.0
96	0x00000000	0.0
97	0x00000000	0.0
98	0x00000000	0.0
99	0x00000000	0.0
100	0x00000000	0.0
101	0x00000000	0.0
102	0x00000000	0.0
103	0x00000000	0.0
104	0x00000000	0.0
105	0x00000000	0.0
106	0x00000000	0.0
107	0x00000000	0.0
108	0x00000000	0.0
109	0x00000000	0.0
110	0x00000000	0.0
111	0x00000000	0.0
112	0x00000000	0.0
113	0x00000000	0.0
114	0x00000000	0.0
115	0x00000000	0.0
116	0x00000000	0.0
117	0x00000000	0.0
118	0x00000000	0.0
119	0x00000000	0.0
120	0x00000000	0.0
121	0x00000000	0.0
122	0x00000000	0.0
123	0x00000000	0.0
124	0x00000000	0.0
125	0x00000000	0.0
126	0x00000000	0.0
127	0x00000000	0.0
128	0x00000000	0.0
129	0x00000000	0.0
130	0x00000000	0.0
131	0x00000000	0.0
132	0x00000000	0.0
133	0x00000000	0.0
134	0x00000000	0.0
135	0x00000000	0.0
136	0x00000000	0.0
137	0x00000000	0.0
138	0x00000000	0.0
139	0x00000000	0.0
140	0x00000000	0.0
141	0x00000000	0.0
142	0x00000000	0.0
143	0x00000000	0.0
144	0x00000000	0.0
145	0x00000000	0.0
146	0x00000000	0.0
147	0x00000000	0.0
148	0x00000000	0.0
149	0x00000000	0.0
150	0x00000000	0.0
151	0x00000000	0.0
152	0x00000000	0.0
153	0x00000000	0.0
154	0x00000000	0.0
155	0x00000000	0.0
156	0x00000000	0.0
157	0x00000000	0.0
158	0x00000000	0.0
159	0x00000000	0.0
160	0x00000000	0.0
161	0x00000000	0.0
162	0x00000000	0.0
163	0x00000000	0.0
164	0x00000000	0.0
165	0x00000000	0.0
166	0x00000000	0.0
167	0x00000000	0.0
168	0x00000000	0.0
169	0x00000000	0.0
170	0x00000000	0.0
171	0x00000000	0.0
172	0x00000000	0.0
173	0x00000000	0.0
174	0x00000000	0.0

_ei_mask f4 [175]
0	0x3f800000	1.0
1	0x3f800000	1.0
2	0x3f800000	1.0
3	0x3f800000	1.0
4	0x3f800000	1.0
5	0x3f800000	1.0
6	0x3f800000	1.0
7	0x3f800000	1.0
8	0x3f800000	1.0
9	0x3f800000	1.0
10	0x3f800000	1.0
11	0x3f800000	1.0
12	0x3f800000	1.0
13	0x3f800000	1.0
14	0x3f800000	1.0
15	0x3f800000	1.0
16	0x3f800000	1.0
17	0x3f800000	1.0
18	0x3f800000	1.0
19	0x3f800000	1.0
20	0x3f800000	1.0
21	0x3f800000	1.0
22	0x3f800000	1.0
23	0x3f800000	1.0
24	0x3f800000	1.0
25	0x3f800000	1.0
26	0x3f800000	1.0
27	0x3f800000	1.0
28	0x3f800000	1.0
29	0x3f800000	1.0
30	0x3f800000	1.0
31	0x3f800000	1.0
32	0x3f800000	1.0
33	0x3f800000	1.0
34	0x3f800000	1.0
35	0x3f800000	1.0
36	0x3f800000	1.0
37	0x3f800000	1.0
38	0x3f800000	1.0
39	0x3f800000	1.0
40	0x3f800000	1.0
41	0x3f800000	1.0
42	0x3f800000	1.0
43	0x3f800000	1.0
44	0x3f800000	1.0
45	0x3f800000	1.0
46	0x3f800000	1.0
47	0x3f800000	1.0
48	0x3f800000	1.0
49	0x3f800000	1.0
50	0x3f800000	1.0
51	0x3f800000	1.0
52	0x3f800000	1.0
53	0x3f800000	1.0
54	0x3f800000	1.0
55	0x3f800000	1.0
56	0x3f800000	1.0
57	0x3f800000	1.0
58	0x3f800000	1.0
59	0x3f800000	1.0
60	0x3f800000	1.0
61	0x3f800000	1.0
62	0x3f800000	1.0
63	0x3f800000	1.0
64	0x3f800000	1.0
65	0x3f800000	1.0
66	0x3f800000	1.0
67	0x3f800000	1.0
68	0x3f800000	1.0
69	0x3f800000	1.0
70	0x3f800000	1.0
71	0x3f800000	1.0
72	0x3f800000	1.0
73	0x3f800000	1.0
74	0x3f800000	1.0
75	0x3f800000	1.0
76	0x3f800000	1.0
77	0x3f800000	1.0
78	0x3f800000	1.0
79	0x3f800000	1.0
80	0x3f800000	1.0
81	0x3f800000	1.0
82	0x3f800000	1.0
83	0x3f800000	1.0
84	0x3f800000	1.0
85	0x3f800000	1.0
86	0x3f800000	1.0
87	0x3f800000	1.0
88	0x3f800000	1.0
89	0x3f800000	1.0
90	0x3f800000	1.0
91	0x3f800000	1.0
92	0x3f800000	1.0
93	0x3f800000	1.0
94	0x3f800000	1.0
95	0x3f800000	1.0
96	0x3f800000	1.0
97	0x3f800000	1.0
98	0x3f800000	1.0
99	0x3f800000	1.0
100	0x3f800000	1.0
101	0x3f800000	1.0
102	0x3f800000	1.0
103	0x3f800000	1.0
104	0x3f800000	1.0
105	0x3f800000	1.0
106	0x3f800000	1.0
107	0x3f800000	1.0
108	0x3f800000	1.0
109	0x3f800000	1.0
110	0x3f800000	1.0
111	0x3f800000	1.0
112	0x3f800000	1.0
113	0x3f800000	1.0
114	0x3f800000	1.0
115	0x3f800000	1.0
116	0x3f800000	1.0
117	0x3f800000	1.0
118	0x3f800000	1.0
119	0x3f800000	1.0
120	0x3f800000	1.0
121	0x3f800000	1.0
122	0x3f800000	1.0
123	0x3f800000	1.0
124	0x3f800000	1.0
125	0x3f800000	1.0
126	0x3f800000	1.0
127	0x3f800000	1.0
128	0x3f800000	1.0
129	0x3f800000	1.0
130	0x3f800000	1.0
131	0x3f800000	1.0
132	0x3f800000	1.0
133	0x3f800000	1.0
134	0x3f800000	1.0
135	0x3f800000	1.0
136	0x3f800000	1.0
137	0x3f800000	1.0
138	0x3f800000	1.0
139	0x3f800000	1.0
140	0x3f800000	1.0
141	0x3f800000	1.0
142	0x3f800000	1.0
143	0x3f800000	1.0
144	0x3f800000	1.0
145	0x3f800000	1.0
146	0x3f800000	1.0
147	0x3f800000	1.0
148	0x3f800000	1.0
149	0x3f800000	1.0
150	0x3f800000	1.0
151	0x3f800000	1.0
152	0x3f800000	1.0
153	0x3f800000	1.0
154	0x3f800000	1.0
155	0x3f800000	1.0
156	0x3f800000	1.0
157	0x3f800000	1.0
158	0x3f800000	1.0
159	0x3f800000	1.0
160	0x3f800000	1.0
161	0x3f800000	1.0
162	0x3f800000	1.0
163	0x3f800000	1.0
164	0x3f800000	1.0
165	0x3f800000	1.0
166	0x3f800000	1.0
167	0x3f800000	1.0
168	0x3f800000	1.0
169	0x3f800000	1.0
170	0x3f800000	1.0
171	0x3f800000	1.0
172	0x3f800000	1.0
173	0x3f800000	1.0
174	0x3f800000	1.0

weight f4 [403, 3]
0	0xbf871af1	-1.0555097
1	0xbf89c95a	-1.0764573
2	0x3fce6a49	1.6126186
3	0x3d0166bf	0.031592127
4	0xbfcbfbd4	-1.5936227
5	0x3f84c707	1.0373238
6	0x3f124882	0.5714189
7	0xbfe559b5	-1.7918001
8	0x3f23a1d9	0.63918835
9	0x3f38e3ca	0.7222258
10	0xbfef2fbc	-1.8686442
11	0x3ed44445	0.41458336
12	0x3f8d5e91	1.1044484
13	0xbfb251ba	-1.3931191
14	0x3ec6eebb	0.38854012
15	0x3fbf2240	1.4932327
16	0xbdd1b034	-0.10238686
17	0x3eb4dcfb	0.35324845
18	0x3f8f10af	1.1176966
19	0xbe55b576	-0.20870003
20	0x3e6b9cae	0.23008987
21	0x3f69c0c8	0.91309786
22	0xbf90a4fb	-1.1300348
23	0x3eb9b300	0.3626938
24	0x3f8e9ed4	1.114222
25	0xbf930455	-1.1485697
26	0x3e88a914	0.26691496
27	0x3fa3a53b	1.2784799
28	0x3f4f2248	0.80911684
29	0x3bee2e43	0.0072686984
30	0x3fc8abd2	1.5677435
31	0x3f833c17	1.0252713
32	0x3eca25e0	0.3948202
33	0x3f5a63fb	0.8530881
34	0x3e8085da	0.2510212
35	0x3f00d7f2	0.50329506
36	0x3f4a95ba	0.79134715
37	0x3e3f6520	0.1869092
38	0x3ea6435b	0.32473263
39	0x3f52748c	0.82209086
40	0x3e284ce6	0.16435584
41	0x3c62bf80	0.0138396025
42	0x3f5f2235	0.8716157
43	0xbce10a1c	-0.02747064
44	0x3f292f93	0.6608822
45	0x3f9c927f	1.2232207
46	0xbf80a463	-1.0050167
47	0x3ee9c6c5	0.45659462
48	0x3f9f8397	1.2462033
49	0x3ec87cc1	0.3915768
50	0xbe008410	-0.12550378
51	0x3fb01162	1.3755305
52	0x3d96516d	0.073397495
53	0x3db4ff14	0.08837715
54	0x3f9db37d	1.23204
55	0x3d082923	0.033242356
56	0x3e1197d8	0.1421808
57	0x3f382ded	0.7194508
58	0x3e8bdeb8	0.27318358
59	0xbf000370	-0.50005245
60	0x3f8e5b6a	1.1121647
61	0x3ebed3a2	0.37270838
62	0xbe0721a2	-0.13196424
63	0x3fc2df20	1.5224342
64	0x3dd06f47	0.101774745
65	0x3ecef4ae	0.4042105
66	0x3fb2876f	1.3947581
67	0xbfb82e35	-1.4389101
68	0x3e82bfac	0.2553686
69	0x3fc2a2e7	1.5205964
70	0xbfaf79ef	-1.3709086
71	0x3e185ced	0.14879198
72	0x3fbec976	1.4905231
73	0xbf9e3100	-1.2358704
74	0x3e1498d2	0.14511421
75	0x3ff71d90	1.9305897
76	0xbf874374	-1.056746
77	0xbd2a7e43	-0.04162432
78	0x4001b32a	2.0265603
79	0xbf61e477	-0.88239235
80	0xbed527d2	-0.41631943
81	0x4013e776	2.3110023
82	0xbf768fc6	-0.9631313
83	0xbeee75b7	-0.46574184
84	0x40174333	2.3634765
85	0xbf358803	-0.7091066
86	0xbf547be5	-0.8300155
87	0x4004b736	2.0736823
88	0xbebb8b25	-0.36629596
89	0xbf318675	-0.6934579
90	0x3ffe94d4	1.9889169
91	0xbf266656	-0.649999
92	0xbf1741f1	-0.59084994
93	0x40080831	2.1255
94	0xbd237e80	-0.03991556
95	0xbf078bb9	-0.52947575
96	0x3fcad53f	1.5846328
97	0x3ea70895	0.32623735
98	0xbf95ed4d	-1.1713043
99	0x3fa6693d	1.3000866
100	0x3e29fb81	0.16599847
101	0xbebfbbd8	-0.37448
102	0x3fe58e45	1.7934042
103	0xbf1807e4	-0.5938704
104	0xbe04be38	-0.12963188
105	0x3ff10ac4	1.883141
106	0x3cc59243	0.024117595
107	0xbe3a3351	-0.18183638
108	0x403c0f5f	2.9384382
109	0x3ebb6a51	0.3660455
110	0xbf9808c0	-1.187767
111	0x4060037b	3.5002124
112	0xbee718f0	-0.45136213
113	0xbfb6b2de	-1.4273336
114	0x4072da8b	3.7945888
115	0xbe9123da	-0.28347665
116	0xbf944b15	-1.1585413
117	0x40537fd7	3.3046777
118	0x3f069a14	0.52578855
119	0xbf72e1b9	-0.94875675
120	0x404337a4	3.050271
121	0x3e799ab7	0.24375425
122	0xbf5354f7	-0.8255152
123	0x40511f25	3.267526
124	0x3ee431c1	0.4456921
125	0xbf843bc0	-1.0330734
126	0x406e87c2	3.727036
127	0x3eca9adf	0.39571282
128	0xbf9bfed0	-1.2187138
129	0x406f628d	3.74039
130	0xbe949eed	-0.290275
131	0xbf7a9623	-0.9788534
132	0x4052cce4	3.2937555
133	0x3d936d6f	0.07198607
134	0xbf89d871	-1.0769178
135	0x4035e28e	2.8419528
136	0xbf1c301f	-0.61010927
137	0xbf64cbea	-0.8937365
138	0x40174b45	2.363969
139	0xbee51740	-0.447443
140	0xbf4db36c	-0.803519
141	0x3fd6b111	1.6772786
142	0xbdb7fb5c	-0.0898349
143	0xbee1f7d9	-0.44134405
144	0x40031952	2.0484204
145	0xbf01897d	-0.50600415
146	0xbe133522	-0.14375737
147	0x4046c22d	3.1056015
148	0xbf21717c	-0.6306379
149	0xbf315a52	-0.6927844
150	0x405aa1d8	3.4161282
151	0xbf64f311	-0.8943339
152	0xbf118eac	-0.56858325
153	0x40502f25	3.2528775
154	0xbf62caaa	-0.8859049
155	0xbe3e0c65	-0.18559416
156	0x403a94fe	2.9153438
157	0xbe370d8c	-0.17876261
158	0xbf1ec1fb	-0.6201474
159	0x401d4726	2.4574676
160	0xbf58f87d	-0.84754163
161	0xbf61e211	-0.88235575
162	0x3fe89a72	1.8172133
163	0xbf4f3de0	-0.8095379
164	0xbfb74f71	-1.4321119
165	0x3fda8e32	1.7074645
166	0xbf04b22f	-0.51834387
167	0xbf482063	-0.7817442
168	0x3fdb9f6a	1.7158024
169	0xbf16cf7d	-0.5891035
170	0xbf333438	-0.70001554
171	0x3f86719c	1.0503421
172	0xbe75da66	-0.24009094
173	0xbe8fda82	-0.28096396
174	0x3eb41114	0.3516928
175	0xbcfea4ef	-0.031084506
176	0xbf11f4e5	-0.57014304
177	0x3f39f9e5	0.72646934
178	0xbdc3591a	-0.09538479
179	0xbec396b5	-0.38200918
180	0x3ee861bb	0.45387062
181	0xbda50ac8	-0.08058697
182	0x3d5dcf54	0.0541528
183	0x3fa467e6	1.2844207
184	0xbe08bf59	-0.13354243
185	0xbec96b3c	-0.39339626
186	0x3f9ffa98	1.249835
187	0xbe50c614	-0.20388061
188	0xbe1e4039	-0.15454186
189	0x3f82e37b	1.0225672
190	0xbedf5660	-0.43620586
191	0xbe1b33a5	-0.1515642
192	0x3f876521	1.0577737
193	0xbedf9dff	-0.4367523
194	0xbdd662c8	-0.1046806
195	0x3fab68e5	1.3391386
196	0xbf1d2bad	-0.6139477
197	0xbeed7b51	-0.46383145
198	0x3fbdd442	1.4830401
199	0xbf249380	-0.6428757
200	0xbf31f8d0	-0.6952028
201	0x3fd289da	1.6448319
202	0xbf7cf220	-0.98806953
203	0xbf01c295	-0.50687534
204	0x3fcc6778	1.5969076
205	0xbf2a225f	-0.66458696
206	0xbe532809	-0.20620741
207	0x3fcd56c6	1.6042106
208	0xbeb342dc	-0.35011947
209	0xbeb67381	-0.35634997
210	0x3fd1f947	1.6404198
211	0xbd3af1c5	-0.045640726
212	0xbf0fa542	-0.5611154
213	0x3fbec529	1.4903919
214	0xbc573d61	-0.013137192
215	0xbf69048b	-0.9102256
216	0x3fe41914	1.7820153
217	0xbe8658b9	-0.26239565
218	0xbf8ef8bd	-1.1169659
219	0x4003ac86	2.057405
220	0xbf9cd8ec	-1.2253699
221	0xbe84ca7f	-0.25935742
222	0x402c96f9	2.6967146
223	0xbf271e1a	-0.65280306
224	0xbec9ab7b	-0.39388642
225	0x402a5cf3	2.6619232
226	0x3e071b7e	0.13194081
227	0xbf824254	-1.0176492
228	0x402fc807	2.7465837
229	0xbe63c1f4	-0.22241956
230	0xbf07bf04	-0.5302584
231	0x4031f9a6	2.7808623
232	0xbeb3bf1d	-0.35106745
233	0xbf3ae32b	-0.7300288
234	0x4032860f	2.7894323
235	0xbd6be796	-0.057593904
236	0xbf198611	-0.59970194
237	0x40485ab5	3.1305363
238	0x3e877dfd	0.2646331
239	0xbf831d1e	-1.0243261
240	0x40487529	3.132151
241	0x3e6053c2	0.21906951
242	0xbfbc5559	-1.4713546
243	0x40599c1e	3.4001536
244	0xbd949fe4	-0.07257059
245	0xbf79f0fc	-0.9763334
246	0x404fba36	3.2457404
247	0x3dcddb13	0.10051551
248	0xbf91cfd0	-1.1391544
249	0x40472e60	3.1122055
250	0x3dd277ae	0.10276733
251	0xbf48e63f	-0.7847633
252	0x4065fb43	3.5934608
253	0x3e887b98	0.26656795
254	0xbe938409	-0.28811672
255	0x405d79bd	3.4605553

bias f4 [3]
0	0x00000000	0.0
1	0x00000000	0.0
2	0x00000000	0.0

_ei_mask f4 [3]
0	0x3f800000	1.0
1	0x3f800000	1.0
2	0x3f800000	1.0

rmat f4 [1, 1, 3]
0	0xbf800000	-1.0
1	0x40000000	2.0
2	0xbf800000	-1.0

weight f4 [3, 175]
0	0x3f34a7ff	0.7056884
1	0x3eb49752	0.35271698
2	0x3eeee378	0.4665792
3	0x3ed1590b	0.40888247
4	0x3e8b2f4c	0.27184522
5	0x3ddc862b	0.10767778
6	0x3eb040bb	0.34424385
7	0x3e8f9406	0.2804262
8	0x3e39f993	0.18161611
9	0x3ec6f123	0.38855848
10	0x3db24bf7	0.087058954
11	0x3e62b783	0.22140317
12	0x3eb00f31	0.3438659
13	0x3e94302f	0.2894301
14	0xbd0ec824	-0.034858838
15	0x3eb4f437	0.3534257
16	0xbd51d5a0	-0.05122912
17	0x3cdc2f85	0.026878128
18	0xbcf36194	-0.029709615
19	0x3ea75059	0.32678488
20	0x3eaea955	0.34113565
21	0x3e59dd05	0.21275719
22	0x3e903faa	0.28173572
23	0x3e13f011	0.14447047
24	0x3e543323	0.20722632
25	0x3ed247a2	0.41070276
26	0x3e6dd25a	0.23224774
27	0x3e2aea87	0.16691028
28	0x3ea160f9	0.31519297
29	0x3eb16cbf	0.3465328
30	0x3e387daf	0.18016694
31	0x3d0b6136	0.034028254
32	0xbcd1a7f6	-0.025592785
33	0x3e93fc8f	0.28903624
34	0x3e9fed0b	0.31235537
35	0x3ed3bd19	0.41355208
36	0x3e928ed8	0.28624606
37	0xbdafea79	-0.08589644
38	0x3ebb736e	0.36611503
39	0x3e627c62	0.22117761
40	0x3e88c842	0.26715285
41	0x3efbddd8	0.4919269
42	0x3e39fa7b	0.18161957
43	0xbecd92ea	-0.4015115
44	0x3eb84252	0.35988098
45	0x3e1fe29b	0.15613787
46	0x3d952d7b	0.07284065
47	0xbe05a92e	-0.13052818
48	0x3f019985	0.5062488
49	0x3efd8136	0.49512643
50	0xbd14e968	-0.036355406
51	0xbdb2ce6c	-0.08730778
52	0x3cea458d	0.028597618
53	0x3e3dd3ef	0.18537878
54	0x3e69b7c7	0.22824012
55	0x3e9b8e98	0.30382228
56	0x3e9da174	0.3078724
57	0x3d79e4c0	0.06100917
58	0x3e606fd6	0.21917662
59	0x3e396636	0.18105397
60	0x3ecb83fb	0.3974913
61	0x3ea56250	0.3230157
62	0x3ec0d5c6	0.37663096
63	0x3ed84a09	0.42243984
64	0x3eabecf8	0.3357923
65	0x3dffc967	0.12489586
66	0xbafa1d4b	-0.0019082216
67	0x3e7886ae	0.24270126
68	0x3f37016d	0.7148655
69	0x3ebe56f9	0.3717573
70	0x3e48e057	0.19616829
71	0x3e346039	0.17614831
72	0x3e5476cf	0.20748447
73	0x3e6d230e	0.23157904
74	0x3d4b91a7	0.04969945
75	0x3e4fc9e5	0.2029186
76	0x3d9eaca5	0.07747773
77	0x3e469b72	0.19395235
78	0x3e576e2a	0.21038118
79	0x3ea611ce	0.3243546
80	0x3e31f3da	0.17378178
81	0x3e15563c	0.14583677
82	0x3d58877b	0.05286358
83	0x3e9cb730	0.3060851
84	0x3c005de8	0.007834889
85	0x3e057574	0.13033086
86	0x3eb9cbb3	0.36288223
87	0x3ec6e2ef	0.38845012
88	0x3e931ae5	0.28731456
89	0x3e7834d0	0.24238896
90	0xbc97f3a0	-0.018548787
91	0x3c8e5352	0.017373715
92	0x3e7d828c	0.24756831
93	0x3de95e97	0.11394995
94	0x3e52d44d	0.20588799
95	0x3e54aea5	0.20769747
96	0x3e944895	0.28961626
97	0x3e8a731e	0.27040952
98	0x3e70b16b	0.2350518
99	0x3e4f597b	0.20248978
100	0x3e275094	0.16339332
101	0x3e6963df	0.22792004
102	0x3e8ff47b	0.2811621
103	0x3e617958	0.22018945
104	0x3e743119	0.23846854
105	0x3e9dd4b4	0.30826342
106	0x3e626a0f	0.2211077
107	0x3e111e0e	0.14171621
108	0x3d6cfcbc	0.057858214
109	0x3e11ff93	0.1425765
110	0x3e97fb85	0.29684082
111	0x3ec15edb	0.3776768
112	0x3ea1b8f8	0.31586432
113	0x3e047f44	0.12939173
114	0x3e83dc34	0.2575394
115	0x3df46bab	0.119345985
116	0x3e851a72	0.2599674
117	0x3e494f1c	0.19659084
118	0x3e0379cd	0.12839432
119	0x3e3d7724	0.1850248
120	0x3e399d39	0.18126382
121	0x3ec9a813	0.39386043
122	0x3e1a44b6	0.15065274
123	0x3e364b9f	0.17802285
124	0x3e2ebcd0	0.17064214
125	0x3e93fa32	0.2890182
126	0x3ddfc2b3	0.10925808
127	0x3ec2a40b	0.3801578
128	0x3f0d920f	0.5530099
129	0x3ee08d4d	0.43857804
130	0xbd07ace3	-0.033123862
131	0x3eb918cf	0.3615174
132	0x3e5727de	0.21011302
133	0x3ea235eb	0.3168176
134	0x3ea91c78	0.33029532
135	0x3dbe288d	0.09285078
136	0x3e3fcdeb	0.18730895
137	0x3e304f15	0.17217667
138	0x3ea3ac68	0.31967473
139	0x3c4e1ee5	0.012580608
140	0x3e5f7527	0.21822034
141	0x3e95500f	0.29162642
142	0x3ef9086b	0.48639235
143	0x3e58c4c3	0.21168809
144	0x3e7b3d53	0.24535112
145	0x3e39a7c1	0.181304
146	0x3b376fba	0.0027990178
147	0x3da9cc8c	0.08290967
148	0x3fa59347	1.293557
149	0x3d7f55b2	0.062337585
150	0x3e1ed751	0.15511824
151	0x3e31aad0	0.17350316
152	0x3dc0a45c	0.09406349
153	0x3ef244cd	0.47318116
154	0x3e714b48	0.23563874
155	0x3ed70ded	0.42002812
156	0x3eb58add	0.35457507
157	0x3e96cd5e	0.29453558
158	0x3e82d830	0.25555563
159	0x3e96403d	0.29345885
160	0x3ec4f4b5	0.38467947
161	0x3eb52ba5	0.3538486
162	0x3ebd4e33	0.36973724
163	0x3e110235	0.14160998
164	0x3e6c3830	0.23068309
165	0x3e9c6534	0.30545962
166	0x3f2b5e9b	0.6694123
167	0x3ddff0e0	0.10934615
168	0x3f1869a4	0.59536195
169	0x3e9460b3	0.28980026
170	0x3e85bb4b	0.26119456
171	0x3e17688e	0.14785978
172	0x3e4b5380	0.19856071
173	0x3e556a5d	0.20841356
174	0xbefefc80	-0.49802017
175	0xbe92ad40	-0.28647804
176	0xbe8cdfc3	-0.27514467
177	0xbe1e5446	-0.15461835
178	0xbe20a842	-0.15689185
179	0xbd1bc54a	-0.038029946
180	0xbeded7a6	-0.43523902
181	0x3d420f5b	0.047377925
182	0xbcafee00	-0.021475792
183	0x3a336785	0.0006843734
184	0xbdb10008	-0.08642584
185	0x3eba91bd	0.36439314
186	0x3d3953f7	0.04524609
187	0x3f3d4370	0.73931026
188	0x3e624fa2	0.2210069
189	0xbf07f310	-0.5310526
190	0xbe76a96c	-0.24088067
191	0xbf0fde40	-0.561985
192	0x3f3b69be	0.73208225
193	0xbf0a7972	-0.5409156
194	0xbe6ef03e	-0.23333833
195	0xbf081bc2	-0.53167355
196	0x3e176112	0.14783123
197	0xbe292f23	-0.16521887
198	0x3f2cb0b6	0.6745714
199	0x3e4da793	0.20083456
200	0xbe8d633b	-0.2761477
201	0x3d7fc484	0.06244327
202	0x3e0752b9	0.1321515
203	0xbdf5f495	-0.12009541
204	0xbd916901	-0.07100106
205	0x3e6fc0e6	0.23413429
206	0xbf0efa48	-0.5585065
207	0x3f03eaff	0.5153045
208	0x3e062d75	0.13103278
209	0xbeb0e4a5	-0.34549442
210	0xbe9d5dd9	-0.30735663
211	0xbf1f2ed5	-0.62180835
212	0x3d115117	0.035477724
213	0xbde986a1	-0.114026316
214	0xbe692a25	-0.22769983
215	0x3d099e05	0.033597965
216	0xbe6bbe61	-0.23021843
217	0xbdf8ff99	-0.121581264
218	0x400d1d94	2.2049303
219	0xbe973f79	-0.29540613
220	0x3ec8889c	0.39166725
221	0x3ded151a	0.115762904
222	0x3f2156cc	0.63023067
223	0xbebbf45d	-0.36709872
224	0xbe465a6d	-0.19370432
225	0x4075de6a	3.8417
226	0x407b61e5	3.92785
227	0xbedf3eb3	-0.43602523
228	0x3ef8416d	0.48487416
229	0xbef84ba3	-0.48495206
230	0x3ea5b0e7	0.32361528
231	0xbe0b5bdb	-0.13609259
232	0x3da753be	0.081702694
233	0xbe1f8ebf	-0.15581797
234	0xbf2c49f3	-0.6730034
235	0xbe89b2c5	-0.26894203
236	0xbe9284e8	-0.28617024
237	0xbe6fefe2	-0.23431352
238	0xbda7447b	-0.081673585
239	0xbe321952	-0.17392471
240	0x3ea1a453	0.31570682
241	0x3eb91449	0.3614829
242	0x3c0320d6	0.008003434
243	0xbe6a06bb	-0.2285413
244	0xbe8babe3	-0.27279577
245	0xbf45c450	-0.77252674
246	0x3e5dd48e	0.21663114
247	0xb9c9dc11	-0.0003850167
248	0x3d1cd7f0	0.03829187
249	0xbd88aa9c	-0.06673166
250	0x3e0c3e09	0.1369554
251	0x3e7007ea	0.23440519
252	0x3c1fbfef	0.00975035
253	0xbe83d2bb	-0.25746712
254	0xbd14774d	-0.036246587
255	0xbc02264d	-0.007943702

bias f4 [175]
0	0x00000000	0.0
1	0x00000000	0.0
2	0x00000000	0.0
3	0x00000000	0.0
4	0x00000000	0.0
5	0x00000000	0.0
6	0x00000000	0.0
7	0x00000000	0.0
8	0x00000000	0.0
9	0x00000000	0.0
10	0x00000000	0.0
11	0x00000000	0.0
12	0x00000000	0.0
13	0x00000000	0.0
14	0x00000000	0.0
15	0x00000000	0.0
16	0x00000000	0.0
17	0x00000000	0.0
18	0x00000000	0.0
19	0x00000000	0.0
20	0x00000000	0.0
21	0x00000000	0.0
22	0x00000000	0.0
23	0x00000000	0.0
24	0x00000000	0.0
25	0x00000000	0.0
26	0x00000000	0.0
27	0x00000000	0.0
28	0x00000000	0.0
29	0x00000000	0.0
30	0x00000000	0.0
31	0x00000000	0.0
32	0x00000000	0.0
33	0x00000000	0.0
34	0x00000000	0.0
35	0x00000000	0.0
36	0x00000000	0.0
37	0x00000000	0.0
38	0x00000000	0.0
39	0x00000000	0.0
40	0x00000000	0.0
41	0x00000000	0.0
42	0x00000000	0.0
43	0x00000000	0.0
44	0x00000000	0.0
45	0x00000000	0.0
46	0x00000000	0.0
47	0x00000000	0.0
48	0x00000000	0.0
49	0x00000000	0.0
50	0x00000000	0.0
51	0x00000000	0.0
52	0x00000000	0.0
53	0x00000000	0.0
54	0x00000000	0.0
55	0x00000000	0.0
56	0x00000000	0.0
57	0x00000000	0.0
58	0x00000000	0.0
59	0x00000000	0.0
60	0x00000000	0.0
61	0x00000000	0.0
62	0x00000000	0.0
63	0x00000000	0.0
64	0x00000000	0.0
65	0x00000000	0.0
66	0x00000000	0.0
67	0x00000000	0.0
68	0x00000000	0.0
69	0x00000000	0.0
70	0x00000000	0.0
71	0x00000000	0.0
72	0x00000000	0.0
73	0x00000000	0.0
74	0x00000000	0.0
75	0x00000000	0.0
76	0x00000000	0.0
77	0x00000000	0.0
78	0x00000000	0.0
79	0x00000000	0.0
80	0x00000000	0.0
81	0x00000000	0.0
82	0x00000000	0.0
83	0x00000000	0.0
84	0x00000000	0.0
85	0x00000000	0.0
86	0x00000000	0.0
87	0x00000000	0.0
88	0x00000000	0.0
89	0x00000000	0.0
90	0x00000000	0.0
91	0x00000000	0.0
92	0x00000000	0.0
93	0x00000000	0.0
94	0x00000000	0.0
95	0x00000000	0.0
96	0x00000000	0.0
97	0x00000000	0.0
98	0x00000000	0.0
99	0x00000000	0.0
100	0x00000000	0.0
101	0x00000000	0.0
102	0x00000000	0.0
103	0x00000000	0.0
104	0x00000000	0.0
105	0x00000000	0.0
106	0x00000000	0.0
107	0x00000000	0.0
108	0x00000000	0.0
109	0x00000000	0.0
110	0x00000000	0.0
111	0x00000000	0.0
112	0x00000000	0.0
113	0x00000000	0.0
114	0x00000000	0.0
115	0x00000000	0.0
116	0x00000000	0.0
117	0x00000000	0.0
118	0x00000000	0.0
119	0x00000000	0.0
120	0x00000000	0.0
121	0x00000000	0.0
122	0x00000000	0.0
123	0x00000000	0.0
124	0x00000000	0.0
125	0x00000000	0.0
126	0x00000000	0.0
127	0x00000000	0.0
128	0x00000000	0.0
129	0x00000000	0.0
130	0x00000000	0.0
131	0x00000000	0.0
132	0x00000000	0.0
133	0x00000000	0.0
134	0x00000000	0.0
135	0x00000000	0.0
136	0x00000000	0.0
137	0x00000000	0.0
138	0x00000000	0.0
139	0x00000000	0.0
140	0x00000000	0.0
141	0x00000000	0.0
142	0x00000000	0.0
143	0x00000000	0.0
144	0x00000000	0.0
145	0x00000000	0.0
146	0x00000000	0.0
147	0x00000000	0.0
148	0x00000000	0.0
149	0x00000000	0.0
150	0x00000000	0.0
151	0x00000000	0.0
152	0x00000000	0.0
153	0x00000000	0.0
154	0x00000000	0.0
155	0x00000000	0.0
156	0x00000000	0.0
157	0x00000000	0.0
158	0x00000000	0.0
159	0x00000000	0.0
160	0x00000000	0.0
161	0x00000000	0.0
162	0x00000000	0.0
163	0x00000000	0.0
164	0x00000000	0.0
165	0x00000000	0.0
166	0x00000000	0.0
167	0x00000000	0.0
168	0x00000000	0.0
169	0x00000000	0.0
170	0x00000000	0.0
171	0x00000000	0.0
172	0x00000000	0.0
173	0x00000000	0.0
174	0x00000000	0.0
