checkpoints/version140/model.pt (torch, 47789 bytes, 21 tensors)

bias f4 [175]
000000 1f 2d 7b 3f 5e cc 12 40 7b 20 38 bf 2a 52 ce 3f
       0.98115724 2.2937236 -0.7192456 1.6118824
000010 46 18 d0 be 16 e8 0d 40 46 b4 e1 3f 16 b2 3a 40
       -0.4064352 2.2172904 1.763314 2.9171195
000020 e0 7c e0 3f e8 6e 33 40 7f 2a af 3f 05 c3 b7 3f
       1.7538109 2.8036442 1.3684844 1.435639
000030 93 51 f2 be 27 7d 81 bd 89 f2 96 3d 36 01 fe 3f
       -0.4732786 -0.06322699 0.07370479 1.984412
000040 c7 35 5c 3d 93 ac 90 3e 42 9b d5 3c 84 1f 2e 40
       0.053762224 0.28256664 0.02607501 2.7206736
000050 fa fe a9 3e bd c0 c7 3f 4c 03 c8 3f 7f ce cf be
       0.33202344 1.5605694 1.5626006 -0.40587232
000060 d2 0e 01 c0 b8 26 46 40 f3 0e 32 3f 4d fa fe 3f
       -2.0165296 3.0961132 0.6955406 1.9920136
000070 e2 eb 6c 3f 6e 30 0c 40 6a 55 28 3f f0 69 c2 bd
       0.9254743 2.190456 0.6575533 -0.09492862
000080 57 57 b2 3f 47 17 c2 bd 66 58 d4 3e e9 8f 65 40
       1.3932904 -0.09477096 0.41473693 3.5869086
000090 9d 42 6f 3f 19 d6 ac 3f 88 4a b3 3f 9e 7e c6 3f
       0.9346102 1.3502837 1.400712 1.550739
0000a0 b9 a4 fc 3f e5 b2 50 3f 2c 0b 0e 3e 5c e7 c6 3e
       1.9737769 0.8152297 0.13871449 0.38848388
0000b0 68 25 9a 3f 18 22 a2 bd cb 06 01 3f 5f 98 7e 3e
       1.2042665 -0.07916659 0.5040099 0.24862812
0000c0 c5 6a 9d 3e 2f 16 ed bc db a2 45 3e 26 e4 74 3e
       0.3074552 -0.028941242 0.19300406 0.23915157
0000d0 13 2e 80 3f 0f a0 e6 3e f8 00 ed 3e d8 f5 66 3f
       1.0014061 0.4504399 0.46289802 0.9021888
0000e0 04 18 ab be 89 f8 11 3f 61 cd a5 3e 16 bc 13 bf
       -0.3341676 0.5701986 0.32383254 -0.5770887
0000f0 0e da 69 bd 8f 7c 37 bd 79 02 2f 3f 17 26 04 3f
       -0.05709272 -0.044796523 0.6836315 0.5162062
000100 17 7e 95 3d c4 a9 1a 3f 2e 78 b4 3e 01 51 1d 3e
       0.0729944 0.6041529 0.3524794 0.15362932
000110 38 16 1a 3f c2 f8 b1 3f 6c 0a 3a be 1a 87 bc 3f
       0.60190153 1.390404 -0.18168038 1.472873
000120 fc bd c8 3f 13 22 25 3f 85 37 b1 3f cf 9b 55 3f
       1.5682979 0.6450512 1.3845068 0.8344087
000130 61 f9 b3 3f a5 01 de 3f c8 95 ae 3f 67 e0 05 40
       1.4060479 1.7344252 1.363946 2.0918214
000140 99 02 bb 3f fd cb 03 40 de b9 56 3f d0 b3 1d 40
       1.4610168 2.0593255 0.8387736 2.4641
000150 00 58 af 3f 29 e2 ba 3f a1 f8 1e 40 6c a8 47 40
       1.369873 1.4600269 2.483925 3.1196547
000160 45 f9 38 3f 7b b1 89 3f 93 f9 b4 3f ab 36 3b be
       0.72255355 1.0757288 1.4138664 -0.18282573
000170 2c 95 45 40 56 95 c2 3e 57 4b 92 3f d3 fc d2 3e
       3.0872297 0.3800456 1.1429242 0.41208515
000180 fe 79 6b 40 a8 c5 16 3f 77 2e 14 bf 3a ed 96 3d
       3.6793208 0.5889535 -0.578834 0.07369466
000190 bf e9 23 40 25 67 28 3f eb e4 95 3f d9 c1 ee 3f
       2.5611417 0.65782386 1.1710485 1.8652908
0001a0 86 24 89 3f 74 b0 e7 3f 62 b4 b5 3f 9a 0e cf 3f
       1.0714271 1.8100724 1.4195673 1.6176331
0001b0 a5 7c c9 3f 0e 19 23 40 08 72 6f 3f 19 18 8d be
       1.5741163 2.5484042 0.9353337 -0.27557448
0001c0 16 8e 72 bc 10 25 1b 40 97 ec 95 3f 7b 9a 1b 40
       -0.014804384 2.424137 1.1712826 2.4313037
0001d0 b6 ea 21 3e 39 62 2f 40 47 24 19 40 dd 9d 0f 40
       0.15812191 2.74037 2.3928392 2.2440102
0001e0 42 ff 55 40 f4 63 c0 3f be 6f 07 40 a2 9f 1c 40
       3.3437047 1.5030503 2.1161952 2.4472432
0001f0 ad 4b 5f 40 25 db b2 3f c6 19 7d 3e fa 1c 71 bd
       3.488994 1.3973128 0.24716863 -0.058865525
000200 5f 1e 2f 3f 27 4e 98 3f 43 c9 84 3e b1 b7 58 3e
       0.6840572 1.189885 0.259348 0.21163823
000210 c4 05 ec bd 4b 00 09 40 60 b8 a8 3f 1a 5a 3f 3e
       -0.11524537 2.140643 1.3181267 0.18686715
000220 92 16 17 3e f2 3e c9 3f ae 69 21 3f e6 7a 9f 3f
       0.14754704 1.5722334 0.6305188 1.2459381
000230 2b 72 27 3f 20 5e 07 3f 1b ff 55 3f 3a da 1a 3f
       0.6540858 0.52878 0.83592385 0.6048924
000240 cc 5b 8e bb 52 bf b0 3f 8d e6 ce 3f d0 88 9b 3f
       -0.004344439 1.3808386 1.6164109 1.2151127
000250 72 5f 9f bf b4 af 99 bd c4 bc 54 3e d8 f8 33 3d
       -1.2451003 -0.07504216 0.20775133 0.043938488
000260 4a 09 0f 40 26 78 2b 3f a9 1d 63 40 c1 a7 f4 3f
       2.234942 0.66980207 3.5486853 1.9113694
000270 24 fd 90 3f 55 ae 6a 40 52 8f 9e 3e 6c 09 e1 3e
       1.1327252 3.6668904 0.3096872 0.439525
000280 29 24 41 3f 33 22 87 bf 6e 29 00 3f eb 3d b2 3f
       0.754458 -1.0557312 0.50063217 1.3925146
000290 ce 7b e5 3f 18 2e 2c 40 ad 7d 71 3e 2c d4 d6 3f
       1.7928407 2.6903133 0.23583098 1.67835
0002a0 0a 09 17 3f 83 44 fe 3f be d1 fa 3f 9b c1 ef 3f
       0.5899817 1.9864658 1.9595258 1.8730959
0002b0 df cf bc 3f 32 3b cc 3e 98 ba 82 3f
       1.4750937 0.39888912 1.0213194

weight f4 [9, 175]
000000 75 3b b2 3e d4 06 f8 3e 0e 97 94 b5 0b b0 d7 3e
       0.34810987 0.4844271 -1.1070822e-06 0.42126498
000010 a9 9b 8e 36 16 3f 3f 3f 41 8e fc 3e 70 8d 44 3f
       4.250051e-06 0.74705637 0.4932728 0.76778316
000020 7a 34 7b 3f 49 8e 3b 3f 43 e9 45 3f 99 31 3c 3f
       0.9812695 0.73263985 0.77309054 0.7351318
000030 ca da 2c b4 0c 38 00 3f 47 4d 63 3e 05 52 22 bb
       -1.6098343e-07 0.5008552 0.22197448 -0.0024768126
000040 79 c2 8a 3e e3 f1 ce 3e 44 3a 9e 3e ce cb 46 3f
       0.27101496 0.4041892 0.30903828 0.7765473
000050 66 aa 87 33 bb 2e 55 3f 72 8a 1c 3f dd e2 b2 be
       6.317423e-08 0.8327443 0.6114875 -0.34938708
000060 ed d7 94 3f 25 c6 59 3f 93 38 a5 3f ac cc 12 3f
       1.1628395 0.8506797 1.290789 0.57343554
000070 9d 20 00 3f 74 a1 5c b2 8e e5 8f 3f 2d 4c ac 3e
       0.50049764 -1.2842396e-08 1.124193 0.33651868
000080 ee 33 2c 3f b0 20 ab 3f 9e c4 2a b5 bf a0 9f 3c
       0.6726674 1.336935 -6.361605e-07 0.01948583
000090 ae 03 11 3f bd 55 b3 3e c6 c4 25 3f 87 45 4e 3f
       0.5664624 0.3502635 0.6475338 0.8057484
0000a0 c0 4f e8 3e b6 66 e7 be e8 2e 53 3f 17 30 1b 3f
       0.45373344 -0.4519555 0.8249345 0.60620254
0000b0 ae 73 25 3d f5 04 0c 3f 42 46 14 38 da 6f 32 bd
       0.040393524 0.54695064 3.5351382e-05 -0.0435637
0000c0 96 c7 7c 34 b6 e3 5f 3c bb 4b fd 3e 59 7e 07 3f
       2.3541938e-07 0.01366513 0.4947184 0.52927166
0000d0 31 27 a6 3e 81 a5 2d 3f 60 4a df 3e df 7d 87 3b
       0.32451776 0.67830664 0.4361143 0.004134878
0000e0 2c 72 b8 38 4b e6 18 3f 6f a4 e8 3e aa cd d4 3e
       8.79507e-05 0.597264 0.45437953 0.4156316
0000f0 c7 6d 13 3f 88 75 18 3f 60 34 46 b0 64 3d a5 b3
       0.5758938 0.5955434 -7.210641e-10 -7.694578e-08
000100 84 27 b2 b0 c0 ef 1c 3f 69 96 fd 3e e4 35 38 3f
       -1.2962436e-09 0.6130333 0.49528816 0.7195723
000110 f2 d6 68 3e c3 8c 0f 3f 5c 5c c2 3e 0f 8b dd 3e
       0.22738245 0.5607416 0.3796109 0.43270156
000120 27 6a fd 3e 1c fe 17 bc 4a 2d da 3e be d3 8b 3e
       0.4949505 -0.009276893 0.42612678 0.27309984
000130 23 70 e0 3d 7c 9c ec 3e ab 8a 4f 3b 14 53 d1 3e
       0.109588884 0.46213138 0.0031668346 0.40883696
000140 af 6b 7c 3e db e6 d2 3e 92 d7 ef 3e a1 d8 b0 3e
       0.24650453 0.41191754 0.46844155 0.34540275
000150 4b bf b0 3e 92 a4 ec 3e 4d 89 02 3f 24 71 17 3f
       0.34520945 0.46219307 0.50990754 0.59157014
000160 a7 1d 4d 35 2f 9f 2a 3f 8d 85 fc 3e 76 8b f2 3e
       7.64116e-07 0.66649145 0.4932064 0.47372025
000170 be 24 28 33 36 84 fc 3e 5a f4 31 3f 10 de 40 3f
       3.9148965e-08 0.4931962 0.69513476 0.7533884
000180 57 fc 2a 3f a8 4f 08 3f 87 15 1f 3f 89 46 80 3f
       0.6679129 0.53246546 0.62142223 1.0021526
000190 6c a9 6b 3f 73 74 a1 3f d6 25 f7 b3 5a d5 1e b5
       0.9205539 1.2613662 -1.1508716e-07 -5.9170054e-07
0001a0 55 aa 4b 3c 24 df 3a b4 ec 9a 91 3f 2b 2e 1a 3f
       0.012430747 -1.7403778e-07 1.1375403 0.60226697
0001b0 29 e6 1a 3f e6 d4 33 3f 04 65 25 b3 15 84 21 ba
       0.60507447 0.7024673 -3.850893e-08 -0.00061613444
0001c0 63 72 49 3f 77 9f 4d 3f aa 0f 4a 3f 74 02 45 3f
       0.78690165 0.8032145 0.7893015 0.7695687
0001d0 ae dd 62 3f 64 5b f9 3e b8 ee 3a 3f a7 cd 24 3f
       0.88619506 0.48702538 0.73020506 0.643763
0001e0 e3 97 4c 3f fb 72 14 3f 00 05 13 3f 39 b1 fb 3e
       0.7991926 0.57987946 0.57429504 0.49158648
0001f0 25 1c 3d 3f bb b2 06 3e 2e 42 0e 3f 6f aa 53 3d
       0.7387107 0.13154118 0.5556973 0.05167621
000200 44 59 90 3e 84 cd 27 3f f7 35 56 3f d3 7f b7 32
       0.28193104 0.65547967 0.83676094 2.1362132e-08
000210 82 c9 6f 3f 97 4c 04 3f 37 f1 1d b5 6f 69 22 3f
       0.9366685 0.51679367 -5.883807e-07 0.6344213
000220 b5 c5 a8 3e 38 fa b7 3e bc 5e be 3e 49 bc ae 3e
       0.32963338 0.3593309 0.37181652 0.34128025
000230 01 cc 26 3f 99 d4 32 3f c5 44 cf 3e f3 31 84 3e
       0.65155035 0.6985565 0.40482154 0.25819358
000240 ad 55 af 3e b9 36 81 3f 15 44 94 3e b1 bc cf 3e
       0.34245053 1.0094825 0.28958192 0.40573648
000250 53 e2 f0 3e 4c 8f 0c 3f dd 48 be 3e 7b b7 a9 3e
       0.47047672 0.54906154 0.37164965 0.33147797
000260 b6 6d f7 3e ee d7 f4 3e e2 19 07 3f 13 d7 d8 3e
       0.4832589 0.4782099 0.5277387 0.4235159
000270 b7 bc 1c 3f 2e c3 00 3f 8a 1e 88 3e aa 98 72 3f
       0.61225456 0.5029782 0.265858 0.94764197
000280 b4 7c 1b 3f a1 d2 15 3f 48 5e 88 3f f6 9d 4a 3f
       0.60737157 0.5852452 1.0653772 0.7914728
000290 30 e7 ce 3e f1 e1 07 bc 14 80 6a 3e 45 c1 d7 3e
       0.40410757 -0.008293615 0.2290042 0.4213964
0002a0 3b dd 11 3f c9 79 90 3e fe fb 99 33 33 ca ec 3e
       0.56978196 0.28217915 7.170455e-08 0.46248016
0002b0 64 61 fe 3e 54 f5 51 3f 3e 9c d5 3e 20 32 f2 3e
       0.49683678 0.82014966 0.41720766 0.47303867
0002c0 ba 55 33 3f 06 b0 3b 3f 3b 7a 20 3f ba 46 b0 3f
       0.70052683 0.73315465 0.6268651 1.3771584
0002d0 f6 4e bc 3e db 90 1d 3f 61 33 13 3f 27 8b 01 b5
       0.36778992 0.61549157 0.57500273 -4.825874e-07
0002e0 5e 68 12 3f 4e ff a2 37 30 de 5d bb 82 c5 53 3f
       0.571905 1.943079e-05 -0.0033854358 0.8272325
0002f0 c6 49 3d 36 65 3f 13 3f b1 8b 5b 3f 98 13 0d bf
       2.8206136e-06 0.5751861 0.8576003 -0.5510802
000300 ea 61 20 3e 5d 33 04 bf 2b a2 09 3f a4 35 40 3f
       0.15662351 -0.51640874 0.53763074 0.7508185
000310 b0 51 f5 b5 1c fd 97 3e 38 18 c7 3e 52 8f 88 bb
       -1.8277697e-06 0.29685295 0.38885665 -0.0041674757
000320 ce 43 0d 3f 2d 89 4d b4 a3 c8 03 3f 94 5a 0d 3f
       0.55181587 -1.9142017e-07 0.5147802 0.55216336
000330 4b 04 9c 3f e8 8d 08 33 97 0e d4 be 8f b8 15 b6
       1.218881 3.179403e-08 -0.4141738 -2.2310157e-06
000340 56 1a 4d b4 fa 83 91 3f e1 b3 7d 3f 2e a8 6c 3e
       -1.9101694e-07 1.1368401 0.991026 0.2311103
000350 90 d5 d0 3e ff 04 8c bd c8 71 93 b4 75 31 1c 3f
       0.40787935 -0.068368904 -2.746367e-07 0.61012965
000360 7b d9 27 3f 12 c7 93 b1 99 b9 9f 3d 43 d8 4e 3f
       0.65566224 -4.3008948e-09 0.07799072 0.8079874
000370 88 95 ae 3e 8f 56 09 3f 5c f4 15 3f 2a a9 07 3f
       0.34098458 0.536477 0.5857599 0.529925
000380 43 f7 ec 3e 84 87 b8 3e 0e 56 ae 3e ed 7c c0 3e
       0.46282396 0.3604089 0.3405003 0.3759531
000390 97 c1 cf b7 47 f8 a4 ba 03 5e 0c 3f e6 ea 21 3f
       -2.476647e-05 -0.00125862 0.5483095 0.6324905
0003a0 7f dd 3e be 4d eb e8 3d 74 78 0d bf 1f f4 a9 35
       -0.18639182 0.11373005 -0.5526192 1.266253e-06
0003b0 bd 36 1c 36 28 bf 1c 3f 85 62 6b 3f a2 b7 45 3f
       2.3277673e-06 0.6122918 0.91947204 0.77233326
0003c0 fc 3f 59 b5 ed d6 a8 be d2 a6 14 2f 6c 9c f0 3e
       -8.093191e-07 -0.32976475 1.3519788e-10 0.4699434
0003d0 3d 97 aa 3e ea 7a a7 be 83 e8 c9 3e cf 11 d4 3e
       0.3331851 -0.32710963 0.39435205 0.41419837
0003e0 2e 3d 03 3f 75 86 9f 3e a7 66 e3 3e ad 79 1e 3f
       0.5126523 0.3115727 0.44414255 0.6190441
0003f0 77 15 b0 3e d9 9c 16 3f c1 fd 0a 3f 38 60 19 3f
       0.34391376 0.5883308 0.5429345 0.59912443

bias f4 [175]
000000 00 00 00 00 00 00 00 00 00 00 00 00 00 00 00 00
       0.0 0.0 0.0 0.0
000010 00 00 00 00 00 00 00 00 00 00 00 00 00 00 00 00
       0.0 0.0 0.0 0.0
000020 00 00 00 00 00 00 00 00 00 00 00 00 00 00 00 00
       0.0 0.0 0.0 0.0
000030 00 00 00 00 00 00 00 00 00 00 00 00 00 00 00 00
       0.0 0.0 0.0 0.0
000040 00 00 00 00 00 00 00 00 00 00 00 00 00 00 00 00
       0.0 0.0 0.0 0.0
000050 00 00 00 00 00 00 00 00 00 00 00 00 00 00 00 00
       0.0 0.0 0.0 0.0
000060 00 00 00 00 00 00 00 00 00 00 00 00 00 00 00 00
       0.0 0.0 0.0 0.0
000070 00 00 00 00 00 00 00 00 00 00 00 00 00 00 00 00
       0.0 0.0 0.0 0.0
000080 00 00 00 00 00 00 00 00 00 00 00 00 00 00 00 00
       0.0 0.0 0.0 0.0
000090 00 00 00 00 00 00 00 00 00 00 00 00 00 00 00 00
       0.0 0.0 0.0 0.0
0000a0 00 00 00 00 00 00 00 00 00 00 00 00 00 00 00 00
       0.0 0.0 0.0 0.0
0000b0 00 00 00 00 00 00 00 00 00 00 00 00 00 00 00 00
       0.0 0.0 0.0 0.0
0000c0 00 00 00 00 00 00 00 00 00 00 00 00 00 00 00 00
       0.0 0.0 0.0 0.0
0000d0 00 00 00 00 00 00 00 00 00 00 00 00 00 00 00 00
       0.0 0.0 0.0 0.0
0000e0 00 00 00 00 00 00 00 00 00 00 00 00 00 00 00 00
       0.0 0.0 0.0 0.0
0000f0 00 00 00 00 00 00 00 00 00 00 00 00 00 00 00 00
       0.0 0.0 0.0 0.0
000100 00 00 00 00 00 00 00 00 00 00 00 00 00 00 00 00
       0.0 0.0 0.0 0.0
000110 00 00 00 00 00 00 00 00 00 00 00 00 00 00 00 00
       0.0 0.0 0.0 0.0
000120 00 00 00 00 00 00 00 00 00 00 00 00 00 00 00 00
       0.0 0.0 0.0 0.0
000130 00 00 00 00 00 00 00 00 00 00 00 00 00 00 00 00
       0.0 0.0 0.0 0.0
000140 00 00 00 00 00 00 00 00 00 00 00 00 00 00 00 00
       0.0 0.0 0.0 0.0
000150 00 00 00 00 00 00 00 00 00 00 00 00 00 00 00 00
       0.0 0.0 0.0 0.0
000160 00 00 00 00 00 00 00 00 00 00 00 00 00 00 00 00
       0.0 0.0 0.0 0.0
000170 00 00 00 00 00 00 00 00 00 00 00 00 00 00 00 00
       0.0 0.0 0.0 0.0
000180 00 00 00 00 00 00 00 00 00 00 00 00 00 00 00 00
       0.0 0.0 0.0 0.0
000190 00 00 00 00 00 00 00 00 00 00 00 00 00 00 00 00
       0.0 0.0 0.0 0.0
0001a0 00 00 00 00 00 00 00 00 00 00 00 00 00 00 00 00
       0.0 0.0 0.0 0.0
0001b0 00 00 00 00 00 00 00 00 00 00 00 00 00 00 00 00
       0.0 0.0 0.0 0.0
0001c0 00 00 00 00 00 00 00 00 00 00 00 00 00 00 00 00
       0.0 0.0 0.0 0.0
0001d0 00 00 00 00 00 00 00 00 00 00 00 00 00 00 00 00
       0.0 0.0 0.0 0.0
0001e0 00 00 00 00 00 00 00 00 00 00 00 00 00 00 00 00
       0.0 0.0 0.0 0.0
0001f0 00 00 00 00 00 00 00 00 00 00 00 00 00 00 00 00
       0.0 0.0 0.0 0.0
000200 00 00 00 00 00 00 00 00 00 00 00 00 00 00 00 00
       0.0 0.0 0.0 0.0
000210 00 00 00 00 00 00 00 00 00 00 00 00 00 00 00 00
       0.0 0.0 0.0 0.0
000220 00 00 00 00 00 00 00 00 00 00 00 00 00 00 00 00
       0.0 0.0 0.0 0.0
000230 00 00 00 00 00 00 00 00 00 00 00 00 00 00 00 00
       0.0 0.0 0.0 0.0
000240 00 00 00 00 00 00 00 00 00 00 00 00 00 00 00 00
       0.0 0.0 0.0 0.0
000250 00 00 00 00 00 00 00 00 00 00 00 00 00 00 00 00
       0.0 0.0 0.0 0.0
000260 00 00 00 00 00 00 00 00 00 00 00 00 00 00 00 00
       0.0 0.0 0.0 0.0
000270 00 00 00 00 00 00 00 00 00 00 00 00 00 00 00 00
       0.0 0.0 0.0 0.0
000280 00 00 00 00 00 00 00 00 00 00 00 00 00 00 00 00
       0.0 0.0 0.0 0.0
000290 00 00 00 00 00 00 00 00 00 00 00 00 00 00 00 00
       0.0 0.0 0.0 0.0
0002a0 00 00 00 00 00 00 00 00 00 00 00 00 00 00 00 00
       0.0 0.0 0.0 0.0
0002b0 00 00 00 00 00 00 00 00 00 00 00 00
       0.0 0.0 0.0

_ei_mask f4 [175]
000000 00 00 80 3f 00 00 80 3f 00 00 80 3f 00 00 80 3f
       1.0 1.0 1.0 1.0
000010 00 00 80 3f 00 00 80 3f 00 00 80 3f 00 00 80 3f
       1.0 1.0 1.0 1.0
000020 00 00 80 3f 00 00 80 3f 00 00 80 3f 00 00 80 3f
       1.0 1.0 1.0 1.0
000030 00 00 80 3f 00 00 80 3f 00 00 80 3f 00 00 80 3f
       1.0 1.0 1.0 1.0
000040 00 00 80 3f 00 00 80 3f 00 00 80 3f 00 00 80 3f
       1.0 1.0 1.0 1.0
000050 00 00 80 3f 00 00 80 3f 00 00 80 3f 00 00 80 3f
       1.0 1.0 1.0 1.0
000060 00 00 80 3f 00 00 80 3f 00 00 80 3f 00 00 80 3f
       1.0 1.0 1.0 1.0
000070 00 00 80 3f 00 00 80 3f 00 00 80 3f 00 00 80 3f
       1.0 1.0 1.0 1.0
000080 00 00 80 3f 00 00 80 3f 00 00 80 3f 00 00 80 3f
       1.0 1.0 1.0 1.0
000090 00 00 80 3f 00 00 80 3f 00 00 80 3f 00 00 80 3f
       1.0 1.0 1.0 1.0
0000a0 00 00 80 3f 00 00 80 3f 00 00 80 3f 00 00 80 3f
       1.0 1.0 1.0 1.0
0000b0 00 00 80 3f 00 00 80 3f 00 00 80 3f 00 00 80 3f
       1.0 1.0 1.0 1.0
0000c0 00 00 80 3f 00 00 80 3f 00 00 80 3f 00 00 80 3f
       1.0 1.0 1.0 1.0
0000d0 00 00 80 3f 00 00 80 3f 00 00 80 3f 00 00 80 3f
       1.0 1.0 1.0 1.0
0000e0 00 00 80 3f 00 00 80 3f 00 00 80 3f 00 00 80 3f
       1.0 1.0 1.0 1.0
0000f0 00 00 80 3f 00 00 80 3f 00 00 80 3f 00 00 80 3f
       1.0 1.0 1.0 1.0
000100 00 00 80 3f 00 00 80 3f 00 00 80 3f 00 00 80 3f
       1.0 1.0 1.0 1.0
000110 00 00 80 3f 00 00 80 3f 00 00 80 3f 00 00 80 3f
       1.0 1.0 1.0 1.0
000120 00 00 80 3f 00 00 80 3f 00 00 80 3f 00 00 80 3f
       1.0 1.0 1.0 1.0
000130 00 00 80 3f 00 00 80 3f 00 00 80 3f 00 00 80 3f
       1.0 1.0 1.0 1.0
000140 00 00 80 3f 00 00 80 3f 00 00 80 3f 00 00 80 3f
       1.0 1.0 1.0 1.0
000150 00 00 80 3f 00 00 80 3f 00 00 80 3f 00 00 80 3f
       1.0 1.0 1.0 1.0
000160 00 00 80 3f 00 00 80 3f 00 00 80 3f 00 00 80 3f
       1.0 1.0 1.0 1.0
000170 00 00 80 3f 00 00 80 3f 00 00 80 3f 00 00 80 3f
       1.0 1.0 1.0 1.0
000180 00 00 80 3f 00 00 80 3f 00 00 80 3f 00 00 80 3f
       1.0 1.0 1.0 1.0
000190 00 00 80 3f 00 00 80 3f 00 00 80 3f 00 00 80 3f
       1.0 1.0 1.0 1.0
0001a0 00 00 80 3f 00 00 80 3f 00 00 80 3f 00 00 80 3f
       1.0 1.0 1.0 1.0
0001b0 00 00 80 3f 00 00 80 3f 00 00 80 3f 00 00 80 3f
       1.0 1.0 1.0 1.0
0001c0 00 00 80 3f 00 00 80 3f 00 00 80 3f 00 00 80 3f
       1.0 1.0 1.0 1.0
0001d0 00 00 80 3f 00 00 80 3f 00 00 80 3f 00 00 80 3f
       1.0 1.0 1.0 1.0
0001e0 00 00 80 3f 00 00 80 3f 00 00 80 3f 00 00 80 3f
       1.0 1.0 1.0 1.0
0001f0 00 00 80 3f 00 00 80 3f 00 00 80 3f 00 00 80 3f
       1.0 1.0 1.0 1.0
000200 00 00 80 3f 00 00 80 3f 00 00 80 3f 00 00 80 3f
       1.0 1.0 1.0 1.0
000210 00 00 80 3f 00 00 80 3f 00 00 80 3f 00 00 80 3f
       1.0 1.0 1.0 1.0
000220 00 00 80 3f 00 00 80 3f 00 00 80 3f 00 00 80 3f
       1.0 1.0 1.0 1.0
000230 00 00 80 3f 00 00 80 3f 00 00 80 3f 00 00 80 3f
       1.0 1.0 1.0 1.0
000240 00 00 80 3f 00 00 80 3f 00 00 80 3f 00 00 80 3f
       1.0 1.0 1.0 1.0
000250 00 00 80 3f 00 00 80 3f 00 00 80 3f 00 00 80 3f
       1.0 1.0 1.0 1.0
000260 00 00 80 3f 00 00 80 3f 00 00 80 3f 00 00 80 3f
       1.0 1.0 1.0 1.0
000270 00 00 80 3f 00 00 80 3f 00 00 80 3f 00 00 80 3f
       1.0 1.0 1.0 1.0
000280 00 00 80 3f 00 00 80 3f 00 00 80 3f 00 00 80 3f
       1.0 1.0 1.0 1.0
000290 00 00 80 3f 00 00 80 3f 00 00 80 3f 00 00 80 3f
       1.0 1.0 1.0 1.0
0002a0 00 00 80 3f 00 00 80 3f 00 00 80 3f 00 00 80 3f
       1.0 1.0 1.0 1.0
0002b0 00 00 80 3f 00 00 80 3f 00 00 80 3f
       1.0 1.0 1.0

weight f4 [2, 175]
000000 50 12 1b 3f 66 70 c9 3e 48 6d 4d 3e 77 eb 74 3e
       0.6057482 0.39343566 0.20061219 0.23917948
000010 68 cb 20 3f 0b 6e f9 3e 39 97 f1 3e 8a 86 69 3f
       0.62810373 0.4871677 0.47185686 0.91220915
000020 db da fc 3e dc 81 4f 3f 17 85 8a bd 36 14 99 3e
       0.49385723 0.81057525 -0.06763666 0.29898232
000030 2a fd 5c 3d cf bc 6a 3e ad 32 26 3e 9e aa 12 3f
       0.053952374 0.22923587 0.16230269 0.5729159
000040 f7 1a 80 3e 10 6c 67 3d e3 de 6c 3e d8 14 34 3f
       0.25020573 0.05649954 0.231319 0.70344305
000050 0a 64 31 3e 96 8e 5e bd 2e 6f 66 3e 00 5d 26 3e
       0.17323318 -0.0543352 0.22503349 0.16246414
000060 da 7e de 3f ab 34 53 3f 05 6c 4e 3e c9 ed 0d 3e
       1.7382462 0.8250224 0.20158394 0.13860239
000070 1c 79 24 3e 6e ee 2d 3f 14 44 2e 3f 28 97 ba 3e
       0.16061825 0.6794194 0.6807263 0.36443448
000080 9b 9f be 3e 56 6e 0b 3f 73 3c 29 3e fe 5f 38 3f
       0.37231144 0.54465234 0.16526966 0.7202147
000090 b9 8d 9f bc 0a 3a 0f 3e d4 71 ff 3e d1 ad b8 3e
       -0.019476758 0.13986984 0.4989153 0.3607011
0000a0 96 a7 57 3f 36 ab 87 3e 30 43 99 3e e5 6e da be
       0.8424009 0.2649781 0.29934072 -0.4266273
0000b0 0a 6e c7 3e f7 70 7f 3d d0 a3 a2 3d 1c 21 a2 3d
       0.3895114 0.06236359 0.07941401 0.07916471
0000c0 6d f0 12 3e 89 4f 19 3f 71 d6 b3 3e 03 b3 a8 3e
       0.14349528 0.59886986 0.35124543 0.32949075
0000d0 4c 23 c1 3e 1f 53 0a 3d 00 e7 9f 3d 38 95 df be
       0.37722242 0.033770677 0.07807732 -0.43668532
0000e0 5e 30 5b 3e b3 5b 82 3e 39 d1 a8 3e aa 2c 61 3f
       0.2140517 0.25460586 0.32972124 0.87958777
0000f0 6f c9 3b 3e f9 ee 75 3e d4 7f c4 3e 2f 5e 03 3e
       0.1833856 0.24016942 0.38378775 0.12828897
000100 46 20 3d 3a 64 3f 95 3e 18 89 83 3e 8f 6e 31 3c
       0.0007214587 0.29149926 0.25690532 0.010829582
000110 76 df b4 bd 2f a7 98 3e bb d9 22 3d 51 5f 8a 3e
       -0.08831684 0.2981505 0.039758425 0.27025846
000120 d5 56 95 3e 75 37 ba 3c 21 07 78 3e 75 84 9b 3d
       0.2916781 0.022731522 0.2422147 0.075936235
000130 29 9b 8b 3d 9d de 63 3e 46 ab 24 3e 97 76 c9 3e
       0.06816704 0.22252889 0.1608096 0.3934829
000140 22 0a b5 3e 81 49 11 3f 19 18 06 3e fe b6 03 3f
       0.35359293 0.56752783 0.1309513 0.514511
000150 b3 f4 0d 3e ca 77 8f 3e 60 39 07 3f ce 37 07 3f
       0.13862877 0.2802108 0.5282192 0.52819526
000160 c6 bf b9 bd fe 8c b5 3e 9d e4 ef 3e 1f 89 e0 3e
       -0.09069781 0.3545913 0.46854106 0.43854615
000170 99 a8 10 3f 97 9e 74 3e 43 df c5 3e aa 27 67 3e
       0.5650726 0.23888622 0.38646898 0.22573724
000180 df d2 15 3f cb 1c 14 3e 13 76 cf 3e 67 72 8b 3e
       0.5852489 0.14464109 0.4051977 0.2723572
000190 c5 1b ad 3e 77 ca b1 3d f7 97 e9 3e cc 62 9e 3e
       0.3381025 0.08681195 0.45623752 0.3093475
0001a0 7c 69 23 3e 64 fe a9 3e 37 9d ec 3d 20 fb d7 3e
       0.15958208 0.33201897 0.11553424 0.4218378
0001b0 95 47 52 bd 23 d1 0e 3f da ba b5 bd b5 c5 70 3e
       -0.051337797 0.5578787 -0.0887353 0.23512919
0001c0 9b 2b 01 3e b8 65 1a 3f 9b 6b e2 bd 18 0f 32 3f
       0.1261429 0.6031146 -0.1105568 0.6955428
0001d0 2c 7a 0f 3e c7 8e 01 bd ee 39 4d 3f 2e ad f0 3e
       0.14011449 -0.031630304 0.8016652 0.47007126
0001e0 69 81 08 3f e6 a3 e0 3e 6d 51 7e 3e d4 51 af 3e
       0.53322464 0.43875045 0.24835749 0.34242117
0001f0 83 83 00 3f 62 f7 ba 3e 5a 60 8e 3d 8c 90 fe 3a
       0.5020067 0.36516863 0.06951971 0.001942174
000200 23 70 66 3e 35 2c 11 be cc 18 85 3e 74 1b 04 bd
       0.22503714 -0.1417702 0.2599548 -0.032252744
000210 8b f2 28 3e 99 85 b3 3e d0 de 4f 3e 44 5e c2 3d
       0.16498773 0.35062864 0.2029984 0.09490636
000220 5b 4f dc 3e 77 9c ed 3e 55 54 8a 3e 7d d1 4d 3e
       0.43029293 0.46408436 0.27017465 0.20099445
000230 7a 1f d2 3e c3 95 a8 3e 98 53 84 3f 08 b6 ea 3e
       0.4103964 0.3292676 1.0338011 0.45842004
000240 56 f6 b9 3d e7 cb 31 3e 77 39 dc 3e 0c b2 fe bd
       0.09080188 0.17362939 0.43012592 -0.124363035
000250 7d e0 09 3f e9 2f aa 3d 62 b4 22 3e 8d 01 64 3d
       0.53858167 0.083099194 0.15889123 0.05566554
000260 a8 f6 bb 3e 9b ef f8 bc 29 41 3d 3f cb 90 2d 3f
       0.3671162 -0.03038769 0.7392755 0.6779906
000270 67 75 cf 3d f4 26 35 3f f6 56 80 3e 5d 17 1c be
       0.101298146 0.7076256 0.25066346 -0.15243287
000280 4f 1d 47 3e 1c 8c e1 3d 0d 54 1f 3f a2 e7 54 3e
       0.19444774 0.11013052 0.62237626 0.20791486
000290 55 99 a7 3e 4e e1 ed 3e 8d 37 64 bd 6e 9d ba 3e
       0.3273417 0.46460956 -0.05571704 0.36448234
0002a0 28 0a bb be ab 31 f0 3e 03 9f 18 3e 89 c5 9a 3e
       -0.36531186 0.46912894 0.14904408 0.30228832
0002b0 ef 17 ac 3e 08 9a 5b be db cf e5 3d 08 56 aa be
       0.3361201 -0.21445477 0.11221286 -0.33268762
0002c0 42 21 29 3f a8 76 c7 3c 57 17 56 3e e6 5c b1 be
       0.6606637 0.024348572 0.20907341 -0.34641188
0002d0 03 ff 20 3f cf ad bd 3e 66 f0 d1 3e 9e 20 1a 3e
       0.62889117 0.37046668 0.41003722 0.15051505
0002e0 ae e7 a4 3e e2 d5 30 3f ae a2 f8 3e 0d 41 f4 3e
       0.32208008 0.6907636 0.48561615 0.4770588
0002f0 c0 4d da bc 82 8c 7e be cc d4 8f 3e 67 87 76 be
       -0.026648402 -0.24858287 0.2809204 -0.2407509
000300 d2 92 42 3e 4b b7 8d be c1 35 28 3f a2 4f 2c 3d
       0.1900132 -0.27678904 0.6570702 0.04206813
000310 f0 07 3f 3f 8e 38 8a 3e 2f 31 60 3e e9 da 96 be
       0.74621487 0.26996273 0.21893762 -0.2946389
000320 a5 ef 09 3f ef 39 f3 bd ea a3 47 3f 48 54 15 3f
       0.53881294 -0.11876284 0.7798449 0.5833173
000330 9c 8a 48 3f a2 39 ad 3e 7a 5d 48 3e 20 77 a6 3e
       0.783365 0.33833033 0.19566908 0.3251276
000340 76 c1 0f 3e 4a 57 12 3d 80 4f b6 3e ec b3 c7 3e
       0.14038643 0.035727777 0.3560753 0.39004457
000350 1f 6b e6 3e a6 c5 33 3e 4b 7c e1 3e f8 fd 66 be
       0.45003602 0.17555866 0.4404014 -0.22557819
000360 db 29 47 3e 96 e1 a3 bd 06 c7 03 3f 0d 43 5b bd
       0.1944956 -0.080020115 0.5147556 -0.05353074
000370 f4 1f 73 3e c4 11 9f 3e d5 bf cb 3e 31 a4 51 bd
       0.23742658 0.31068242 0.39794794 -0.051181976
000380 8f ba b8 be 28 5d 34 bf 34 fa 24 bf 0d 5a 0a bd
       -0.36079833 -0.70454645 -0.6444428 -0.033777285
000390 0d 1b b8 3e b7 4f 26 3e 49 56 ef 3e 39 7d b8 3e
       0.35958138 0.16241346 0.46745518 0.36033037
0003a0 47 3b 91 3e e2 61 75 bd 76 f6 92 be 8f 64 30 bd
       0.28365538 -0.0599078 -0.2870366 -0.04306465
0003b0 b8 73 c1 bd 2d 55 c0 bd 76 1d 3f 3f f4 70 bb 3e
       -0.094459 -0.09391246 0.7465433 0.36609614
0003c0 45 b1 89 3e 5c b2 ac 3e d6 1c 32 3e 07 55 b9 bd
       0.26893058 0.33729827 0.17393813 -0.09049421
0003d0 8c ef 56 3e 66 0b b0 3e c6 44 7d 3e c4 93 99 3e
       0.20989817 0.34383696 0.24733266 0.2999555
0003e0 0b e3 a6 3e 3c 0d 77 3e 2f 92 c0 3e 1c bd e2 3e
       0.32595095 0.24126142 0.3761153 0.44284904
0003f0 ef ae 8a 3e 66 01 a2 3d 63 88 33 3e 64 e9 9e 3e
       0.2708659 0.07910423 0.17532496 0.31037438

bias f4 [175]
000000 00 00 00 00 00 00 00 00 00 00 00 00 00 00 00 00
       0.0 0.0 0.0 0.0
000010 00 00 00 00 00 00 00 00 00 00 00 00 00 00 00 00
       0.0 0.0 0.0 0.0
000020 00 00 00 00 00 00 00 00 00 00 00 00 00 00 00 00
       0.0 0.0 0.0 0.0
000030 00 00 00 00 00 00 00 00 00 00 00 00 00 00 00 00
       0.0 0.0 0.0 0.0
000040 00 00 00 00 00 00 00 00 00 00 00 00 00 00 00 00
       0.0 0.0 0.0 0.0
000050 00 00 00 00 00 00 00 00 00 00 00 00 00 00 00 00
       0.0 0.0 0.0 0.0
000060 00 00 00 00 00 00 00 00 00 00 00 00 00 00 00 00
       0.0 0.0 0.0 0.0
000070 00 00 00 00 00 00 00 00 00 00 00 00 00 00 00 00
       0.0 0.0 0.0 0.0
000080 00 00 00 00 00 00 00 00 00 00 00 00 00 00 00 00
       0.0 0.0 0.0 0.0
000090 00 00 00 00 00 00 00 00 00 00 00 00 00 00 00 00
       0.0 0.0 0.0 0.0
0000a0 00 00 00 00 00 00 00 00 00 00 00 00 00 00 00 00
       0.0 0.0 0.0 0.0
0000b0 00 00 00 00 00 00 00 00 00 00 00 00 00 00 00 00
       0.0 0.0 0.0 0.0
0000c0 00 00 00 00 00 00 00 00 00 00 00 00 00 00 00 00
       0.0 0.0 0.0 0.0
0000d0 00 00 00 00 00 00 00 00 00 00 00 00 00 00 00 00
       0.0 0.0 0.0 0.0
0000e0 00 00 00 00 00 00 00 00 00 00 00 00 00 00 00 00
       0.0 0.0 0.0 0.0
0000f0 00 00 00 00 00 00 00 00 00 00 00 00 00 00 00 00
       0.0 0.0 0.0 0.0
000100 00 00 00 00 00 00 00 00 00 00 00 00 00 00 00 00
       0.0 0.0 0.0 0.0
000110 00 00 00 00 00 00 00 00 00 00 00 00 00 00 00 00
       0.0 0.0 0.0 0.0
000120 00 00 00 00 00 00 00 00 00 00 00 00 00 00 00 00
       0.0 0.0 0.0 0.0
000130 00 00 00 00 00 00 00 00 00 00 00 00 00 00 00 00
       0.0 0.0 0.0 0.0
000140 00 00 00 00 00 00 00 00 00 00 00 00 00 00 00 00
       0.0 0.0 0.0 0.0
000150 00 00 00 00 00 00 00 00 00 00 00 00 00 00 00 00
       0.0 0.0 0.0 0.0
000160 00 00 00 00 00 00 00 00 00 00 00 00 00 00 00 00
       0.0 0.0 0.0 0.0
000170 00 00 00 00 00 00 00 00 00 00 00 00 00 00 00 00
       0.0 0.0 0.0 0.0
000180 00 00 00 00 00 00 00 00 00 00 00 00 00 00 00 00
       0.0 0.0 0.0 0.0
000190 00 00 00 00 00 00 00 00 00 00 00 00 00 00 00 00
       0.0 0.0 0.0 0.0
0001a0 00 00 00 00 00 00 00 00 00 00 00 00 00 00 00 00
       0.0 0.0 0.0 0.0
0001b0 00 00 00 00 00 00 00 00 00 00 00 00 00 00 00 00
       0.0 0.0 0.0 0.0
0001c0 00 00 00 00 00 00 00 00 00 00 00 00 00 00 00 00
       0.0 0.0 0.0 0.0
0001d0 00 00 00 00 00 00 00 00 00 00 00 00 00 00 00 00
       0.0 0.0 0.0 0.0
0001e0 00 00 00 00 00 00 00 00 00 00 00 00 00 00 00 00
       0.0 0.0 0.0 0.0
0001f0 00 00 00 00 00 00 00 00 00 00 00 00 00 00 00 00
       0.0 0.0 0.0 0.0
000200 00 00 00 00 00 00 00 00 00 00 00 00 00 00 00 00
       0.0 0.0 0.0 0.0
000210 00 00 00 00 00 00 00 00 00 00 00 00 00 00 00 00
       0.0 0.0 0.0 0.0
000220 00 00 00 00 00 00 00 00 00 00 00 00 00 00 00 00
       0.0 0.0 0.0 0.0
000230 00 00 00 00 00 00 00 00 00 00 00 00 00 00 00 00
       0.0 0.0 0.0 0.0
000240 00 00 00 00 00 00 00 00 00 00 00 00 00 00 00 00
       0.0 0.0 0.0 0.0
000250 00 00 00 00 00 00 00 00 00 00 00 00 00 00 00 00
       0.0 0.0 0.0 0.0
000260 00 00 00 00 00 00 00 00 00 00 00 00 00 00 00 00
       0.0 0.0 0.0 0.0
000270 00 00 00 00 00 00 00 00 00 00 00 00 00 00 00 00
       0.0 0.0 0.0 0.0
000280 00 00 00 00 00 00 00 00 00 00 00 00 00 00 00 00
       0.0 0.0 0.0 0.0
000290 00 00 00 00 00 00 00 00 00 00 00 00 00 00 00 00
       0.0 0.0 0.0 0.0
0002a0 00 00 00 00 00 00 00 00 00 00 00 00 00 00 00 00
       0.0 0.0 0.0 0.0
0002b0 00 00 00 00 00 00 00 00 00 00 00 00
       0.0 0.0 0.0

_ei_mask f4 [175]
000000 00 00 80 3f 00 00 80 3f 00 00 80 3f 00 00 80 3f
       1.0 1.0 1.0 1.0
000010 00 00 80 3f 00 00 80 3f 00 00 80 3f 00 00 80 3f
       1.0 1.0 1.0 1.0
000020 00 00 80 3f 00 00 80 3f 00 00 80 3f 00 00 80 3f
       1.0 1.0 1.0 1.0
000030 00 00 80 3f 00 00 80 3f 00 00 80 3f 00 00 80 3f
       1.0 1.0 1.0 1.0
000040 00 00 80 3f 00 00 80 3f 00 00 80 3f 00 00 80 3f
       1.0 1.0 1.0 1.0
000050 00 00 80 3f 00 00 80 3f 00 00 80 3f 00 00 80 3f
       1.0 1.0 1.0 1.0
000060 00 00 80 3f 00 00 80 3f 00 00 80 3f 00 00 80 3f
       1.0 1.0 1.0 1.0
000070 00 00 80 3f 00 00 80 3f 00 00 80 3f 00 00 80 3f
       1.0 1.0 1.0 1.0
000080 00 00 80 3f 00 00 80 3f 00 00 80 3f 00 00 80 3f
       1.0 1.0 1.0 1.0
000090 00 00 80 3f 00 00 80 3f 00 00 80 3f 00 00 80 3f
       1.0 1.0 1.0 1.0
0000a0 00 00 80 3f 00 00 80 3f 00 00 80 3f 00 00 80 3f
       1.0 1.0 1.0 1.0
0000b0 00 00 80 3f 00 00 80 3f 00 00 80 3f 00 00 80 3f
       1.0 1.0 1.0 1.0
0000c0 00 00 80 3f 00 00 80 3f 00 00 80 3f 00 00 80 3f
       1.0 1.0 1.0 1.0
0000d0 00 00 80 3f 00 00 80 3f 00 00 80 3f 00 00 80 3f
       1.0 1.0 1.0 1.0
0000e0 00 00 80 3f 00 00 80 3f 00 00 80 3f 00 00 80 3f
       1.0 1.0 1.0 1.0
0000f0 00 00 80 3f 00 00 80 3f 00 00 80 3f 00 00 80 3f
       1.0 1.0 1.0 1.0
000100 00 00 80 3f 00 00 80 3f 00 00 80 3f 00 00 80 3f
       1.0 1.0 1.0 1.0
000110 00 00 80 3f 00 00 80 3f 00 00 80 3f 00 00 80 3f
       1.0 1.0 1.0 1.0
000120 00 00 80 3f 00 00 80 3f 00 00 80 3f 00 00 80 3f
       1.0 1.0 1.0 1.0
000130 00 00 80 3f 00 00 80 3f 00 00 80 3f 00 00 80 3f
       1.0 1.0 1.0 1.0
000140 00 00 80 3f 00 00 80 3f 00 00 80 3f 00 00 80 3f
       1.0 1.0 1.0 1.0
000150 00 00 80 3f 00 00 80 3f 00 00 80 3f 00 00 80 3f
       1.0 1.0 1.0 1.0
000160 00 00 80 3f 00 00 80 3f 00 00 80 3f 00 00 80 3f
       1.0 1.0 1.0 1.0
000170 00 00 80 3f 00 00 80 3f 00 00 80 3f 00 00 80 3f
       1.0 1.0 1.0 1.0
000180 00 00 80 3f 00 00 80 3f 00 00 80 3f 00 00 80 3f
       1.0 1.0 1.0 1.0
000190 00 00 80 3f 00 00 80 3f 00 00 80 3f 00 00 80 3f
       1.0 1.0 1.0 1.0
0001a0 00 00 80 3f 00 00 80 3f 00 00 80 3f 00 00 80 3f
       1.0 1.0 1.0 1.0
0001b0 00 00 80 3f 00 00 80 3f 00 00 80 3f 00 00 80 3f
       1.0 1.0 1.0 1.0
0001c0 00 00 80 3f 00 00 80 3f 00 00 80 3f 00 00 80 3f
       1.0 1.0 1.0 1.0
0001d0 00 00 80 3f 00 00 80 3f 00 00 80 3f 00 00 80 3f
       1.0 1.0 1.0 1.0
0001e0 00 00 80 3f 00 00 80 3f 00 00 80 3f 00 00 80 3f
       1.0 1.0 1.0 1.0
0001f0 00 00 80 3f 00 00 80 3f 00 00 80 3f 00 00 80 3f
       1.0 1.0 1.0 1.0
000200 00 00 80 3f 00 00 80 3f 00 00 80 3f 00 00 80 3f
       1.0 1.0 1.0 1.0
000210 00 00 80 3f 00 00 80 3f 00 00 80 3f 00 00 80 3f
       1.0 1.0 1.0 1.0
000220 00 00 80 3f 00 00 80 3f 00 00 80 3f 00 00 80 3f
       1.0 1.0 1.0 1.0
000230 00 00 80 3f 00 00 80 3f 00 00 80 3f 00 00 80 3f
       1.0 1.0 1.0 1.0
000240 00 00 80 3f 00 00 80 3f 00 00 80 3f 00 00 80 3f
       1.0 1.0 1.0 1.0
000250 00 00 80 3f 00 00 80 3f 00 00 80 3f 00 00 80 3f
       1.0 1.0 1.0 1.0
000260 00 00 80 3f 00 00 80 3f 00 00 80 3f 00 00 80 3f
       1.0 1.0 1.0 1.0
000270 00 00 80 3f 00 00 80 3f 00 00 80 3f 00 00 80 3f
       1.0 1.0 1.0 1.0
000280 00 00 80 3f 00 00 80 3f 00 00 80 3f 00 00 80 3f
       1.0 1.0 1.0 1.0
000290 00 00 80 3f 00 00 80 3f 00 00 80 3f 00 00 80 3f
       1.0 1.0 1.0 1.0
0002a0 00 00 80 3f 00 00 80 3f 00 00 80 3f 00 00 80 3f
       1.0 1.0 1.0 1.0
0002b0 00 00 80 3f 00 00 80 3f 00 00 80 3f
       1.0 1.0 1.0

weight f4 [403, 3]
000000 77 d4 94 bf 16 cd 32 bf 52 92 9e 3f 8c 7f eb bd
       -1.1627339 -0.69844186 1.2388403 -0.11498937
000010 13 54 a5 bf c4 8b 48 3f 29 ab d8 3e cd 7b bb bf
       -1.2916282 0.78338265 0.42318085 -1.4647156
000020 4c d2 ef 3e 89 51 20 3f 80 d4 b9 bf 4e 5c 5b 3e
       0.4684013 0.6262441 -1.4517975 0.2142193
000030 46 09 8a 3f 5e bf 88 bf 88 a2 3b 3e 5a 93 b8 3f
       1.078408 -1.0683401 0.1832372 1.4419968
000040 2f 25 c5 bd 0f b7 67 3e c8 16 7b 3f e0 1e 50 be
       -0.09626233 0.22628425 0.98081636 -0.20324278
000050 f4 14 19 3e a0 5c 4f 3f 7b ed 80 bf 3c 85 4e 3e
       0.14949399 0.8100071 -1.0072473 0.20168012
000060 29 6e 7c 3f 78 93 85 bf a9 5c c5 3d e5 61 8d 3f
       0.9860559 -1.0435629 0.09636814 1.10455
000070 c8 a0 37 3f 05 df bb 3c 1e 34 99 3f a1 02 6a 3f
       0.7172971 0.022933492 1.196903 0.9141026
000080 19 2c b6 3e 96 7a a8 3e 1e 11 54 3e fe 8d c3 3e
       0.3558052 0.32906026 0.20709655 0.3819427
000090 30 26 94 3e 3f bd 17 3e 35 16 8e 3e d4 62 b2 3e
       0.28935385 0.14818285 0.27751318 0.34841025
0000a0 92 4e 0c 3e e5 08 30 bc e3 85 eb 3e 0c 69 a1 bd
       0.13701847 -0.010744308 0.46000585 -0.07881364
0000b0 61 b3 2c 3f 4e 08 4b 3f 59 1b 7b bf fa bc d9 3e
       0.6746121 0.79309547 -0.98088604 0.4252699
0000c0 66 a0 51 3f 3a c0 b8 3e c1 77 14 be b2 fb 84 3f
       0.81885374 0.36084157 -0.14498807 1.0389311
0000d0 52 2f 40 3d 66 34 95 3d 2b e7 6b 3f 81 7b 09 39
       0.04692013 0.07285385 0.9214961 0.00013111347
0000e0 22 41 bb 3d 7e 0d 83 3e ad da 66 3e c7 2f f0 be
       0.091432825 0.2559623 0.22544356 -0.4691145
0000f0 0f f8 24 3f c3 f0 a9 3e 9b 85 0c be 3c 41 a4 3f
       0.6444101 0.331915 -0.13722841 1.2832408
000100 96 71 e9 3d 78 62 ae 3e a0 f1 9d 3f 4c 35 9a bf
       0.11398618 0.340595 1.2339363 -1.2047515
000110 fb 86 30 3e 50 35 b2 3f 79 91 80 bf 93 fc 83 3d
       0.17238991 1.392252 -1.0044395 0.06444659
000120 51 fe b5 3f bb 93 6e bf 34 7b 1f 3d 4f 34 f8 3f
       1.4218236 -0.9319417 0.038935855 1.9390963
000130 cb ab 45 bf 3a f8 00 be 79 2d 00 40 89 70 18 bf
       -0.7721526 -0.12594691 2.0027754 -0.59546715
000140 39 7b e4 be bb 9f 11 40 ee 31 38 bf 54 d2 f4 be
       -0.4462526 2.2753742 -0.71951187 -0.47816718
000150 be 4b 0b 40 52 c5 f2 be 71 e1 44 bf b5 bd e6 3f
       2.176498 -0.47416168 -0.76906496 1.8026644
000160 70 49 58 be 9e 99 09 bf 48 df d3 3f dc 58 03 bf
       -0.21121764 -0.53750026 1.6552515 -0.51307464
000170 2f 0e d8 be e0 d1 e2 3f 4f 70 40 bd fb bd db be
       -0.4219832 1.7720299 -0.046982106 -0.4291838
000180 2f c5 97 3f 6e 6e a5 3e 93 fc 8f bf ea 61 8f 3f
       1.1857051 0.32310814 -1.1248955 1.1201756
000190 29 46 27 3e f8 c4 c3 be a2 be eb 3f 37 69 0b bf
       0.16335358 -0.38236213 1.8417552 -0.5445742
0001a0 a2 94 81 be b0 ab f9 3f 57 57 22 3d d9 9e 91 be
       -0.2530871 1.950552 0.039634075 -0.28441504
0001b0 e4 f2 38 40 69 b0 c6 3e 61 29 99 bf 9e c7 59 40
       2.8898249 0.38806465 -1.1965753 3.4028087
0001c0 47 aa d0 be 04 17 b0 bf 71 97 6b 40 cd 3a 88 be
       -0.4075491 -1.3757024 3.6811182 -0.2660736
0001d0 df 88 91 bf 32 e6 4c 40 36 15 fc 3e 34 be 73 bf
       -1.1369895 3.20155 0.49234933 -0.952121
0001e0 a5 d2 41 40 56 28 76 3e 5d 9b 52 bf 8a 04 4f 40
       3.0284817 0.24038824 -0.82268316 3.234652
0001f0 4f 9c e6 3e 0e 88 85 bf 08 8f 6f 40 eb 33 cf 3e
       0.4504113 -1.0432146 3.743105 0.40469298
000200 20 52 96 bf 4b 3d 6f 40 ce 45 8b be 9c 8c 77 bf
       -1.1743813 3.738116 -0.27201694 -0.9669893
000210 92 3f 51 40 01 b4 11 3e 97 d2 88 bf 2c 7f 34 40
       3.269505 0.14228822 -1.0689267 2.820262
000220 b1 b4 03 bf 46 db 66 bf b4 65 13 40 dd b6 bf be
       -0.5144759 -0.90178335 2.3030825 -0.374442
000230 94 b8 48 bf 0a 8a d8 3f 3b 73 84 bd f6 66 f7 be
       -0.78406644 1.6917126 -0.06467291 -0.4832074
000240 37 4f 0b 40 85 b3 f5 be 80 d8 54 be 79 38 48 40
       2.17671 -0.47988525 -0.20785713 3.1284468
000250 71 a7 10 bf 9f 94 34 bf c2 07 52 40 22 9d 48 bf
       -0.56505495 -0.7053928 3.2817235 -0.78364766
000260 60 43 16 bf c9 c7 46 40 7c 99 52 bf 16 18 82 be
       -0.58696556 3.105944 -0.8226545 -0.25409
000270 c0 93 2f 40 6a 8f dc bd 86 30 17 bf 37 75 10 40
       2.743393 -0.107695416 -0.59058416 2.2571542
000280 41 0e 3b bf 25 3f 64 bf ee 71 bc 3f cd cb 2c bf
       -0.73068625 -0.8915885 1.4722269 -0.67498475
000290 35 80 c3 bf 9f 77 b5 3f b9 fc bc be e7 bf 3d bf
       -1.5273501 1.417713 -0.36911562 -0.74120945
0002a0 5c a8 b0 3f 9f 19 fc be 06 ed 22 bf fd d5 1d 3f
       1.3801379 -0.49238297 -0.6364292 0.61654645
0002b0 b1 ad 73 be ae ba 59 be 31 16 91 bd 23 7c 77 bd
       -0.23796727 -0.21262619 -0.07084311 -0.06042112
0002c0 ea eb 02 bf b3 a5 d6 3e 78 2a ea bd 68 44 be be
       -0.51141226 0.41923293 -0.114338815 -0.37161565
0002d0 97 cf 64 3e 14 8a ae bd fc 18 a9 3d 2f dc 88 3f
       0.22344814 -0.0852243 0.082567185 1.0692195
0002e0 cc 7c 0d be f8 c1 b5 be 56 0c 8d 3f 91 01 72 be
       -0.13817137 -0.3549955 1.101939 -0.2363341
0002f0 73 09 43 be d0 af 5c 3f 99 d8 ea be 8a 17 39 be
       -0.19046573 0.8620577 -0.45868376 -0.18075386
000300 b8 a2 51 3f 1d d9 db be ce 33 87 bd e2 f3 89 3f
       0.81888914 -0.42939082 -0.06601678 1.0777552
000310 4d 92 14 bf 59 23 c2 be f9 63 9f 3f fd bf 2c bf
       -0.5803574 -0.37917593 1.2452384 -0.6748045
000320 4c df 1b bf b3 50 b6 3f 71 90 7b bf cd 85 ea be
       -0.608876 1.4243377 -0.98267275 -0.45805207
000330 b8 05 b3 3f 2b 0d 17 bf 3d 9b 30 be 0a f9 ab 3f
       1.398612 -0.5900447 -0.17246719 1.3435376
000340 40 f5 9d be c1 2c 8c be 1c fe a0 3f cd 6d 1c bd
       -0.30851173 -0.27377895 1.2577548 -0.03819065
000350 84 b7 f3 be d2 3d 8e 3f 12 b1 f5 3b 6e 3a 46 bf
       -0.4760095 1.1112616 0.007497915 -0.77432907
000360 9d 10 b5 3f 34 b2 17 be 31 70 72 bf 9e ef ed 3f
       1.4145695 -0.14814073 -0.9470244 1.858875
000370 de a9 96 bf 63 30 82 be c3 98 24 40 e1 1b 1a bf
       -1.1770589 -0.2542754 2.5718238 -0.6019879
000380 a6 34 b8 be e5 f1 20 40 d4 2c 0b 3e 13 66 55 bf
       -0.35977668 2.514764 0.1359132 -0.8335888
000390 9d d7 26 40 8d 7c 5f be 81 5c f8 be 4b a3 28 40
       2.60691 -0.21824856 -0.48508075 2.6349666
0003a0 ee 2b a6 be b5 f7 32 bf a5 45 2c 40 e6 59 13 bd
       -0.3245539 -0.6990922 2.6917508 -0.035974406
0003b0 7c d7 1d bf 61 d2 3b 40 5f d6 97 3e 75 0f 77 bf
       -0.6165693 2.9347155 0.2965574 -0.9650796
0003c0 99 99 3e 40 f6 fc 62 3e 7e 81 a9 bf 80 59 54 40
       2.9781249 0.2216681 -1.3242643 3.3179626
0003d0 10 3e 87 bc 6f 66 64 bf 7e 60 4c 40 88 15 a9 3d
       -0.016509086 -0.892188 3.1933894 0.0825606
0003e0 b1 79 81 bf d6 7f 42 40 ca d8 e2 3d 9e db 3d bf
       -1.0115262 3.0390525 0.110765055 -0.74163234
0003f0 72 22 62 40 a7 cc 6a 3e b4 83 9d be c2 00 57 40
       3.5333524 0.22929631 -0.30764544 3.3594213

bias f4 [3]
000000 00 00 00 00 00 00 00 00 00 00 00 00
       0.0 0.0 0.0

_ei_mask f4 [3]
000000 00 00 80 3f 00 00 80 3f 00 00 80 3f
       1.0 1.0 1.0

rmat f4 [1, 1, 3]
000000 00 00 80 bf 00 00 00 40 00 00 80 bf
       -1.0 2.0 -1.0

weight f4 [3, 175]
000000 1e f1 fc 3e c7 f4 5d 3e dc 5e b6 3e a8 51 9b 3e
       0.49402708 0.21675406 0.35619247 0.30335736
000010 46 bd 4a 3e 37 a7 a2 3d c6 57 57 3e eb f5 2a 3e
       0.19798765 0.0794205 0.21029577 0.16695373
000020 10 9a ca 3d 97 ee 5d 3e 0b 98 21 3d 61 0d 01 3e
       0.09892666 0.21673046 0.03945164 0.1260276
000030 e6 ae 70 3e 18 40 5c 3e 3b 47 61 bc 89 cb 76 3e
       0.23504218 0.21508825 -0.013749893 0.2410108
000040 90 2f 0d bd e0 ef 05 37 e8 80 86 bc 4e e6 60 3e
       -0.034469187 7.983268e-06 -0.01641889 0.21962854
000050 31 f2 96 3e 35 ab 1b 3e 81 4e 4b 3e 65 e1 cd 3d
       0.29481652 0.15202029 0.19854166 0.10052756
000060 0d b2 1c 3e 99 44 92 3e c6 df 29 3e 8c 50 d9 3d
       0.15302296 0.2856796 0.16589269 0.10611066
000070 b0 87 78 3e 6f 1a 84 3e cb 54 fb 3d 92 77 0f bd
       0.2427051 0.25801417 0.12272032 -0.03502614
000080 4a 46 f6 bc 60 a1 42 3e 3a e2 73 3e 88 f3 97 3e
       -0.030062813 0.19006872 0.23816767 0.29677987
000090 b3 1a 3c 3e 73 40 27 be c4 ff 74 3e 55 ed 11 3e
       0.1836956 -0.16333179 0.23925692 0.14250691
0000a0 f1 d1 42 3e 34 0f c0 3e 7c 23 f0 3d 72 1b df be
       0.19025399 0.375116 0.11725518 -0.43575627
0000b0 f4 ed 6b 3e f4 0c 3a 3e 3e 7c e2 3b 7a d8 7b be
       0.2303999 0.18169004 0.0069117835 -0.24594298
0000c0 d9 08 a0 3e 0c fd a8 3e 4a 9c 10 3c a4 63 0f bd
       0.3125675 0.3300556 0.008826325 -0.035007134
0000d0 19 fe af 3c 47 f3 db 3d fb a9 1c 3e 63 60 5a 3e
       0.021483468 0.10739761 0.15299217 0.21325831
0000e0 80 c0 52 3e 7a 4f d8 bc 6a d0 27 3e 62 a1 4c 3c
       0.20581245 -0.026405085 0.16388097 0.012489649
0000f0 b3 ac ae 3e 42 18 a0 3e a5 6f 96 3e 33 cb a6 3e
       0.34116134 0.31268507 0.29382053 0.32576904
000100 22 10 76 3e 6d 28 56 3d b8 2c 4c bc 0d 96 31 3e
       0.24029592 0.052284647 -0.012461834 0.17342396
000110 49 de 0f 3f a3 df 93 3e 5d 90 fb 3d b6 8c 77 3d
       0.56198555 0.2888156 0.122833945 0.060436927
000120 91 fd 09 3e e7 21 06 3e 6c 5b 23 3c 2c 9d 4b 3d
       0.13475634 0.1309887 0.009970527 0.049710438
000130 b7 38 21 3d 0c 3f fa 3d 27 5d e0 3d a0 dd 1e 3e
       0.039360728 0.122190565 0.109552674 0.1551423
000140 93 a2 02 3e cc b1 b0 3d 9c ef cc 3b 45 32 55 3e
       0.1275733 0.08627662 0.0062541496 0.20819958
000150 24 31 2f bd 73 1d ae 3d ce 7c 7b 3e ed a7 83 3e
       -0.042771474 0.08501711 0.24559328 0.25714055
000160 56 74 57 3e d3 fe 32 3e f4 e7 ad 3c aa e7 11 bc
       0.21040472 0.1748002 0.021228768 -0.008905331
000170 aa 3e 34 3e 35 89 4f 3d 7c 47 0d 3e 13 9f 0a 3e
       0.1760203 0.05066796 0.137968 0.13537244
000180 6d 79 2b 3e b3 32 4a 3e bf d2 2f 3e f8 60 13 3e
       0.16745539 0.19745903 0.17170237 0.1439246
000190 35 fe b9 3d 4d 5c 1d 3e fb 1f 42 3e d1 f8 0e 3e
       0.09081689 0.15367241 0.18957512 0.13962103
0001a0 7b 6a 3b 3e 6f 4a 65 3e a6 9e fc 3d 39 ed d0 3d
       0.18302338 0.22391675 0.12334947 0.10201497
0001b0 0c d8 fb 3c 22 91 aa 3d e9 ba 45 3e 1e 35 8d 3e
       0.030742668 0.08328463 0.19309582 0.27579588
0001c0 21 88 68 3e 04 cd a0 3d 93 82 36 3e 83 83 a0 3d
       0.22708179 0.078516036 0.17823248 0.07837584
0001d0 02 39 19 3e b1 a5 8b 3d d5 a3 25 3d 99 58 c5 3d
       0.14963153 0.068187125 0.040439446 0.09636039
0001e0 cc 71 cb 3d 6d 96 8f 3e dd 63 da 3d cb a2 dc 3d
       0.099338144 0.28044453 0.10663579 0.10773238
0001f0 aa 0a ae 3d b8 3d 46 3e d4 d3 44 3d 21 67 91 3e
       0.08498128 0.19359481 0.048053578 0.28398994
000200 51 96 99 3e e5 f0 a9 3e fc 90 8a bd 7a 6f 89 3e
       0.29997495 0.331916 -0.06765935 0.26842862
000210 ec 5a fe 3d 79 4d 3a 3e 37 f1 80 3e cf 4f 9d 3c
       0.12419686 0.18193616 0.25184032 0.019203095
000220 20 eb 8b 3d f5 32 ed 3d 44 fe 64 3e 53 24 21 3d
       0.06831956 0.11581985 0.2236262 0.039341282
000230 30 a5 1c 3e 27 f3 3f 3e 90 7b be 3e ab 69 f9 3d
       0.15297389 0.18745099 0.37203646 0.12178358
000240 6f d7 41 3e 77 33 f9 3d 44 bb 3b bd ec cf 4c 3d
       0.18929838 0.12168019 -0.045832887 0.050002977
000250 25 3c 85 3f c1 c2 c7 bb a9 0e e1 3d 14 97 99 3d
       1.040898 -0.0060962145 0.10989124 0.07499519
000260 29 fc 0c 3d f0 10 cf 3e b8 e5 55 3d 59 2f 83 3e
       0.034420166 0.4044261 0.05222103 0.2562206
000270 6f 2c 72 3e 4c 95 cb 3d 71 ed 33 3e 36 f6 3b 3e
       0.23649763 0.099405855 0.17571045 0.18355641
000280 ee 20 8f 3e a0 a5 86 3e 6e 6e 86 3e 39 a5 2a 3d
       0.2795481 0.26298237 0.26256126 0.041661475
000290 c5 b6 a8 3d b8 3a 51 3e 51 0e 19 3f 60 03 a7 3b
       0.082379855 0.20432556 0.5978747 0.005096838
0002a0 93 2d c2 3e db 5a 34 3e 73 74 3b 3e ce 3f 49 3d
       0.37925395 0.17612784 0.1830614 0.049133115
0002b0 1b 00 8b 3d 02 ea 2c 3e 7f 08 11 bf 8f 36 74 be
       0.067871295 0.16886142 -0.5665359 -0.23848937
0002c0 08 86 37 be 4e eb 03 be 6b e2 c9 bd 83 05 2b bd
       -0.17922223 -0.1288273 -0.09857639 -0.041753303
0002d0 28 ca 56 be ee 3b 35 3d e0 7e 62 bc f3 0c 28 3c
       -0.20975554 0.044246607 -0.013824195 0.010256994
0002e0 48 ce 28 bd 4f 32 b0 3e fc 04 21 3d d7 10 25 3f
       -0.04121235 0.34413382 0.039311394 0.6447882
0002f0 1a 00 54 3e 9e 5e 09 bf 66 12 56 be c3 cb 0e bf
       0.20703164 -0.5366 -0.20905456 -0.55779666
000300 b5 e9 0b 3f 13 da 0e bf b0 62 20 be 84 34 0b bf
       0.54653484 -0.55801505 -0.15662646 -0.5437701
000310 87 82 0a 3e 03 0e 05 be 35 57 13 3f 0b e2 26 3e
       0.13526355 -0.12993626 0.5755494 0.16297166
000320 85 fb 64 be 5d 63 63 3d 0d 2d 0f 3e ed f5 e9 bd
       -0.22361572 0.055514682 0.1398203 -0.1142386
000330 b0 53 b3 bd 49 a8 66 3e 68 fb be be 7f 5c a0 3e
       -0.087561965 0.22525133 -0.37301183 0.3132057
000340 ac fc 0a 3e 44 24 b3 be e2 7b 85 be 45 47 05 bf
       0.13572949 -0.34988606 -0.26071078 -0.52061874
000350 c4 49 9b 3d de 7d 99 bd a8 7d 34 be 74 67 9c 3c
       0.07582429 -0.074947104 -0.17626059 0.019092299
000360 8a 74 70 be 41 d3 cc bd 99 19 1a 40 b6 5a 91 be
       -0.23481956 -0.10001231 2.4078124 -0.2838952
000370 5a ab a9 3e 22 58 23 3e ed 1a 4a 3f 4a 61 c1 be
       0.33138543 0.15951589 0.78947335 -0.37769538
000380 9a ba 38 be 46 d9 82 40 2e 9a 84 40 ba 77 b0 be
       -0.18039933 4.0890226 4.143821 -0.34466344
000390 af 44 08 3f 52 f8 d2 be 3f 12 93 3e 77 88 00 be
       0.532298 -0.41205078 0.28724858 -0.12552057
0003a0 ea 2b c0 3d a2 c9 ee bd 02 28 14 bf c0 60 81 be
       0.09383376 -0.11659552 -0.5787355 -0.25269127
0003b0 b4 bb b1 be 9b 4d 7f be 63 f3 f5 bd 62 c7 1a be
       -0.3471352 -0.24931948 -0.12009313 -0.15115121
0003c0 10 99 7e 3e 2f 06 99 3e b6 e3 1d 3b 6d 4b 8c be
       0.24863076 0.2988753 0.0024092025 -0.27401295
0003d0 a9 4c 72 be f7 d2 1b bf b9 90 9b 3d 96 99 b5 bc
       -0.23662056 -0.6086878 0.07595963 -0.022167962
0003e0 49 a4 2d 3c 76 57 73 bd ec 8d 0b 3e 2c 5b 30 3e
       0.010598251 -0.05940958 0.13628358 0.1722228
0003f0 08 c2 56 bc 66 a7 8b be ab c5 ae 3c 89 31 3c 3c
       -0.013107784 -0.27276152 0.02133449 0.0114864195

bias f4 [175]
000000 00 00 00 00 00 00 00 00 00 00 00 00 00 00 00 00
       0.0 0.0 0.0 0.0
000010 00 00 00 00 00 00 00 00 00 00 00 00 00 00 00 00
       0.0 0.0 0.0 0.0
000020 00 00 00 00 00 00 00 00 00 00 00 00 00 00 00 00
       0.0 0.0 0.0 0.0
000030 00 00 00 00 00 00 00 00 00 00 00 00 00 00 00 00
       0.0 0.0 0.0 0.0
000040 00 00 00 00 00 00 00 00 00 00 00 00 00 00 00 00
       0.0 0.0 0.0 0.0
000050 00 00 00 00 00 00 00 00 00 00 00 00 00 00 00 00
       0.0 0.0 0.0 0.0
000060 00 00 00 00 00 00 00 00 00 00 00 00 00 00 00 00
       0.0 0.0 0.0 0.0
000070 00 00 00 00 00 00 00 00 00 00 00 00 00 00 00 00
       0.0 0.0 0.0 0.0
000080 00 00 00 00 00 00 00 00 00 00 00 00 00 00 00 00
       0.0 0.0 0.0 0.0
000090 00 00 00 00 00 00 00 00 00 00 00 00 00 00 00 00
       0.0 0.0 0.0 0.0
0000a0 00 00 00 00 00 00 00 00 00 00 00 00 00 00 00 00
       0.0 0.0 0.0 0.0
0000b0 00 00 00 00 00 00 00 00 00 00 00 00 00 00 00 00
       0.0 0.0 0.0 0.0
0000c0 00 00 00 00 00 00 00 00 00 00 00 00 00 00 00 00
       0.0 0.0 0.0 0.0
0000d0 00 00 00 00 00 00 00 00 00 00 00 00 00 00 00 00
       0.0 0.0 0.0 0.0
0000e0 00 00 00 00 00 00 00 00 00 00 00 00 00 00 00 00
       0.0 0.0 0.0 0.0
0000f0 00 00 00 00 00 00 00 00 00 00 00 00 00 00 00 00
       0.0 0.0 0.0 0.0
000100 00 00 00 00 00 00 00 00 00 00 00 00 00 00 00 00
       0.0 0.0 0.0 0.0
000110 00 00 00 00 00 00 00 00 00 00 00 00 00 00 00 00
       0.0 0.0 0.0 0.0
000120 00 00 00 00 00 00 00 00 00 00 00 00 00 00 00 00
       0.0 0.0 0.0 0.0
000130 00 00 00 00 00 00 00 00 00 00 00 00 00 00 00 00
       0.0 0.0 0.0 0.0
000140 00 00 00 00 00 00 00 00 00 00 00 00 00 00 00 00
       0.0 0.0 0.0 0.0
000150 00 00 00 00 00 00 00 00 00 00 00 00 00 00 00 00
       0.0 0.0 0.0 0.0
000160 00 00 00 00 00 00 00 00 00 00 00 00 00 00 00 00
       0.0 0.0 0.0 0.0
000170 00 00 00 00 00 00 00 00 00 00 00 00 00 00 00 00
       0.0 0.0 0.0 0.0
000180 00 00 00 00 00 00 00 00 00 00 00 00 00 00 00 00
       0.0 0.0 0.0 0.0
000190 00 00 00 00 00 00 00 00 00 00 00 00 00 00 00 00
       0.0 0.0 0.0 0.0
0001a0 00 00 00 00 00 00 00 00 00 00 00 00 00 00 00 00
       0.0 0.0 0.0 0.0
0001b0 00 00 00 00 00 00 00 00 00 00 00 00 00 00 00 00
       0.0 0.0 0.0 0.0
0001c0 00 00 00 00 00 00 00 00 00 00 00 00 00 00 00 00
       0.0 0.0 0.0 0.0
0001d0 00 00 00 00 00 00 00 00 00 00 00 00 00 00 00 00
       0.0 0.0 0.0 0.0
0001e0 00 00 00 00 00 00 00 00 00 00 00 00 00 00 00 00
       0.0 0.0 0.0 0.0
0001f0 00 00 00 00 00 00 00 00 00 00 00 00 00 00 00 00
       0.0 0.0 0.0 0.0
000200 00 00 00 00 00 00 00 00 00 00 00 00 00 00 00 00
       0.0 0.0 0.0 0.0
000210 00 00 00 00 00 00 00 00 00 00 00 00 00 00 00 00
       0.0 0.0 0.0 0.0
000220 00 00 00 00 00 00 00 00 00 00 00 00 00 00 00 00
       0.0 0.0 0.0 0.0
000230 00 00 00 00 00 00 00 00 00 00 00 00 00 00 00 00
       0.0 0.0 0.0 0.0
000240 00 00 00 00 00 00 00 00 00 00 00 00 00 00 00 00
       0.0 0.0 0.0 0.0
000250 00 00 00 00 00 00 00 00 00 00 00 00 00 00 00 00
       0.0 0.0 0.0 0.0
000260 00 00 00 00 00 00 00 00 00 00 00 00 00 00 00 00
       0.0 0.0 0.0 0.0
000270 00 00 00 00 00 00 00 00 00 00 00 00 00 00 00 00
       0.0 0.0 0.0 0.0
000280 00 00 00 00 00 00 00 00 00 00 00 00 00 00 00 00
       0.0 0.0 0.0 0.0
000290 00 00 00 00 00 00 00 00 00 00 00 00 00 00 00 00
       0.0 0.0 0.0 0.0
0002a0 00 00 00 00 00 00 00 00 00 00 00 00 00 00 00 00
       0.0 0.0 0.0 0.0
0002b0 00 00 00 00 00 00 00 00 00 00 00 00
       0.0 0.0 0.0
