checkpoints/version77/model.pt (torch, 41468 bytes, 19 tensors)

bias f4 [175]
0	0x3f968cce	1.176172
1	0x40122552	2.2835279
2	0xbf1fd44e	-0.62433326
3	0x3fa767ea	1.3078587
4	0x3d09c7a2	0.03363765
5	0x3ff4b08a	1.9116375
6	0x3ffb20e9	1.9619418
7	0x4026b7b2	2.6049619
8	0x3fceb287	1.6148232
9	0x4040844b	3.0080745
10	0x3fac41c9	1.3457576
11	0x3fc52f8a	1.5405133
12	0x3e1eb393	0.1549819
13	0xbde59e6e	-0.11211859
14	0x3cb4ecbf	0.022085546
15	0x400c3cde	2.191215
16	0xbd4f3a35	-0.05059262
17	0xbd8182dd	-0.06323788
18	0xbd086073	-0.033295106
19	0x403225db	2.7835605
20	0x3e96d8d4	0.29462302
21	0x3fb9538d	1.4478623
22	0x3fc860b6	1.5654514
23	0xbecda7bb	-0.4016703
24	0xbfe612e2	-1.7974513
25	0x405b7288	3.4288654
26	0x3f7ac828	0.97961664
27	0x3fb524ce	1.4151857
28	0x3f833359	1.0250045
29	0x40261846	2.5952315
30	0x3f033075	0.51245815
31	0x3d22dead	0.03976314
32	0x3f9a9e35	1.2079531
33	0x3d908341	0.07056285
34	0x3f1ffa14	0.62490964
35	0x406f0667	3.7347658
36	0x3f33ec19	0.7028213
37	0x3f8bcfcc	1.092279
38	0x3fe76d7a	1.8080285
39	0x3fb76fce	1.4330995
40	0x400b97c5	2.1811383
41	0x3fc3e488	1.5304117
42	0x3e4a4b5b	0.19755308
43	0x3ec60369	0.38674477
44	0x3fcc6935	1.5969607
45	0xbe487742	-0.19576743
46	0x3ef50f65	0.47863308
47	0x3e370afc	0.17875284
48	0x3ea3e169	0.32007912
49	0x3e98c7df	0.2983999
50	0x3f0d73da	0.552549
51	0x3f02495a	0.50893176
52	0x3f85db80	1.0457611
53	0x3e60a4b3	0.21937828
54	0x3e72cd8b	0.23711221
55	0x3fa5b1d3	1.2944893
56	0xbec05f5d	-0.37572756
57	0x3f318994	0.6935055
58	0x3e2905de	0.16506144
59	0xbebb7f45	-0.36620536
60	0xbda8a0fd	-0.08233831
61	0x3d5ed509	0.054402385
62	0x3f387240	0.7204933
63	0x3f34ba39	0.70596653
64	0x3d95f4c7	0.07322078
65	0x3ea9d956	0.33173627
66	0xbbad5d79	-0.005290684
67	0x3eb55136	0.35413522
68	0x3f2756f0	0.6536703
69	0x3fd1bb3c	1.6385264
70	0xbeae3382	-0.34023672
71	0x3f984c7f	1.1898345
72	0x3fab4901	1.3381654
73	0x3f60bc0c	0.87786937
74	0x3f92de7d	1.1474148
75	0x3f7dc0d8	0.9912238
76	0x3fabfd3a	1.3436654
77	0x3fc2b118	1.5210295
78	0x3fc2d76c	1.5221992
79	0x400a0e43	2.1571205
80	0x3faa1e65	1.3290526
81	0x3ff9f8d3	1.952906
82	0x3f7c7f72	0.98631966
83	0x40297128	2.6475315
84	0x3faecdc5	1.3656546
85	0x3f9ee65b	1.2414049
86	0x403d618f	2.9590795
87	0x405b8a7e	3.430328
88	0x3fbecfae	1.4907129
89	0x3f857a35	1.042792
90	0x3f870ffb	1.0551752
91	0xbed3bef7	-0.41356632
92	0x405cba75	3.4488804
93	0xbd45b201	-0.04826546
94	0x3f75cd35	0.96016246
95	0x3ebf03f9	0.37307718
96	0x406163b8	3.5217113
97	0x3ed247e9	0.41070488
98	0xbf3938e1	-0.72352415
99	0x3e02cc05	0.1277314
100	0x401436c9	2.3158438
101	0x3f6dea72	0.9293586
102	0x3fbdad5b	1.4818529
103	0x3feb5162	1.8384211
104	0x3f7ab784	0.9793627
105	0x400ad55d	2.1692727
106	0x3fc039b1	1.5017606
107	0x3fc0eb5c	1.5071826
108	0x3fc90ab4	1.5706391
109	0x40007d27	2.0076387
110	0x3f82d5a8	1.0221453
111	0xbe9b0805	-0.30279556
112	0x3db01e13	0.08599486
113	0x401054cb	2.2551754
114	0x3f982caa	1.188863
115	0x40124d50	2.2859688
116	0x3e1e998d	0.15488262
117	0x4011379a	2.2690187
118	0x3fec8eea	1.8481114
119	0x40060aa5	2.0943997
120	0x4025b802	2.589356
121	0x3fdd5d37	1.7294072
122	0x40053638	2.0814342
123	0x401231a9	2.284281
124	0x4029e558	2.654623
125	0x3fae4c69	1.3617069
126	0x3e224ac5	0.15848835
127	0xbd8e4682	-0.06947042
128	0x3f5b00ef	0.855483
129	0x3fb4d564	1.4127622
130	0x3e90ebac	0.28304803
131	0x3e463a73	0.19358234
132	0xbd7b1b9c	-0.061305627
133	0x40001ed3	2.0018814
134	0x3fb553a0	1.4166145
135	0x3d8919dc	0.066943854
136	0xbd5badf4	-0.05363269
137	0x3fb488dc	1.4104266
138	0x3f0b268b	0.54355687
139	0x3f7a737e	0.9783248
140	0x3f23e0e4	0.6401503
141	0x3ecde066	0.40210265
142	0x3f929123	1.1450542
143	0x3eafd28e	0.34340328
144	0xbdcf4645	-0.10120825
145	0x3fcb1adf	1.5867575
146	0x3fa9ea29	1.3274585
147	0x3fa13570	1.2594433
148	0x3f25a6a6	0.6470741
149	0xbddeb978	-0.10875219
150	0x3e84efae	0.2596411
151	0xbdc11105	-0.09427074
152	0x3fd74046	1.681649
153	0x3f75e958	0.9605918
154	0x4045bda8	3.0897007
155	0x400362f2	2.0529141
156	0x3f9090c3	1.1294178
157	0x405a9a0b	3.415652
158	0x3e98202b	0.29712042
159	0x3ea775d8	0.32707095
160	0x3f60659b	0.8765504
161	0xbf780656	-0.9688467
162	0x3f101507	0.56282085
163	0x3f95b3af	1.169546
164	0x3fc77727	1.5583237
165	0x40324cd0	2.7859383
166	0x3f5a3164	0.85231614
167	0x3fabd3b6	1.3423984
168	0x3f6ae87a	0.9176098
169	0x3feee8b9	1.8664771
170	0x4001b5b9	2.0267165
171	0x3fc70a52	1.5550025
172	0x3f96b646	1.1774375
173	0x3edf47eb	0.43609557
174	0x3ea1540c	0.31509435

weight f4 [9, 175]
0	0x3ead7029	0.33874634
1	0x3efb3289	0.49061993
2	0x361d5916	2.3446678e-06
3	0x3ec8629f	0.39137742
4	0x3723442c	9.73143e-06
5	0x3f3f89dc	0.7481973
6	0x3efdf16c	0.49598253
7	0x3f4540cb	0.7705199
8	0x3f7e3321	0.99296767
9	0x3f3b2a2d	0.7311123
10	0x3f477baf	0.779231
11	0x3f399e51	0.72507197
12	0xb44af852	-1.8903054e-07
13	0x3f02454a	0.50886977
14	0x3e5fe797	0.21865688
15	0xbc019dc6	-0.007911151
16	0x3e8542b9	0.26027468
17	0x3ecdbc45	0.401827
18	0x3eae79b9	0.34077242
19	0x3f4979b8	0.78701353
20	0xb105d0e4	-1.9472788e-09
21	0x3f5592ef	0.8342733
22	0x3f1c79bb	0.61123246
23	0xbeb68d04	-0.3565446
24	0x3f92c3ae	1.1465967
25	0x3f5a819b	0.8535401
26	0x3fa5b14a	1.2944729
27	0x3f12f417	0.574037
28	0x3f03dc44	0.51507974
29	0x317e5746	3.7011474e-09
30	0x3f902de4	1.1264005
31	0x3ea522a5	0.32252994
32	0x3f2c9f64	0.6743071
33	0x3fac5248	1.346261
34	0x3408c518	1.273769e-07
35	0x3cd2a93f	0.025715468
36	0x3f12bdf6	0.5732111
37	0x3eb24ead	0.3482565
38	0x3f269700	0.6507416
39	0x3f511ff5	0.8168939
40	0x3edf9ee9	0.43675926
41	0xbee62ae1	-0.4495459
42	0x3f537037	0.825931
43	0x3f1ae254	0.605016
44	0x3b2eea04	0.0026689777
45	0x3f0d2a4e	0.55142677
46	0x3cd9a24e	0.02656665
47	0xbe1c29e4	-0.15250355
48	0xb50e8eba	-5.3106817e-07
49	0x3b9c4b7c	0.0047697406
50	0x3efd4a63	0.49470815
51	0x3f06c7e4	0.5264876
52	0x3e9a45e2	0.3013144
53	0x3f3484e0	0.7051525
54	0x3edd8bb0	0.43270636
55	0x39b160f2	0.000338323
56	0xb8491c58	-4.794853e-05
57	0x3f10afb0	0.5651808
58	0x3eec3f3e	0.46142
59	0x3ebf3d7f	0.37351605
60	0x3f10d6d8	0.56577826
61	0x3f168005	0.5878909
62	0x302c5658	6.269594e-10
63	0xb5b1a987	-1.3236867e-06
64	0x3181079b	3.7552588e-09
65	0x3f1e629c	0.61869216
66	0x3effb8b1	0.49945596
67	0x3f3970e4	0.7243788
68	0x3e3bd598	0.18343198
69	0x3f0ea168	0.55715036
70	0x3ec2c267	0.38038942
71	0x3edfd474	0.43716776
72	0x3efe328b	0.49647936
73	0xba5cafac	-0.0008418511
74	0x3eda0001	0.42578128
75	0x3e7e4ef3	0.24834804
76	0x3e4c7bfa	0.19969168
77	0x3eec4159	0.46143606
78	0x3b65e3dd	0.0035078444
79	0x3eccf065	0.40027156
80	0x3e8387a9	0.25689438
81	0x3ed76b1a	0.420739
82	0x3ef0318c	0.469128
83	0x3eb5a6fd	0.35478964
84	0x3eb6dd41	0.35715678
85	0x3eed5093	0.46350536
86	0x3f0435cc	0.5164459
87	0x3f1af6da	0.60532916
88	0x3643afee	2.915967e-06
89	0x3f2ba2b7	0.6704516
90	0x3efe2c7f	0.49643323
91	0x3ef6be0d	0.48191872
92	0xb4169be9	-1.4026558e-07
93	0x3f043480	0.5164261
94	0x3f32127a	0.69559443
95	0x3f4158df	0.7552623
96	0x3f2f944d	0.68585664
97	0x3f0b46c1	0.54404837
98	0x3f206f62	0.62669957
99	0x3f804ba7	1.0023087
100	0x3f6ca54b	0.9243972
101	0x3fa25a8a	1.268388
102	0xb20704b9	-7.859108e-09
103	0x35ff1360	1.9004619e-06
104	0x3c5ff0d2	0.013668256
105	0x352b1fc4	6.374869e-07
106	0x3f92b7bb	1.146232
107	0x3f198116	0.59962595
108	0x3f1c8079	0.61133534
109	0x3f34f6e0	0.706892
110	0x373466c9	1.0752768e-05
111	0xbc167f32	-0.009185599
112	0x3f49f9f8	0.7889705
113	0x3f4e6559	0.80623394
114	0x3f4f6204	0.81008935
115	0x3f458206	0.77151525
116	0x3f652136	0.895038
117	0x3eff0927	0.4981167
118	0x3f39e116	0.7260908
119	0x3f257636	0.646335
120	0x3f4dc29d	0.8037508
121	0x3f1479db	0.57998437
122	0x3f13471a	0.5753037
123	0x3efbb970	0.49164915
124	0x3f3e5e5d	0.74362737
125	0x3e0c325e	0.13691089
126	0x3f0e61c0	0.55617905
127	0x3e15ca59	0.14627971
128	0x3e962e55	0.29332224
129	0x3f2940b2	0.6611434
130	0x3f5333ba	0.82500803
131	0x328f868b	1.6708574e-08
132	0x3f719b4a	0.9437758
133	0x3f06ddeb	0.5268237
134	0x36f5ae17	7.3218357e-06
135	0x3f213f1d	0.6298693
136	0x3ea4d894	0.32196486
137	0x3ebbfa52	0.36714417
138	0x3ec41a6d	0.3830141
139	0x3eb0dcad	0.34543362
140	0x3f25c5a9	0.6475473
141	0x3f33838b	0.70122594
142	0x3ecf8957	0.4053447
143	0x3e8c74fe	0.27433008
144	0x3eb28f9d	0.34875193
145	0x3f81388c	1.0095382
146	0x3e985343	0.29751024
147	0x3ec78fba	0.38976842
148	0x3ee506e1	0.4473181
149	0x3f0b08fe	0.54310596
150	0x3ebf9641	0.37419322
151	0x3eaecdbc	0.34141338
152	0x3efda093	0.4953657
153	0x3ef5747f	0.47940442
154	0x3f0a4961	0.5401822
155	0x3ee38bee	0.44442695
156	0x3f1bedd6	0.60909784
157	0x3f052fa0	0.52025795
158	0x3ea347ae	0.31890625
159	0x3f77cf5e	0.9680079
160	0x3f1e14a3	0.6175024
161	0x3f15e6b1	0.5855513
162	0x3f887f03	1.0663761
163	0x3f4e00d0	0.8046999
164	0x3ecfdc01	0.40597537
165	0x3b84d7fb	0.004054067
166	0x3e6e005f	0.23242329
167	0x3ed7d696	0.42155904
168	0x3f185dea	0.595183
169	0x3e9abb88	0.302212
170	0xb3d1c1be	-9.7675624e-08
171	0x3eee285f	0.46515176
172	0x3effe30b	0.49977908
173	0x3f51b13b	0.8191106
174	0x3ed5bfbe	0.4174785
175	0x3ef38834	0.47564852
176	0x3f3500b4	0.707042
177	0x3f3bac6d	0.73309976
178	0x3f1f014a	0.6211134
179	0x3fb0efde	1.3823202
180	0x3ebf1cd3	0.3732668
181	0x3f1d6f49	0.6149793
182	0x3f1300cf	0.5742311
183	0xb35d7764	-5.1564157e-08
184	0x3f123287	0.5710835
185	0xb700b616	-7.67179e-06
186	0xbc04ae18	-0.008098148
187	0x3f50ab7b	0.8151166
188	0x361bacaf	2.3197315e-06
189	0x3f16ca2b	0.58902234
190	0x3f5ba182	0.85793316
191	0xbf0df142	-0.55446255
192	0x3e26020f	0.16211723
193	0xbf06a48c	-0.5259483
194	0x3f07caf0	0.53044033
195	0x3f41989e	0.756235
196	0x3667149a	3.4433674e-06
197	0x3e97a591	0.29618505
198	0x3ec474a5	0.38370243
199	0x3a72999b	0.00092544564
200	0x3f0d4f18	0.5519881
201	0xb5399372	-6.913243e-07
202	0x3f01069f	0.5040073
203	0x3f0e4862	0.555792
204	0x3f9d11aa	1.2271016
205	0xb39ed13c	-7.395508e-08
206	0xbedaf4a0	-0.4276476
207	0xb7687bce	-1.3857103e-05
208	0xb2ad1b83	-2.0152362e-08
209	0x3f919bfa	1.1375725
210	0x3f7fc276	0.999061
211	0x3e5fc7c8	0.21853554
212	0x3ecbef3f	0.39830968
213	0xbd14887b	-0.03626297
214	0x356d8235	8.8478856e-07
215	0x3f1d36d2	0.61411774
216	0x3f27489f	0.65345186
217	0x32a9a142	1.9747521e-08
218	0x3e3db2a3	0.18525176
219	0x3f4f4fbc	0.8098104
220	0x3eb7a3aa	0.35867053
221	0x3f07eb79	0.5309368
222	0x3f15fd26	0.585894
223	0x3f09b5e2	0.53793156
224	0x3ef24170	0.4731555
225	0x3eb8f72d	0.3612608
226	0x3eb00da8	0.3438542
227	0x3ec1eb4d	0.37874833
228	0xbdcd691a	-0.10029812
229	0xb8bec4a4	-9.096533e-05
230	0x3f0a415b	0.54005975
231	0x3f225f80	0.6342697
232	0xbddfd7b6	-0.109298155
233	0x3e1aebee	0.15129063
234	0xbf087f52	-0.53319275
235	0xb63527a4	-2.6994176e-06
236	0x3688ad63	4.0733007e-06
237	0x3f1c5d27	0.6107964
238	0x3f6e8293	0.9316799
239	0x3f45ee69	0.7731691
240	0x3488cd85	2.548151e-07
241	0xbeafe8cd	-0.343573
242	0x308036dc	9.328818e-10
243	0x3eeceff9	0.46276835
244	0x3eac8bd6	0.33700436
245	0xbeaa3b94	-0.3324858
246	0x3eca8257	0.39552566
247	0x3ed50444	0.41604817
248	0x3f03fed7	0.5156073
249	0x3ea0bae9	0.313926
250	0x3ee32605	0.44364944
251	0x3f22a60d	0.63534623
252	0x3eb1d7b9	0.34734896
253	0x3f1a0438	0.6016269
254	0x3f0ad3a8	0.5422921
255	0x3f1a2755	0.60216266

bias f4 [175]
0	0x00000000	0.0
1	0x00000000	0.0
2	0x00000000	0.0
3	0x00000000	0.0
4	0x00000000	0.0
5	0x00000000	0.0
6	0x00000000	0.0
7	0x00000000	0.0
8	0x00000000	0.0
9	0x00000000	0.0
10	0x00000000	0.0
11	0x00000000	0.0
12	0x00000000	0.0
13	0x00000000	0.0
14	0x00000000	0.0
15	0x00000000	0.0
16	0x00000000	0.0
17	0x00000000	0.0
18	0x00000000	0.0
19	0x00000000	0.0
20	0x00000000	0.0
21	0x00000000	0.0
22	0x00000000	0.0
23	0x00000000	0.0
24	0x00000000	0.0
25	0x00000000	0.0
26	0x00000000	0.0
27	0x00000000	0.0
28	0x00000000	0.0
29	0x00000000	0.0
30	0x00000000	0.0
31	0x00000000	0.0
32	0x00000000	0.0
33	0x00000000	0.0
34	0x00000000	0.0
35	0x00000000	0.0
36	0x00000000	0.0
37	0x00000000	0.0
38	0x00000000	0.0
39	0x00000000	0.0
40	0x00000000	0.0
41	0x00000000	0.0
42	0x00000000	0.0
43	0x00000000	0.0
44	0x00000000	0.0
45	0x00000000	0.0
46	0x00000000	0.0
47	0x00000000	0.0
48	0x00000000	0.0
49	0x00000000	0.0
50	0x00000000	0.0
51	0x00000000	0.0
52	0x00000000	0.0
53	0x00000000	0.0
54	0x00000000	0.0
55	0x00000000	0.0
56	0x00000000	0.0
57	0x00000000	0.0
58	0x00000000	0.0
59	0x00000000	0.0
60	0x00000000	0.0
61	0x00000000	0.0
62	0x00000000	0.0
63	0x00000000	0.0
64	0x00000000	0.0
65	0x00000000	0.0
66	0x00000000	0.0
67	0x00000000	0.0
68	0x00000000	0.0
69	0x00000000	0.0
70	0x00000000	0.0
71	0x00000000	0.0
72	0x00000000	0.0
73	0x00000000	0.0
74	0x00000000	0.0
75	0x00000000	0.0
76	0x00000000	0.0
77	0x00000000	0.0
78	0x00000000	0.0
79	0x00000000	0.0
80	0x00000000	0.0
81	0x00000000	0.0
82	0x00000000	0.0
83	0x00000000	0.0
84	0x00000000	0.0
85	0x00000000	0.0
86	0x00000000	0.0
87	0x00000000	0.0
88	0x00000000	0.0
89	0x00000000	0.0
90	0x00000000	0.0
91	0x00000000	0.0
92	0x00000000	0.0
93	0x00000000	0.0
94	0x00000000	0.0
95	0x00000000	0.0
96	0x00000000	0.0
97	0x00000000	0.0
98	0x00000000	0.0
99	0x00000000	0.0
100	0x00000000	0.0
101	0x00000000	0.0
102	0x00000000	0.0
103	0x00000000	0.0
104	0x00000000	0.0
105	0x00000000	0.0
106	0x00000000	0.0
107	0x00000000	0.0
108	0x00000000	0.0
109	0x00000000	0.0
110	0x00000000	0.0
111	0x00000000	0.0
112	0x00000000	0.0
113	0x00000000	0.0
114	0x00000000	0.0
115	0x00000000	0.0
116	0x00000000	0.0
117	0x00000000	0.0
118	0x00000000	0.0
119	0x00000000	0.0
120	0x00000000	0.0
121	0x00000000	0.0
122	0x00000000	0.0
123	0x00000000	0.0
124	0x00000000	0.0
125	0x00000000	0.0
126	0x00000000	0.0
127	0x00000000	0.0
128	0x00000000	0.0
129	0x00000000	0.0
130	0x00000000	0.0
131	0x00000000	0.0
132	0x00000000	0.0
133	0x00000000	0.0
134	0x00000000	0.0
135	0x00000000	0.0
136	0x00000000	0.0
137	0x00000000	0.0
138	0x00000000	0.0
139	0x00000000	0.0
140	0x00000000	0.0
141	0x00000000	0.0
142	0x00000000	0.0
143	0x00000000	0.0
144	0x00000000	0.0
145	0x00000000	0.0
146	0x00000000	0.0
147	0x00000000	0.0
148	0x00000000	0.0
149	0x00000000	0.0
150	0x00000000	0.0
151	0x00000000	0.0
152	0x00000000	0.0
153	0x00000000	0.0
154	0x00000000	0.0
155	0x00000000	0.0
156	0x00000000	0.0
157	0x00000000	0.0
158	0x00000000	0.0
159	0x00000000	0.0
160	0x00000000	0.0
161	0x00000000	0.0
162	0x00000000	0.0
163	0x00000000	0.0
164	0x00000000	0.0
165	0x00000000	0.0
166	0x00000000	0.0
167	0x00000000	0.0
168	0x00000000	0.0
169	0x00000000	0.0
170	0x00000000	0.0
171	0x00000000	0.0
172	0x00000000	0.0
173	0x00000000	0.0
174	0x00000000	0.0

_ei_mask f4 [175]
0	0x3f800000	1.0
1	0x3f800000	1.0
2	0x3f800000	1.0
3	0x3f800000	1.0
4	0x3f800000	1.0
5	0x3f800000	1.0
6	0x3f800000	1.0
7	0x3f800000	1.0
8	0x3f800000	1.0
9	0x3f800000	1.0
10	0x3f800000	1.0
11	0x3f800000	1.0
12	0x3f800000	1.0
13	0x3f800000	1.0
14	0x3f800000	1.0
15	0x3f800000	1.0
16	0x3f800000	1.0
17	0x3f800000	1.0
18	0x3f800000	1.0
19	0x3f800000	1.0
20	0x3f800000	1.0
21	0x3f800000	1.0
22	0x3f800000	1.0
23	0x3f800000	1.0
24	0x3f800000	1.0
25	0x3f800000	1.0
26	0x3f800000	1.0
27	0x3f800000	1.0
28	0x3f800000	1.0
29	0x3f800000	1.0
30	0x3f800000	1.0
31	0x3f800000	1.0
32	0x3f800000	1.0
33	0x3f800000	1.0
34	0x3f800000	1.0
35	0x3f800000	1.0
36	0x3f800000	1.0
37	0x3f800000	1.0
38	0x3f800000	1.0
39	0x3f800000	1.0
40	0x3f800000	1.0
41	0x3f800000	1.0
42	0x3f800000	1.0
43	0x3f800000	1.0
44	0x3f800000	1.0
45	0x3f800000	1.0
46	0x3f800000	1.0
47	0x3f800000	1.0
48	0x3f800000	1.0
49	0x3f800000	1.0
50	0x3f800000	1.0
51	0x3f800000	1.0
52	0x3f800000	1.0
53	0x3f800000	1.0
54	0x3f800000	1.0
55	0x3f800000	1.0
56	0x3f800000	1.0
57	0x3f800000	1.0
58	0x3f800000	1.0
59	0x3f800000	1.0
60	0x3f800000	1.0
61	0x3f800000	1.0
62	0x3f800000	1.0
63	0x3f800000	1.0
64	0x3f800000	1.0
65	0x3f800000	1.0
66	0x3f800000	1.0
67	0x3f800000	1.0
68	0x3f800000	1.0
69	0x3f800000	1.0
70	0x3f800000	1.0
71	0x3f800000	1.0
72	0x3f800000	1.0
73	0x3f800000	1.0
74	0x3f800000	1.0
75	0x3f800000	1.0
76	0x3f800000	1.0
77	0x3f800000	1.0
78	0x3f800000	1.0
79	0x3f800000	1.0
80	0x3f800000	1.0
81	0x3f800000	1.0
82	0x3f800000	1.0
83	0x3f800000	1.0
84	0x3f800000	1.0
85	0x3f800000	1.0
86	0x3f800000	1.0
87	0x3f800000	1.0
88	0x3f800000	1.0
89	0x3f800000	1.0
90	0x3f800000	1.0
91	0x3f800000	1.0
92	0x3f800000	1.0
93	0x3f800000	1.0
94	0x3f800000	1.0
95	0x3f800000	1.0
96	0x3f800000	1.0
97	0x3f800000	1.0
98	0x3f800000	1.0
99	0x3f800000	1.0
100	0x3f800000	1.0
101	0x3f800000	1.0
102	0x3f800000	1.0
103	0x3f800000	1.0
104	0x3f800000	1.0
105	0x3f800000	1.0
106	0x3f800000	1.0
107	0x3f800000	1.0
108	0x3f800000	1.0
109	0x3f800000	1.0
110	0x3f800000	1.0
111	0x3f800000	1.0
112	0x3f800000	1.0
113	0x3f800000	1.0
114	0x3f800000	1.0
115	0x3f800000	1.0
116	0x3f800000	1.0
117	0x3f800000	1.0
118	0x3f800000	1.0
119	0x3f800000	1.0
120	0x3f800000	1.0
121	0x3f800000	1.0
122	0x3f800000	1.0
123	0x3f800000	1.0
124	0x3f800000	1.0
125	0x3f800000	1.0
126	0x3f800000	1.0
127	0x3f800000	1.0
128	0x3f800000	1.0
129	0x3f800000	1.0
130	0x3f800000	1.0
131	0x3f800000	1.0
132	0x3f800000	1.0
133	0x3f800000	1.0
134	0x3f800000	1.0
135	0x3f800000	1.0
136	0x3f800000	1.0
137	0x3f800000	1.0
138	0x3f800000	1.0
139	0x3f800000	1.0
140	0x3f800000	1.0
141	0x3f800000	1.0
142	0x3f800000	1.0
143	0x3f800000	1.0
144	0x3f800000	1.0
145	0x3f800000	1.0
146	0x3f800000	1.0
147	0x3f800000	1.0
148	0x3f800000	1.0
149	0x3f800000	1.0
150	0x3f800000	1.0
151	0x3f800000	1.0
152	0x3f800000	1.0
153	0x3f800000	1.0
154	0x3f800000	1.0
155	0x3f800000	1.0
156	0x3f800000	1.0
157	0x3f800000	1.0
158	0x3f800000	1.0
159	0x3f800000	1.0
160	0x3f800000	1.0
161	0x3f800000	1.0
162	0x3f800000	1.0
163	0x3f800000	1.0
164	0x3f800000	1.0
165	0x3f800000	1.0
166	0x3f800000	1.0
167	0x3f800000	1.0
168	0x3f800000	1.0
169	0x3f800000	1.0
170	0x3f800000	1.0
171	0x3f800000	1.0
172	0x3f800000	1.0
173	0x3f800000	1.0
174	0x3f800000	1.0

weight f4 [2, 175]
0	0x3f126302	0.57182324
1	0x3ebf8aac	0.37410486
2	0x3e7266e9	0.2367207
3	0x3e664f37	0.22491156
4	0x3f2ab34a	0.66679823
5	0x3f011ac8	0.5043149
6	0x3eebbfe5	0.4604484
7	0x3f659f58	0.89696264
8	0x3ecc0f67	0.398555
9	0x3f40cfb3	0.75316924
10	0xbd850e7d	-0.06496904
11	0x3e8acf44	0.27111256
12	0x3e1ed50d	0.1551096
13	0x3e6b196c	0.22958916
14	0x3e180265	0.14844663
15	0x3f1466a6	0.5796913
16	0x3e6cc2dc	0.23121208
17	0x3caf55a9	0.02140315
18	0x3e814724	0.25249588
19	0x3f2f85b6	0.685634
20	0x3e425c2d	0.18980475
21	0xbb47b29d	-0.0030471452
22	0x3e8632a5	0.26210514
23	0x3e3f025a	0.18653241
24	0x3fd56000	1.6669922
25	0x3f414169	0.7549043
26	0x3e3fb562	0.18721536
27	0x3e02d7b7	0.12777601
28	0x3e4c1172	0.1992853
29	0x3f3d8fb0	0.74047375
30	0x3f37467e	0.7159194
31	0x3eaaaf9e	0.3333711
32	0x3ebbadf4	0.36656153
33	0x3eee50de	0.46546072
34	0x3e404489	0.18776144
35	0x3f3695ec	0.7132251
36	0xbc0b0982	-0.008486154
37	0x3e307d65	0.17235334
38	0x3ef4feee	0.47850746
39	0x3eb3ba09	0.3510287
40	0x3f5a4150	0.8525591
41	0x3e8397bf	0.2570171
42	0x3e9623a6	0.29324073
43	0xbe9cea16	-0.30647343
44	0x3ec5b630	0.3861556
45	0x3d04ca51	0.032419506
46	0x3d24c2c0	0.04022479
47	0xbd2f9f0a	-0.04287628
48	0x3df5c136	0.11999743
49	0x3f12e54a	0.5738112
50	0x3e8d9908	0.27655816
51	0x3e64646c	0.22303933
52	0x3ec1ac55	0.3782679
53	0xbd0d7a5b	-0.034540515
54	0x3d58f374	0.05296655
55	0xbec7cdc9	-0.3902419
56	0x3e5f6c80	0.21818733
57	0x3e9f032c	0.31057107
58	0x3eb6bd63	0.35691366
59	0x3f5cc0ef	0.86231893
60	0x3e586b82	0.21134761
61	0x3e98f0c9	0.29871204
62	0x3ebe93c6	0.37222117
63	0x3e63d4b9	0.22249116
64	0xbb995a62	-0.004679964
65	0x3e8548fc	0.26032245
66	0x3e80fdab	0.25193533
67	0x3c28b7d4	0.010297734
68	0xbdee856e	-0.116465434
69	0x3e94503c	0.28967464
70	0x3cf83c97	0.030302329
71	0x3e89e54f	0.2693276
72	0x3e970a4c	0.29500043
73	0x3d4e1cf9	0.0503206
74	0x3e7cb4ab	0.24678294
75	0x3ddd5be2	0.10808541
76	0x3ca19bb0	0.019727558
77	0x3e617349	0.22016634
78	0x3e1ba5d0	0.15199971
79	0x3eb964c0	0.3620968
80	0x3ea5c617	0.32377693
81	0x3f14e632	0.5816375
82	0x3de2d394	0.110755116
83	0x3f06d602	0.526703
84	0x3e11fcd5	0.14256604
85	0x3e8cc286	0.2749216
86	0x3f0bb2e0	0.54569817
87	0x3f093553	0.5359699
88	0xbcc60946	-0.024174344
89	0x3ec0715e	0.37586492
90	0x3ef4e1da	0.4782856
91	0x3ee57aa7	0.4482014
92	0x3f1c8b2d	0.61149865
93	0x3e91493c	0.28376186
94	0x3ebecc5b	0.37265286
95	0x3e5227e5	0.20523031
96	0x3f16fa56	0.5897573
97	0x3e1d0f3c	0.15337843
98	0x3ee5390c	0.44770086
99	0x3e8c215b	0.27369198
100	0x3ea32f4f	0.3187203
101	0x3da58c62	0.080834165
102	0x3ee46f1c	0.4461602
103	0x3eaba571	0.3352466
104	0x3e26c003	0.16284184
105	0x3ec3630e	0.3816151
106	0x3d295fc4	0.041351095
107	0x3ed2a5d1	0.41142133
108	0xbd2eee79	-0.042707894
109	0x3f0d3626	0.5516075
110	0xbd9d4f0e	-0.07681094
111	0x3e7475bc	0.23873037
112	0x3dd8a22a	0.10577805
113	0x3f170957	0.58998626
114	0xbd995ce5	-0.07488421
115	0x3f352d9c	0.7077272
116	0x3dd1595c	0.10222122
117	0xbd5c683c	-0.053810343
118	0x3f47c448	0.78033876
119	0x3ef7324a	0.48280555
120	0x3f07084a	0.52747023
121	0x3edf6aad	0.43636075
122	0x3e7ac3ee	0.24488804
123	0x3eb49677	0.35271046
124	0x3f062b85	0.52410156
125	0x3ec6f664	0.38859856
126	0x3d74656f	0.059667047
127	0x3c8d43f1	0.017244311
128	0x3e49c75b	0.19704954
129	0xbe1c0bab	-0.15238826
130	0x3e696756	0.22793326
131	0xbd88ec29	-0.06685669
132	0x3e15511d	0.14581724
133	0x3eb94c93	0.36191234
134	0x3e5ce653	0.21572237
135	0x3d98e9c6	0.07466464
136	0x3ed1c07c	0.40967166
137	0x3eec73f6	0.4618222
138	0x3e9be9b8	0.3045175
139	0x3e485876	0.19564995
140	0x3ed079bf	0.40717885
141	0x3e905bce	0.2819504
142	0x3f79baa5	0.9755042
143	0x3eea7f7f	0.45800397
144	0x3dc58e54	0.096462876
145	0x3e69173a	0.22762766
146	0x3ed460be	0.41480058
147	0xbd95a1a4	-0.07306221
148	0x3ef17a9b	0.47163853
149	0x3dacfc68	0.0844658
150	0x3e1662b0	0.14686084
151	0x3da61a0f	0.08110439
152	0x3ec31e1e	0.38108915
153	0xbc7b03f2	-0.015320765
154	0x3f425ffd	0.75927716
155	0x3f31df29	0.6948114
156	0x3ddc2930	0.107500434
157	0x3f3c5a1f	0.73575014
158	0x3e4b052b	0.1982619
159	0xbe3fd21c	-0.18732494
160	0x3e3ea773	0.18618564
161	0x3dd1a97d	0.102374054
162	0x3f07f1c8	0.53103304
163	0x3e0b298d	0.13590069
164	0x3ea5f2ff	0.32411954
165	0x3ef332de	0.47499746
166	0x3db8b97e	0.09019755
167	0x3eb68f89	0.35656384
168	0xbec1bcf7	-0.3783948
169	0x3ef7236a	0.48269206
170	0x3e19b8dd	0.15011926
171	0x3e9ed09c	0.3101853
172	0x3ead4fed	0.3385004
173	0xbe4c7d0b	-0.19969575
174	0x3df9d4d5	0.121987976
175	0xbe295fd1	-0.16540457
176	0x3f2c2ea4	0.6725867
177	0x3dc16e26	0.09444837
178	0x3eb9d7ca	0.36297446
179	0xbeadb96d	-0.3393053
180	0x3f164545	0.58699447
181	0x3ed0e864	0.408023
182	0x3ee0ebd2	0.43929917
183	0x3e32983f	0.1744089
184	0x3edd51e6	0.43226546
185	0x3f295344	0.6614268
186	0x3eee8543	0.46586046
187	0x3ed5e483	0.41775903
188	0x3d0e94ba	0.034809805
189	0xbe5d1dba	-0.21593371
190	0x3e91beda	0.2846592
191	0xbe3e47d5	-0.18582089
192	0x3e5eca12	0.21756771
193	0xbe70d401	-0.23518373
194	0x3f38f2aa	0.72245276
195	0x3da3917c	0.07986733
196	0x3f3dc481	0.74127966
197	0x3e7aa668	0.24477541
198	0x3e5b38f2	0.21408442
199	0xbe5bfc8f	-0.21483062
200	0x3f229f90	0.63524723
201	0xbd8be793	-0.06831279
202	0x3f4dcdd7	0.8039221
203	0x3f1f9eaa	0.6235148
204	0x3f3fef9c	0.7497499
205	0x3eacc0d4	0.33740866
206	0x3e64168d	0.22274227
207	0x3e9ea6f7	0.3098676
208	0x3e595343	0.21223168
209	0x3c881d88	0.016615644
210	0x3ecf22fe	0.40456384
211	0x3eda0314	0.42580473
212	0x3edaeb0a	0.42757446
213	0x3e70d8a2	0.23520139
214	0x3ee993d0	0.45620584
215	0xbe61efc3	-0.22064118
216	0x3e2975c7	0.16548835
217	0xbdbda66c	-0.09260258
218	0x3ef8c474	0.48587382
219	0xbcfc8d1b	-0.030829003
220	0x3e54bb03	0.20774464
221	0x3e8ddd2a	0.27707797
222	0x3ee1353a	0.4398592
223	0xbc81e0ac	-0.015854202
224	0xbebf47a7	-0.37359354
225	0xbf471215	-0.77761966
226	0xbf402b57	-0.7506613
227	0xbc2700c6	-0.0101930555
228	0x3ead69ab	0.3386968
229	0x3e6d918d	0.23200054
230	0x3f009183	0.50222033
231	0x3ecccfce	0.40002292
232	0x3eb7606e	0.35815758
233	0xbb411e8a	-0.0029467666
234	0xbe226ea8	-0.15862525
235	0x3c42175d	0.011846391
236	0xbd9e4fcb	-0.07730063
237	0xbdb35cfd	-0.087579705
238	0x3f3598d7	0.7093634
239	0x3ec77bdb	0.38961682
240	0x3e98ec02	0.2986756
241	0x3eaca91a	0.33722764
242	0x3e452932	0.19253996
243	0x3cbf64a2	0.023363415
244	0x3e62a6be	0.2213392
245	0x3ec385fb	0.38188156
246	0x3e7df7a8	0.24801505
247	0x3e9adfe9	0.30248955
248	0x3ead56d4	0.33855307
249	0x3e72e341	0.23719503
250	0x3ed49bda	0.41525155
251	0x3ed59beb	0.41720518
252	0x3e8c264d	0.2737297
253	0x3de05290	0.109532475
254	0x3e65dea6	0.22448215
255	0x3e9e969b	0.30974278

bias f4 [175]
0	0x00000000	0.0
1	0x00000000	0.0
2	0x00000000	0.0
3	0x00000000	0.0
4	0x00000000	0.0
5	0x00000000	0.0
6	0x00000000	0.0
7	0x00000000	0.0
8	0x00000000	0.0
9	0x00000000	0.0
10	0x00000000	0.0
11	0x00000000	0.0
12	0x00000000	0.0
13	0x00000000	0.0
14	0x00000000	0.0
15	0x00000000	0.0
16	0x00000000	0.0
17	0x00000000	0.0
18	0x00000000	0.0
19	0x00000000	0.0
20	0x00000000	0.0
21	0x00000000	0.0
22	0x00000000	0.0
23	0x00000000	0.0
24	0x00000000	0.0
25	0x00000000	0.0
26	0x00000000	0.0
27	0x00000000	0.0
28	0x00000000	0.0
29	0x00000000	0.0
30	0x00000000	0.0
31	0x00000000	0.0
32	0x00000000	0.0
33	0x00000000	0.0
34	0x00000000	0.0
35	0x00000000	0.0
36	0x00000000	0.0
37	0x00000000	0.0
38	0x00000000	0.0
39	0x00000000	0.0
40	0x00000000	0.0
41	0x00000000	0.0
42	0x00000000	0.0
43	0x00000000	0.0
44	0x00000000	0.0
45	0x00000000	0.0
46	0x00000000	0.0
47	0x00000000	0.0
48	0x00000000	0.0
49	0x00000000	0.0
50	0x00000000	0.0
51	0x00000000	0.0
52	0x00000000	0.0
53	0x00000000	0.0
54	0x00000000	0.0
55	0x00000000	0.0
56	0x00000000	0.0
57	0x00000000	0.0
58	0x00000000	0.0
59	0x00000000	0.0
60	0x00000000	0.0
61	0x00000000	0.0
62	0x00000000	0.0
63	0x00000000	0.0
64	0x00000000	0.0
65	0x00000000	0.0
66	0x00000000	0.0
67	0x00000000	0.0
68	0x00000000	0.0
69	0x00000000	0.0
70	0x00000000	0.0
71	0x00000000	0.0
72	0x00000000	0.0
73	0x00000000	0.0
74	0x00000000	0.0
75	0x00000000	0.0
76	0x00000000	0.0
77	0x00000000	0.0
78	0x00000000	0.0
79	0x00000000	0.0
80	0x00000000	0.0
81	0x00000000	0.0
82	0x00000000	0.0
83	0x00000000	0.0
84	0x00000000	0.0
85	0x00000000	0.0
86	0x00000000	0.0
87	0x00000000	0.0
88	0x00000000	0.0
89	0x00000000	0.0
90	0x00000000	0.0
91	0x00000000	0.0
92	0x00000000	0.0
93	0x00000000	0.0
94	0x00000000	0.0
95	0x00000000	0.0
96	0x00000000	0.0
97	0x00000000	0.0
98	0x00000000	0.0
99	0x00000000	0.0
100	0x00000000	0.0
101	0x00000000	0.0
102	0x00000000	0.0
103	0x00000000	0.0
104	0x00000000	0.0
105	0x00000000	0.0
106	0x00000000	0.0
107	0x00000000	0.0
108	0x00000000	0.0
109	0x00000000	0.0
110	0x00000000	0.0
111	0x00000000	0.0
112	0x00000000	0.0
113	0x00000000	0.0
114	0x00000000	0.0
115	0x00000000	0.0
116	0x00000000	0.0
117	0x00000000	0.0
118	0x00000000	0.0
119	0x00000000	0.0
120	0x00000000	0.0
121	0x00000000	0.0
122	0x00000000	0.0
123	0x00000000	0.0
124	0x00000000	0.0
125	0x00000000	0.0
126	0x00000000	0.0
127	0x00000000	0.0
128	0x00000000	0.0
129	0x00000000	0.0
130	0x00000000	0.0
131	0x00000000	0.0
132	0x00000000	0.0
133	0x00000000	0.0
134	0x00000000	0.0
135	0x00000000	0.0
136	0x00000000	0.0
137	0x00000000	0.0
138	0x00000000	0.0
139	0x00000000	0.0
140	0x00000000	0.0
141	0x00000000	0.0
142	0x00000000	0.0
143	0x00000000	0.0
144	0x00000000	0.0
145	0x00000000	0.0
146	0x00000000	0.0
147	0x00000000	0.0
148	0x00000000	0.0
149	0x00000000	0.0
150	0x00000000	0.0
151	0x00000000	0.0
152	0x00000000	0.0
153	0x00000000	0.0
154	0x00000000	0.0
155	0x00000000	0.0
156	0x00000000	0.0
157	0x00000000	0.0
158	0x00000000	0.0
159	0x00000000	0.0
160	0x00000000	0.0
161	0x00000000	0.0
162	0x00000000	0.0
163	0x00000000	0.0
164	0x00000000	0.0
165	0x00000000	0.0
166	0x00000000	0.0
167	0x00000000	0.0
168	0x00000000	0.0
169	0x00000000	0.0
170	0x00000000	0.0
171	0x00000000	0.0
172	0x00000000	0.0
173	0x00000000	0.0
174	0x00000000	0.0

_ei_mask f4 [175]
0	0x3f800000	1.0
1	0x3f800000	1.0
2	0x3f800000	1.0
3	0x3f800000	1.0
4	0x3f800000	1.0
5	0x3f800000	1.0
6	0x3f800000	1.0
7	0x3f800000	1.0
8	0x3f800000	1.0
9	0x3f800000	1.0
10	0x3f800000	1.0
11	0x3f800000	1.0
12	0x3f800000	1.0
13	0x3f800000	1.0
14	0x3f800000	1.0
15	0x3f800000	1.0
16	0x3f800000	1.0
17	0x3f800000	1.0
18	0x3f800000	1.0
19	0x3f800000	1.0
20	0x3f800000	1.0
21	0x3f800000	1.0
22	0x3f800000	1.0
23	0x3f800000	1.0
24	0x3f800000	1.0
25	0x3f800000	1.0
26	0x3f800000	1.0
27	0x3f800000	1.0
28	0x3f800000	1.0
29	0x3f800000	1.0
30	0x3f800000	1.0
31	0x3f800000	1.0
32	0x3f800000	1.0
33	0x3f800000	1.0
34	0x3f800000	1.0
35	0x3f800000	1.0
36	0x3f800000	1.0
37	0x3f800000	1.0
38	0x3f800000	1.0
39	0x3f800000	1.0
40	0x3f800000	1.0
41	0x3f800000	1.0
42	0x3f800000	1.0
43	0x3f800000	1.0
44	0x3f800000	1.0
45	0x3f800000	1.0
46	0x3f800000	1.0
47	0x3f800000	1.0
48	0x3f800000	1.0
49	0x3f800000	1.0
50	0x3f800000	1.0
51	0x3f800000	1.0
52	0x3f800000	1.0
53	0x3f800000	1.0
54	0x3f800000	1.0
55	0x3f800000	1.0
56	0x3f800000	1.0
57	0x3f800000	1.0
58	0x3f800000	1.0
59	0x3f800000	1.0
60	0x3f800000	1.0
61	0x3f800000	1.0
62	0x3f800000	1.0
63	0x3f800000	1.0
64	0x3f800000	1.0
65	0x3f800000	1.0
66	0x3f800000	1.0
67	0x3f800000	1.0
68	0x3f800000	1.0
69	0x3f800000	1.0
70	0x3f800000	1.0
71	0x3f800000	1.0
72	0x3f800000	1.0
73	0x3f800000	1.0
74	0x3f800000	1.0
75	0x3f800000	1.0
76	0x3f800000	1.0
77	0x3f800000	1.0
78	0x3f800000	1.0
79	0x3f800000	1.0
80	0x3f800000	1.0
81	0x3f800000	1.0
82	0x3f800000	1.0
83	0x3f800000	1.0
84	0x3f800000	1.0
85	0x3f800000	1.0
86	0x3f800000	1.0
87	0x3f800000	1.0
88	0x3f800000	1.0
89	0x3f800000	1.0
90	0x3f800000	1.0
91	0x3f800000	1.0
92	0x3f800000	1.0
93	0x3f800000	1.0
94	0x3f800000	1.0
95	0x3f800000	1.0
96	0x3f800000	1.0
97	0x3f800000	1.0
98	0x3f800000	1.0
99	0x3f800000	1.0
100	0x3f800000	1.0
101	0x3f800000	1.0
102	0x3f800000	1.0
103	0x3f800000	1.0
104	0x3f800000	1.0
105	0x3f800000	1.0
106	0x3f800000	1.0
107	0x3f800000	1.0
108	0x3f800000	1.0
109	0x3f800000	1.0
110	0x3f800000	1.0
111	0x3f800000	1.0
112	0x3f800000	1.0
113	0x3f800000	1.0
114	0x3f800000	1.0
115	0x3f800000	1.0
116	0x3f800000	1.0
117	0x3f800000	1.0
118	0x3f800000	1.0
119	0x3f800000	1.0
120	0x3f800000	1.0
121	0x3f800000	1.0
122	0x3f800000	1.0
123	0x3f800000	1.0
124	0x3f800000	1.0
125	0x3f800000	1.0
126	0x3f800000	1.0
127	0x3f800000	1.0
128	0x3f800000	1.0
129	0x3f800000	1.0
130	0x3f800000	1.0
131	0x3f800000	1.0
132	0x3f800000	1.0
133	0x3f800000	1.0
134	0x3f800000	1.0
135	0x3f800000	1.0
136	0x3f800000	1.0
137	0x3f800000	1.0
138	0x3f800000	1.0
139	0x3f800000	1.0
140	0x3f800000	1.0
141	0x3f800000	1.0
142	0x3f800000	1.0
143	0x3f800000	1.0
144	0x3f800000	1.0
145	0x3f800000	1.0
146	0x3f800000	1.0
147	0x3f800000	1.0
148	0x3f800000	1.0
149	0x3f800000	1.0
150	0x3f800000	1.0
151	0x3f800000	1.0
152	0x3f800000	1.0
153	0x3f800000	1.0
154	0x3f800000	1.0
155	0x3f800000	1.0
156	0x3f800000	1.0
157	0x3f800000	1.0
158	0x3f800000	1.0
159	0x3f800000	1.0
160	0x3f800000	1.0
161	0x3f800000	1.0
162	0x3f800000	1.0
163	0x3f800000	1.0
164	0x3f800000	1.0
165	0x3f800000	1.0
166	0x3f800000	1.0
167	0x3f800000	1.0
168	0x3f800000	1.0
169	0x3f800000	1.0
170	0x3f800000	1.0
171	0x3f800000	1.0
172	0x3f800000	1.0
173	0x3f800000	1.0
174	0x3f800000	1.0

weight f4 [175, 3]
0	0x40bb1589	5.846379
1	0xc04c3266	-3.190576
2	0x40dad21c	6.838148
3	0x3fe3f488	1.7809
4	0x41079bda	8.47555
5	0xbf14cd84	-0.5812609
6	0x4115f354	9.371906
7	0x3fe8b327	1.8179673
8	0xbf06d912	-0.52674973
9	0x41001ed6	8.007528
10	0x407fc832	3.996594
11	0xc0fcf361	-7.9047093
12	0xbf3c0dc7	-0.7345852
13	0xc02d04b8	-2.703413
14	0xc107769a	-8.466455
15	0xbfd46c52	-1.6595557
16	0x40920242	4.5627756
17	0x40e6bb6c	7.2103786
18	0xc01f538d	-2.4894745
19	0xc05f6d4b	-3.4910457
20	0xc06f964b	-3.7435482
21	0x3f272508	0.6529088
22	0x406aec91	3.6706889
23	0x4001b255	2.0265095
24	0x405976e9	3.3978827
25	0xc0d02ace	-6.505225
26	0x4090fc6a	4.5308123
27	0xc16686d7	-14.40792
28	0xbf047c45	-0.5175212
29	0x40edc825	7.4306817
30	0xbfbb2163	-1.4619564
31	0xc0ba9ab6	-5.8313856
32	0x4083f6b7	4.1238666
33	0xc0fdeb8e	-7.935004
34	0xbfdafd5e	-1.7108572
35	0xc08ff62e	-4.498801
36	0x400af338	2.171095
37	0xc11aee21	-9.683137
38	0x4026935f	2.6027448
39	0x40d0e43c	6.5278606
40	0x3fb83396	1.4390743
41	0xc022eae3	-2.5455863
42	0x4086ade7	4.2087283
43	0x40a63939	5.194485
44	0xc13d096c	-11.8148
45	0xc034eb08	-2.8268452
46	0x408b631f	4.3558497
47	0x4000a9cc	2.0103636
48	0x40665788	3.5990925
49	0x4099e9b4	4.809778
50	0xc121ab44	-10.104313
51	0x40b83076	5.7559156
52	0xc05a83af	-3.4142873
53	0xc053db34	-3.310254
54	0x406c8f9d	3.6962655
55	0x40aca0f6	5.3946486
56	0xc13100db	-11.062709
57	0xc03d31ed	-2.9561722
58	0x3f934274	1.1504655
59	0x3f087f73	0.5331947
60	0x41114857	9.080161
61	0x407bdcd3	3.935353
62	0x3ef04a41	0.4693165
63	0x40aa7bc7	5.3276095
64	0xbfa95de3	-1.3231777
65	0x409b49c3	4.852754
66	0xbfa526a3	-1.2902416
67	0x401531dd	2.3311684
68	0x4085bbb4	4.179163
69	0xc0a8de65	-5.277148
70	0x40cb2b69	6.349049
71	0x409fc9f1	4.993401
72	0x410fd533	8.989551
73	0xc106ed91	-8.433
74	0x415e009e	13.875151
75	0x4121ba14	10.107929
76	0x407e1bbc	3.9704428
77	0x40319d90	2.7752419
78	0xbfa13152	-1.2593176
79	0x4083b955	4.1163735
80	0xc1238977	-10.221061
81	0x4086a4b2	4.2076044
82	0x4025a1cc	2.5880003
83	0x3f51a254	0.8188832
84	0x40e2b2d2	7.0843287
85	0x4112f97a	9.185907
86	0x406ff591	3.7493632
87	0x4165563e	14.333555
88	0xc0b3955e	-5.6119833
89	0xc026fae1	-2.6090624
90	0xc0962661	-4.692185
91	0xc0d3b812	-6.6162195
92	0xc01538c0	-2.3315887
93	0xc14dc923	-12.861606
94	0x4040ff9c	3.0156012
95	0xc0bc5ff2	-5.886712
96	0xbf514e3a	-0.8175999
97	0xbfdfdcd8	-1.7489271
98	0xbf0320d5	-0.5122197
99	0x3ffe5876	1.9870746
100	0xc0425f84	-3.0370798
101	0xc08270b2	-4.0762568
102	0xbedd2991	-0.43195775
103	0x401827bb	2.377425
104	0x40bb3ae8	5.8509407
105	0x4107c9ca	8.486765
106	0x40cba7a4	6.364214
107	0x3fe49d90	1.7860584
108	0x40102721	2.2523882
109	0x40ba4923	5.821428
110	0x40f671f8	7.701412
111	0xc13bff03	-11.749759
112	0xbfc4ca5b	-1.5374254
113	0xc035654e	-2.8343081
114	0xc15566d9	-13.337609
115	0x411b9097	9.7228
116	0x3fd7c5d2	1.6857245
117	0x3e7a881b	0.24465983
118	0xc07878d2	-3.8823743
119	0xc078e61d	-3.889045
120	0x40abac8d	5.3648133
121	0xbf9b5b98	-1.2137327
122	0x401b25df	2.4241865
123	0x3fc1056b	1.5079778
124	0x3f7fa639	0.9986301
125	0x41674037	14.453177
126	0xbd87c5a3	-0.06629493
127	0x3f1b3e85	0.6064227
128	0x4093d681	4.6199346
129	0xc1380da7	-11.503333
130	0xc132394a	-11.138987
131	0xc0b11ca2	-5.534745
132	0x3e777aa9	0.24167885
133	0x3f4f69ce	0.8102082
134	0x410312de	8.192106
135	0x413970bb	11.590022
136	0x40179f71	2.3691065
137	0xc13b29e7	-11.69773
138	0x3f165485	0.58722717
139	0xc0ce1c78	-6.440975
140	0x40bf7b98	5.983837
141	0xc177119f	-15.441802
142	0xc09fe751	-4.996987
143	0x400b248b	2.1741054
144	0x3f477c48	0.77924013
145	0x3e6fd7a4	0.23422104
146	0xc0543f2d	-3.316356
147	0x3f1085c0	0.56454086
148	0x4019bcb2	2.402142
149	0x3f96d308	1.1783152
150	0x40cba3d3	6.363748
151	0xc1a398b3	-20.44956
152	0xc11331a9	-9.199624
153	0x40983719	4.756726
154	0xc1a52aa7	-20.645826
155	0xc1065248	-8.395088
156	0xc0bb51f5	-5.8537545
157	0x3f03f96a	0.5155245
158	0xbfe7cbeb	-1.8109106
159	0x40b7c7dd	5.7431474
160	0xc082c087	-4.086002
161	0x40555f96	3.333959
162	0x4039164b	2.8919857
163	0x407005f5	3.7503636
164	0x40d84f1b	6.7596564
165	0x408d0816	4.407237
166	0xc0cd448d	-6.414618
167	0xc15b3a19	-13.701684
168	0xc06ae4f5	-3.6702244
169	0x4013cc8a	2.309359
170	0x40e24896	7.0713606
171	0xc188f48b	-17.119406
172	0x3b11b00e	0.002223018
173	0xc03cf7e4	-2.95263
174	0x3f9a0f41	1.2035905
175	0x40722492	3.783482
176	0x3f68832a	0.9082514
177	0xc1d682b8	-26.813828
178	0x408f17d1	4.4716573
179	0xbfb9fbf4	-1.4530015
180	0x41001d99	8.007226
181	0xbfe917f7	-1.8210438
182	0x4003ca27	2.0592134
183	0x40e62576	7.192073
184	0x40f4f5f7	7.655025
185	0xc09a268f	-4.817207
186	0x40f82494	7.754465
187	0x407520f3	3.830136
188	0x4005a688	2.0882893
189	0x41935d2e	18.420498
190	0x3fc929d7	1.5715894
191	0x3fe544f9	1.7911674
192	0x3ea7eb1f	0.3279657
193	0x40a33fb0	5.1015244
194	0xc0bc6094	-5.8867893
195	0xc0aac1e9	-5.3361707
196	0x3d0d40b5	0.034485538
197	0xc09ed82c	-4.963888
198	0xbf1f891d	-0.62318593
199	0xc00c33f9	-2.1906722
200	0xc101aa30	-8.10405
201	0x40eca1ae	7.3947363
202	0x407e7680	3.9759827
203	0xc05e87ba	-3.477034
204	0x415897dc	13.537075
205	0x4021323b	2.5186908
206	0x3fc11e7e	1.508743
207	0xbe51d0f1	-0.20489861
208	0xba114ac0	-0.00055424497
209	0x40a1fc56	5.0620527
210	0xc05f53f1	-3.4894984
211	0x4003fd90	2.0623512
212	0x4084f285	4.1546044
213	0xc0269662	-2.6029286
214	0x3f6ef471	0.9334174
215	0xc0932b63	-4.599046
216	0xbff276a0	-1.8942451
217	0xc01a63f5	-2.412351
218	0x3f4a4ec9	0.79026467
219	0xc0cf7eb4	-6.4842167
220	0xbf39ebe8	-0.7262559
221	0xc089c856	-4.305705
222	0xc0f5031f	-7.656631
223	0xbfc4f1e1	-1.5386316
224	0xbff30f05	-1.8988959
225	0xc0daa14e	-6.8321905
226	0xc06b5019	-3.6767638
227	0xbf06addf	-0.52609056
228	0x402d2ef5	2.705991
229	0xc054958c	-3.3216276
230	0xc09249a2	-4.5714884
231	0xc0f0d72f	-7.5262675
232	0xbfa19a00	-1.2625122
233	0x3fa2ed7f	1.2728728
234	0xc124f138	-10.308891
235	0x40832236	4.097926
236	0xc081db6a	-4.058034
237	0xc060fa0f	-3.5152624
238	0xc031b997	-2.7769525
239	0x4068aab9	3.63542
240	0x400e23fe	2.2209468
241	0xbe4f94fb	-0.20271675
242	0xbfd0d615	-1.6315333
243	0x3fded834	1.740973
244	0x3ecd6e6e	0.40123314
245	0xbe7499db	-0.23886816
246	0xc0bfdfe9	-5.996083
247	0x403dd592	2.9661603
248	0xc0bb380e	-5.8505926
249	0x4082f272	4.0920954
250	0xc082c551	-4.0865865
251	0xbd638f10	-0.055556357
252	0xc0a51db3	-5.1598754
253	0x3ea723b5	0.3264443
254	0xbe5792ff	-0.21052168
255	0xc0888475	-4.266169

bias f4 [3]
0	0x00000000	0.0
1	0x00000000	0.0
2	0x00000000	0.0

_ei_mask f4 [3]
0	0x3f800000	1.0
1	0x3f800000	1.0
2	0x3f800000	1.0

weight f4 [3, 175]
0	0x3d4ab077	0.049484696
1	0x3dbf3c8a	0.09337719
2	0x3e005f71	0.12536408
3	0x3e31826d	0.1733491
4	0x3d471071	0.048599664
5	0x3d42ef01	0.047591213
6	0x3d674ace	0.056467824
7	0x3d93aaa1	0.07210279
8	0x3c365ef3	0.011131036
9	0x3d1298f0	0.035790384
10	0x3c3c3e10	0.011489406
11	0x3d4769ce	0.048684888
12	0x3d709cf8	0.058743447
13	0x3dbad047	0.09121757
14	0x3e0c94b6	0.13728604
15	0x3d9a5a76	0.07536785
16	0x3e0bb9c7	0.13645087
17	0x3de339ab	0.11094984
18	0x3e033a4f	0.12815212
19	0x3d7d0fe1	0.06178272
20	0x3dd3359d	0.1031296
21	0x3d42e60a	0.047582664
22	0x3d848d8a	0.06472309
23	0x3d17db98	0.037074655
24	0x3d49488a	0.049141444
25	0x3d8202f9	0.06348223
26	0x3d67d071	0.05659527
27	0x3ddeaa0d	0.10872278
28	0x3db7794d	0.08958683
29	0x3db16d8a	0.08663471
30	0x3d32a97e	0.04361867
31	0xbd01d7a8	-0.031699806
32	0x3cf488c3	0.02985037
33	0x3d4e0d79	0.050305817
34	0x3d4f4cd6	0.050610386
35	0x3ddb3ba9	0.10704739
36	0x3ca9d302	0.0207305
37	0xbb2b29e7	-0.0026117505
38	0x3c318b62	0.010836454
39	0x3d3b2fd0	0.045699894
40	0x3d6d6214	0.057954863
41	0x3cbb009f	0.022827445
42	0x3b297a94	0.0025860416
43	0xbe1e1137	-0.15436254
44	0x3cd25f52	0.025680218
45	0x3e274077	0.16333185
46	0xbcd3abee	-0.025838818
47	0xbe259063	-0.1616836
48	0x3de3f405	0.111305274
49	0x3d73c3c0	0.059512854
50	0x3ddd1c68	0.10796434
51	0x3de3f5d7	0.111308746
52	0xbd08a8a3	-0.03336395
53	0x3c7c3b10	0.015394941
54	0x3d710d91	0.05885083
55	0x3d95304d	0.07284603
56	0x3d013143	0.03154112
57	0xbc9c32fc	-0.01906728
58	0x3dffaf56	0.124846146
59	0xbd6980f1	-0.057007734
60	0x3dfe64d4	0.12421575
61	0x3e15e623	0.14638571
62	0x3e110d37	0.14165197
63	0x3e101878	0.14071834
64	0x3dafad7a	0.0857801
65	0x3d69af7a	0.057052113
66	0x3da46fbc	0.08029124
67	0x3d79d6b0	0.060995758
68	0x3e84f715	0.2596976
69	0x3d886c5f	0.06661295
70	0x3c9a869c	0.018863015
71	0x3dba595c	0.09099075
72	0x3db893da	0.090125754
73	0x3cb054e1	0.021524848
74	0x3d707977	0.058709588
75	0xbc14d6b7	-0.009084395
76	0x3db32473	0.087471865
77	0x3db8904a	0.09011896
78	0x3c405519	0.011739039
79	0x3ccc8edd	0.024970466
80	0x3db0799a	0.08616944
81	0x3d5fc72e	0.054633312
82	0x3d0b8718	0.034064382
83	0x3d770cce	0.060314946
84	0x3c39b693	0.011335033
85	0x3d81e5b1	0.06342638
86	0x3d68ab12	0.05680377
87	0x3d9f2082	0.07769872
88	0x3d4754cb	0.04866485
89	0x3d8e78ac	0.0695661
90	0x3d89068d	0.066907026
91	0x3d5a9424	0.053363934
92	0x3d43e1d5	0.047822792
93	0x3d92e935	0.07173387
94	0x3d80bc8d	0.06285963
95	0x3cd59e76	0.026076537
96	0x3d8ff059	0.070282646
97	0x3d95fe3e	0.073238835
98	0x3da6b6a7	0.08140307
99	0x3d5d01eb	0.053956907
100	0x3d73c5f5	0.05951496
101	0x3d3096ba	0.043112494
102	0x3d95db6d	0.07317243
103	0x3d5485ec	0.05188553
104	0x3d9bde9d	0.076108195
105	0x3d872bb1	0.0660013
106	0x3ce9b93a	0.028530706
107	0x3cf6ae06	0.030112278
108	0x3cea1239	0.028573142
109	0x3d87a66f	0.066235416
110	0x3dd31222	0.10306193
111	0x3da97538	0.08274311
112	0x3d6fb6f9	0.058524106
113	0x3d374ebc	0.04475282
114	0x3d4f5e45	0.05062701
115	0x3d24d0e5	0.04023828
116	0x3d45c669	0.04828492
117	0x3dc41549	0.09574372
118	0x3d87773b	0.06614538
119	0x3d00a604	0.031408325
120	0x3dcc1276	0.09964459
121	0x3dbc417d	0.091921784
122	0x3d218ae0	0.039439082
123	0x3d7e4baa	0.062083878
124	0x3da1ea2d	0.079059936
125	0x3d90c161	0.07068134
126	0x3cb0470c	0.021518253
127	0x3d7109a0	0.05884707
128	0xbcc9e9ac	-0.024647556
129	0x3db784bf	0.08960866
130	0xbc14d154	-0.009083111
131	0x3d0a4224	0.033754483
132	0x3cc5c0cd	0.024139786
133	0x3db81c6e	0.089897975
134	0x3da2fb5c	0.07958099
135	0xbd17c120	-0.037049413
136	0x3d14f86d	0.03636973
137	0x3d52aa46	0.051431917
138	0x3dccf85a	0.10008307
139	0x3d9db3c9	0.07700307
140	0x3d34774d	0.044059087
141	0x3d9b7b7a	0.07591911
142	0x3daa4f35	0.08315889
143	0x3d937cce	0.07201539
144	0x3daa9161	0.0832851
145	0x3d2128ea	0.03934566
146	0xbd2d01e0	-0.042238116
147	0xbbb24b8f	-0.005441136
148	0x3e3df4ad	0.18550368
149	0xbc2ae40d	-0.010430348
150	0x3c83c122	0.016083304
151	0x3d383fe8	0.04498282
152	0x3db8d35a	0.09024687
153	0x3dc1f9d4	0.09471479
154	0x3db1b2b7	0.08676665
155	0x3dd4a6d0	0.103833795
156	0x3d844866	0.064591214
157	0x3dbd35bf	0.09238767
158	0x3d9dd3a9	0.077063866
159	0x3d8b4339	0.06799931
160	0x3d27bcdc	0.040951595
161	0x3d9393f8	0.07205957
162	0x3d92ea00	0.07173538
163	0x3c844463	0.01614589
164	0x3d92c5db	0.07166644
165	0x3d85a4c2	0.06525566
166	0x3e41d7d7	0.18929993
167	0x3d68c07b	0.05682419
168	0x3d8b35c0	0.067973614
169	0x3dcd8a36	0.10036127
170	0x3d3ffc99	0.046871755
171	0x3d89814d	0.06714115
172	0x3d7cf99c	0.061761484
173	0x3db0ea88	0.08638483
174	0x3c755e83	0.014976147
175	0x3c4e401e	0.012588529
176	0x3d1cb6c5	0.03826024
177	0x3c8bfc2e	0.017088022
178	0x3deee54a	0.11664827
179	0xbcbf76c4	-0.023372062
180	0x3c444029	0.011978188
181	0xbd20d02f	-0.03926104
182	0xbcc924b5	-0.024553636
183	0xbcec7e6b	-0.028868875
184	0xbd2b55ca	-0.04182986
185	0xbe0653b5	-0.13117869
186	0xbc32cb48	-0.010912724
187	0xbe56ab2d	-0.20963736
188	0xbcbfdd26	-0.023420881
189	0x3e892d99	0.267926
190	0x3cc8a3cb	0.024492165
191	0x3e88a6a8	0.2668965
192	0xbdade886	-0.08491616
193	0x3e889ac4	0.26680577
194	0x3c43233a	0.011910254
195	0x3e32a7f5	0.17446883
196	0xbd85455e	-0.06507371
197	0xbcd65467	-0.026163293
198	0xbe1eabf5	-0.15495284
199	0xbdc583fa	-0.09644313
200	0x3ccc76d1	0.024959
201	0xbbcf0fee	-0.0063190376
202	0x3be8b87a	0.0071020694
203	0x3d0b3f62	0.033995993
204	0x3b792e22	0.0038021882
205	0xbdaae060	-0.083435774
206	0x3d87e643	0.06635716
207	0xbd95df68	-0.07318002
208	0xbd2e5ae6	-0.042567156
209	0x3d54ef7b	0.0519862
210	0x3d3b88af	0.04578465
211	0x3d99da2f	0.07512318
212	0xbc8fe226	-0.01756389
213	0xbd3116ca	-0.043234624
214	0x3ca92176	0.020645838
215	0xbd5b9a1b	-0.053613763
216	0xbcef8e88	-0.029242769
217	0xbd462612	-0.04837615
218	0xbf1287b3	-0.5723831
219	0x3b838def	0.0040147225
220	0x3d831c32	0.06401862
221	0xbe1905f3	-0.14943676
222	0xbe92db52	-0.28682953
223	0x3d2a6420	0.041599393
224	0x3a61af3d	0.00086091814
225	0xbf671671	-0.9026862
226	0xbf6a4f42	-0.9152719
227	0x3cde0401	0.027101519
228	0xbe30ca7f	-0.17264746
229	0x3e214611	0.15749384
230	0xbda3a95c	-0.07991287
231	0xbca3617c	-0.019943945
232	0xbcfd9be9	-0.030958133
233	0x3e03e4c6	0.12880239
234	0x3d994f93	0.07485881
235	0x3d20c21a	0.03924761
236	0x3e07e0b4	0.13269311
237	0x3df58de9	0.11989958
238	0x3d33c406	0.043888114
239	0x3ccd0531	0.02502689
240	0xbcf38be6	-0.029729795
241	0xbcc962ed	-0.024583304
242	0xba74d213	-0.0009339165
243	0x3e4d0dd8	0.20024812
244	0x3ae1f430	0.0017238911
245	0x3e10ce6a	0.1414124
246	0xbd18d4a9	-0.037312184
247	0xbc8d1c7e	-0.0172255
248	0x3cd79e3b	0.026320567
249	0xbc947297	-0.018121047
250	0xbcc35b2f	-0.02384719
251	0xb8af413e	-8.3568026e-05
252	0xbc6e2cb4	-0.014537025
253	0x3d9111c8	0.0708347
254	0xbd32ef5a	-0.043685295
255	0x3ce43462	0.02785701

bias f4 [175]
0	0x00000000	0.0
1	0x00000000	0.0
2	0x00000000	0.0
3	0x00000000	0.0
4	0x00000000	0.0
5	0x00000000	0.0
6	0x00000000	0.0
7	0x00000000	0.0
8	0x00000000	0.0
9	0x00000000	0.0
10	0x00000000	0.0
11	0x00000000	0.0
12	0x00000000	0.0
13	0x00000000	0.0
14	0x00000000	0.0
15	0x00000000	0.0
16	0x00000000	0.0
17	0x00000000	0.0
18	0x00000000	0.0
19	0x00000000	0.0
20	0x00000000	0.0
21	0x00000000	0.0
22	0x00000000	0.0
23	0x00000000	0.0
24	0x00000000	0.0
25	0x00000000	0.0
26	0x00000000	0.0
27	0x00000000	0.0
28	0x00000000	0.0
29	0x00000000	0.0
30	0x00000000	0.0
31	0x00000000	0.0
32	0x00000000	0.0
33	0x00000000	0.0
34	0x00000000	0.0
35	0x00000000	0.0
36	0x00000000	0.0
37	0x00000000	0.0
38	0x00000000	0.0
39	0x00000000	0.0
40	0x00000000	0.0
41	0x00000000	0.0
42	0x00000000	0.0
43	0x00000000	0.0
44	0x00000000	0.0
45	0x00000000	0.0
46	0x00000000	0.0
47	0x00000000	0.0
48	0x00000000	0.0
49	0x00000000	0.0
50	0x00000000	0.0
51	0x00000000	0.0
52	0x00000000	0.0
53	0x00000000	0.0
54	0x00000000	0.0
55	0x00000000	0.0
56	0x00000000	0.0
57	0x00000000	0.0
58	0x00000000	0.0
59	0x00000000	0.0
60	0x00000000	0.0
61	0x00000000	0.0
62	0x00000000	0.0
63	0x00000000	0.0
64	0x00000000	0.0
65	0x00000000	0.0
66	0x00000000	0.0
67	0x00000000	0.0
68	0x00000000	0.0
69	0x00000000	0.0
70	0x00000000	0.0
71	0x00000000	0.0
72	0x00000000	0.0
73	0x00000000	0.0
74	0x00000000	0.0
75	0x00000000	0.0
76	0x00000000	0.0
77	0x00000000	0.0
78	0x00000000	0.0
79	0x00000000	0.0
80	0x00000000	0.0
81	0x00000000	0.0
82	0x00000000	0.0
83	0x00000000	0.0
84	0x00000000	0.0
85	0x00000000	0.0
86	0x00000000	0.0
87	0x00000000	0.0
88	0x00000000	0.0
89	0x00000000	0.0
90	0x00000000	0.0
91	0x00000000	0.0
92	0x00000000	0.0
93	0x00000000	0.0
94	0x00000000	0.0
95	0x00000000	0.0
96	0x00000000	0.0
97	0x00000000	0.0
98	0x00000000	0.0
99	0x00000000	0.0
100	0x00000000	0.0
101	0x00000000	0.0
102	0x00000000	0.0
103	0x00000000	0.0
104	0x00000000	0.0
105	0x00000000	0.0
106	0x00000000	0.0
107	0x00000000	0.0
108	0x00000000	0.0
109	0x00000000	0.0
110	0x00000000	0.0
111	0x00000000	0.0
112	0x00000000	0.0
113	0x00000000	0.0
114	0x00000000	0.0
115	0x00000000	0.0
116	0x00000000	0.0
117	0x00000000	0.0
118	0x00000000	0.0
119	0x00000000	0.0
120	0x00000000	0.0
121	0x00000000	0.0
122	0x00000000	0.0
123	0x00000000	0.0
124	0x00000000	0.0
125	0x00000000	0.0
126	0x00000000	0.0
127	0x00000000	0.0
128	0x00000000	0.0
129	0x00000000	0.0
130	0x00000000	0.0
131	0x00000000	0.0
132	0x00000000	0.0
133	0x00000000	0.0
134	0x00000000	0.0
135	0x00000000	0.0
136	0x00000000	0.0
137	0x00000000	0.0
138	0x00000000	0.0
139	0x00000000	0.0
140	0x00000000	0.0
141	0x00000000	0.0
142	0x00000000	0.0
143	0x00000000	0.0
144	0x00000000	0.0
145	0x00000000	0.0
146	0x00000000	0.0
147	0x00000000	0.0
148	0x00000000	0.0
149	0x00000000	0.0
150	0x00000000	0.0
151	0x00000000	0.0
152	0x00000000	0.0
153	0x00000000	0.0
154	0x00000000	0.0
155	0x00000000	0.0
156	0x00000000	0.0
157	0x00000000	0.0
158	0x00000000	0.0
159	0x00000000	0.0
160	0x00000000	0.0
161	0x00000000	0.0
162	0x00000000	0.0
163	0x00000000	0.0
164	0x00000000	0.0
165	0x00000000	0.0
166	0x00000000	0.0
167	0x00000000	0.0
168	0x00000000	0.0
169	0x00000000	0.0
170	0x00000000	0.0
171	0x00000000	0.0
172	0x00000000	0.0
173	0x00000000	0.0
174	0x00000000	0.0

_ei_mask f4 [175]
0	0x3f800000	1.0
1	0x3f800000	1.0
2	0x3f800000	1.0
3	0x3f800000	1.0
4	0x3f800000	1.0
5	0x3f800000	1.0
6	0x3f800000	1.0
7	0x3f800000	1.0
8	0x3f800000	1.0
9	0x3f800000	1.0
10	0x3f800000	1.0
11	0x3f800000	1.0
12	0x3f800000	1.0
13	0x3f800000	1.0
14	0x3f800000	1.0
15	0x3f800000	1.0
16	0x3f800000	1.0
17	0x3f800000	1.0
18	0x3f800000	1.0
19	0x3f800000	1.0
20	0x3f800000	1.0
21	0x3f800000	1.0
22	0x3f800000	1.0
23	0x3f800000	1.0
24	0x3f800000	1.0
25	0x3f800000	1.0
26	0x3f800000	1.0
27	0x3f800000	1.0
28	0x3f800000	1.0
29	0x3f800000	1.0
30	0x3f800000	1.0
31	0x3f800000	1.0
32	0x3f800000	1.0
33	0x3f800000	1.0
34	0x3f800000	1.0
35	0x3f800000	1.0
36	0x3f800000	1.0
37	0x3f800000	1.0
38	0x3f800000	1.0
39	0x3f800000	1.0
40	0x3f800000	1.0
41	0x3f800000	1.0
42	0x3f800000	1.0
43	0x3f800000	1.0
44	0x3f800000	1.0
45	0x3f800000	1.0
46	0x3f800000	1.0
47	0x3f800000	1.0
48	0x3f800000	1.0
49	0x3f800000	1.0
50	0x3f800000	1.0
51	0x3f800000	1.0
52	0x3f800000	1.0
53	0x3f800000	1.0
54	0x3f800000	1.0
55	0x3f800000	1.0
56	0x3f800000	1.0
57	0x3f800000	1.0
58	0x3f800000	1.0
59	0x3f800000	1.0
60	0x3f800000	1.0
61	0x3f800000	1.0
62	0x3f800000	1.0
63	0x3f800000	1.0
64	0x3f800000	1.0
65	0x3f800000	1.0
66	0x3f800000	1.0
67	0x3f800000	1.0
68	0x3f800000	1.0
69	0x3f800000	1.0
70	0x3f800000	1.0
71	0x3f800000	1.0
72	0x3f800000	1.0
73	0x3f800000	1.0
74	0x3f800000	1.0
75	0x3f800000	1.0
76	0x3f800000	1.0
77	0x3f800000	1.0
78	0x3f800000	1.0
79	0x3f800000	1.0
80	0x3f800000	1.0
81	0x3f800000	1.0
82	0x3f800000	1.0
83	0x3f800000	1.0
84	0x3f800000	1.0
85	0x3f800000	1.0
86	0x3f800000	1.0
87	0x3f800000	1.0
88	0x3f800000	1.0
89	0x3f800000	1.0
90	0x3f800000	1.0
91	0x3f800000	1.0
92	0x3f800000	1.0
93	0x3f800000	1.0
94	0x3f800000	1.0
95	0x3f800000	1.0
96	0x3f800000	1.0
97	0x3f800000	1.0
98	0x3f800000	1.0
99	0x3f800000	1.0
100	0x3f800000	1.0
101	0x3f800000	1.0
102	0x3f800000	1.0
103	0x3f800000	1.0
104	0x3f800000	1.0
105	0x3f800000	1.0
106	0x3f800000	1.0
107	0x3f800000	1.0
108	0x3f800000	1.0
109	0x3f800000	1.0
110	0x3f800000	1.0
111	0x3f800000	1.0
112	0x3f800000	1.0
113	0x3f800000	1.0
114	0x3f800000	1.0
115	0x3f800000	1.0
116	0x3f800000	1.0
117	0x3f800000	1.0
118	0x3f800000	1.0
119	0x3f800000	1.0
120	0x3f800000	1.0
121	0x3f800000	1.0
122	0x3f800000	1.0
123	0x3f800000	1.0
124	0x3f800000	1.0
125	0x3f800000	1.0
126	0x3f800000	1.0
127	0x3f800000	1.0
128	0x3f800000	1.0
129	0x3f800000	1.0
130	0x3f800000	1.0
131	0x3f800000	1.0
132	0x3f800000	1.0
133	0x3f800000	1.0
134	0x3f800000	1.0
135	0x3f800000	1.0
136	0x3f800000	1.0
137	0x3f800000	1.0
138	0x3f800000	1.0
139	0x3f800000	1.0
140	0x3f800000	1.0
141	0x3f800000	1.0
142	0x3f800000	1.0
143	0x3f800000	1.0
144	0x3f800000	1.0
145	0x3f800000	1.0
146	0x3f800000	1.0
147	0x3f800000	1.0
148	0x3f800000	1.0
149	0x3f800000	1.0
150	0x3f800000	1.0
151	0x3f800000	1.0
152	0x3f800000	1.0
153	0x3f800000	1.0
154	0x3f800000	1.0
155	0x3f800000	1.0
156	0x3f800000	1.0
157	0x3f800000	1.0
158	0x3f800000	1.0
159	0x3f800000	1.0
160	0x3f800000	1.0
161	0x3f800000	1.0
162	0x3f800000	1.0
163	0x3f800000	1.0
164	0x3f800000	1.0
165	0x3f800000	1.0
166	0x3f800000	1.0
167	0x3f800000	1.0
168	0x3f800000	1.0
169	0x3f800000	1.0
170	0x3f800000	1.0
171	0x3f800000	1.0
172	0x3f800000	1.0
173	0x3f800000	1.0
174	0x3f800000	1.0
