checkpoints/version123/model.pt (torch, 31342 bytes, 13 tensors)

bias f4 [175]
00000000: ce8c 963f 5225 1240 4ed4 1fbf ea67 a73f
00000010: a2c7 093d 8ab0 f43f e920 fb3f b2b7 2640
00000020: 87b2 ce3f 4b84 4040 c941 ac3f 8a2f c53f
00000030: 93b3 1e3e 6e9e e5bd bfec b43c de3c 0c40
00000040: 353a 4fbd dd82 81bd 7360 08bd db25 3240
00000050: d4d8 963e 8d53 b93f b660 c83f bba7 cdbe
00000060: e212 e6bf 8872 5b40 28c8 7a3f ce24 b53f
00000070: 5933 833f 4618 2640 7530 033f adde 223d
00000080: 359e 9a3f 4183 903d 14fa 1f3f 6706 6f40
00000090: 19ec 333f cccf 8b3f 7a6d e73f ce6f b73f
000000a0: c597 0b40 88e4 c33f 5b4b 4a3e 6903 c63e
000000b0: 3569 cc3f 4277 48be 650f f53e fc0a 373e
000000c0: 69e1 a33e dfc7 983e da73 0d3f 5a49 023f
000000d0: 80db 853f b3a4 603e 8bcd 723e d3b1 a53f
000000e0: 5d5f c0be 9489 313f de05 293e 457f bbbe
000000f0: fda0 a8bd 09d5 5e3d 4072 383f 39ba 343f
00000100: c7f4 953d 56d9 a93e 795d adbb 3651 b53e
00000110: f056 273f 3cbb d13f 8233 aebe 7f4c 983f
00000120: 0149 ab3f 0cbc 603f 7dde 923f d8c0 7d3f
00000130: 3afd ab3f 18b1 c23f 6cd7 c23f 430e 0a40
00000140: 651e aa3f d3f8 f93f 727f 7c3f 2871 2940
00000150: c5cd ae3f 5be6 9e3f 8f61 3d40 7e8a 5b40
00000160: aecf be3f 357a 853f fb0f 873f f7be d3be
00000170: 75ba 5c40 01b2 45bd 35cd 753f f903 bf3e
00000180: b863 6140 e947 d23e e138 39bf 05cc 023e
00000190: c936 1440 72ea 6d3f 5bad bd3f 6251 eb3f
000001a0: 84b7 7a3f 5dd5 0a40 b139 c03f 5ceb c03f
000001b0: b40a c93f 277d 0040 a8d5 823f 0508 9bbe
000001c0: 131e b03d cb54 1040 aa2c 983f 504d 1240
000001d0: 8d99 1e3e 9a37 1140 ea8e ec3f a50a 0640
000001e0: 02b8 2540 375d dd3f 3836 0540 a931 1240
000001f0: 58e5 2940 694c ae3f c54a 223e 8246 8ebd
00000200: ef00 5b3f 64d5 b43f aceb 903e 733a 463e
00000210: 9c1b 7bbd d31e 0040 a053 b53f dc19 893d
00000220: f4ad 5bbd dc88 b43f 8b26 0b3f 7e73 7a3f
00000230: e4e0 233f 66e0 cd3e 2391 923f 8ed2 af3e
00000240: 4546 cfbd df1a cb3f 29ea a93f 7035 a13f
00000250: a6a6 253f 78b9 debd aeef 843e 0511 c1bd
00000260: 4640 d73f 58e9 753f a8bd 4540 f262 0340
00000270: c390 903f 0b9a 5a40 2b20 983e d875 a73e
00000280: 9b65 603f 5606 78bf 0715 103f afb3 953f
00000290: 2777 c73f d04c 3240 6431 5a3f b6d3 ab3f
000002a0: 7ae8 6a3f b9e8 ee3f b9b5 0140 520a c73f
000002b0: 46b6 963f eb47 df3e 0c54 a13e
1.176172 2.2835279 -0.62433326 1.3078587 0.03363765 1.9116375 1.9619418 2.6049619
1.6148232 3.0080745 1.3457576 1.5405133 0.1549819 -0.11211859 0.022085546 2.191215
-0.05059262 -0.06323788 -0.033295106 2.7835605 0.29462302 1.4478623 1.5654514 -0.4016703
-1.7974513 3.4288654 0.97961664 1.4151857 1.0250045 2.5952315 0.51245815 0.03976314
1.2079531 0.07056285 0.62490964 3.7347658 0.7028213 1.092279 1.8080285 1.4330995
2.1811383 1.5304117 0.19755308 0.38674477 1.5969607 -0.19576743 0.47863308 0.17875284
0.32007912 0.2983999 0.552549 0.50893176 1.0457611 0.21937828 0.23711221 1.2944893
-0.37572756 0.6935055 0.16506144 -0.36620536 -0.08233831 0.054402385 0.7204933 0.70596653
0.07322078 0.33173627 -0.005290684 0.35413522 0.6536703 1.6385264 -0.34023672 1.1898345
1.3381654 0.87786937 1.1474148 0.9912238 1.3436654 1.5210295 1.5221992 2.1571205
1.3290526 1.952906 0.98631966 2.6475315 1.3656546 1.2414049 2.9590795 3.430328
1.4907129 1.042792 1.0551752 -0.41356632 3.4488804 -0.04826546 0.96016246 0.37307718
3.5217113 0.41070488 -0.72352415 0.1277314 2.3158438 0.9293586 1.4818529 1.8384211
0.9793627 2.1692727 1.5017606 1.5071826 1.5706391 2.0076387 1.0221453 -0.30279556
0.08599486 2.2551754 1.188863 2.2859688 0.15488262 2.2690187 1.8481114 2.0943997
2.589356 1.7294072 2.0814342 2.284281 2.654623 1.3617069 0.15848835 -0.06947042
0.855483 1.4127622 0.28304803 0.19358234 -0.061305627 2.0018814 1.4166145 0.066943854
-0.05363269 1.4104266 0.54355687 0.9783248 0.6401503 0.40210265 1.1450542 0.34340328
-0.10120825 1.5867575 1.3274585 1.2594433 0.6470741 -0.10875219 0.2596411 -0.09427074
1.681649 0.9605918 3.0897007 2.0529141 1.1294178 3.415652 0.29712042 0.32707095
0.8765504 -0.9688467 0.56282085 1.169546 1.5583237 2.7859383 0.85231614 1.3423984
0.9176098 1.8664771 2.0267165 1.5550025 1.1774375 0.43609557 0.31509435

weight f4 [9, 175]
00000000: 8a7d 1cb9 6794 58b9 5049 1bb9 7032 8fb6
00000010: a650 4dba ac95 1c3f be1b 63ba 353a 053f
00000020: b3ef 8c3f 2ee8 0c3f 14cd 433f 35e5 333f
00000030: dad2 3eb6 3934 093f 0101 9db9 00dd c735
00000040: e386 f339 ca18 af3e 07d4 c2b9 11cb 1a3f
00000050: 10de 3c36 fd5d 493f 5327 dd3e d8e3 82b6
00000060: 1de4 8b3f 02b0 2c3f d6ea b23f 14c5 a33e
00000070: f7d6 2fbb 2775 05b6 a437 963f 8989 89ba
00000080: feb3 293f 5ab8 bc3f e303 db37 b14c 343a
00000090: 247e 033f 101a 753a 8257 293f 2602 603f
000000a0: 4a1f a638 4a68 8538 532c 573f 8b08 163f
000000b0: 2098 49b6 39b1 d13e adb6 53b8 cf5d f837
000000c0: 8208 d736 65a0 9938 cfb5 a53e 2dab df3e
000000d0: f7e6 e239 59bb 333f 84e6 f73e 0043 a9b9
000000e0: a3da 0337 ad39 07bf 2fdf c63e 91ff 9ebd
000000f0: 3a30 0e3f c2e4 113f 281d 3cb5 9158 9138
00000100: 67e1 8135 beef 263f d429 993e 74fd 493f
00000110: bb15 0839 b183 c63e ca2a 893e e811 863d
00000120: 8570 513e 338b ba38 481b 853e b1c8 1939
00000130: ee23 13b9 f453 8f3e 1183 03b9 0607 2cba
00000140: a26f 1239 3d2e 293a cffb 083e 6288 71b9
00000150: 2d7e 00bb e98c 923e 5986 023a 2cf4 c439
00000160: 4e56 5e39 147e 203f b796 8f3d 83ee 49be
00000170: a653 7d38 792c 8c3e 321b 383f 6769 463f
00000180: 19d9 cf3b b14b 073f dde8 033f 3f7d 833f
00000190: bbf9 763f 48a2 ab3f 0030 4130 a646 4937
000001a0: 23cf c9b7 f5b3 e137 5d28 9f3f 0fd9 ed3e
000001b0: 7010 e63e ca46 053f eedb 5a38 676f b539
000001c0: 622f 523f 85f8 3d3f 379c 563f 3164 393f
000001d0: 453a 703f 0198 0c3b c194 213f f5fc 043f
000001e0: dc7a 183f db68 cb3e 7c28 f43e fd76 5db9
000001f0: 2d5a a73e 3c33 fe35 46a2 103f 1995 5cb8
00000200: 75f3 903e 3584 263f 0e3a 513f d228 4736
00000210: 75e2 803f 5819 713e 99ef 4137 90e3 223f
00000220: bd37 843e 18a1 a038 94e2 3137 0d83 4fbb
00000230: faec 233f 922d 403f 4070 603d bfd7 5839
00000240: dc81 923e 9baf 843f 59dd 19b9 d8a8 9a38
00000250: fb69 843a ee1f 033f 4b01 c73e 0117 6a3e
00000260: 4da0 33ba c1d5 a93e f0bd 3eb9 d818 85b8
00000270: 637f 1e3f 07a1 d339 e23c e2b9 f82e 803f
00000280: 9487 0c3f baa6 0e3f d167 963f c2d5 683f
00000290: 72b7 6ebb 4908 7238 0045 e5b8 245f 64b9
000002a0: c52e 1d3f e34f 0fb9 8aac f738 db7b b93d
000002b0: a48e 713e 11de 5e3f 5d61 7f3e 7e90 b33e
000002c0: 81f9 033f 1294 443f e24f 053f df5a bf3f
000002d0: dd00 90b9 2488 ba3e 9dcd 2aba 64cc 0338
000002e0: 7c84 a237 8f44 aeb9 a259 cf39 e0dd 613f
000002f0: ebb3 8536 298b d83e a241 5b3f a283 afbe
00000300: 4e7d 8ab8 a0ac 95be 7952 69b9 0bc0 503f
00000310: 6863 e2b7 4d8a 4739 222b 8e3e fd5e 57b8
00000320: 6c5b e3b9 4033 0bb9 fe6e 8ab9 3bae 113e
00000330: 08e6 a93f 7511 5737 23dc 1ebe 1658 1b39
00000340: 7aee d1b8 96e9 a13f 523b 7a3f 30c0 6038
00000350: 61ba 973e 8670 e237 17d6 68b8 98f4 e63e
00000360: 8ebe 143f 2de7 6ab6 5e38 64b8 c935 583f
00000370: 4dbc 5538 2b7d 183f d818 f13e 8c22 033f
00000380: 7a84 fe3e c52c 25b9 7864 d8b7 54eb 833e
00000390: 7eaf 13b7 86f0 0736 0d68 133f ee99 1b3f
000003a0: 9acc 5735 9b8e 7138 2d8a 9dbd a026 a7b7
000003b0: a52f 2ab8 ba84 293f cc9c 853f 16e0 493f
000003c0: 3673 e9b7 f5f0 cab8 7abb 0fb5 3d42 c93e
000003d0: 52aa 3cb9 413a 91b9 18a4 c33d 7e54 a2bb
000003e0: 646f 053f 8858 153a ce53 c03e 058a 143f
000003f0: 5202 bf3a d65f 183f 2b7c a43e a177 103f
-0.00014924086 -0.0002065465 -0.00014809263 -4.267604e-06 -0.0007832147 0.6116588 -0.00086634967 0.5204194
1.101065 0.5504178 0.764848 0.7027162 -2.8434938e-06 0.5359531 -0.00029946122 1.4890975e-06
0.0004644907 0.341986 -0.00037160536 0.60466105 2.814344e-06 0.7865904 0.43194064 -3.9008264e-06
1.092899 0.67456067 1.3977916 0.31986296 -0.002683101 -1.9886736e-06 1.173573 -0.0010493259
0.6629027 1.474376 2.6108644e-05 0.0006877883 0.5136435 0.0009349892 0.6614915 0.8750328
7.921325e-05 6.3613596e-05 0.8405201 0.58606786 -3.0039882e-06 0.40955523 -5.047645e-05 2.9607587e-05
6.4084898e-06 7.325484e-05 0.3236527 0.43685284 0.0004327816 0.70207745 0.48418057 -0.0003228411
7.859114e-06 -0.5282238 0.3884215 -0.07763589 0.5554234 0.5698968 -7.0077886e-07 6.9306356e-05
9.67685e-07 0.6520957 0.29914725 0.78902364 0.00012978066 0.38772348 0.26790458 0.06546384
0.20453079 8.895099e-05 0.25997376 0.0001466598 -0.00014032397 0.2799374 -0.0001254196 -0.0006562326
0.00013965231 0.00064537284 0.13377307 -0.00023034358 -0.0019606457 0.2862313 0.0004979126 0.00037565955
0.00021203721 0.6269238 0.070111685 -0.19719891 6.0397804e-05 0.2737768 0.71916497 0.7750458
0.0063430187 0.5284987 0.51527196 1.0272597 0.9647481 1.3408899 7.0281203e-10 1.1996983e-05
-2.4057523e-05 2.690589e-05 1.2434193 0.46454665 0.44934416 0.5206114 5.2180076e-05 0.00034606011
0.8210355 0.74207336 0.83832115 0.72418505 0.9383891 0.0021452906 0.63117605 0.5194848
0.5956247 0.39728436 0.47687137 -0.00021120529 0.32685986 1.8939386e-06 0.5649761 -5.2590945e-05
0.28310743 0.6504548 0.8172921 2.9677071e-06 1.0069109 0.23544824 1.1559482e-05 0.6362848
0.25823775 7.6594006e-05 1.06027765e-05 -0.0031663806 0.6403347 0.75069535 0.05479455 0.00020679737
0.286147 1.036609 -0.00014673675 7.374742e-05 0.0010102385 0.51220596 0.38868174 0.22860338
-0.0006852195 0.33170894 -0.00018190569 -6.346562e-05 0.61913127 0.0004036503 -0.0004315144 1.0014334
0.54894376 0.55723155 1.1750432 0.9095117 -0.003642526 5.7705012e-05 -0.00010932423 -0.00021779217
0.6139949 -0.00013667303 0.00011810016 0.09056827 0.2358957 0.87057596 0.24939485 0.35071176
0.5155259 0.7678844 0.52075016 1.4949607 -0.00027466464 0.36431992 -0.0006515624 3.1423187e-05
1.9373598e-05 -0.00033238946 0.00039548898 0.8822918 3.984654e-06 0.4229367 0.8564702 -0.34280115
-6.6036926e-05 -0.29233265 -0.00022251335 0.81543034 -2.6987589e-05 0.0001902964 0.27767283 -5.134846e-05
-0.0004336493 -0.00013275165 -0.00026404107 0.1422662 1.3273325 1.2819063e-05 -0.15513663 0.00014814766
-0.00010010316 1.264941 0.97746766 5.358475e-05 0.29634383 2.6993697e-05 -5.5512497e-05 0.45108485
0.58103263 -3.500328e-06 -5.4411932e-05 0.8445707 5.0958526e-05 0.5956599 0.47089267 0.5122459
0.49710447 -0.00015752304 -2.5795991e-05 0.2576548 -8.802743e-06 2.025657e-06 0.57580644 0.60781753
8.0391476e-07 5.759169e-05 -0.076923706 -1.9925938e-05 -4.057553e-05 0.6621815 1.0438476 0.78857553
-2.7829414e-05 -9.676992e-05 -5.3544466e-07 0.39308348 -0.00017992526 -0.00027699958 0.09552783 -0.00495392
0.52123094 0.0005697091 0.37563938 0.580231 0.0014572835 0.59521234 0.32125983 0.5643254

bias f4 [175]
00000000: 0000 0000 0000 0000 0000 0000 0000 0000
00000010: 0000 0000 0000 0000 0000 0000 0000 0000
00000020: 0000 0000 0000 0000 0000 0000 0000 0000
00000030: 0000 0000 0000 0000 0000 0000 0000 0000
00000040: 0000 0000 0000 0000 0000 0000 0000 0000
00000050: 0000 0000 0000 0000 0000 0000 0000 0000
00000060: 0000 0000 0000 0000 0000 0000 0000 0000
00000070: 0000 0000 0000 0000 0000 0000 0000 0000
00000080: 0000 0000 0000 0000 0000 0000 0000 0000
00000090: 0000 0000 0000 0000 0000 0000 0000 0000
000000a0: 0000 0000 0000 0000 0000 0000 0000 0000
000000b0: 0000 0000 0000 0000 0000 0000 0000 0000
000000c0: 0000 0000 0000 0000 0000 0000 0000 0000
000000d0: 0000 0000 0000 0000 0000 0000 0000 0000
000000e0: 0000 0000 0000 0000 0000 0000 0000 0000
000000f0: 0000 0000 0000 0000 0000 0000 0000 0000
00000100: 0000 0000 0000 0000 0000 0000 0000 0000
00000110: 0000 0000 0000 0000 0000 0000 0000 0000
00000120: 0000 0000 0000 0000 0000 0000 0000 0000
00000130: 0000 0000 0000 0000 0000 0000 0000 0000
00000140: 0000 0000 0000 0000 0000 0000 0000 0000
00000150: 0000 0000 0000 0000 0000 0000 0000 0000
00000160: 0000 0000 0000 0000 0000 0000 0000 0000
00000170: 0000 0000 0000 0000 0000 0000 0000 0000
00000180: 0000 0000 0000 0000 0000 0000 0000 0000
00000190: 0000 0000 0000 0000 0000 0000 0000 0000
000001a0: 0000 0000 0000 0000 0000 0000 0000 0000
000001b0: 0000 0000 0000 0000 0000 0000 0000 0000
000001c0: 0000 0000 0000 0000 0000 0000 0000 0000
000001d0: 0000 0000 0000 0000 0000 0000 0000 0000
000001e0: 0000 0000 0000 0000 0000 0000 0000 0000
000001f0: 0000 0000 0000 0000 0000 0000 0000 0000
00000200: 0000 0000 0000 0000 0000 0000 0000 0000
00000210: 0000 0000 0000 0000 0000 0000 0000 0000
00000220: 0000 0000 0000 0000 0000 0000 0000 0000
00000230: 0000 0000 0000 0000 0000 0000 0000 0000
00000240: 0000 0000 0000 0000 0000 0000 0000 0000
00000250: 0000 0000 0000 0000 0000 0000 0000 0000
00000260: 0000 0000 0000 0000 0000 0000 0000 0000
00000270: 0000 0000 0000 0000 0000 0000 0000 0000
00000280: 0000 0000 0000 0000 0000 0000 0000 0000
00000290: 0000 0000 0000 0000 0000 0000 0000 0000
000002a0: 0000 0000 0000 0000 0000 0000 0000 0000
000002b0: 0000 0000 0000 0000 0000 0000
0.0 0.0 0.0 0.0 0.0 0.0 0.0 0.0
0.0 0.0 0.0 0.0 0.0 0.0 0.0 0.0
0.0 0.0 0.0 0.0 0.0 0.0 0.0 0.0
0.0 0.0 0.0 0.0 0.0 0.0 0.0 0.0
0.0 0.0 0.0 0.0 0.0 0.0 0.0 0.0
0.0 0.0 0.0 0.0 0.0 0.0 0.0 0.0
0.0 0.0 0.0 0.0 0.0 0.0 0.0 0.0
0.0 0.0 0.0 0.0 0.0 0.0 0.0 0.0
0.0 0.0 0.0 0.0 0.0 0.0 0.0 0.0
0.0 0.0 0.0 0.0 0.0 0.0 0.0 0.0
0.0 0.0 0.0 0.0 0.0 0.0 0.0 0.0
0.0 0.0 0.0 0.0 0.0 0.0 0.0 0.0
0.0 0.0 0.0 0.0 0.0 0.0 0.0 0.0
0.0 0.0 0.0 0.0 0.0 0.0 0.0 0.0
0.0 0.0 0.0 0.0 0.0 0.0 0.0 0.0
0.0 0.0 0.0 0.0 0.0 0.0 0.0 0.0
0.0 0.0 0.0 0.0 0.0 0.0 0.0 0.0
0.0 0.0 0.0 0.0 0.0 0.0 0.0 0.0
0.0 0.0 0.0 0.0 0.0 0.0 0.0 0.0
0.0 0.0 0.0 0.0 0.0 0.0 0.0 0.0
0.0 0.0 0.0 0.0 0.0 0.0 0.0 0.0
0.0 0.0 0.0 0.0 0.0 0.0 0.0

_ei_mask f4 [175]
00000000: 0000 803f 0000 803f 0000 803f 0000 803f
00000010: 0000 803f 0000 803f 0000 803f 0000 803f
00000020: 0000 803f 0000 803f 0000 803f 0000 803f
00000030: 0000 803f 0000 803f 0000 803f 0000 803f
00000040: 0000 803f 0000 803f 0000 803f 0000 803f
00000050: 0000 803f 0000 803f 0000 803f 0000 803f
00000060: 0000 803f 0000 803f 0000 803f 0000 803f
00000070: 0000 803f 0000 803f 0000 803f 0000 803f
00000080: 0000 803f 0000 803f 0000 803f 0000 803f
00000090: 0000 803f 0000 803f 0000 803f 0000 803f
000000a0: 0000 803f 0000 803f 0000 803f 0000 803f
000000b0: 0000 803f 0000 803f 0000 803f 0000 803f
000000c0: 0000 803f 0000 803f 0000 803f 0000 803f
000000d0: 0000 803f 0000 803f 0000 803f 0000 803f
000000e0: 0000 803f 0000 803f 0000 803f 0000 803f
000000f0: 0000 803f 0000 803f 0000 803f 0000 803f
00000100: 0000 803f 0000 803f 0000 803f 0000 803f
00000110: 0000 803f 0000 803f 0000 803f 0000 803f
00000120: 0000 803f 0000 803f 0000 803f 0000 803f
00000130: 0000 803f 0000 803f 0000 803f 0000 803f
00000140: 0000 803f 0000 803f 0000 803f 0000 803f
00000150: 0000 803f 0000 803f 0000 803f 0000 803f
00000160: 0000 803f 0000 803f 0000 803f 0000 803f
00000170: 0000 803f 0000 803f 0000 803f 0000 803f
00000180: 0000 803f 0000 803f 0000 803f 0000 803f
00000190: 0000 803f 0000 803f 0000 803f 0000 803f
000001a0: 0000 803f 0000 803f 0000 803f 0000 803f
000001b0: 0000 803f 0000 803f 0000 803f 0000 803f
000001c0: 0000 803f 0000 803f 0000 803f 0000 803f
000001d0: 0000 803f 0000 803f 0000 803f 0000 803f
000001e0: 0000 803f 0000 803f 0000 803f 0000 803f
000001f0: 0000 803f 0000 803f 0000 803f 0000 803f
00000200: 0000 803f 0000 803f 0000 803f 0000 803f
00000210: 0000 803f 0000 803f 0000 803f 0000 803f
00000220: 0000 803f 0000 803f 0000 803f 0000 803f
00000230: 0000 803f 0000 803f 0000 803f 0000 803f
00000240: 0000 803f 0000 803f 0000 803f 0000 803f
00000250: 0000 803f 0000 803f 0000 803f 0000 803f
00000260: 0000 803f 0000 803f 0000 803f 0000 803f
00000270: 0000 803f 0000 803f 0000 803f 0000 803f
00000280: 0000 803f 0000 803f 0000 803f 0000 803f
00000290: 0000 803f 0000 803f 0000 803f 0000 803f
000002a0: 0000 803f 0000 803f 0000 803f 0000 803f
000002b0: 0000 803f 0000 803f 0000 803f
1.0 1.0 1.0 1.0 1.0 1.0 1.0 1.0
1.0 1.0 1.0 1.0 1.0 1.0 1.0 1.0
1.0 1.0 1.0 1.0 1.0 1.0 1.0 1.0
1.0 1.0 1.0 1.0 1.0 1.0 1.0 1.0
1.0 1.0 1.0 1.0 1.0 1.0 1.0 1.0
1.0 1.0 1.0 1.0 1.0 1.0 1.0 1.0
1.0 1.0 1.0 1.0 1.0 1.0 1.0 1.0
1.0 1.0 1.0 1.0 1.0 1.0 1.0 1.0
1.0 1.0 1.0 1.0 1.0 1.0 1.0 1.0
1.0 1.0 1.0 1.0 1.0 1.0 1.0 1.0
1.0 1.0 1.0 1.0 1.0 1.0 1.0 1.0
1.0 1.0 1.0 1.0 1.0 1.0 1.0 1.0
1.0 1.0 1.0 1.0 1.0 1.0 1.0 1.0
1.0 1.0 1.0 1.0 1.0 1.0 1.0 1.0
1.0 1.0 1.0 1.0 1.0 1.0 1.0 1.0
1.0 1.0 1.0 1.0 1.0 1.0 1.0 1.0
1.0 1.0 1.0 1.0 1.0 1.0 1.0 1.0
1.0 1.0 1.0 1.0 1.0 1.0 1.0 1.0
1.0 1.0 1.0 1.0 1.0 1.0 1.0 1.0
1.0 1.0 1.0 1.0 1.0 1.0 1.0 1.0
1.0 1.0 1.0 1.0 1.0 1.0 1.0 1.0
1.0 1.0 1.0 1.0 1.0 1.0 1.0

weight f4 [2, 175]
00000000: ff27 3040 b96b c23f 2689 813f 0d7c 4b40
00000010: d4bf da3f bfcb 0840 c264 cb3f 7019 7140
00000020: 0ba8 0e3f 882d 3b40 6bd8 2d3f 13af 4f3f
00000030: d77c b03e dfa9 ec3e f0ef 36bd 0b81 573f
00000040: d946 733e 7939 963f f817 a33d 45d9 f53f
00000050: 2ed8 d13f 716d f23f 9366 dc3f 5897 5a3f
00000060: 54ec 9040 3966 6f40 50c1 92bf 9a2f c13f
00000070: d5cb 453f fc26 3f40 5427 0d40 cc8b 1ebf
00000080: 980c b03e 56c5 f63e 0a82 f73f 95ff 3140
00000090: 7b9a 0c40 000a 2c3f c725 fc3e 3932 303f
000000a0: 9a8b ec3f daf1 2740 0dd7 823f bd87 1abf
000000b0: 3116 4a3f 6015 ea3c 7488 643f eb61 313f
000000c0: 6f4b 113e 95ff a73f 65f4 623f 0291 013f
000000d0: 7fe7 413f 8789 0440 574b 743f c1ae 60bf
000000e0: c553 b03f ccb7 20bf f786 a13f 71cd 853e
000000f0: 545e b83f 7be7 693f 7b54 b23f d673 0340
00000100: fdc4 fa3e 877c 013f 31ac 303f 8d41 09bf
00000110: eeb4 533f 8850 bd3f 8501 433f 34f7 b73f
00000120: 5528 dd3f f76a 25bf c2dd 7e3f 49ed 03be
00000130: 60f3 643c 8706 a93f 27aa f0be 992d 913f
00000140: 0c28 ce3f 82ab c03f 8dfe 92bd f737 c73f
00000150: f340 e0bd e059 a43f 680a 2a40 5c68 6140
00000160: aa29 9b3e d832 a53f 6bf6 1140 35cf d13f
00000170: c077 ac3f d382 1240 e0e7 b13f 05c6 7b3f
00000180: eac0 c93f cd1a 833f 1a8d fe3f a7b2 313e
00000190: 1c58 5d3e d489 36bf 4ae2 8d3f eee2 be3f
000001a0: 4a60 1d3f 9d22 bb3f 16ed 0abf 1449 c63f
000001b0: d3c6 493f f8a1 1c40 d45f fc3e 1503 0340
000001c0: d85a f23e 5e62 8e3f ed42 cb3c 259b c23f
000001d0: 5bcf 42be 8c35 993f 5f1a fc3f e9df ad3f
000001e0: 0119 3340 8258 c73f 1141 303f 9918 0340
000001f0: 8436 4140 252e b63f c3a0 cf3e e027 8a3f
00000200: 5825 65bb b163 603e 5468 04be 4cc7 473f
00000210: 6934 7ebc 6e4a b23f 3207 243f d6b8 693f
00000220: 7631 a13f 7d37 8b3f 8e7e e23f 30ab 3f3f
00000230: 3147 5d3f 0ae8 003f 5bfc 0040 0c0e f83f
00000240: 8ebe 453f a197 f7bd 4238 a03f 4987 4f3e
00000250: afce f83f 86f5 a43e 9efc 40bc f67c 263f
00000260: 3701 cd3f 59c1 3b3f bdcd 1640 fb7d b23f
00000270: 32fd 1d3f 8433 0a40 82ed 9b3d 3979 8cbe
00000280: d34a f33f 3a64 9b3f 0070 c63f db0b 94bd
00000290: 3aa0 be3f 97dc d83f f689 e13e dcaa c33f
000002a0: 656a ad3e 9d5c fa3f 5559 843f 29cd c83f
000002b0: 9ae5 d23f 842b eabe 9b97 5e3f 33a9 3f3f
000002c0: 040f ea3f a8ad 583f 356b 2540 2c0a 873e
000002d0: edda 0b40 fe1f 8a3f 5bf6 2540 4cd2 52be
000002e0: c787 c13f 0074 933f d3bc 2d3f fec7 b63f
000002f0: 07b4 78bd cae7 cbbe ee2a f33e 47c4 9fbe
00000300: 7b4b 8f3f 581d 9cbe f7e1 d03f ef19 ac3f
00000310: 90ab 1140 d621 c73f 1258 333f 7ff5 863f
00000320: 62c9 1c40 5dfb 8bbf 6e3a 1e40 ec83 e93f
00000330: 6b3a 5540 ad71 ad3f 86ee 17bf fce2 d93e
00000340: 4e84 cebe 9ea8 b43f f957 1140 b8c1 0740
00000350: 462e 523f 3cf0 50be 8fb2 553f d2ef b13e
00000360: c8cc 0140 8fa7 543e c66d 753e 2daf b83d
00000370: 62f4 943f b02e 723f 3e98 b63e 4baa 3dbe
00000380: e33b 4a3b e225 6dbf 2015 88bf 1418 8f3d
00000390: b036 b83f c46f 343f 74a9 b33e f998 a53f
000003a0: 11c0 38bf 7a7e 363f 2639 b4bf 6ebf 883f
000003b0: dc2b 583f 8bef 343f 431e 4340 e9f1 5d3f
000003c0: 5d24 ec3e 5b43 8a3f df1d cebd 636a 553f
000003d0: ba80 8f3f 589a 793f dde1 a33f 7c03 c93f
000003e0: 4f8a 90be 9a16 6c3f 64ee bd3b 7884 273e
000003f0: 42d8 a03f a7df 1abf 3345 ba3e 53f5 ac3f
2.7524412 1.5189124 1.0119979 3.1794465 1.7089791 2.1374357 1.5890124 3.7671776
0.55725163 2.924654 0.6790835 0.8112652 0.34470245 0.4622335 -0.044662416 0.8418128
0.23757495 1.1736289 0.07963556 1.920693 1.6394098 1.8939649 1.7218803 0.8538718
4.5288486 3.7406142 -1.1465244 1.5092652 0.7726415 2.9867544 2.2055254 -0.61932063
0.34384608 0.4819743 1.933656 2.7812245 2.1969287 0.6720276 0.49247572 0.68826634
1.8480103 2.6241364 1.0221878 -0.6036337 0.7894011 0.028574646 0.8927071 0.69290036
0.14188932 1.3124872 0.88654166 0.5061189 0.7574386 2.070894 0.9542746 -0.87766653
1.3775564 -0.6278045 1.2619313 0.26133302 1.4403787 0.91368836 1.3932031 2.053945
0.48978415 0.5058064 0.69012743 -0.5361565 0.8269795 1.4790201 0.76174194 1.4372315
1.7277933 -0.6461634 0.99557126 -0.12883486 0.013974041 1.3205117 -0.47004816 1.134204
1.6105971 1.505234 -0.07177458 1.5563954 -0.10949888 1.2839928 2.6568851 3.5219946
0.30305225 1.2906141 2.2806652 1.639136 1.3474045 2.2892349 1.3898888 0.9834903
1.5761998 1.0242554 1.9886811 0.17353307 0.21615642 -0.7130406 1.1084683 1.4913003
0.6147505 1.4619938 -0.54268014 1.5491052 0.78819007 2.4473858 0.4929186 2.047063
0.47334933 1.1123769 0.024812186 1.5203596 -0.19024412 1.1969466 1.9695548 1.3583957
2.798401 1.5573885 0.68849283 2.0483763 3.0189524 1.4232832 0.4055234 1.0793419
-0.0034964886 0.21913029 -0.12930423 0.7803848 -0.015515425 1.3928964 0.6407348 0.9129766
1.2593219 1.0876309 1.7694871 0.74870586 0.86436754 0.50354064 2.0154026 1.9379287
0.7724389 -0.12089468 1.2517169 0.20266451 1.9438075 0.3221857 -0.011778979 0.65034425
1.6015996 0.733419 2.3563073 1.3944696 0.6171447 2.1593943 0.076136604 -0.27436236
1.900721 1.2139962 1.550293 -0.07228824 1.4892647 1.6942319 0.44050568 1.5286517
0.33870235 1.9559513 1.0339762 1.568761 1.6476319 -0.45736325 0.8695008 0.7486755
1.8285832 0.8463998 2.5846684 0.26374948 2.1852372 1.0791013 2.5931613 -0.20588034
1.5119561 1.1519775 0.6786625 1.4279783 -0.060718562 -0.3982528 0.4749369 -0.31204435
1.119491 -0.30491138 1.6318959 1.3445414 2.2760963 1.5557201 0.7005626 1.054367
2.4497914 -1.0936085 2.4723163 1.8243384 3.3316905 1.3550316 -0.5934833 0.42555988
-0.40335315 1.4113958 2.2709944 2.1211987 0.8210186 -0.20404142 0.83475584 0.3475328
2.0281239 0.20767044 0.23967656 0.09017787 1.163708 0.9460249 0.35663027 -0.18521993
0.003085845 -0.9263593 -1.0631447 0.069870144 1.4391689 0.7048304 0.3509022 1.2937309
-0.7216807 0.7128674 -1.407994 1.068342 0.84441924 0.70678014 3.048722 0.8669725
0.46121493 1.0801805 -0.10064291 0.8336546 1.1211159 0.97501135 1.2803303 1.5704188
-0.2823052 0.9222199 0.0057962406 0.16359127 1.2565997 -0.60497516 0.3638092 1.3512367

bias f4 [175]
00000000: 0000 0000 0000 0000 0000 0000 0000 0000
00000010: 0000 0000 0000 0000 0000 0000 0000 0000
00000020: 0000 0000 0000 0000 0000 0000 0000 0000
00000030: 0000 0000 0000 0000 0000 0000 0000 0000
00000040: 0000 0000 0000 0000 0000 0000 0000 0000
00000050: 0000 0000 0000 0000 0000 0000 0000 0000
00000060: 0000 0000 0000 0000 0000 0000 0000 0000
00000070: 0000 0000 0000 0000 0000 0000 0000 0000
00000080: 0000 0000 0000 0000 0000 0000 0000 0000
00000090: 0000 0000 0000 0000 0000 0000 0000 0000
000000a0: 0000 0000 0000 0000 0000 0000 0000 0000
000000b0: 0000 0000 0000 0000 0000 0000 0000 0000
000000c0: 0000 0000 0000 0000 0000 0000 0000 0000
000000d0: 0000 0000 0000 0000 0000 0000 0000 0000
000000e0: 0000 0000 0000 0000 0000 0000 0000 0000
000000f0: 0000 0000 0000 0000 0000 0000 0000 0000
00000100: 0000 0000 0000 0000 0000 0000 0000 0000
00000110: 0000 0000 0000 0000 0000 0000 0000 0000
00000120: 0000 0000 0000 0000 0000 0000 0000 0000
00000130: 0000 0000 0000 0000 0000 0000 0000 0000
00000140: 0000 0000 0000 0000 0000 0000 0000 0000
00000150: 0000 0000 0000 0000 0000 0000 0000 0000
00000160: 0000 0000 0000 0000 0000 0000 0000 0000
00000170: 0000 0000 0000 0000 0000 0000 0000 0000
00000180: 0000 0000 0000 0000 0000 0000 0000 0000
00000190: 0000 0000 0000 0000 0000 0000 0000 0000
000001a0: 0000 0000 0000 0000 0000 0000 0000 0000
000001b0: 0000 0000 0000 0000 0000 0000 0000 0000
000001c0: 0000 0000 0000 0000 0000 0000 0000 0000
000001d0: 0000 0000 0000 0000 0000 0000 0000 0000
000001e0: 0000 0000 0000 0000 0000 0000 0000 0000
000001f0: 0000 0000 0000 0000 0000 0000 0000 0000
00000200: 0000 0000 0000 0000 0000 0000 0000 0000
00000210: 0000 0000 0000 0000 0000 0000 0000 0000
00000220: 0000 0000 0000 0000 0000 0000 0000 0000
00000230: 0000 0000 0000 0000 0000 0000 0000 0000
00000240: 0000 0000 0000 0000 0000 0000 0000 0000
00000250: 0000 0000 0000 0000 0000 0000 0000 0000
00000260: 0000 0000 0000 0000 0000 0000 0000 0000
00000270: 0000 0000 0000 0000 0000 0000 0000 0000
00000280: 0000 0000 0000 0000 0000 0000 0000 0000
00000290: 0000 0000 0000 0000 0000 0000 0000 0000
000002a0: 0000 0000 0000 0000 0000 0000 0000 0000
000002b0: 0000 0000 0000 0000 0000 0000
0.0 0.0 0.0 0.0 0.0 0.0 0.0 0.0
0.0 0.0 0.0 0.0 0.0 0.0 0.0 0.0
0.0 0.0 0.0 0.0 0.0 0.0 0.0 0.0
0.0 0.0 0.0 0.0 0.0 0.0 0.0 0.0
0.0 0.0 0.0 0.0 0.0 0.0 0.0 0.0
0.0 0.0 0.0 0.0 0.0 0.0 0.0 0.0
0.0 0.0 0.0 0.0 0.0 0.0 0.0 0.0
0.0 0.0 0.0 0.0 0.0 0.0 0.0 0.0
0.0 0.0 0.0 0.0 0.0 0.0 0.0 0.0
0.0 0.0 0.0 0.0 0.0 0.0 0.0 0.0
0.0 0.0 0.0 0.0 0.0 0.0 0.0 0.0
0.0 0.0 0.0 0.0 0.0 0.0 0.0 0.0
0.0 0.0 0.0 0.0 0.0 0.0 0.0 0.0
0.0 0.0 0.0 0.0 0.0 0.0 0.0 0.0
0.0 0.0 0.0 0.0 0.0 0.0 0.0 0.0
0.0 0.0 0.0 0.0 0.0 0.0 0.0 0.0
0.0 0.0 0.0 0.0 0.0 0.0 0.0 0.0
0.0 0.0 0.0 0.0 0.0 0.0 0.0 0.0
0.0 0.0 0.0 0.0 0.0 0.0 0.0 0.0
0.0 0.0 0.0 0.0 0.0 0.0 0.0 0.0
0.0 0.0 0.0 0.0 0.0 0.0 0.0 0.0
0.0 0.0 0.0 0.0 0.0 0.0 0.0

_ei_mask f4 [175]
00000000: 0000 803f 0000 803f 0000 803f 0000 803f
00000010: 0000 803f 0000 803f 0000 803f 0000 803f
00000020: 0000 803f 0000 803f 0000 803f 0000 803f
00000030: 0000 803f 0000 803f 0000 803f 0000 803f
00000040: 0000 803f 0000 803f 0000 803f 0000 803f
00000050: 0000 803f 0000 803f 0000 803f 0000 803f
00000060: 0000 803f 0000 803f 0000 803f 0000 803f
00000070: 0000 803f 0000 803f 0000 803f 0000 803f
00000080: 0000 803f 0000 803f 0000 803f 0000 803f
00000090: 0000 803f 0000 803f 0000 803f 0000 803f
000000a0: 0000 803f 0000 803f 0000 803f 0000 803f
000000b0: 0000 803f 0000 803f 0000 803f 0000 803f
000000c0: 0000 803f 0000 803f 0000 803f 0000 803f
000000d0: 0000 803f 0000 803f 0000 803f 0000 803f
000000e0: 0000 803f 0000 803f 0000 803f 0000 803f
000000f0: 0000 803f 0000 803f 0000 803f 0000 803f
00000100: 0000 803f 0000 803f 0000 803f 0000 803f
00000110: 0000 803f 0000 803f 0000 803f 0000 803f
00000120: 0000 803f 0000 803f 0000 803f 0000 803f
00000130: 0000 803f 0000 803f 0000 803f 0000 803f
00000140: 0000 803f 0000 803f 0000 803f 0000 803f
00000150: 0000 803f 0000 803f 0000 803f 0000 803f
00000160: 0000 803f 0000 803f 0000 803f 0000 803f
00000170: 0000 803f 0000 803f 0000 803f 0000 803f
00000180: 0000 803f 0000 803f 0000 803f 0000 803f
00000190: 0000 803f 0000 803f 0000 803f 0000 803f
000001a0: 0000 803f 0000 803f 0000 803f 0000 803f
000001b0: 0000 803f 0000 803f 0000 803f 0000 803f
000001c0: 0000 803f 0000 803f 0000 803f 0000 803f
000001d0: 0000 803f 0000 803f 0000 803f 0000 803f
000001e0: 0000 803f 0000 803f 0000 803f 0000 803f
000001f0: 0000 803f 0000 803f 0000 803f 0000 803f
00000200: 0000 803f 0000 803f 0000 803f 0000 803f
00000210: 0000 803f 0000 803f 0000 803f 0000 803f
00000220: 0000 803f 0000 803f 0000 803f 0000 803f
00000230: 0000 803f 0000 803f 0000 803f 0000 803f
00000240: 0000 803f 0000 803f 0000 803f 0000 803f
00000250: 0000 803f 0000 803f 0000 803f 0000 803f
00000260: 0000 803f 0000 803f 0000 803f 0000 803f
00000270: 0000 803f 0000 803f 0000 803f 0000 803f
00000280: 0000 803f 0000 803f 0000 803f 0000 803f
00000290: 0000 803f 0000 803f 0000 803f 0000 803f
000002a0: 0000 803f 0000 803f 0000 803f 0000 803f
000002b0: 0000 803f 0000 803f 0000 803f
1.0 1.0 1.0 1.0 1.0 1.0 1.0 1.0
1.0 1.0 1.0 1.0 1.0 1.0 1.0 1.0
1.0 1.0 1.0 1.0 1.0 1.0 1.0 1.0
1.0 1.0 1.0 1.0 1.0 1.0 1.0 1.0
1.0 1.0 1.0 1.0 1.0 1.0 1.0 1.0
1.0 1.0 1.0 1.0 1.0 1.0 1.0 1.0
1.0 1.0 1.0 1.0 1.0 1.0 1.0 1.0
1.0 1.0 1.0 1.0 1.0 1.0 1.0 1.0
1.0 1.0 1.0 1.0 1.0 1.0 1.0 1.0
1.0 1.0 1.0 1.0 1.0 1.0 1.0 1.0
1.0 1.0 1.0 1.0 1.0 1.0 1.0 1.0
1.0 1.0 1.0 1.0 1.0 1.0 1.0 1.0
1.0 1.0 1.0 1.0 1.0 1.0 1.0 1.0
1.0 1.0 1.0 1.0 1.0 1.0 1.0 1.0
1.0 1.0 1.0 1.0 1.0 1.0 1.0 1.0
1.0 1.0 1.0 1.0 1.0 1.0 1.0 1.0
1.0 1.0 1.0 1.0 1.0 1.0 1.0 1.0
1.0 1.0 1.0 1.0 1.0 1.0 1.0 1.0
1.0 1.0 1.0 1.0 1.0 1.0 1.0 1.0
1.0 1.0 1.0 1.0 1.0 1.0 1.0 1.0
1.0 1.0 1.0 1.0 1.0 1.0 1.0 1.0
1.0 1.0 1.0 1.0 1.0 1.0 1.0

weight f4 [175, 3]
00000000: 24ce a540 fd6e 99c0 d757 b73e e05a 13c0
00000010: 535c 05be 9d06 8540 3e9f 51c0 26e7 5ec0
00000020: 3440 5a3f 6679 2641 c1e2 d2c0 6cbc 0b40
00000030: ee59 0a40 04e0 ac40 b90a 4cc0 f74d 68c0
00000040: b461 21c0 6a4c 11c0 0eb1 9fc0 a735 fb3d
00000050: 69e8 bd40 5973 50be b67b 043f 8257 1e3e
00000060: 4dd0 77be 99a9 8f40 4117 efc0 d2bc fe3f
00000070: 08bb f0be bbd6 8a3f 63db 953f 1a05 ea3f
00000080: 003f e4bf 2c06 4fc0 ceaa 753e f272 f840
00000090: 7cde 92c0 a808 8fbb 199f 36c1 77e4 af3f
000000a0: 2081 1740 0f21 dfbe 7446 7d3e 14f5 223f
000000b0: fc0f 8940 8775 2c40 be20 b140 2cc4 7c3f
000000c0: 97c0 9bbf ae39 adbf 4119 c240 93ae 3040
000000d0: 2817 6e3f 1b17 18c0 52a1 9c3f 2090 dd3f
000000e0: 4e43 9340 f14c a5bf dcd6 753e 6883 c03f
000000f0: 4c45 3d40 3313 63c0 bb94 a63e bbc1 2d40
00000100: ea2c e4c0 5dbc dfbe 2a81 5940 a7f2 0ec0
00000110: 28b6 56bf b1b1 cac0 5518 d7bf 2651 0140
00000120: 432b 9f3f 85ba 3b40 66b6 d5c0 6a49 c43f
00000130: e7e4 8b3f 5697 2941 47a2 d6bf 5c9a 9540
00000140: af70 e0bf dfb1 c840 7944 d2bf b466 efbf
00000150: c86e 7240 0878 8ebf 5a71 1b40 d93c 35c0
00000160: b8e3 2fc0 1791 88bf f9d7 5a40 bc19 a7bf
00000170: e812 33c0 fe31 a3c0 b640 e240 d861 1e40
00000180: 2f06 2ac0 d1be a23f 34fa 54c0 840c e140
00000190: 5880 ee3f 4f53 dc3e ae98 b840 0365 50bf
000001a0: 8628 9bbd 5682 97c0 1dbb 703f 07a9 c540
000001b0: 2e01 5840 f163 13c1 52c6 873f 76bc 23c0
000001c0: b108 f0bf 78b4 763f 2231 81c0 ea11 8c40
000001d0: a018 35bc 61a8 7540 8ce4 3a40 1282 29bf
000001e0: 63b4 8ac0 a364 0cc0 65b9 4d40 0e3d ecbf
000001f0: be9e 7bc0 fce3 a33f cf48 ccbf 7054 44c0
00000200: f70c eabf cedd 94bf 6ec1 a23f a050 d3bf
00000210: 1d18 4540 5bab 0341 26c6 10c0 1e4f a13e
00000220: 200c aabe a2c1 993f 15af 2340 67cb 14c0
00000230: 6ddf 0ac0 c65f a0c0 5327 0640 9eef 46bf
00000240: a391 2dc0 8efb e63f 1a2c 9abe bec7 06c0
00000250: c756 83be b651 4140 39b3 88c0 02f5 ff40
00000260: 92b2 2ac1 cb36 e8c0 9da3 7240 6992 58c1
00000270: a3ef 9ebf 9728 afbe 6c43 24bf 1a6e 2b40
00000280: 8894 62bf 1fed 19c0 da59 8440 3d9e c2c0
00000290: 2cc3 25bf ff8e 0ac1 6929 b340 3ed6 5cbf
000002a0: 373f 18c0 7881 dbbf 3bfb abbe 645f b9c0
000002b0: b348 5040 f7d6 1840 1154 e1bf 5657 adc0
000002c0: 8bfb 3c40 f328 763e 13c6 9a40 7240 be40
000002d0: 39de 5240 e599 48c0 b048 47c0 e8d9 13c0
000002e0: 8fa8 10bf 7555 873f 3025 e2bf cdfd f6bf
000002f0: 985c de3f 2619 5ebf 4341 8fc0 0133 8bc0
00000300: 90bc 4d40 c91b 9140 e31d 0240 703c a9bf
00000310: a557 babf 627f 233e 8460 02bf 7165 a5bf
00000320: 4d37 5d40 6b6e d23f 833a 8140 d586 b8bf
00000330: a80f 3240 098a 66c0 8168 cdbf 5d77 a5bf
00000340: 6974 0f3f 95f4 1640 865c c440 e073 a2bf
00000350: af90 3a40 9e4e 84c0 4580 b2c0 b10e 7d3f
00000360: 5051 8040 49f2 e8c0 8dbf b4bf 7932 afc0
00000370: c5c3 1b40 418d bf40 3e8c 02bf 5dff b9c0
00000380: de80 0bc0 3fe6 89c0 0138 f13f 7e5e a540
00000390: 754a 46c0 d2e7 be3e 1f97 a740 c888 2340
000003a0: f383 a8c0 2d75 a8c0 f4c5 a43f 2f4e 8640
000003b0: f2bb ba40 66be 9abf 28ec 7740 3e46 4abe
000003c0: c4be 22c0 5847 54c0 0f41 f93f e2c4 bf3e
000003d0: f7f8 5a40 ae5e 8240 80d6 a0c0 3d15 0340
000003e0: cc10 c440 3e55 5640 1e6e 6b40 b2d0 81c0
000003f0: 350a 6cc0 5b2e 1740 c4a7 b940 a341 1ac0
5.1814137 -4.7947984 0.35809204 -2.3024216 -0.130235 4.1570573 -3.2753444 -3.4828582
0.85254216 10.404638 -6.59018 2.1833754 2.1617389 5.4023457 -3.1881545 -3.6297586
-2.5215883 -2.270289 -4.990363 0.12266093 5.9346204 -0.20356502 0.5175127 0.15463069
-0.24200554 4.489453 -7.4715886 1.9901373 -0.47017694 1.084678 1.1707577 1.8282807
-1.7831726 -3.2347517 0.23990938 7.7640314 -4.5896587 -0.0043650456 -11.413842 1.3741597
2.3672562 -0.4357991 0.24733907 0.6365521 4.283201 2.6946733 5.535247 0.98736835
-1.2168149 -1.3533227 6.0655828 2.7606552 0.93004084 -2.3764102 1.2236731 1.7309608
4.601966 -1.2914106 0.24007744 1.5040102 2.9573545 -3.5480468 0.32535347 2.7149494
-7.1304827 -0.43698397 3.3985085 -2.2335603 -0.838717 -6.334191 -1.68043 2.020578
1.2435077 2.9332592 -6.6785154 1.5334904 1.092923 10.599447 -1.6768273 4.6750927
-1.7534388 6.271713 -1.6427146 -1.8703218 3.7880116 -1.1130381 2.4287934 -2.8318388
-2.7482738 -1.0669278 3.419432 -1.3054729 -2.798029 -5.0998526 7.0703993 2.474722
-2.6566274 1.2714483 -3.3277712 7.032778 1.8632917 0.4303231 5.7686377 -0.8140413
-0.075760886 -4.73466 0.9403551 6.176883 3.375072 -9.2119 1.0607398 -2.5583777
-1.8752652 0.96369123 -4.0372477 4.377187 -0.011053234 3.838402 2.9201994 -0.66214097
-4.33452 -2.1936424 3.2144406 -1.8456132 -3.9315639 1.280395 -1.595972 -3.0676537
-1.8285207 -1.163019 1.271528 -1.650898 3.0795968 8.229335 -2.262094 0.31505674
-0.33212376 1.2012217 2.5575612 -2.3249147 -2.1698868 -5.011691 2.0961502 -0.77709377
-2.712014 1.8045518 -0.30111772 -2.1059413 -0.25652143 3.0206122 -4.271878 7.998658
-10.668596 -7.2566886 3.7912362 -13.535745 -1.2416881 -0.34210655 -0.6416538 2.678595
-0.8850789 -2.4050977 4.135968 -6.081816 -0.64750934 -8.659911 5.598805 -0.8626441
-2.3788583 -1.7148886 -0.3359011 -5.7928944 3.2544372 2.3881204 -1.760378 -5.416911
2.952853 0.24039058 4.836679 5.945367 3.2948134 -3.134393 -3.1138115 -2.310175
-0.565072 1.0572954 -1.7667599 -1.9296204 1.7372007 -0.86757123 -4.4767165 -4.349976
3.214634 4.5346417 2.0330741 -1.3221569 -1.4557997 0.15966561 -0.5092852 -1.2921582
3.4565003 1.6439947 4.0383925 -1.4416147 2.7822056 -3.602175 -1.6047517 -1.2927052
0.56037 2.358678 6.1362944 -1.2691612 2.9150808 -4.134597 -5.578158 0.9885054
4.009926 -7.279576 -1.4120957 -5.474911 2.4338238 5.985993 -0.5099524 -5.8124223
-2.1797404 -4.309356 1.8845216 5.1677847 -3.0982945 0.3728624 5.2371974 2.5552235
-5.266107 -5.2643037 1.287291 4.197044 5.8354425 -1.2089355 3.8737888 -0.19753358
-2.5428934 -3.3168545 1.9472979 0.37454897 3.4214456 4.0740576 -5.026184 2.0481713
6.1270504 3.3489528 3.678596 -4.0567255 -3.688123 2.3622043 5.801729 -2.4102561

bias f4 [3]
00000000: 0000 0000 0000 0000 0000 0000
0.0 0.0 0.0

_ei_mask f4 [3]
00000000: 0000 803f 0000 803f 0000 803f
1.0 1.0 1.0

weight f4 [3, 175]
00000000: 1840 043e 3390 95bd 1278 afbd a1d3 813d
00000010: aa8b adbe c2e1 8e3c 9d60 c9bd 144f a53d
00000020: 2315 823e 4759 ee3c 180e 30bd bef2 d5ba
00000030: bbc0 8bbe 6a72 a43c 14cd b7bd 6ad0 56be
00000040: 2996 c8bd 4df2 4c3d 5a04 b5bd 205d 4f3e
00000050: 4bd5 5fbb 134c d8bc fa81 e73b f710 c2bd
00000060: 67e1 6a3c 91e7 5e3e 9119 843e 8281 0b3e
00000070: 0283 2b3e 13f3 b4be ee15 533e 20db a8bd
00000080: 521d 003d ed07 f43e 3440 3cbe 9d2c f5bd
00000090: 6b81 0b3e a0ad d7bd 2170 813d 09cb 483e
000000a0: f1bc 2abe 1d32 c7bd fc16 7a3d 6a80 02bd
000000b0: ef02 06be f7fb bc3c 7266 86bc 9433 1cbe
000000c0: 6185 cabc 662a 64bd 1abf 49be 9f1e 48be
000000d0: 4d08 3ebd 9b27 103d bcac 9e3d 1980 96be
000000e0: 8385 1c3d d707 0dbe 1bae f03c 2b3b bbbc
000000f0: 743a cc3d 9a62 193c f341 97bd 9cb3 3dbe
00000100: d3d6 acbd 3e7b 033e b256 673d cf20 933c
00000110: afd7 9d3d f6ea 013d c8bf 0d3d 4d20 cebc
00000120: e846 15bb 4fb8 3fbe 1101 efbb fb30 10be
00000130: 293a 34be fd36 c53c d02d 33be 7cf5 babd
00000140: 0d47 8fbd f4e8 95bd 19be d7bd f0dc 20be
00000150: 455f dfbd 87c0 0f3c a717 40be d59f 07be
00000160: 17c2 dcbe 7fae 1f3e 9272 36bc a623 04bd
00000170: 113d 3ebe 9242 743d 4723 093e 152f 833d
00000180: 2daf ad3d e5cd b73d 61eb 5a3c 11ee 073e
00000190: 7771 513e 9dd8 9d3e 8dfe a5be 641c c4bd
000001a0: f49f 673c 399c 9cbe bb44 893e fe1d 10b9
000001b0: 1a9f 9fbd 6db5 fc3d 1682 79be e929 85bd
000001c0: cf60 3d3e f096 063d 9134 0c3e b924 873c
000001d0: 8841 533e 84e0 f63b 1e85 f63d 7ff6 523d
000001e0: ba71 063e fc9c 82bb d954 edbc 1dbc d3bd
000001f0: 670e f43d 2090 5abd ab82 583d 819b 0abc
00000200: c1b9 f33c 6350 233e 7d8d fc3c 84b4 e2bd
00000210: ca78 143e 0b81 863d df0f 63bd a095 3e3d
00000220: edd5 913d b16d f93c 1899 a7bd 3b64 083d
00000230: 1180 273d fdbb 6d3e 1ec4 923d 2138 1cbc
00000240: 60a2 c13c a351 523d 0662 3e3d a3b6 8f3a
00000250: f667 9c3d 3357 81bc e500 abba 9b6a 1a3d
00000260: 970d 0f3c 9072 083d 793e f3bd d60b b8bd
00000270: c7ba 983d ab55 40be 6a2d 413d 330b d13e
00000280: 0596 4f3d c506 373e 9fe1 da3e d265 163e
00000290: 6015 61bb 4e87 3cbe 6615 f1bd 1f1a e3bc
000002a0: ee3e 4d3d f278 f7bd 443f 1bbe 4845 93bb
000002b0: 09a3 af3b 1420 103e 7dd3 303d 12ba a7bd
000002c0: 4649 5d3d 50e6 82bd 4535 81be bfe6 55be
000002d0: b717 673c ce29 933d afca 843d 0c75 8e3e
000002e0: 6fd1 093e ca35 b83c 80f2 bb3d bd0c ffbc
000002f0: 19e2 4d3d ad26 9cbc e8b6 083d 24d5 00bd
00000300: 3ddd 8ebd 0421 acbc e15a 7a3e d207 40be
00000310: 90fa 41be 94e5 19bc 0b8b 70bd 48da f43d
00000320: 50c3 1b3e 0ed0 ce3e bf26 9bba ebbf c53d
00000330: 467c 8bbe a132 793c 7dbc 3a3e ba4c 183e
00000340: 826d e13e 31be 99be c4b1 11bd 786e 12be
00000350: e19b 30bd ff91 5a3e 636b 403e f772 e0bc
00000360: 45bd 17be 4f89 a5bb 2e53 b73d f8d8 853d
00000370: 4c0b 6c3d b0ca aabd 9e21 62bd 29bf 3a3d
00000380: 5b22 24bd d809 bb3d 3022 f83d d5ed 063d
00000390: f83e d7bd f306 72bd 0b41 5abc afe9 63bd
000003a0: 8c30 313e ab80 cdbd ecf6 843e 2289 a5bd
000003b0: b683 8cbd dadd f5bd f487 a1be b640 83bd
000003c0: 1cdb ad3d 9ab2 d13b 7cdb 043e b572 bfbc
000003d0: 3b92 203d 058f 56bd 2f95 90bc 61ed 8abc
000003e0: 7d39 1e3d 5d74 293b bf67 223d c14b aabb
000003f0: 1475 183b 1f80 233d 6366 3e3d 4a75 8bbd
0.12915075 -0.073028944 -0.085678235 0.06339193 -0.33895618 0.017441634 -0.09832881 0.080717236
0.2540675 0.029095305 -0.04298219 -0.0016322953 -0.2729548 0.020074088 -0.089746624 -0.20977941
-0.09794266 0.050035764 -0.088387206 0.20250368 -0.0034154232 -0.026403463 0.007065055 -0.09475892
0.014335967 0.21768023 0.25800756 0.13623622 0.16749194 -0.353417 0.20613834 -0.0824492
0.031277962 0.47662297 -0.18383867 -0.119714 0.13623588 -0.10531163 0.06320215 0.19608702
-0.16673638 -0.09726355 0.061057076 -0.031860746 -0.13087057 0.023069365 -0.016406272 -0.1525405
-0.024721803 -0.055704497 -0.19701806 -0.19542931 -0.046394635 0.03519402 0.0774779 -0.29394606
0.038213264 -0.13772522 0.029379895 -0.022855362 0.099720865 0.009361887 -0.07385626 -0.18525547
-0.08439412 0.12839982 0.056479163 0.01795998 0.07707154 0.031718217 0.034606725 -0.025161887
-0.002277786 -0.18722652 -0.0072938283 -0.14081185 -0.17600311 0.024074072 -0.17497945 -0.09128854
-0.06995974 -0.07319823 -0.10534305 -0.15709281 -0.10906843 0.008773929 -0.18759023 -0.13244565
-0.4311683 0.15593909 -0.011135714 -0.03226056 -0.18577982 0.0596338 0.13392363 0.064054646
0.08480678 0.08974818 0.013361783 0.13274409 0.2045344 0.30829325 -0.3242077 -0.095757276
0.014137257 -0.30587938 0.2681025 -0.00013744083 -0.07794018 0.12339292 -0.2436603 -0.06502134
0.18493961 0.03285879 0.13691927 0.016497003 0.20630467 0.0075340886 0.12037109 0.05150461
0.1312932 -0.003985999 -0.028971123 -0.10338614 0.119168095 -0.053360105 0.05285899 -0.008459927
0.02975166 0.15948634 0.030829186 -0.11069587 0.14499202 0.06567582 -0.055435058 0.046529412
0.07120881 0.030447813 -0.08183497 0.033298712 0.040893618 0.23216243 0.07166313 -0.009534867
0.023636997 0.051347386 0.0464802 0.0010964464 0.076370165 -0.01578865 -0.0013046531 0.037699323
0.008731267 0.03331238 -0.1187715 -0.089866325 0.074575 -0.1878268 0.04716245 0.40828857
0.05068018 0.17873676 0.4275026 0.14687279 -0.0034345016 -0.1841099 -0.117716596 -0.027722416
0.050108843 -0.12083615 -0.15160853 -0.004494343 0.0053600115 0.14074737 0.04317044 -0.08189787
0.054024957 -0.06391585 -0.25235954 -0.20888804 0.014104775 0.07185708 0.06483971 0.27823675
0.13458799 0.022486586 0.091771126 -0.031134004 0.05026445 -0.01906141 0.033377558 -0.031453267
-0.069757916 -0.021011837 0.2444873 -0.18752983 -0.18943238 -0.009393115 -0.05872635 0.11955696
0.15211225 0.40393108 -0.0011837109 0.09655746 -0.2724325 0.015209825 0.18235965 0.14873019
0.4402886 -0.30027917 -0.03556992 -0.14299953 -0.043117408 0.21344756 0.18790965 -0.02739857
-0.14818294 -0.005051769 0.08951412 0.06535524 0.05762796 -0.08339441 -0.05520784 0.04559246
-0.040071826 0.09132737 0.12115896 0.032941658 -0.10510057 -0.05908866 -0.0133211715 -0.05564278
0.17303675 -0.10034307 0.25969636 -0.08082797 -0.06861059 -0.120052055 -0.31549037 -0.06408827
0.084890574 0.006399465 0.12974352 -0.023370126 0.039201956 -0.052382488 -0.017649261 -0.016958894
0.038629044 0.0025856711 0.03964972 -0.005197019 0.0023263143 0.039917108 0.046484362 -0.068094805

bias f4 [175]
00000000: 0000 0000 0000 0000 0000 0000 0000 0000
00000010: 0000 0000 0000 0000 0000 0000 0000 0000
00000020: 0000 0000 0000 0000 0000 0000 0000 0000
00000030: 0000 0000 0000 0000 0000 0000 0000 0000
00000040: 0000 0000 0000 0000 0000 0000 0000 0000
00000050: 0000 0000 0000 0000 0000 0000 0000 0000
00000060: 0000 0000 0000 0000 0000 0000 0000 0000
00000070: 0000 0000 0000 0000 0000 0000 0000 0000
00000080: 0000 0000 0000 0000 0000 0000 0000 0000
00000090: 0000 0000 0000 0000 0000 0000 0000 0000
000000a0: 0000 0000 0000 0000 0000 0000 0000 0000
000000b0: 0000 0000 0000 0000 0000 0000 0000 0000
000000c0: 0000 0000 0000 0000 0000 0000 0000 0000
000000d0: 0000 0000 0000 0000 0000 0000 0000 0000
000000e0: 0000 0000 0000 0000 0000 0000 0000 0000
000000f0: 0000 0000 0000 0000 0000 0000 0000 0000
00000100: 0000 0000 0000 0000 0000 0000 0000 0000
00000110: 0000 0000 0000 0000 0000 0000 0000 0000
00000120: 0000 0000 0000 0000 0000 0000 0000 0000
00000130: 0000 0000 0000 0000 0000 0000 0000 0000
00000140: 0000 0000 0000 0000 0000 0000 0000 0000
00000150: 0000 0000 0000 0000 0000 0000 0000 0000
00000160: 0000 0000 0000 0000 0000 0000 0000 0000
00000170: 0000 0000 0000 0000 0000 0000 0000 0000
00000180: 0000 0000 0000 0000 0000 0000 0000 0000
00000190: 0000 0000 0000 0000 0000 0000 0000 0000
000001a0: 0000 0000 0000 0000 0000 0000 0000 0000
000001b0: 0000 0000 0000 0000 0000 0000 0000 0000
000001c0: 0000 0000 0000 0000 0000 0000 0000 0000
000001d0: 0000 0000 0000 0000 0000 0000 0000 0000
000001e0: 0000 0000 0000 0000 0000 0000 0000 0000
000001f0: 0000 0000 0000 0000 0000 0000 0000 0000
00000200: 0000 0000 0000 0000 0000 0000 0000 0000
00000210: 0000 0000 0000 0000 0000 0000 0000 0000
00000220: 0000 0000 0000 0000 0000 0000 0000 0000
00000230: 0000 0000 0000 0000 0000 0000 0000 0000
00000240: 0000 0000 0000 0000 0000 0000 0000 0000
00000250: 0000 0000 0000 0000 0000 0000 0000 0000
00000260: 0000 0000 0000 0000 0000 0000 0000 0000
00000270: 0000 0000 0000 0000 0000 0000 0000 0000
00000280: 0000 0000 0000 0000 0000 0000 0000 0000
00000290: 0000 0000 0000 0000 0000 0000 0000 0000
000002a0: 0000 0000 0000 0000 0000 0000 0000 0000
000002b0: 0000 0000 0000 0000 0000 0000
0.0 0.0 0.0 0.0 0.0 0.0 0.0 0.0
0.0 0.0 0.0 0.0 0.0 0.0 0.0 0.0
0.0 0.0 0.0 0.0 0.0 0.0 0.0 0.0
0.0 0.0 0.0 0.0 0.0 0.0 0.0 0.0
0.0 0.0 0.0 0.0 0.0 0.0 0.0 0.0
0.0 0.0 0.0 0.0 0.0 0.0 0.0 0.0
0.0 0.0 0.0 0.0 0.0 0.0 0.0 0.0
0.0 0.0 0.0 0.0 0.0 0.0 0.0 0.0
0.0 0.0 0.0 0.0 0.0 0.0 0.0 0.0
0.0 0.0 0.0 0.0 0.0 0.0 0.0 0.0
0.0 0.0 0.0 0.0 0.0 0.0 0.0 0.0
0.0 0.0 0.0 0.0 0.0 0.0 0.0 0.0
0.0 0.0 0.0 0.0 0.0 0.0 0.0 0.0
0.0 0.0 0.0 0.0 0.0 0.0 0.0 0.0
0.0 0.0 0.0 0.0 0.0 0.0 0.0 0.0
0.0 0.0 0.0 0.0 0.0 0.0 0.0 0.0
0.0 0.0 0.0 0.0 0.0 0.0 0.0 0.0
0.0 0.0 0.0 0.0 0.0 0.0 0.0 0.0
0.0 0.0 0.0 0.0 0.0 0.0 0.0 0.0
0.0 0.0 0.0 0.0 0.0 0.0 0.0 0.0
0.0 0.0 0.0 0.0 0.0 0.0 0.0 0.0
0.0 0.0 0.0 0.0 0.0 0.0 0.0

_ei_mask f4 [175]
00000000: 0000 803f 0000 803f 0000 803f 0000 803f
00000010: 0000 803f 0000 803f 0000 803f 0000 803f
00000020: 0000 803f 0000 803f 0000 803f 0000 803f
00000030: 0000 803f 0000 803f 0000 803f 0000 803f
00000040: 0000 803f 0000 803f 0000 803f 0000 803f
00000050: 0000 803f 0000 803f 0000 803f 0000 803f
00000060: 0000 803f 0000 803f 0000 803f 0000 803f
00000070: 0000 803f 0000 803f 0000 803f 0000 803f
00000080: 0000 803f 0000 803f 0000 803f 0000 803f
00000090: 0000 803f 0000 803f 0000 803f 0000 803f
000000a0: 0000 803f 0000 803f 0000 803f 0000 803f
000000b0: 0000 803f 0000 803f 0000 803f 0000 803f
000000c0: 0000 803f 0000 803f 0000 803f 0000 803f
000000d0: 0000 803f 0000 803f 0000 803f 0000 803f
000000e0: 0000 803f 0000 803f 0000 803f 0000 803f
000000f0: 0000 803f 0000 803f 0000 803f 0000 803f
00000100: 0000 803f 0000 803f 0000 803f 0000 803f
00000110: 0000 803f 0000 803f 0000 803f 0000 803f
00000120: 0000 803f 0000 803f 0000 803f 0000 803f
00000130: 0000 803f 0000 803f 0000 803f 0000 803f
00000140: 0000 803f 0000 803f 0000 803f 0000 803f
00000150: 0000 803f 0000 803f 0000 803f 0000 803f
00000160: 0000 803f 0000 803f 0000 803f 0000 803f
00000170: 0000 803f 0000 803f 0000 803f 0000 803f
00000180: 0000 803f 0000 803f 0000 803f 0000 803f
00000190: 0000 803f 0000 803f 0000 803f 0000 803f
000001a0: 0000 803f 0000 803f 0000 803f 0000 803f
000001b0: 0000 803f 0000 803f 0000 803f 0000 803f
000001c0: 0000 803f 0000 803f 0000 803f 0000 803f
000001d0: 0000 803f 0000 803f 0000 803f 0000 803f
000001e0: 0000 803f 0000 803f 0000 803f 0000 803f
000001f0: 0000 803f 0000 803f 0000 803f 0000 803f
00000200: 0000 803f 0000 803f 0000 803f 0000 803f
00000210: 0000 803f 0000 803f 0000 803f 0000 803f
00000220: 0000 803f 0000 803f 0000 803f 0000 803f
00000230: 0000 803f 0000 803f 0000 803f 0000 803f
00000240: 0000 803f 0000 803f 0000 803f 0000 803f
00000250: 0000 803f 0000 803f 0000 803f 0000 803f
00000260: 0000 803f 0000 803f 0000 803f 0000 803f
00000270: 0000 803f 0000 803f 0000 803f 0000 803f
00000280: 0000 803f 0000 803f 0000 803f 0000 803f
00000290: 0000 803f 0000 803f 0000 803f 0000 803f
000002a0: 0000 803f 0000 803f 0000 803f 0000 803f
000002b0: 0000 803f 0000 803f 0000 803f
1.0 1.0 1.0 1.0 1.0 1.0 1.0 1.0
1.0 1.0 1.0 1.0 1.0 1.0 1.0 1.0
1.0 1.0 1.0 1.0 1.0 1.0 1.0 1.0
1.0 1.0 1.0 1.0 1.0 1.0 1.0 1.0
1.0 1.0 1.0 1.0 1.0 1.0 1.0 1.0
1.0 1.0 1.0 1.0 1.0 1.0 1.0 1.0
1.0 1.0 1.0 1.0 1.0 1.0 1.0 1.0
1.0 1.0 1.0 1.0 1.0 1.0 1.0 1.0
1.0 1.0 1.0 1.0 1.0 1.0 1.0 1.0
1.0 1.0 1.0 1.0 1.0 1.0 1.0 1.0
1.0 1.0 1.0 1.0 1.0 1.0 1.0 1.0
1.0 1.0 1.0 1.0 1.0 1.0 1.0 1.0
1.0 1.0 1.0 1.0 1.0 1.0 1.0 1.0
1.0 1.0 1.0 1.0 1.0 1.0 1.0 1.0
1.0 1.0 1.0 1.0 1.0 1.0 1.0 1.0
1.0 1.0 1.0 1.0 1.0 1.0 1.0 1.0
1.0 1.0 1.0 1.0 1.0 1.0 1.0 1.0
1.0 1.0 1.0 1.0 1.0 1.0 1.0 1.0
1.0 1.0 1.0 1.0 1.0 1.0 1.0 1.0
1.0 1.0 1.0 1.0 1.0 1.0 1.0 1.0
1.0 1.0 1.0 1.0 1.0 1.0 1.0 1.0
1.0 1.0 1.0 1.0 1.0 1.0 1.0
