checkpoints/version125/model.pt (torch, 41468 bytes, 19 tensors)

bias f4 [175]
1.176172 2.2835279 -0.62433326 1.3078587 0.03363765 1.9116375 1.9619418 2.6049619
1.6148232 3.0080745 1.3457576 1.5405133 0.1549819 -0.11211859 0.022085546 2.191215
-0.05059262 -0.06323788 -0.033295106 2.7835605 0.29462302 1.4478623 1.5654514 -0.4016703
-1.7974513 3.4288654 0.97961664 1.4151857 1.0250045 2.5952315 0.51245815 0.03976314
1.2079531 0.07056285 0.62490964 3.7347658 0.7028213 1.092279 1.8080285 1.4330995
2.1811383 1.5304117 0.19755308 0.38674477 1.5969607 -0.19576743 0.47863308 0.17875284
0.32007912 0.2983999 0.552549 0.50893176 1.0457611 0.21937828 0.23711221 1.2944893
-0.37572756 0.6935055 0.16506144 -0.36620536 -0.08233831 0.054402385 0.7204933 0.70596653
0.07322078 0.33173627 -0.005290684 0.35413522 0.6536703 1.6385264 -0.34023672 1.1898345
1.3381654 0.87786937 1.1474148 0.9912238 1.3436654 1.5210295 1.5221992 2.1571205
1.3290526 1.952906 0.98631966 2.6475315 1.3656546 1.2414049 2.9590795 3.430328
1.4907129 1.042792 1.0551752 -0.41356632 3.4488804 -0.04826546 0.96016246 0.37307718
3.5217113 0.41070488 -0.72352415 0.1277314 2.3158438 0.9293586 1.4818529 1.8384211
0.9793627 2.1692727 1.5017606 1.5071826 1.5706391 2.0076387 1.0221453 -0.30279556
0.08599486 2.2551754 1.188863 2.2859688 0.15488262 2.2690187 1.8481114 2.0943997
2.589356 1.7294072 2.0814342 2.284281 2.654623 1.3617069 0.15848835 -0.06947042
0.855483 1.4127622 0.28304803 0.19358234 -0.061305627 2.0018814 1.4166145 0.066943854
-0.05363269 1.4104266 0.54355687 0.9783248 0.6401503 0.40210265 1.1450542 0.34340328
-0.10120825 1.5867575 1.3274585 1.2594433 0.6470741 -0.10875219 0.2596411 -0.09427074
1.681649 0.9605918 3.0897007 2.0529141 1.1294178 3.415652 0.29712042 0.32707095
0.8765504 -0.9688467 0.56282085 1.169546 1.5583237 2.7859383 0.85231614 1.3423984
0.9176098 1.8664771 2.0267165 1.5550025 1.1774375 0.43609557 0.31509435
00000000: ce8c 963f 5225 1240 4ed4 1fbf ea67 a73f
00000010: a2c7 093d 8ab0 f43f e920 fb3f b2b7 2640
00000020: 87b2 ce3f 4b84 4040 c941 ac3f 8a2f c53f
00000030: 93b3 1e3e 6e9e e5bd bfec b43c de3c 0c40
00000040: 353a 4fbd dd82 81bd 7360 08bd db25 3240
00000050: d4d8 963e 8d53 b93f b660 c83f bba7 cdbe
00000060: e212 e6bf 8872 5b40 28c8 7a3f ce24 b53f
00000070: 5933 833f 4618 2640 7530 033f adde 223d
00000080: 359e 9a3f 4183 903d 14fa 1f3f 6706 6f40
00000090: 19ec 333f cccf 8b3f 7a6d e73f ce6f b73f
000000a0: c597 0b40 88e4 c33f 5b4b 4a3e 6903 c63e
000000b0: 3569 cc3f 4277 48be 650f f53e fc0a 373e
000000c0: 69e1 a33e dfc7 983e da73 0d3f 5a49 023f
000000d0: 80db 853f b3a4 603e 8bcd 723e d3b1 a53f
000000e0: 5d5f c0be 9489 313f de05 293e 457f bbbe
000000f0: fda0 a8bd 09d5 5e3d 4072 383f 39ba 343f
00000100: c7f4 953d 56d9 a93e 795d adbb 3651 b53e
00000110: f056 273f 3cbb d13f 8233 aebe 7f4c 983f
00000120: 0149 ab3f 0cbc 603f 7dde 923f d8c0 7d3f
00000130: 3afd ab3f 18b1 c23f 6cd7 c23f 430e 0a40
00000140: 651e aa3f d3f8 f93f 727f 7c3f 2871 2940
00000150: c5cd ae3f 5be6 9e3f 8f61 3d40 7e8a 5b40
00000160: aecf be3f 357a 853f fb0f 873f f7be d3be
00000170: 75ba 5c40 01b2 45bd 35cd 753f f903 bf3e
00000180: b863 6140 e947 d23e e138 39bf 05cc 023e
00000190: c936 1440 72ea 6d3f 5bad bd3f 6251 eb3f
000001a0: 84b7 7a3f 5dd5 0a40 b139 c03f 5ceb c03f
000001b0: b40a c93f 277d 0040 a8d5 823f 0508 9bbe
000001c0: 131e b03d cb54 1040 aa2c 983f 504d 1240
000001d0: 8d99 1e3e 9a37 1140 ea8e ec3f a50a 0640
000001e0: 02b8 2540 375d dd3f 3836 0540 a931 1240
000001f0: 58e5 2940 694c ae3f c54a 223e 8246 8ebd
00000200: ef00 5b3f 64d5 b43f aceb 903e 733a 463e
00000210: 9c1b 7bbd d31e 0040 a053 b53f dc19 893d
00000220: f4ad 5bbd dc88 b43f 8b26 0b3f 7e73 7a3f
00000230: e4e0 233f 66e0 cd3e 2391 923f 8ed2 af3e
00000240: 4546 cfbd df1a cb3f 29ea a93f 7035 a13f
00000250: a6a6 253f 78b9 debd aeef 843e 0511 c1bd
00000260: 4640 d73f 58e9 753f a8bd 4540 f262 0340
00000270: c390 903f 0b9a 5a40 2b20 983e d875 a73e
00000280: 9b65 603f 5606 78bf 0715 103f afb3 953f
00000290: 2777 c73f d04c 3240 6431 5a3f b6d3 ab3f
000002a0: 7ae8 6a3f b9e8 ee3f b9b5 0140 520a c73f
000002b0: 46b6 963f eb47 df3e 0c54 a13e

weight f4 [9, 175]
0.08681767 0.895439 0.12222865 0.024149185 0.16536573 0.9816938 0.878209 1.0922035
1.4791895 1.2283859 0.88765895 1.072718 -0.02685782 0.7787311 0.22202712 0.5321148
0.34165588 0.3808705 0.463827 1.2766173 0.00958003 0.7839582 0.8604764 -0.008290074
1.6659889 1.130467 1.8346848 0.7585196 0.52942 0.0031493239 1.2012067 0.70567614
1.0385603 1.8834199 0.020325715 0.3980138 0.55599856 0.503477 0.9389972 1.1729445
0.7322335 -0.05098879 0.9394448 0.79269797 0.5151651 0.75259537 0.14565659 -0.025279664
0.013268574 0.13451836 0.4592654 0.6016731 0.5904865 0.49483752 0.5347239 0.12106053
-0.004671437 1.0770106 0.53248674 0.95462143 0.62808084 0.56616896 -0.00058309635 -0.01520348
-0.0036126354 0.82166564 0.48467645 0.9810177 0.22296505 0.84489274 0.44962558 0.31101656
0.68325233 0.524901 0.6549269 0.59765345 0.5433515 0.70579857 0.4111139 0.5943446
0.430467 0.7600053 0.76060545 0.85534686 0.46256998 0.46585408 0.9245334 0.80694014
0.115072414 0.9578661 0.64378804 0.49130997 0.12191675 0.48428646 0.9360242 0.82612073
1.2981865 0.7758689 0.7021333 1.3095095 1.2561356 1.7048109 0.010102518 0.17914991
0.22525126 0.060564168 1.7113968 0.8173943 0.712298 1.0396167 0.26072025 -0.0418429
1.1321857 1.2034581 1.0863019 1.2185944 1.3330436 0.8398252 1.0556551 1.0591433
1.1199243 0.90130895 0.9018603 0.71378165 1.1564243 0.46189666 0.6324602 0.069030866
0.6142066 0.9801793 1.1723622 0.0030245217 1.3910893 0.82676095 0.053471684 0.74215764
0.4345323 0.7043975 0.25522837 0.53900045 0.8598093 0.99886906 0.6577921 0.16812699
0.35720545 1.286166 0.46509153 0.52500093 0.2933752 0.47942233 0.5077158 0.46493274
0.768048 0.5429009 0.8599641 0.8523366 0.8317876 1.0348297 0.6380979 1.5242151
0.6202491 0.7956149 1.417143 1.2180732 0.6517625 0.59098977 0.34522927 0.64981556
0.76232 0.57310355 0.1358153 0.67368424 0.73059636 1.10294 0.50263023 0.5688475
0.97766376 0.9998952 0.66378516 1.933375 0.7647486 0.8793845 0.9069877 0.02185307
0.85001326 0.45925948 0.22011831 1.3446053 0.0029387942 0.055780932 1.1789722 -0.06554433
0.029729536 -0.04882353 0.77515894 1.0341433 0.40832156 0.6506947 0.43650177 0.005685649
0.6684935 -0.048134577 0.73384655 0.5962027 1.8676223 0.017915765 -0.006072785 0.26754543
0.03590431 1.5972508 1.3924211 0.32629797 0.6056314 -0.1268349 0.1915492 1.1035873
0.6768651 0.020642383 0.118916556 0.96412987 0.014068389 0.72318465 0.79138434 0.66374487
0.78657377 0.27099147 0.27738318 0.66597384 -0.0137938345 0.040139753 0.6671755 0.92986864
-0.016803786 0.054309413 -0.044107076 0.09445099 0.09845301 0.84892225 1.5174065 1.0744712
-0.030449687 -0.018481685 -0.0026846973 0.51147276 0.65264654 -0.08237296 0.055066843 0.65919846
0.7125991 0.5983711 0.60063356 0.93043476 0.61546755 0.781392 0.5757646 0.87293404
00000000: 76cd b13d 7e3b 653f 0453 fa3d 83d4 c53c
00000010: a255 293e 4950 7b3f 4ed2 603f 53cd 8b3f
00000020: 1556 bd3f c03b 9d3f 9e3d 633f d34e 893f
00000030: ee04 dcbc ec5a 473f 145b 633e ad38 083f
00000040: 85ed ae3e 7501 c33e bc7a ed3e 3268 a33f
00000050: 8ff5 1c3c 7cb1 483f 2e48 5c3f 17d3 07bc
00000060: 203f d53f 25b3 903f f4d6 ea3f 572e 423f
00000070: 1288 073f e364 4e3b 24c1 993f 31a7 343f
00000080: 8bef 843f e713 f13f 1d82 a63c 77c8 cb3e
00000090: ec55 0e3f dee3 003f 1f62 703f 0c23 963f
000000a0: a873 3b3f 9fd9 50bd 747f 703f 41ee 4a3f
000000b0: dce1 033f 17aa 403f 0027 153e 4c17 cfbc
000000c0: 6f64 593c 2ebf 093e d624 eb3e 4007 1a3f
000000d0: 202a 173f 585b fd3e aae3 083f 95ee f73d
000000e0: db12 99bb 7cdb 893f 0d51 083f 1262 743f
000000f0: e8c9 203f 73f0 103f efda 18ba 0418 79bc
00000100: f7c1 6cbb ae58 523f 8327 f83e fa23 7b3f
00000110: f350 643e e44a 583f 5335 e63e 903d 9f3e
00000120: a0e9 2e3f e95f 063f 4aa9 273f d1ff 183f
00000130: 1519 0b3f 37af 343f 857d d23e f826 183f
00000140: 2c66 dc3e b58f 423f 0ab7 423f 03f8 5a3f
00000150: f9d5 ec3e 6d84 ee3e 39ae 6c3f a193 4e3f
00000160: 16ab eb3d b636 753f 4bcf 243f fb8c fb3e
00000170: 7daf f93d 65f4 f73e 489f 6f3f a67c 533f
00000180: fa2a a63f 589f 463f 02bf 333f 029e a73f
00000190: 0dc9 a03f 3e37 da3f 0885 253c 1373 373e
000001a0: 44a8 663e 2212 783d 0d0f db3f c140 513f
000001b0: 2959 363f 2912 853f 207d 853e 7663 2bbd
000001c0: 76eb 903f ea0a 9a3f f10b 8b3f e7fa 9b3f
000001d0: 2ca1 aa3f c9fe 563f b51f 873f 0292 873f
000001e0: ae59 8f3f 2fbc 663f 51e0 663f 65ba 363f
000001f0: b605 943f b87d ec3e e9e8 213f 0e60 8d3d
00000200: a53c 1d3f 08ed 7a3f f70f 963f 0e37 463b
00000210: 370f b23f 9ba6 533f 2005 5b3d 0bfe 3d3f
00000220: 057b de3e 6553 343f 4bad 823e effb 093f
00000230: 761c 5c3f e2b5 7f3f 1065 283f 7b29 2c3e
00000240: a2e3 b63e 16a1 a43f 7a20 ee3e 7666 063f
00000250: 4635 963e d876 f53e aaf9 013f aa0b ee3e
00000260: cb9e 443f 8efb 0a3f 9b26 5c3f bb32 5a3f
00000270: 08f0 543f 4d75 843f 625a 233f 7b19 c33f
00000280: a5c8 1e3f 6bad 4b3f f164 b53f d3e9 9b3f
00000290: e8d9 263f 1b4b 173f e4c1 b03e 505a 263f
000002a0: 6727 433f eab6 123f 2a13 0b3e 9276 2c3f
000002b0: 5d08 3b3f 232d 8d3f 60ac 003f fd9f 113f
000002c0: 2c48 7a3f 22f9 7f3f d3ed 293f d578 f73f
000002d0: 90c6 433f 581f 613f 5930 683f 3605 b33c
000002e0: 789a 593f 0f24 eb3e b266 613e 071c ac3f
000002f0: c998 403b 8c7a 643d 90e8 963f 1b3c 86bd
00000300: 5b8b f33c 2ffb 47bd d170 463f cf5e 843f
00000310: 860f d13e ee93 263f 297d df3e ae4e ba3b
00000320: 6422 2b3f c328 45bd 5edd 3b3f bda0 183f
00000330: 3f0e ef3f 15c4 923c 36fe c6bb b7fb 883e
00000340: 6610 133d b772 cc3f db3a b23f 8710 a73e
00000350: a90a 1b3f 02e1 01be 7925 443e 5942 8d3f
00000360: 0847 2d3f 371a a93c 868a f33d 37d1 763f
00000370: 1a7f 663c a122 393f 2a98 4a3f 2feb 293f
00000380: e65c 493f 65bf 8a3e 2b05 8e3e 437d 2a3f
00000390: 89ff 61bc 9569 243d 03cc 2a3f df0b 6e3f
000003a0: 18a8 89bc 8c73 5e3d 9fa9 34bd 856f c13d
000003b0: bba1 c93d f852 593f 603a c23f 4688 893f
000003c0: 9f71 f9bc e766 97bc bff1 2fbb e1ef 023f
000003d0: d813 273f 28b3 a8bd c58d 613d 3bc1 283f
000003e0: e56c 363f d92e 193f 1fc3 193f f930 6e3f
000003f0: 488f 1d3f 4e09 483f 4f65 133f 9b78 5f3f

bias f4 [175]
0.0 0.0 0.0 0.0 0.0 0.0 0.0 0.0
0.0 0.0 0.0 0.0 0.0 0.0 0.0 0.0
0.0 0.0 0.0 0.0 0.0 0.0 0.0 0.0
0.0 0.0 0.0 0.0 0.0 0.0 0.0 0.0
0.0 0.0 0.0 0.0 0.0 0.0 0.0 0.0
0.0 0.0 0.0 0.0 0.0 0.0 0.0 0.0
0.0 0.0 0.0 0.0 0.0 0.0 0.0 0.0
0.0 0.0 0.0 0.0 0.0 0.0 0.0 0.0
0.0 0.0 0.0 0.0 0.0 0.0 0.0 0.0
0.0 0.0 0.0 0.0 0.0 0.0 0.0 0.0
0.0 0.0 0.0 0.0 0.0 0.0 0.0 0.0
0.0 0.0 0.0 0.0 0.0 0.0 0.0 0.0
0.0 0.0 0.0 0.0 0.0 0.0 0.0 0.0
0.0 0.0 0.0 0.0 0.0 0.0 0.0 0.0
0.0 0.0 0.0 0.0 0.0 0.0 0.0 0.0
0.0 0.0 0.0 0.0 0.0 0.0 0.0 0.0
0.0 0.0 0.0 0.0 0.0 0.0 0.0 0.0
0.0 0.0 0.0 0.0 0.0 0.0 0.0 0.0
0.0 0.0 0.0 0.0 0.0 0.0 0.0 0.0
0.0 0.0 0.0 0.0 0.0 0.0 0.0 0.0
0.0 0.0 0.0 0.0 0.0 0.0 0.0 0.0
0.0 0.0 0.0 0.0 0.0 0.0 0.0
00000000: 0000 0000 0000 0000 0000 0000 0000 0000
00000010: 0000 0000 0000 0000 0000 0000 0000 0000
00000020: 0000 0000 0000 0000 0000 0000 0000 0000
00000030: 0000 0000 0000 0000 0000 0000 0000 0000
00000040: 0000 0000 0000 0000 0000 0000 0000 0000
00000050: 0000 0000 0000 0000 0000 0000 0000 0000
00000060: 0000 0000 0000 0000 0000 0000 0000 0000
00000070: 0000 0000 0000 0000 0000 0000 0000 0000
00000080: 0000 0000 0000 0000 0000 0000 0000 0000
00000090: 0000 0000 0000 0000 0000 0000 0000 0000
000000a0: 0000 0000 0000 0000 0000 0000 0000 0000
000000b0: 0000 0000 0000 0000 0000 0000 0000 0000
000000c0: 0000 0000 0000 0000 0000 0000 0000 0000
000000d0: 0000 0000 0000 0000 0000 0000 0000 0000
000000e0: 0000 0000 0000 0000 0000 0000 0000 0000
000000f0: 0000 0000 0000 0000 0000 0000 0000 0000
00000100: 0000 0000 0000 0000 0000 0000 0000 0000
00000110: 0000 0000 0000 0000 0000 0000 0000 0000
00000120: 0000 0000 0000 0000 0000 0000 0000 0000
00000130: 0000 0000 0000 0000 0000 0000 0000 0000
00000140: 0000 0000 0000 0000 0000 0000 0000 0000
00000150: 0000 0000 0000 0000 0000 0000 0000 0000
00000160: 0000 0000 0000 0000 0000 0000 0000 0000
00000170: 0000 0000 0000 0000 0000 0000 0000 0000
00000180: 0000 0000 0000 0000 0000 0000 0000 0000
00000190: 0000 0000 0000 0000 0000 0000 0000 0000
000001a0: 0000 0000 0000 0000 0000 0000 0000 0000
000001b0: 0000 0000 0000 0000 0000 0000 0000 0000
000001c0: 0000 0000 0000 0000 0000 0000 0000 0000
000001d0: 0000 0000 0000 0000 0000 0000 0000 0000
000001e0: 0000 0000 0000 0000 0000 0000 0000 0000
000001f0: 0000 0000 0000 0000 0000 0000 0000 0000
00000200: 0000 0000 0000 0000 0000 0000 0000 0000
00000210: 0000 0000 0000 0000 0000 0000 0000 0000
00000220: 0000 0000 0000 0000 0000 0000 0000 0000
00000230: 0000 0000 0000 0000 0000 0000 0000 0000
00000240: 0000 0000 0000 0000 0000 0000 0000 0000
00000250: 0000 0000 0000 0000 0000 0000 0000 0000
00000260: 0000 0000 0000 0000 0000 0000 0000 0000
00000270: 0000 0000 0000 0000 0000 0000 0000 0000
00000280: 0000 0000 0000 0000 0000 0000 0000 0000
00000290: 0000 0000 0000 0000 0000 0000 0000 0000
000002a0: 0000 0000 0000 0000 0000 0000 0000 0000
000002b0: 0000 0000 0000 0000 0000 0000

_ei_mask f4 [175]
1.0 1.0 1.0 1.0 1.0 1.0 1.0 1.0
1.0 1.0 1.0 1.0 1.0 1.0 1.0 1.0
1.0 1.0 1.0 1.0 1.0 1.0 1.0 1.0
1.0 1.0 1.0 1.0 1.0 1.0 1.0 1.0
1.0 1.0 1.0 1.0 1.0 1.0 1.0 1.0
1.0 1.0 1.0 1.0 1.0 1.0 1.0 1.0
1.0 1.0 1.0 1.0 1.0 1.0 1.0 1.0
1.0 1.0 1.0 1.0 1.0 1.0 1.0 1.0
1.0 1.0 1.0 1.0 1.0 1.0 1.0 1.0
1.0 1.0 1.0 1.0 1.0 1.0 1.0 1.0
1.0 1.0 1.0 1.0 1.0 1.0 1.0 1.0
1.0 1.0 1.0 1.0 1.0 1.0 1.0 1.0
1.0 1.0 1.0 1.0 1.0 1.0 1.0 1.0
1.0 1.0 1.0 1.0 1.0 1.0 1.0 1.0
1.0 1.0 1.0 1.0 1.0 1.0 1.0 1.0
1.0 1.0 1.0 1.0 1.0 1.0 1.0 1.0
1.0 1.0 1.0 1.0 1.0 1.0 1.0 1.0
1.0 1.0 1.0 1.0 1.0 1.0 1.0 1.0
1.0 1.0 1.0 1.0 1.0 1.0 1.0 1.0
1.0 1.0 1.0 1.0 1.0 1.0 1.0 1.0
1.0 1.0 1.0 1.0 1.0 1.0 1.0 1.0
1.0 1.0 1.0 1.0 1.0 1.0 1.0
00000000: 0000 803f 0000 803f 0000 803f 0000 803f
00000010: 0000 803f 0000 803f 0000 803f 0000 803f
00000020: 0000 803f 0000 803f 0000 803f 0000 803f
00000030: 0000 803f 0000 803f 0000 803f 0000 803f
00000040: 0000 803f 0000 803f 0000 803f 0000 803f
00000050: 0000 803f 0000 803f 0000 803f 0000 803f
00000060: 0000 803f 0000 803f 0000 803f 0000 803f
00000070: 0000 803f 0000 803f 0000 803f 0000 803f
00000080: 0000 803f 0000 803f 0000 803f 0000 803f
00000090: 0000 803f 0000 803f 0000 803f 0000 803f
000000a0: 0000 803f 0000 803f 0000 803f 0000 803f
000000b0: 0000 803f 0000 803f 0000 803f 0000 803f
000000c0: 0000 803f 0000 803f 0000 803f 0000 803f
000000d0: 0000 803f 0000 803f 0000 803f 0000 803f
000000e0: 0000 803f 0000 803f 0000 803f 0000 803f
000000f0: 0000 803f 0000 803f 0000 803f 0000 803f
00000100: 0000 803f 0000 803f 0000 803f 0000 803f
00000110: 0000 803f 0000 803f 0000 803f 0000 803f
00000120: 0000 803f 0000 803f 0000 803f 0000 803f
00000130: 0000 803f 0000 803f 0000 803f 0000 803f
00000140: 0000 803f 0000 803f 0000 803f 0000 803f
00000150: 0000 803f 0000 803f 0000 803f 0000 803f
00000160: 0000 803f 0000 803f 0000 803f 0000 803f
00000170: 0000 803f 0000 803f 0000 803f 0000 803f
00000180: 0000 803f 0000 803f 0000 803f 0000 803f
00000190: 0000 803f 0000 803f 0000 803f 0000 803f
000001a0: 0000 803f 0000 803f 0000 803f 0000 803f
000001b0: 0000 803f 0000 803f 0000 803f 0000 803f
000001c0: 0000 803f 0000 803f 0000 803f 0000 803f
000001d0: 0000 803f 0000 803f 0000 803f 0000 803f
000001e0: 0000 803f 0000 803f 0000 803f 0000 803f
000001f0: 0000 803f 0000 803f 0000 803f 0000 803f
00000200: 0000 803f 0000 803f 0000 803f 0000 803f
00000210: 0000 803f 0000 803f 0000 803f 0000 803f
00000220: 0000 803f 0000 803f 0000 803f 0000 803f
00000230: 0000 803f 0000 803f 0000 803f 0000 803f
00000240: 0000 803f 0000 803f 0000 803f 0000 803f
00000250: 0000 803f 0000 803f 0000 803f 0000 803f
00000260: 0000 803f 0000 803f 0000 803f 0000 803f
00000270: 0000 803f 0000 803f 0000 803f 0000 803f
00000280: 0000 803f 0000 803f 0000 803f 0000 803f
00000290: 0000 803f 0000 803f 0000 803f 0000 803f
000002a0: 0000 803f 0000 803f 0000 803f 0000 803f
000002b0: 0000 803f 0000 803f 0000 803f

weight f4 [2, 175]
0.32746893 -0.14203331 0.11849385 -0.049814463 0.22371782 0.04824975 -0.0067582736 0.28746638
0.16273674 0.113904074 -0.17610852 -0.29016212 -0.18682364 0.12091065 0.098165266 0.043628186
0.19836408 -0.09083404 0.22521858 0.025040753 -0.052280284 -0.15806323 -0.019864326 0.01751451
0.38803914 -0.0076644723 0.13994724 -0.13950941 -0.18328398 -0.07921184 0.48589906 -0.0054020463
0.076932974 0.24059545 0.0983317 0.19732091 -0.1400821 0.00026075816 -0.012896774 -0.006781104
0.5081679 -0.12379813 0.22883536 -0.3070423 -0.04756666 -0.20431656 0.08350887 0.14665744
-0.064230554 0.3157625 -0.0051198793 0.03924334 0.14646576 -0.035791755 -0.040765967 -0.47507206
-0.06757361 0.07487261 0.22848338 0.28632173 0.035510622 0.09666697 0.06481534 -0.22853379
-0.14445208 -0.045913476 0.12978613 -0.09786085 -0.18041122 -0.11840357 -0.13097256 0.02819419
0.01863489 -0.0617404 0.046006173 -0.13327849 -0.08087124 -0.051050372 -0.07225509 0.09550177
-0.11254212 0.03932033 -0.2742302 -0.10036498 -0.11628412 0.055422083 -0.21718918 -0.2726428
-0.18979415 0.017753463 0.19151387 0.3186815 -0.08479377 0.25726476 0.15719087 0.16846745
-0.061130725 0.11760663 0.24745964 0.12200686 -0.0696705 -0.17541118 0.095247045 -0.04801453
-0.1063865 0.01863579 -0.22661811 0.006540186 -0.1396808 0.12798312 -0.17535783 -0.11572963
-0.013038946 0.13708481 -0.22250356 0.23768535 -0.004663275 -0.3792313 0.27636114 0.07553983
-0.07164149 0.06981091 -0.097503796 -0.0042612245 -0.005729588 0.095906965 0.0503847 -0.040756658
-0.08134735 -0.3008377 0.14316863 0.12322026 -0.08778746 -0.100197546 -0.053921245 -0.13668543
0.30167276 0.13920145 0.115578525 -0.051383514 0.24984752 0.023690881 0.48901668 0.30911994
0.02598663 0.07359599 0.41729158 0.021246314 0.015281173 0.01947277 0.018012026 0.014586713
-0.034433234 -0.33425373 0.078564025 0.21159388 -0.041870672 0.16859856 -0.01846303 -0.6402277
0.12733684 -0.07197823 0.030349955 -0.07465785 0.01113325 -0.15534882 -0.32501155 0.040453374
-0.3722571 0.10936786 -0.24084142 0.02059123 0.0428664 -0.23377387 0.047242984 -0.27684867
0.1265776 -0.18344869 0.053409718 -0.4903944 -0.0079376595 0.013055807 -0.21006034 -0.21911134
-0.13482615 0.1875825 0.23050341 0.09583835 -0.11707718 -0.124977104 0.0113941915 -0.15746814
0.12638424 -0.23266612 0.08814286 0.052342482 0.16219102 -0.013104513 -0.017311445 -0.44621173
0.008918715 -0.16038747 0.20058289 0.15894012 0.079148166 -0.434745 -0.018206142 -0.05915246
-0.25910106 -0.06609859 -0.058645334 0.12636591 -0.0008982505 -0.04116563 -0.033934765 -0.42688462
0.09915934 -0.21956542 0.19830723 0.0043204078 0.16798139 -0.07317767 -0.1801 0.07030231
-0.32019272 -0.25959292 -0.2042876 -0.16711855 0.05076404 0.077230476 0.48993957 0.06571704
-0.14240587 -0.2629478 -0.34775302 -0.028893296 -0.18843426 -0.06422578 0.23161644 0.17880672
0.031841774 -0.08909716 0.081710726 0.15938227 0.03875636 0.10583113 -0.01331589 -0.0217106
0.102564625 -0.08299834 0.14103642 0.115936585 -0.02528505 -0.06208559 -0.13705938 0.09871175
00000000: 02aa a73e 2e71 11be e7ac f23d 400a 4cbd
00000010: 4916 653e 88a1 453d 8274 ddbb cb2e 933e
00000020: 76a4 263e 8a46 e93d cb55 34be 2190 94be
00000030: b24e 3fbe 01a0 f73d df0a c93d 78b3 323d
00000040: f41f 4b3e 3207 babd b39f 663e 4422 cd3c
00000050: da23 56bd 54db 21be 83ba a2bc 977a 8f3c
00000060: 11ad c63e 4126 fbbb 544e 0f3e 8edb 0ebe
00000070: ccae 3bbe d139 a2bd c3c7 f83e a603 b1bb
00000080: 098f 9d3d a75e 763e 2162 c93d 7e0e 4a3e
00000090: af71 0fbe 5eb6 8839 fe4c 53bc 0634 debb
000000a0: 4b17 023f e089 fdbd d153 6a3e a634 9dbe
000000b0: 42d5 42bd 5c38 51be b306 ab3d 5e2d 163e
000000c0: 4f8b 83bd 9fab a13e a9c4 a7bb a0bd 203d
000000d0: 1ffb 153e 609a 12bd 37fa 26bd a53c f3be
000000e0: 0864 8abd d056 993d 8cf7 693e c398 923e
000000f0: 9673 113d 55f9 c53d e8bd 843d c304 6abe
00000100: 3feb 13be c50f 3cbd a8e6 043e 456b c8bd
00000110: b8bd 38be 927d f2bd ac1d 06be 80f7 e63c
00000120: 32a8 983c 80e3 7cbd f870 3c3d 287a 08be
00000130: d29f a5bd 321a 51bd 7afa 93bd 6f96 c33d
00000140: 7c7c e6bd 5b0e 213d e767 8cbe 288c cdbd
00000150: 5e26 eebd 4402 633d d766 5ebe d697 8bbe
00000160: 6659 42be b66f 913c 361c 443e 392a a33e
00000170: 5ba8 adbd 35b8 833e a5f6 203e bb82 2c3e
00000180: 3664 7abd bfdb f03d 0f66 7d3e bcde f93d
00000190: 68af 8ebd fd9e 33be e210 c33d e2aa 44bd
000001a0: 2ae1 d9bd 16aa 983c 940e 68be 0e4f d63b
000001b0: 7c08 0fbe 020e 033e 0191 33be a803 edbd
000001c0: 4ea1 55bc f65f 0c3e f9d7 63be ca63 733e
000001d0: 63ce 98bb 9b2a c2be 357f 8d3e a0b4 9a3d
000001e0: c6b8 92bd 06f9 8e3d 12b0 c7bd bea1 8bbb
000001f0: 45bf bbbb df6a c43d 3060 4e3d 74f0 26bd
00000200: 7099 a6bd 6607 9abe cc9a 123e e75a fc3d
00000210: e9c9 b3bd 5f34 cdbd 86dc 5cbd 44f7 0bbe
00000220: da74 9a3e d38a 0e3e 6fb4 ec3d 8577 52bd
00000230: 07d8 7f3e 6113 c23c 6560 fa3e f844 9e3e
00000240: eae1 d43c 7fb9 963d 3ea7 d53e c00c ae3c
00000250: e35d 7a3c 5c85 9f3c f58d 933c 1cfd 6e3c
00000260: dd09 0dbd 4e23 abbe 2de6 a03d 11ac 583e
00000270: 9580 2bbd 1aa5 2c3e c83f 97bc f6e5 23bf
00000280: 9764 023e 5269 93bd 78a0 f83c 37e6 98bd
00000290: 3c68 363c c313 1fbe ea67 a6be 70b2 253d
000002a0: 7c98 bebe 42fc df3d 229f 76be f0ae a83c
000002b0: ae94 2f3d 6b62 6fbe dc81 413d 1cbf 8dbe
000002c0: 8f9d 013e f9d9 3bbe 26c4 5a3d fa14 fbbe
000002d0: f50c 02bc 06e8 553c 0f1a 57be b95e 60be
000002e0: de0f 0abe a015 403e 1609 6c3e e646 c43d
000002f0: 29c6 efbd fff3 ffbd b4ae 3a3c 543f 21be
00000300: df6a 013e 0740 6ebe 3e84 b43d 1265 563d
00000310: 6715 263e 50b4 56bc bbd0 8dbc dd75 e4be
00000320: cd1f 123c 9d3c 24be 9a65 4d3e 33c1 223e
00000330: 6f18 a23d e696 debe 0c25 95bc da49 72bd
00000340: e5a8 84be b35e 87bd 1736 70bd 1166 013e
00000350: 9278 6bba 4b9d 28bd 2eff 0abd 9f90 dabe
00000360: 0d14 cb3d c2d5 60be 0d11 4b3e 3592 8d3b
00000370: 5003 2c3e 2dde 95bd 226c 38be a8fa 8f3d
00000380: 4df0 a3be 5de9 84be c530 51be 2021 2bbe
00000390: f4ed 4f3d 032b 9e3d 5cd9 fa3e a896 863d
000003a0: d8d2 11be 18a1 86be af0c b2be a2b1 ecbc
000003b0: e9f4 40be ce88 83bd dc2c 6d3e 1c19 373e
000003c0: 856c 023d 9278 b6bd f457 a73d 1b35 233e
000003d0: fdbe 1e3d febd d83d e42a 5abc 6eda b1bc
000003e0: 670d d23d 09fb a9bd da6b 103e 2970 ed3d
000003f0: 9822 cfbc 764d 7ebd 4b59 0cbe 6329 ca3d

bias f4 [175]
0.0 0.0 0.0 0.0 0.0 0.0 0.0 0.0
0.0 0.0 0.0 0.0 0.0 0.0 0.0 0.0
0.0 0.0 0.0 0.0 0.0 0.0 0.0 0.0
0.0 0.0 0.0 0.0 0.0 0.0 0.0 0.0
0.0 0.0 0.0 0.0 0.0 0.0 0.0 0.0
0.0 0.0 0.0 0.0 0.0 0.0 0.0 0.0
0.0 0.0 0.0 0.0 0.0 0.0 0.0 0.0
0.0 0.0 0.0 0.0 0.0 0.0 0.0 0.0
0.0 0.0 0.0 0.0 0.0 0.0 0.0 0.0
0.0 0.0 0.0 0.0 0.0 0.0 0.0 0.0
0.0 0.0 0.0 0.0 0.0 0.0 0.0 0.0
0.0 0.0 0.0 0.0 0.0 0.0 0.0 0.0
0.0 0.0 0.0 0.0 0.0 0.0 0.0 0.0
0.0 0.0 0.0 0.0 0.0 0.0 0.0 0.0
0.0 0.0 0.0 0.0 0.0 0.0 0.0 0.0
0.0 0.0 0.0 0.0 0.0 0.0 0.0 0.0
0.0 0.0 0.0 0.0 0.0 0.0 0.0 0.0
0.0 0.0 0.0 0.0 0.0 0.0 0.0 0.0
0.0 0.0 0.0 0.0 0.0 0.0 0.0 0.0
0.0 0.0 0.0 0.0 0.0 0.0 0.0 0.0
0.0 0.0 0.0 0.0 0.0 0.0 0.0 0.0
0.0 0.0 0.0 0.0 0.0 0.0 0.0
00000000: 0000 0000 0000 0000 0000 0000 0000 0000
00000010: 0000 0000 0000 0000 0000 0000 0000 0000
00000020: 0000 0000 0000 0000 0000 0000 0000 0000
00000030: 0000 0000 0000 0000 0000 0000 0000 0000
00000040: 0000 0000 0000 0000 0000 0000 0000 0000
00000050: 0000 0000 0000 0000 0000 0000 0000 0000
00000060: 0000 0000 0000 0000 0000 0000 0000 0000
00000070: 0000 0000 0000 0000 0000 0000 0000 0000
00000080: 0000 0000 0000 0000 0000 0000 0000 0000
00000090: 0000 0000 0000 0000 0000 0000 0000 0000
000000a0: 0000 0000 0000 0000 0000 0000 0000 0000
000000b0: 0000 0000 0000 0000 0000 0000 0000 0000
000000c0: 0000 0000 0000 0000 0000 0000 0000 0000
000000d0: 0000 0000 0000 0000 0000 0000 0000 0000
000000e0: 0000 0000 0000 0000 0000 0000 0000 0000
000000f0: 0000 0000 0000 0000 0000 0000 0000 0000
00000100: 0000 0000 0000 0000 0000 0000 0000 0000
00000110: 0000 0000 0000 0000 0000 0000 0000 0000
00000120: 0000 0000 0000 0000 0000 0000 0000 0000
00000130: 0000 0000 0000 0000 0000 0000 0000 0000
00000140: 0000 0000 0000 0000 0000 0000 0000 0000
00000150: 0000 0000 0000 0000 0000 0000 0000 0000
00000160: 0000 0000 0000 0000 0000 0000 0000 0000
00000170: 0000 0000 0000 0000 0000 0000 0000 0000
00000180: 0000 0000 0000 0000 0000 0000 0000 0000
00000190: 0000 0000 0000 0000 0000 0000 0000 0000
000001a0: 0000 0000 0000 0000 0000 0000 0000 0000
000001b0: 0000 0000 0000 0000 0000 0000 0000 0000
000001c0: 0000 0000 0000 0000 0000 0000 0000 0000
000001d0: 0000 0000 0000 0000 0000 0000 0000 0000
000001e0: 0000 0000 0000 0000 0000 0000 0000 0000
000001f0: 0000 0000 0000 0000 0000 0000 0000 0000
00000200: 0000 0000 0000 0000 0000 0000 0000 0000
00000210: 0000 0000 0000 0000 0000 0000 0000 0000
00000220: 0000 0000 0000 0000 0000 0000 0000 0000
00000230: 0000 0000 0000 0000 0000 0000 0000 0000
00000240: 0000 0000 0000 0000 0000 0000 0000 0000
00000250: 0000 0000 0000 0000 0000 0000 0000 0000
00000260: 0000 0000 0000 0000 0000 0000 0000 0000
00000270: 0000 0000 0000 0000 0000 0000 0000 0000
00000280: 0000 0000 0000 0000 0000 0000 0000 0000
00000290: 0000 0000 0000 0000 0000 0000 0000 0000
000002a0: 0000 0000 0000 0000 0000 0000 0000 0000
000002b0: 0000 0000 0000 0000 0000 0000

_ei_mask f4 [175]
1.0 1.0 1.0 1.0 1.0 1.0 1.0 1.0
1.0 1.0 1.0 1.0 1.0 1.0 1.0 1.0
1.0 1.0 1.0 1.0 1.0 1.0 1.0 1.0
1.0 1.0 1.0 1.0 1.0 1.0 1.0 1.0
1.0 1.0 1.0 1.0 1.0 1.0 1.0 1.0
1.0 1.0 1.0 1.0 1.0 1.0 1.0 1.0
1.0 1.0 1.0 1.0 1.0 1.0 1.0 1.0
1.0 1.0 1.0 1.0 1.0 1.0 1.0 1.0
1.0 1.0 1.0 1.0 1.0 1.0 1.0 1.0
1.0 1.0 1.0 1.0 1.0 1.0 1.0 1.0
1.0 1.0 1.0 1.0 1.0 1.0 1.0 1.0
1.0 1.0 1.0 1.0 1.0 1.0 1.0 1.0
1.0 1.0 1.0 1.0 1.0 1.0 1.0 1.0
1.0 1.0 1.0 1.0 1.0 1.0 1.0 1.0
1.0 1.0 1.0 1.0 1.0 1.0 1.0 1.0
1.0 1.0 1.0 1.0 1.0 1.0 1.0 1.0
1.0 1.0 1.0 1.0 1.0 1.0 1.0 1.0
1.0 1.0 1.0 1.0 1.0 1.0 1.0 1.0
1.0 1.0 1.0 1.0 1.0 1.0 1.0 1.0
1.0 1.0 1.0 1.0 1.0 1.0 1.0 1.0
1.0 1.0 1.0 1.0 1.0 1.0 1.0 1.0
1.0 1.0 1.0 1.0 1.0 1.0 1.0
00000000: 0000 803f 0000 803f 0000 803f 0000 803f
00000010: 0000 803f 0000 803f 0000 803f 0000 803f
00000020: 0000 803f 0000 803f 0000 803f 0000 803f
00000030: 0000 803f 0000 803f 0000 803f 0000 803f
00000040: 0000 803f 0000 803f 0000 803f 0000 803f
00000050: 0000 803f 0000 803f 0000 803f 0000 803f
00000060: 0000 803f 0000 803f 0000 803f 0000 803f
00000070: 0000 803f 0000 803f 0000 803f 0000 803f
00000080: 0000 803f 0000 803f 0000 803f 0000 803f
00000090: 0000 803f 0000 803f 0000 803f 0000 803f
000000a0: 0000 803f 0000 803f 0000 803f 0000 803f
000000b0: 0000 803f 0000 803f 0000 803f 0000 803f
000000c0: 0000 803f 0000 803f 0000 803f 0000 803f
000000d0: 0000 803f 0000 803f 0000 803f 0000 803f
000000e0: 0000 803f 0000 803f 0000 803f 0000 803f
000000f0: 0000 803f 0000 803f 0000 803f 0000 803f
00000100: 0000 803f 0000 803f 0000 803f 0000 803f
00000110: 0000 803f 0000 803f 0000 803f 0000 803f
00000120: 0000 803f 0000 803f 0000 803f 0000 803f
00000130: 0000 803f 0000 803f 0000 803f 0000 803f
00000140: 0000 803f 0000 803f 0000 803f 0000 803f
00000150: 0000 803f 0000 803f 0000 803f 0000 803f
00000160: 0000 803f 0000 803f 0000 803f 0000 803f
00000170: 0000 803f 0000 803f 0000 803f 0000 803f
00000180: 0000 803f 0000 803f 0000 803f 0000 803f
00000190: 0000 803f 0000 803f 0000 803f 0000 803f
000001a0: 0000 803f 0000 803f 0000 803f 0000 803f
000001b0: 0000 803f 0000 803f 0000 803f 0000 803f
000001c0: 0000 803f 0000 803f 0000 803f 0000 803f
000001d0: 0000 803f 0000 803f 0000 803f 0000 803f
000001e0: 0000 803f 0000 803f 0000 803f 0000 803f
000001f0: 0000 803f 0000 803f 0000 803f 0000 803f
00000200: 0000 803f 0000 803f 0000 803f 0000 803f
00000210: 0000 803f 0000 803f 0000 803f 0000 803f
00000220: 0000 803f 0000 803f 0000 803f 0000 803f
00000230: 0000 803f 0000 803f 0000 803f 0000 803f
00000240: 0000 803f 0000 803f 0000 803f 0000 803f
00000250: 0000 803f 0000 803f 0000 803f 0000 803f
00000260: 0000 803f 0000 803f 0000 803f 0000 803f
00000270: 0000 803f 0000 803f 0000 803f 0000 803f
00000280: 0000 803f 0000 803f 0000 803f 0000 803f
00000290: 0000 803f 0000 803f 0000 803f 0000 803f
000002a0: 0000 803f 0000 803f 0000 803f 0000 803f
000002b0: 0000 803f 0000 803f 0000 803f

weight f4 [175, 3]
8.490094 3.3994036 2.2182932 -3.780202 0.97789234 7.483243 -10.115124 -0.7793725
-1.18293 -8.813024 4.8731775 -1.8313501 -6.3795795 4.337727 -3.9962988 7.827453
3.9817119 5.364939 3.749181 6.4779963 -7.0380197 -1.9957529 3.610184 -0.50628936
4.458918 -6.8357844 -2.56708 6.6867003 -6.3119884 5.782908 2.5044625 -4.5866017
0.12558582 -2.0082324 -0.24193826 -2.0010078 3.9050245 -4.4584184 -8.416558 -3.1752777
2.030717 0.8821144 -12.324003 8.964313 0.10827761 0.11988482 0.914674 3.9322166
-11.63275 7.8962555 0.44543 -1.7007692 3.2046142 -4.666642 -12.502216 7.409103
0.017533321 1.0298239 -4.020837 4.4482183 1.2880138 5.204174 4.849162 2.1968603
-5.525695 0.108204864 -0.17735946 -3.0870726 1.8311952 -0.5647184 -4.5938144 5.397907
21.879696 13.221015 -4.04068 0.91463107 10.401377 9.058734 -8.683105 7.2691145
-1.2041395 -6.7763495 -7.210785 2.5985074 -3.4916563 7.5172715 6.339357 1.3971794
3.583088 -8.588929 0.59498185 -5.649353 -5.656197 -4.1683555 0.75418675 2.8527272
2.7128327 1.0003275 -3.7932894 -3.9071615 3.1152532 -4.79043 0.22349624 -7.4623265
5.140625 -4.584438 1.7567694 7.6670513 2.5378115 0.4680697 6.9194436 -2.9563468
-7.684056 -1.3348111 -2.9928467 -0.14276555 5.7032685 -5.5166006 -4.522628 -4.103417
-4.81894 3.0541515 0.466019 15.996901 -2.9380715 3.5056934 5.3376355 -3.5647807
-1.0376937 7.1292353 -7.1293445 -10.917233 11.830783 0.8326706 4.5917196 -11.17143
6.627941 -1.9142631 4.777636 -8.176325 -1.4709374 -6.254032 -9.61559 -3.7445912
1.0210814 7.3600674 0.8589375 -0.23328343 3.6911476 2.926155 1.5841699 6.6703057
-17.215979 0.93409324 4.6058064 -16.937197 -2.0254064 -0.17968966 2.1532912 0.5247307
-1.8646467 -1.7846467 0.57195085 -4.399832 3.125127 -5.7557716 2.9491932 -10.277104
0.48894775 -4.311792 4.678679 -0.54620486 -1.0994556 -1.3758644 -1.3400531 -2.665402
3.681362 -2.5769935 -3.592561 5.674545 2.6037946 6.789241 -0.71625316 -4.9117737
10.766046 2.1948931 3.2011862 7.363707 2.840469 -0.5625159 5.234426 0.02800472
-11.876354 4.232448 1.3221011 -0.78550225 -1.7697941 -1.3150378 -6.3628597 -5.827462
-5.531802 -6.6770797 0.385194 3.4338531 -0.9568398 5.5634146 2.616558 6.4602733
6.150069 3.0062816 1.8758109 -2.8022373 1.7277217 -6.099475 -0.7562688 -4.402356
5.111804 -0.2346395 -3.9730322 -0.49196047 2.6342824 -1.6704792 -2.6355853 -9.727231
-2.8026724 0.069864646 -5.353151 -0.9653742 -4.8516617 -4.565819 -1.2162738 4.311644
-5.7401032 -2.395379 -1.416311 4.639824 1.2952024 6.2470512 -5.8121753 2.243006
-1.6453001 3.784769 -1.3199149 2.235354 5.482721 0.16676216 -2.7460175 2.929105
1.8384786 5.920654 6.4361467 -2.355103 0.7971954 -2.8782897 -1.9444116 0.9528942
00000000: 6dd7 0741 d48f 5940 84f8 0d40 d4ee 71c0
00000010: 2757 7a3f ba76 ef40 8cd7 21c1 f584 47bf
00000020: 406a 97bf 2502 0dc1 12f1 9b40 ae69 eabf
00000030: 8425 ccc0 a9ce 8a40 5cc3 7fc0 7f7a fa40
00000040: 5ed4 7e40 95ad ab40 95f2 6f40 bf4b cf40
00000050: 7537 e1c0 d574 ffbf 410d 6740 2e9c 01bf
00000060: 75af 8e40 bfbe dac0 0a4b 24c0 73f9 d540
00000070: cffb c9c0 950d b940 1d49 2040 71c5 92c0
00000080: 9299 003e e186 00c0 aabe 77be 8310 00c0
00000090: eceb 7940 5dab 8ec0 39aa 06c1 c037 4bc0
000000a0: 44f7 0140 40d2 613f 1e2f 45c1 d36d 0f41
000000b0: a7c0 dd3d 2c86 f53d 1328 6a3f 70a9 7b40
000000c0: be1f 3ac1 20ae fc40 670f e43e ceb2 d9bf
000000d0: 6618 4d40 2255 95c0 1409 48c1 5f17 ed40
000000e0: 0aa2 8f3c 45d1 833f b2aa 80c0 ce57 8e40
000000f0: a3dd a43f 9888 a640 562c 9b40 5c99 0c40
00000100: 7ed2 b0c0 839a dd3d b89d 35be 9992 45c0
00000110: 9b64 ea3f 6391 10bf 8700 93c0 a7bb ac40
00000120: 9e09 af41 4789 5341 404d 81c0 4325 6a3f
00000130: 0a6c 2641 93f0 1041 00ee 0ac1 969c e840
00000140: 3e21 9abf dbd7 d8c0 c0be e6c0 f24d 2640
00000150: 4c77 5fc0 7d8d f040 03dc ca40 c6d6 b23f
00000160: 5051 6540 416c 09c1 bb50 183f 80c7 b4c0
00000170: 91ff b4c0 2b63 85c0 6212 413f 1593 3640
00000180: 0d9f 2d40 bb0a 803f 41c5 72c0 ef0e 7ac0
00000190: 4f60 4740 344b 99c0 33dc 643e 61cb eec0
000001a0: 0080 a440 b7b3 92c0 d2dd e03f 7c58 f540
000001b0: 816b 2240 d5a6 ef3e 156c dd40 c934 3dc0
000001c0: c9e3 f5c0 17db aabf cd8a 3fc0 2231 12be
000001d0: 2d81 b640 fe87 b0c0 5eb9 90c0 314f 83c0
000001e0: c234 9ac0 3877 4340 0b9a ee3e 4ef3 7f41
000001f0: 5d09 3cc0 485d 6040 e9cd aa40 5e25 64c0
00000200: 26d3 84bf b222 e440 9723 e4c0 fdac 2ec1
00000210: e34a 3d41 e729 553f 5eef 9240 2dbe 32c1
00000220: 1818 d440 9306 f5bf 65e2 9840 3ad2 02c1
00000230: ad47 bcbf 0821 c8c0 75d9 19c1 62a7 6fc0
00000240: ccb2 823f ac85 eb40 54e3 5b3f dae1 6ebe
00000250: c33b 6c40 2046 3b40 14c6 ca3f 2573 d540
00000260: 53ba 89c1 bc20 6f3f c462 9340 617f 87c1
00000270: 42a0 01c0 9100 38be 86cf 0940 c054 063f
00000280: beac eebf 4e6f e4bf 5f6b 123f 6ccb 8cc0
00000290: 1502 4840 482f b8c0 95bf 3c40 056f 24c1
000002a0: 5c57 fa3e 33fa 89c0 bdb7 9540 15d4 0bbf
000002b0: f6ba 8cbf 531c b0bf dc86 abbf f295 2ac0
000002c0: 6f9b 6b40 76ed 24c0 85ec 65c0 df95 b540
000002d0: 92a4 2640 7641 d940 5e5c 37bf 402d 9dc0
000002e0: b941 2c41 2179 0c40 3ce0 4c40 7da3 eb40
000002f0: 3eca 3540 0b01 10bf 6b80 a740 286a e53c
00000300: 8c05 3ec1 3770 8740 9c3a a93f ad16 49bf
00000310: 9d88 e2bf 2953 a8bf 8c9c cbc0 927a bac0
00000320: 8604 b1c0 a3aa d5c0 2638 c53e 40c4 5b40
00000330: 74f3 74bf 7e07 b240 b075 2740 8fba ce40
00000340: 5ecd c440 eb66 4040 921a f03f db57 33c0
00000350: fc25 dd3f e62e c3c0 d59a 41bf 1ae0 8cc0
00000360: e693 a340 5645 70be 2946 7ec0 3ee2 fbbe
00000370: 1598 2840 43d2 d5bf 6ead 28c0 bda2 1bc1
00000380: fc5e 33c0 3215 8f3d 034d abc0 c322 77bf
00000390: d040 9bc0 301b 92c0 dcae 9bbf fdf8 8940
000003a0: edae b7c0 e44d 19c0 ae49 b5bf 7079 9440
000003b0: 31c9 a53f d8e7 c740 57fd b9c0 698d 0f40
000003c0: 3299 d2bf a839 7240 f9f2 a8bf 0a10 0f40
000003d0: 7372 af40 b3c3 2a3e c0be 2fc0 7576 3b40
000003e0: 4453 eb3f ff75 bd40 eaf4 cd40 02ba 16c0
000003f0: ff14 4c3f e635 38c0 7be2 f8bf e0f0 733f

bias f4 [3]
0.0 0.0 0.0
00000000: 0000 0000 0000 0000 0000 0000

_ei_mask f4 [3]
1.0 1.0 1.0
00000000: 0000 803f 0000 803f 0000 803f

weight f4 [3, 175]
0.06632714 -0.02767823 -0.06765058 -0.101386085 0.03275511 0.0346249 0.032434788 0.02452846
0.03648176 0.04728355 0.04997596 0.035617776 0.026159652 -0.041470885 -0.5006941 0.00731053
-0.50766814 0.045076493 -0.5390394 0.0053181206 0.018455813 0.03057628 0.07728028 0.08084859
0.1154972 0.015096296 -0.019024694 -0.070214 -0.038941942 0.00038108556 0.023445426 -0.03575331
-0.0004415938 -0.005026965 0.06603384 -0.027463531 0.14973527 -0.023407185 0.03584257 -0.0076587917
0.045021124 0.20377009 0.13331904 0.14921136 0.12852372 -0.24097669 0.030153029 -0.13502209
0.0022122245 0.057132468 0.007735133 -0.023195026 0.06176344 0.10181822 -0.023676582 0.016942136
0.05234698 0.014393498 -0.15645444 0.01896917 0.061340332 -0.13322254 0.007149684 -0.051527455
-0.059308074 -0.044315275 -0.1384177 -0.024899444 -0.26252955 0.059909657 -0.014749107 -0.0047646435
0.008384645 -0.01975454 -0.004430147 0.02244613 -0.14215544 0.0051255957 -0.011986609 0.028457215
-0.004963067 0.012786317 -0.03681845 0.035479233 -0.007502438 -0.003624265 0.054840073 0.03267084
0.03576079 0.025610887 0.06749711 -0.051942095 0.01745342 -0.11159801 -0.019702366 -0.012209087
-0.019269703 0.003138311 -9.092357e-06 -0.014161527 -0.052680593 -0.0062691583 -0.020269932 -0.002998856
0.023648506 0.0060618618 0.0019413261 0.031025391 0.008519993 0.016788613 -0.024615446 0.024996804
-0.019848568 -0.0099638235 -0.02667561 0.030909386 -0.021913301 -0.047289588 0.035429265 0.03264445
-0.011732344 0.035402585 -0.0045540906 0.018959673 -0.010099861 0.00065398926 -0.030234555 0.007856758
-0.05416162 -0.070155114 0.017788135 -0.012777849 0.044301305 -0.047638446 -0.015428721 0.14893565
-0.03184222 -0.014231928 0.037997887 -0.04561354 0.02446622 -0.06297632 0.019914227 -0.0013986909
0.024165394 0.019499063 0.05450444 -0.09131983 0.07074652 0.082273185 -0.0078017297 -0.023675956
-0.013091323 0.02281155 -0.020220013 -0.024441462 -0.013994452 -0.027824271 -0.08527653 -0.004224333
0.11029472 0.02172701 -0.014766482 0.0068987967 0.007230897 0.0134419855 0.1288736 0.020404346
0.099049866 -0.02120596 0.042104103 0.021174345 0.025608867 -0.057117943 -0.024051946 0.07450389
0.02337414 -0.0034860768 0.11316085 0.014395698 -0.01197605 0.024423113 0.013277266 -0.06405128
0.01110679 -0.06596557 0.087853864 -0.084552586 0.031092618 0.2919119 0.03678741 0.26856586
0.12586957 0.272381 0.014442005 0.11487248 -0.053208474 -0.002951424 -0.026031526 0.062368143
0.031003304 0.011783914 -0.019770501 0.01644032 0.0073297373 -0.046137597 0.013004979 -0.008772928
0.0052529084 0.0034006848 0.022699906 -0.014114962 -0.034117855 0.014921487 -0.019914385 0.011419363
-0.0016238634 -0.03896108 -0.2966929 0.011861218 0.13641536 -0.14734651 -0.18073712 0.15637656
0.08858742 0.22035222 0.23900075 0.025301812 -0.10076044 0.07755462 0.007855589 -0.038375326
-0.023593176 0.13247424 0.046545345 0.1657355 0.13137937 0.1710465 -0.0114233 -0.0025140285
0.025372377 -0.00598456 -0.011431945 0.20905213 0.05121579 0.0023512763 0.017227957 0.0151107535
0.03591737 -0.02442023 0.020317176 0.04424429 0.019402122 0.066696614 -0.0054046903 0.07216483
00000000: 86d6 873d 75bd e2bc 638c 8abd 82a3 cfbd
00000010: 392a 063d d7d2 0d3d 57da 043d e9ef c83c
00000020: e66d 153d 65ac 413d 98b3 4c3d f2e3 113d
00000030: c44c d63c 60dd 29bd 7d2d 00bf 2c8d ef3b
00000040: 8af6 01bf 21a2 383d 7cfe 09bf a143 ae3b
00000050: a530 973c 1b7b fa3c 2045 9e3d f293 a53d
00000060: cc89 ec3d 7456 773c add9 9bbc 5ccc 8fbd
00000070: 9681 1fbd 70cc c739 9f10 c03c 1072 12bd
00000080: b785 e7b9 3db9 a4bb c03c 873d 33fb e0bc
00000090: 3454 193e 6dc0 bfbc a9cf 123d 9af6 fabb
000000a0: 1268 383d 1ba9 503e c984 083e ddca 183e
000000b0: b99b 033e 98c2 76be 7c03 f73c 3b43 0abe
000000c0: f8fa 103b bc03 6a3d 0077 fd3b 7f03 bebc
000000d0: a9fb 7c3d 1286 d03d 64f5 c1bc 3cca 8a3c
000000e0: c969 563d b5d2 6b3c 9835 20be 3c65 9b3c
000000f0: 0040 7b3d 7d6b 08be e547 ea3b 740e 53bd
00000100: 06ed 72bd ef83 35bd 5fbd 0dbe ebf9 cbbc
00000110: 466a 86be d463 753d 3da6 71bc ba20 9cbb
00000120: c05f 093c 46d4 a1bc c42a 91bb f2e0 b73c
00000130: 3291 11be 9df4 a73b 7b63 44bc 1b1f e93c
00000140: 39a1 a2bb b37d 513c f1ce 16bd ac52 113d
00000150: 03d7 f5bb 1485 6dbb fc9f 603d dcd1 053d
00000160: e879 123d eccd d13c ed3b 8a3d 3cc1 54bd
00000170: 7afa 8e3c 7f8d e4bd db66 a1bc 9f08 48bc
00000180: 7fdb 9dbc 1fac 4d3b 608b 18b7 c005 68bc
00000190: 9bc7 57bd 836d cdbb 210d a6bc 7488 44bb
000001a0: 83ba c13c 95a2 c63b 1874 fe3a f628 fe3c
000001b0: 7197 0b3c 4688 893c 55a6 c9bc 19c6 cc3c
000001c0: 7799 a2bc 4e3f 23bc cf86 dabc ae35 fd3c
000001d0: 8683 b3bc bab2 41bd 471e 113d 30b6 053d
000001e0: 0439 40bc 4d02 113d 7b3a 95bb 5151 9b3c
000001f0: e379 25bc 7a70 2b3a 75ae f7bc a2b9 003c
00000200: 93d8 5dbd 7cad 8fbd 6cb8 913c 2f5a 51bc
00000210: 4975 353d 8820 43bd bfc8 7cbc 9682 183e
00000220: fd6c 02bd 082d 69bc aca3 1b3d 43d5 3abd
00000230: 626d c83c bbf9 80bd 2923 a33c 4754 b7ba
00000240: 81f6 c53c 80bc 9f3c 0c40 5f3d e405 bbbd
00000250: 8de3 903d d87e a83d a7a5 ffbb 14f4 c1bc
00000260: fd7c 56bc 4adf ba3c 71a4 a5bc 7639 c8bc
00000270: fc48 65bc baef e3bc 76a5 aebd 466c 8abb
00000280: 33e2 e13d d8fc b13c 1def 71bc 4d0f e23b
00000290: 29f1 ec3b c63b 5c3c 71f7 033e 0427 a73c
000002a0: a8da ca3d 1fb8 adbc 5a75 2c3d d275 ad3c
000002b0: b0c9 d13c 81f4 69bd 9608 c5bc 7f95 983d
000002c0: 207b bf3c aa76 64bb e0c0 e73d efdb 6b3c
000002d0: 3237 44bc fb12 c83c e488 593c 512d 83bd
000002e0: 41f9 353c f518 87bd baec b33d e829 adbd
000002f0: f2b5 fe3c 7a75 953e 65ae 163d 7781 893e
00000300: f4e3 003e 8675 8b3e 299e 6c3c 4342 eb3d
00000310: 21f1 59bd ae6c 41bb 1140 d5bc bd75 7f3d
00000320: a4fa fd3c 5111 413c bff5 a1bc daad 863c
00000330: 4b2e f03b c7fa 3cbd d612 553c 54bc 0fbc
00000340: 9720 ac3b 06de 5e3b 27f5 b93c 7142 67bc
00000350: 2abf 0bbd 4179 743c 7e23 a3bc 4818 3b3c
00000360: d0d7 d4ba a795 1fbd 22e8 97be 8e55 423c
00000370: 78b0 0b3e 01e2 16be 2713 39be 2d21 203e
00000380: 526d b53d 03a4 613e 9dbc 743e bf45 cf3c
00000390: 7d5b cebd f5d4 9e3d bab4 003c 722f 1dbd
000003a0: 7a46 c1bc 54a7 073e 55a6 3e3d 91b6 293e
000003b0: 5088 063e d026 2f3e cb28 3bbc 66c2 24bb
000003c0: bbd9 cf3c 211a c4bb 0d4d 3bbc c311 563e
000003d0: a6c7 513d df17 1a3b a521 8d3c 1893 773c
000003e0: 181e 133d ef0c c8bc 3570 a63c 8039 353d
000003f0: 33f1 9e3c 3c98 883d d419 b1bb 28cb 933d

bias f4 [175]
0.0 0.0 0.0 0.0 0.0 0.0 0.0 0.0
0.0 0.0 0.0 0.0 0.0 0.0 0.0 0.0
0.0 0.0 0.0 0.0 0.0 0.0 0.0 0.0
0.0 0.0 0.0 0.0 0.0 0.0 0.0 0.0
0.0 0.0 0.0 0.0 0.0 0.0 0.0 0.0
0.0 0.0 0.0 0.0 0.0 0.0 0.0 0.0
0.0 0.0 0.0 0.0 0.0 0.0 0.0 0.0
0.0 0.0 0.0 0.0 0.0 0.0 0.0 0.0
0.0 0.0 0.0 0.0 0.0 0.0 0.0 0.0
0.0 0.0 0.0 0.0 0.0 0.0 0.0 0.0
0.0 0.0 0.0 0.0 0.0 0.0 0.0 0.0
0.0 0.0 0.0 0.0 0.0 0.0 0.0 0.0
0.0 0.0 0.0 0.0 0.0 0.0 0.0 0.0
0.0 0.0 0.0 0.0 0.0 0.0 0.0 0.0
0.0 0.0 0.0 0.0 0.0 0.0 0.0 0.0
0.0 0.0 0.0 0.0 0.0 0.0 0.0 0.0
0.0 0.0 0.0 0.0 0.0 0.0 0.0 0.0
0.0 0.0 0.0 0.0 0.0 0.0 0.0 0.0
0.0 0.0 0.0 0.0 0.0 0.0 0.0 0.0
0.0 0.0 0.0 0.0 0.0 0.0 0.0 0.0
0.0 0.0 0.0 0.0 0.0 0.0 0.0 0.0
0.0 0.0 0.0 0.0 0.0 0.0 0.0
00000000: 0000 0000 0000 0000 0000 0000 0000 0000
00000010: 0000 0000 0000 0000 0000 0000 0000 0000
00000020: 0000 0000 0000 0000 0000 0000 0000 0000
00000030: 0000 0000 0000 0000 0000 0000 0000 0000
00000040: 0000 0000 0000 0000 0000 0000 0000 0000
00000050: 0000 0000 0000 0000 0000 0000 0000 0000
00000060: 0000 0000 0000 0000 0000 0000 0000 0000
00000070: 0000 0000 0000 0000 0000 0000 0000 0000
00000080: 0000 0000 0000 0000 0000 0000 0000 0000
00000090: 0000 0000 0000 0000 0000 0000 0000 0000
000000a0: 0000 0000 0000 0000 0000 0000 0000 0000
000000b0: 0000 0000 0000 0000 0000 0000 0000 0000
000000c0: 0000 0000 0000 0000 0000 0000 0000 0000
000000d0: 0000 0000 0000 0000 0000 0000 0000 0000
000000e0: 0000 0000 0000 0000 0000 0000 0000 0000
000000f0: 0000 0000 0000 0000 0000 0000 0000 0000
00000100: 0000 0000 0000 0000 0000 0000 0000 0000
00000110: 0000 0000 0000 0000 0000 0000 0000 0000
00000120: 0000 0000 0000 0000 0000 0000 0000 0000
00000130: 0000 0000 0000 0000 0000 0000 0000 0000
00000140: 0000 0000 0000 0000 0000 0000 0000 0000
00000150: 0000 0000 0000 0000 0000 0000 0000 0000
00000160: 0000 0000 0000 0000 0000 0000 0000 0000
00000170: 0000 0000 0000 0000 0000 0000 0000 0000
00000180: 0000 0000 0000 0000 0000 0000 0000 0000
00000190: 0000 0000 0000 0000 0000 0000 0000 0000
000001a0: 0000 0000 0000 0000 0000 0000 0000 0000
000001b0: 0000 0000 0000 0000 0000 0000 0000 0000
000001c0: 0000 0000 0000 0000 0000 0000 0000 0000
000001d0: 0000 0000 0000 0000 0000 0000 0000 0000
000001e0: 0000 0000 0000 0000 0000 0000 0000 0000
000001f0: 0000 0000 0000 0000 0000 0000 0000 0000
00000200: 0000 0000 0000 0000 0000 0000 0000 0000
00000210: 0000 0000 0000 0000 0000 0000 0000 0000
00000220: 0000 0000 0000 0000 0000 0000 0000 0000
00000230: 0000 0000 0000 0000 0000 0000 0000 0000
00000240: 0000 0000 0000 0000 0000 0000 0000 0000
00000250: 0000 0000 0000 0000 0000 0000 0000 0000
00000260: 0000 0000 0000 0000 0000 0000 0000 0000
00000270: 0000 0000 0000 0000 0000 0000 0000 0000
00000280: 0000 0000 0000 0000 0000 0000 0000 0000
00000290: 0000 0000 0000 0000 0000 0000 0000 0000
000002a0: 0000 0000 0000 0000 0000 0000 0000 0000
000002b0: 0000 0000 0000 0000 0000 0000

_ei_mask f4 [175]
1.0 1.0 1.0 1.0 1.0 1.0 1.0 1.0
1.0 1.0 1.0 1.0 1.0 1.0 1.0 1.0
1.0 1.0 1.0 1.0 1.0 1.0 1.0 1.0
1.0 1.0 1.0 1.0 1.0 1.0 1.0 1.0
1.0 1.0 1.0 1.0 1.0 1.0 1.0 1.0
1.0 1.0 1.0 1.0 1.0 1.0 1.0 1.0
1.0 1.0 1.0 1.0 1.0 1.0 1.0 1.0
1.0 1.0 1.0 1.0 1.0 1.0 1.0 1.0
1.0 1.0 1.0 1.0 1.0 1.0 1.0 1.0
1.0 1.0 1.0 1.0 1.0 1.0 1.0 1.0
1.0 1.0 1.0 1.0 1.0 1.0 1.0 1.0
1.0 1.0 1.0 1.0 1.0 1.0 1.0 1.0
1.0 1.0 1.0 1.0 1.0 1.0 1.0 1.0
1.0 1.0 1.0 1.0 1.0 1.0 1.0 1.0
1.0 1.0 1.0 1.0 1.0 1.0 1.0 1.0
1.0 1.0 1.0 1.0 1.0 1.0 1.0 1.0
1.0 1.0 1.0 1.0 1.0 1.0 1.0 1.0
1.0 1.0 1.0 1.0 1.0 1.0 1.0 1.0
1.0 1.0 1.0 1.0 1.0 1.0 1.0 1.0
1.0 1.0 1.0 1.0 1.0 1.0 1.0 1.0
1.0 1.0 1.0 1.0 1.0 1.0 1.0 1.0
1.0 1.0 1.0 1.0 1.0 1.0 1.0
00000000: 0000 803f 0000 803f 0000 803f 0000 803f
00000010: 0000 803f 0000 803f 0000 803f 0000 803f
00000020: 0000 803f 0000 803f 0000 803f 0000 803f
00000030: 0000 803f 0000 803f 0000 803f 0000 803f
00000040: 0000 803f 0000 803f 0000 803f 0000 803f
00000050: 0000 803f 0000 803f 0000 803f 0000 803f
00000060: 0000 803f 0000 803f 0000 803f 0000 803f
00000070: 0000 803f 0000 803f 0000 803f 0000 803f
00000080: 0000 803f 0000 803f 0000 803f 0000 803f
00000090: 0000 803f 0000 803f 0000 803f 0000 803f
000000a0: 0000 803f 0000 803f 0000 803f 0000 803f
000000b0: 0000 803f 0000 803f 0000 803f 0000 803f
000000c0: 0000 803f 0000 803f 0000 803f 0000 803f
000000d0: 0000 803f 0000 803f 0000 803f 0000 803f
000000e0: 0000 803f 0000 803f 0000 803f 0000 803f
000000f0: 0000 803f 0000 803f 0000 803f 0000 803f
00000100: 0000 803f 0000 803f 0000 803f 0000 803f
00000110: 0000 803f 0000 803f 0000 803f 0000 803f
00000120: 0000 803f 0000 803f 0000 803f 0000 803f
00000130: 0000 803f 0000 803f 0000 803f 0000 803f
00000140: 0000 803f 0000 803f 0000 803f 0000 803f
00000150: 0000 803f 0000 803f 0000 803f 0000 803f
00000160: 0000 803f 0000 803f 0000 803f 0000 803f
00000170: 0000 803f 0000 803f 0000 803f 0000 803f
00000180: 0000 803f 0000 803f 0000 803f 0000 803f
00000190: 0000 803f 0000 803f 0000 803f 0000 803f
000001a0: 0000 803f 0000 803f 0000 803f 0000 803f
000001b0: 0000 803f 0000 803f 0000 803f 0000 803f
000001c0: 0000 803f 0000 803f 0000 803f 0000 803f
000001d0: 0000 803f 0000 803f 0000 803f 0000 803f
000001e0: 0000 803f 0000 803f 0000 803f 0000 803f
000001f0: 0000 803f 0000 803f 0000 803f 0000 803f
00000200: 0000 803f 0000 803f 0000 803f 0000 803f
00000210: 0000 803f 0000 803f 0000 803f 0000 803f
00000220: 0000 803f 0000 803f 0000 803f 0000 803f
00000230: 0000 803f 0000 803f 0000 803f 0000 803f
00000240: 0000 803f 0000 803f 0000 803f 0000 803f
00000250: 0000 803f 0000 803f 0000 803f 0000 803f
00000260: 0000 803f 0000 803f 0000 803f 0000 803f
00000270: 0000 803f 0000 803f 0000 803f 0000 803f
00000280: 0000 803f 0000 803f 0000 803f 0000 803f
00000290: 0000 803f 0000 803f 0000 803f 0000 803f
000002a0: 0000 803f 0000 803f 0000 803f 0000 803f
000002b0: 0000 803f 0000 803f 0000 803f
